experiments/tcnn-abilities/models/[all] SmallBTCNN_MediumFCNN_1.pth (torch, 621094 bytes, 27 tensors)

btcnn.layers.0.conv1d.weight f4 [27, 27, 3]
00000000: 6b9a d43d c07b dd3d 6226 b03d 2861 8bbd
00000010: 4579 f13d 5883 003e 2b7b 1cbe 2950 973b
00000020: f134 aabc 7458 673d 130a f33c 2646 923d
00000030: de03 0c3d bf86 633d f673 843d 3f2c 98bd
00000040: e048 fc3d 7f1f 52bd d54a 42bc 76ad 7ebd
00000050: cbf4 b2bd 46ec 633d 7485 9fbb 065f 9e3c
00000060: 7340 2dbe f635 d53d 5f60 7fbd c711 fabd
00000070: 8f65 1c3d 5863 a73d bca2 72bd 0aa9 d43d
00000080: 5daf 863b ac80 82bd a254 e5bd acd7 7ebd
00000090: 4329 89bd 48f6 233d 48a6 6fbc 6a2a 373d
000000a0: e3d8 0abe 32e9 ae3d 03f9 773d ee86 f63d
000000b0: 9250 b53c 222b 123e 35c6 cc3c f789 953d
000000c0: a907 b03d c694 adbd 2d40 a6bd 642d 843d
000000d0: e5f5 063e bee6 573d 6572 debc 1482 ecbc
000000e0: cb5f 223d 66a1 c63c 8a27 8bbd d9d6 eb3d
000000f0: 1972 873d 6c18 913d 96bb 88bd 7472 b2bc
00000100: f10a b63d cd65 e53d 105c 5bba 8f91 6d3c
00000110: a9b7 3a3d 566d 65bb cef0 dfbd ef3a bf3c
00000120: fac9 85bd ee55 763c 05de 6e3d a058 e8bc
00000130: f8e1 ccbc 0b06 3ebe 3449 193d 5b70 0c3d
00000140: 030c ac3c d5bb 9cba 31d8 87bd 802d e43c
00000150: 1233 833d a080 ffbd a1ae 5d3c 9f57 5c3d
00000160: a5b2 723d a000 52bd bb8c f3bd 0513 debd
00000170: 1f5e 1f3c 25e0 813d fbfe 00bd 5eaf b8be
00000180: 5a35 083c aac1 e13d 44d6 67bc 1f9a acbd
00000190: b491 603c 1fd8 113e 7157 5bbe 6de5 85bd
000001a0: 7f18 c6bd 7b82 9d3c 7444 963c b4fb b2bd
000001b0: f9e5 16bb 1679 9c3d 6b62 e23c 63e9 27bd
000001c0: 4618 55bb 2a3f 8ebd 333a d0bc df61 7abd
000001d0: 8916 d9bd 4fd9 81bc 1581 c63c fa7a 893d
000001e0: d37a c63d 0f4b b7bd 5c3b a0bd 7aa1 343c
000001f0: 6cdf 0cbe 9e81 b33d 83e5 ec3c e6aa e93b
00000200: d4ab c33d 896e b23d 7684 47be a839 bebd
00000210: 54f9 1a3d 0705 853d 8b9d 42bc d309 1c3d
00000220: 8d84 53bc 007c 2fbe c084 77bd ad17 d03d
00000230: 9780 313d 51cf 9fbd 63c3 babc 35c2 c33d
00000240: 73fb 25be 94b0 693c 9c76 88bc 7b89 f4bb
00000250: a26b 053e f729 693b 5fce a5bd d16c 263d
00000260: 7e44 c2bc bfa8 7f3d 488a 2fbd a764 3c3c
00000270: 663d 853c 3824 0ebe 4f17 e13c b2c0 813d
00000280: b5fe 853d 17f3 67be b011 83bd 6d44 71bd
00000290: 9b96 87bd 6b8e 913d e500 bbbd 501b 913c
000002a0: b810 20bc 4f4c cf3c 1777 903d 7754 23bc
000002b0: 94df 2cbc a146 9c3d 8f03 c03d 6da5 9a3d
000002c0: d89d 73bd dde5 453d 39ca 55bd 358d 68bc
000002d0: da2a 40bd 0d87 ed3c b677 8b3d 1166 c2bd
000002e0: 4641 56bd a8a8 083e f885 22be 5085 b6bc
000002f0: a844 d8bd 7cf3 d43d f78e 7cbd 2104 06bd
00000300: dff3 703c d7da 293d 1785 03bc e003 183d
00000310: 1d9a 9fbd da81 e13d 2fe3 0d3d 0c16 46bc
00000320: 14e4 843d 0630 bebd 5c3a bebc d827 ac3d
00000330: 9cc2 043e 1dd2 05be 5bd1 c43d 13ab 3a3e
00000340: 18e1 4bbd 0ed9 663d 3398 dabd 0b1f 933d
00000350: cb6e f63c 2ec3 e5bc d66a 7a3d 5758 68bb
00000360: 1f5d a3bd 4f5c 9039 46e4 aebc 0455 2a3b
00000370: c599 8dbc 443e 36bd 5f05 07be fcf1 43bd
00000380: c344 aa3c d33e 31be 5730 23bd 02a6 ce3d
00000390: 5d4e 733c 67da 45bd 1a4d ab3c 45bd 3c3d
000003a0: 9f26 4c3d 90cb 5ebd d3b2 2c3d b1f1 e63d
000003b0: 9f67 083e 64fa 893d 0ee6 c13d a3df c7bc
000003c0: 63c4 c3bd d03f 103d fd83 21bd eb11 c1bd
000003d0: d3c6 c1bc b51a da3c 7acb b13d fa70 963d
000003e0: 95ac fabd c3eb a53d ae18 a3bd 3e7e 0abc
000003f0: dd30 473d cabb eb3d 2d72 5a3d 71d0 74bb
0.103810154 0.10814619 0.08601071 -0.068056405 0.117907085 0.12550104 -0.1528136 0.00461771
-0.020777198 0.05648084 0.02966789 0.07142286 0.034183376 0.055548426 0.0646743 -0.07430314
0.12318587 -0.05129957 -0.011858662 -0.062177144 -0.08738097 0.05564525 -0.004868204 0.01933242
-0.16919117 0.10410683 -0.062347766 -0.12210422 0.03818279 0.08173245 -0.059237227 0.10383804
0.0041102604 -0.063721985 -0.11197783 -0.0622174 -0.06697323 0.040029794 -0.014627047 0.044718184
-0.13559298 0.08540572 0.06054021 0.120374545 0.022133145 0.14274266 0.024996856 0.07301705
0.08595211 -0.08475642 -0.08117709 0.0645397 0.13179739 0.052710287 -0.027154157 -0.02887062
0.039642137 0.024246883 -0.06794651 0.11515588 0.06613559 0.07084736 -0.06676404 -0.021783091
0.08888806 0.112010576 -0.00083679054 0.014500036 0.04558531 -0.0035007796 -0.10934602 0.023343531
-0.065326646 0.015035136 0.058317203 -0.028362572 -0.025010094 -0.18556993 0.037423328 0.034286838
0.021001821 -0.0011957834 -0.06633032 0.027853727 0.06406225 -0.12475705 0.013530404 0.0537945
0.0592524 -0.051270127 -0.118920766 -0.108434714 0.00972703 0.0634158 -0.03149317 -0.36071295
0.008313501 0.110232666 -0.014150206 -0.08427834 0.013706613 0.142426 -0.21420075 -0.065379
-0.09672641 0.019227257 0.018343188 -0.08739415 -0.0023025258 0.07640283 0.02763482 -0.04099406
-0.0032515689 -0.06945641 -0.025418377 -0.061128493 -0.10600001 -0.015850691 0.024231473 0.06712909
0.096913956 -0.08949863 -0.07823822 0.011024827 -0.13757104 0.08764957 0.028918033 0.0071309684
0.09554258 0.08712489 -0.19484124 -0.09288341 0.037835434 0.064950995 -0.0118783815 0.038095307
-0.012910021 -0.17137146 -0.060429335 0.10160766 0.043335523 -0.07803214 -0.022798246 0.095585264
-0.16209202 0.014263291 -0.01665812 -0.007462678 0.1302934 0.0035577992 -0.08096003 0.04063112
-0.0237143 0.06241679 -0.042856485 0.011498607 0.016264629 -0.13881004 0.027476935 0.06335582
0.06542722 -0.22651325 -0.06399858 -0.058903147 -0.066205226 0.07107242 -0.0913103 0.017713219
-0.009769611 0.025304941 0.070539646 -0.009968868 -0.010551352 0.07630659 0.09375679 0.07551084
-0.059476703 0.048314918 -0.052194808 -0.014193823 -0.046915866 0.028995061 0.068099424 -0.09492124
-0.052308343 0.13345587 -0.15871418 -0.022280365 -0.1055997 0.103980035 -0.06165978 -0.03271878
0.014706581 0.041468468 -0.008027337 0.03711307 -0.07793067 0.11011095 0.034640487 -0.012090217
0.06488815 -0.092865035 -0.023221187 0.08406037 0.12964863 -0.13068433 0.09610244 0.18229322
-0.049775213 0.056359343 -0.10673561 0.07183655 0.030082127 -0.02804717 0.061137043 -0.0035453045
-0.07976746 0.00027534596 -0.021349084 0.0025990615 -0.017285237 -0.044492975 -0.13185643 -0.047838196
0.020784741 -0.17309122 -0.039841022 0.10090257 0.014850226 -0.048303988 0.020910788 0.04607894
0.04984152 -0.05439335 0.042162728 0.11276568 0.13320778 0.06737211 0.094677076 -0.02439863
-0.09558942 0.035217106 -0.039432514 -0.09427246 -0.023654377 0.026624063 0.08681388 0.07345767
-0.12239949 0.081016086 -0.07963692 -0.00845295 0.048630584 0.11510427 0.053331543 -0.0037355686

btcnn.layers.0.conv1d.bias f4 [27]
00000000: 68db e03c 6592 67bd e28b 6c3d bd08 c43d
00000010: 5035 a63d a724 df3d bb57 be3c 50e5 d8bc
00000020: ef55 49bc 0728 ad3d abf3 9abc 2572 04be
00000030: 2fe2 3a3c a560 95bb 14b7 aa3d c805 dfbc
00000040: b949 9f3d c772 09bd ecc8 013d f3e9 afbd
00000050: a850 b9bd 313f 8abd 0649 0b3d a547 cebd
00000060: a1ef 40bd a94d 02bd fb14 a63d
0.027448371 -0.056536097 0.05775059 0.09571979 0.08115637 0.10895663 0.023235193 -0.026476532
-0.012288555 0.084549 -0.018915018 -0.12934168 0.011406465 -0.00455864 0.08335701 -0.027224436
0.07777733 -0.033556726 0.031685755 -0.08589544 -0.09048587 -0.06750334 0.034005187 -0.10072259
-0.047103528 -0.031812344 0.081094705

fcnn.0.weight f4 [256, 27]
00000000: 8380 023e 3596 273e 6cd9 3d3e 27c9 d13d
00000010: 5a1c 783d 4ef6 69bc 65ec 633d 12e5 ef3c
00000020: efb8 04bc 73a2 323e fe49 5b3e 8f54 6d3e
00000030: 399b e9be 6f23 58be 3d18 dc3d 025c d53b
00000040: 26a6 90bd 2ea2 cdbe 37b2 823e e320 673c
00000050: 5334 f0bc 0039 e3bd 85f8 2cbe d46b 0cbe
00000060: 34b8 103c f0c6 243c 5846 cabc d82d 343e
00000070: 7dc3 543e ad7f bebd a660 4f3e 1127 4f3e
00000080: cc6b 7c3d 625d 13be 0231 e53c 8139 bfbc
00000090: a157 e73d 3e62 ec3d c0b9 3d3e 02e8 2dbe
000000a0: 46b2 f9bd 54e9 f83d 0fd9 543e 674b 2bbe
000000b0: 2b51 2cbe 8221 dc3d 3cdf 303d 0379 4abc
000000c0: 5c5e c7bc 02b5 4fbc 3278 57bd 737d 393d
000000d0: 900d 6cbe 1d6a 2e3e 84a6 d43c a455 893e
000000e0: 7aa9 c6bd 36d3 033e 1564 023e 9e96 be3d
000000f0: 295a 1a3e f82e 523d f091 ddbd ba64 c4bb
00000100: e13e f33d 4cfa 60bd 8d2d a2be 1506 4f3b
00000110: 7c04 4f3d 181e b53d 42b0 ffbd 0021 d9bd
00000120: 6a99 493e 6367 5cbc cdf4 573d 54dd 6abd
00000130: 43b5 92be 3e63 dc3d a0bd 0c3e 1159 80bd
00000140: 8a72 83bd bf6d 693d e78a 723d b093 93bd
00000150: f884 833c ab8e 363e 004b 723c 7aa4 9dbd
00000160: a0f9 5abd 44d5 7a3e e0c2 ad3d 7456 793d
00000170: 3350 683e b479 b1be bbd4 22be ae74 223e
00000180: 5d5a e2bd 3648 26be 323b a8be 7271 5f3e
00000190: 3bc3 5abb ed2e f1bc 476d 9e3c 50c6 a0bd
000001a0: 6c1b 533e 5720 063e fc92 4abe 21ff 51be
000001b0: fa5b 48be e720 ac3d 28f6 36be cf0a e33d
000001c0: 40d4 1d3d 454e 2abe 41c8 ac3d eaa3 dc3d
000001d0: c361 84bd 02c4 5dbe 8734 62be 296d cabd
000001e0: 55db e03e 793c 6b3e 6766 bdbd bc9d aa3b
000001f0: 65b1 fcbd cb39 833c fbde 353d da11 50be
00000200: 3c0c 96bd 5bbe 0ebe e7d4 8f3d 2feb be3c
00000210: 1748 ecbd 03c1 613e b30c 20bd eacb fcbd
00000220: 6838 323c 7229 e5bd 084e 55be 8ac0 1bbe
00000230: 1cce 28be ae78 0a3e 941b 2fbd 29f2 ba3d
00000240: 892d 28be 4a99 2cbe 5391 1e3d 65c9 403e
00000250: 63e2 623e d940 9f3b a7d2 d73d 4ffd e5bd
00000260: a156 46bd 54d7 01be 5702 00be 0ca3 1dbe
00000270: 5f42 56be 4038 30bd 04df 253d ff1e debc
00000280: bd66 383e 08e5 a8bd c8aa 1bbe 8051 673c
00000290: c319 3a3e 5602 5c3d d068 db3d e799 f5bd
000002a0: dc09 8bbc 3ced 613e a830 f93d 6af9 d73d
000002b0: 285d 813d 05c5 c03d e4cb cbbd 07d7 c63c
000002c0: 9099 28bd 8796 e03d 2cb9 34be c880 64bd
000002d0: 6260 4f3e b876 263d 99da c0bc f9af d4bd
000002e0: caea f2bd 3fde 24bc 55ad ec3c 8cbb 01be
000002f0: bc9c e3bd cf33 ae3d 5d63 b5bd 9fb6 a9bd
00000300: ed2d 12bc df45 623e 6081 4a3e 33af 1ebd
00000310: dfe5 f33c f308 b53c 5526 e83d b8a8 fb3d
00000320: 0bc2 773e 4412 25bd be80 acbd 3e02 b23d
00000330: 3aa2 233e ce1f f73c 8d0f 93be c0dc 023e
00000340: 395f 7a3d 1f18 6c3e 647b d1bc 2bf3 81be
00000350: e368 e5bd b214 883d 20bb 44be cdbe bb3c
00000360: 5f4d 913b 3a22 953d 8bb3 3f3e 266a 08be
00000370: 8447 973d efbe fb3b 2939 c13c e5bd 3abd
00000380: fcee 293e 6fd2 07be 6479 183e 5255 113e
00000390: 2139 c0be 8bf4 83bd 3f4d 023e 6d3a 5f3e
000003a0: 81ec 5cbe 8dcb 94be 9f3b 8fbd c2f4 eb3d
000003b0: 7124 9d3d 8c53 b23d d95a 45bb 35fc 3a3e
000003c0: 6df6 a7bc bb1d 50be 6241 803b ad4e 90bd
000003d0: d695 f8bd 7e13 963d ab80 273e aa3b 833d
000003e0: afb6 993c b415 593d d1b9 49be b628 87bc
000003f0: 46f8 debd 8eb1 88be a1ed 37be 7231 9a3e
0.12744336 0.16365893 0.18539971 0.10243445 0.060573913 -0.014279915 0.055645365 0.029284034
-0.008100732 0.17444782 0.21414945 0.23176788 -0.45626238 -0.21107267 0.107468106 0.0065112123
-0.0706294 -0.40162796 0.25526592 0.014106962 -0.029321825 -0.11094856 -0.16891678 -0.13713008
0.00883298 0.010057196 -0.024691746 0.17595613 0.20777698 -0.09301696 0.20251712 0.20229746
0.06162624 -0.14391091 0.02797747 -0.02334285 0.11296011 0.11542176 0.18527889 -0.16983035
-0.12192206 0.12153879 0.20785926 -0.16727982 -0.16827838 0.107485786 0.043181643 -0.012357953
-0.024336986 -0.012677433 -0.05260486 0.045285653 -0.23052049 0.17032667 0.025958307 0.2682315
-0.09700294 0.1287354 0.12733491 0.09306072 0.15073456 0.051314324 -0.10818851 -0.005993453
0.118772276 -0.0549262 -0.31675377 0.0031589319 0.050541386 0.088436306 -0.124847904 -0.106019974
0.19687429 -0.013452384 0.052723695 -0.05733998 -0.28653917 0.107611164 0.13744211 -0.06266988
-0.06418331 0.056989428 0.0592145 -0.072059035 0.016054615 0.17827861 0.014788389 -0.07697387
-0.053460717 0.24495417 0.08484435 0.060873464 0.22686844 -0.34663165 -0.15901463 0.15864822
-0.11052392 -0.16238484 -0.32857662 0.2182062 -0.0033380527 -0.029441321 0.019339217 -0.07850325
0.2061593 0.13098274 -0.19782633 -0.2050748 -0.19566336 0.08404713 -0.17867339 0.11086046
0.038532495 -0.1663142 0.08436633 0.107734516 -0.06463959 -0.21656802 -0.2209035 -0.09884102
0.43917337 0.22972287 -0.09248047 0.0052067917 -0.12338523 0.016018769 0.044402104 -0.2031931
-0.07326552 -0.13939802 0.0702303 0.023305504 -0.115371875 0.22046284 -0.03907461 -0.12343581
0.010877706 -0.11189546 -0.20830548 -0.15210167 -0.16484874 0.13522598 -0.04275091 0.0912822
-0.1642362 -0.1685535 0.03871281 0.18826826 0.22156672 0.0048600254 0.105382256 -0.112299554
-0.04842246 -0.12679797 -0.12500893 -0.15394229 -0.20923756 -0.043022394 0.040495887 -0.02711439
0.18007942 -0.08246809 -0.15201867 0.014118552 0.1817389 0.053713165 0.10713351 -0.11992245
-0.016972475 0.22063154 0.121674836 0.10545619 0.06316596 0.094125785 -0.099509984 0.024272455
-0.041162074 0.10966211 -0.17648762 -0.055786878 0.20251611 0.040640563 -0.023541735 -0.103851266
-0.11861189 -0.010062753 0.028891245 -0.126692 -0.11113879 0.085059755 -0.08856843 -0.08286785
-0.008922082 0.22096966 0.19775915 -0.0387413 0.029772697 0.022098994 0.11335436 0.1228804
0.24195115 -0.040300623 -0.08422993 0.08691834 0.15979853 0.030166533 -0.28722802 0.12779522
0.061125968 0.23056076 -0.025571533 -0.25380835 -0.11201646 0.06644572 -0.19212008 0.02291813
0.004434272 0.07281919 0.18720834 -0.13321742 0.073866874 0.007682673 0.023586826 -0.045591254
0.16595072 -0.13263868 0.14890057 0.14192703 -0.37543586 -0.06443127 0.1272478 0.21799631
-0.21574594 -0.29061547 -0.06993794 0.11521293 0.07672966 0.087073416 -0.0030113964 0.18260272
-0.020503247 -0.20323841 0.0039140442 -0.07046256 -0.12137954 0.073279366 0.16357677 0.064078644
0.018763868 0.052999213 -0.1969979 -0.016498905 -0.10887198 -0.26697963 -0.17961742 0.3011585

fcnn.0.bias f4 [256]
00000000: 6804 1fbe c3da b6bc fc0c bc3c 1a88 ee3d
00000010: 8b38 173e f68e 49be 9283 e7bd ddca 3a3d
00000020: 402c 103e 471b 1bbe 38a0 f9bd 0d16 2c3e
00000030: b775 f7bd f6de cf3d 0c0c 9a3d 0b69 113e
00000040: 7fb3 2b3e c034 bfbd b521 37be 3f80 563e
00000050: cd71 40bc e84c f93d 48eb fe3d cb5e 163e
00000060: f503 193e 9896 d93d c0b8 263e f36f 083e
00000070: 644b 92bd 4f05 03be f384 f3bd 8093 1ebe
00000080: e25c d5bd 8f2a b23d afaa 62bd 9980 073e
00000090: c1fc 25bd ba27 ccbd 0666 353e 5127 023e
000000a0: a4d3 9fbd ff87 82bd 9c8a 20be d5f0 fa3d
000000b0: 8e4f e73b c6a2 dd3c fa94 37bd 7626 303d
000000c0: d5f7 20bd b518 66bc 7ef0 a23c 676c 07be
000000d0: 814d 203e a2d8 9ebc e3af 803d 2576 59bd
000000e0: 4651 efbd 9ecf 8cbd 5aea e8bc 9f28 3c3d
000000f0: b935 2cbe 75ed 2e3e fa89 9fbd 0689 eebd
00000100: 7440 cd3d 0601 13be 8800 11be e8cf 0abe
00000110: fc3e 603d 1140 b2bd a50c 103e 2d63 1b3e
00000120: 1992 673c 885f 983d 396e c0bd d2b3 423e
00000130: 8bd0 0a3e 748b 363e 2bcf dabd f9f2 db3d
00000140: 6714 2f3e e4c5 adbd 13bb db3d 8918 ccbd
00000150: 75ae b9bc a8a6 e5bd c710 2ebe 2329 1abe
00000160: 0e31 d3bd 6160 08bd 99a8 5abd 465d bd3d
00000170: 682c 8e3d d368 fdbd 80c0 c73d 85bf 893d
00000180: 8bc1 373d 686f aa3c 7af0 dabd 93fc 0cbc
00000190: 1c2c a13d 60a9 32bc 6d7f 33be 743c 923d
000001a0: 820c b8bd f85e cdbc 9a76 1bbd 0170 cf3c
000001b0: 3b30 39bc 12ce 2dbe 3321 053e 3175 0abe
000001c0: 2858 1c3e f376 2a3e 3cb3 973d 3aee 773d
000001d0: e9c6 1c3e c12f b3bd 2579 15be c35b 293e
000001e0: 95eb 34bd e456 873d 55df 01be 81f8 243c
000001f0: 6720 1dbe d7e1 cfbd 2e6a 253e 7f73 a43b
00000200: 9276 453d f6c8 16be f2b6 413e 8040 553d
00000210: c6fd 273e 7bc3 f4bd 0fcb 88bd d879 46be
00000220: a6f1 b73d 9379 c8bd 173b c03a 0ad3 83bd
00000230: 86b4 b2bc cf0c 4bbd 9f12 2bbd d2d2 e73d
00000240: bbba 193d e0ab 333e 7910 bd3c 0d7f 163e
00000250: 1736 f6bd 8e3b 8a3a 89f7 413e 7df1 2cbd
00000260: cf4a bcba 321f ffbc d6fe debd fde1 533e
00000270: 1146 07be 65c9 2dbe b2af 9dbd b0aa 14be
00000280: ea16 c2bc 4762 3a3c 6afb 2c3e fcf3 ebbd
00000290: 64c6 dbbd b74a 643e af14 debd 42f4 673d
000002a0: 84f0 5d3e c853 27bd 55c7 a1bd dcb0 203e
000002b0: bf41 b03d fd22 633e 381f 47be 3d17 a63d
000002c0: 1e86 3ebe 4b26 27be 6509 0cbe 63e3 ce3d
000002d0: d89f e7bd c718 eabd b0e8 82bb e89a a1bd
000002e0: badc 323e 2ca7 41be 1b0a f83a 5d56 67bc
000002f0: 3730 be3d 1617 9f3d 6215 c7bb 1d41 45bd
00000300: a28f 873d e745 f43d f9c7 093e 0573 24be
00000310: aab3 acbd 1b48 623d c25a 8b3c 06d7 6c3c
00000320: 5bd4 7dbd da26 1dbe a7ff 20bd 8d05 6dbd
00000330: 26bc 08be 1cd2 e43d 4c42 f73d c93d 213e
00000340: f31a 15bc 30de b5bc ebf2 2c3e 6d38 4abc
00000350: a4da 383e 14c3 be3d 77e4 a2bd 0028 4c3d
00000360: c206 723e 6a61 bfbd dffe 25be ca7b d33d
00000370: e10b 96bd 6573 163d 3712 833d e1ae 13bd
00000380: cfe8 923d 1191 953d 5df7 2fbd 989b abbd
00000390: c3dd 1fbe ceba 5f3e 2627 4e3d 17a6 4dbd
000003a0: 39a0 b53d 3db3 c7bd 45b5 fcbd c4a3 013e
000003b0: 4357 c2bd 8cf4 463e b3bc 3fbd e6ab 4ebe
000003c0: d180 2ebe 6cd6 dcbd 9900 103e 34c1 433e
000003d0: 2d04 2f3e ace5 b03d 0ad1 c2bd a2a9 8d3d
000003e0: ad0d d6bc 8ef4 c53d 66a3 6c3e abbe 2ebe
000003f0: bd3e df3d 9cc8 03bc eda9 13be bee3 003d
-0.15529025 -0.02232111 0.02295541 0.11647053 0.14767663 -0.19683442 -0.11304392 0.04560362
0.1407938 -0.15147124 -0.121887624 0.16805287 -0.12082999 0.10149948 0.07521829 0.14200227
0.16767691 -0.09336233 -0.17883952 0.2094736 -0.011745882 0.12172872 0.1244722 0.14684598
0.14942916 0.106244266 0.16281414 0.13323955 -0.07143286 -0.12794994 -0.118905924 -0.15485954
-0.104181066 0.08699524 -0.055338558 0.1323265 -0.040524248 -0.09968515 0.177147 0.1271031
-0.07804039 -0.063735954 -0.15677875 0.12252966 0.007059044 0.027055155 -0.04481981 0.04300543
-0.03929885 -0.014043977 0.019890066 -0.13224946 0.15654565 -0.019390408 0.06283548 -0.053091187
-0.116854236 -0.06875537 -0.02843206 0.045937177 -0.16817369 0.1708277 -0.07789989 -0.11647229
0.10022059 -0.14355859 -0.14160359 -0.13555872 0.054747567 -0.08703626 0.14067324 0.15174551
0.0141339535 0.07440096 -0.09396023 0.19013909 0.13556115 0.17826635 -0.106840454 0.10739703
0.17097627 -0.0848501 0.10729041 -0.09965617 -0.022666195 -0.11213428 -0.16998588 -0.15054755
-0.10312091 -0.03329504 -0.053383444 0.09246306 0.069420636 -0.12373509 0.09753513 0.067259826
0.04486231 0.020805076 -0.106903985 -0.00860514 0.07869741 -0.01090464 -0.17529078 0.07140437
-0.08986761 -0.025069699 -0.037954904 0.025321962 -0.011303003 -0.16973141 0.13000946 -0.13521267
0.15268004 0.16646938 0.07407233 0.060529925 0.15310253 -0.08749343 -0.14596994 0.1653891
-0.04416998 0.0660837 -0.1268285 0.010069014 -0.15344392 -0.101504974 0.16153786 0.005018651
0.04820878 -0.14725098 0.18917444 0.052063465 0.164054 -0.119513474 -0.06679355 -0.19382417
0.08981638 -0.097888134 0.0014666048 -0.06436737 -0.021814596 -0.049572762 -0.041765805 0.11319508
0.037531596 0.17546034 0.023079144 0.14696904 -0.120220356 0.0010546313 0.18942083 -0.04222249
-0.0014365556 -0.031142805 -0.1088845 0.20691676 -0.13210322 -0.16971357 -0.07699527 -0.14518237
-0.023692567 0.01137597 0.16892782 -0.11521146 -0.107311994 0.22294126 -0.10843789 0.056629427
0.2167378 -0.040851384 -0.07899348 0.15692466 0.0860629 0.22181316 -0.19445503 0.08109901
-0.18605849 -0.16323201 -0.13675459 0.10101964 -0.11309785 -0.11430507 -0.0039950237 -0.07890874
0.17467013 -0.18911427 0.001892391 -0.014119712 0.0928654 0.07768075 -0.006075547 -0.0481578
0.06619193 0.11927395 0.1345519 -0.16059501 -0.08432706 0.055244546 0.01701105 0.014455562
-0.061970096 -0.15346852 -0.03930631 -0.05786662 -0.13353023 0.11172888 0.12073192 0.15746225
-0.0091006635 -0.022200674 0.16889541 -0.0123425545 0.18052155 0.09314552 -0.079537325 0.049842834
0.2363539 -0.09344752 -0.16210507 0.10326345 -0.073264845 0.036731143 0.063999586 -0.03605545
0.07173311 0.0730306 -0.042960513 -0.083792865 -0.15611939 0.21848604 0.050330304 -0.050207224
0.08868451 -0.09750984 -0.12339262 0.12660128 -0.094893 0.19429225 -0.046810817 -0.20182762
-0.17041327 -0.10783085 0.14062728 0.1911667 0.17091437 0.086375564 -0.09512527 0.069171205
-0.026129568 0.09665786 0.23109207 -0.17064922 0.10900638 -0.0080434345 -0.1442029 0.031467192

fcnn.2.weight f4 [128, 256]
00000000: b162 093e 1811 c33d 4fd1 ce3d 927d f33d
00000010: ee4a 90bc 45db bcbb bc86 693d f067 b1ba
00000020: 8e65 99bb 63a7 d7bd 4415 3fbd 5669 04bd
00000030: 656d a2bc 835f 08be 7aa7 7fbd 4557 dd3c
00000040: 40f3 a73a a81c a6bd 0d60 803e 1939 8cbd
00000050: e6be 6bbb 2027 8d3d ab18 793c 5007 a53d
00000060: 8f6d d73d 7614 773e 4dff a73d 8c9f 8a3d
00000070: 31d3 523e 1752 943e ab30 11bd 4acf 8bbc
00000080: d9fc 9a3d 7b90 9bbd 6bb0 39bc 766e dc3d
00000090: 9a0e 9dbd e532 12be 05b9 d33d f161 153c
000000a0: c051 9a3b decd 063e 8083 af3d bdad b03d
000000b0: bc07 bdbd 25dc 94bd 2cfc 17bd f9e7 d5ba
000000c0: eff4 7f3d aeeb bebd 391a 9c3d e06c 9d3d
000000d0: b57a 103e 183d 2bbd c6c4 5ebd de3f 85bd
000000e0: 16ac 39bd 69b3 a8bd 3264 063d 896a 0f3b
000000f0: ddcc 89bc 7245 c43d 4766 c3b7 7f7c b3bd
00000100: 21d6 b3bd 7b33 0f3e 9540 733d 27e6 83bd
00000110: efbe 2fbd 67e4 473d 058b 47bd d70e a8bb
00000120: 9547 2dbe 296f ec3d bfce cc3d 534a d23d
00000130: da5d c73d da3e 60bd 505a a83b a4ec a63c
00000140: 0aec ed3d 3d8d 1fbd 2bdd 10be 08f3 6cbd
00000150: e942 d23c 7286 2a3e c37a 8cbd ce18 04bd
00000160: 31ea 5b3e 7737 3a3d d172 013e f426 17be
00000170: 9f19 b4ba 7607 96bd 5f83 91bd 1ad0 df3c
00000180: e1fd d2bd 8522 65bd f647 ad3d e00f debd
00000190: 5cbe ccbd e032 7b3b d045 fa3b 61d4 f33d
000001a0: 2fb4 c73c 0902 f5bc 5684 063e 9a3a 283e
000001b0: 50cc 54bc 7967 99bc 3782 19bb bf1e 363c
000001c0: d3b2 a23d 9542 0c3d 47cd a6bb a11e 22bc
000001d0: 5594 7cbd 3a9c cabd eae9 8cbc 5476 8a3d
000001e0: f588 bc3d d8e8 0fbe 0f32 e63d 7ec0 703d
000001f0: 8bfb 363e 0e19 35bc ab73 883a 9792 c7bc
00000200: e4dd 0f3c 76f8 bc3d 4777 353d 638e db3d
00000210: b245 71bd f3c8 5abd 4f54 b4bc 1e1e 89bd
00000220: 031b 06bc d696 cbbd 981b b83d 6535 adbc
00000230: f3c7 8a3d 3e4a a73b 1821 873d de53 c43d
00000240: 53bf b43c 0f14 c0bd 06fd 3c3d 8ce1 983c
00000250: 05cb 32bd fab9 c43d 14ce d2bd d348 27bd
00000260: b61c b83c fe54 0b3d 4b64 ab3c 2037 41be
00000270: 1812 82bd 4cdc 39bb c889 873d 69d5 26bd
00000280: 25fa 49bd 6a31 bbbd fdb4 1cbd 1f6f 74bc
00000290: cf47 863d 26d4 fdbd 3356 803c d073 d9bd
000002a0: 0966 b5bd 4d66 a63d e407 933d 9d03 923c
000002b0: 7e12 8e3d b95e a9bd 5d05 1f3e 8198 773d
000002c0: 7fd8 453c 54ad d8bc 8bf0 d1bc 843f 28bc
000002d0: 2845 013e de9a b6bd 7605 bcbd adf4 cabd
000002e0: 3c5f 5cbc 0ae2 a8bc 92df 7a3c 45e6 a93a
000002f0: 3e88 c9bd 1b1c ff3b 2c8e 573e fbbc 313e
00000300: 679d f0bd b9f4 7d3d 9879 b13d 7123 d93d
00000310: 576e 1abd 4486 e13c 6f63 a1bd 6c72 993c
00000320: 67bd 24be 97a1 c1bd f638 93bd 2326 97bd
00000330: 2c74 2f3d 621a aebd 2115 453c 5339 103e
00000340: 2553 50bc e81e f83b efd4 a6bd 372f eebc
00000350: 3ae6 443c 7e72 8cbc cf42 9c3a 3784 3fbe
00000360: 535c e0bd 6ff4 27be a22d 5cbb d5fc c83d
00000370: 2bdc 293e 2965 cd3d e28c db3d 886e 523c
00000380: 920c eabd e40c 563e 90c6 9ebd e331 5cbd
00000390: 99cc d9bc 5a19 2abd 2adf 55bc efc2 f33b
000003a0: 28b9 b53d 6da3 ef3d 057f 9a3c 19f0 d2bc
000003b0: d27f b0bd 94cf 9f3d 2762 e73d a69c 613e
000003c0: d61b cdba 1b3b 41bd bc10 02bd ad5b 43bd
000003d0: 5726 89bb 05b4 193c 1c9d 0b3c 1b9d cd3d
000003e0: 24cd c83d 34e8 c4bb 9bd9 03be 7334 84bd
000003f0: 8724 fb3d b36e fa3c 8151 a3bc 1218 1ebe
0.13416554 0.09524745 0.10098516 0.11889185 -0.017613854 -0.0057634437 0.05701326 -0.0013535004
-0.0046812957 -0.10529973 -0.04665114 -0.03232702 -0.019827554 -0.13317685 -0.062415577 0.027019152
0.0012813583 -0.081109345 0.2507328 -0.06846828 -0.0035971939 0.06892228 0.015203635 0.080580354
0.105189435 0.24128899 0.08202992 0.067687124 0.20588376 0.2896888 -0.035446804 -0.017066617
0.07567758 -0.07595917 -0.011333565 0.10763256 -0.07668801 -0.14277227 0.10338024 0.009117589
0.0047094524 0.1316447 0.085700035 0.08626888 -0.09229991 -0.07268552 -0.037105724 -0.0016319744
0.062489446 -0.09322296 0.07622189 0.07686782 0.14109309 -0.04180631 -0.054386877 -0.06506322
-0.04533013 -0.08237345 0.032810397 0.0021883568 -0.01682132 0.09583558 -2.3293438e-05 -0.0876398
-0.08781076 0.13984482 0.059387762 -0.064403825 -0.042906698 0.048801806 -0.048716564 -0.005128722
-0.16921838 0.115446396 0.10000371 0.102680825 0.09734698 -0.05474744 0.005137719 0.02037651
0.116172865 -0.038953055 -0.14146869 -0.05784896 0.02566667 0.1665285 -0.068593524 -0.032250218
0.21476056 0.04546305 0.12641455 -0.14760953 -0.0013740546 -0.07325642 -0.07105135 0.02732091
-0.1030233 -0.055941124 0.08460991 -0.10842872 -0.09997246 0.0038329884 0.007637717 0.119057424
0.02437791 -0.029908197 0.1313642 0.16428605 -0.012988165 -0.018726097 -0.0023423561 0.011115729
0.07944264 0.034243185 -0.005090389 -0.009894998 -0.061664898 -0.09893079 -0.017201383 0.067608505
0.0920581 -0.14053667 0.11240017 0.058777325 0.17869394 -0.011053337 0.0010410448 -0.024361892
0.00878093 0.09227078 0.044303205 0.107205175 -0.058904357 -0.053414296 -0.022012858 -0.066951975
-0.008185151 -0.09940879 0.08989638 -0.021143625 0.067764185 0.005105286 0.06598109 0.09586309
0.022063887 -0.09378826 0.04613974 0.018662237 -0.043650646 0.09605785 -0.102932125 -0.040840935
0.022474628 0.0340166 0.020921847 -0.18868685 -0.06351107 -0.0028360067 0.066180766 -0.040730868
-0.049310822 -0.09140284 -0.03825854 -0.014919071 0.06556665 -0.1239398 0.015666103 -0.106177926
-0.08857352 0.08124981 0.071792394 0.017823989 0.06937121 -0.0827002 0.1552939 0.060448173
0.0120755425 -0.026449837 -0.025627395 -0.01026905 0.12624037 -0.08916257 -0.09180729 -0.099099495
-0.01345044 -0.020615596 0.015312092 0.0012962302 -0.09840439 0.007785333 0.21050328 0.17357247
-0.11748772 0.062000964 0.0866577 0.10602463 -0.037702885 0.027529843 -0.078802936 0.018731318
-0.16087876 -0.09454649 -0.07188599 -0.07380321 0.0428354 -0.08501126 0.012028963 0.14084367
-0.012715136 0.0075720437 -0.081460826 -0.029075248 0.012017781 -0.017144438 0.0011921766 -0.1870278
-0.109551094 -0.16401838 -0.0033596535 0.09813849 0.16587894 0.100290604 0.10720231 0.0128437355
-0.11428179 0.20903355 -0.077527165 -0.053758513 -0.026586818 -0.041528083 -0.013053695 0.0074390094
0.088732064 0.11701093 0.018859396 -0.025749253 -0.0861813 0.07803264 0.11298018 0.22032413
-0.0015648555 -0.047175508 -0.03175424 -0.04769485 -0.0041854787 0.009381299 0.0085213445 0.10039731
0.098047525 -0.006009126 -0.12875979 -0.064553164 0.122628264 0.030570364 -0.019936325 -0.1543887

fcnn.2.bias f4 [128]
00000000: 31d0 9ebc 04f9 78bd ac18 bb3c 60d0 7c3c
00000010: a338 f8bc 965c 613d b82b ea3c 797f af3d
00000020: 5a91 103d 3c90 60bc 3c8c 39bb ddbc eabc
00000030: a65a 15bd b7b4 6abd c7e5 4dbc b534 46bc
00000040: d581 f13c 8699 6d3d 21fe 333e e71c c93c
00000050: af88 93bc f54e 20bd 83f3 5d3d 8fcf cd3c
00000060: f319 613d 9bec f2bc c0f9 793d 23f3 583b
00000070: f30e 42bb 9462 093c bdbc 003d 67c9 803b
00000080: cc4d 03bb d571 e9bc c46d 0fbb d6c4 943c
00000090: 211a c13c fc93 8b3d 2321 223d e27c 7f3d
000000a0: 0c55 febc 6b14 84bc 9912 1d3d cc95 f13c
000000b0: b614 7abd a70e cb3c 02ce 7dbd 04a1 8d3d
000000c0: 90e2 703d 8720 953d d663 4f3d b7ba 81bd
000000d0: 950c 1abc 5ea6 e53b 7b52 813d 4c29 41bd
000000e0: c6ab a7bc 2925 eb3c 0542 0a3d 0324 0e3d
000000f0: fa60 4d3d 2c4f 16bd 455b 9e3c 9916 293d
00000100: bdc7 0c3d 185d 313d 0eb3 943d 6eab 853d
00000110: 779a 70bd d7c3 243c 123a 633d cad1 3a3d
00000120: be34 963c 0661 a23c e737 6c3c beee 1ebd
00000130: 0c98 813d b545 023d c216 503d 6f0b 1c3c
00000140: 3435 04bd b64d 7dbd ec2f 2e3d ea47 533d
00000150: adcd c53c b12c 3abd fb20 843d 5578 c43b
00000160: 01c1 11bd 9450 d7bb 3f31 2cbd 1dc7 fa3c
00000170: 9426 24bb 538c 0f3d 74ea 803d 9113 46bd
00000180: 936a d13c a3cd 583d f177 f0bb 291f 6abd
00000190: 3a3b 4a3d b80d e23c f165 603d 45b8 4f3d
000001a0: 9309 21bc 7331 8d3c 9f89 983c b70b 0a3b
000001b0: 6aca 2e3d 490f 443d 9082 1cbd e193 5c3a
000001c0: 8229 16bd 8e1e 383c 91a9 43bd 1250 b73c
000001d0: c7c5 4e3d cdd4 693d 7bf7 063d cf4b 2fbc
000001e0: 808f 6dbd 1292 0f3d 36fe ad3c 7a3b 33bd
000001f0: a4be 2a3d ff4d 33bd 150f a83c 4728 9c3c
-0.019386383 -0.060784355 0.022838913 0.01543054 -0.030300444 0.055019937 0.0285853 0.08569235
0.035294868 -0.013706263 -0.0028312346 -0.02865451 -0.036463402 -0.05730125 -0.01256699 -0.012097527
0.029480854 0.05800774 0.17577411 0.024549915 -0.018009512 -0.0391378 0.05418731 0.025123386
0.054956388 -0.029653838 0.061029196 0.0033103905 -0.0029610961 0.008385319 0.031429995 0.003930259
-0.0020035384 -0.028496662 -0.0021885494 0.018160265 0.02357203 0.06815335 0.039582383 0.062374957
-0.031046413 -0.016123017 0.038347814 0.029490374 -0.061054908 0.02478726 -0.061964042 0.06915477
0.058809817 0.07281595 0.05063232 -0.06334441 -0.009402414 0.007008358 0.0631456 -0.047158524
-0.02046765 0.028704243 0.033754367 0.034702312 0.050141312 -0.036696598 0.01933063 0.041281316
0.034370173 0.04330167 0.072607145 0.06526838 -0.05874106 0.0100564575 0.055475302 0.045610227
0.018335696 0.019821655 0.014417625 -0.0388019 0.06327829 0.03180476 0.050802954 0.00952421
-0.0322773 -0.06184169 0.04252617 0.051582254 0.024145925 -0.045452777 0.06451603 0.00599579
-0.035584453 -0.006570885 -0.042039152 0.030612523 -0.0025047408 0.035045933 0.062947184 -0.048358504
0.025563514 0.052930485 -0.007338517 -0.057158623 0.04937289 0.027594432 0.05478472 0.050712842
-0.009828943 0.017235493 0.01862031 0.0021064111 0.042673506 0.04786614 -0.03821045 0.00084143697
-0.03666068 0.011237754 -0.047769133 0.022377048 0.050481584 0.05708771 0.03295086 -0.0106992265
-0.05799818 0.035051413 0.021239381 -0.043757893 0.041685715 -0.043775555 0.020515004 0.019062174

fcnn.4.weight f4 [64, 128]
00000000: e7d5 d7bd 26fc 11bc e160 1a3e e76a ce3a
00000010: da74 1e3e 4236 48bd c81b 36be 48a6 72bd
00000020: a017 043d d913 52bd 9297 0cbe 99e0 5a3e
00000030: 0328 6ebd e7bf 66bd a1eb 3e3e 4cb4 153e
00000040: 4022 8abc bcf7 0bbe 3ff0 02be 8ac3 95be
00000050: 5965 10be 8645 93bd be56 c93d 6ced 8fbd
00000060: ea4a 0bbe f35f 253e 60d4 0dbe 2cb8 1dbe
00000070: d293 193e c83b abbd 6d66 07be f117 cdbd
00000080: 1ce2 58bd a778 c33d d8a1 f83d 25f6 ec3d
00000090: a1d2 89bd 3435 253d 9319 d7bc 1975 93bd
000000a0: 6131 3fbe dd1c 0fbe e611 a8bd 4878 4dbd
000000b0: 0aff 51be bc0c 523e d080 f73d ed69 88bd
000000c0: 0204 e1bd 1d08 03bc 4118 3b3d 6c71 52be
000000d0: a69d 0cbe 7f86 ef3d 95e7 263e 1ae5 293e
000000e0: d371 dabd 745c 67bd 3561 07be 0f6c 26be
000000f0: b0d2 17be 309c 3dbd 212f 3e3e 86c0 53be
00000100: 91a3 05be 2ac6 9fbd fcd3 703d 180d 363e
00000110: 01d5 e9bd a829 333d f642 cd3c 1143 eabd
00000120: abd4 c3ba 150c b4bd 4891 163e d2bc 003e
00000130: ef28 02bc cbe6 9bbd 6049 223e be08 b8bd
00000140: 0bb3 813d baed 3cbe 05e8 543e e8b5 05be
00000150: 9c71 173e c8dc d63d 1a7a 0ebe dcbe 8a3d
00000160: 7e4e 74bd 2e3d 54be 3a4c 303e b70d 43be
00000170: cae4 07be 366d f8bd fd84 8ebd 2550 6fbd
00000180: 3b01 5cbb af03 1cbe ef5f 063e 5064 4e3e
00000190: 38a3 21be 21f3 743e 8798 e03d fe1b 973d
000001a0: 2115 cfbd 0921 b33d 345e c1bc ce95 eabd
000001b0: 05d4 75bd cd16 193e bed2 e5bd a712 5e3c
000001c0: aa0f df3d ac04 bebd fcf3 8cbd 2e50 fe3d
000001d0: ba4b 18be dc9f 14be 4cb3 abbd 8a97 543e
000001e0: df29 f7bc 87d5 68bd b94e c93d 6d1c e63d
000001f0: 6a7c 50bd f906 593e cc09 39be 429c 343e
00000200: 0693 39bc 2ca1 49bd 24b5 2b3e 5f15 3ebd
00000210: 5ce1 353e 4616 933d 4ab0 56bd 399e 4f3c
00000220: a1c7 b0bc 4bf7 8abd 582e a3bd 617c 223e
00000230: ac6c 11bd a59f 05be 2420 b93d bc30 063e
00000240: cde9 59bd 1951 05bd 8168 e2bd e284 69be
00000250: 8cc3 21be 9f5a 0dbe f8b9 443d b80a 55be
00000260: acb5 1cbd 7995 0f3e c0fb 15be fb8c 8dbc
00000270: 12ac 243e 65db 2ebd cfcb 99bd a9f7 19be
00000280: 19e6 9d3d b2ab c53d 2a01 ef3d ea43 4f3e
00000290: bf4d 08be 1986 b4bd 7f1d 5ebd 4cb0 61bd
000002a0: c9f2 8dbc 39fb 33be e30e 62bd e5cb 8ebd
000002b0: 381a 7ebe aeca db3c 7b61 163e 12c4 05be
000002c0: a1ec aabd c1e5 6cbd 0a19 4d3d cbec 23be
000002d0: 8032 dabd 03a7 5e3d bcfa 5f3d 6d24 0e3d
000002e0: 7c4e bcbd faf9 f3bd 9fef afbd 4957 90bd
000002f0: 1397 bfbc 1e86 26be ce08 b33d 2f00 babd
00000300: 3ba8 26be 7df2 84bd cc14 42bc 0f3b 3d3e
00000310: 0c3b 32be 864d 123d 5fe9 ae3d 93c1 0abe
00000320: 93b6 2dbd 00fe 06bd 7928 043e 4a03 2a3e
00000330: cdc8 e3bb 54da 4bbd d7af 323e 7a9d 5abc
00000340: 5520 be3d 8d7e acbd a5c3 243e 4e72 76bd
00000350: 2c41 983d 3fbc ea3d 7faf 88bd 7069 a53d
00000360: 7029 b3bd 86a6 2dbe 4b0d 003e 45ed 17be
00000370: 3997 e2bd 901e dabd 6391 d4bd 26b1 95bd
00000380: 39ec 523d 1233 02be ff3d f03d 5266 443e
00000390: 1d1a 97bc 0d10 c23d 9fb4 4e3e a1c5 66bd
000003a0: bfb6 8fbd 5484 c23c 9d65 34bd c380 ecbd
000003b0: 98fd 893d b07d 1d3d f241 cabd a8ca c1bd
000003c0: b27b 3d3e 9f99 9abd 6b12 29bd 52a5 b73d
000003d0: 9eb1 33be 5fa1 23be 6b33 fcbd 6878 0b3e
000003e0: 0da1 d0bb e385 0bbe 2259 4f3e 43fa 5f3e
000003f0: a174 bf3b f765 833d aedf d7bd 7c41 013e
-0.105388455 -0.0089102145 0.15076019 0.0015748412 0.15474263 -0.04887987 -0.17784035 -0.05924061
0.032249093 -0.05128846 -0.13729694 0.2137474 -0.058143627 -0.056335356 0.18644573 0.14619559
-0.016862035 -0.13668722 -0.12786959 -0.29250747 -0.14101161 -0.07190995 0.09830998 -0.070277065
-0.13602796 0.16149883 -0.13850546 -0.15402287 0.14997795 -0.08361012 -0.13222666 -0.10014332
-0.05295001 0.09544497 0.12140244 0.11570386 -0.067296274 0.04033394 -0.026257312 -0.07200069
-0.1867118 -0.13975854 -0.08206539 -0.050163537 -0.20507446 0.2051267 0.12085116 -0.06660829
-0.109870926 -0.00799754 0.045677427 -0.2055108 -0.13732013 0.11695575 0.16299279 0.16591302
-0.106662415 -0.056484655 -0.13220675 -0.16252159 -0.14826465 -0.04629153 0.18572666 -0.2067891
-0.13050677 -0.07801469 0.058795914 0.17778432 -0.114175804 0.0437409 0.025056344 -0.11438573
-0.0014940699 -0.08791367 0.14703858 0.12572029 -0.00794433 -0.0761238 0.15848303 -0.089860424
0.06332978 -0.1845006 0.20791633 -0.13057673 0.14789432 0.104913294 -0.13913766 0.06774685
-0.05964517 -0.20726463 0.17216578 -0.190482 -0.1327087 -0.12130205 -0.06958959 -0.05842604
-0.003357007 -0.1523578 0.13122533 0.20155454 -0.1578492 0.23920871 0.10966592 0.07378386
-0.10111452 0.08746535 -0.02360449 -0.11454354 -0.06001665 0.14950104 -0.112218365 0.013554252
0.108916596 -0.09278235 -0.06882474 0.12417637 -0.14872637 -0.14514107 -0.083838075 0.20760933
-0.030171333 -0.05684426 0.09829468 0.112358905 -0.0508999 0.21194066 -0.18070143 0.17637733
-0.011326557 -0.04922597 0.16768318 -0.0464071 0.17761749 0.07181983 -0.052414216 0.012672001
-0.021579565 -0.06785449 -0.07967824 0.1586776 -0.03550403 -0.13049181 0.090393335 0.13104528
-0.053201485 -0.032548044 -0.11055089 -0.22804597 -0.15797251 -0.138041 0.048028916 -0.2080487
-0.038259193 0.14021863 -0.14646816 -0.017279139 0.16081265 -0.0426897 -0.075095765 -0.15035881
0.07709903 0.09651889 0.11670144 0.20240751 -0.13310908 -0.088146396 -0.05422735 -0.05509977
-0.017327683 -0.17576303 -0.05518998 -0.069724835 -0.24814689 0.026830044 0.14685623 -0.13063076
-0.08345915 -0.057836298 0.050072707 -0.16008298 -0.10654163 0.054358494 0.05468248 0.034702707
-0.09194657 -0.119129136 -0.08590626 -0.07047898 -0.023387467 -0.16262099 0.08741914 -0.09082066
-0.16275112 -0.064915635 -0.011845779 0.1847956 -0.17405337 0.035718463 0.08540606 -0.13550405
-0.042410444 -0.032957077 0.12906064 0.16602817 -0.0069514276 -0.04976876 0.1744989 -0.013343209
0.092835106 -0.08422575 0.16090257 -0.060167603 0.074343055 0.11461686 -0.06674098 0.08076751
-0.08748138 -0.16958055 0.12505071 -0.14836605 -0.11064 -0.106503606 -0.10379293 -0.07309179
0.05149481 -0.12714794 0.11730575 0.19179657 -0.018445069 0.09475718 0.20186089 -0.056340817
-0.07017278 0.02374474 -0.04404222 -0.11547997 0.06737822 0.038449943 -0.09875859 -0.09462482
0.18504217 -0.07548832 -0.04127733 0.08967079 -0.17548224 -0.15979527 -0.12314495 0.1362015
-0.006366855 -0.13625292 0.20248845 0.21872811 0.0058427607 0.064159326 -0.105407104 0.12622637

fcnn.4.bias f4 [64]
00000000: 5ff9 dabd 0cfb dabd 8649 c7bd be0a 0ebd
00000010: c748 e9bd b658 5f3d 2a28 853d c493 023d
00000020: 6604 22bd ac67 dfbd 96d7 c5bb 3643 d6bc
00000030: a191 8cbd 28fd 8abc ba92 003d 9c59 25bd
00000040: 705d 2b3d 8ce3 67bd 80b5 df3d b3bd 193c
00000050: c0cd a53c 7e6a 6fbd dba6 4e3d 4b20 0cbd
00000060: a79f dcbd beda f7bc b7a8 febd 5ac3 823c
00000070: e371 c63c 52f3 773d 7768 2b3b 82b0 953d
00000080: 6c60 943c 3d53 503c cc0b 60bb d7ae a4bd
00000090: bca8 99bd 04ba ecbc cd28 0c3c 4523 1f3b
000000a0: a934 c4bd 93b2 a0bd c909 0abd b565 5dbd
000000b0: 7855 0abe ab8b ca3b bc4d c2bc 6e6c 563c
000000c0: e252 14be e84a 25bd 9a67 16bd 2de0 5fbd
000000d0: 4ce4 d03d 7a2b 8c3c 8f32 1e3d 70e8 183d
000000e0: 3a9c 93bd 3207 f6bd 52c9 0abd 0e94 893d
000000f0: 24c6 39bd 23ed 55bd fc54 f73c f3fa a23c
-0.10692095 -0.10692415 -0.0973082 -0.034678213 -0.11390834 0.05452796 0.06501801 0.0318792
-0.039554976 -0.10908446 -0.0060376627 -0.026155096 -0.06863714 -0.016966417 0.03138993 -0.04036866
0.041837156 -0.05661349 0.1092329 0.009383607 0.02023971 -0.05845117 0.050452095 -0.034210484
-0.10772639 -0.030255672 -0.124345236 0.015962292 0.024224227 0.060534783 0.0026154795 0.07309057
0.018112384 0.012715158 -0.003418672 -0.080411606 -0.07502887 -0.028897293 0.00855465 0.0024282497
-0.09580357 -0.0784656 -0.033700738 -0.054052074 -0.13509166 0.0061812005 -0.023718707 0.013087375
-0.14484742 -0.04035464 -0.036719896 -0.05465715 0.10199794 0.017110575 0.038622435 0.037331045
-0.07207532 -0.12013091 -0.0338834 0.06717692 -0.045354977 -0.052228104 0.03019189 0.019895053

fcnn.6.weight f4 [1, 64]
00000000: 7732 04be 3378 38be 459e 6abe 27f3 6e3e
00000010: a876 4abe 19e3 633e d68b 5bbe a6e5 463e
00000020: 9217 5abe c8f7 6bbe 514b 533e ce30 753e
00000030: e865 783e 1ae9 523e 38a7 833e 936a 3e3e
00000040: 0a84 283e bbf2 883e 093f 183e 393c 39be
00000050: 9342 07be e521 0bbe 80f1 543e d4a2 febd
00000060: fea0 55be 1ecf 51be 128e 18be 51d8 693e
00000070: b2b1 27be 0168 1e3e 8e7c 83bd fc91 643e
00000080: c63a 0e3e 1862 05be 3b50 09be b802 08be
00000090: 6b41 51be ee2d 1ebe 51ee 9fbd 18d8 28be
000000a0: fb7b 6cbe 6194 a53e 4ce2 863e 61fc 59be
000000b0: 1c0f 14be 0771 38be fdfe 713e ef0d 31be
000000c0: 6e4e 2bbe 78d5 5e3e 89f4 64be 665c 03be
000000d0: bffc 0b3e aab2 713e f2a8 433e d619 3f3e
000000e0: 62b4 363e 0957 76be 85ae 58be 11c7 4ebe
000000f0: 4848 1abe 9143 353e 109b 14be ff3b 36be
-0.12909876 -0.18014602 -0.22911938 0.23334943 -0.19771826 0.222546 -0.21440062 0.19423541
-0.21298054 -0.2304374 0.206342 0.23944399 0.24257624 0.20596734 0.25713515 0.18595342
0.16456619 0.2674769 0.14867796 -0.1808938 -0.1320899 -0.13587148 0.2079525 -0.12433401
-0.20862195 -0.20489165 -0.14897946 0.22836424 -0.16376379 0.15469362 -0.06420241 0.22321314
0.13889608 -0.13025701 -0.13409512 -0.13282287 -0.20435111 -0.15447208 -0.07809127 -0.16488683
-0.2309417 0.32339767 0.26344526 -0.21287681 -0.14458889 -0.18011867 0.23632427 -0.17290471
-0.16729137 0.2176112 -0.22358908 -0.12828216 0.13670634 0.23603311 0.19107416 0.186622
0.17842248 -0.24056639 -0.21160324 -0.20193125 -0.15066636 0.17701556 -0.14512277 -0.17796324

exp_avg f4 [27, 27, 3]
00000000: 9c62 cf40 9d15 9ebf e92e 4d3f f7ef a740
00000010: ff99 a940 de79 3740 47a3 ad40 cddc 93be
00000020: 6b16 c3bf 8efa d040 42a2 7440 9008 f440
00000030: f65a 6640 fcdc 6440 b2a2 0341 0af7 c340
00000040: 78c0 d53f 8ed2 edbf 9a37 08c0 e9e8 a840
00000050: 542b 8540 7ebb 2540 7d66 5a3f f528 473f
00000060: 3bfe 5c40 0877 b53f 6325 e340 96c3 4840
00000070: 67e5 56c0 9d4f dd40 df4f 1340 f398 ec40
00000080: 30d3 46be 0ed1 963f f61e d240 b38a f140
00000090: f12f 9f40 9cea f440 0098 7a40 caf6 0b41
000000a0: 33be cf3e 1987 c73f efa5 583f fdd2 3d3f
000000b0: 2286 f140 ad78 223f 1b04 e140 a761 b740
000000c0: a67c 8b40 27a2 0b40 3778 f240 11da c840
000000d0: 719a dabf 1362 8c3f 78d5 1940 9d36 3541
000000e0: 322f 3f40 dea6 993f b8d8 07c0 fa41 f540
000000f0: a389 1d41 41fd da40 e08f 5441 5ca7 9840
00000100: 0a43 16bf 955a a440 6e00 3f41 0e4b e83f
00000110: 9ed1 c140 ac11 0d40 8590 1540 6750 9c3f
00000120: d0cc a03f 169d 0441 9d1e 9a40 faa3 e540
00000130: b947 2f41 b35c a640 6ef1 e140 c686 913f
00000140: e7c3 9d3f 2919 6a41 dd3c dd3e 8b13 e3be
00000150: ec3c 4c41 a93d 8ec0 947c a9be 6106 aa41
00000160: 127d 92c0 f493 b4be 80e9 2341 c0c8 f540
00000170: 83f3 c6be bbdd 4041 8e98 b03f a4fd 303e
00000180: b6ab 3d41 ba34 7c40 1b61 5cbf aa22 6d41
00000190: 6bbf fe3f 67dc 81bf 1d19 7b40 d610 f5c0
000001a0: 1db8 0abd cb26 8c40 5c77 54c1 aa75 963c
000001b0: 88e1 1241 f8a7 6fbf d48a 63bf 31c9 cb3f
000001c0: 7c54 40c0 b466 a6bd 8c87 3541 94dd f4c0
000001d0: 5452 603f 4bfa ec40 5510 893e dbad 83bf
000001e0: 96b6 8841 a36a 09c0 c430 d03e bbde 3241
000001f0: 323f 6340 c2b9 1cbf adb2 e940 e89f ebc0
00000200: 80e8 45bf 47a6 9d41 2977 8a40 dbac 5d3e
00000210: 67ef 2741 947a aac0 3959 b3be 173f 8841
00000220: 1675 fbbf bbe3 303f c1d0 6d41 d487 95bf
00000230: 835a 40be f33c b140 7471 95bf e53c f1be
00000240: 63a9 1f41 7944 99bf d113 62bf 8334 b941
00000250: b23b 5bc0 9c4a e0be 32eb f340 92d6 99c0
00000260: 6d24 50be 49c2 1341 2c69 be3f ba4d b4be
00000270: b32c b33e 7acc 94bf c20e 28bf e666 3340
00000280: 0375 b740 021c dcbd 4d85 f240 e881 8740
00000290: 0b85 5140 132a ed40 2672 3ebf 95f3 6c40
000002a0: fca0 1840 202c c640 548b bf40 f030 7240
000002b0: 191e 8e40 bd42 9240 5755 de3f 0d1e bfbd
000002c0: ede7 6040 3c35 7540 faa6 0640 c58c a240
000002d0: 6582 56bf 31ec cc40 201b d140 2306 9240
000002e0: 07ac 3e40 fee2 0b40 dcf5 91be af62 8540
000002f0: 38cc ab40 1382 c240 76a8 8a40 08d8 a83f
00000300: 2c4c a840 1370 3740 6547 4140 3c2d 7f40
00000310: 49b1 af40 01a0 c93f 637b 8340 e9b6 1940
00000320: 6a0f 5740 a76a 3640 5d2c 7140 a64c 2140
00000330: 238c 2d3f 9feb da3f fd3d 2440 84c5 0b40
00000340: d3e8 e940 2a0e 7940 6b2a 623f f4cc c73f
00000350: 1b50 c240 f57c 4640 1381 5140 f05d 7d40
00000360: 8a7c 91be c065 9140 d0c8 2940 db00 4140
00000370: 58e1 a340 be64 e13f 54e2 7140 c73c ac3f
00000380: d6de e340 ba40 8b3e 6e26 8540 fd3c 0541
00000390: 2d06 a040 827f 8440 661b d53f 5ef0 4d40
000003a0: 70f8 8440 9656 f63f e84d 1640 8c4d 8e40
000003b0: b703 8f40 6b10 373f fda4 fb40 f4ae 173f
000003c0: 06a4 0041 5579 f63f b377 8e40 6f67 e540
000003d0: 728e 8640 6510 1041 998c 1941 499b 2a41
000003e0: 251a 6440 8693 9d40 79a9 11c0 f33b 8340
000003f0: 0170 f340 dac7 aabf e138 ec40 bc6c 6dbe
6.4807873 -1.2350346 0.80149704 5.2480426 5.3000484 2.8668132 5.4261813 -0.28879395
-1.5241216 6.5305853 3.8224034 7.626045 3.5993018 3.5759878 8.227221 6.123906
1.6699362 -1.8579881 -2.1283937 5.2784314 4.161539 2.5895686 0.85312635 0.7779687
3.453017 1.417695 7.098314 3.1369376 -3.3577516 6.9159684 2.30175 7.3936706
-0.19416499 1.1782548 6.5662794 7.548181 4.974602 7.653639 3.9155273 8.747751
0.40574798 1.5588104 0.84628195 0.7415007 7.5476236 0.63465387 7.031751 5.7306705
4.358966 2.181772 7.5771747 6.2766194 -1.7078382 1.096743 2.403654 11.325833
2.9872556 1.2004049 -2.1226025 7.664304 9.846103 6.843415 13.285126 4.7704296
-0.58696043 5.1360574 11.937605 1.8147905 6.056838 2.2042036 2.3369458 1.2212037
1.2562504 8.288351 4.816237 7.1762667 10.95501 5.198816 7.0607214 1.1369255
1.232541 14.631143 0.43210497 -0.44350848 12.7648735 -4.445027 -0.33102858 21.253115
-4.5777674 -0.3526913 10.244507 7.6807556 -0.3885766 12.054133 1.3796556 0.17284256
11.854422 3.9407182 -0.8608567 14.820963 1.9902166 -1.0145386 3.9234078 -7.658305
-0.03386699 4.3797355 -13.27914 0.018366653 9.180061 -0.93615675 -0.8888371 1.5920774
-3.0051565 -0.08125058 11.3455925 -7.652048 0.8762562 7.4055533 0.26770273 -1.0287431
17.089153 -2.1471336 0.40662205 11.179378 3.5507321 -0.61220944 7.303061 -7.36327
-0.7730789 19.70619 4.327046 0.2164797 10.495948 -5.327463 -0.3502901 17.030806
-1.9645107 0.6909749 14.863465 -1.1682076 -0.18784527 5.53869 -1.1675248 -0.4711677
9.978854 -1.1974021 -0.8831149 23.15064 -3.4255185 -0.43806922 7.6224604 -4.8074427
-0.20326395 9.234933 1.4875846 -0.3521555 0.3499504 -1.1624901 -0.6564752 2.8031554
5.7330337 -0.107475296 7.578772 4.2346077 3.2737453 7.411386 -0.74392927 3.702367
2.3848257 6.1928864 5.985758 3.784237 4.441174 4.570647 1.7369794 -0.093319036
3.5141556 3.8313742 2.1039414 5.079684 -0.83792716 6.403832 6.534561 4.563249
2.9792497 2.1857295 -0.28507888 4.1682963 5.368679 6.078378 4.333064 1.3190928
5.2592983 2.8662155 3.0199826 3.987136 5.4903913 1.5751954 4.108812 2.401789
3.3603158 2.8502595 3.7683327 2.5203032 0.67791957 1.7103156 2.5662835 2.1839304
7.309671 3.8914895 0.88345975 1.5609422 6.0722785 3.1013768 3.273503 3.9588585
-0.28415328 4.5436707 2.6528816 3.0156772 5.121258 1.7608869 3.779439 1.3456048
7.1209517 0.2719782 4.160941 8.32739 5.000754 4.140565 1.6648986 3.2177958
4.155327 1.9245174 2.348505 4.446966 4.4692035 0.71509427 7.86389 0.5925133
8.040045 1.9255778 4.4521117 7.168876 4.2048883 9.004003 9.596826 10.662911
3.5640957 4.924258 -2.2759688 4.101068 7.6074224 -1.334224 7.381943 -0.2318601

exp_avg_sq f4 [27, 27, 3]
00000000: bc0a 9b45 2912 9c45 339d 9945 f9a6 7245
00000010: d198 9f45 c012 9b45 f6ac 1c45 d0ef 8045
00000020: cdb6 5245 7e3f 8745 7a59 8845 83db 9745
00000030: 7906 8545 b438 9145 7285 9045 96ff 4045
00000040: b5f3 a545 f74b 4145 71fc 8245 6d3a 6445
00000050: a073 3045 131d 8745 1f92 7d45 ae94 6c45
00000060: e6da 0445 e5aa 8f45 60e4 3a45 89b2 3045
00000070: 92ab 8a45 2e87 8d45 53c4 5945 c9db 9545
00000080: 1564 7545 244e 6745 fffb 3045 7fb0 4745
00000090: f681 4245 2a6d 8b45 9bba 6a45 5b1a 7c45
000000a0: bd6d 2245 4309 8945 d49f 9745 e2f6 a245
000000b0: cdbe 7645 09fd a045 1c1f 7045 fbf9 9745
000000c0: 2698 9045 e862 4545 ff62 5a45 b52f 9945
000000d0: 914b a045 5bef 8645 56b6 5845 8444 8145
000000e0: ad41 8945 ca42 7f45 b87b 4645 e809 9545
000000f0: c859 8e45 70b5 9545 f157 4345 0b79 6645
00000100: 0e24 9845 18ba a645 43e2 8845 d88d 8645
00000110: de08 8945 6c20 5d45 5dfd 3545 0b1f 6145
00000120: f266 3c45 6863 7a45 cc0f 8e45 7321 6d45
00000130: 157e 8045 bdeb 0d45 1ba2 8245 893f 8445
00000140: 7c9f 8a45 f1ca 8646 39c7 9c44 4be3 4d41
00000150: c858 ae46 46bb 5444 c6fe ac41 8b6e a846
00000160: 311c dd44 08af 1941 bb48 eb45 c766 8b44
00000170: b8d8 d741 5b84 a946 101f a444 99ce 3d3f
00000180: 597d 7246 273b 0f45 d474 6841 0e16 1c46
00000190: 8ce4 fd44 7ee4 2542 0d71 5f45 f27d c844
000001a0: d610 e43f 160a 9146 de48 d444 c28a b340
000001b0: 509d 8f46 25e8 3745 9ac3 7c41 486d 3f46
000001c0: aedc 0345 bae7 6241 5926 5b46 20c1 9944
000001d0: 6c1d 1541 5e8a 5946 33a9 ec44 094a 2442
000001e0: a626 bd46 e79c 6244 b762 fc40 dbe3 8246
000001f0: f3d8 6744 e297 ef41 49d4 9446 d45c d044
00000200: 2f6a 1a42 d195 b546 ec75 2a44 2ebe 5d41
00000210: 595d 9246 9c9e 0b45 fb09 9741 1556 9d46
00000220: abf9 be44 18f9 a240 5432 2a46 a3c4 1e45
00000230: cf2e 7641 e3db 1046 5396 c544 354b e741
00000240: 2137 c845 28b1 e044 debe 9841 748e 6446
00000250: 8b8e 2b45 d6b5 a441 cc8d 2346 4f5b f744
00000260: 6449 0541 92cc 9e46 5747 9744 ac35 8341
00000270: 788b 8046 a2a8 8044 c9f9 9e41 a643 ac46
00000280: 8195 2045 9168 c93f da03 7e44 483d 8c44
00000290: 2cc0 6944 1bd4 bf44 bd7d 8144 fc66 9644
000002a0: 403a 9744 c82e aa44 e519 a644 5eb6 9244
000002b0: adf2 a044 c5e1 ae44 7ad1 aa44 b641 ba44
000002c0: 1102 8b44 b097 ac44 265c 7f44 9520 9044
000002d0: f758 7c44 664b aa44 f83c aa44 390e 7544
000002e0: 0115 8744 4857 c644 b5c3 4944 d2a1 8844
000002f0: 2275 5844 ed9f d344 b4ae 8044 321b 8544
00000300: 21a4 9644 108b a244 b349 9344 661e a144
00000310: 8cb4 7f44 bf2a ba44 cfcf a344 85b9 9244
00000320: 53b7 b444 9fe9 7c44 84e6 6f44 da12 c244
00000330: e355 e544 1690 5644 2347 b544 3896 f844
00000340: d2d6 8444 fc86 c144 7b22 5444 0206 af44
00000350: 9059 a544 1d30 9844 10a0 b044 48dc 8c44
00000360: 5789 7b44 3c03 9944 c91d 9d44 d8f4 9944
00000370: 0068 8744 2366 7b44 f2c4 5b44 4ece 7e44
00000380: e599 9c44 de00 2a44 4e3b 8c44 583d d044
00000390: dbbf ab44 68df 8f44 b151 9844 affc a844
000003a0: 5f52 b044 d4ee 5b44 c592 a144 e73c c644
000003b0: d0fb b844 0333 b644 93f8 cc44 1b10 8a44
000003c0: 37e0 8544 2e82 a144 7cba 9244 e7e9 8645
000003d0: 7e6b b045 1b26 7e45 d74e f245 3baa f545
000003e0: b855 4045 00c6 de45 ea6f 8745 743a 7b45
000003f0: b6d5 cd45 35f5 ef45 060e 9a45 5c5f aa45
4961.342 4994.27 4915.65 3882.4358 5107.102 4962.3438 2506.81 4125.9766
3371.425 4327.9365 4363.1846 4859.439 4256.809 4647.088 4624.6807 3087.974
5310.4634 3092.7478 4191.555 3651.6516 2823.2266 4323.6343 4057.1326 3785.2925
2125.6812 4597.362 2990.2734 2827.1584 4437.4463 4528.8975 3484.2703 4795.473
3926.2551 3700.8838 2831.7498 3195.031 3112.1226 4461.6455 3755.6628 4033.6472
2598.8586 4385.1577 4851.9785 5214.8604 3947.925 5151.6294 3841.9443 4863.2476
4627.0186 3158.1816 3494.1873 4901.9634 5129.446 4317.9194 3467.396 4136.5645
4392.2095 4084.1743 3175.7324 4769.2383 4555.2227 4790.6797 3125.4963 3687.5652
4868.507 5335.2617 4380.2827 4305.7305 4385.1084 3538.0264 2911.8352 3601.9402
3014.434 4006.213 4545.9746 3794.0906 4111.7603 2270.7336 4180.263 4231.942
4435.9355 17253.47 1254.2257 12.867991 22316.39 850.92615 21.624401 21559.271
1768.881 9.605232 7529.0913 1115.2118 26.98082 21698.178 1312.9707 0.7414337
15519.337 2291.697 14.5285225 9989.514 2031.1421 41.473137 3575.0657 1603.9358
1.7817638 18565.043 1698.2771 5.610688 18382.656 2942.509 15.797754 12251.32
2109.7925 14.181574 14025.587 1230.0352 9.319683 13922.592 1893.2875 41.0723
24211.324 906.4516 7.88705 16753.928 927.38983 29.949162 19050.143 1666.9009
38.603695 23242.908 681.8425 13.858931 18734.674 2233.913 18.879873 20139.041
1527.8021 5.092907 10892.582 2540.2898 15.386428 9270.972 1580.6976 28.911722
6406.891 1797.5361 19.093197 14627.613 2744.909 20.588787 10467.449 1978.8534
8.330418 20326.285 1210.2294 16.401207 16453.734 1029.2698 19.871965 22049.824
2569.344 1.5735036 1016.0602 1121.915 935.0027 1534.6283 1035.9293 1203.2183
1209.8203 1361.4619 1328.8092 1173.699 1287.5836 1399.0553 1366.5461 1490.0535
1112.0646 1380.7402 1021.4398 1153.0182 1009.3901 1362.3562 1361.9053 980.2222
1080.6564 1586.7275 807.0579 1093.0569 865.8302 1692.9977 1029.4595 1064.8499
1205.129 1300.3457 1178.3031 1288.95 1022.82104 1489.3358 1310.494 1173.7975
1445.7289 1011.6503 959.6018 1552.5891 1834.684 858.25134 1450.223 1988.6943
1062.7131 1548.2183 848.53876 1400.1877 1322.7988 1217.5035 1413.002 1126.8838
1006.14594 1224.1011 1256.9308 1231.6514 1083.25 1005.5959 879.0773 1019.2235
1252.8092 680.01355 1121.8533 1665.917 1373.9955 1150.9814 1218.5529 1351.8964
1410.5741 879.7317 1292.5865 1585.9032 1479.8691 1457.5941 1639.768 1104.5033
1071.0067 1292.0681 1173.8276 4317.238 5645.4365 4066.3816 7753.855 7861.279
3077.3574 7128.75 4333.9893 4019.6533 6586.714 7678.651 4929.753 5451.92
