experiments/tcnn-abilities/models/[all] NoBTCNN_SmallFCNN_1.pth (torch, 28750 bytes, 9 tensors)

fcnn.0.weight f4 [64, 27]
00000000: 657f 54be 9503 30bd 90fd 813c 7844 9ebd
00000010: e4fa 2ebe ae9b 76be b588 c0bc a093 823c
00000020: 346b 39be 41a8 16be 7bd9 0c3d 87fc 89bb
00000030: 6085 5ebe de06 dc3c 3ab6 ce3d d994 0bbe
00000040: 140b 86bc e9a5 ec3c 8472 1bbd 0ec3 9ebd
00000050: 4d0c b03d 3ff1 06be 51bf f23d f0fd de3d
00000060: 39fc 64be dc5f 643d 3f9c 703d 7a5f 603e
00000070: 8adb f33c 12b9 263e 8ad1 c0bd 01d0 56bd
00000080: 16ab 8cbc 67b4 fe3b 14a2 643d 0e53 013e
00000090: c462 863d ae33 8c3d 8baa 823d f0c1 44bd
000000a0: 1347 f43d 855c 013e 46d2 fbbd d670 223e
000000b0: ce56 213e f82e f6bd e099 943d c828 0c3e
000000c0: ea04 743e 6f10 0e3e 36b0 1e3e db9e 06be
000000d0: bc75 0d3e 709e 6f3e 2e17 643e 8320 2f3e
000000e0: b888 c7bd c645 ca3d 7123 11be 3d84 533d
000000f0: 8641 62bc 1c72 19be 49eb 15be 2af3 263d
00000100: 0b6f 403e 2598 1fbd 5bcd 1dbe 2474 08be
00000110: ac2a dd3d 1d8b 383c 7a9a 24be a12f 053c
00000120: 30c7 0ebd daf5 403e 79cf aebd 3d04 e6bd
00000130: 478b 0b3e bea8 0ebe 703d bb3c 64e5 423d
00000140: 777b 4c3e b551 963d f273 0e3d 3249 77bc
00000150: 18f3 173e b19f cc3d ab2d 9c3d e752 b9bd
00000160: 04b8 edbd 4c32 a63d 08f1 d2bd 9491 403e
00000170: 89fc 6d3d c22a 993d 634a 5f3e 4547 f73d
00000180: 8a07 123e 7782 d73d 99df e5bd b954 183e
00000190: 99fb 0fbe c607 813e 6def aebc add3 363e
000001a0: ead0 ad3d 9c51 4c3d 0105 bbbc e63a 96bd
000001b0: d591 70bd 1a43 f5bc 92f6 dc3d 32f6 1b3e
000001c0: 9f61 363e d061 dfbd abd1 993c 59ca 553e
000001d0: 399f 44bd 80d1 96bd 7801 353e c20d fe3d
000001e0: a577 f4bc e812 3bbc 2056 f6bd eebd 853d
000001f0: 4f7d 333e 1efd c3bd 1f40 8b3d 96c0 2c3e
00000200: 496a 5f3e f7f6 543e cf1c 0e3e 5037 8abb
00000210: ace2 b43d 18d0 283e b03b 15bd 534e 333e
00000220: 301e 2e3d 0af9 21be 03c3 d2bd 537a 86bb
00000230: 0fef f2bd 1f44 653e 8588 d1bc 3301 e03c
00000240: b2f9 6b3e bd38 56b9 09da 2f3e cab6 f3bd
00000250: e543 4f3d 4a31 6fbd 3eab 103e f565 b93d
00000260: 5162 603e f1c1 0ebe 55ce 223a 7034 d73d
00000270: a6bd 2b3e 1d48 d33d a5df 29bb 5da3 483e
00000280: 5c65 f4bc aedd 4a3e aa09 68be c99c 083e
00000290: dbe2 243e ede5 3ebe 5056 c23d 84cb dfba
000002a0: 740f 48bd fc14 19be 8260 dd3c 3cf0 0f3e
000002b0: 269b 40bc 9f99 1d3e 23a9 f63c c07f ae3c
000002c0: 1b05 9abd fe8f 443d b7a4 2bbe 88b7 8dbc
000002d0: 7695 95bd bac9 043e 8955 803d 58b8 4b3d
000002e0: 9b37 d6bd 035a d5bd 838f 11be 8b8c 953d
000002f0: 7030 d43d 70d6 aabd 5a43 883c 0ca8 f6bd
00000300: 958a 15be b5cd 163e b788 4d3e 7d66 e43d
00000310: 4902 123e 55b8 1e3d f5d6 dbbd 4539 c2bd
00000320: a61e 21be 477f fb3d a169 c3bd f7c2 08be
00000330: 2336 2f3e 555d db3d cc1b 5c3d 9a8d 14be
00000340: 4842 c7bd 991b 2d3d 23fd c5bd 209e 2bbd
00000350: 1d76 5ebc 6b88 9bbd 1722 8c3d 5d5f 13bd
00000360: 52d1 35be 1860 c7bd 2531 463c 4c5a 3c3c
00000370: 0b68 b13d 96c3 65be 1c14 d73d 077c c43d
00000380: e4b3 cfbd e33d 683c bf60 33be 95e9 ba3d
00000390: 6906 c6bd 311a 2bbe eef3 4ebe fe66 2abe
000003a0: 7926 f3bd c3bf 023d c358 11be f3f4 2c3d
000003b0: aab0 c93c 398f 8cbe b03a 7a3d 2da7 03bd
000003c0: 6d91 0f3d 907d 63be d069 38bd 1e5c 193e
000003d0: d955 433d 8f6f 293e 1c77 bebd b891 d53d
000003e0: 2717 773e 57bb c8bc a701 eb3d 2852 df3d
000003f0: 53e6 7cbd d74e 0a3e 19d4 063e 68e5 b4bb
-0.20751722 -0.042972166 0.015867978 -0.07727903 -0.17087895 -0.24082825 -0.023502687 0.015939534
-0.18107301 -0.14712621 0.034387093 -0.004211012 -0.21730566 0.026858743 0.10093351 -0.13631
-0.016362704 0.028887706 -0.037951007 -0.077520475 0.08596096 -0.13177966 0.11852897 0.108882785
-0.2236184 0.05575548 0.058742758 0.21911421 0.02976777 0.16281536 -0.094149664 -0.05244446
-0.017171424 0.0077729705 0.055818632 0.12629339 0.06561807 0.068457946 0.06380185 -0.048036516
0.11927619 0.1263295 -0.12295966 0.15863356 0.1575577 -0.12020677 0.07255912 0.13687432
0.2383 0.13873456 0.15496907 -0.13146536 0.13814443 0.23400283 0.22274467 0.17102246
-0.09742874 0.098765895 -0.14173676 0.051639784 -0.013809567 -0.14984936 -0.14640535 0.040759243
0.1879236 -0.038963456 -0.15410368 -0.13325554 0.10799155 0.011263636 -0.16074553 0.008129031
-0.03485793 0.18843785 -0.08535666 -0.11231277 0.13627349 -0.13931558 0.022856444 0.047582045
0.19968973 0.07339803 0.034778543 -0.015093135 0.14838827 0.09991396 0.07625898 -0.090490155
-0.11607364 0.08115062 -0.10299879 0.18805534 0.058102164 0.074788585 0.2180572 0.120741405
0.14260688 0.10522931 -0.112242885 0.14876069 -0.1406082 0.25201243 -0.021354401 0.17854185
0.08487113 0.049882516 -0.022829534 -0.07335453 -0.058732826 -0.029939223 0.10789217 0.15230635
0.17810677 -0.10907328 0.018776735 0.20877971 -0.04800341 -0.07364178 0.17676342 0.12404968
-0.029842207 -0.011418082 -0.12028146 0.06530367 0.1752827 -0.09569763 0.067993395 0.1687034
0.21817888 0.20797335 0.13878177 -0.0042180195 0.08832297 0.16485631 -0.036433876 0.17510347
0.042509258 -0.15817657 -0.10291102 -0.0041039377 -0.11862003 0.22389267 -0.025577793 0.027344322
0.2304447 -0.00020429767 0.17173018 -0.119000986 0.05060186 -0.058396615 0.14127824 0.0905265
0.21912505 -0.1394117 0.00062105554 0.105080485 0.16771564 0.10316489 -0.0025920656 0.19593568
-0.029833488 0.19811127 -0.22659937 0.13341059 0.16102163 -0.18642397 0.09489119 -0.0017074202
-0.048842862 -0.14949411 0.027023558 0.14056486 -0.01175574 0.15390633 0.030109948 0.02130115
-0.07520505 0.047988884 -0.16762052 -0.017299429 -0.07303898 0.12967578 0.062663145 0.04973635
-0.10459825 -0.10417559 -0.14214902 0.07302197 0.10360801 -0.08341682 0.016633678 -0.12043771
-0.14603646 0.14726909 0.20071684 0.111523606 0.14258684 0.03875001 -0.10734359 -0.094835795
-0.15734348 0.122801356 -0.095416315 -0.13355623 0.17110495 0.10711161 0.053737447 -0.14507142
-0.09729439 0.042262647 -0.096674226 -0.041898847 -0.013577965 -0.07594379 0.068424396 -0.035979617
-0.1775563 -0.09735125 0.012096678 0.011496138 0.08662423 -0.22437891 0.105018824 0.09593969
-0.10141733 0.014174911 -0.17517374 0.091265835 -0.096691914 -0.1670921 -0.2021024 -0.16640851
-0.118725725 0.03192116 -0.14194016 0.04222579 0.024620373 -0.2745302 0.061091125 -0.032141853
0.0350508 -0.22215867 -0.045022786 0.14976546 0.047689293 0.16546462 -0.09300062 0.10428184
0.24129926 -0.024503393 0.114749245 0.10904342 -0.06174309 0.13506638 0.13166846 -0.0055205114

fcnn.0.bias f4 [64]
00000000: d464 31be 1472 293d 2c3e adbd 084f f6bd
00000010: 0188 abbd 450a bc3d b7b9 be3d 1ca7 18be
00000020: c0e4 0abd bb80 023e d705 8c3d 70e4 afba
00000030: 73d9 1ebe 5703 19be b91f 313e 62e0 27be
00000040: bc28 0bbe 5af0 a13d 25bc 953b a187 1abe
00000050: 983b 533c f82b 1c3d b196 10be 4626 bebc
00000060: 59ef 09be 9666 b43d 9eeb 7cbd 5fe0 a83d
00000070: 4046 02be 8887 263e 25b5 fb3d 161f 363e
00000080: f181 ec3c d392 5bbe 7848 0ebe 8bfa d13c
00000090: 323b f2bd 21dd 8fbd 8737 413d dfd0 203e
000000a0: 25e8 0e3e 29c1 cabd 63a6 62bc 09fa df3d
000000b0: 4cc6 bcbd 652a 06be 8ce0 403d 984c 353d
000000c0: 1a4a 983c f1d3 a3bd e5f1 c53d dfc4 213e
000000d0: b651 11be 1e33 53be 374d ebbd 182e e1bc
000000e0: 26bb 603e c9a0 0cbe f7b8 303e e0a0 f4bd
000000f0: 8336 193e d7ef 2abd f6a8 9abd e88e b13b
-0.17323619 0.04136856 -0.08459124 -0.12026793 -0.0837555 0.09181646 0.09312766 -0.14907497
-0.03390956 0.1274442 0.06837051 -0.001341952 -0.15512638 -0.1494268 0.17297257 -0.16394189
-0.13589758 0.079071715 0.0045695477 -0.15090801 0.012892626 0.03812787 -0.14119984 -0.02321161
-0.1347021 0.08808629 -0.06174814 0.082459204 -0.12722111 0.16262639 0.1229041 0.17785296
0.028870555 -0.21442728 -0.13894832 0.025632164 -0.11827697 -0.07024599 0.047172096 0.15704678
0.13955744 -0.099001236 -0.013833615 0.10936362 -0.092175096 -0.1310211 0.047089145 0.0442625
0.018590022 -0.07999409 0.09665278 0.15797757 -0.14191326 -0.20624968 -0.11489337 -0.0274878
0.21946391 -0.1373321 0.17258058 -0.11944747 0.14962201 -0.041732635 -0.07551758 0.005418647

fcnn.2.weight f4 [1, 64]
00000000: 43d1 30be 0a16 ee3d 5d3b 2fbe 5de8 283e
00000010: 8c99 b33d 1b55 233e 5b83 19bd 9318 423d
00000020: bfe7 75bd fa9a d13d 79f7 2e3d dbeb b4bd
00000030: cee4 1e3e 3e37 16be 2167 35be 784e 70bd
00000040: 607e 80bd 0199 263e 75e4 bfbd 5326 1c3e
00000050: e263 e1bd 13a1 063e 468d 0a3e 30a7 8d3d
00000060: d749 7fbd 535a 1b3e db80 85bd 0122 d93c
00000070: 232b 23be 6a39 13be 5317 ccbc f970 153e
00000080: 0bbf f6bd 81fb bdbd fc35 913c d192 e4bd
00000090: eaa8 b8bd bd74 d13d 14ee f4bd ec97 1e3e
000000a0: 466b 93bd 1d70 4c3d 6c3b 2c3e 6bcb 763d
000000b0: fe83 bdbd 5d96 7f3d 2be1 a13d 48d0 823d
000000c0: 1365 05bd c4e2 17bd 98fa 893d 7414 3abe
000000d0: e392 87bd e6c5 ffbd a64e 323e 206a 3ebe
000000e0: 5f0c 0f3e 5c5b fa3d 3dd7 153e 9031 903d
000000f0: d6cd 24be 2cfd 573d 313b c93d 975a d73d
-0.17267327 0.11625297 -0.17112489 0.1649489 0.08769521 0.15950434 -0.037478786 0.047386717
-0.060035463 0.102346376 0.042716477 -0.08834048 0.1551697 -0.1466951 -0.17715122 -0.058668584
-0.06274104 0.16269304 -0.093697466 0.15248995 -0.11005379 0.13147382 0.13530454 0.06916654
-0.06232628 0.15171175 -0.06518718 0.026505472 -0.15934424 -0.1437737 -0.024913466 0.14593877
-0.12048157 -0.09276486 0.017725937 -0.111608155 -0.09016593 0.10227344 -0.11959472 0.15487641
-0.07198195 0.049911607 0.16819543 0.06025259 -0.09253691 0.062399257 0.079042755 0.06387383
-0.032567095 -0.037081495 0.0673725 -0.18171865 -0.06619813 -0.12488918 0.17412814 -0.18595171
0.13969563 0.12224457 0.14632888 0.07040703 -0.16094145 0.052731678 0.09825743 0.105153255

exp_avg f4 [64, 27]
00000000: 47ca a9bb 9bbb a7bb 2cc4 b4bb 9cf8 abbb
00000010: 1d80 a7bb 94c9 a4bb 7a83 a9bb 2785 a9bb
00000020: 370a a2bb 06d2 aabb baf4 b1bb e9ec b5bb
00000030: 199a aabb f922 9bbb f46b a9bb 9409 b1bb
00000040: de90 a1bb b24d a6bb dbb2 abbb 2070 b1bb
00000050: 8204 abbb cd92 9bbb 4e72 b3bb 5091 a8bb
00000060: 2485 adbb a843 b3bb e5f8 a5bb bacc b23e
00000070: eca1 b03e 7856 be3e 0019 b53e 3f66 b03e
00000080: 608d ad3e 4c86 b23e 8088 b23e 9ba7 aa3e
00000090: 26e4 b33e 0866 bb3e b590 bf3e c7a8 b33e
000000a0: 6769 a33e de69 b23e ea6b ba3e af27 aa3e
000000b0: c023 af3e 15cf b43e bcd8 ba3e 361c b43e
000000c0: e6df a33e 4ff4 bc3e 7c89 b13e 1ab7 b63e
000000d0: 21c3 bc3e 67ca ae3e d399 9abd 6c79 d3bd
000000e0: 8f19 c0bd 6460 aabd ef4f 85bd 1382 7ebd
000000f0: 5dde 87bd e44d 68bd 0f2e 39bd bd24 adbd
00000100: 96ba abbd edc4 c8bd 5e6f 62bd c5da 91bc
00000110: e8a8 70bd 9831 bcbd 70a4 35bd 1ec2 83bd
00000120: 0765 92bd faa9 c0bd cd53 47bd 7070 17bd
00000130: 5ebc d4bd acef 40bd 539d b3bd 1b7e e9bd
00000140: 6705 a6bd 0579 fd3e 7e66 fa3e f5ec 063f
00000150: 5f5d 003f 0c0f fa3e ff02 f63e d510 fd3e
00000160: aa13 fd3e 8ce8 f13e 8703 ff3e f9d4 043f
00000170: c8ca 073f a7af fe3e d79c e73e 34ec fc3e
00000180: dc24 043f 6b33 f13e 8245 f83e 1e29 003f
00000190: ad71 043f 3750 ff3e fb43 e83e 10f1 053f
000001a0: 7aa8 fb3e a684 013f 3bce 053f ecc6 f73e
000001b0: 2f02 873e a65f 853e b7b6 8f3e 69be 883e
000001c0: f832 853e a50d 833e 64ce 863e 05d0 863e
000001d0: 56dd 803e 4fd5 873e 1680 8d3e a1a4 903e
000001e0: d6a8 873e eace 763e f5b7 863e d0c2 8c3e
000001f0: 757c 803e ec3f 843e b486 883e d814 8d3e
00000200: 5300 883e 7682 773e 02ac 8e3e 8f0f 863e
00000210: 25f6 893e d386 8e3e 33fc 833e 541e f53e
00000220: db25 f23e 6c7a 023f 9844 f83e 45d1 f13e
00000230: 82e7 ed3e c9b9 f43e 80bc f43e a4ef e93e
00000240: f29b f63e 3274 003f f850 033f c04a f63e
00000250: 06fb df3e 3796 f43e c593 ff3e 6140 e93e
00000260: e716 f03e 98df f73e 2714 003f 20e6 f63e
00000270: bd9c e03e e586 013f 495d f33e 957f fa3e
00000280: 2f65 013f 799c ef3e 4084 04be 71c9 06be
00000290: 3b71 0bbe 55c4 03be ce7e febd c7b5 febd
000002a0: 4270 ffbd 301b 03be 9c20 00be a633 05be
000002b0: f88a 05be 9036 06be c247 02be ce54 f0bd
000002c0: eb8a febd 2838 08be d3d3 f9bd 125d 03be
000002d0: 6c63 05be 240b 04be 0c2e fdbd d655 f2bd
000002e0: c5aa 0abe c3c1 01be 7e96 06be 445c 0abe
000002f0: 9592 05be 7a1f b93a 80dd b63a a728 c53a
00000300: e580 bb3a 8899 b63a a999 b33a 68c5 b83a
00000310: 08c9 b83a 1f9d b03a 073e ba3a c50a c23a
00000320: a366 c63a 2afd b93a 5401 a93a 85b3 b83a
00000330: 440d c13a 501b b03a b346 b53a ab32 bb3a
00000340: 8e7f c13a 5570 ba3a fc77 a93a 5eb2 c33a
00000350: 0cbe b73a e439 bd3a 3880 c33a edeb b43a
00000360: 7007 edba 8528 eaba 5d45 fcba 3713 f0ba
00000370: 3cdf e9ba 4420 e6ba 44b4 ecba 2db7 ecba
00000380: 5d46 e2ba 9c7c eeba f96b f8ba 57ea fdba
00000390: 852e eeba 6abd d8ba a086 ecba d11b f7ba
000003a0: 2f9c e1ba 4035 e8ba 6cb1 efba 6dac f7ba
000003b0: c2cc eeba a65c d9ba e273 faba 5b68 ebba
000003c0: 5b30 f2ba bb32 faba 63be e7ba 9475 9d3e
000003d0: 3b8d 9b3e 7a9e a73e 8c7b 9f3e 7b58 9b3e
000003e0: e1d6 983e c037 9d3e 8539 9d3e a549 963e
000003f0: 726b 9e3e ea07 a53e 4cb3 a83e 8137 9e3e
-0.005181584 -0.0051188 -0.0055165496 -0.0052481424 -0.005111708 -0.005028913 -0.005173144 -0.0051733437
-0.0049450654 -0.005213025 -0.005430785 -0.0055519235 -0.005206358 -0.0047343937 -0.0051703397 -0.005402753
-0.0049305996 -0.00507518 -0.005239827 -0.0054149777 -0.005219043 -0.0047477246 -0.0054762727 -0.0051442757
-0.0052954126 -0.0054707117 -0.005065071 0.3492182 0.34498537 0.37175345 0.35370636 0.34453008
0.33896923 0.34868085 0.34869766 0.33330998 0.35135 0.3660128 0.3741509 0.35089704
0.31916353 0.34846395 0.36410457 0.332334 0.34206963 0.3531424 0.3649348 0.35177773
0.32006758 0.36905143 0.34675205 0.3568657 0.36867622 0.34138796 -0.07548871 -0.10325894
-0.09379875 -0.08319166 -0.06509387 -0.062135767 -0.06634209 -0.056714907 -0.04520994 -0.08454273
-0.08385198 -0.098031856 -0.05528199 -0.017804513 -0.05875483 -0.09189147 -0.044346273 -0.06433509
-0.07148176 -0.094074205 -0.048663903 -0.036972463 -0.10387491 -0.04710357 -0.087702416 -0.11401006
-0.08106499 0.49506393 0.4890632 0.5270532 0.50142473 0.48839605 0.4804916 0.49426904
0.49429065 0.47247732 0.4980738 0.5188747 0.53043795 0.49743387 0.45236847 0.4939896
0.5161874 0.4710954 0.4849053 0.5006274 0.51735955 0.49865887 0.45364365 0.5232096
0.49151975 0.5059303 0.5226781 0.48393953 0.26368853 0.26049536 0.28069088 0.2670777
0.2601545 0.25596347 0.2632934 0.2633058 0.25168866 0.2652993 0.27636784 0.28250602
0.26496 0.24102369 0.26312223 0.2749238 0.25094953 0.2583002 0.2666527 0.27554965
0.26562747 0.2417086 0.27865607 0.26183745 0.26945606 0.27837238 0.2577835 0.478747
0.47294506 0.5096805 0.48489833 0.47229972 0.4646569 0.47797993 0.47800064 0.45690644
0.48165852 0.501773 0.51295424 0.48103905 0.43746203 0.47770855 0.49917427 0.4555693
0.46892473 0.48412776 0.5003075 0.48222446 0.43869582 0.5059646 0.47532108 0.48925462
0.5054502 0.46799067 -0.12941074 -0.13162781 -0.13617413 -0.12867863 -0.1242653 -0.12437015
-0.12472583 -0.1280334 -0.1251244 -0.13007984 -0.13041294 -0.13106751 -0.12722686 -0.11734925
-0.1242884 -0.13302672 -0.121986054 -0.12828472 -0.13026208 -0.12894875 -0.12362298 -0.11832778
-0.13541706 -0.1267157 -0.13143346 -0.13511759 -0.13044198 0.0014123761 0.001395151 0.0015042023
0.0014305381 0.0013931254 0.001370241 0.0014096918 0.0014097998 0.001347456 0.0014209159 0.0014804235
0.0015136789 0.0014189829 0.0012894073 0.0014091587 0.0014728685 0.0013435874 0.0013830274 0.0014282068
0.0014762746 0.0014224151 0.0012929435 0.0014930477 0.001401843 0.0014436808 0.0014915532 0.0013803222
-0.0018083882 -0.0017864859 -0.0019246746 -0.0018316273 -0.0017843018 -0.0017557223 -0.0018059094 -0.0018059962
-0.0017263402 -0.0018195095 -0.0018953077 -0.0019372207 -0.0018171823 -0.0016535942 -0.0018045492 -0.0018852894
-0.0017212684 -0.0017716065 -0.0018287129 -0.0018895991 -0.0018218982 -0.0016583398 -0.0019108022 -0.0017960178
-0.0018477546 -0.0019088605 -0.0017680641 0.30753767 0.30381188 0.32738096 0.31148946 0.30340943
0.2985144 0.30706596 0.30707946 0.2935306 0.3094135 0.322326 0.32949293 0.3090172

exp_avg_sq f4 [64, 27]
00000000: 2262 af39 409d bd39 e42f b939 d68a b139
00000010: 2ed2 af39 2d1e ae39 c7be b039 7d13 a739
00000020: 2f27 ad39 249d b039 4710 af39 274f b639
00000030: 62a6 b539 bd05 a639 aed6 bd39 1f61 be39
00000040: cf9d a939 cb10 b039 1ecc b339 7dce af39
00000050: f891 a439 eaf2 a439 74c1 b839 31de a439
00000060: 6ab8 bc39 075e b939 6290 ab39 2bad b63f
00000070: 42b0 c53f b412 c13f a9f0 b83f 4611 b73f
00000080: 7b44 b53f 3609 b83f 86d7 ad3f 043e b43f
00000090: 59ef b73f f74f b63f 6103 be3f bf43 bd3f
000000a0: 32a9 ac3f 62e9 c53f a785 c63f bb81 b03f
000000b0: 0e56 b73f ea4c bb3f f91d b73f e930 ab3f
000000c0: 5387 ab3f 0e99 c03f ed76 ab3f 2ec7 c43f
000000d0: af40 c13f 549e b23f ddad 973f f52f a73f
000000e0: e04d a13f 6e3c 983f 77d2 933f 77c7 923f
000000f0: b3da 943f a5bd 893f 92ae 913f ff3d 963f
00000100: 4f50 953f 0237 9d3f a4de 9b3f 6eec 863f
00000110: a012 a73f e205 a83f a1a1 8c3f 12a4 963f
00000120: 241d 9d3f 5ae0 973f 0bb9 863f 9d73 863f
00000130: 396b a13f 6c13 873f a1aa a43f c31b a13f
00000140: e1ab 933f 7cee 3b40 2f71 4b40 b1a7 4640
00000150: 1043 3e40 4b58 3c40 317e 3a40 655a 3d40
00000160: dcd1 3240 e26d 3940 d839 3d40 1b90 3b40
00000170: a67e 4340 71bc 4240 649f 3140 79aa 4b40
00000180: ea4a 4c40 4294 3540 ab9e 3c40 35b7 4040
00000190: 9462 3c40 a017 3040 3672 3040 1f2d 4640
000001a0: 0e61 3040 577c 4a40 6cd8 4640 7cbf 3740
000001b0: d8c4 543f 8999 663f fe21 613f a765 573f
000001c0: bb30 553f 720c 533f e058 563f b03d 4a3f
000001d0: 71da 513f 1437 563f 6a52 543f 2577 5d3f
000001e0: 2b92 5c3f 2cd1 483f f8d1 663f 0693 673f
000001f0: ad6e 4d3f c186 553f 0943 5a3f ee4d 553f
00000200: 8c1d 473f 5778 473f f194 603f 9270 473f
00000210: 9d80 653f 7c58 613f 7bf1 4f3f 912a 3240
00000220: c8ad 4040 e42e 3c40 615d 3440 4896 3240
00000230: a8d9 3040 f886 3340 ffaa 2940 a0dc 2f40
00000240: 9468 3340 8fd4 3140 f33d 3940 928c 3840
00000250: 6b91 2840 ace7 4040 3578 4140 9040 2c40
00000260: 21d7 3240 89a7 3640 0a98 3240 e41b 2740
00000270: 3579 2740 55bc 3b40 6c65 2740 0cc8 3f40
00000280: 195d 3c40 5b42 2e40 9304 133e f7ca 1e3e
00000290: f91f 1b3e 97af 143e 5dcb 133e 6a33 123e
000002a0: e883 143e e87a 0c3e be8c 113e f794 143e
000002b0: b6f1 123e adec 183e 0d16 183e 1654 0b3e
000002c0: 3397 1e3e 531b 1f3e e942 0e3e f1cf 133e
000002d0: 51dc 163e c3e7 133e 91ed 0a3e 74fe 0a3e
000002e0: 8e7a 1a3e f1fe 0a3e 4b82 1d3e da1c 1b3e
000002f0: 9b68 103e 543c cb37 d8d1 d937 5623 d537
00000300: c2b7 cd37 49f7 cb37 293f ca37 89e6 cc37
00000310: 86f2 c237 322a c937 84c4 cc37 1304 cb37
00000320: a960 d237 ecc6 d137 620a c237 1c48 da37
00000330: 5fa5 da37 c77e c537 931f cc37 87cf cf37
00000340: c49d cb37 e34d c037 75f3 c037 58af d437
00000350: 24a7 c037 71f1 d837 cc5b d537 535c c737
00000360: 2e3e 1738 652b 2438 8246 2038 841f 1938
00000370: 6775 1738 e9e5 1538 414b 1838 f185 0f38
00000380: d707 1538 2d3d 1838 a4e3 1638 1f95 1d38
00000390: f2dd 1c38 2767 0e38 7c4e 2438 fee7 2438
000003a0: f0d2 1138 2bb8 1738 c82f 1b38 b2a1 1738
000003b0: 0540 0d38 306c 0d38 9ada 1f38 3970 0d38
000003c0: a168 2338 ba6a 2038 b5b4 1338 26e8 903f
000003d0: adcf 9c3f ed23 993f 7fb2 923f be3a 913f
000003e0: 28cd 8f3f daff 913f 29ea 893f 84fe 8e3f
000003f0: 70e8 913f 849f 903f c3b6 963f 6222 963f
0.00033451716 0.0003616605 0.0003532163 0.00033863512 0.00033535197 0.0003321035 0.00033711476 0.00031867242
0.00033026325 0.00033686415 0.0003339073 0.00034772718 0.00034646975 0.00031666263 0.00036208838 0.00036311985
0.00032351768 0.00033581848 0.0003429362 0.00033532447 0.00031389273 0.00031461503 0.0003523935 0.00031446063
0.00035995553 0.00035356006 0.00032723235 1.4271597 1.5444415 1.5083833 1.4448444 1.4302146
1.4161524 1.4377811 1.3581398 1.4081426 1.4369918 1.4243153 1.4844781 1.47863
1.3489134 1.5461848 1.5509537 1.3789591 1.4323137 1.4632847 1.4306022 1.3374301
1.3400673 1.5046709 1.3395668 1.5373285 1.5097865 1.3954568 1.1849934 1.306151
1.260189 1.1893442 1.1548604 1.1467122 1.1629242 1.0761 1.13814 1.173767
1.1665133 1.2282412 1.217732 1.0540903 1.3052559 1.3126795 1.0986825 1.176882
1.2274518 1.1865342 1.0525221 1.0504032 1.2610847 1.0552802 1.2864572 1.2586597
1.1536828 2.936431 3.1787832 3.103985 2.9728432 2.942889 2.913952 2.9586422
2.7940588 2.8973317 2.9566555 2.9306705 3.054605 3.0427516 2.7753534 3.1822798
3.1920724 2.837174 2.9471843 3.011182 2.9435167 2.751442 2.756971 3.096504
2.7559237 3.163839 3.1069593 2.8710623 0.8311286 0.90078026 0.8794249 0.84139484
0.8327748 0.82440865 0.8372936 0.7900038 0.8197394 0.8367779 0.82938254 0.86509925
0.86160535 0.7844417 0.90164137 0.90458715 0.80247 0.83408743 0.8525854 0.83322036
0.7777946 0.77918 0.87727267 0.77906144 0.89649373 0.8802564 0.81227845 2.783848
3.0106068 2.940362 2.8181994 2.7904224 2.7632847 2.8051128 2.6510618 2.747841
2.803258 2.7785985 2.894406 2.8835797 2.6338756 3.0141401 3.0229619 2.6914406
2.7943804 2.8539755 2.7905297 2.6110773 2.616773 2.9333699 2.6155653 2.996585
2.9431822 2.7228 0.14357214 0.15507112 0.15148915 0.14520107 0.14433046 0.14277425
0.14503443 0.1371876 0.14213845 0.1450995 0.14350018 0.14934035 0.14852162 0.13606295
0.15487365 0.15537767 0.13892712 0.14434792 0.14732482 0.14443879 0.13567187 0.13573629
0.15085813 0.13573815 0.15381734 0.15147725 0.14102404 2.4227578e-05 2.5966132e-05 2.5408033e-05
2.4523473e-05 2.4314637e-05 2.4109688e-05 2.4426046e-05 2.3239536e-05 2.3980716e-05 2.4410205e-05 2.4201383e-05
2.5078962e-05 2.5007372e-05 2.3131437e-05 2.6021204e-05 2.6064632e-05 2.3543265e-05 2.4333398e-05 2.477296e-05
2.4272951e-05 2.2924452e-05 2.3001552e-05 2.535402e-05 2.2966015e-05 2.5861636e-05 2.5434325e-05 2.376564e-05
3.6059115e-05 3.914106e-05 3.8212638e-05 3.6507394e-05 3.6110545e-05 3.573849e-05 3.630971e-05 3.42186e-05
3.553167e-05 3.62966e-05 3.5974794e-05 3.7570597e-05 3.74e-05 3.3951506e-05 3.917374e-05 3.9316707e-05
3.4767145e-05 3.6172725e-05 3.699938e-05 3.6151796e-05 3.3676642e-05 3.3717777e-05 3.8112143e-05 3.3721535e-05
3.895967e-05 3.824637e-05 3.5215828e-05 1.1320846 1.2250878 1.1964089 1.1460723 1.1346052
1.1234484 1.1406205 1.0774585 1.1171422 1.1399059 1.129868 1.1774524 1.1729243

exp_avg f4 [64]
00000000: 19b7 bcbb b7b6 c63e 2055 cdbd 21dc 0c3f
00000010: 600a 963e 9437 083f ce20 0fbe 98ce cd3a
00000020: a5b1 03bb e2fe ae3e c6b5 123e 0995 5fbb
00000030: 4c88 043f 1660 a0bb fc25 4ebe 19b4 00bb
00000040: 8697 09bb 36ef 0a3f 8121 4dbb 1a3b 023f
00000050: 0bcf 70bb 0ca5 e03e b82e e73e 0ce6 6c3e
00000060: be97 59be 9093 013f f0dd 76bd a982 653a
00000070: f32c aebb 6906 1abd d884 59ba 034c f93e
00000080: 3dca ddbe 9415 4bbb 87ae 183a 4c32 74bb
00000090: 103f 1d3c 3fe6 ae3e d091 b73b af45 043f
000000a0: 23a5 74be e042 2b3e 8aa0 0f3f f484 4e3e
000000b0: 7a99 4abb 72d6 553e b847 873e 03db 5a3e
000000c0: e2a8 333b ac46 a3ba 90c3 663e 860f d3be
000000d0: 5021 11bb 7897 88bb 05af 143f 4536 cbbb
000000e0: b9aa ee3e 23eb d03e 26fe f93e b41f 713e
000000f0: 9cee afbb afe3 343e a00f a83e 92cc b33e
-0.0057591316 0.38811275 -0.10026002 0.5502339 0.2930479 0.53209805 -0.13977358 0.0015701829
-0.0020094898 0.34178835 0.14327154 -0.0034115931 0.5177047 -0.004894267 -0.20131677 -0.0019638597
-0.0020994856 0.54271257 -0.0031300487 0.5087143 -0.00367445 0.4387592 0.4515283 0.23134631
-0.21249291 0.5061579 -0.06027025 0.00087551266 -0.005315417 -0.03760377 -0.00082976883 0.48690805
-0.43318358 -0.0030988203 0.00058243464 -0.0037261425 0.009597555 0.3416004 0.005602099 0.5166883
-0.2389112 0.1672473 0.5610434 0.20167905 -0.0030914233 0.20882586 0.26421905 0.21372609
0.0027413894 -0.0012456975 0.22535539 -0.4122278 -0.00221451 -0.004168447 0.5807956 -0.006201538
0.46614626 0.40804395 0.48826712 0.2354725 -0.0053690206 0.1766498 0.3282442 0.35117012

exp_avg_sq f4 [64]
00000000: e49c cf39 b179 d83f 65f2 b43f a2bf 5e40
00000010: 0f78 7c3f 85fa 5240 8e4e 2d3e 82b1 ee37
00000020: ddc3 3338 beb3 ab3f 02c1 5e3e 7fc2 aa3d
00000030: d0aa 3a40 eb07 9839 8c2b b63f ace4 5038
00000040: d2fa 4938 d00f 6040 bb5e ef38 66be 4640
00000050: 4c35 2539 50ce 0f40 15fd 1640 3050 123f
00000060: 1bec 673e 221a 4040 759d 1a3e d41d 1237
00000070: d2b2 b139 de80 533f 571a 9e3b cfec 3940
00000080: b42a ae3f c777 f138 f15b 2639 87de 2e39
00000090: f973 a53d ebea 993f f01b ef3c f331 4940
000000a0: 4727 633f 6f8d a23e 3831 6840 a634 db3e
000000b0: 5185 e038 ad4f fa3e ac00 433f 9f2d f33e
000000c0: ba28 093b 107d 5237 ac82 153f b8fe fd3f
000000d0: a6bd 5f38 7641 5d39 e649 7640 3a72 ea39
000000e0: 220a 2740 8dd1 f63f e1df 2840 9e10 1e3f
000000f0: 9292 ab39 70b1 a23e b823 8c3f f4d8 b03f
0.0003959901 1.6912137 1.4136473 3.4804463 0.98620695 3.2965405 0.16924497 2.845447e-05
4.2859338e-05 1.3414228 0.21753314 0.083378784 2.9166756 0.000289976 1.423204 4.980403e-05
4.815573e-05 3.500965 0.00011414053 3.105371 0.00015755481 2.2469673 2.359197 0.57153606
0.22648661 3.001595 0.15099128 8.709223e-06 0.00033893302 0.8261851 0.0048249173 2.9050786
1.3606782 0.00011514086 0.00015865244 0.00016676831 0.08078761 1.2024816 0.029188126 3.1436737
0.8873181 0.3174853 3.628004 0.42813605 0.000107059845 0.48888913 0.761729 0.47495744
0.0020928816 1.2546094e-05 0.58402514 1.9843359 5.3343967e-05 0.00021100588 3.8482604 0.00044717063
2.6099935 1.92827 2.6386645 0.61744106 0.00032724865 0.31776 1.09484 1.3816209

exp_avg f4 [1, 64]
00000000: a407 34bd 08eb b740 f098 7e3e b87a 7c40
00000010: a05a 9940 b6f5 8d40 7496 c13d 73d0 44bc
00000020: 1a2c 49bd c6c1 0a41 d2e2 bc40 9012 91bb
00000030: f28d 9340 9720 76bd 2e4a 9b3e e80d dabc
00000040: 58da 86bd 96c0 8140 ecb4 94bd 500c e340
00000050: 5c28 a6bd 15fd 5b40 1799 7f40 cd66 b240
00000060: d07c da3e 2f93 9140 2c3e b43d 53fa 28bc
00000070: 820d 82bd 4501 f83d 28b2 8cbb 3c53 c640
00000080: c322 503e 803d 80bd 6ad0 dcbb 0813 6dbd
00000090: f57b 04bc 797c 8b40 2acf 313a b415 a240
000000a0: 86d0 7c3f b233 9340 db2c 8340 5c24 b040
000000b0: b1e3 75bd 52d1 5240 e2be df40 7b5b c040
000000c0: d80f 6d3a 949b d4bc 5963 d940 d171 863e
000000d0: 3d1d a0bd 49a4 64bd 2483 7f40 6979 3fbd
000000e0: 8c36 7040 3e0c a640 cb96 5940 2656 bb40
000000f0: 8903 18bd b307 9540 43fc 3440 4b72 8f40
-0.0439526 5.7474403 0.24863029 3.9449902 4.7923126 4.436244 0.09452525 -0.012012589
-0.049114324 8.672308 5.902688 -0.0044272617 4.6110773 -0.060089674 0.30330032 -0.02661796
-0.065846145 4.054759 -0.072610706 7.095253 -0.08113167 3.437322 3.9937189 5.575049
0.4267335 4.5492167 0.08800921 -0.010313588 -0.06350233 0.12109617 -0.004293699 6.1976604
0.2032576 -0.0626173 -0.006738712 -0.057879478 -0.008086194 4.3589444 0.0006782884 5.0651493
0.9875568 4.6000605 4.0992255 5.5044384 -0.060031597 3.294026 6.992051 6.011167
0.00090431934 -0.025953092 6.7933774 0.2625871 -0.07818077 -0.055820737 3.9923792 -0.046746645
3.7533293 5.1889944 3.3998287 5.854266 -0.037112746 4.65719 2.8278968 4.482702

exp_avg_sq f4 [1, 64]
00000000: a024 be3c c4de c043 09c8 cb3f 08cc 3043
00000010: c73a 7843 b992 6443 85cf f940 0413 4c3b
00000020: f470 ec3c af92 6244 fd22 cf43 f62b 843f
00000030: fd46 7443 8bec 2d3d 4c1d 6a40 a589 fb3b
00000040: d8f0 503d f1e6 3743 e917 763d df7a 1644
00000050: 579a 9f3d 88cb 0943 1e2e 3643 6e92 b843
00000060: da41 9240 f9d6 6943 1867 073f 0518 293b
00000070: b825 423d 5f94 3f3f ac7a 803e 7f85 db43
00000080: 052c 4240 f18a 393d eb9a 993a a684 213d
00000090: ce65 3e3f 3361 5843 5cf0 ce3b 3762 9543
000000a0: df83 f841 d6ea 6843 ae99 4043 b522 af43
000000b0: eb95 313d c148 f742 a8ff 1144 adfc d743
000000c0: c6cf 8b3b b4f6 fb3b 666e 0844 d333 1140
000000d0: 2db8 953d e1d2 103d e2a7 3743 cf12 d13c
000000e0: 7733 1c43 08eb a143 1913 fb42 c11a c643
000000f0: 8df7 843c 8af3 7443 8df3 ad42 b8ac 6043
0.023210824 385.74036 1.5920421 176.797 248.2296 228.57314 7.806582 0.0031139264
0.028862454 906.29193 414.27335 1.0325916 244.2773 0.042461913 3.6580381 0.0076763206
0.051010936 183.90211 0.060081396 601.91986 0.0779311 137.79504 182.18015 369.14398
4.5705385 233.83974 0.52891684 0.002580167 0.047399253 0.7483577 0.2509359 439.04294
3.0339367 0.04529852 0.0011719143 0.039433144 0.7437409 216.37968 0.006315274 298.7673
31.06439 232.91733 192.60031 350.27115 0.043355864 123.6421 583.9946 431.97403
0.004266712 0.0076893214 545.725 2.268788 0.07310519 0.03535736 183.65579 0.025521664
156.20103 323.83618 125.5373 396.209 0.016231323 244.95132 86.975685 224.67468
