experiments/tcnn-abilities/models/MediumBTCNN_MediumFCNN_5.pth (torch, 847290 bytes, 33 tensors)

btcnn.layers.0.conv1d.weight f4 [128, 27, 3]
000000 e4 1c e3 3d c0 92 73 3d 39 be 76 3c 06 77 b7 3c
       0.11089495 0.059466124 0.015060001 0.022395622
000010 86 a0 25 be 43 82 da 3c 91 a4 64 bd 8b 22 a4 bd
       -0.16174516 0.026673442 -0.055821005 -0.08014401
000020 a6 79 f3 3d 25 8b 82 bd 9d 63 12 bd ae a1 76 3d
       0.11888437 -0.06374196 -0.03573953 0.060212784
000030 20 e2 99 3b ec cb 57 3e 8e 13 ee b9 d7 13 43 3e
       0.0046961457 0.21073884 -0.00045409467 0.19050537
000040 b3 3f 42 be c7 7b 8f 3d a5 18 8c 3c eb 0e 1a 3e
       -0.18969612 0.070060305 0.017101595 0.15044753
000050 8e 67 23 bb 81 d6 8b 3d e2 c8 50 be d5 8a f5 bc
       -0.002493355 0.06828023 -0.2038913 -0.029973427
000060 bc a2 2c bd 37 7e 86 3d fe da 67 3d 06 de 66 be
       -0.042147383 0.06567042 0.05660533 -0.22545633
000070 84 e1 e9 be 89 aa bd 3d 31 9c af bd 75 53 6b bd
       -0.45679867 0.092610426 -0.08574713 -0.057452638
000080 60 83 df bd 14 3a 9d 3d 89 38 e4 3d d6 cd d8 3d
       -0.1091373 0.07677093 0.11143596 0.10586135
000090 ba a2 ab be 25 dd 0d be 12 6f e0 3d fb e4 1b be
       -0.33522588 -0.13853891 0.10958685 -0.15224068
0000a0 87 3b f7 bd 15 24 9a 3c 2e 8d 5e 3c 97 aa 36 be
       -0.12071901 0.018816033 0.013583465 -0.17838512
0000b0 72 44 ca bb f9 b0 23 be 5c 8c b2 bc e9 e5 2f 3e
       -0.00617271 -0.15985478 -0.021795444 0.17177548
0000c0 32 01 8d 3c 06 40 a2 3d 39 38 af bd a8 9a b5 3c
       0.017212484 0.07922368 -0.085556455 0.022168472
0000d0 d1 96 db 3c ab 86 e9 bb 42 dc 9f bd 51 9b 93 3d
       0.026805313 -0.0071266494 -0.07805683 0.07207359
0000e0 77 cf a8 3d 40 8c 0f be b2 5d 5e bd 4a b4 b6 bd
       0.08242696 -0.14018345 -0.054288574 -0.08921106
0000f0 93 53 90 3d b3 bc a3 3c 7b 30 4e bd a4 b4 c4 3d
       0.070471905 0.01998744 -0.050339203 0.09604767
000100 41 f7 ab bc ba be c8 bc 15 a0 58 bd 94 d7 d0 3d
       -0.020991923 -0.024505008 -0.05288704 0.10197368
000110 c7 9d 28 3c 6a c6 d1 bb 5c 3f ba bd 00 2a 2e 3b
       0.010291523 -0.0064018266 -0.09094116 0.0026575327
000120 35 9c 0d 3e c7 64 7d bd cc 87 33 be 04 a5 3b bd
       0.1382912 -0.061863687 -0.17532271 -0.045811668
000130 89 3e b7 3d 33 f4 90 3d dc 56 8a 3c e8 a8 95 bb
       0.089474745 0.07077827 0.01688712 -0.0045672543
000140 58 6b 8e bd 16 7c c9 bc 48 65 a7 bd 44 f9 ac 3d
       -0.06954068 -0.024595302 -0.08173615 0.08445981
000150 d7 56 58 3e 1f a8 8b 3d 7e 7d 8e bd 5a c3 90 bd
       0.21126877 0.06819176 -0.069575295 -0.0706851
000160 99 ca eb 3c 47 8d 7c bd e1 da 5a 3d f2 6a 3f bd
       0.02878313 -0.06165817 0.053431395 -0.04673285
000170 e5 ce fd bd 21 94 6e 3d b8 6b 84 bc de cf 81 bd
       -0.123929776 0.058246735 -0.016164646 -0.06338476
000180 f2 67 02 be d3 69 db bd ce 91 3b 3d 9c f7 37 be
       -0.12734964 -0.10713544 0.045793347 -0.17965549
000190 36 10 da bd 57 53 bd 3d e9 71 94 3d f6 28 2d 3e
       -0.10647623 0.092444114 0.07248289 0.16910157
0001a0 8b 91 23 3d 9f 47 8c bd 5b 34 b8 bd 6a 0c 80 3d
       0.039933722 -0.06849598 -0.08994361 0.06252368
0001b0 5a 0a f7 bd a1 67 71 3e b0 4d da bd 17 7b 3f 3d
       -0.12062521 0.23574688 -0.10659349 0.046748247
0001c0 a9 8e cf 3d 47 63 d4 3c 2c da 04 be b9 69 a6 3e
       0.10134632 0.025926245 -0.12973851 0.32502535
0001d0 e3 c8 bc 3e 63 99 51 3c 17 ae dd 3d 39 c6 fb 3b
       0.36872014 0.012792918 0.10824221 0.007683542
0001e0 51 6a 28 be d2 7e fe bc 12 b6 a0 3d e9 18 68 be
       -0.16446806 -0.031066332 0.07847227 -0.22665752
0001f0 41 00 0e be fd c9 c9 3d 01 04 b6 bd f4 73 fa 3d
       -0.13867284 0.09852979 -0.088874824 0.122291476
000200 17 be 59 bd bb 3c 91 bd 2f 52 21 3c ad e0 cd bd
       -0.0531598 -0.070916615 0.009846254 -0.10052619
000210 0b fb 14 be c4 c4 8e bc 7d 37 bd bd 57 ad 2f 3e
       -0.1454889 -0.01742781 -0.09239099 0.17155968
000220 69 80 4a be 30 2a ba 3d c0 de 95 3d 86 ff 24 3e
       -0.19775547 0.09090078 0.07317877 0.161131
000230 3a 93 43 be 70 3c f2 bd fd 7e b0 3b 42 f4 59 3d
       -0.19099131 -0.11827934 0.005386232 0.053211458
000240 7a 56 a9 bd e9 30 a1 bc e2 a4 9c 3c 8c 39 1e be
       -0.08268447 -0.019676642 0.019121591 -0.1545164
000250 d5 36 18 bd 1d b8 f7 3c 2a 30 39 3e 5c 07 79 3c
       -0.037161667 0.03023916 0.1808478 0.0151995085
000260 a0 be 63 3d 1b 48 39 3e b5 dc a7 bd 0f 93 d5 bc
       0.055601716 0.18093912 -0.081963934 -0.0260711
000270 43 9c 49 be 3b f2 ef bd f5 1a a4 3d 22 84 68 bc
       -0.19688515 -0.11716124 0.08012954 -0.014191659
000280 4e 5e fa bd 34 82 f7 3d 49 e7 89 bd 1c ff bb 3c
       -0.122250184 0.12085381 -0.06733567 0.022948794
000290 e0 66 92 3d 32 8a 0d bb 29 a5 8c 3d d6 bc 2e bd
       0.07148528 -0.0021597263 0.06867439 -0.042660557
0002a0 6f e0 f1 3d 1c bf fd 3d 31 37 5c bd c6 64 c1 3d
       0.118103854 0.12389967 -0.053763572 0.09443049
0002b0 db 86 3a 3d cf a0 54 3f b1 16 2e 3e f8 cf 4f 3e
       0.045538764 0.83057874 0.17000844 0.20294178
0002c0 84 62 79 bd f8 e5 cd bd 11 c4 93 bd e4 9a 98 3b
       -0.060884967 -0.10053629 -0.07215131 0.0046571363
0002d0 54 e2 9a bd 18 9a b8 3e c7 11 1c ba 42 54 29 3c
       -0.075627 0.36055064 -0.0005953577 0.01033503
0002e0 8c 89 6f be b5 4a bc bd fc d9 67 bd 4e a4 cb 3d
       -0.23392314 -0.09193937 -0.05660437 0.09943448
0002f0 f3 b7 25 3e 13 57 ea 3d f5 1d 02 bd 4e 71 cc 3d
       0.16183452 0.11442389 -0.03176685 0.09982549
000300 97 72 95 3d 4f e7 00 bd 52 8c 93 bd b5 4c d5 be
       0.07297247 -0.031470593 -0.07204498 -0.41660085
000310 95 3f df bd 74 cd 3c 3d 3c 67 32 3e 35 b3 ef 3d
       -0.10900799 0.046094373 0.17422193 0.11704103
000320 77 34 d6 bd 44 d0 fa bd 57 21 f6 3e 70 fc a7 bd
       -0.104592256 -0.12246755 0.4807231 -0.082024455
000330 24 b3 80 bc 59 f8 d1 bc 95 ce f4 3c c9 f9 2c bd
       -0.01571042 -0.025631117 0.029883662 -0.0422304
000340 d6 d8 19 be 44 f7 13 3d 3d 33 c0 3d f9 48 72 3d
       -0.15024123 0.036124483 0.09384773 0.059151623
000350 eb a1 8b 3d f0 c9 e1 3d 1b 2f 31 bd d5 4f 25 3c
       0.06817993 0.11024845 -0.043257814 0.010089834
000360 49 ed 7d 3e bc e0 a3 bd f2 43 eb bc db 2e d5 3d
       0.24797548 -0.08001849 -0.028718922 0.104093276
000370 68 76 3c 3e 94 ca e7 bd 09 b9 ce bd 6f b5 19 be
       0.18404543 -0.113179356 -0.100938864 -0.15010618
000380 61 80 ef 3d dd 8a 47 3e 7f 8a 27 3e 48 3f 3e 3d
       0.11694408 0.19486566 0.16361426 0.04644707
000390 af 29 b7 bd 78 de 6a 3d 99 d3 4f bd 93 8b d6 3d
       -0.089434974 0.05734107 -0.050738905 0.104758404
0003a0 dd 94 42 bd f0 6d 96 3d 58 f6 b1 be ab 48 f6 bc
       -0.04750525 0.07345188 -0.34758258 -0.030063948
0003b0 7b 14 9d bb 13 d9 ca 3d 87 a9 65 bc 6a 3a c8 bd
       -0.004793701 0.09904685 -0.014017469 -0.097767666
0003c0 03 26 2a bb 2f e0 f1 bc 7f a3 60 3d fd 72 f1 3c
       -0.0025962598 -0.029525844 0.054843422 0.029473776
0003d0 e9 f3 92 3d a9 ac a1 bd f8 91 b3 bc 3d db 39 3e
       0.071754284 -0.078942604 -0.02192019 0.18150039
0003e0 84 8c 00 3e ce 81 a5 3e b9 61 66 3e 5a ce 0e 3d
       0.12553602 0.32325596 0.22498216 0.03486476
0003f0 63 58 10 3e a6 c6 8b 3d c8 ab 79 3e 29 2c d6 3e
       0.14096217 0.068249986 0.24381936 0.41830567

btcnn.layers.0.conv1d.bias f4 [128]
000000 36 b5 7e bd ea 65 e4 bb 7b 50 c6 3c 3d b9 e0 3d
       -0.062184535 -0.006970157 0.024208298 0.109728314
000010 c0 20 e4 3d 27 a1 58 3d 3e 10 02 be 80 86 4f bc
       0.11139059 0.05288806 -0.12701508 -0.012666345
000020 79 1b 9d 3c a6 5b d5 bc 9a b4 03 bd 24 cb ee 3d
       0.019178139 -0.026044678 -0.032154657 0.1165984
000030 b8 a6 af 3d 08 ba 86 3d cc 80 61 3d bd c9 3f 3e
       0.08576721 0.065784514 0.05505447 0.18729301
000040 83 44 90 3d e7 f9 02 bd 5f 67 3b 3e 97 c6 25 3d
       0.070443176 -0.031976607 0.18301152 0.040472593
000050 75 c5 66 bd dd d9 0a 3e 47 f7 8d 3d 07 23 c3 3d
       -0.056340653 0.13559671 0.0693193 0.09528165
000060 55 09 49 3d 3b 47 7f 3d d8 ce 25 3d 25 85 21 3d
       0.049081165 0.06232379 0.040480465 0.039433617
000070 70 09 8e bd ae 26 a0 3d d3 7a 8c bd d6 41 b0 3d
       -0.06935394 0.078198776 -0.06859364 0.08606307
000080 59 6f 67 3e b9 86 de bd 40 35 0a be 59 6a 34 3d
       0.2260107 -0.1086554 -0.13496876 0.044046734
000090 82 35 d1 3c ec 7d 5b 3e 91 c6 3f bd 0c 9b 2a 3d
       0.02553821 0.21434754 -0.046820227 0.04165177
0000a0 f2 ce 02 3e 45 4e 8e 3d b9 34 0c bd b0 3b c7 3d
       0.12774256 0.069485225 -0.034229968 0.09728181
0000b0 1c a1 d3 bd be 29 52 bd 78 ed df 3d b3 d6 5a bd
       -0.103334635 -0.05130934 0.109339654 -0.05342741
0000c0 0a 8b b4 3d 9f 24 b2 3b cc 91 98 bc 49 83 7f 3c
       0.08815582 0.0054364945 -0.018624209 0.015595266
0000d0 11 37 0c 3e e3 2a be 3d 16 6d af 3d a2 bf b4 bd
       0.13692881 0.09285524 0.08565728 -0.088256136
0000e0 74 d4 89 3d ce 92 3d 3d 55 65 d8 3c de 73 b7 3c
       0.06729975 0.046282582 0.026415506 0.022394117
0000f0 b6 7d 69 3d 20 2a f0 3c 7c 46 0b 3e 6f 6a bd bd
       0.057004653 0.029316962 0.13601106 -0.09248816
000100 81 8d 93 3c 1b 92 0c bd 5b ee c0 3d 26 d7 af ba
       0.01801181 -0.034319025 0.09420463 -0.001341556
000110 c0 54 13 be 47 05 a5 3d 43 ba ae bc c0 9d 85 3d
       -0.14387798 0.08057647 -0.02132905 0.06524229
000120 00 6e bb 3d 14 b4 d6 3d 4f bf 4d 3d 44 6b 21 bd
       0.0915184 0.10483566 0.050231274 -0.039408937
000130 cf 36 3c 3c 22 bd 4c bd 78 14 99 3d 40 93 ef 3d
       0.011487677 -0.04998506 0.07474607 0.116980076
000140 ea 88 b1 3d d4 45 b3 bc 30 bb a6 3d e6 c2 b2 3d
       0.086686924 -0.021883883 0.08141172 0.0872858
000150 18 11 95 3d ec cf 1f be ab 30 ba bd 9c 53 a8 bc
       0.07278651 -0.1560666 -0.09091314 -0.02054768
000160 cf c2 cf bc 3c 42 18 bd 81 94 df 3d ec 6f 22 3e
       -0.025361447 -0.03717254 0.10916997 0.15863007
000170 47 a4 b3 bd 8d d0 d8 3c 82 a2 f6 3c ce fb 84 bd
       -0.08771568 0.026466632 0.030106787 -0.064933404
000180 f0 30 96 3d ef 33 42 3d 7a fa 56 bc 3f a7 14 bd
       0.07333553 0.04741281 -0.013121242 -0.03629231
000190 5c f2 fa 3c 6f 83 63 bc 86 6b c4 bc fe d1 82 3d
       0.030633144 -0.013886317 -0.023977052 0.06387709
0001a0 52 84 42 3c 08 44 a1 bd 3d eb 8d 3b d9 e3 de 3c
       0.011872368 -0.07874304 0.004331021 0.027208256
0001b0 be c2 6f bc 9e cd c0 3d 65 3c a7 bd d3 92 26 bc
       -0.0146338325 0.09414218 -0.08165816 -0.010166842
0001c0 b6 12 25 3d f8 38 69 3c 95 00 19 3e b6 b9 24 3d
       0.040301047 0.014234774 0.14941628 0.04021617
0001d0 17 b8 db bd 8d 22 e8 3d 2c 17 3b 3d e3 31 db 3d
       -0.10728472 0.11334715 0.045676395 0.107028745
0001e0 5e 22 61 bb 7b 26 55 bc 02 8c 4c bd e6 9a fd 3d
       -0.003435276 -0.013009663 -0.04993821 0.1238306
0001f0 da b1 d3 3d f7 30 2c bd 1a 7b 43 3c 00 3b f0 bc
       0.10336657 -0.042038884 0.011931205 -0.029325008

btcnn.layers.2.conv1d.weight f4 [27, 128, 3]
000000 78 dd 05 bd 81 13 c5 bc 42 e5 7a 3d c2 d0 35 3c
       -0.032681912 -0.024057152 0.061253794 0.011097135
000010 ad c3 22 3e 3d fa 05 3d 9f 1d 84 3d cd 80 4d bd
       0.15894957 0.03270935 0.06450962 -0.050171662
000020 e8 9e fe bd ee bf a5 3c be eb f5 bc 3d 74 8b 3d
       -0.12432653 0.02023312 -0.030019637 0.0680928
000030 16 20 f8 bc 20 9e 36 3d 3d 8e ae bd c5 4c 7c 3c
       -0.030288737 0.044584394 -0.085232235 0.015399163
000040 74 17 91 bc 79 70 5b 3d 0d 09 95 3d 3a 3b 2f bd
       -0.017711379 0.05357406 0.07277117 -0.042781092
000050 ac cf f6 3c 01 09 2f be f8 c9 36 be f0 81 bc bd
       0.030128323 -0.17093278 -0.17850482 -0.09204471
000060 a1 c1 66 bc 0f 34 2e bd f6 34 25 3e 5d 55 95 bc
       -0.014084251 -0.042530116 0.16133484 -0.018229181
000070 9f 42 d9 bc 3a 0a 8a 3d 03 a9 95 bc ed 41 bd bc
       -0.026521025 0.06740232 -0.018269068 -0.023102725
000080 31 9f 91 3d 1f 06 e1 bc 93 e7 ff bb cf 32 22 3d
       0.071104415 -0.02746874 -0.007809588 0.039599236
000090 a1 86 d0 3d f8 31 fd 3c 94 8d a1 3d 91 56 ce bd
       0.101819284 0.030907616 0.07888332 -0.10075105
0000a0 a2 79 9c 3d c5 78 a7 bd bf 75 2d bd 93 98 22 3c
       0.07640387 -0.08177332 -0.04234862 0.009924072
0000b0 44 f0 a6 bc e3 b3 af 3d f2 14 51 3d 2f af d2 3b
       -0.02037824 0.085792325 0.051045366 0.006429575
0000c0 25 9d e8 bd 69 0b 5c 3d 98 b3 f0 bd 5c f0 00 bd
       -0.11358098 0.05372182 -0.11753005 -0.031479225
0000d0 20 81 e6 3c b9 dc 87 3d 79 7d 10 3e ab 74 ab 3d
       0.028137743 0.066338964 0.14110364 0.08371862
0000e0 81 ab 5e 3d 75 90 e1 bd 9d 21 9a bc f1 23 50 3d
       0.054362778 -0.11013881 -0.018814856 0.050815526
0000f0 f6 e7 1f bd ad 2c ca 3b 3e 31 2b 3e f8 08 0f 3d
       -0.039039575 0.0061698765 0.16718003 0.034920663
000100 ce 22 96 3d d5 42 df 3d 48 a1 b4 3c bc ff 99 3c
       0.07330857 0.10901419 0.022049561 0.018798701
000110 f8 41 19 3e 7e 2c 59 bc 6a e3 e2 3c 43 c4 7c 3c
       0.14966571 -0.013255237 0.02769633 0.015427652
000120 aa 03 93 bd f6 2e 8c 3d db 03 9e bb 4b d2 b4 3b
       -0.07178433 0.068448946 -0.004822237 0.005518233
000130 60 ac 20 be 9f 00 f6 bd a3 72 73 bc 5d 68 4a 3c
       -0.15690756 -0.12011837 -0.0148588745 0.012353984
000140 95 7c bf 3d b9 4e 68 bd 97 d6 9f bd 91 d5 4a 3c
       0.09349934 -0.0567157 -0.07804602 0.01238002
000150 17 2f fa bd f4 21 2c 3d 4b 09 5c 3b 97 d1 e7 3d
       -0.12216013 0.042024568 0.0033574875 0.11319273
000160 8d 81 2d 3e 65 ed aa 3d aa 6c cd 3c 57 8f 1c bd
       0.16943951 0.08346061 0.02507623 -0.038222637
000170 f3 3d cf bd 38 70 85 3d 17 bc 8a bc 50 9f b0 3e
       -0.10119238 0.06515545 -0.016935391 0.34496546
000180 66 ca b3 bc cf 96 1c bc 92 0e 68 3d ea c3 d2 bb
       -0.021947097 -0.00955744 0.05665452 -0.006432046
000190 a3 d5 0c 3d cf 38 c9 bd 2f a3 b6 bd bc d2 4b 3d
       0.034383427 -0.098252885 -0.089178436 0.04976152
0001a0 1d 1d 58 bd 77 dd ac 3d d8 2b 63 3d f8 59 a8 3c
       -0.05276214 0.084406786 0.055461735 0.020550713
0001b0 b9 1b 3a bd c8 32 bd bc e0 a6 b3 3b 37 49 b1 bb
       -0.045436595 -0.023095503 0.0054825395 -0.005410339
0001c0 68 ce 3a 3d 06 74 b7 3d 7b c5 60 be dc 1d 66 ba
       0.045607 0.089576766 -0.21950333 -0.0008778253
0001d0 2b 25 43 bd d7 f8 d2 3c 5d e0 87 bd 88 30 6b 3c
       -0.047642868 0.025753422 -0.06634591 0.0143548325
0001e0 af ca ab bb 73 b2 4e ba 7d 08 8d 3d 1b 06 86 bd
       -0.0052426676 -0.00078848674 0.06886385 -0.06544133
0001f0 41 06 b9 3b b1 56 d5 3d 5f 93 73 bd 47 a1 5e bd
       0.0056464975 0.10416926 -0.059466716 -0.054353025
000200 9a 81 c3 bd f3 6b 16 bd 98 10 a3 3c ac 80 e5 bc
       -0.09546204 -0.036724042 0.019905373 -0.028015457
000210 a2 e3 e1 bd 48 dd 35 bd 91 53 cd 3d da a3 36 bc
       -0.11029746 -0.044400483 0.10025705 -0.011147464
000220 81 9d 4a bd d1 f8 8c 3d 30 53 3c 3d be e2 00 3d
       -0.049466614 0.068833955 0.04597777 0.03146624
000230 7f 79 5c bd 3d 51 51 bd 06 24 75 3c 71 70 50 3b
       -0.053826805 -0.051102865 0.014962202 0.0031805302
000240 93 75 15 bd 40 0b 98 bd 12 2d 92 3c 8d 3c 92 bd
       -0.03648908 -0.07424021 0.017843757 -0.071404554
000250 9a 74 76 bc 92 d4 e9 bc df 25 22 3d ac 87 cf bc
       -0.015042448 -0.028543744 0.039586898 -0.025333248
000260 4d 21 67 bd 94 28 0f bd 75 e9 90 bd 48 c3 14 3d
       -0.056428242 -0.034950808 -0.070757784 0.036319047
000270 02 9b 3c 3d c1 41 82 3d f2 d4 e1 3c 77 92 dd 3c
       0.046046264 0.06360198 0.02756736 0.027047379
000280 3a 49 20 3d 9b 1e 5b 3d b4 77 70 3d 6a 89 c3 bc
       0.039132334 0.053495985 0.058707908 -0.023869235
000290 9a 0e 13 3d fb 2b 96 be c6 69 70 3d eb fa b8 bd
       0.035902597 -0.2933043 0.058694623 -0.09032234
0002a0 4e f9 18 be 6c bf 0f 3d de 1f cb bd 01 05 93 3d
       -0.14938852 0.035094664 -0.099181876 0.07178689
0002b0 5d 19 eb 3d e9 45 32 3d 27 1c 33 3c 3d de 30 3d
       0.11479447 0.043523703 0.010932005 0.043180693
0002c0 d9 26 b5 3d d9 f3 99 bd 6c 72 9c 3c e6 b0 cc bc
       0.088453 -0.075172134 0.01909753 -0.024986695
0002d0 db 42 2c bd 1b 02 b2 3d 46 e1 c2 39 27 48 f2 3c
       -0.042055946 0.08691808 0.00037170405 0.02957542
0002e0 78 df cf 3c 91 4e 4f 3e c4 b3 3c 3d 55 c7 32 bc
       0.025375113 0.20244814 0.046069875 -0.010911782
0002f0 b1 e0 f5 bc bc f6 52 bd 91 07 2c be 79 dc a7 bd
       -0.030014368 -0.051504835 -0.16799761 -0.08196349
000300 bb 95 bb 3d 11 2a 17 3e 39 df 62 3c 6a 9d 12 be
       0.09159418 0.14762141 0.013847166 -0.14317861
000310 c0 d1 01 3d 78 a7 77 3d 87 fd ec 3d fe fb 09 3e
       0.031694174 0.060462445 0.11571794 0.13475034
000320 0c e8 0b 3e f2 4d 22 3d 74 6e 82 bd 4c 04 d4 3a
       0.13662738 0.039625116 -0.063687235 0.0016175597
000330 95 c6 04 3d 32 09 e8 bb 1b d9 96 3d d2 aa af bc
       0.032415945 -0.0070811743 0.07365628 -0.021443758
000340 98 be 83 bb 24 46 de 3d fa c7 9a bd 2d 5f 4a 3c
       -0.0040205233 0.10853222 -0.07557674 0.012351793
000350 89 52 1f 3d 29 19 e6 3c 59 32 23 3d 47 04 88 3c
       0.03889707 0.02808817 0.039842937 0.016603602
000360 48 0b 0f bc e7 80 3f 3d ca d1 17 bd 22 a6 14 3d
       -0.008730717 0.04675379 -0.037065305 0.03629125
000370 fa d2 33 bd 2a bd 74 bd b6 fd c1 bd 1b da a5 bc
       -0.043902375 -0.059750713 -0.0947222 -0.020245602
000380 d8 7a 04 3d 46 08 c9 bd 0f 29 74 bc 62 e1 8c bd
       0.032343715 -0.09816031 -0.014902367 -0.06878926
000390 d4 a8 82 bd d4 56 9d 3d fc 3e 0c 3d 19 94 1b be
       -0.06379858 0.07682577 0.034239754 -0.15193214
0003a0 38 86 8a 3b 9a 2c 1b bd 34 5c 13 3e 7c fe d3 3d
       0.004227426 -0.037884332 0.14390641 0.103512734
0003b0 bd bf ec bc 0c 4b f1 3c b7 37 ab 3d ab 7b 1d 3c
       -0.028900022 0.02945473 0.08360236 0.009612004
0003c0 65 3b 4c 3c f3 0e fd bb c9 cb 48 3d 48 4e 0b bd
       0.012465333 -0.0077227294 0.04902247 -0.0340102
0003d0 91 8d 7c bd d4 05 ad bd e5 28 14 bd b7 fb 6a 3d
       -0.061658446 -0.08448377 -0.036171813 0.05736896
0003e0 e2 7e 85 bd 74 32 64 bd 74 80 ff 3c 8a e9 90 bc
       -0.065183416 -0.05571218 0.03118918 -0.017689485
0003f0 98 8e b5 bc f7 69 fc 3c 4d 8c 45 bb ce 2a e1 3c
       -0.02216272 0.030812247 -0.003014344 0.027486231

btcnn.layers.2.conv1d.bias f4 [27]
000000 0a a0 6c 3d dd e6 0e bd 1d 44 47 3d 0b 1f 81 bb
       0.057769813 -0.034888137 0.048648942 -0.003940468
000010 57 88 6f 3b 88 7b 90 3c c8 73 8a 3b db 6f 70 bc
       0.003654977 0.01763703 0.004225228 -0.014675106
000020 be 30 c9 3c 69 b4 95 bc 2f e6 fe bc af db 63 bd
       0.024559375 -0.018274503 -0.03111562 -0.05562943
000030 b4 c3 c9 3c 70 e1 20 bd 7f 78 79 3d f4 d0 dd bb
       0.024629451 -0.039277494 0.06090593 -0.006769294
000040 0b 68 d5 3c 00 1c 7c bd 73 bd 59 3b 7e b7 8b bd
       0.026050588 -0.06155014 0.0033224493 -0.06822108
000050 6d 5b a8 bc bf 39 ca 3c 42 f6 de 3c 42 a0 8a bd
       -0.020551408 0.024685739 0.027217034 -0.06768848
000060 26 0d f8 bc 17 78 2f 3c 83 87 2f bd
       -0.030279707 0.010709784 -0.042853843

fcnn.0.weight f4 [256, 27]
000000 73 d9 08 37 5c a5 6a bd 9e 69 3f bc df bd 04 3e
       8.1568605e-06 -0.057286605 -0.011682896 0.12963055
000010 18 67 23 be 47 00 1c be 79 24 74 bd 86 58 fc bc
       -0.15957296 -0.15234481 -0.059605096 -0.03080393
000020 8b 8c 84 3c ce 0e 01 be 06 66 f8 3c 7e e8 69 3d
       0.016180297 -0.12603304 0.030322086 0.057106487
000030 9f 4c c7 3d 72 fd 5d 3a 7b 56 10 3e f6 94 2b 3d
       0.09731411 0.0008468247 0.1409549 0.041890107
000040 65 12 49 3e 87 ec 9e 3d ff 1e 65 be a1 db 9b 3c
       0.19635923 0.07759958 -0.22375105 0.019025626
000050 3a 9c ef 3d 8e e6 9e 3d f6 d9 9f 3d 86 0c 07 bd
       0.1169972 0.077588186 0.078052446 -0.032970928
000060 f7 a7 fa 3c 4b a4 8b 3b d4 04 ec 3d eb 41 61 be
       0.03059767 0.0042615286 0.115243584 -0.21997802
000070 2f cc be 3d 47 83 0b 3e 0a 6c 57 bc 5e e3 e0 3d
       0.09316289 0.13624297 -0.013148317 0.10980867
000080 5d c3 11 be b7 db 13 bd ca 99 d5 bb 04 fa 0d bd
       -0.14234681 -0.03609821 -0.006518577 -0.03466226
000090 fd 84 f0 3d 7f b3 e1 3d b3 6f 57 3e 45 fd c0 3d
       0.117441155 0.11020564 0.21038704 0.09423307
0000a0 f5 a4 e6 3d a7 cc 10 bd c7 90 b4 bd 7f 02 b6 bd
       0.11261932 -0.03535142 -0.088166766 -0.08887195
0000b0 62 2a 31 3e fd de ea 3d ec 8d 99 3d f4 0c 08 bd
       0.17301324 0.11468313 0.074977726 -0.033215478
0000c0 85 67 0d 3e dd 7d 06 bd a0 e1 12 3e d1 cf 62 be
       0.13809021 -0.032834876 0.14343882 -0.22149588
0000d0 3d 55 15 be 29 eb 00 3e 5b 85 86 be d7 68 a1 3d
       -0.14583297 0.12589706 -0.26273617 0.07881325
0000e0 ef 84 70 bd b6 19 af 3d 4b a2 af 3d 7c 90 07 be
       -0.058720525 0.08549826 0.08575877 -0.1323871
0000f0 73 75 22 bd 4e 00 cf 3d 11 36 cd 3d 30 e5 14 3e
       -0.03966279 0.1010748 0.10020078 0.14540553
000100 30 bc 77 bd 75 fb fd bc 1a eb 22 3e 8a a5 3f bd
       -0.060482204 -0.031003693 0.15909997 -0.04678873
000110 0f 49 19 3e d2 0e df bd 0c f7 88 3e 53 6f 33 3e
       0.14969276 -0.108914986 0.26750982 0.17522936
000120 a2 71 b2 3d 27 ea 36 3e 82 9c 90 bc 66 c3 75 bd
       0.0871308 0.1786276 -0.017652754 -0.0600008
000130 a2 10 2c bd 71 a0 7d bd fc b4 9c be 70 97 bb 3c
       -0.04200805 -0.061920587 -0.3060683 0.02289936
000140 b7 5e 6e be 66 68 8e bc d6 03 2f 3d c7 9d 80 3d
       -0.23278318 -0.017383765 0.042728268 0.06280094
000150 66 fd 3c 3e ec ff 14 3d d6 44 03 be bd d7 5c 3d
       0.18456039 0.03637688 -0.12819228 0.05391668
000160 2c 6a d4 bd 37 27 ff bd 2c 04 10 3d cc 1f 08 3e
       -0.10371813 -0.124586515 0.03516023 0.1329338
000170 87 ae 64 be 34 89 e2 3d af 1e e2 bd 5a 87 26 be
       -0.22332202 0.11061326 -0.11041009 -0.1626257
000180 b0 0d 0d be e0 dc 85 be 17 b2 07 3d 3c 58 88 bb
       -0.13774753 -0.26145077 0.033128824 -0.004160909
000190 6b 38 e9 bc 31 0d 0b be a3 55 df 39 d1 42 d8 3d
       -0.028469285 -0.13579251 0.0004259768 0.10559619
0001a0 34 a9 3e 3e 90 05 08 3e 88 8b 1a be 40 3c f7 3d
       0.18619233 0.13283372 -0.1509229 0.12072039
0001b0 b5 94 0d 3d 3c 04 2a 3e 6b 03 5c be 80 87 16 3e
       0.034565646 0.16603178 -0.21485679 0.14700127
0001c0 95 8c 00 bd 39 b2 a0 bd b7 a2 1e 3e 12 ca e0 3c
       -0.03138407 -0.07846493 0.15491758 0.027440105
0001d0 76 a6 1c 3d 66 f6 15 be 7e e9 11 3e 67 ef 68 bc
       0.038244687 -0.14644775 0.14249226 -0.014217234
0001e0 fb 73 cb bd 40 2b 1a 3d aa 1d fe 3d 0e 66 2d 3e
       -0.09934231 0.037638903 0.12408002 0.16933462
0001f0 18 5c 1c be fa 11 04 be 70 99 b4 be 21 74 9d 3d
       -0.15269506 -0.12897483 -0.35273314 0.076881655
000200 7d e3 a6 bc 85 79 09 be 5e 67 93 be b9 ca 81 bd
       -0.020372147 -0.13425262 -0.287898 -0.063374944
000210 42 22 ed bc 11 d6 5c 3e d8 7b 8d 3c e2 c4 52 3d
       -0.028947 0.21566035 0.017270967 0.051457293
000220 f4 26 bf 3d 86 15 56 bd 7d 87 2f 3d cb d7 86 bd
       0.093336016 -0.05226662 0.04285382 -0.06584128
000230 91 cf 57 bb af 62 b8 3d cd 18 fe 3b c8 a9 f6 bd
       -0.0032930116 0.090031974 0.0077544213 -0.12044102
000240 27 5d 06 bd 81 15 d6 3d 99 81 c0 bd 65 7e 1e bd
       -0.03280368 0.1045332 -0.09399719 -0.038694758
000250 fd 50 e3 3d a6 bf bd bd ba 2e e2 3d 07 82 20 3e
       0.11099432 -0.0926507 0.11044069 0.15674601
000260 fd 6b e9 bd a7 a8 30 be a8 27 83 3e d3 82 54 3e
       -0.1139755 -0.17251836 0.25616193 0.2075303
000270 3a 37 b3 bd f8 cc d4 3b c1 d6 da bd 57 37 a6 bc
       -0.08750768 0.0064941607 -0.10685492 -0.02029006
000280 b7 63 cd 3d 26 c9 a4 bd 01 3b 8c bb c8 4c 60 3d
       0.10028785 -0.080461785 -0.0042794948 0.054760724
000290 13 4b b4 bd 6e 93 70 bd 76 ae 32 bd 38 9f f5 bd
       -0.08803382 -0.05873435 -0.04362341 -0.11993259
0002a0 94 a1 51 be e7 c8 21 3e ec 0a 12 3e 5c e7 08 be
       -0.20471793 0.15799294 0.14261979 -0.13369507
0002b0 b0 55 0a 3e da 80 67 3d cd ea 2a bd b8 55 e1 bd
       0.1350925 0.056519367 -0.04172783 -0.11002678
0002c0 2e f8 26 be 1a cd 12 be 53 3d 20 3d 2e 28 1f be
       -0.1630561 -0.14336053 0.039120983 -0.15542671
0002d0 63 93 4b bc 1e bf 48 bd 81 94 3b 3d ae 82 50 bd
       -0.012425276 -0.04901039 0.04579592 -0.050905876
0002e0 c9 c9 12 3e e5 e8 b0 bd fb ba 26 3e b4 a7 a1 bc
       0.14334787 -0.08638171 0.16282265 -0.019733287
0002f0 46 3b 68 bd bc fd 60 be 1e 4a 6b 3e a2 f3 95 bc
       -0.056697153 -0.21971792 0.22977492 -0.01830465
000300 60 af b2 bd 33 ba 16 be fc c1 cf bd 1a 31 aa ba
       -0.087248564 -0.14719467 -0.101444215 -0.0012984604
000310 d8 06 8c 3c 82 7e 7e 3e c8 e0 de 3b fc e9 12 3d
       0.017093107 0.24852946 0.0068016984 0.035867676
000320 1d de 11 bd 15 af c8 3d 96 31 72 bd 77 2d 8a bd
       -0.035612214 0.09799019 -0.05912932 -0.06746953
000330 d6 81 1f 3d 68 55 8c 3d 3a a4 21 bd 15 fb f3 bd
       0.03894218 0.068522274 -0.03946326 -0.119131245
000340 08 52 84 3e 34 7b 32 3e e3 5e 50 be 57 26 85 be
       0.25843835 0.17429811 -0.20348696 -0.26005813
000350 42 19 b7 bd 2e 54 53 bd cc 1c 9f 3c 61 af 4d be
       -0.089403644 -0.051593952 0.019422911 -0.20086433
000360 74 d3 45 bd ec c7 87 3d 52 cf ac bd 10 53 f3 3d
       -0.04829736 0.06629929 -0.08437981 0.11881077
000370 06 a2 21 3e 83 44 d3 bd 90 f5 1a be 57 28 3d bd
       0.15784463 -0.10315802 -0.15132737 -0.04618105
000380 fb 92 aa 3d 30 43 1e bd 6d de 2f 3e 63 d3 46 3e
       0.083288155 -0.038638294 0.17174692 0.19416575
000390 26 ec 33 3e 21 61 eb 3d d9 93 1d 3d a0 08 29 be
       0.17570552 0.11493135 0.038471077 -0.16507196
0003a0 ab 9a 6c 3d c3 db 2c 3e ea 37 c8 bc a6 26 e3 bc
       0.05776469 0.16880707 -0.024440724 -0.02772839
0003b0 ec 9d 2e 3e 5d 7b 65 bd 0b 80 00 be 72 6a 53 3c
       0.1705243 -0.05602585 -0.12548845 0.0129037965
0003c0 3f 0c 26 3d 91 28 98 3d 74 ad 0f 3d 6e d4 41 3e
       0.040539023 0.074296124 0.035077527 0.18928692
0003d0 e8 1f 73 bd 04 bb da 3d dc 30 17 3d ba d6 7c 3c
       -0.0593566 0.10680202 0.03691183 0.015432054
0003e0 a6 24 3a 3e 4a ca bd bd 25 3f 3e 3e b4 ef 31 be
       0.18178043 -0.09267099 0.18578775 -0.17376596
0003f0 d4 9c 8a 3d 4f 9d 60 be 2a 66 d9 3d 64 6b 06 be
       0.06768194 -0.21935008 0.106151894 -0.13126904

fcnn.0.bias f4 [256]
000000 6c 6b dc 3c 8b 40 16 bd cf 06 1a 3e 45 24 ef bd
       0.026906691 -0.036682647 0.1504166 -0.1167684
000010 15 ee 0d 3e 18 04 02 3e fb 48 d0 bd 36 64 2e 3e
       0.13860352 0.12696874 -0.1017017 0.17030415
000020 30 26 8f bd 71 16 35 3e a1 8d 1d be 1e d6 30 3e
       -0.069897056 0.17684342 -0.15386058 0.17269179
000030 61 5f 13 3e 95 01 3e 3d 20 c3 7a 3d 8e ad 17 3e
       0.14391853 0.046388227 0.061221242 0.148123
000040 94 86 1f 3e 6c 42 f9 bd 0f 6e d1 bc a3 38 33 be
       0.15578681 -0.12170872 -0.025565175 -0.17502074
000050 dd 8d 88 3e 6f f1 f5 3c 6f f1 68 3e d0 e6 ef bd
       0.26670733 0.030022351 0.2274835 -0.11713946
000060 f0 e6 39 be 2d e9 26 bd a0 f2 c9 3d a9 08 7b 3d
       -0.18154502 -0.040749718 0.0986073 0.061287556
000070 b0 36 ae bd 00 cc 38 be fc 0f 29 be 7e 66 49 3d
       -0.085065246 -0.1804657 -0.16510004 0.04917001
000080 b5 46 13 bc 5c 5a 95 3d a0 d8 43 bd de fb a3 bd
       -0.008989026 0.07292625 -0.04781401 -0.08007024
000090 67 b6 06 3d c7 7d d3 bc 4d 9a 02 3e 95 e6 4a be
       0.032888796 -0.025816811 0.12754174 -0.19814523
0000a0 48 21 b0 bd bd cb e8 bd c4 16 91 bd 61 0b 19 be
       -0.08600098 -0.11366985 -0.0708442 -0.14945747
0000b0 be 0b 4d be 98 dc 2e be b7 28 39 be 21 8c 13 3e
       -0.2002401 -0.17076337 -0.18081938 0.14408924
0000c0 93 25 28 3e 17 94 bf bd fc 91 0a 3e 7a 63 55 bc
       0.16420583 -0.09354418 0.13532251 -0.013024205
0000d0 b0 03 e5 bd 21 8c 28 be 76 43 26 be 6a e5 23 bd
       -0.11182344 -0.16459705 -0.16236672 -0.04001371
0000e0 cc 73 d1 3d d4 dd fa bd 6d 2d 33 bb 62 e9 1c be
       0.102271646 -0.122493416 -0.0027340308 -0.15323403
0000f0 38 79 4e be 49 85 99 3d a4 87 2d be 79 75 3a 3e
       -0.20163429 0.07496125 -0.16946274 0.18208875
000100 6e 02 05 3e 3f 0a be bc 0f 3e 24 be 73 26 18 bc
       0.12989208 -0.023198245 -0.16039298 -0.009286511
000110 25 d1 07 be 8f 14 12 be 20 29 20 bc f3 78 1d be
       -0.13263376 -0.14265655 -0.00977543 -0.1537817
000120 98 a6 38 3e 9d c2 8b 3c 0a 37 bf 3c a2 de 36 3e
       0.180323 0.017060572 0.023341674 0.17858365
000130 51 4a 80 bc 1f 0e 17 bc 63 29 57 be 39 0b 15 3e
       -0.015660437 -0.009219675 -0.21011882 0.14555062
000140 07 b7 60 3e 59 4c 87 bd 10 57 0f 3e b7 ee 88 bd
       0.2194482 -0.06606359 0.13998055 -0.06686156
000150 57 0e 4c 3e 7c f0 44 be 42 0a 0d be 24 a9 38 3e
       0.19927345 -0.19232363 -0.13773444 0.18033272
000160 83 14 05 be 43 89 2e be 03 c9 d4 bd 7c 4b c1 3d
       -0.12996106 -0.17044549 -0.103899024 0.094382256
000170 d3 ed 6e 3e 58 d4 3a bd 1a 3b 10 be 3d ca 8a 3d
       0.2333291 -0.045612663 -0.14085045 0.06776855
000180 36 a8 12 3d 6e 31 5e 3e 1e 69 66 3d 96 f7 42 be
       0.03580495 0.21698543 0.05625259 -0.19039759
000190 b7 ec cc 38 db 3d 37 3a fa 5c ff 3d 06 98 0d 3e
       9.7715696e-05 0.0006990113 0.12468906 0.13827524
0001a0 b7 15 1a be 1a 02 cf bd a0 ad d6 3d ae f5 cf bd
       -0.15047346 -0.10107823 0.10482335 -0.101542816
0001b0 26 3b 48 be e2 59 3b bd e4 f6 4c 3e 2c 00 0d bd
       -0.19553813 -0.045740016 0.20016056 -0.034423992
0001c0 7d ad f1 3d cd 48 b5 3d bf 97 cc bd aa 67 e8 bd
       0.118006684 0.08851776 -0.09989881 -0.11347897
0001d0 03 ce 31 3e 53 6c 4c bc d4 90 e1 b9 70 1a 51 3d
       0.17363743 -0.012476998 -0.0004302325 0.051050603
0001e0 08 f2 3e be cf 22 ad bd 54 7d 09 3e 01 5b 38 bd
       -0.18647015 -0.08453905 0.13426715 -0.045008663
0001f0 4c 94 f9 bd 6b ca 1e 3e a8 8c 16 bc b5 7f 59 bd
       -0.121864885 0.15506904 -0.0091888085 -0.053100307
000200 14 65 41 be 62 8e dd 3c 74 ee 2d 3e b9 0d 0a 3c
       -0.18886214 0.027045432 0.16985494 0.008426123
000210 0e c2 43 bd 5c 8d 9f 3c c0 7d cc bd 49 12 1f be
       -0.047792487 0.019476585 -0.099849224 -0.15534319
000220 4a aa c9 bd e0 65 c2 3d 8d 9e 24 bd 22 c1 ec bd
       -0.09846933 0.09492087 -0.04019027 -0.11560275
000230 9a 55 2a 3e 28 ba 20 bd ec 8b 8d 3d bf e3 d3 3d
       0.16634217 -0.039240032 0.069114536 0.103461735
000240 54 c1 de bd 8d 7c b5 3d 18 7e c7 3d 98 99 5d bd
       -0.10876718 0.08861647 0.09740847 -0.054101557
000250 de 2b 31 3e 73 39 3b be e2 f2 03 3d fa 68 1e 3e
       0.1730189 -0.18283634 0.032214053 0.15469733
000260 b9 ec 56 bd 8e 71 3e 3e 40 ec 5e bd 23 3d 07 3e
       -0.05247185 0.18598005 -0.054424524 0.13206916
000270 43 c5 e4 3d c1 43 7f bb 62 58 19 3e da 22 83 3c
       0.11170437 -0.0038950297 0.14975122 0.01600783
000280 6f eb 2f be 86 f4 57 3e 49 aa 1a 3e c7 1e 04 3e
       -0.17179655 0.21089372 0.15104021 0.12902366
000290 27 e1 33 3e 94 36 1d 3e 21 37 4c be 7b 50 de 3d
       0.17566358 0.15352851 -0.19942905 0.10855194
0002a0 c5 a5 c5 bd 0a 72 64 bd 28 a3 05 3e 3d fe be bd
       -0.09650759 -0.05577282 0.1305052 -0.09325836
0002b0 59 de c2 3d a9 f1 82 bd fe 0f 0f 3e c6 d1 05 3e
       0.09515066 -0.06393749 0.13970944 0.13068303
0002c0 5a e9 91 b9 0c 54 5c 3d b3 d3 ff 3d 23 59 95 bd
       -0.00027830416 0.05379109 0.1249155 -0.07292392
0002d0 98 bf 9a 3d 2c 44 15 bb 4b b3 1d 3e 20 39 d7 3c
       0.07556075 -0.002277623 0.15400426 0.026272357
0002e0 1e 56 da bd f5 af 5b be a4 f9 27 3d c6 c8 3a 3d
       -0.10660957 -0.21453841 0.04100956 0.04560163
0002f0 92 0e 2a be d2 a0 1f 3e 3d 45 e3 bd 03 75 34 3e
       -0.1660712 0.15588692 -0.110971905 0.17622761
000300 00 6b 40 3e 80 ec 24 3d 92 65 28 3e 19 e9 a4 bd
       0.18790817 0.040264606 0.16444996 -0.08052272
000310 96 6f 5d 3d 2b 1f 7c bc 04 16 9e bd cb 2e a1 bd
       0.054061495 -0.01538829 -0.07719043 -0.07870253
000320 86 5a c8 3d d3 1c 8e 3e dc 94 4e 3e 08 dc 5e 3c
       0.09782891 0.27756366 0.20173973 0.013602264
000330 02 2b d1 bd d9 44 bb 3c 94 df 4b be 53 b4 a5 bd
       -0.10213281 0.022859978 -0.19909507 -0.08091035
000340 37 6f 8e bc 64 32 17 bc b7 22 c4 3c f8 d6 2d be
       -0.017387016 -0.009228323 0.023942335 -0.16976535
000350 4a a2 11 3e b1 9c d9 3d 80 37 16 be dc 43 07 3e
       0.14222065 0.1062559 -0.14669609 0.1320948
000360 1e e9 07 3e fa a8 6f 3d 2e 6a e0 3d 49 95 35 3e
       0.13272521 0.058510758 0.10957752 0.17732729
000370 69 27 2b 3c cc a3 2a 3e 26 2b a9 bd 84 98 b7 3d
       0.010446408 0.16664046 -0.08260183 0.08964637
000380 c1 8d cd 3c c3 c9 eb 3c e2 09 e5 3d a4 45 a7 3d
       0.025092008 0.02878273 0.111835256 0.0816758
000390 c5 24 e8 bd 02 44 55 3e 7e 50 83 3d c1 a7 52 bd
       -0.11335138 0.20826724 0.06411837 -0.051429514
0003a0 bf e5 06 3e 38 9f 99 3d 6c 7a 88 3d 8d a3 3b be
       0.13173579 0.07501072 0.06663975 -0.18324108
0003b0 c2 5e 0e 3e a4 95 0e be 91 dd 86 3d 46 65 bf 3c
       0.13903335 -0.13924271 0.06585229 0.02336372
0003c0 d7 71 54 be 24 ac bd bc bb 09 bd bd ff 01 02 3d
       -0.20746551 -0.023153372 -0.092303716 0.031740185
0003d0 97 dc b4 bd 02 83 15 be cd e1 2c 3e 55 92 15 3e
       -0.08831137 -0.14600757 0.16883011 0.14606602
0003e0 c7 09 4e bd 56 e5 e9 3d 59 6e 35 3e 7b 23 29 3e
       -0.050302293 0.114206955 0.17717876 0.16517441
0003f0 df c4 12 3e 4d 8f 16 bd c9 66 9f 3d ed 19 0e be
       0.14332913 -0.036757756 0.077832766 -0.13877077

fcnn.2.weight f4 [128, 256]
000000 a2 57 1c bd 70 bd 29 bb ad 9a 06 3c 2a d1 34 be
       -0.03816951 -0.0025900267 0.0082155885 -0.17657915
000010 db c7 10 3e ab 4d ec bc 7f 2e 03 3d d2 02 cd 3d
       0.14138739 -0.028845629 0.032026764 0.100103036
000020 7a 6f b8 3c 8b 21 ea bc ad fd 97 3c 4a 31 21 bd
       0.022514094 -0.028580448 0.01855358 -0.039353646
000030 48 20 c4 3c 56 31 04 be 71 ba 2b 3d e9 e7 20 3d
       0.023941174 -0.12909445 0.04192585 0.039283667
000040 76 d4 19 bd 5c f7 4c 3e e6 be 03 bd 54 5e cb 3d
       -0.037556134 0.20016235 -0.032164477 0.09930101
000050 f2 e3 d1 bc 1e b0 99 3d 08 21 07 bd 36 8f 9f 3d
       -0.025621388 0.07504295 -0.032990485 0.07790987
000060 0c 08 19 bd 4e 78 42 bd 50 2d 24 bd 11 3e 66 3d
       -0.03736119 -0.047478013 -0.040082276 0.056211535
000070 16 cd a4 bc fd de a9 3d 96 13 1c be 2b 9b fc 3d
       -0.020117324 0.08294485 -0.15241846 0.123342834
000080 e9 49 cf bc 73 c3 e6 3c 9a 69 21 3d 36 2e ec 3c
       -0.025303798 0.02816937 0.03940735 0.028830629
000090 49 6b 66 bc b7 a4 df 3d c9 75 f5 3d 94 9f db 3d
       -0.014063665 0.10920089 0.11985356 0.107237965
0000a0 02 8d 60 3d 03 8b a1 3c 7b d4 58 3d e2 44 a4 3c
       0.054821976 0.019719606 0.052937012 0.020052377
0000b0 5c bd f7 bd 62 38 b5 bc 2b ae 3b 3e a0 48 4f 3d
       -0.12096664 -0.022121612 0.18328159 0.05060637
0000c0 9d 07 80 3c 00 0b 57 3d db 08 af 3d aa 61 3c be
       0.01562863 0.052500725 0.08546611 -0.18396631
0000d0 da 25 7e 3b 7a f1 90 bd 55 09 4c 3d 6c 34 93 bc
       0.0038779886 -0.07077308 0.049813587 -0.017969333
0000e0 13 6e 47 bd f5 fe 8c 3c 5a c3 c0 bc 0d 69 3c be
       -0.04868896 0.017211417 -0.02353065 -0.18399449
0000f0 d0 1a f8 3c ca 71 07 be 2f 94 c6 bd e6 4e 9b be
       0.030286223 -0.13227001 -0.096962325 -0.30333632
000100 13 9e bc bd 85 1f 9c bc 68 11 ad 3c 1f bc 88 3c
       -0.09209838 -0.019057998 0.021126464 0.016691266
000110 ba 25 42 3d 0a 95 28 3c 76 8a 2e 3e 71 36 e8 bd
       0.04739926 0.01028944 0.17045006 -0.11338509
000120 33 59 a1 bd 3b 36 ed bd 36 4e 1a 3d ac c2 43 bc
       -0.078783415 -0.11582609 0.037672244 -0.011948269
000130 64 a7 6e 3c 6e a0 3e 3d 1c 8d 02 3e be 30 36 3e
       0.014566276 0.046539716 0.12749141 0.17792031
000140 e2 13 16 3e 3e ae 99 3c 27 ca 08 bd 36 72 ec bd
       0.14656022 0.018759843 -0.033395912 -0.115452215
000150 cf 10 09 be e9 24 e9 bb 0e de 85 3e ef 1a 4a 3c
       -0.13385318 -0.0071149957 0.26145977 0.012335523
000160 8a 05 fc 3c ba c2 8d bd ae ab da 3d 7b b5 0e bd
       0.03076436 -0.06921907 0.106772766 -0.034841042
000170 0c df 28 3e 3a a2 19 3d d6 c1 35 3d d5 ba c3 bc
       0.16491336 0.037508227 0.04437431 -0.0238928
000180 14 65 af 3d 86 b5 c6 bd 4d 22 91 bc ea 92 d3 bc
       0.08564201 -0.097025916 -0.017716551 -0.02582689
000190 ca 4e d2 bc 7d 29 6d 3d f9 e5 05 3e 63 9b d8 bd
       -0.025672335 0.057900894 0.13076009 -0.10576513
0001a0 df 2a 30 3e df 02 8f bc 10 6b 05 3e 6b 61 a7 bd
       0.17203854 -0.017457424 0.13029122 -0.08172878
0001b0 ef 53 7e 3d dc 10 16 3e 44 6e 76 bd 90 a1 48 bc
       0.062091764 0.14654869 -0.06016375 -0.012245551
0001c0 37 9e 0a bd 6e d7 33 3d a2 3c 85 3b eb 33 e3 3c
       -0.03384229 0.04390662 0.004066066 0.027734717
0001d0 1d 32 25 3e 5c 64 71 3d d6 16 6f be 41 bb 8a 3d
       0.16132398 0.0589336 -0.23348555 0.06773997
0001e0 57 dc 9b 3d 41 81 82 3e 88 13 ff 37 e2 0d 31 3e
       0.07610386 0.25489238 3.0407464e-05 0.17290452
0001f0 b3 48 2e 3a 61 44 93 bd f6 60 1d be 88 b8 9f 3c
       0.0006648406 -0.071907766 -0.15369019 0.019497171
000200 48 b7 ae 3c 44 45 af 3d 3c 61 13 3d bc 25 42 3c
       0.02132763 0.08558133 0.0359814 0.011849817
000210 b8 9a a0 bd cb cb c5 3d d7 df 96 3c 16 04 28 3c
       -0.0784201 0.09658011 0.018417282 0.01025488
000220 d4 a3 85 3d eb d3 c9 3c 24 62 0c 3d 15 cd 25 bc
       0.06525388 0.024637183 0.03427328 -0.010119696
000230 cf 2b d0 3d 8e c1 71 3c 88 0b dd 3d 95 4d b6 3d
       0.10164606 0.01475562 0.10793215 0.08901516
000240 b2 eb 9e 3d 0c b8 5e 3d 3a 02 e8 3c 15 3e 47 be
       0.07759799 0.05437474 0.028321374 -0.19457276
000250 d8 aa f7 bc 09 54 11 3e 2d 12 32 3e dd 01 56 3e
       -0.030232832 0.14192213 0.17389746 0.20899148
000260 da 3b 86 3d 23 39 0f 3c 1e b1 04 3c 92 6e a9 3d
       0.065543845 0.00874165 0.008098869 0.08273043
000270 70 50 81 3d a2 7e de bc 5f af e6 3d 63 00 2c 3d
       0.0631417 -0.027159993 0.11263918 0.041992556
000280 8a 02 da 3c 64 cb 23 bd 16 75 42 3e 27 96 51 bb
       0.026612539 -0.03998889 0.18989977 -0.0031980367
000290 4f 3e 9e 3d 57 a2 02 be f4 38 c7 3c 77 cd 0b be
       0.07726728 -0.1275724 0.02431915 -0.13652597
0002a0 5f 24 d3 be 46 bf 07 bd 42 2f 81 3c f8 3f 90 3d
       -0.41238686 -0.033141397 0.015769605 0.07043451
0002b0 55 09 9b bd 96 e7 a5 3c ad 25 4c 3d d7 91 72 bc
       -0.07570139 0.02025203 0.049840618 -0.014805279
0002c0 5c 9b 77 bd 29 c5 87 be 27 57 3c 3d 03 3c 1c bd
       -0.060450897 -0.2651761 0.045981552 -0.03814317
0002d0 9d 5e a5 3c 4c 12 3d 3c 7e 1c 12 3d b9 37 32 3d
       0.020186717 0.011540007 0.035671704 0.043510173
0002e0 01 b8 53 3d 3c b1 06 3e 99 c8 f6 bb af 03 a1 3d
       0.05168915 0.13153547 -0.0075312373 0.07862031
0002f0 b6 93 ec bc 16 0f 0d be ff b4 f0 3d c1 70 20 3d
       -0.028879028 -0.13775286 0.11753272 0.03917003
000300 f6 46 08 bd 86 8c ad bd 2a 71 15 3e 91 e6 bb 3b
       -0.0332708 -0.08474068 0.1459395 0.0057342728
000310 a6 d3 1b 3e a9 07 f1 bc 9f fa 9b bb ee d1 8c be
       0.15217456 -0.029422598 -0.004760101 -0.27503914
000320 5f 6e bf bb 5e 2b 1f be 6c b7 da 3d aa 54 c1 3d
       -0.0058420147 -0.15543887 0.10679516 0.094399765
000330 94 f5 85 bc 87 33 ad 3d 8a c8 98 be 97 97 4b be
       -0.016352452 0.08457094 -0.298405 -0.19882046
000340 93 da d9 3d 51 51 5a 3d 74 a1 5e bc 5f 36 10 bc
       0.10637393 0.053300206 -0.013588298 -0.008802026
000350 96 8b ce bc a5 b5 b1 3c b0 dc 47 3d 35 f5 ca 39
       -0.025213044 0.02169306 0.04879445 0.00038711136
000360 98 e3 97 3c 0c a3 fe 3d 67 31 00 3e 5d 22 ed 3c
       0.018541142 0.124334425 0.12518845 0.02894705
000370 80 50 a6 bd c2 60 85 bd 95 6d 38 3d 9a 8c d3 bc
       -0.08120823 -0.06512596 0.04502638 -0.02582388
000380 f4 f7 50 bc 3b 31 08 bd c3 f7 47 3c cb f5 16 bd
       -0.012754429 -0.033250075 0.012205067 -0.0368555
000390 f0 cf 03 3d d1 67 81 bc ac cf 14 3d 52 90 2a 3e
       0.032180727 -0.015796574 0.036330864 0.16656616
0003a0 9f bd b3 3c de e0 73 3d 4f 71 d4 3d 38 57 bd 3b
       0.021941004 0.059540622 0.103731744 0.0057782196
0003b0 22 48 28 3d db e2 0d 3e 6f ba 1e 3d 23 5c 54 bd
       0.041084416 0.1385607 0.038752016 -0.05184568
0003c0 c3 28 22 bd eb 32 14 bd b8 1b 21 be ae f8 c5 3d
       -0.039589655 -0.03618137 -0.1573323 0.096665725
0003d0 d1 49 84 3e 4d 6c 4b 3d 3e 47 da bc cf 78 32 3e
       0.25837567 0.04966383 -0.026645299 0.17428897
0003e0 4f fe b6 bc 72 39 10 3e 7d ad 2b 3b 07 c2 81 3c
       -0.02233806 0.14084414 0.0026195936 0.01583959
0003f0 d9 c9 3f be 60 b5 82 bd ad 57 4d bd cb 37 d4 3d
       -0.18729343 -0.06382251 -0.050132442 0.10362204

fcnn.2.bias f4 [128]
000000 31 9f c8 bc d0 6a a8 bd 87 b4 05 3d 4a 35 01 bd
       -0.02448997 -0.08223498 0.032642867 -0.03154496
000010 d0 0c 54 3a ec db 0d bd 23 e1 b0 3c c9 58 e4 3c
       0.00080890674 -0.034633562 0.021591729 0.027874367
000020 1d ce 97 3c 25 c3 4d 3c 65 e4 60 3c 43 00 aa 3d
       0.0185309 0.012558733 0.0137263285 0.08300831
000030 f4 d3 46 3d e5 14 0c bc db 09 24 bc d1 9a 62 bd
       0.048541978 -0.0085499035 -0.010012115 -0.055323426
000040 9e d7 f6 bb 8f 13 68 3d ad b8 5c bc 85 c2 0d 3d
       -0.007533028 0.056659278 -0.0134717645 0.034609336
000050 94 04 ad bd 4b 0b 88 bd 7d 4d 8c bd 38 cc f7 3c
       -0.08448139 -0.06642779 -0.06850717 0.030248746
000060 36 84 ec bc a0 6b ce 3c d6 fd e2 3d 08 40 4b 3d
       -0.028871637 0.025197804 0.110835716 0.04962161
000070 b8 ed 30 3d 55 fa 92 bc 44 69 85 bd fe a6 f7 bc
       0.043195456 -0.017941633 -0.065142184 -0.030230995
000080 93 7c d1 3b c8 9d a4 3c 8d 36 5a 3d e1 45 f1 bc
       0.006393024 0.020094767 0.05327468 -0.029452266
000090 ca 48 29 bd 5c 0e fb bc 8e 9b 17 bd 80 92 1f bc
       -0.041329183 -0.030646496 -0.037013583 -0.009739518
0000a0 24 18 a1 3d f7 2c b2 3c 5a e9 d7 bc a0 3c 27 bd
       0.078659326 0.021749957 -0.026356388 -0.0408293
0000b0 b3 cc 49 3d 42 71 9a bd 7f 3c 5a bd b9 8c d5 3b
       0.049267482 -0.075411335 -0.05328035 0.0065170196
0000c0 08 56 8c 3c 55 11 a1 3c 3d 3f 8c 3d 1f e1 0a bd
       0.017130867 0.019661585 0.06847999 -0.0339061
0000d0 68 e4 b5 3b 1c c8 18 39 58 c2 3b bd 4f ff 63 bc
       0.00555091 0.00014570396 -0.045839638 -0.013915851
0000e0 88 0e 09 3d c4 87 0f 3d d9 2a de 3c 9f b0 31 3b
       0.033461124 0.035041586 0.02712004 0.002711333
0000f0 3b 66 d9 bc 05 10 9e bd c8 62 b5 bc 37 fa 10 3d
       -0.026538005 -0.07717899 -0.02214183 0.035394873
000100 17 69 89 bd a2 48 10 3c ba ca d7 bc 2b f7 14 bd
       -0.067094974 0.0088063795 -0.026341785 -0.03636853
000110 7b 24 b9 3b c0 e3 65 3d 1b 10 a1 ba 57 6a 57 3c
       0.0056501008 0.056125402 -0.0012288125 0.013147912
000120 29 aa f1 bc 96 16 8d bc 02 11 b0 3b 71 7c 5c 3d
       -0.029500084 -0.017222684 0.0053731212 0.053829614
000130 c8 b3 2c bc ee 5f 26 bd 39 1a 83 bd 77 26 2f 3d
       -0.01054091 -0.04061883 -0.06401486 0.042761292
000140 09 e8 92 3c 6c 11 95 bd ee eb 1d 3d 28 b7 5a 3d
       0.017932909 -0.072787136 0.03855508 0.053397328
000150 c7 f1 0c 3d 1f 0a 72 3d 72 2d 03 bd 28 d9 af bd
       0.034410264 0.059091683 -0.032025762 -0.08586341
000160 4d 54 e3 bc e7 84 fd bc 5b fd 4d bd e8 62 81 bc
       -0.027750159 -0.030947162 -0.050290447 -0.015794232
000170 ee ab 09 bb bd 6d fb 3c dc 01 51 bd ef e2 bf bd
       -0.002100702 0.030691976 -0.051027164 -0.09369456
000180 34 93 ac 3d 02 74 82 bc 46 56 ac 3b 23 b0 53 bd
       0.08426514 -0.015924457 0.005259308 -0.05168165
000190 97 33 08 bd cd 08 5a bd 14 11 50 bd 65 8a fc 3c
       -0.033252325 -0.05323105 -0.050797537 0.03082771
0001a0 74 3c 17 bd 09 fc 2a 3b d9 cc 95 bd 9d 8e 5b bb
       -0.036922887 0.0026090166 -0.07314462 -0.0033501752
0001b0 ea 6a 88 bc 7d 85 d1 bc d5 71 ed 3a 64 0d 81 bc
       -0.016652543 -0.025576347 0.001811559 -0.015753455
0001c0 be f4 24 bd da 8a 56 bd 70 7f 1b bc a9 ee d7 bc
       -0.040272467 -0.052378513 -0.009490833 -0.02635892
0001d0 66 df b0 3c e9 98 b9 3d ae 66 ae 3b f1 3c 31 bd
       0.0215909 0.090623684 0.005322299 -0.04327101
0001e0 ec 85 6f bd d3 24 24 3d 58 a1 b8 bb 74 c5 47 bd
       -0.058477327 0.04007418 -0.005634468 -0.04877229
0001f0 df 21 02 3e 2b d6 30 3c 49 3a 07 bc 1c 0f 0b 3d
       0.12708233 0.010793249 -0.008253642 0.033949956

fcnn.4.weight f4 [64, 128]
000000 70 d4 0f bc 48 92 85 be e5 77 d6 bd 32 c6 53 be
       -0.008778676 -0.26088166 -0.10472087 -0.20681074
000010 53 78 be bd 4d 41 74 bb 52 88 8d be 31 5c 69 bc
       -0.09300294 -0.0037270368 -0.27643067 -0.014243172
000020 80 26 2b be 66 e9 15 3b bc 5a 9e 3c f8 94 a1 3e
       -0.16713905 0.0022874712 0.019330375 0.31558967
000030 f2 1d f2 3d 2e c4 8f be 57 97 45 3e af 98 92 bd
       0.11822118 -0.2807936 0.19296013 -0.07158028
000040 38 3a a2 3d e2 01 28 3d 07 61 8a bb 85 0c f0 bd
       0.079212606 0.04101742 -0.0042229923 -0.11721138
000050 80 90 8f bc 9f f1 f1 3d ca ae 57 be 29 13 5f 3d
       -0.017524958 0.11813664 -0.2106277 0.054461632
000060 cf 3d a9 bd 7a e4 72 3d 47 4c 75 3e 36 46 f1 bd
       -0.08263742 0.059299923 0.23954879 -0.1178097
000070 ab 9d 38 be ea c0 37 3e de f4 d0 3d be 1b 47 be
       -0.18028896 0.17944685 0.10202955 -0.19444177
000080 69 9e 75 be 7e 6b d1 bd 21 b9 0e 3d 2c ba fa bd
       -0.2398621 -0.10225581 0.03484452 -0.12242541
000090 fe d3 55 be bb e9 0e be 14 82 ee bd c0 70 2e be
       -0.2088165 -0.13956349 -0.11645904 -0.17035198
0000a0 24 df 03 3e 92 4a 8a bd 97 30 cc 3d 9e 8f e9 3d
       0.1287809 -0.067525044 0.09970205 0.11404346
0000b0 84 30 13 3e 67 e4 88 3e fd 3c 29 be c2 30 20 3e
       0.14373976 0.26736757 -0.16527171 0.156436
0000c0 c5 ef 74 3e 31 6f cb 3e e4 9a b2 3e a1 1d 85 3d
       0.2391959 0.3973327 0.34883797 0.06499792
0000d0 24 db 55 3e 82 da 26 be cb c1 a0 3e 89 55 56 3e
       0.20884377 -0.16294292 0.31397852 0.20931067
0000e0 ad 86 de bd 58 82 94 3c d0 8a bd be 58 29 ca bd
       -0.10865531 0.018128559 -0.37019968 -0.09871167
0000f0 cb f8 2a be ec ad 5e 3d cd 37 2a bd 82 5f 53 3d
       -0.1669647 0.054365084 -0.041557122 0.051604755
000100 e6 97 c0 bd 34 a1 36 be d8 fd a3 bd ce ee 0a be
       -0.09403972 -0.17834932 -0.08007401 -0.1356766
000110 42 51 42 be ff 1d 8a 3d e5 e6 11 be b9 7d 29 be
       -0.1897631 0.067440026 -0.14248236 -0.16551866
000120 37 45 99 3d 51 f9 80 3e 5f b4 48 bd 2e 6e 00 3e
       0.07483905 0.25190213 -0.04900014 0.1254203
000130 72 d2 ae bd d1 f3 c8 bc bc 6b 09 be 33 16 c2 bd
       -0.08536233 -0.024530323 -0.13420004 -0.094768904
000140 76 bf 35 bd 17 ce ed bd a1 8a 9f be 87 70 3f be
       -0.044372045 -0.11611574 -0.31160453 -0.1869527
000150 50 f2 7e 3e 5a 61 b6 bd 7d 88 40 be 56 b9 71 be
       0.24897122 -0.08905287 -0.18802066 -0.23605856
000160 6b 5b b2 bc 52 e2 60 bd 6c 12 38 3d 63 08 55 be
       -0.021772107 -0.054903336 0.044939443 -0.2080398
000170 33 e0 7e be e4 b7 92 bc 67 0b 13 3e 4a cf 40 be
       -0.24890213 -0.017909952 0.14359818 -0.18829075
000180 d9 a6 f3 bc 6c 5e 2a bd ea a7 6f be 27 7b 30 3e
       -0.029742645 -0.041593954 -0.23403898 0.17234479
000190 68 23 84 3d 09 e6 e2 3d 84 23 2d be 2d 38 a8 be
       0.06452066 0.11079032 -0.1690808 -0.3285536
0001a0 1a 11 35 bd 47 37 42 be 7e d3 1a be 15 2d e3 bd
       -0.044205762 -0.18966399 -0.1511974 -0.11092583
0001b0 6e 40 3b be 46 d0 b5 bd 56 6e 1e be e5 df b1 bd
       -0.18286297 -0.08877616 -0.15471777 -0.086852826
0001c0 fe 92 13 be 6a b6 8b bd 34 0c c0 3e de 28 bb 3d
       -0.14411542 -0.06821902 0.3750931 0.09138654
0001d0 99 d8 2a be fc af 13 3d 8c 75 da bd 8e 5b 73 be
       -0.16684188 0.036056504 -0.106669515 -0.23765394
0001e0 09 ab 6a be ee 0f 3e b9 8c 25 3d bd 56 79 39 be
       -0.22916807 -0.00018125746 -0.046178386 -0.18112692
0001f0 bd c0 a2 3e 03 85 36 3e 61 a2 3c be ae 7f 0f bd
       0.31787673 0.17824177 -0.18421318 -0.035033874
000200 db 1d 0d be f2 aa 07 be a3 f4 8a bc c0 21 04 be
       -0.1378092 -0.13248804 -0.016962355 -0.129035
000210 4c 4c 88 be 2d 28 0b bd 3f cb 74 be 01 d7 90 3a
       -0.2662071 -0.03397386 -0.23905657 0.0011050404
000220 45 66 77 bd 02 d7 5f 3c 71 1e bf 3c d0 d9 9d 3e
       -0.060400266 0.013662102 0.023329945 0.3083024
000230 93 b8 8e 3d 23 c5 25 be be 0d d7 bc 43 ee ea bd
       0.069687985 -0.16188483 -0.02625167 -0.11471226
000240 00 41 86 3a 74 a7 51 bc d5 22 b3 3d 16 be 74 bd
       0.001024276 -0.012796272 0.08746878 -0.059751593
000250 bf d0 06 3b f8 8f 88 bd 12 6a 7d be 21 1b 24 3c
       0.00205712 -0.06668085 -0.24747494 0.010016234
000260 5c 08 c7 bd 89 f5 30 3e c5 63 8a 3e 81 68 99 bd
       -0.09718391 0.17281164 0.27029243 -0.07490636
000270 b0 d5 a0 bd c7 4b 86 3e dc 88 ce 3d 20 12 3f be
       -0.07853258 0.2622969 0.100846976 -0.18659258
000280 ed 60 54 be 9e 46 bf bd 02 ec 2a bc 74 fc 0d be
       -0.20740099 -0.09339641 -0.010432245 -0.13865834
000290 27 e2 84 be c1 c2 ea bd 88 a7 6b bd c0 49 82 bd
       -0.2595379 -0.114629276 -0.057532817 -0.06361723
0002a0 89 9a ff 3d bf 6c 73 bd 4e 79 a5 3d 94 e0 78 ba
       0.12480647 -0.05942988 0.08079778 -0.0009493914
0002b0 22 c1 fe 3d 22 d9 a3 3e af d4 2e be 11 13 4a 3e
       0.12439181 0.32001597 -0.1707332 0.19733836
0002c0 f7 3c b8 3e fd 56 fb 3e 5e 9d db 3e d7 11 2d 3e
       0.35984012 0.49089804 0.428935 0.16901337
0002d0 2d fb 90 3e 9f 40 3b be 01 1c a3 3e b9 fe 98 3d
       0.28316632 -0.1828637 0.31857303 0.074704595
0002e0 27 16 34 bd b8 c8 cd 3b 6c 1a 08 be 60 8c 1a bd
       -0.04396644 0.006280031 -0.13291329 -0.03773153
0002f0 76 32 51 bd bb fc 2e 3e 02 87 b6 3b 33 71 93 3a
       -0.051073514 0.17088597 0.0055702934 0.0011248946
000300 35 a5 e7 bd 87 47 4f be 10 09 44 3c 39 96 72 bd
       -0.113108076 -0.2024213 0.011965051 -0.059225295
000310 52 a3 06 be 18 2d 5b 3d 11 6f 9f bd f1 59 29 be
       -0.1314824 0.0535098 -0.07784856 -0.16538216
000320 03 74 a7 3c 20 c1 98 3e 49 ca 11 bd 95 73 51 3e
       0.02044106 0.29834843 -0.035593305 0.20454247
000330 87 e2 13 be 15 78 96 3d 05 dd 21 be 59 a1 a0 bd
       -0.14441882 0.073471226 -0.15806969 -0.078432746
000340 9d 27 ea bd 1b 64 31 be d9 ee 06 be 73 70 1d be
       -0.11433337 -0.17323343 -0.1317705 -0.15374927
000350 a8 19 75 3e 94 a1 47 be 9f ea d8 bd 6c aa 32 be
       0.23935568 -0.19495231 -0.105916254 -0.17447823
000360 c3 fd 78 3c ac 59 a4 bd 0d 6a 7f bd 59 cc d1 bd
       0.01519722 -0.08024916 -0.062356997 -0.10244054
000370 bf 7e f1 bd f2 bf 4c bd a4 e8 ef bc 76 fc 7f be
       -0.11791753 -0.04998774 -0.029285736 -0.2499865
000380 47 d5 c2 3b a8 89 d0 3c 1b 3a 43 be 79 5d 17 3d
       0.005945835 0.025456265 -0.19065134 0.036954377
000390 2c 8a ae 3c 34 1a ab bb ab dd 94 be eb 42 f3 bd
       0.02130612 -0.0052216295 -0.2907537 -0.11877998
0003a0 9e 13 17 be c3 21 85 be 47 0e 4d be 66 7c 6f be
       -0.14753577 -0.2600232 -0.20024978 -0.23387298
0003b0 7c a5 8d be 7f fc 82 be d3 65 c3 bd c6 1a 20 be
       -0.27665317 -0.25583264 -0.09540906 -0.15635213
0003c0 04 37 3f be cc fd a1 bc 09 8d ad 3e e6 bc 8e 3d
       -0.1867333 -0.01977434 0.33896664 0.06969623
0003d0 31 8d 39 be b6 e2 f3 bc 20 df 17 be 73 11 6d be
       -0.18120266 -0.02977119 -0.14831209 -0.23151188
0003e0 f3 bb 1d be 8f 0c 2a 3d 0c 27 e1 bd cc 01 d9 bb
       -0.15403728 0.041515883 -0.10993776 -0.0066225287
0003f0 26 22 db 3e 05 3c 85 3e 36 d4 14 be 57 e7 37 be
       0.4279949 0.26022354 -0.14534077 -0.17959343
