experiments/tcnn-abilities/models/MediumBTCNN_MediumFCNN_4.pth (torch, 847290 bytes, 33 tensors)

btcnn.layers.0.conv1d.weight f4 [128, 27, 3]
000000 e5 27 0f 3d 55 01 2a 3d 39 be 76 3c 86 20 c3 3d
       0.034950156 0.041505177 0.015060001 0.09527688
000010 02 52 91 bc 12 5d cf 3c df 5f 77 bc 5e 56 b3 3c
       -0.0177393 0.025312934 -0.015098541 0.021891769
000020 35 75 a4 bb 14 26 9f bd ff 56 b3 bd d3 b6 f7 bb
       -0.005018855 -0.07770935 -0.087568276 -0.007559636
000030 7a a0 e5 3c c2 6c b1 3e 8e 13 ee b9 e7 8f 7e 3e
       0.028030623 0.34653288 -0.00045409467 0.24859582
000040 d2 be 3e 3e c7 7b 8f 3d d5 a9 b8 3d 6f eb 4e 3d
       0.1862748 0.070060305 0.09016768 0.050517496
000050 8e 67 23 bb 95 68 25 3c 7a c6 ee 3c d5 8a f5 bc
       -0.002493355 0.010095735 0.029147375 -0.029973427
000060 1b 2e d3 bd 37 7e 86 3d 09 2a a9 3c d7 cc bc bc
       -0.10311528 0.06567042 0.020649927 -0.023046894
000070 b6 40 d0 be 89 aa bd 3d 96 26 9e bd 01 fd 72 bd
       -0.4067437 0.092610426 -0.077222034 -0.059323315
000080 60 83 df bd 18 71 fd 3d 30 26 b0 bb 35 fd f9 3d
       -0.1091373 0.123750865 -0.005375646 0.122064985
000090 d4 b9 7b be 48 5b a9 bd 12 6f e0 3d db 90 4c 3c
       -0.24582607 -0.08269364 0.10958685 0.012485708
0000a0 8a 60 fe bd 15 24 9a 3c df 16 ff 3c fa 8c 8d be
       -0.12420757 0.018816033 0.031138835 -0.2764662
0000b0 72 44 ca bb 49 15 36 be cd 19 68 3d 8d c4 71 3e
       -0.00617271 -0.17781557 0.05666523 0.23610134
0000c0 3d ce 48 bd a7 bb 27 bc 39 38 af bd cf 26 21 3d
       -0.04902481 -0.010237611 -0.085556455 0.03934365
0000d0 6b bd dc bb ab 86 e9 bb 99 63 b7 bc e2 77 a4 3d
       -0.0067364476 -0.0071266494 -0.022386359 0.08030678
0000e0 77 cf a8 3d 9c 68 5d be 1f 84 36 bd 83 a8 dd 3d
       0.08242696 -0.21621937 -0.044559594 0.10823157
0000f0 2f 29 98 3d 55 1f 99 bc d6 36 2c be 40 f6 c6 3d
       0.0742973 -0.018691698 -0.16817793 0.09714937
000100 7b ad 0b 3d 06 9c 08 3d 2b 19 b7 3d c5 8e a6 3d
       0.03410099 0.03335192 0.08940347 0.081327
000110 c7 9d 28 3c 98 54 81 3e cc 2e 51 be 00 2a 2e 3b
       0.010291523 0.25259852 -0.20428008 0.0026575327
000120 f9 67 d0 3d c7 64 7d bd 2a b2 80 be 55 02 34 bd
       0.10176081 -0.061863687 -0.25135928 -0.043947536
000130 87 46 d0 3d db 55 9c 3d 27 78 18 3d ba e1 9a bb
       0.10169702 0.07633563 0.03722396 -0.0047266157
000140 d8 da b9 bd 2f 17 11 bd 8a ff a4 bd 44 f9 ac 3d
       -0.09074944 -0.0354225 -0.08056553 0.08445981
000150 b0 da a0 3d 10 34 a9 3d 14 07 19 bb b8 e2 7e bd
       0.07854211 0.08261883 -0.0023350166 -0.062227935
000160 94 6a a7 be ce 62 a6 bd cf e8 ac 3d d1 4a 76 bc
       -0.326985 -0.08124314 0.08442842 -0.015032486
000170 7e ff 08 be 6c 63 4c 3d 47 f1 ef 3b de cf 81 bd
       -0.13378713 0.049899504 0.0073224637 -0.06338476
000180 a9 90 07 be 38 59 28 be ce 91 3b 3d 8e 66 46 be
       -0.13238777 -0.16440284 0.045793347 -0.19375059
000190 f2 fb 8c bd 57 53 bd 3d 51 d5 92 bd eb 0d 9b 3e
       -0.06883992 0.092444114 -0.07169593 0.30284056
0001a0 8b 91 23 3d 49 07 96 bd 5b 34 b8 bd ae 8d 5a 3d
       0.039933722 -0.07325608 -0.08994361 0.053357773
0001b0 5c da ad 3b d6 bf 69 3e b0 4d da bd 6f 9c c4 3c
       0.0053055715 0.22827086 -0.10659349 0.024000375
0001c0 fc 9d cc 3d 47 63 d4 3c 05 85 cf bd 0e 04 81 bc
       0.09991071 0.025926245 -0.10132793 -0.015749004
0001d0 11 c3 5b 3e a3 38 07 bb b8 f9 9c 3d 39 c6 fb 3b
       0.2146113 -0.0020633123 0.076648176 0.007683542
0001e0 4c 22 87 bd 95 7e 29 be 12 b6 a0 3d eb 36 47 be
       -0.065983385 -0.16552193 0.07847227 -0.19454543
0001f0 08 bc e1 3d fd c9 c9 3d 3d 9e b3 bd 03 fb a6 bd
       0.11022192 0.09852979 -0.08770416 -0.081533454
000200 3a c9 8e 3c bd cf b1 bd a9 af f6 bc ad e0 cd bd
       0.017429937 -0.08682201 -0.030113058 -0.10052619
000210 cb 7c 73 bc 59 47 c9 bd 7d 37 bd bd 0c 37 78 3e
       -0.014861296 -0.098280616 -0.09239099 0.24239749
000220 5a 3f 90 bd 30 2a ba 3d df da af 3d 8c 14 3b 3e
       -0.07043333 0.09090078 0.08586668 0.18269557
000230 e2 48 df 3e 2c a0 ca bd 45 80 bc 3d 68 76 2b be
       0.43610293 -0.098938316 0.09204153 -0.16744387
000240 07 fa 2d bd 0b 85 08 3d 4b 2a a6 bb 8f 30 10 be
       -0.042474773 0.033330005 -0.0050709597 -0.14081024
000250 da ff eb bd 1d b8 f7 3c 4d fa 5d be 40 56 15 3e
       -0.11523409 0.03023916 -0.21677513 0.14583683
000260 a0 be 63 3d 8d a0 9f 3e b5 dc a7 bd 56 45 5b bc
       0.055601716 0.31177178 -0.081963934 -0.01338323
000270 d4 55 5f be ea e4 aa bd 7e 4b 8f 3d 17 4a 38 3c
       -0.21810085 -0.08344443 0.06996821 0.011248133
000280 4b 6f 0b 38 2a a9 0e 3e d2 58 2c be 84 d7 f4 bc
       3.3243832e-05 0.13931718 -0.16830757 -0.029887922
000290 e0 66 92 3d 77 cb 9f 3c 23 e0 fa 3d 99 79 13 3e
       0.07148528 0.0195062 0.12249782 0.14401855
0002a0 3c f3 46 3e 73 78 c4 3d 34 bf dd bd fd 01 86 3d
       0.19428724 0.09593286 -0.10827485 0.06543348
0002b0 f3 4c 6a bd b9 f0 04 3f db b4 6a 3d 90 75 11 3e
       -0.05720229 0.51929814 0.057301383 0.14205003
0002c0 84 62 79 bd 13 e7 17 be 3a 3f 66 bd e4 9a 98 3b
       -0.060884967 -0.14834242 -0.05621264 0.0046571363
0002d0 ab 8c 83 bc d8 37 1f 3d c7 11 1c ba f0 1d ff bc
       -0.016058287 0.038871616 -0.0005953577 -0.031142205
0002e0 d9 aa 35 be b5 4a bc bd 2c da 27 3d 4e a4 cb 3d
       -0.17740954 -0.09193937 0.04097955 0.09943448
0002f0 07 c1 7a bd 48 4f 46 3e f0 45 e7 3d 4e 71 cc 3d
       -0.06121924 0.19366181 0.112926364 0.09982549
000300 56 4d 8c 3d 4d d4 a2 bd 52 8c 93 bd 19 33 dc bd
       0.06850688 -0.079506494 -0.07204498 -0.107519336
000310 eb e4 6a 3d 10 ae 03 3c c8 cc 1d 3e b1 22 24 3d
       0.05734722 0.008037105 0.15410149 0.040072147
000320 77 34 d6 bd 88 c6 12 be d0 65 51 bb 70 fc a7 bd
       -0.104592256 -0.14333546 -0.0031951554 -0.082024455
000330 94 6c c1 ba c1 1c 35 3e 95 ce f4 3c 9a b2 c2 bd
       -0.001475709 0.1768675 0.029883662 -0.09506722
000340 8a 1e d2 3c 77 80 00 3d a9 79 0a 3e 88 7c c2 3d
       0.025649328 0.031372514 0.13522972 0.09496409
000350 eb a1 8b 3d e8 8c c0 3d 98 1b 55 bd d5 4f 25 3c
       0.06817993 0.09401876 -0.05202827 0.010089834
000360 45 0a 06 3e c5 5e 10 3e f2 43 eb bc a1 d4 02 3e
       0.13089855 0.14098652 -0.028718922 0.12776424
000370 16 15 16 3e dc dc ab bb 82 66 d7 bd 0f 6f 25 be
       0.14656481 -0.0052448343 -0.10517599 -0.16155647
000380 49 1f 36 3e 8e 73 4d 3e f7 43 6a 3e ee 21 ac 3d
       0.17785372 0.20063612 0.22877489 0.08404909
000390 ed b2 d7 bd b8 cb c5 3d 99 d3 4f bd 66 90 85 3d
       -0.10532174 0.09657997 -0.050738905 0.065216824
0003a0 bd 0a cf be f0 6d 96 3d fe 42 71 be ab 48 f6 bc
       -0.4043788 0.07345188 -0.23560712 -0.030063948
0003b0 55 a3 9a 3c ea b0 bb 3d 40 08 2c bd f5 a5 cb bd
       0.01887671 0.09164603 -0.042000055 -0.09943763
0003c0 27 9d 1d bc 1f 57 ea bc 7d eb 2e 3d bd 8c 4b 3b
       -0.009619988 -0.028605996 0.042705048 0.0031059228
0003d0 c1 74 d1 bc a9 ac a1 bd e7 d7 e2 3c c0 67 a9 3d
       -0.025568368 -0.078942604 0.02769084 0.08271742
0003e0 28 be 36 3d bb 6f 46 3e a5 5f 58 3e 88 7a 9a 3d
       0.04461494 0.1937856 0.21130235 0.07542902
0003f0 61 73 15 3e f1 c0 aa 3d cc 23 8a 3e 81 0a 94 3e
       0.14594795 0.08337582 0.26980436 0.28914264

btcnn.layers.0.conv1d.bias f4 [128]
000000 60 25 62 bd 06 d3 b6 3c d2 ba aa 3c 7f c5 ea 3d
       -0.055211425 0.02231742 0.020841036 0.11463451
000010 ac c6 ea 3d 8b 2b 2e 3c aa 92 21 be 95 0f 29 3d
       0.11463675 0.010630499 -0.15778604 0.041274626
000020 2d 67 59 3b 10 c8 49 bd dc 59 e2 bb 89 5b 04 3e
       0.003317307 -0.04926306 -0.0069076847 0.12925543
000030 20 c5 bd 3d 91 37 1e 3d 11 05 94 3d 09 c9 63 3e
       0.09266114 0.03862721 0.07227529 0.22244658
000040 dc 2d 0f 3d 2c b4 39 bd 89 ae 5e 3e 1c 56 57 3c
       0.034955844 -0.04533784 0.21746267 0.013143089
000050 a3 57 93 bd 91 a1 11 3e 4e ff 52 3d 75 28 a7 3d
       -0.0719445 0.14221789 0.05151301 0.081620134
000060 de c5 53 3d 82 20 82 3d f8 63 5d bb 31 de 92 3c
       0.051702373 0.063538566 -0.003378151 0.017928215
000070 90 a1 ba bd 6d 3d b6 3d 65 e3 71 bd 6f ba 69 3d
       -0.09112847 0.08898435 -0.05905475 0.057062563
000080 c6 0e 43 3e 47 92 f4 bd 10 b2 cc bd 32 2e 57 3d
       0.19048604 -0.11941963 -0.099949 0.05253429
000090 df 05 e0 3c 5b 21 2f 3e 53 93 36 bd b8 20 88 3d
       0.02734655 0.17102568 -0.044574093 0.066468656
0000a0 61 d8 de 3d 46 3d 7a 3d fa a4 ff bc 1e e5 c0 3d
       0.10881115 0.06109359 -0.031206597 0.09418701
0000b0 72 1c e7 bd 96 24 ba bd 3c 00 18 3e ba cb ba bd
       -0.112847224 -0.090890095 0.1484384 -0.09120889
0000c0 20 71 a9 3d 60 3f 09 bc b4 0d ce bc e1 15 34 bc
       0.0827353 -0.008376926 -0.025153019 -0.010991544
0000d0 8b e6 0d 3e 34 1a b3 3d f7 a5 d0 3d cd a3 59 bd
       0.13857476 0.08745232 0.10187905 -0.05313473
0000e0 63 46 9d 3d f0 af 67 3d 00 b8 83 3d cc df 3f 3c
       0.07679441 0.05656427 0.064315796 0.011711072
0000f0 a7 df 33 3d 15 05 8b bc a0 1e f2 3d 96 57 dc bd
       0.043914463 -0.016970197 0.118222475 -0.10758893
000100 a4 ef df 3b 0e 7a f4 bc 70 06 a6 3d f6 b9 71 3c
       0.0068339873 -0.029843356 0.081066966 0.014753809
000110 f2 82 0c be 1d 52 c8 3d 52 ab 8c bc 7f c6 81 3d
       -0.13721827 0.09781287 -0.017171536 0.06336688
000120 12 ff 86 3d 69 7d f9 3d c9 b9 b8 3c 07 a8 73 bd
       0.065916196 0.12182123 0.022549527 -0.059486415
000130 2d a1 3e 3d 42 73 2a bd 5b 66 91 3d ac 19 e0 3d
       0.046540428 -0.041613825 0.07099601 0.109423965
000140 cf 1f c1 3d ec ed cd bc e0 aa b2 3d 0d ec b9 3d
       0.09429895 -0.025137864 0.08723998 0.09078226
000150 9b 0a 89 3d 8f fb 1f be fc 2a 95 bd 67 7b b3 bc
       0.06691476 -0.15623306 -0.07283589 -0.021909429
000160 10 b6 28 bd 5e ec 2d bc 1c dd c2 3d f4 3a 12 3e
       -0.041189253 -0.010615436 0.095148295 0.14280301
000170 28 a0 eb bd c4 b7 85 3c dc ac f7 3c 49 52 dd bd
       -0.11505157 0.016322978 0.030233793 -0.1080671
000180 60 5f 96 3d ac 58 6a 3d 03 7f f0 bc 73 b0 47 bd
       0.0734241 0.05721347 -0.029357439 -0.04875226
000190 d4 14 7d 3c ca a8 9a bb dc 8b 26 bd c7 8a 7a 3d
       0.01544686 -0.0047198283 -0.040660724 0.061167505
0001a0 14 4b fb 3b 87 c3 d3 bd 5f 44 88 bd 94 c4 02 3d
       0.007668862 -0.10340028 -0.06653666 0.031925753
0001b0 18 25 eb bc 2b 7e aa 3d 5c e0 a5 bd 9b ed 14 bd
       -0.028704211 0.08324846 -0.08099434 -0.03635941
0001c0 55 03 dd 3c c4 ad 58 bd 38 50 2b 3e 5e 52 c4 3b
       0.026979128 -0.05290009 0.1672982 0.0059912642
0001d0 e9 27 ef bd 5e ac d1 3d 56 c9 a9 3d 65 89 bb 3d
       -0.11677534 0.102379546 0.08290355 0.09157065
0001e0 0f 46 80 bc df 6c 0a 3c 52 77 76 bd e8 2c ee 3d
       -0.015658407 0.008448808 -0.060172386 0.11629659
0001f0 87 93 fa 3d 4d ca 1d bd 2d c8 8d 3c a6 6d be bc
       0.1223517 -0.038523007 0.017307365 -0.023245644

btcnn.layers.2.conv1d.weight f4 [27, 128, 3]
000000 b0 e7 74 bd f6 cb 83 bc 0c 83 3f 3d 77 18 20 3d
       -0.059791267 -0.016088467 0.046755835 0.03908583
000010 05 f5 1c 3e a0 c4 59 bc 0c 98 d9 3d 71 01 f9 3c
       0.15327843 -0.013291508 0.10624704 0.030396195
000020 f5 1b 3e bd 9f f2 aa 3c 8e df 8e bd 55 2b ee 3d
       -0.04641338 0.020867644 -0.069762334 0.11629359
000030 5c 32 af 3c 7d 81 95 3c 8d 9f 2b bd d2 d4 5b 3d
       0.021386318 0.018250221 -0.041900206 0.05366976
000040 cd 1a a8 bc 96 e0 48 3e 13 cd 45 3d e8 2d bd bd
       -0.020520592 0.19616923 0.048291277 -0.092372715
000050 e8 ec cf 3c 2a a3 59 bd ea aa 47 bd d2 72 2d bd
       0.02538152 -0.05313412 -0.04874698 -0.04234583
000060 9f b9 1e bc 01 97 3f bd 55 f7 f9 3d 63 f0 22 bd
       -0.00968781 -0.046774868 0.12205378 -0.039780032
000070 1f 9f 35 bc ec f5 5e bd 7b 9b a1 bc fe 61 96 bc
       -0.011085301 -0.054433748 -0.01972746 -0.018357273
000080 1d 34 43 3d 3e 9a 82 bc eb 8c 8c bb f4 7e 5a 3d
       0.04765712 -0.015942689 -0.0042892597 0.05334373
000090 07 d1 97 3d cc 14 8c bc d4 db 6a 3d 41 01 b0 bd
       0.07412916 -0.01709976 0.05733855 -0.08593989
0000a0 66 5a 4e 3d d3 fa 5b ba 42 6a 19 bd 01 48 4f 3d
       0.05037918 -0.0008391563 -0.03745485 0.050605778
0000b0 1a 1e c6 3c 5d 7e e5 3d 86 01 b8 3c 1d 84 77 3d
       0.024184275 0.112057425 0.022461664 0.060428727
0000c0 30 70 b7 bd 63 fa 7f 3d 9f e7 f5 bc f3 fa 5b bd
       -0.08956945 0.062494647 -0.030017672 -0.05370612
0000d0 b8 4e 8b 3a 21 eb a3 3d 86 75 1c 3e 04 91 b8 3d
       0.0010628318 0.08003832 0.15279207 0.090120345
0000e0 84 bf ad 3d 51 81 aa bd 70 b6 40 bc 10 91 a3 3c
       0.08483794 -0.083254464 -0.0117622465 0.019966632
0000f0 20 c0 84 bd 9e 1f 12 3b 51 6f d6 3d b1 5a 65 3d
       -0.064819574 0.0022296677 0.10470451 0.055994693
000100 c5 64 7d 3d 75 63 24 3e 27 57 8c 3d f3 cc b8 ba
       0.06186368 0.16053565 0.068525605 -0.0014099166
000110 91 4c d0 3d 7b 2f 48 bb 67 7d 05 3d fe 26 d2 3c
       0.10170854 -0.0030545879 0.032590296 0.025653359
000120 67 b6 b1 3c 11 e3 19 3d 49 7a ed 3d 6f e0 e6 3b
       0.021693422 0.037570063 0.1159559 0.0070457975
000130 56 6f 90 bd 0e 3f 99 bd 7f a8 c0 3b 5e 1a 9b 3c
       -0.07052486 -0.0748273 0.0058794613 0.018933471
000140 04 62 85 3d 4b 77 95 bd f2 75 cd bd df a2 3f 3c
       0.065128356 -0.07298144 -0.10032262 0.011696546
000150 46 2c 2e be 1d 5e 0b 3d 6c b8 ee bb 38 3d af 3d
       -0.17009076 0.0340253 -0.0072851684 0.085565984
000160 e3 05 d7 3d dd 6a 42 3d 58 42 e2 3b 9f d0 2a bd
       0.1049917 0.047465194 0.0069048814 -0.041702863
000170 67 1c 9b bd dc db d8 3d a8 72 26 bd 2c ac 7c 3e
       -0.07573777 0.1058881 -0.04063669 0.24675053
000180 13 c1 b7 bc d2 af 60 bc ca 37 92 3d 7a de 5f 3d
       -0.022430932 -0.013713794 0.07139547 0.05465553
000190 5b d6 35 bc 71 1d 97 bc e4 91 09 be 59 c5 2b 3d
       -0.01109847 -0.018446656 -0.13434559 0.041936252
0001a0 e6 cb 9f bd d1 95 8c 3d f8 c9 20 3d c5 b3 1d 3d
       -0.078025624 0.06864513 0.039255112 0.03850152
0001b0 46 e2 33 bd c7 01 61 bc ab 00 d4 3c 4a 68 88 bc
       -0.043916963 -0.013733334 0.025879225 -0.016651291
0001c0 2f 14 4c 3d a8 67 ad 3d 53 31 f0 bd 36 2f 37 bc
       0.049823936 0.084670365 -0.11728158 -0.01118069
0001d0 a4 b2 63 bd 14 d5 59 3d eb 81 d4 bd be bf 98 3d
       -0.055590287 0.053181723 -0.103763424 0.07458447
0001e0 99 96 ee bc 83 b8 1f bb 9d 75 a6 3d 95 db 71 bd
       -0.029124545 -0.0024371452 0.08127902 -0.0590473
0001f0 9d 45 78 3c 6d f4 e7 3d b5 de bb bc 2d 22 d6 bd
       0.015153316 0.113259174 -0.022933343 -0.10455737
000200 40 bb 9a ba 7f c4 44 bd 34 9b 95 3c c9 a0 95 bc
       -0.0011805072 -0.048038956 0.018262483 -0.018265145
000210 f2 0d 4f bd 5a a2 93 bd 12 5d 62 bb 3a 5e e6 ba
       -0.05055041 -0.072087005 -0.0034540338 -0.0017575689
000220 42 74 8c bd 22 bd 82 3c c2 44 9c 3d d6 c3 33 3d
       -0.06858112 0.015959326 0.07630302 0.043887936
000230 80 ee 34 3d a0 cf 8e 3b 93 cb d9 3b da 22 ce bc
       0.044172764 0.004358247 0.0066465824 -0.025163103
000240 e5 22 d0 bc 4f 43 52 bd 88 ca ed 3c cb 32 45 bd
       -0.025407264 -0.05133372 0.029027238 -0.048144143
000250 51 3a ba bc 27 fb 3f bc 25 6e 61 3c 09 76 b8 bc
       -0.022732886 -0.011717594 0.013759171 -0.022517221
000260 4e f7 a6 3c 9d 59 e2 bc 02 2c 91 bd 06 a5 aa 3c
       0.020381596 -0.027630622 -0.07088472 0.020830642
000270 67 d8 87 3d c8 3a 93 3d 25 7a c5 3d 7a 8e 4b 3d
       0.06633072 0.07188946 0.09642438 0.049696423
000280 23 3a 34 3d 41 36 4c 3d 16 6c b3 3d de f4 bb 3c
       0.044000756 0.049856428 0.0876085 0.02294391
000290 d2 80 07 3d e7 88 9a be 78 bf 67 3d f3 4e b6 bd
       0.033081837 -0.30182573 0.056579083 -0.08901777
0002a0 9e c5 d5 bd 7f f7 cc 3c b4 87 58 bd 4e 37 3b 3d
       -0.10438083 0.02502036 -0.05286379 0.04570704
0002b0 11 7a 59 3e 4c ce 4f 3e 7d 39 80 3d b5 b7 f9 3d
       0.21237971 0.2029354 0.06260965 0.121932425
0002c0 01 63 b9 3d 20 4c a6 bd d1 87 c0 3c a0 79 37 bd
       0.090520866 -0.081199884 0.023502262 -0.044793725
0002d0 53 31 b1 bd bb 2d d1 3d bd 83 35 3c 7c 71 4a 3d
       -0.08651986 0.102138005 0.011078772 0.049424633
0002e0 b6 cf 29 3d 09 82 4f 3e ed 2f 37 3d 1f 0a 1e 3c
       0.041457854 0.20264448 0.04472344 0.009645968
0002f0 5f f8 a0 3b 3c ac 31 bd 8a 08 22 be b6 0e c3 ba
       0.0049124206 -0.043377146 -0.1582357 -0.0014881704
000300 1e 86 8e 3d cd 16 5f 3e e4 77 72 3d e0 1f f8 bd
       0.069591746 0.21786042 0.059196368 -0.12115455
000310 8a 1b 4f 3c 0d bf f2 3c c4 aa d3 3d 3a 6f f4 3d
       0.012640843 0.029632116 0.10335305 0.11935277
000320 e5 d4 e1 3d ea 91 6a 3c 7c 97 a8 bd 14 46 e8 3c
       0.110269345 0.014317015 -0.08232018 0.028353728
000330 f7 db 8e 3d 40 58 8a 3c 2d 07 9c 3d 13 a0 94 bb
       0.06975549 0.016887784 0.07618556 -0.004535684
000340 c9 9b 0c 3c 95 43 19 3e a4 1b 63 bd ab 15 44 3c
       0.008582064 0.14967187 -0.055446282 0.011968057
000350 3a 82 c5 3c b9 5a 1e 3c 03 c4 b2 3c 54 88 b7 3d
       0.024109948 0.009665185 0.021821981 0.089615494
000360 db 76 42 3c b4 6c 2c 3d 17 f6 ad 3b e5 55 a8 3c
       0.011869158 0.042095855 0.005308877 0.02054877
000370 25 4e 39 bd 2f 86 02 bd a3 40 60 bd b0 f5 e1 bc
       -0.04524054 -0.03186625 -0.054749142 -0.027582973
000380 72 0f 1d 3d bf c7 80 bd 4e 90 79 bd a1 c3 6b bd
       0.038344808 -0.062880985 -0.060928635 -0.057559613
000390 49 d7 af bd 09 90 aa 3d 98 6f c2 bd 6e b5 ad bd
       -0.08585984 0.08328254 -0.09493941 -0.084818706
0003a0 b2 ce 2c bb 9d 0d 06 bd 99 ba 9a 3d a3 10 92 3d
       -0.0026368317 -0.032727826 0.07555122 0.071320795
0003b0 bc c2 89 3b 3a fd 63 3d 4a 4b 6d 3d d7 57 c2 3c
       0.0042041223 0.055661418 0.05793313 0.023723526
0003c0 eb 39 a0 3b 7e 8b 30 bc 73 de 21 3d 39 e8 7f bc
       0.004889717 -0.010775445 0.039518785 -0.015619331
0003d0 74 a6 d2 bd da 1f 1d bd 1d de 07 bd a7 d3 ed 3d
       -0.10285655 -0.038360454 -0.033170808 0.11612635
0003e0 bc 3d 39 3d b2 27 4c bd a7 99 50 3d e4 a6 68 bc
       0.04522489 -0.049842544 0.050927784 -0.014199946
0003f0 9a 23 a8 3c d2 56 27 3d ad 1d 84 3c dc 4e 7a bc
       0.020524789 0.040854283 0.016127432 -0.015277591

btcnn.layers.2.conv1d.bias f4 [27]
000000 ed 18 78 3d bc 0c 3f bd 41 b6 2f 3d 1c 4c 1e 3c
       0.060570646 -0.046643004 0.04289842 0.009661701
000010 d6 f2 fa 3c 9b 45 83 3c cf 8d 92 3b de 62 f8 bc
       0.030633371 0.016024401 0.0044724713 -0.030320581
000020 48 f5 56 ba f9 a0 8b bc ae c6 00 bd 80 5d 59 bd
       -0.0008200002 -0.017044531 -0.031439476 -0.053067684
000030 7b f0 07 bc 1c 3d 10 bd 02 00 f4 3c a5 c0 9a bc
       -0.008297081 -0.03521453 0.02978516 -0.018890688
000040 77 e9 b5 3c d8 a7 6d bd b9 5e ab ba 52 7c 91 bd
       0.022206051 -0.058021396 -0.0013074494 -0.0710379
000050 63 0f ee bc 87 8d 10 3d f7 ca 90 bb 59 3b 89 bd
       -0.029060071 0.03529122 -0.0044187265 -0.06700773
000060 00 1d db bc 5b 06 fa 3b 12 31 b3 bc
       -0.026747227 0.007630152 -0.021873984

fcnn.0.weight f4 [256, 27]
000000 73 be 72 bd 57 e1 79 bd bd 25 4c bc 39 db 13 3e
       -0.059263658 -0.061005916 -0.012460169 0.14439096
000010 17 24 6c be a7 8f 08 be a7 3a 57 bd 3a 67 82 bd
       -0.23060642 -0.13336049 -0.05254617 -0.06367345
000020 33 e5 d7 bc e5 68 ec bd 94 df f6 b9 d1 2c b1 3d
       -0.026354408 -0.115434445 -0.00047087355 0.08651126
000030 eb 16 a9 3d 49 62 5c 3d 51 3b 07 3e 11 44 a3 3c
       0.082563244 0.05380467 0.13206221 0.019929918
000040 5d 67 2e 3e d6 81 3e 3d a7 8e 30 be b2 49 ce bc
       0.17031617 0.04651054 -0.17241918 -0.025181625
000050 cb 2b d9 3d 19 d8 b5 3c 39 25 fa 3d 46 3b da bd
       0.10604056 0.02219777 0.12214131 -0.10655837
000060 f7 bb f1 3c 3c 3f d9 3a cf ae c8 3d 15 1b 7c be
       0.029508574 0.0016574631 0.09798967 -0.24619706
000070 89 84 8f 3d 11 9d 0e 3e 18 bb a0 bc 5b 0c af 3d
       0.07007701 0.13927104 -0.019620463 0.085472785
000080 13 d5 14 be 55 11 4f bd d6 09 ec 3b 7b 3c 86 bd
       -0.14534406 -0.05055364 0.007203321 -0.065545045
000090 70 cc fa 3d b4 f7 b4 3d 5e 82 42 3e 24 a4 ea 3d
       0.122460246 0.08836308 0.18995044 0.114570886
0000a0 b8 cc 0c 3e f9 c6 90 bc d5 ff 9b bd 17 f4 8f bd
       0.13749969 -0.017673003 -0.076171555 -0.07028978
0000b0 17 ac 29 3e e1 e3 fd 3d e9 d5 ca 3d 76 80 cb bc
       0.16569553 0.1239698 0.099040814 -0.024841528
0000c0 59 63 7b 3d 47 5b 28 bd 3c 7a ea 3d 9d 13 79 be
       0.061374042 -0.041102674 0.114490956 -0.24323888
0000d0 b7 c0 e4 bd cf 76 11 3e 48 f1 b4 be 26 5e 71 3d
       -0.1116957 0.14205478 -0.35340333 0.058927678
0000e0 39 e8 76 bd 3b c6 9f 3d 09 66 c6 3c 5a 70 0b be
       -0.06028006 0.07801481 0.024218576 -0.13617077
0000f0 c6 a0 db bc eb d4 ba 3d d9 17 af 3c e7 fb 0b 3e
       -0.026810061 0.09122642 0.021373676 0.13670312
000100 a4 02 0e be 8c 33 d1 bc a8 10 22 3e 3b 9f b3 bd
       -0.13868195 -0.025537275 0.15826666 -0.08770605
000110 2c a8 2b 3e 87 88 21 be 07 71 59 3e f6 d5 20 3e
       0.16763371 -0.15774737 0.21234523 0.1570662
000120 5e 68 ff 3d ae 81 ea 3d 93 35 bb bc 1b 09 94 be
       0.12471078 0.11450516 -0.022852695 -0.28913197
000130 04 e8 fe bc b3 81 8d bd 45 e3 de be 17 eb 26 3d
       -0.031116493 -0.06909504 -0.43532768 0.040751543
000140 f2 f9 d3 be 5a bc 90 bd 6f c9 a6 3d 0e 97 f7 3d
       -0.4140163 -0.07067175 0.08143889 0.12089358
000150 bc bb 1f 3e 92 4e f1 3d 7f 41 b8 bd 68 78 de bc
       0.15598959 0.11782564 -0.089968674 -0.027157024
000160 b8 58 28 be a1 e3 e6 bd e2 13 3d bd b3 e3 6c 3e
       -0.16440094 -0.112738855 -0.04616154 0.23133735
000170 0b ac c9 bd 27 24 f7 bc 98 9a 66 be 4a 62 e7 bd
       -0.09847268 -0.030168606 -0.2251991 -0.11298044
000180 de 51 7f be 7e 34 94 be eb 32 1c 3d eb 1a a7 3d
       -0.24933574 -0.28946298 0.038134497 0.08159431
000190 59 ae 0c be 10 59 04 be d3 1f 06 3c dc be af 3c
       -0.13738383 -0.129246 0.008186298 0.021453314
0001a0 da 6d 8b 3d df a3 2c 3e f2 89 21 be 04 1f 87 3d
       0.06808062 0.16859387 -0.15775278 0.06597713
0001b0 a4 6e f7 3d d3 53 4f 3e 19 ac 3b be 05 35 45 3e
       0.1208165 0.2024682 -0.18327369 0.19258507
0001c0 eb 46 c0 bc a0 56 3e bd bc dd 32 3e 2d 69 8d 3d
       -0.023471316 -0.04646933 0.17467397 0.06904826
0001d0 92 7d d7 bc 6b 72 12 be f0 f7 26 3e a8 a2 3f 3c
       -0.026304994 -0.1430146 0.16305518 0.011696495
0001e0 a5 a5 a1 bc 26 b8 a2 3d 0c 6f 28 3e bd 95 52 3e
       -0.019732306 0.0794528 0.16448611 0.20564933
0001f0 37 af bc bd 9f d9 cd bd 8b 9c 74 be a1 4d b4 bb
       -0.09213107 -0.100512736 -0.23887841 -0.005502418
000200 24 d6 9d 3b 3e 05 3a be 25 0a 33 be 6e e2 fe bc
       0.0048167873 -0.18166062 -0.17484339 -0.03111383
000210 98 04 b3 3d 06 df 73 3e 25 b7 37 bd 19 a8 0b 3d
       0.087411106 0.23815545 -0.044852395 0.034095857
000220 11 71 c1 3d e4 cb 40 bd 60 e9 01 3d de c5 b6 bd
       0.09445394 -0.047069445 0.031716704 -0.08924459
000230 4b 46 43 bc fd 5c d1 3d 4d 01 ba bc 8c 27 34 be
       -0.011918615 0.10222814 -0.022705698 -0.17593211
000240 ff 91 6a bc db e4 17 3d 16 2a ca bd 97 42 4b bd
       -0.014317035 0.037083488 -0.098713085 -0.049624052
000250 9b ad ec 3d 63 3a ba bd 11 c8 d9 3d 80 19 30 3e
       0.1155655 -0.09093168 0.10633863 0.17197227
000260 dd 41 0c be af f6 1a be 97 15 62 3e 0b 3e 4b 3e
       -0.13697 -0.15133165 0.22078548 0.19847886
000270 c9 df 0a be 62 b3 4d 3d db 75 d2 bd a8 2a 57 b9
       -0.1356193 0.0502199 -0.102763854 -0.00020519888
000280 39 78 0d 3e 73 c8 c9 bd be 6b 64 3d 17 bd 78 3d
       0.13815393 -0.09852686 0.055766813 0.060727205
000290 16 d7 ca bd f3 85 ee bd 63 af 50 bd fb c6 0c be
       -0.09904306 -0.116466425 -0.05094851 -0.1374778
0002a0 d3 32 eb bd 0a 08 11 3e 72 69 3d 3e bf 53 5f be
       -0.11484303 0.14163223 0.18497255 -0.2180929
0002b0 1b bc 50 3e ac e8 56 3d ed 34 a3 bc e6 42 2e be
       0.20384257 0.052467987 -0.019922698 -0.17017707
0002c0 2f 09 43 be 0b a1 0e be f1 3e 12 be bf d9 1e be
       -0.19046472 -0.1392862 -0.14281823 -0.15512751
0002d0 5e 46 c0 3b b6 37 1a bd 79 6a 3e 3d 5e 15 71 3d
       0.0058677634 -0.037650786 0.04648826 0.058858268
0002e0 ae 27 c1 3d 5b 75 c6 bd ea 6b 3a 3e 0f dd cb bc
       0.094313964 -0.096903525 0.18205228 -0.024885682
0002f0 31 1a 79 bd ce eb 9d be f1 4b 69 3e 67 23 d1 bb
       -0.060815994 -0.30843967 0.22782876 -0.006382394
000300 e2 3c b3 bd 65 8b 74 be fd ac e7 bd 97 e2 fe 3c
       -0.08751847 -0.238813 -0.11312292 0.031113906
000310 06 37 62 3c 01 07 38 3e 2b 69 46 3d a0 11 17 bc
       0.013807064 0.17971422 0.04844014 -0.009220511
000320 1f f8 90 bd 48 bc 66 3d aa 37 b3 bc 82 10 5b bd
       -0.07078575 0.056331903 -0.021877129 -0.05348254
000330 eb 63 e7 3a 2d e9 ef 3c 7b bd 48 bd 18 fb ea bd
       0.0017653679 0.029285992 -0.049008828 -0.114736736
000340 83 aa 79 3e 90 87 2b 3e 6e 9c f9 be 56 e8 39 be
       0.24381451 0.16750932 -0.4875216 -0.18155035
000350 d6 61 f9 bd ec 4b 3a bd 0b 78 c3 3c f3 02 bd be
       -0.12176864 -0.04548256 0.023860952 -0.36916313
000360 35 16 05 be 79 3d 83 3d de 95 ae bd ec 6d 08 3e
       -0.12996753 0.06408209 -0.08524679 0.13323182
000370 fc 65 13 3e ee 0a c3 bd 31 26 eb bd 62 cb 20 bd
       0.14394373 -0.09523569 -0.11481894 -0.03925646
000380 ba 45 42 3d 3a 1c ee bc 33 19 21 3e d9 ce 37 3e
       0.047429778 -0.029066194 0.15732269 0.1795
000390 19 c8 2f 3e 5b 56 2b 3e 71 c1 e3 3c 6b e3 19 be
       0.17166175 0.16732161 0.027802201 -0.1502816
0003a0 4e 52 9c 3d ac 7e 1d 3e 4a 61 dd 3c 1b c6 8c bd
       0.07632886 0.15380353 0.02702393 -0.06873723
0003b0 0b a4 36 3e 99 06 0f be 75 81 8c bd aa d0 4b 3c
       0.17836015 -0.1396736 -0.068606295 0.012439886
0003c0 31 1b 95 3d 46 4e ea 3d dd c1 2c 3c 67 6b 25 3e
       0.07280577 0.11440711 0.0105442675 0.16154252
0003d0 ac fc 57 bd 73 9e ad 3d c7 d0 30 3d d4 42 0e bd
       -0.0527312 0.084774874 0.043167856 -0.0347317
0003e0 d3 2c 38 3e 27 6d 06 be 2d a7 37 3e cc ad eb bd
       0.17985849 -0.13127576 0.17934866 -0.115077585
0003f0 6e 45 c7 3c 52 d3 37 be ca eb b1 3d c6 35 27 be
       0.024325099 -0.17951706 0.08687551 -0.16329107

fcnn.0.bias f4 [256]
000000 16 3c d5 3c c3 3f 65 bd 47 db 06 3e a3 0d 79 bd
       0.026029628 -0.05596901 0.13169585 -0.06080402
000010 56 80 38 3e 14 8b 01 3e 38 65 cb bd c0 64 f3 3d
       0.18017706 0.1265071 -0.09931415 0.11884451
000020 68 e6 8d bd 24 68 2f 3e e5 fe 19 be 06 cf 12 3e
       -0.06928712 0.1712957 -0.15038641 0.14336786
000030 71 b2 27 3e 7d f4 2a 3d bb 1a 6a 3d 49 8d 27 3e
       0.16376664 0.04173707 0.0571544 0.1636249
000040 1e 2a eb 3d 72 ce 1e be 63 b8 0f bd 72 31 e4 bd
       0.114826426 -0.1550844 -0.035087954 -0.111422434
000050 a3 82 8e 3e 43 dc f7 3c dc f6 5c 3e 85 15 08 be
       0.27834043 0.030256396 0.21578544 -0.13289459
000060 e0 23 46 be ff 12 18 3b 3f 9f e6 3d 1e a5 42 3d
       -0.19349623 0.0023204682 0.112608425 0.04752075
000070 51 97 fd bd b6 7d 57 be 82 8a 5c bd 09 87 a4 3b
       -0.12382377 -0.21044049 -0.05384303 0.0050209803
000080 e0 ee 85 bc 2a 19 8d 3d 1d 50 a9 bd d1 3b bf bd
       -0.016349256 0.06889565 -0.082672335 -0.09337581
000090 ca ab a2 3d 64 04 59 bd 25 42 0b 3e 61 2f 37 be
       0.079429224 -0.052982703 0.13599451 -0.17889167
0000a0 49 9a ab bd b1 9a dd bd c6 a5 85 bd 9e 77 08 be
       -0.08379037 -0.10820521 -0.065257594 -0.1332688
0000b0 00 4c 1b be b7 70 3a be 43 2c 3b be 3b 63 44 3e
       -0.1516571 -0.1820706 -0.18278603 0.19178478
0000c0 f6 e9 3d 3e 0c 65 e5 bd 86 ca 3d 3e fb 0d 5c 3d
       0.1854628 -0.11200914 0.18534288 0.05372427
0000d0 7f 17 90 bd 9c e0 0f be 7f ed 11 be 63 48 3c bd
       -0.070357315 -0.14050525 -0.14250754 -0.04596747
0000e0 d3 6e ee 3d 99 12 19 be c9 78 8f bc d2 40 c1 bd
       0.11642232 -0.149485 -0.01751365 -0.094361916
0000f0 cd 54 49 be ed 98 c9 3c bb b6 1c be 3b e4 4e 3e
       -0.19661255 0.024609054 -0.15304081 0.2020425
000100 6e 2c ff 3d ea b4 4c bd 97 67 3f be 21 09 98 3d
       0.12459646 -0.04997722 -0.1869186 0.07423616
000110 18 27 fd bd 6f 7b 0d be 3e e2 0a bc ba 12 01 be
       -0.12360972 -0.13816617 -0.008476792 -0.126048
000120 c5 bc 31 3e 57 5a e8 bc 37 16 ff bb 67 6e 4f 3e
       0.17357166 -0.02836339 -0.0077846306 0.20256959
000130 14 8c 13 3b 48 34 37 bc 73 f5 4f be 31 61 04 3e
       0.0022513913 -0.011181898 -0.20308475 0.129277
000140 ab 8d 46 3e e1 60 64 bd d9 e5 fb 3d 6e 49 19 3b
       0.1938998 -0.055756453 0.12299699 0.0023389715
000150 25 71 45 3e fc 52 5d be a6 3d f9 bd fe 6a 44 3e
       0.19281442 -0.21613687 -0.12169962 0.1918144
000160 7f fc 09 be 82 ea 17 be cb 6b b1 bd 34 fb 75 3d
       -0.13475226 -0.14835551 -0.08663138 0.06005402
000170 b8 69 5e 3e 0f 31 60 bd f5 ef 1b be 27 6a 76 3d
       0.21720016 -0.054734286 -0.15228255 0.06015983
000180 08 1f 6b 3d 97 e7 56 3e ba 75 cf 3c a9 01 35 be
       0.05740264 0.20986782 0.025324691 -0.17676415
000190 02 7b d0 bb 48 9f bf 3c da 66 c1 3d 16 99 c3 3d
       -0.00636232 0.02339138 0.094434455 0.09550683
0001a0 3a 51 00 be 60 0d 5c be 35 5c ec 3d a1 e0 69 bd
       -0.12530985 -0.21489477 0.115410246 -0.05709899
0001b0 4b 5a 5b be f7 64 3a bd 1b 5a 67 3e 22 d5 cb bc
       -0.21421163 -0.045506444 0.22592966 -0.024881903
0001c0 5a 16 0e 3e ca 7c 3d 3d 0c 23 fc bd f6 46 d3 bd
       0.13875714 0.046261586 -0.12311372 -0.10316269
0001d0 b3 f5 1c 3e d5 44 c5 bc d1 f3 d1 3a 20 3b 48 3d
       0.15328102 -0.024080673 0.0016018098 0.04888451
0001e0 d0 bf 61 be 9b 7b ab bd c1 50 ac 3d e2 38 a1 bc
       -0.22045827 -0.08373185 0.0841384 -0.019680444
0001f0 57 64 07 be 58 1f 10 3e ab 4d cb bc 25 c2 54 bd
       -0.1322187 0.14074457 -0.024817308 -0.051942963
000200 d7 93 3e be 8f f2 10 3d 91 31 0d 3e 01 fe 2e 3c
       -0.18611084 0.035387572 0.1378844 0.010680676
000210 fd 1e 11 bd 6b 93 dd 3c 66 4b c8 bd 1b 52 2c be
       -0.035429943 0.027047833 -0.09780006 -0.16828196
000220 6e 50 ba bd 93 79 87 3d 63 43 06 bd 2b 15 d9 bd
       -0.09097372 0.06614985 -0.03277911 -0.105997406
000230 89 67 53 3e 63 c1 37 bd 2e 93 80 3d fe 4d 82 3d
       0.20644964 -0.044862162 0.06278072 0.06362532
000240 0b 47 0e be 55 ea ad 3d 06 05 80 3d 34 01 18 bd
       -0.13894288 0.08491961 0.06250958 -0.037110522
000250 89 97 2d 3e 5f 6a 1c be 49 ca 81 3c bc b0 04 3e
       0.16952337 -0.15274952 0.015843527 0.12958044
000260 45 52 56 bd b7 3b 53 3e 87 ea 89 bd 20 5e d0 3d
       -0.052324552 0.20628248 -0.06734186 0.10174203
000270 ee 0d 14 3e a7 a5 84 bc 89 19 39 3e b7 bf b6 bc
       0.14458439 -0.01619227 0.18076147 -0.022308214
000280 30 90 28 be 91 ec 54 3e 89 09 1a 3e 0c 28 20 3e
       -0.16461253 0.20793368 0.150427 0.15640277
000290 58 db 29 3e 85 24 18 3e 68 cc 39 be 4a be 9b 3d
       0.16587579 0.14857681 -0.18144381 0.07604654
0002a0 85 02 b2 bd 31 c2 03 be 47 e0 57 3e 70 e4 92 bd
       -0.08691887 -0.12867047 0.21081649 -0.07172477
0002b0 43 43 b6 3d 69 44 59 3c 63 3d 0f 3e 55 cf f0 3d
       0.08899548 0.013260939 0.13988261 0.117582954
0002c0 ca 99 2d 3d 19 e9 ae 3d 12 97 da 3d 2b 00 0d be
       0.042382993 0.085405536 0.106733456 -0.13769595
0002d0 a7 49 88 3d 43 d8 30 3d ae 15 4d 3e bf b5 d0 3c
       0.06654673 0.043174993 0.20027801 0.025477288
0002e0 b6 ae e4 bd e8 d8 49 be ae ea 64 bc d1 b1 83 3d
       -0.11166136 -0.1971165 -0.013971968 0.064304
0002f0 aa 82 18 be 7e 5c 1c 3e 69 18 0a be 8d b0 37 3e
       -0.14893594 0.15269658 -0.13485874 0.17938443
000300 df 30 64 3e 0c 61 0b 3d 40 53 99 3d 01 c2 07 be
       0.22284268 0.034028098 0.07486582 -0.132576
000310 1a ee e4 3d ae 62 a4 3c 4f ae 05 be cd af c6 bb
       0.11178227 0.020066585 -0.13054775 -0.0060634376
000320 90 6e cf 3d b6 e9 5b 3e 8b 4c 39 3e 0a 0e c9 3b
       0.1012851 0.21475872 0.18095605 0.006135707
000330 e2 14 aa bd f1 e7 e9 ba 63 72 4e be ec 54 bf bd
       -0.08304764 -0.0017845613 -0.20160823 -0.093423694
000340 26 cb 1b bd f6 2b 32 bd e6 7a 19 bc fb c7 39 be
       -0.038035534 -0.043498956 -0.00936768 -0.18142693
000350 a0 66 f3 3d be b4 e5 3d 95 8a 10 be b4 92 02 3e
       0.118848085 0.112161145 -0.14115365 0.12751275
000360 8c 2b 1f 3e 7a 91 11 3d ab 6d 26 3e 11 0d 4e 3e
       0.15543956 0.035539128 0.16252773 0.20122172
000370 79 8f 67 3c 28 ff e0 3d 84 92 3f bd 54 b0 c5 3d
       0.014133328 0.10986167 -0.046770588 0.096527725
000380 64 f9 99 3c 93 0d 1e 3d 5c 80 f5 3d 95 7e b8 3d
       0.018795677 0.038587164 0.11987373 0.090085186
000390 0d 6b dd bd 7b 31 4f 3e bd b1 58 3d 93 d4 af bd
       -0.10811434 0.20233719 0.05290388 -0.08585467
0003a0 cb bc 0e 3e cc e2 a2 3d 02 e0 90 3d 16 7c 52 be
       0.13939206 0.07953414 0.07073976 -0.20555148
0003b0 6f ea f3 3d 01 1f e8 bd 39 1b 70 3d 16 cb db 3c
       0.11909949 -0.113340385 0.05861971 0.026830237
0003c0 0c 9b 33 be da 55 10 bd 7a 42 e7 bd 93 fa 1a 3d
       -0.17539614 -0.035238124 -0.11291976 0.037836622
0003d0 16 dd d8 bd 66 ec 1f be 44 d9 30 3e 1d 1c 21 3e
       -0.10589044 -0.15617523 0.1727038 0.1573338
0003e0 1e 6a f0 bc 71 6a f0 3d c3 8a 21 3e 30 d8 52 3e
       -0.029347476 0.11739052 0.1577559 0.20590281
0003f0 16 56 0a 3e 35 d3 27 bd 38 6d 30 3e 12 33 cd bd
       0.13509402 -0.040972907 0.17229164 -0.100195065

fcnn.2.weight f4 [128, 256]
000000 eb 1f 64 bc 0a 2f 0f bc 01 95 fd 3c d2 c2 01 bd
       -0.013923625 -0.008739242 0.03095484 -0.031679936
000010 1d 1e eb 3d d4 59 60 3b b1 cb 32 bb a2 fd 0e 3e
       0.11480353 0.003423323 -0.0027282054 0.1396394
000020 a1 60 00 3d 43 56 5f bd 82 09 c6 bd 57 42 2b bd
       0.031342153 -0.054525625 -0.09669782 -0.041811313
000030 3f 45 76 3b 96 34 bb bd 29 3c 89 3d 4d a2 0e 3d
       0.0037577895 -0.09140889 0.06700928 0.03482275
000040 df 4a cc 3d 09 33 c4 3d 8e 42 95 bc 3d b6 dc 3d
       0.09975218 0.09580047 -0.018220212 0.10776947
000050 e2 81 a4 bd 2f 3f aa 3d 9a e9 74 bd e0 54 a6 3d
       -0.08032586 0.083128326 -0.059793092 0.08121657
000060 ed 38 3d bd 81 5e e7 3c 26 7f 44 be 48 77 8d 3d
       -0.046196867 0.028243305 -0.19189128 0.06907517
000070 ee 11 f9 bc 4f cc 9f 3d 6a 62 8c be 2e a9 88 3d
       -0.030404057 0.07802641 -0.27418834 0.066728935
000080 0e 57 78 bc 92 d5 d5 3c 53 5c c5 3d ef bc 4b 3d
       -0.015157474 0.026102815 0.0963675 0.049740728
000090 46 76 1e bd 44 c2 96 3d 88 10 9e 3d 09 15 5a 3d
       -0.038687013 0.07361272 0.07717997 0.053242717
0000a0 7a cb 32 3d 5c 63 f2 bc 23 3c 1f 3d 9e 68 91 be
       0.04365108 -0.029588394 0.03887571 -0.2840013
0000b0 da d6 35 be fe de 0e bd b0 f9 c0 3d ef e6 1e 3d
       -0.1775774 -0.03488063 0.09422624 0.038794454
0000c0 65 e8 86 be 60 cc c0 3c 07 74 d1 3d 6a a3 fb 3d
       -0.26349178 0.023534954 0.102272086 0.12287028
0000d0 65 0b 67 be 16 54 46 be e8 15 35 3d 89 d1 86 bd
       -0.2256294 -0.19368014 0.044210345 -0.065829344
0000e0 39 a8 77 bd 23 16 16 3e 2b 9c 9f bc e9 98 5a 3e
       -0.060463164 0.14656882 -0.019483646 0.21347393
0000f0 3e 0f f8 3c a4 68 53 be 4f 36 27 be 31 35 9e be
       0.030280706 -0.20645386 -0.16329311 -0.30899957
000100 2a 46 cc bd 8b b9 d3 3c 0c 98 e2 3c 24 c4 c0 be
       -0.0997432 0.02584531 0.027660392 -0.37649643
000110 f9 4f 06 3d 65 ce 9d 3c 85 1e 65 3e ae 56 31 be
       0.03279111 0.019263456 0.22374924 -0.17318222
000120 ba 4d 4b bd 9a 55 56 bd 32 b7 ca 3c d4 55 07 bd
       -0.049634673 -0.05232773 0.024745557 -0.033040836
000130 e3 f4 3a be c8 00 fd 3c 65 7d 6c 3d 96 7c 99 3e
       -0.1825748 0.030884162 0.057736773 0.29977864
000140 57 a7 58 be 74 24 75 3b 29 71 53 bd 93 66 92 bd
       -0.21157585 0.003740576 -0.05162159 -0.07148471
000150 c4 78 1b bd a0 83 a3 3c 40 b8 07 3e 13 99 56 36
       -0.037956968 0.019960225 0.1325388 3.1977586e-06
000160 43 7c f3 bb 2a f9 72 be 68 1f 9a 3b c7 e0 06 bd
       -0.0074305846 -0.23727861 0.004703451 -0.032929208
000170 d6 b4 a2 bd f8 bd 48 3d 91 3f d0 3b a4 c4 3b bd
       -0.07944648 0.049009293 0.006355234 -0.045841828
000180 69 a2 09 b9 da dd ad bd 84 61 3c be 8c af c2 bc
       -0.0001312584 -0.084895805 -0.18396574 -0.023765348
000190 0f db 06 bc 1c cc e1 3c 69 93 24 3e a4 21 c3 3b
       -0.008230939 0.027563147 0.16071858 0.005954938
0001a0 f8 3a 1c 3e f4 6e 23 bd 42 6d cd 3d d6 f1 98 3b
       0.1525687 -0.039900735 0.10030605 0.004667501
0001b0 77 2a 4c 3d 7a 54 9c ba ab 3b 10 bd 9c b9 29 bc
       0.049845185 -0.0011927031 -0.035213154 -0.010359194
0001c0 f2 3f 4f bd d0 7c 20 bc cd 2e a1 3d a9 5c e3 3b
       -0.050598092 -0.009795383 0.07870255 0.006938536
0001d0 07 bb 01 3e 25 2f da 3c ca a2 9d be e3 65 85 3d
       0.12669002 0.026633808 -0.3078826 0.06513574
0001e0 4f 7c dd 3c c1 e4 8d 3e 1c 70 31 be fc 15 09 3e
       0.027036814 0.27713588 -0.17327923 0.13387293
0001f0 9e 6a 2c bd 44 0c b0 bd d7 cc 63 be 44 4e 8a 3a
       -0.042093866 -0.085960895 -0.22246109 0.001055189
000200 4d 29 89 3c 75 b8 31 3c b3 b4 4b 3d 18 b1 83 bc
       0.016743327 0.010847201 0.049732875 -0.016075656
000210 20 3d 88 bd a5 61 cd 3d aa 4f 5a 3c e6 44 29 3c
       -0.06652284 0.1002839 0.013324657 0.010331368
000220 24 44 d2 bd 29 9f 36 be 23 98 0e bd b4 e9 00 3d
       -0.10266903 -0.17834152 -0.034813058 0.031472877
000230 08 db 12 3d f5 39 46 3d c7 0f 41 3e d3 6e 80 3d
       0.035853416 0.048395116 0.18853675 0.06271138
000240 2b e8 db bd 46 02 96 3c 88 0c cc 3c cc 47 1b bc
       -0.10737642 0.018311631 0.02490832 -0.009477567
000250 8c 36 15 bd 88 1c 82 3e 87 90 3e 3e f9 56 75 3e
       -0.036428973 0.25412393 0.1860982 0.23958959
000260 19 04 4b 3d b5 4f 35 3d 7e 8a 00 bd ab 8f 17 3d
       0.049564455 0.044265468 -0.031382076 0.037002247
000270 5a 36 76 3d 11 ca ba bc d7 57 03 3e a5 73 41 3e
       0.060110427 -0.02280143 0.12826477 0.18891771
000280 f9 a9 4c 3c 52 58 c6 bd ec c1 4a 3e 41 f3 83 bc
       0.0124916965 -0.096848145 0.19800538 -0.016107203
000290 a4 80 b4 3d 2f 2d 21 be 21 f6 f7 3d 34 22 17 bd
       0.08813599 -0.15739892 0.12107492 -0.036897853
0002a0 01 87 5d 3d a7 cf d6 3d e2 f2 18 bd f7 20 cc 3d
       0.054083828 0.10488825 -0.037341006 0.09967225
0002b0 37 43 fc bd 8c 79 b2 3d d3 c7 24 3d 49 38 13 be
       -0.12317508 0.087145895 0.04022963 -0.1437694
0002c0 e0 31 43 b9 83 86 78 bd 10 95 b3 3d 1c c0 a7 bb
       -0.00018615229 -0.060675155 0.08768666 -0.005119337
0002d0 37 84 1c 3b a0 d6 7a bd 51 91 38 bd 1b dd 40 3d
       0.0023882517 -0.06123984 -0.04506046 0.047085863
0002e0 8f 49 8e 3d a4 7b 3e 3e a0 b9 f2 3d b3 19 b3 3d
       0.06947624 0.18601853 0.118518114 0.08745136
0002f0 f2 ca fe bb e5 c3 e0 bc 4c 3e b9 3d 7b 37 2c 3c
       -0.007775658 -0.02743716 0.09045085 0.010511274
000300 43 2b 94 bd 9d 2e bd bd 59 8d 18 be bc 9f be bd
       -0.07234814 -0.092374064 -0.1489767 -0.09307811
000310 49 dc 26 3e 39 39 49 bd 37 e9 ef 3b 3d 13 0e 3d
       0.1629497 -0.049126837 0.0073215025 0.034686316
000320 f3 75 38 bd 69 ea 90 be 0b c1 da 3d f7 bb 13 3e
       -0.04503436 -0.2830384 0.10681351 0.14427172
000330 8d 80 83 bd a7 e7 b3 bb 7a 60 6e be a6 a0 5c bd
       -0.064210035 -0.0054902616 -0.2327899 -0.053864144
000340 78 20 98 3d 55 0a 04 3d b9 65 f4 3c a3 72 fb bc
       0.07428068 0.032236416 0.029833661 -0.030694311
000350 4a f6 eb bc d1 05 30 bc f6 99 47 3d a6 39 93 bc
       -0.028803963 -0.010743574 0.048730813 -0.017971825
000360 62 be 4a 3b 30 ba ca 3d 4f 30 76 bc 06 8f 3f 3b
       0.003093623 0.09898794 -0.015026166 0.0029229536
000370 78 f0 84 be a2 a0 40 be 7f 57 09 3d 23 e8 a2 bc
       -0.25964713 -0.18811277 0.03353071 -0.019886082
000380 a2 67 8a bd 9d 47 f8 bd c3 dd d5 ba 5f 51 94 bd
       -0.06758048 -0.12123034 -0.00163167 -0.07242083
000390 fc c0 d0 bc e9 0f 29 bd 49 8d 3a 3d 90 bf 25 3e
       -0.025482647 -0.04127494 0.045544896 0.16186357
0003a0 3e 95 05 3e fe 93 2b 3d 91 39 a0 3d 75 e3 97 bb
       0.13045213 0.041889183 0.0782348 -0.0046352693
0003b0 0e 90 be 3c 9a 93 ca 3d 62 c1 b8 3c 42 8e d1 be
       0.02326205 0.09891434 0.02255315 -0.40928847
0003c0 e8 e7 7a bd 43 1d 2a bd 67 eb c6 bd f0 96 93 3d
       -0.06125632 -0.041531812 -0.09712868 0.072065234
0003d0 d7 9f 35 3e d4 bb 1c 3d 77 0b ea bd f5 82 a8 3d
       0.17736755 0.038265064 -0.11427968 0.08228103
0003e0 1c b2 ca bd ed 28 1a 3e fc 5d 01 be ba 56 59 ba
       -0.09897253 0.15054674 -0.12633508 -0.00082908163
0003f0 21 12 48 be 4e 9a c7 bd 37 7c 2c be b4 7c 14 3e
       -0.19538166 -0.09746228 -0.16844259 0.14500695

fcnn.2.bias f4 [128]
000000 36 ab 13 bd d3 b9 57 bd aa 83 c1 3c d2 ef 1e 3c
       -0.03605195 -0.05266745 0.023622353 0.009700732
000010 81 25 32 3d ee 23 75 bc 1a c3 82 3c 26 a9 29 bc
       0.043492798 -0.01496218 0.015962172 -0.01035527
000020 9a 58 36 bc ca f8 bd 3c 52 3a 17 bd e9 e6 0b 3d
       -0.011129523 0.023189921 -0.036920853 0.03415576
000030 a9 7c 6c 3d 3a 88 b5 bb ba 03 22 bc 9e d8 6d bd
       0.057736073 -0.005539921 -0.009888584 -0.05806791
000040 8e 4d 59 3d 87 ff 04 3e 81 65 4c bc 3a 09 42 3d
       0.053052478 0.12988101 -0.012475372 0.04737208
000050 32 d1 43 3c b6 09 0a 3d 20 59 88 bd e4 3a 35 3d
       0.0119517315 0.033700667 -0.06657624 0.044245616
000060 1b 54 28 bb a5 ad e3 3a 4e cd e9 3d 82 a3 1b 3d
       -0.0025684896 0.0017370476 0.11416112 0.03799773
000070 68 96 20 3d c0 63 54 3d bd f1 65 bd f4 a3 24 bd
       0.03920594 0.05185294 -0.056138743 -0.04019542
000080 00 f0 22 3c 22 3b 2b 3c 28 13 8a 3d bc cb 11 bd
       0.009944916 0.01045111 0.06741935 -0.035594687
000090 61 2d 8e 3b 92 70 60 bc 8e d4 52 bd 34 06 06 bd
       0.0043389057 -0.013698714 -0.05147224 -0.03272076
0000a0 d0 6f e3 3d 87 2e ad 3c 00 b1 d4 bc 0b 1b a1 bc
       0.11105311 0.02114035 -0.025963306 -0.019666215
0000b0 1d 0c 93 3d 76 5d 0c 3c 60 31 7a bd cb 01 61 3c
       0.07180045 0.008567205 -0.061082244 0.013733338
0000c0 d6 21 42 3b 11 55 bf 3c e0 69 64 3d 3a fd cf bc
       0.0029622219 0.023355993 0.055765033 -0.025389303
0000d0 2f fd 12 3d e8 07 84 bc 54 ab ff 3c 4f ee 28 ba
       0.035885986 -0.016117051 0.031209625 -0.0006444202
0000e0 e2 38 2d 3d 5e 14 3b 3d bb eb 8e 3c 45 59 d4 bb
       0.042290576 0.04567372 0.01744639 -0.0064803683
0000f0 b1 7d 4f bd b6 9b 5c bd d6 06 21 bb b0 3e 68 3d
       -0.050656978 -0.053859435 -0.0024570725 0.05670041
000100 33 5a 5b bd b7 ef 98 bb 41 08 9d bc 76 be 40 bd
       -0.053552818 -0.004667248 -0.019168975 -0.047056638
000110 6d 6a db ba 6c 0a 46 3d 0f c9 ce b9 96 eb 62 3d
       -0.0016740091 0.048349783 -0.00039441182 0.055400454
000120 8f 9b c3 bc 11 f3 78 bb fb 4d ca bb a6 e7 2a 3d
       -0.023877887 -0.0037986676 -0.006173847 0.041724823
000130 92 aa 51 3c 7d 99 e8 bc 85 c2 70 bd e1 e5 2f 3d
       0.012797015 -0.028393501 -0.05877926 0.04294384
000140 13 8d 52 3c 29 c8 e7 bc 43 d6 c3 3d ce 2c e0 3c
       0.0128510175 -0.028293686 0.095623516 0.027365115
000150 89 0c ec 3c cb 23 85 3d cc e4 94 bd fc 73 0e bd
       0.028814571 0.065009676 -0.07270202 -0.03477858
000160 dd 07 53 bd 66 ef a4 bd 5a 86 fd bc ed 48 03 bd
       -0.05152117 -0.08053474 -0.030947853 -0.03205197
000170 e2 90 35 bc 17 50 d6 3c 05 3e 62 bd 29 fb 88 bd
       -0.011081906 0.026161237 -0.055234928 -0.0668853
000180 07 9d 9b 3d 1f d6 1b bd 72 c6 86 bc bf 37 f7 bb
       0.0759831 -0.038046 -0.016452048 -0.0075444872
000190 a6 05 5f 3d e1 76 6e bd 85 1a 0e bc 03 4e 03 3d
       0.054448746 -0.05821884 -0.008673315 0.03205682
0001a0 af 46 65 bd 9e 25 66 bb a6 76 a3 bd 6e 57 fc bc
       -0.055975612 -0.0035117636 -0.07981615 -0.030803408
0001b0 4d 92 f2 3c 8e 97 0a bd 69 76 8a 3b 4e 17 3e bc
       0.029610777 -0.03383594 0.0042255414 -0.011602236
0001c0 d1 14 3c bd 2b 05 6a bd a9 51 2e bd a6 e9 32 bd
       -0.04591829 -0.057133835 -0.042558346 -0.043679856
0001d0 96 e5 3d 3d 21 65 c1 3d 43 36 b4 3b 0c da 0c bd
       0.04636153 0.09443117 0.0054996326 -0.034387633
0001e0 98 4a 6d bc 6c 49 00 3c a9 12 30 bc a3 17 21 bd
       -0.014483117 0.007830005 -0.010746636 -0.039329182
0001f0 d0 01 c5 3d 88 19 c6 3c 88 99 2e bd 25 aa 4d 3c
       0.09619486 0.024182096 -0.042626888 0.012552773

fcnn.4.weight f4 [64, 128]
000000 fa 10 75 bc c1 b3 81 be 81 df 75 bc f5 a8 57 be
       -0.014957661 -0.25332454 -0.015006901 -0.21060546
000010 de 3e b3 bd d2 ab 86 bc a6 b8 98 be 17 67 71 bd
       -0.08752225 -0.016439352 -0.29828376 -0.058936205
000020 65 5e f8 bd e2 61 ce 3c 9a 31 b5 3d ed 94 01 3e
       -0.12127379 0.025193159 0.08847351 0.12654467
000030 d4 35 5d 3d 29 b6 35 be 03 4f 12 3e 39 ff 21 bd
       0.054006413 -0.1774527 0.14287953 -0.03955004
000040 5c 76 2a bd 58 7a 04 3d 04 8a 86 bd 5f c5 8b bd
       -0.041616783 0.03234324 -0.06569293 -0.06824755
000050 97 c8 bd bd 39 7c 83 be 46 97 97 bd ed 3e ea 3c
       -0.09266775 -0.25680712 -0.074019 0.028594458
000060 de 72 09 bd 6a 17 06 3e 7a 68 4f be 34 2b f9 bc
       -0.03355681 0.1309487 -0.20254698 -0.030416109
000070 fe 08 1d be ba ef 39 bd eb 5d 12 3e 7e 77 58 be
       -0.15335461 -0.045394637 0.1429364 -0.21139333
000080 35 59 bf bd 03 95 f6 3d 4d 90 14 bc bf 0e ba bd
       -0.09343187 0.120401405 -0.009067607 -0.09084844
000090 87 a3 59 be 1e 93 e1 bd 13 f2 f5 bd df 46 10 be
       -0.21253787 -0.110143885 -0.120090626 -0.14089535
0000a0 41 9d 90 3d 3b 68 66 bd 21 93 8b 3b 7e b6 8d 3d
       0.07061244 -0.056251746 0.0042594825 0.06919573
0000b0 78 19 05 3e 84 59 b1 3d 27 8a b4 bd 5c 0c 64 3e
       0.12997997 0.08659652 -0.08815413 0.2227034
0000c0 b6 1c 81 3d 90 02 11 3e b6 5f 09 3e 21 5f a1 3c
       0.06304304 0.14161134 0.13415417 0.019698681
0000d0 d3 0a 90 3d 3a 86 20 be b1 b4 8c 3d b4 7d 18 3e
       0.070333146 -0.15676203 0.06870402 0.14891702
0000e0 88 57 ec bd 76 04 33 3d 94 a3 f0 bd 06 50 c1 bd
       -0.11540133 0.043705426 -0.1174995 -0.094390914
0000f0 f5 03 45 be 4d 9e 69 bc 68 15 a1 bd 72 8a 10 ba
       -0.1923979 -0.014258933 -0.07865411 -0.0005513794
000100 e5 f7 e2 bd 9f 79 58 be e1 ac 7c bd 8a 1f 00 be
       -0.110824384 -0.21140145 -0.061688308 -0.12512031
000110 72 93 0b be 71 59 1a bd 22 14 25 bc 21 fb 31 be
       -0.13630465 -0.037682954 -0.010075601 -0.17380954
000120 af 0e b3 3d 68 0f 8a 3d f6 1b 90 bc 5a 94 64 3d
       0.08743035 0.0674122 -0.017591458 0.05580554
000130 c4 5a 02 bd ba 9e c1 bd e0 60 3b be 8c 3c 94 bd
       -0.031824842 -0.09454103 -0.18298674 -0.07238111
000140 1d 14 12 be 51 b7 d2 bd 39 d5 6d be e7 50 77 be
       -0.14265485 -0.10288871 -0.23225869 -0.24151956
000150 86 66 db 3d ed 68 b1 bd df c2 6a be 0e aa 7a be
       0.10712914 -0.08662591 -0.229259 -0.24478933
000160 79 47 4f bc d3 cc 57 bd e9 e9 e8 3c 2a 21 25 be
       -0.012651318 -0.05268557 0.02843185 -0.16125932
000170 5d 9d 1b be 44 2b bc 3c 12 6d b8 3d 4f 35 40 be
       -0.15196748 0.02296985 0.090051785 -0.18770336
000180 49 2e d9 3c 48 7f 72 be 38 80 21 be 34 7d 28 3e
       0.026511328 -0.23681366 -0.15771568 0.16454011
000190 25 e9 02 3f 01 92 9f 3d 26 0d 1e be 82 05 4a be
       0.51137 0.0779152 -0.15434703 -0.19728664
0001a0 24 5f 8a bd 59 08 d3 bd 96 70 41 bd db e4 8f bd
       -0.06756428 -0.103043266 -0.04722651 -0.070260726
0001b0 0a fb 3d be 2d 47 ba bd 41 f1 1f be 9c 55 91 bd
       -0.18552795 -0.09095607 -0.15619375 -0.07096407
0001c0 67 5f 06 be f5 ea 0f bd e2 0e 88 3c e9 7f 11 3d
       -0.1312233 -0.03513618 0.01660866 0.035522375
0001d0 6b b5 f2 bd f1 53 44 be 09 e6 9f bd 0f 67 08 3e
       -0.11851009 -0.19172646 -0.078075476 0.13320564
0001e0 0f 06 5b be cb d9 dc 3d 2c a5 7e bd cc 1e 2a be
       -0.2138903 0.10783728 -0.06216924 -0.1661331
0001f0 40 57 97 3c 8a 5f 9c 3c 21 3f 55 be cb b7 df bc
       0.018474221 0.019088525 -0.20824863 -0.027309319
000200 e7 08 94 be 7c 04 d3 bd c3 97 c6 3d bc ce e6 bd
       -0.28913042 -0.1030359 0.09696915 -0.112699
000210 f3 3b 65 be d4 b2 8c bd 39 9a 52 be fe 58 2b bd
       -0.2238615 -0.06870046 -0.20566644 -0.041832916
000220 cd 14 69 bc 0d 94 62 3c 70 03 51 3d 5a 6c e8 3c
       -0.014226151 0.013829243 0.05102867 0.028371979
000230 bd 62 82 3c 11 75 e9 bd d6 f9 4a bd f9 ce 84 bd
       0.015916223 -0.11399282 -0.04955467 -0.064847894
000240 32 1e 88 be a9 e6 21 be f5 ad 03 3d 27 52 1b 3d
       -0.26585537 -0.15810646 0.03214832 0.037920143
000250 fd f8 4d be 6c 2a 0a bf 9c a4 50 be 2e 83 4b bd
       -0.20114513 -0.5397098 -0.20375293 -0.04968565
000260 60 b0 a5 3d 06 a1 7d 3e 25 dd 9d bb a3 cf 2a 3d
       0.080902815 0.24768457 -0.0048176222 0.041701924
000270 da 8c 1b be fb 34 9d 3c e4 19 ff 3d cf a4 64 be
       -0.1519045 0.019190302 0.1245611 -0.22328494
000280 9e f7 1d be d2 2c 58 3e 7e 4a 85 bd 48 41 04 3c
       -0.1542649 0.21110848 -0.06508349 0.008072205
000290 2c 72 97 be 26 e5 ab bd b0 b0 7d bd a5 0e 7b be
       -0.29579294 -0.08393316 -0.06193608 -0.24517305
0002a0 9a e2 8c 3e d9 af 2c 3d f2 4b b1 3d 06 58 ee 3d
       0.27516633 0.04215989 0.086570635 0.11637883
0002b0 69 77 a8 3e e3 24 54 3e ba 20 0e be 9d 74 82 3e
       0.32903603 0.20717196 -0.13879672 0.25479594
0002c0 22 5a 9a 3e 55 6a 22 3d 55 5b a4 3e c8 52 9c 3e
       0.3014689 0.039652187 0.3210093 0.30531907
0002d0 67 82 9c bd 40 12 44 be ee 5f 30 3d 1d a7 b8 3a
       -0.0764206 -0.19147587 0.043060236 0.001408789
0002e0 90 37 33 be 1b 99 9b bc 35 a7 f3 3a 7e ee 54 3d
       -0.17501664 -0.018993905 0.001858926 0.051985256
0002f0 e0 2a 6a bd 47 cc 84 3c 73 e8 3b be 03 27 23 bd
       -0.057169795 0.016210688 -0.18350391 -0.039832126
000300 78 54 d7 bd be f4 3b be 9a 26 d3 bc c9 4e c9 bd
       -0.10514158 -0.1835508 -0.025775243 -0.0982948
000310 ba 44 4e bd 9b 55 6a 3d 2d 72 72 3b 53 da 1a be
       -0.05035851 0.057210546 0.0036994324 -0.15122347
000320 94 2f b8 3b 9e 1f 37 3e 5b 5c 6e bd 28 b0 6e 3e
       0.005620906 0.17883155 -0.058193546 0.23309386
000330 03 98 79 bd 41 02 d7 3d 30 f1 2e be 72 a0 3e bc
       -0.060935985 0.10498477 -0.17084193 -0.011634933
000340 d8 9b a8 bd c2 9a 07 be e2 d1 a3 3c 30 34 1a be
       -0.0823285 -0.13242629 0.01999754 -0.1505897
000350 cd d8 de 3d 4d 59 31 be 3b 6f bc bd 97 e0 47 be
       0.10881195 -0.17319222 -0.09200903 -0.19519268
000360 0f 2b 94 bc ca 11 00 be 3b 53 01 3e 6c 66 81 be
       -0.018086938 -0.12506786 0.12629406 -0.25273454
000370 94 0a 5c be 74 00 2c 3d e2 e5 02 be 12 83 70 be
       -0.2148841 0.04199262 -0.12783006 -0.234875
000380 50 78 69 3e 6e 12 50 be 1d 44 99 be 90 b0 36 3e
       0.22799802 -0.2031953 -0.2993478 0.17840791
000390 03 51 bd 3e ea da 5e bd 67 8f 8d be f0 75 7c bd
       0.3697587 -0.05440799 -0.2764847 -0.06163591
0003a0 ee 38 12 be b9 72 ef bd 8a 6e 36 be c6 01 5e be
       -0.1427953 -0.116918035 -0.17815605 -0.21680364
0003b0 ea d5 7f be 49 75 84 be 31 6d ae bd c8 2f 37 be
       -0.24983945 -0.2587073 -0.0851692 -0.17889321
0003c0 b7 5a 59 be 17 ad 84 3d 91 af ae bd 04 1e 7f bc
       -0.21226011 0.06478327 -0.085295804 -0.015571121
0003d0 02 6e 2a bc e3 a8 95 bc d5 d1 4a bd e0 1d 30 3e
       -0.0104022045 -0.018269008 -0.049516518 0.17198896
0003e0 a3 70 e6 bd 95 7f 26 3d 8e 92 f5 bd e4 73 81 3c
       -0.112519525 0.040649015 -0.11990844 0.015802331
0003f0 46 e5 80 3e 1b 05 88 3c 8b 1d 15 be 52 7d 48 be
       0.25174922 0.016603997 -0.14562051 -0.19579056
