experiments/tcnn-abilities/models/MediumBTCNN_MediumFCNN_2.pth (torch, 847290 bytes, 33 tensors)

btcnn.layers.0.conv1d.weight f4 [128, 27, 3]
0	0x3e5d5805	0.21615608
1	0xbd265d7b	-0.040616494
2	0x3c76be39	0.015060001
3	0x3d2c29a6	0.042031907
4	0xbdb47459	-0.08811254
5	0x3de2ba9e	0.11070751
6	0xbc815f4a	-0.015792508
7	0xbe2dc5e5	-0.16970022
8	0x3da7fc5d	0.08202431
9	0xbdc09720	-0.09403825
10	0xbd6a686c	-0.05722849
11	0x3debb942	0.115099445
12	0x3d58cee5	0.052931685
13	0x3e7fa308	0.24964535
14	0xb9ee138e	-0.00045409467
15	0x3e6ce7b8	0.23135269
16	0xbda60069	-0.08105547
17	0x3d8f7bc7	0.070060305
18	0xbd9961ea	-0.07489379
19	0x3e4f1a46	0.20224866
20	0xbb23678e	-0.002493355
21	0x3d0a9c45	0.033840436
22	0x3de0c458	0.109749496
23	0xbcf58ad5	-0.029973427
24	0x3d49e9a7	0.049295094
25	0x3d867e37	0.06567042
26	0x3d1a8f7b	0.03773449
27	0xbe3ee63c	-0.18642515
28	0xbe9fc5f3	-0.3120571
29	0x3dbdaa89	0.092610426
30	0xbda993cd	-0.08280144
31	0xbd69453e	-0.0569508
32	0xbddf8360	-0.1091373
33	0x3d89cf11	0.06728948
34	0x3cd80ec0	0.02637422
35	0x3da6a4d2	0.08136906
36	0xbe1c99cd	-0.15293045
37	0xbe850adc	-0.25984848
38	0x3de06f12	0.10958685
39	0x3d9b1403	0.07572176
40	0xbe842eea	-0.25817043
41	0x3c9a2415	0.018816033
42	0xbdbea892	-0.09309496
43	0xbe4917a3	-0.19637923
44	0xbbca4472	-0.00617271
45	0xbe851675	-0.25993696
46	0x3e265e2f	0.16246866
47	0x3e1ad1b2	0.15119055
48	0x3e3af6ea	0.18258253
49	0xbd5c644e	-0.053806596
50	0xbdaf3839	-0.085556455
51	0x3ceb9c7f	0.028761147
52	0x3c01b604	0.007916931
53	0xbbe986ab	-0.0071266494
54	0x3cb4eda4	0.022085972
55	0x3eb68596	0.35648793
56	0x3da8cf77	0.08242696
57	0xbe3a11af	-0.18170808
58	0x3cef2661	0.029193105
59	0x3db4f3d8	0.08835572
60	0x3da95e74	0.08269969
61	0x3d28828a	0.041140117
62	0xbd74d003	-0.059768688
63	0x3dda3b55	0.10655848
64	0xbc8fe61a	-0.017565776
65	0x3cf85546	0.030314099
66	0xbd76782e	-0.060173206
67	0x3dfbcd74	0.122950464
68	0x3c289dc7	0.010291523
69	0x3e27982a	0.1636664
70	0xbe1a947f	-0.1509571
71	0x3b2e2a00	0.0026575327
72	0x3da1cab8	0.07899994
73	0xbd7d64c7	-0.061863687
74	0xbe5e0d4d	-0.21684761
75	0xbd943388	-0.07236391
76	0x3dc3fa96	0.0956928
77	0x3d9893da	0.074500754
78	0x3d4b7584	0.04967262
79	0xbbb8fa86	-0.005645099
80	0xbd8660a1	-0.06561399
81	0xb9d1ec6a	-0.0004003973
82	0xbd86c336	-0.06580202
83	0x3dacf944	0.08445981
84	0x3db7cb79	0.08974356
85	0x3e7c20e4	0.24621922
86	0xbc66f531	-0.014096544
87	0xbb9a3374	-0.0047058407
88	0xbe577f70	-0.21044707
89	0x3e6ae841	0.2294016
90	0x3d84509c	0.064606875
91	0xbcb70a60	-0.022343814
92	0xbd410bb9	-0.04713032
93	0x3dc599af	0.096484534
94	0x3e088d51	0.13335158
95	0xbd81cfde	-0.06338476
96	0xbce7fecf	-0.028319744
97	0xbe8031af	-0.25037906
98	0x3d3b91ce	0.045793347
99	0xbe413e2e	-0.18871376
100	0xbdf924b4	-0.12165204
101	0x3dbd5357	0.092444114
102	0x3dd35e65	0.10320739
103	0x3ebba72d	0.36650982
104	0x3d23918b	0.039933722
105	0x3db2095b	0.08693191
106	0xbdb8345b	-0.08994361
107	0xbd5d473a	-0.054023005
108	0x3b395938	0.0028281938
109	0x3d061c72	0.03274197
110	0xbdda4db0	-0.10659349
111	0x3ce59864	0.028026767
112	0x3dd291fa	0.10281749
113	0x3cd46347	0.025926245
114	0xbe316a6c	-0.17325753
115	0x3e8a6692	0.2703138
116	0x3e325f40	0.17419147
117	0xbe744fc1	-0.23858549
118	0xbe328cf0	-0.17436576
119	0x3bfbc639	0.007683542
120	0xbe339aee	-0.1753957
121	0xbd70b56a	-0.05876676
122	0x3da0b612	0.07847227
123	0xbe2bb018	-0.16766393
124	0x3d21b78e	0.039481692
125	0x3dc9c9fd	0.09852979
126	0xbd9561eb	-0.07294067
127	0x3e8c66e9	0.27422264
128	0xbd9f1124	-0.07766941
129	0x3c045066	0.008075809
130	0xbd930efd	-0.07180593
131	0xbdcde0ad	-0.10052619
132	0x3d95af33	0.07308807
133	0xbde1f5d8	-0.11033219
134	0xbdbd377d	-0.09239099
135	0x3eb712e8	0.35756612
136	0xbdb8c197	-0.09021299
137	0x3dba2a30	0.09090078
138	0x3dd50b43	0.104025386
139	0x3dfdb2d6	0.12387626
140	0xbe8f2594	-0.27958357
141	0xbe0458eb	-0.12924545
142	0x3ce1451b	0.027498772
143	0xbd2a3a93	-0.041559767
144	0xbdb4daee	-0.0883082
145	0x3e1a74e3	0.15083651
146	0x3de0e47c	0.1098108
147	0xbe89a54b	-0.2688392
148	0xbb921c94	-0.004458973
149	0x3cf7b81d	0.03023916
150	0xbccb51ef	-0.024819342
151	0x3c1dd920	0.009634286
152	0x3d63bea0	0.055601716
153	0x3ece135f	0.40249154
154	0xbda7dcb5	-0.081963934
155	0x3b9c789f	0.0047751213
156	0xbe44d5d9	-0.19222201
157	0xbe1d15ff	-0.15340422
158	0x3db23683	0.087018035
159	0x3cb06cb5	0.02153621
160	0x3d00bccb	0.031430047
161	0x3e0d118e	0.13776228
162	0xbd8f5af4	-0.0699977
163	0x3dc279e0	0.09495902
164	0x3d9266e0	0.07148528
165	0xbe4dea30	-0.20108867
166	0x3d8c24eb	0.06842979
167	0xbc10b08a	-0.008831153
168	0x3e37b8d7	0.17941605
169	0x3e188bda	0.14897099
170	0xbe60e894	-0.21963722
171	0x3cb775e2	0.022395078
172	0xbba097be	-0.0049009016
173	0x3e8a2b77	0.26986286
174	0x3e94433b	0.28957543
175	0x3d98b00c	0.07455453
176	0xbd796284	-0.060884967
177	0xbd045aa2	-0.032312997
178	0x3d315136	0.04329034
179	0x3b989ae4	0.0046571363
180	0x3d7a0c5e	0.06104695
181	0xbd7deccf	-0.061993416
182	0xba1c11c7	-0.0005953577
183	0xbd462050	-0.04837066
184	0xbd0a13da	-0.03371034
185	0xbdbc4ab5	-0.09193937
186	0xbdd0259b	-0.10163423
187	0x3dcba44e	0.09943448
188	0xbd1c95e8	-0.0382289
189	0xb979ea90	-0.00023833872
190	0xbdeb6740	-0.11494303
191	0x3dcc714e	0.09982549
192	0x3d8efacf	0.06981432
193	0xbd596d04	-0.05308248
194	0xbd938c52	-0.07204498
195	0xbc93c377	-0.01803754
196	0x3dda5060	0.106598616
197	0xbdb1e4c2	-0.0868621
198	0xbc9cac8b	-0.019125244
199	0xbe55dd18	-0.20885122
200	0xbdd63477	-0.104592256
201	0xbe018173	-0.12647037
202	0xbdc3ba7f	-0.09557056
203	0xbda7fc70	-0.082024455
204	0xbe2b9a42	-0.16758063
205	0x3ba1edbe	0.004941671
206	0x3cf4ce95	0.029883662
207	0x3cf3f525	0.02977998
208	0xbd3dced7	-0.046339836
209	0x3dc8190c	0.09770402
210	0x3d3d6a31	0.04624385
211	0x3c7b61be	0.015343128
212	0x3d8ba1eb	0.06817993
213	0x3e2deb9a	0.16984406
214	0xbce637f2	-0.028102849
215	0x3c254fd5	0.010089834
216	0x3e8dda63	0.27705678
217	0xbcd08c4c	-0.025457524
218	0xbceb43f2	-0.028718922
219	0x3e8dffac	0.27734125
220	0x3e339bec	0.17539948
221	0xbcc6d89b	-0.024273207
222	0xbdad6335	-0.08466188
223	0xbd1f3c40	-0.03887582
224	0x3c2f6af4	0.010706652
225	0x3e22f6dd	0.15914483
226	0x3c176abe	0.009241758
227	0x3d9a99ed	0.0754889
228	0xbc8b50bf	-0.017006276
229	0x3d33fda3	0.04394306
230	0xbd4fd399	-0.050738905
231	0x3c88cea4	0.016700096
232	0xbe055484	-0.13020521
233	0x3d966df0	0.07345188
234	0xbe2fec1c	-0.17179912
235	0xbcf648ab	-0.030063948
236	0x3e2c7f5b	0.16845457
237	0x3daebbbe	0.08531903
238	0xbdc2c781	-0.095107086
239	0xbd4a115b	-0.049332958
240	0x3b1d3c6d	0.0023992315
241	0xbe1e1037	-0.15435873
242	0x3db68062	0.08911206
243	0x3b3755b5	0.002797467
244	0x3cd8bcee	0.026457276
245	0xbda1aca9	-0.078942604
246	0x3dfc8159	0.123293586
247	0x3e22c7b4	0.15896493
248	0x3cc372da	0.023858476
249	0x3e3aa4bb	0.18226902
250	0x3e31f5af	0.17378877
251	0xbce31516	-0.027720015
252	0x3df2cc8d	0.11855421
253	0x3d40b7e2	0.047050364
254	0x3e94b931	0.2904754
255	0x3e82819f	0.25489518

btcnn.layers.0.conv1d.bias f4 [128]
0	0xbd208387	-0.039187934
1	0x3d99d64f	0.07511579
2	0x3d2f55f9	0.0428066
3	0x3dd2436c	0.10266766
4	0x3dbe3301	0.09287072
5	0x3c81e951	0.015858324
6	0xbdfee7a3	-0.12446525
7	0x3c404537	0.011735252
8	0x3d487b3d	0.048945654
9	0xbd37be56	-0.044859253
10	0xbbae70a2	-0.0053234855
11	0x3e1f6713	0.15566663
12	0x3dc7e0c2	0.09759666
13	0x3d45592a	0.048180737
14	0x3d3d30c0	0.04618907
15	0x3e14a6c9	0.14516748
16	0x3d491dc2	0.049100645
17	0xbd4b27da	-0.049598552
18	0x3e385422	0.18000844
19	0xbc7ccad0	-0.015429214
20	0xbd3c1ccc	-0.0459259
21	0x3e20f113	0.15716963
22	0x3d8a8446	0.067635104
23	0x3de08f03	0.10964777
24	0x3d688443	0.05676676
25	0x3d66b51d	0.056325067
26	0x3bf5bd8f	0.007499404
27	0xbb9dccfb	-0.0048156953
28	0xbd5d4534	-0.054021075
29	0x3d9ea155	0.077456154
30	0xbd889a04	-0.06670001
31	0x3d8dceb6	0.069241926
32	0x3e51b1c2	0.20477965
33	0xbde8e119	-0.11371059
34	0xbdd6f99d	-0.10496829
35	0x3d42522e	0.047441654
36	0x3cf5febb	0.030028692
37	0x3e20ab52	0.15690354
38	0xbd4d9335	-0.050189216
39	0x3c90831d	0.017640645
40	0x3de8440a	0.113411024
41	0x3d88877c	0.066664666
42	0xbd751bc4	-0.059840932
43	0x3dc94763	0.09828069
44	0xbde86364	-0.11347082
45	0xbdbd54cd	-0.0924469
46	0x3e03c70e	0.12868902
47	0xbd99ecdc	-0.075158805
48	0x3da022a8	0.0781911
49	0x3bb49246	0.005510601
50	0xbcca7c96	-0.02471761
51	0x3cfc8c62	0.030828658
52	0x3e0ca527	0.13734876
53	0x3dc6fb3a	0.097158864
54	0x3da2df08	0.07952696
55	0xbdf7eb1b	-0.1210539
56	0x3d620c7d	0.05518769
57	0x3d5dc4c5	0.054142732
58	0x3c7c6de5	0.01540706
59	0x3d009695	0.031393606
60	0x3d75c164	0.059998885
61	0x3bb10a22	0.0054028193
62	0x3df15e48	0.11785561
63	0xbde5868c	-0.112073034
64	0x3cd87a8e	0.026425626
65	0xbd11e47c	-0.03561829
66	0x3da92523	0.082590364
67	0xba2a9bdd	-0.0006508211
68	0xbe1da973	-0.15396671
69	0x3de25c1a	0.11052723
70	0xbd83a2b2	-0.06427516
71	0x3d627cfe	0.055294983
72	0x3da0bc64	0.07848433
73	0x3d6594c8	0.056050092
74	0x3c42ce9f	0.011890083
75	0xbc90d840	-0.017681241
76	0x3c904571	0.017611237
77	0xbd10a9ed	-0.035318304
78	0x3d8d70f9	0.069063134
79	0x3dc0f130	0.09421003
80	0x3d913fef	0.070922725
81	0xbd2de95e	-0.042458884
82	0x3daa2ccc	0.083093256
83	0x3d9dcb76	0.07704823
84	0x3d808f49	0.062773295
85	0xbe2278d3	-0.15866403
86	0xbdc36b03	-0.09541895
87	0xbd9dad61	-0.07699085
88	0xbd9e9061	-0.07742382
89	0xbd436161	-0.04770029
90	0x3e1492f2	0.1450918
91	0x3e082128	0.13293898
92	0xbe168de3	-0.14702563
93	0x3cf333ce	0.029687788
94	0x3d13fa14	0.036127165
95	0xbdae06fb	-0.08497425
96	0x3d762767	0.06009617
97	0x3d9b6099	0.07586784
98	0xbb3b85d9	-0.0028613715
99	0xbcc39180	-0.02387309
100	0x3dc69b42	0.09697582
101	0xbc2dfb0e	-0.010618938
102	0xbd1929df	-0.037393447
103	0x3de0eb44	0.10982373
104	0xbb033e2a	-0.0020026066
105	0xbdbe973a	-0.09306188
106	0xbd944afc	-0.07240865
107	0xbbaf0c55	-0.0053420463
108	0xbcbbe280	-0.022935152
109	0x3dcb8b22	0.09938647
110	0xbd8a4fb6	-0.06753485
111	0xbc9ece8e	-0.019385602
112	0x3cb9b5ae	0.02266964
113	0xbb24aada	-0.002512625
114	0x3dd8cea4	0.105862886
115	0x3c39215d	0.011299458
116	0xbdcd42a6	-0.10022478
117	0x3de93232	0.11386527
118	0x3d4bced7	0.049757805
119	0x3daf9767	0.085737996
120	0xbc0fd268	-0.008778192
121	0xbba4ebb0	-0.005032979
122	0xbda69f39	-0.08135838
123	0x3e27560c	0.16341418
124	0x3dd7bf62	0.1053455
125	0xbd4410bc	-0.04786752
126	0xba0062ee	-0.0004897554
127	0xbc782354	-0.015145142

btcnn.layers.2.conv1d.weight f4 [27, 128, 3]
0	0x3c61c49f	0.013779788
1	0xbd2889e1	-0.041147117
2	0x3d4e74ae	0.050404243
3	0xbe25b8ee	-0.16183826
4	0x3df29124	0.118440896
5	0x3e5f3947	0.21799193
6	0x3de5530a	0.11197479
7	0x3d2f9eca	0.042876042
8	0xbdbd92d0	-0.09256518
9	0xbd18fc7b	-0.03735016
10	0xbcaff0f0	-0.021477193
11	0x3d4608ea	0.048348345
12	0xbb94c3dd	-0.0045399503
13	0xbd2daa93	-0.042399
14	0xbd008ddc	-0.031385288
15	0x3d30f08d	0.043198157
16	0xbd687f5a	-0.056762077
17	0xbbaf9e1a	-0.0053594233
18	0x3be650c0	0.007028669
19	0xbd7a37c2	-0.06108833
20	0x3d3f1539	0.0466511
21	0xbe0bd8f1	-0.13656975
22	0xbdbfd9e8	-0.09367734
23	0xbdaa7443	-0.083229564
24	0x3c9b183d	0.018932456
25	0xbd5e101d	-0.054214586
26	0x3e1ecaf1	0.15507104
27	0x3c4f115b	0.012638415
28	0xbd4838d4	-0.04888232
29	0xbd2b14f4	-0.04176803
30	0xbc8b3351	-0.016992243
31	0xbd4275ed	-0.047475744
32	0x3d987c0b	0.07445534
33	0xbbc0c4c7	-0.0058828327
34	0x3b6fb64b	0.003657716
35	0x3c80490c	0.015659831
36	0x3ccc62ed	0.024949515
37	0xbc88dca4	-0.016706772
38	0x3d9ccaae	0.076558456
39	0xbd5c8762	-0.05384005
40	0x3cb64eab	0.022254309
41	0xbae2d42f	-0.0017305667
42	0xbd1d4fb9	-0.038406108
43	0x3bd175fc	0.0063922387
44	0x3d721d45	0.059109945
45	0x3dd69f83	0.10479643
46	0x3d1b0799	0.037849043
47	0x3d5a91f6	0.053361855
48	0xbd9cff30	-0.07665861
49	0x3c3d268c	0.011544835
50	0x3c21fa97	0.009886405
51	0xbd52be10	-0.05145079
52	0x3ba54670	0.005043797
53	0x3d2cc005	0.04217531
54	0x3e017c5c	0.12645096
55	0x3d64ec14	0.055889204
56	0x3d80a434	0.06281319
57	0xbe15cb30	-0.14628291
58	0xbc7672fb	-0.015042062
59	0xbbcdf4aa	-0.0062852697
60	0xbd1f99b1	-0.03896493
61	0xbb926ff8	-0.004468914
62	0x3de74ea3	0.11294296
63	0xbc8f51f2	-0.01749513
64	0xbd21334b	-0.039355557
65	0x3e79e02c	0.24401921
66	0x3d5565af	0.052098926
67	0xbda08285	-0.078373946
68	0x3e12625d	0.14295335
69	0x3cf8821c	0.030335478
70	0x3c80574a	0.015666623
71	0x3d36e90a	0.044655837
72	0xbe16ce4b	-0.14727132
73	0x3c841906	0.016125213
74	0x3d2545f4	0.040349916
75	0xbb8aa7b8	-0.0042314194
76	0xbcb08a48	-0.021550313
77	0xbdd61679	-0.10453505
78	0x3ce75a8b	0.028241416
79	0xbc1fcb16	-0.009753009
80	0x3d769a61	0.06020582
81	0xbcaed452	-0.021341477
82	0xbce4db54	-0.027936615
83	0x3bb31bcb	0.0054659597
84	0x3c805971	0.015667649
85	0x3d3d4462	0.046207793
86	0x3cf25689	0.029582279
87	0x3b1e5261	0.0024157988
88	0xb99ad7b0	-0.0002953387
89	0x3c85b918	0.016323611
90	0x3bf62bee	0.007512561
91	0x3bfec3c6	0.007774803
92	0xbd597648	-0.053091317
93	0xbda0261a	-0.07819767
94	0xbd3a7f51	-0.045531575
95	0x3eaec619	0.34135512
96	0xbd15e76e	-0.03659766
97	0xbc187309	-0.00930477
98	0x3cf47f22	0.029845778
99	0x3b75bec4	0.0037497738
100	0x3c6d3ee7	0.014480329
101	0xbdb0754d	-0.08616123
102	0xbc7a5d7a	-0.015281076
103	0x3d92e1f1	0.07172001
104	0xbd22fa0f	-0.039789256
105	0x3dcfaf14	0.101408154
106	0x3d46985c	0.048485145
107	0x3d680a18	0.05665025
108	0x391cebd8	0.00014965178
109	0xbd015f81	-0.03158522
110	0x3c7290e3	0.0148050515
111	0xbd1943ad	-0.037418056
112	0x3d1d1952	0.038354225
113	0x3da774b3	0.081765555
114	0xbdf5e208	-0.12006003
115	0xbcc3d060	-0.023903072
116	0xbd2e535d	-0.04255997
117	0xbd371d4d	-0.044705678
118	0xbd5909ea	-0.05298797
119	0x3bddc41e	0.0067677638
120	0xbd0435b4	-0.032277778
121	0xbce5182a	-0.027965624
122	0x3cbca519	0.023027943
123	0xbd594920	-0.053048253
124	0xbd0f63a4	-0.035007134
125	0x3de550e5	0.1119707
126	0xbcd8baf2	-0.02645633
127	0xbd484904	-0.048897758
128	0xbc0dcda1	-0.008654983
129	0xbc6819f5	-0.014166345
130	0xbcd01ea2	-0.025405232
131	0xbd3b8ce3	-0.045788657
132	0xbd4f5db2	-0.050626464
133	0xbdf9b994	-0.12193599
134	0x3c678e41	0.014133037
135	0x3c4cadd2	0.012492614
136	0xbdb97d36	-0.09057085
137	0x3d28b117	0.04118451
138	0x3c720b64	0.014773224
139	0x3d262a79	0.04056785
140	0xbb93b05f	-0.004507109
141	0xbd8bbc9c	-0.06823084
142	0x3a99f51b	0.0011746021
143	0x3c5cfe44	0.013488356
144	0x3cbd0385	0.023072967
145	0xbd4f582a	-0.05062119
146	0x3d334ddd	0.043775428
147	0x3c16f12b	0.009212772
148	0x3d289829	0.041160736
149	0xbc96b189	-0.018395202
150	0x3c38b0f1	0.011272655
151	0x3ba264ec	0.0049558785
152	0x3cc0df30	0.023543924
153	0x3c074a40	0.008257449
154	0xbd5f3d3c	-0.054501757
155	0x3d1df478	0.03856322
156	0x3d8e0e3f	0.06936311
157	0x3d91cc6e	0.0711907
158	0x3db23b82	0.087027565
159	0x3d5d6d76	0.05405947
160	0x3c07741c	0.008267429
161	0x3dc870dd	0.09787152
162	0x3d6210ae	0.05519169
163	0x3ca9bbbc	0.020719402
164	0x3cd2ac00	0.025716782
165	0xbd8ffa42	-0.07030155
166	0xbcb17bd3	-0.02166549
167	0xbd61d76c	-0.055137083
168	0xbd75d12a	-0.060013928
169	0x3cc5d9ac	0.024151646
170	0xbcb6c5f1	-0.022311183
171	0xbd6ab043	-0.057297003
172	0x3dcaa5b8	0.098948896
173	0x3d87b37b	0.0662603
174	0xbdbe3040	-0.09286547
175	0x3d63371c	0.05547248
176	0x3df117a2	0.11772086
177	0xbd0a8ddd	-0.033826698
178	0x3bc8dc7a	0.0061297985
179	0xbc91244b	-0.017717501
180	0xbd3b1bd6	-0.045680843
181	0x3d8a3887	0.06749063
182	0x3c5150ac	0.012775581
183	0x3d16066f	0.03662723
184	0x3cb648e7	0.02225156
185	0x3e9da148	0.3078711
186	0x3c858400	0.016298294
187	0xbd0b953d	-0.03407787
188	0xbc578946	-0.013155287
189	0xbca5ecce	-0.020254519
190	0xbd228f05	-0.039687175
191	0xbd2683d5	-0.04065307
192	0x3d9a87a4	0.07545403
193	0x3db01544	0.08597806
194	0x3d487aec	0.048945352
195	0xbd959e69	-0.07305605
196	0x3c9a3df4	0.01882837
197	0x3d45da07	0.04830363
198	0x3db34adc	0.08754513
199	0x3de8dfde	0.11370824
200	0x3ddf4bcb	0.10903128
201	0x3d657fb3	0.056029987
202	0xbd8fdae0	-0.07024169
203	0xbc5e2bad	-0.013560218
204	0x3da1738d	0.07883368
205	0xbc6d3312	-0.014477508
206	0x3d5d443e	0.05402016
207	0x3bedaba0	0.0072531253
208	0x3c4d7459	0.0125399465
209	0x3de398e8	0.11113149
210	0xbc8da09a	-0.017288495
211	0x3d3540ac	0.04425113
212	0x3c80e18f	0.015732555
213	0xbcc132aa	-0.023583729
214	0xbd54d724	-0.051962987
215	0x3db1ed1d	0.08687804
216	0xbcada8e7	-0.021198703
217	0xbd08e087	-0.03341725
218	0x3e2dfa93	0.16990118
219	0x3c41dd98	0.011832617
220	0xbdbf861d	-0.09351752
221	0x3c81b36e	0.015832629
222	0xbcddc7d6	-0.027072828
223	0xbd200568	-0.039067656
224	0x3d389b03	0.045069706
225	0xbd14dfe6	-0.03634634
226	0xbcd2d713	-0.025737321
227	0xbd06d64e	-0.03291922
228	0xbd60acb2	-0.054852195
229	0x3c8e5d39	0.017378436
230	0xbd349004	-0.044082657
231	0xbb9a2dd9	-0.0047051725
232	0x3c8c843b	0.017152896
233	0xbc73abaf	-0.0148724755
234	0x3dd4ff03	0.10400202
235	0x3de370d0	0.11105502
236	0x3c8ceb4d	0.017202044
237	0xbda1ce58	-0.07900685
238	0x3de74369	0.11292154
239	0x3ca8724d	0.020562315
240	0x3d427279	0.04747245
241	0x3cff0c0f	0.03113368
242	0x3d3733ca	0.044727124
243	0x3c4b455a	0.012406671
244	0x3d2d4fa3	0.042312276
245	0xbc8e985f	-0.01740664
246	0x3d069f03	0.03286649
247	0x3d79f3a7	0.06102338
248	0xba5d929d	-0.0008452328
249	0xbcc512ff	-0.02405691
250	0x3c7d4d2c	0.015460294
251	0xbc83dca9	-0.01609643
252	0x3d2150ac	0.039383575
253	0x3dd437b9	0.10362191
254	0x3d26f122	0.040757306
255	0x3d301990	0.04299313

btcnn.layers.2.conv1d.bias f4 [27]
0	0x3d544394	0.05182226
1	0xbccd4261	-0.025056066
2	0x3d35802e	0.044311695
3	0x3993c31e	0.00028183399
4	0xbd7f62e5	-0.062350173
5	0x3c01ae15	0.00791504
6	0xbc76eec6	-0.015071576
7	0xbcc41d9f	-0.023939906
8	0x3c8f9652	0.017527733
9	0xbc430231	-0.011902378
10	0xbca44eee	-0.020057168
11	0xbd687894	-0.056755617
12	0x3cce28cd	0.02516594
13	0xbd27836b	-0.040896814
14	0x3d3dfdae	0.046384506
15	0xbc5efabd	-0.013609585
16	0x3cfe9d95	0.031081
17	0xbd3ff5f4	-0.04686542
18	0x3bfa7d1a	0.007644308
19	0xbc4f20c6	-0.012642091
20	0xbc869ad8	-0.016431257
21	0x3ca402d7	0.020020885
22	0x3d005715	0.031333048
23	0xbd99b349	-0.07504899
24	0xbcc3d2d7	-0.023904247
25	0x3c0cc04d	0.00859077
26	0xbd177a5d	-0.03698193

fcnn.0.weight f4 [256, 27]
0	0xbcd36d24	-0.025808878
1	0xbd7523dc	-0.05984865
2	0xbc6a8782	-0.014314534
3	0x3e16755b	0.14693205
4	0xbddaa87f	-0.10676669
5	0xbe14624e	-0.14490625
6	0xbcb3e3bf	-0.021959184
7	0xbd89bc24	-0.06725338
8	0xbca20386	-0.01977707
9	0xbda39d07	-0.07988935
10	0xbccc7bf6	-0.024961453
11	0x3de19fec	0.11016831
12	0x3de492d8	0.11160821
13	0x3d6fbcb5	0.058529574
14	0x3dd4eec4	0.103971034
15	0xbba43b9e	-0.0050119897
16	0x3e3df2e1	0.18549682
17	0x3d17f052	0.03709442
18	0xbe6e1c19	-0.23252906
19	0xbe0ce295	-0.13758309
20	0x3dbed3e6	0.0931776
21	0x3d1335fd	0.03594016
22	0x3d57286b	0.05252878
23	0xbd777772	-0.060416646
24	0xbcd5e01d	-0.026107842
25	0xbd0a3b0e	-0.033747725
26	0x3ddb86ee	0.10719095
27	0xbe429751	-0.19003035
28	0x3db40bbe	0.08791302
29	0x3e180632	0.14846113
30	0xbc60a0f7	-0.013710252
31	0x3e05356b	0.13008659
32	0xbe108b33	-0.141156
33	0xbcbc1c2c	-0.022962652
34	0x3c800819	0.015628861
35	0xbd487d67	-0.048947718
36	0x3e22eb47	0.15910064
37	0x3dae98ee	0.08525263
38	0x3e56c7f5	0.20974715
39	0x3df0f803	0.117660545
40	0x3e0d5516	0.13801989
41	0xbd1af523	-0.037831437
42	0xbdb4e0d9	-0.08831949
43	0xbd95710a	-0.07296951
44	0x3e3514bd	0.17683692
45	0x3deedbeb	0.1166304
46	0xbca735ec	-0.020411454
47	0xbcc13ecc	-0.023589514
48	0x3da8c2b2	0.0824026
49	0xbd76325f	-0.06010663
50	0x3df1f122	0.118135706
51	0xbe755f6d	-0.23962183
52	0xbe066dd3	-0.13127832
53	0x3df3e6f3	0.119092844
54	0xbe80d1d5	-0.2516009
55	0x3d8cd580	0.068766594
56	0xbd57dce5	-0.052700896
57	0x3db1fcc5	0.0869079
58	0x3dfda9a3	0.12385871
59	0xbdf6ad6b	-0.120447956
60	0xbc41f906	-0.011839157
61	0x3dcb9dee	0.09942232
62	0x3da4ce34	0.080471426
63	0x3e4df6ea	0.20113721
64	0xbdda0aa9	-0.106465645
65	0xbc627b93	-0.013823408
66	0x3e3652ae	0.17804977
67	0xbce6e0c8	-0.028183356
68	0x3e1db3bf	0.15400599
69	0xbe273d0e	-0.16331884
70	0x3e60fc5e	0.2197127
71	0x3e285bb7	0.16441236
72	0x3dd71aed	0.105031826
73	0x3d296704	0.04135801
74	0xbcab4801	-0.020908358
75	0xbdec62b5	-0.11542264
76	0xbcd7dda0	-0.026350796
77	0xbd6f5b56	-0.058436714
78	0xbec2aa89	-0.38020733
79	0x3ccc19c5	0.024914632
80	0xbe6d7f06	-0.23192987
81	0x3d6261ad	0.055268932
82	0x3d862eab	0.0655187
83	0x3daf4717	0.08558481
84	0x3e0a4a96	0.13505015
85	0x3d825113	0.0636312
86	0xbe139fec	-0.14416474
87	0xbde60338	-0.11231083
88	0xbe21a00e	-0.15783712
89	0xbd99b353	-0.075049065
90	0x3b6d3d52	0.003619988
91	0x3da5db00	0.080984116
92	0xbe0c9977	-0.13730417
93	0x3d9b9058	0.07595891
94	0xbd7311cd	-0.059343148
95	0xbe32d6cd	-0.17464752
96	0xbe521c62	-0.2051864
97	0xbe3f45ba	-0.18678942
98	0x3ba8e13e	0.005153804
99	0x3e06a979	0.13150586
100	0xbd6c7c19	-0.057735536
101	0xbdf80f8e	-0.12112342
102	0x3dbeee8a	0.093228415
103	0x3dfdb3a1	0.12387777
104	0x3df3572c	0.11881861
105	0x3e8ca888	0.2747233
106	0xbe5cd852	-0.21566895
107	0x3db2f32c	0.087377876
108	0x3ddb2212	0.10699858
109	0x3e3ad49f	0.18245171
110	0xbe4468f2	-0.19180658
111	0x3e30b6d3	0.17257242
112	0x3ca5e9e1	0.020253124
113	0xbd5615c0	-0.052266836
114	0x3e610fee	0.21978733
115	0x3d7e1145	0.06202819
116	0x3bb36d72	0.0054756934
117	0xbdd511e7	-0.10403805
118	0x3e2d2251	0.16907622
119	0xbbf2bcf1	-0.0074077775
120	0xbd98e368	-0.07465249
121	0x3d915d4f	0.07097875
122	0x3dd3fbfd	0.10350797
123	0x3e5da109	0.21643461
124	0xbdc7601d	-0.09735129
125	0xbdf47814	-0.119369656
126	0xbe993501	-0.2992325
127	0xbe174e4e	-0.14775965
128	0xbc61edf2	-0.013789641
129	0xbe5eef29	-0.2177092
130	0xbe4e45ce	-0.20143816
131	0xbcc80d98	-0.024420545
132	0xbcdb8da7	-0.026800944
133	0x3e6cedf1	0.23137642
134	0x3cefe5d7	0.0292844
135	0x3d92f7d4	0.07176176
136	0x3dc763be	0.09735821
137	0xbd1a88f8	-0.03772828
138	0x3d040b9e	0.03223764
139	0xbc78d265	-0.015186881
140	0x3c3e86b1	0.011628793
141	0x3dfd26f4	0.12360945
142	0xbc963b0d	-0.018338704
143	0xbe036bb0	-0.12834048
144	0x3d15db36	0.03658601
145	0x3d8008d0	0.06251681
146	0xbda9f322	-0.08298327
147	0xbd39a50b	-0.045323413
148	0x3e00d324	0.12580544
149	0xbdaf82a4	-0.085698396
150	0x3df1bbfb	0.118034326
151	0x3e3322be	0.17493722
152	0xbe03a6e8	-0.12856638
153	0xbe3e9d3f	-0.18614672
154	0x3dde616d	0.10858426
155	0x3e4d3ec5	0.20043476
156	0xbe1a2185	-0.15051849
157	0xbd17d7ae	-0.037070923
158	0xbdd66ad9	-0.10469598
159	0xbcfe55ea	-0.031046826
160	0x3e1bf2d2	0.15229347
161	0xbd9509f0	-0.07277286
162	0x3cac8721	0.021060528
163	0x3d4c7128	0.0499126
164	0xbdb46792	-0.08808817
165	0xbdddf185	-0.10837082
166	0xbdb5937d	-0.08866022
167	0xbe016fde	-0.1264033
168	0xbe0df5aa	-0.13863245
169	0x3e1da0de	0.15393397
170	0x3deb0e02	0.11477281
171	0xbe790a96	-0.24320444
172	0x3e36e084	0.17859083
173	0x3d3969c0	0.045266867
174	0xbc6ecb99	-0.014574909
175	0xbe333fbf	-0.17504786
176	0xbe0c0f6d	-0.1367776
177	0xbe15d15d	-0.14630647
178	0xbd986b06	-0.07442288
179	0xbe21e3de	-0.1580958
180	0x3aacc8ca	0.0013182398
181	0x3c22e48d	0.009942186
182	0x3d5b7071	0.05357403
183	0x3c8ca3fd	0.01716804
184	0x3e036765	0.1283241
185	0xbdd37d8e	-0.10326682
186	0x3e369457	0.17830025
187	0xbcb3f686	-0.021968137
188	0xbd368181	-0.0445571
189	0xbe881ecb	-0.26585993
190	0x3e634f30	0.22198176
191	0xbc09a8d0	-0.008402064
192	0xbdce13e8	-0.100623906
193	0xbe04d8a9	-0.12973274
194	0xbddd869a	-0.10816689
195	0x3d76d4b3	0.06026144
196	0x3c3e0213	0.011597174
197	0x3e782fab	0.24236934
198	0x3df3efbc	0.1191096
199	0xbb2ab7a4	-0.00260494
200	0xbd85c38a	-0.06531437
201	0x3d964a4d	0.073383905
202	0xbd32e779	-0.04367778
203	0xbdb25d3a	-0.08709188
204	0x3cad068a	0.021121282
205	0x3d81aec7	0.06332164
206	0xbd8abd42	-0.06774379
207	0xbe0daaa3	-0.13834624
208	0x3dfa21d3	0.12213483
209	0x3e1af6d5	0.15133221
210	0xbe9c15bc	-0.30485332
211	0xbe6bb5ad	-0.23018523
212	0xbdfeffe9	-0.12451155
213	0xbd3f2ab3	-0.04667158
214	0x3d371c08	0.044704467
215	0xbe73db86	-0.2381421
216	0xbd91d8b0	-0.07121408
217	0x3d8a182c	0.06742892
218	0xbd8d8d91	-0.06911767
219	0x3e0ca180	0.13733482
220	0x3e3da8b4	0.18521386
221	0xbdb8fb83	-0.09032347
222	0xbdeca275	-0.11554424
223	0xbd4ae753	-0.049537014
224	0x3d9d1448	0.07669884
225	0x3cb49b2b	0.022046646
226	0x3e1cb0a3	0.15301757
227	0x3e48292c	0.19546956
228	0x3e3c3689	0.18380179
229	0x3e1a56c3	0.1507216
230	0x3cb14e0a	0.021643657
231	0xbe2e44b7	-0.170184
232	0x3d91b5ab	0.071147285
233	0x3e2cdcae	0.16881058
234	0x3c17daa4	0.009268437
235	0xbe1a7c67	-0.15086518
236	0x3e36871d	0.17824979
237	0xbdd61e6d	-0.10455022
238	0xbdcbe08e	-0.0995494
239	0x3c182b5f	0.009287684
240	0x3c4b7907	0.012418992
241	0x3dac8a28	0.08424789
242	0x3d633a21	0.055475358
243	0x3e1f1ec1	0.15539075
244	0xbc9dc4c5	-0.019258866
245	0x3ddfe368	0.10932046
246	0x3dae482a	0.08509858
247	0x3d6b758c	0.05748515
248	0x3e2febc9	0.17179789
249	0xbdbc8c75	-0.092064776
250	0x3e3a46f0	0.18191123
251	0xbdf86997	-0.12129515
252	0x3e106d4c	0.14104193
253	0xbe36e049	-0.17858995
254	0x3df2859b	0.118418895
255	0xbe22f998	-0.15915525

fcnn.0.bias f4 [256]
0	0x3cb60074	0.022217013
1	0xbcf9720d	-0.030449891
2	0x3e1a5fb9	0.15075578
3	0xbddc0411	-0.10742963
4	0x3e1d67d1	0.15371634
5	0x3deaead1	0.11470569
6	0xbdaf8174	-0.08569613
7	0x3e3a63b1	0.18202092
8	0xbd6c4a4f	-0.057688054
9	0x3e0fedd6	0.14055571
10	0xbe059d7d	-0.13048358
11	0x3e393c71	0.18089463
12	0x3e0e336c	0.13886803
13	0x3d96e29c	0.07367441
14	0x3d8272c2	0.063695446
15	0x3e1d9cf3	0.15391903
16	0x3dece22a	0.11566575
17	0xbdd95583	-0.10612013
18	0xbc95c7fb	-0.018283835
19	0xbe36b14f	-0.17841075
20	0x3e826796	0.25469655
21	0x3d302a28	0.043008953
22	0x3e450b35	0.19242556
23	0xbe0ba195	-0.13635857
24	0xbe51920f	-0.20465873
25	0x3c9c1d16	0.019056838
26	0x3de2147b	0.110390626
27	0x3d40f593	0.047109198
28	0xbda1b9ca	-0.078967646
29	0xbe331ee7	-0.17492257
30	0xbdbef498	-0.09323996
31	0x3c67641b	0.014122988
32	0xbc543c0d	-0.01295377
33	0x3d9315b3	0.07181873
34	0xbdb55c0d	-0.08855448
35	0xbe102dda	-0.14079991
36	0x3db22278	0.08697981
37	0xbd840278	-0.064457834
38	0x3dbe0c6b	0.09279712
39	0xbe76b510	-0.24092507
40	0xbd9a1030	-0.07522619
41	0xbe2e70e7	-0.17035256
42	0xbd882ebf	-0.06649541
43	0xbddf3bb1	-0.10900057
44	0xbe5480b1	-0.20752217
45	0xbe297ebc	-0.16552252
46	0xbe208dfb	-0.15679161
47	0x3e524e67	0.2053772
48	0x3e1177de	0.14205882
49	0xbde319fe	-0.11088942
50	0x3e1cb05e	0.15301654
51	0x3bb248e2	0.005440817
52	0xbd80e279	-0.06293196
53	0xbe2be91a	-0.1678814
54	0xbdd0bba0	-0.10192037
55	0xbc9f19ec	-0.01942154
56	0x3df3b968	0.11900598
57	0xbdf2729f	-0.118382685
58	0xbd19c8bf	-0.037544962
59	0xbe382d21	-0.17985965
60	0xbe481555	-0.19539388
61	0x3e2783ad	0.16358824
62	0xbe4ed02c	-0.20196599
63	0x3e67c000	0.22631836
64	0x3e0e006b	0.13867347
65	0x3c7be987	0.0153755015
66	0xbe466591	-0.19374682
67	0x3e038f45	0.12847622
68	0xbe0c44d8	-0.13698137
69	0xbe148a9d	-0.14506002
70	0x3d1bf12f	0.038071807
71	0xbde9090d	-0.113786794
72	0x3e3c988b	0.18417566
73	0xbc6ce7ea	-0.0144595895
74	0xbc2332f5	-0.00996088
75	0x3e5c5be7	0.21519433
76	0xbda8b674	-0.08237925
77	0xbd02bf89	-0.031920943
78	0xbe612038	-0.21984947
79	0x3e0c22ca	0.13685146
80	0x3e9c1036	0.30481118
81	0xbd72062c	-0.059087917
82	0x3e234566	0.15944442
83	0xbd283079	-0.041061852
84	0x3e55ef37	0.20892034
85	0xbe352549	-0.17690004
86	0xbde04d92	-0.10952295
87	0x3e306470	0.17225814
88	0xbe0a5ed1	-0.13512732
89	0xbd786385	-0.060641784
90	0xbda05d0e	-0.07830249
91	0x3d9c0cd6	0.07619636
92	0x3e6d3893	0.23166113
93	0x3c168ef5	0.009189357
94	0xbe0a258d	-0.13490887
95	0x3d259c70	0.040432394
96	0xbd54a48e	-0.051914744
97	0x3e41bd1c	0.18919796
98	0x3cf71d81	0.030165436
99	0xbe36a687	-0.17836963
100	0x3b20f89a	0.002456224
101	0xbd26f319	-0.04075918
102	0x3e2f0aa8	0.17093909
103	0x3e18942d	0.14900275
104	0xbe013cff	-0.12620924
105	0xbe4acf1a	-0.19805565
106	0x3da3555e	0.07975267
107	0xbd87bac4	-0.066274196
108	0xbe5a8042	-0.21337989
109	0xbd90b750	-0.07066214
110	0x3e705f95	0.23473962
111	0xb9120c2c	-0.0001392818
112	0x3e187a11	0.14890315
113	0x3da4ea84	0.08052543
114	0xbdba4585	-0.09095291
115	0xbdd6ce71	-0.10488594
116	0x3e545f76	0.2073954
117	0xbc002b7c	-0.0078228675
118	0xbd52a2e0	-0.05142486
119	0x3d0256a2	0.0318209
120	0xbe3dee05	-0.18547828
121	0xbde5649c	-0.1120083
122	0x3de920c6	0.11383204
123	0x3cb3571b	0.021892121
124	0xbe303c57	-0.17210518
125	0x3e15e68d	0.1463873
126	0xbd5610af	-0.052262004
127	0xbd2d5c82	-0.04232455
128	0xbe40c92c	-0.18826741
129	0x3caac92c	0.02084788
130	0x3e0a0657	0.13478981
131	0xbc30253b	-0.010751064
132	0xbda35c41	-0.079765804
133	0x3ce86e85	0.028373012
134	0xbd998563	-0.074961446
135	0xbe385e8b	-0.18004815
136	0xbda6e6a9	-0.08149464
137	0x3e1c9f7f	0.15295218
138	0xbdde9715	-0.1086866
139	0xbd68f1ab	-0.056871098
140	0x3e5ea020	0.2174077
141	0xbd2ee67b	-0.042700272
142	0x3d37cdc5	0.04487397
143	0x3dac5f3b	0.08416601
144	0xbdb81641	-0.089886196
145	0x3db7ec33	0.08980598
146	0x3dd809a5	0.105487145
147	0xbd00d67b	-0.031454545
148	0x3e3d1ca3	0.18467955
149	0xbe0cdb83	-0.13755612
150	0x3d380713	0.04492862
151	0x3e5a8226	0.2133871
152	0xbd7f2e86	-0.062300228
153	0x3e1a83af	0.15089296
154	0xbd51e194	-0.05124052
155	0x3dbfa5a7	0.093577676
156	0x3dbe0440	0.092781544
157	0xbbd3811c	-0.0064546
158	0x3e23f543	0.16011529
159	0x3d0f06fb	0.034918766
160	0xbe4680e8	-0.19385111
161	0x3e56c035	0.20971759
162	0x3e346ffc	0.17620844
163	0x3e171baf	0.14756654
164	0x3e2e3630	0.17012858
165	0x3e40b2dd	0.18818231
166	0xbe1d84a8	-0.15382636
167	0x3e105446	0.14094648
168	0xbc76717d	-0.015041706
169	0xbe3bb00e	-0.18328878
170	0x3e4e1675	0.20125754
171	0xbde2bc1c	-0.11071035
172	0x3dc6b8cd	0.09703217
173	0x3b705822	0.0036673625
174	0x3e0cd15e	0.13751742
175	0x3e0bc427	0.13649045
176	0xbca32b59	-0.01991813
177	0x3d1be47a	0.03805969
178	0x3e032f22	0.12810948
179	0xbdc5af76	-0.09652607
180	0x3dbb575f	0.09147524
181	0x3d50bfa1	0.050964
182	0x3dfc1411	0.12308515
183	0x3ca05af6	0.019574624
184	0xbdca6c62	-0.09883954
185	0xbe4743aa	-0.19459406
186	0x3d486468	0.04892388
187	0x3d901667	0.07035523
188	0xbe6e96b0	-0.2329967
189	0x3dc701ef	0.09717166
190	0xbdc79cef	-0.097467296
191	0x3e51d91a	0.20492974
192	0x3e2071e7	0.1566845
193	0x3c17617f	0.0092395535
194	0x3e166fae	0.1469104
195	0xbd4ed915	-0.050499994
196	0x3d2f5d91	0.04281384
197	0x3db2b47b	0.0872583
198	0xbded550e	-0.115884885
199	0xbcf66323	-0.030076569
200	0x3db9ec14	0.090782315
201	0x3e23dc69	0.16002049
202	0x3e623b76	0.22092995
203	0x3d3dfda2	0.04638446
204	0xbe022f06	-0.1271325
205	0xbc8e4c53	-0.017370379
206	0xbe4a41ac	-0.19751614
207	0xbd16b125	-0.036790032
208	0xbc2cf096	-0.010555407
209	0xbd0da676	-0.034582578
210	0xbcb2b745	-0.021815905
211	0xbe3a4298	-0.18189466
212	0x3dd9a942	0.106279865
213	0x3de73960	0.1129024
214	0xbdf3ffe3	-0.11914041
215	0x3ddad2e8	0.106847584
216	0x3e0ea2b5	0.13929255
217	0x3cce392e	0.02517375
218	0x3dca13ab	0.098670326
219	0x3e314462	0.17311242
220	0x3c9fed54	0.019522347
221	0x3e2a2607	0.16616069
222	0xbd4c24a0	-0.049839616
223	0x3dbbdc58	0.091728866
224	0xbd5ccd85	-0.053906936
225	0x3d35dddc	0.044401035
226	0x3df467e0	0.11933875
227	0x3da850ab	0.08218511
228	0xbe5ad7c4	-0.2137137
229	0x3e4e5c0c	0.201523
230	0x3d712b0c	0.058878943
231	0xbd2f8bc2	-0.042857893
232	0x3e03e610	0.1288073
233	0x3da1be9f	0.07897686
234	0x3d971f4f	0.073790185
235	0xbe33c8ca	-0.17557064
236	0x3e2da80b	0.16958635
237	0xbe0ad992	-0.13559559
238	0x3d83f811	0.06443799
239	0x3c803a7e	0.015652891
240	0xbdfd67c2	-0.12373306
241	0xbcc8bbd7	-0.024503632
242	0xbd66cd63	-0.056348216
243	0xbcb2db32	-0.021833036
244	0xbd95f3c6	-0.07321887
245	0xbe0eea1f	-0.13956498
246	0x3e44a05b	0.19201796
247	0x3e2bdf7a	0.16784468
248	0xbc826d8e	-0.01592138
249	0x3df7fbc3	0.121085666
250	0x3e5a84c2	0.21339706
251	0x3e47d27a	0.19513884
252	0x3db664ef	0.0890597
253	0xbd21e0c5	-0.039520998
254	0x3e3410cd	0.17584534
255	0xbdd19e95	-0.10235325

fcnn.2.weight f4 [128, 256]
0	0xbb783e2c	-0.0037878854
1	0xba98f8fd	-0.0011670884
2	0x3cb71db7	0.022353036
3	0xbe03b23c	-0.1286096
4	0x3dc72e69	0.09725649
5	0xbd4a0903	-0.049325
6	0xbc78a830	-0.015176818
7	0x3e946190	0.28980684
8	0x3d3140dd	0.04327475
9	0xbcab0123	-0.020874565
10	0x3d292410	0.041294158
11	0xbdd33c31	-0.10314215
12	0x3d17e779	0.037085984
13	0xbd70bc88	-0.058773547
14	0x3de01cfc	0.10943028
15	0x3e2b9fe5	0.16760214
16	0x3dd8880e	0.10572825
17	0x3de937d9	0.11387605
18	0xbcd2bf9f	-0.025726138
19	0xbe58da77	-0.21177088
20	0xbdbe2531	-0.092844374
21	0x3d583a69	0.05279008
22	0x3e0d60b5	0.13806422
23	0x3db2294b	0.08699282
24	0xbcad0e65	-0.021125028
25	0xbe2c4c46	-0.16825971
26	0x3da42ef5	0.08016769
27	0x3d7c4f7f	0.06159925
28	0xbd054dd0	-0.03254491
29	0x3db54d3d	0.08852623
30	0x3d2b6ed5	0.041853745
31	0x3e056ec6	0.13030538
32	0xbbd16fc6	-0.0063914983
33	0x3cc77b51	0.024350794
34	0xbb6166a6	-0.0034393459
35	0x3de04fb0	0.10952699
36	0xbdb3871e	-0.08766006
37	0x3db146bb	0.08656069
38	0x3d77d653	0.06050713
39	0x3dd1eed8	0.10250634
40	0xbc59c539	-0.01329165
41	0x3d31c1e6	0.043397807
42	0x3d0a3beb	0.03374855
43	0xbe5281a0	-0.2055726
44	0xbe4cb47d	-0.19990726
45	0xbcdc4978	-0.026890501
46	0x3db56f6f	0.08859145
47	0x3d05e01f	0.03268444
48	0x3d14c001	0.03631592
49	0x3d46b386	0.04851105
50	0x3d32dd61	0.043668155
51	0xbca81b7b	-0.020520916
52	0xbbeca16e	-0.0072213924
53	0xbd8e0826	-0.06935148
54	0x3c962950	0.018330246
55	0xbde2831a	-0.11060162
56	0xbd2f9280	-0.042864323
57	0x3d8ed14c	0.06973514
58	0x3c20bda7	0.009810842
59	0x3dd7577c	0.10514733
60	0x3ca0d42c	0.019632421
61	0xbda32dab	-0.07967695
62	0xbdff6dd7	-0.12472122
63	0x3b023796	0.0019869558
64	0x3b8d422e	0.0043108677
65	0xbdd421f3	-0.10358038
66	0x3d1ca514	0.03824337
67	0xbe38a1c5	-0.1803046
68	0x3d22ada6	0.039716385
69	0x3c57748b	0.013150345
70	0xbc45a00f	-0.012062087
71	0xbdb39f46	-0.08770613
72	0xbd5b48aa	-0.053536095
73	0xbd96ac09	-0.07357032
74	0x3dda5224	0.10660198
75	0xbd9873dd	-0.07443974
76	0x3c8d5619	0.017252969
77	0x3dc7d531	0.0975746
78	0x3da0d073	0.078522585
79	0x3e79504b	0.24347036
80	0xbc96043e	-0.01831257
81	0x3c7c8ef4	0.015414942
82	0xbd556338	-0.052096575
83	0xbe21f6f2	-0.15816858
84	0xbd17ff70	-0.03710884
85	0xbc90a679	-0.017657505
86	0xbdf75541	-0.12076808
87	0x3ca1c013	0.019744908
88	0xbcc908b0	-0.024540275
89	0xbe3ab79b	-0.18234102
90	0x3cf9014e	0.03039613
91	0x3d6b3319	0.057421777
92	0xbdf447fa	-0.11927791
93	0x3c3401a6	0.010986721
94	0x3d199393	0.037494253
95	0xbdeb8a38	-0.115009725
96	0xb9f0dd8e	-0.00045941438
97	0xbd9e32e4	-0.0772455
98	0xbdd6e21f	-0.10492348
99	0xbcde7781	-0.027156593
100	0xbbbeeb6b	-0.005826404
101	0x3da48200	0.08032608
102	0xbdeedc6d	-0.11663137
103	0xbd97e4e0	-0.07416701
104	0xbdab91e3	-0.08377435
105	0xbce409fc	-0.027836792
106	0x3e58def1	0.21178795
107	0xbe7f8c8e	-0.24955961
108	0x3d46f041	0.048568968
109	0x3d373e54	0.044737175
110	0x3d925c93	0.071465634
111	0xbd6352d2	-0.055498905
112	0xbd33f664	-0.04393615
113	0x3d037f12	0.032103606
114	0x3c9aab23	0.018880432
115	0x3b826e98	0.003980469
116	0x3e048527	0.12941419
117	0xbc96fb0e	-0.01843026
118	0xbec2b781	-0.38030627
119	0x3d93e386	0.07221131
120	0x3d02ec59	0.03196368
121	0x3de1bf5f	0.11022829
122	0xbd98fc43	-0.0746999
123	0xbc254d83	-0.010089281
124	0x3b95336f	0.0045532505
125	0xbddb9532	-0.10721816
126	0x3d9d5fe5	0.07684306
127	0xbb5fe23d	-0.0034161948
128	0x3cbe91d1	0.02326289
129	0x3d49b134	0.04924126
130	0xbdd90383	-0.10596373
131	0x3df1eb15	0.118124165
132	0xbd85ed37	-0.06539386
133	0x3d9f4b9b	0.077780925
134	0x3b84657a	0.0040404173
135	0x3d8d7140	0.06906366
136	0xbd15a830	-0.03653735
137	0xbdc2c17f	-0.09509563
138	0x3cd52b46	0.026021611
139	0xbdfda007	-0.123840384
140	0xbd3e53e1	-0.046466712
141	0x3d58e440	0.05295205
142	0x3dfa64ab	0.12226232
143	0x3c5195fb	0.012792106
144	0x3cf5ac42	0.029989365
145	0xbd3ade40	-0.04562211
146	0xbc4b10ed	-0.012394172
147	0xbd13348a	-0.035938777
148	0xbd001a4f	-0.03127509
149	0x3e0f465e	0.13991687
150	0x3e14ae57	0.1451963
151	0x3c0948d2	0.008379178
152	0x3d436417	0.047702875
153	0xbc776f58	-0.01510223
154	0xbd4c7322	-0.049914487
155	0x3d01563b	0.031576376
156	0x3d97fc28	0.07421142
157	0xbd0dd73c	-0.03462909
158	0x3b24d84b	0.0025153335
159	0x3e01c9be	0.12674615
160	0x3c014563	0.007890078
161	0xbdad291e	-0.08455108
162	0x3e4ce83b	0.20010464
163	0xbcda5af0	-0.02665469
164	0x3dbbe6f0	0.09174907
165	0xbde3d98f	-0.111254804
166	0x3d09990a	0.033593215
167	0xbe21c818	-0.15798986
168	0xbeadc51d	-0.33939448
169	0x3e410d89	0.1885282
170	0xbd9ed81b	-0.077560626
171	0x3dc2f542	0.095194355
172	0xbdaa9b06	-0.083303496
173	0xbe313b2d	-0.1730773
174	0x3d149b37	0.036280837
175	0xbc836022	-0.01603705
176	0xbd7eff8c	-0.062255427
177	0xbd8f4c17	-0.06996935
178	0x3da2eb17	0.07954996
179	0xbd66955d	-0.056294788
180	0x3c5102c2	0.012757005
181	0xbe5196b7	-0.2046765
182	0x3d7a9809	0.06118015
183	0x3ce1e616	0.027575534
184	0x3dad38ae	0.084580764
185	0x3da32f69	0.07968027
186	0xbc82b724	-0.015956469
187	0x3d319a03	0.043359768
188	0x3b23558f	0.0024922823
189	0xbc032c33	-0.008006143
190	0x3d6b2bac	0.057414696
191	0x3c7eec6f	0.0155593
192	0x3dea85cb	0.114513
193	0xbe1361d0	-0.14392781
194	0xbab09abd	-0.001347385
195	0xbde2bb63	-0.110708974
196	0x3da5a388	0.08087832
197	0xbd352d18	-0.044232458
198	0xbc2f9c6c	-0.010718446
199	0xbdc2fd6c	-0.09520993
200	0x3e5c5f4f	0.21520732
201	0xbdb57abb	-0.088612996
202	0x3df294ee	0.11844812
203	0x3e14c6f0	0.14529014
204	0xbc735e70	-0.014854059
205	0x3a609a2e	0.00085678964
206	0x3c002be0	0.007822961
207	0xbdd1c314	-0.10242286
208	0xbd9e280b	-0.07722481
209	0x3d449763	0.047995936
210	0x3db94367	0.09046059
211	0xbc512ef4	-0.012767542
212	0xbbfb81cb	-0.0076753846
213	0xba5a1811	-0.0008319626
214	0x3d123234	0.03569241
215	0x3ced03cb	0.028932473
216	0x3c31ab5b	0.010844077
217	0x3e3c9a7d	0.18418308
218	0x3e40e530	0.18837428
219	0x3d13f2a0	0.036120057
220	0xbd9ad57a	-0.07560249
221	0xbdcfe06d	-0.10150228
222	0x3c9de606	0.019274723
223	0xbc5954b2	-0.013264822
224	0x3cb8ef7f	0.022575138
225	0xbd5d61fe	-0.05404853
226	0x3befc06f	0.007316641
227	0xbd0cc662	-0.03436888
228	0x3df68e77	0.12038892
229	0xbd2223fb	-0.039585095
230	0x3d9267c7	0.071487
231	0x3e4063b9	0.18788041
232	0x3d08552e	0.03328436
233	0x3d4eca3d	0.05048584
234	0x3db2a2c3	0.087224506
235	0x3c687319	0.014187598
236	0x3cda83f1	0.026674243
237	0x3d42d7bc	0.04756902
238	0x3c9e5aa2	0.019330326
239	0xbcb35f9e	-0.02189618
240	0xbd968388	-0.07349306
241	0xbd731ffd	-0.05935668
242	0xbe090e44	-0.13384348
243	0x3e0769d2	0.13223961
244	0xbdacb359	-0.08432645
245	0x3d5a88a3	0.053352963
246	0xbe326782	-0.17422298
247	0x3e3fcdf0	0.18730903
248	0xbdd00f6e	-0.10159193
249	0x3e3ac24e	0.18238184
250	0xbe003ed9	-0.12523974
251	0x3c9ca30a	0.019120712
252	0x3c986664	0.018603511
253	0xbcd46a85	-0.025929699
254	0xbe638237	-0.22217642
255	0x3d288375	0.041140992

fcnn.2.bias f4 [128]
0	0xbd13dd3a	-0.03609965
1	0xbd4536d0	-0.048147976
2	0x3cf2d97b	0.029644718
3	0xbcc9fb66	-0.024656009
4	0x3d5f07cb	0.05445079
5	0xbb6dc27f	-0.0036279259
6	0x3c882e6a	0.016623694
7	0x3c409bad	0.011755866
8	0x3d2e49b1	0.042550746
9	0x3d2b849a	0.041874506
10	0xbd1bb526	-0.038014553
11	0x3d68558e	0.056722216
12	0x3daf5076	0.085602686
13	0xbc89d8ce	-0.016827013
14	0xbc81318e	-0.0157707
15	0xbd5b4cc6	-0.053540014
16	0x3d4142b1	0.047182743
17	0x3c6a82e6	0.014313435
18	0xbc7c2c0f	-0.015391364
19	0x3d34f971	0.0441832
20	0xbd47130c	-0.04860215
21	0x3de566c0	0.11201239
22	0xbdc21759	-0.094771095
23	0xbcaff8e7	-0.02148099
24	0xbba1ff12	-0.004943737
25	0x3d88d5e9	0.06681425
26	0x3dd0ddb6	0.10198538
27	0x3d876f0a	0.06612976
28	0x3d328bea	0.043590464
29	0x3e4b6a32	0.19864729
30	0xbd2d5f97	-0.04232749
31	0xbcd95094	-0.02652768
32	0x3cccab2f	0.02498397
33	0xbcafa72e	-0.021442022
34	0x3d6e581a	0.05818949
35	0xbcaa65d3	-0.020800507
36	0xbbb54f76	-0.005533154
37	0xbce32014	-0.027725257
38	0xbd117aef	-0.03551763
39	0xbcf19b39	-0.029492961
40	0x3dd61861	0.10453869
41	0x3cec0431	0.028810592
42	0xbd3cf178	-0.04612872
43	0xbd50fd58	-0.051022857
44	0x3da8f233	0.08249321
45	0x3da4283f	0.08015489
46	0xbd88ea95	-0.06685368
47	0x3d44a293	0.048006605
48	0x3d2624f4	0.040562585
49	0x3d71ef6a	0.059066214
50	0x3de7b4e5	0.113138
51	0xbd609d49	-0.0548375
52	0x3dae176b	0.085005604
53	0xbc965f57	-0.018356008
54	0x3d33f451	0.04393417
55	0xbcb8bbdb	-0.022550514
56	0x3d2dd8fd	0.042443264
57	0x3dc17be4	0.094474584
58	0x3c8f4cba	0.01749264
59	0x3b289f31	0.002572965
60	0xbcb5a85e	-0.02217501
61	0x3d33c8ee	0.043892793
62	0x3c150619	0.009095692
63	0x3cd1d055	0.025612036
64	0xbd8680ae	-0.065675125
65	0x3bc6a3c9	0.006062005
66	0xbbd69b1b	-0.0065492517
67	0xbd1e2ae0	-0.038615108
68	0xbbe7dc90	-0.0070758536
69	0x3c3083ff	0.010773658
70	0xbb9664a2	-0.004589633
71	0x3d74b202	0.059740074
72	0xbd40a545	-0.047032613
73	0xbc849813	-0.016185796
74	0x3c97969b	0.018504431
75	0x3d41d475	0.047321755
76	0x3c16999b	0.009191896
77	0x3b58a602	0.0033057933
78	0xbd7d8cd7	-0.061901893
79	0x3d8b4dc5	0.06801943
80	0x3c80ab0a	0.015706558
81	0x3cb9c85c	0.022678547
82	0x3e311942	0.17294791
83	0x3cc84cc7	0.024450673
84	0x3d35309e	0.044235818
85	0x3d82b3d8	0.06381959
86	0xbd9174d4	-0.07102361
87	0xbd930fa8	-0.071807206
88	0xbd580c55	-0.052746136
89	0xbd56cafc	-0.052439675
90	0xbc48633c	-0.012230691
91	0xbd13bffb	-0.03607176
92	0x3c15df51	0.009147481
93	0x3d01c4fe	0.031682007
94	0xbd8ec1c0	-0.06970549
95	0xbdabbb01	-0.083852775
96	0x3d52a500	0.051426888
97	0xbce54861	-0.027988615
98	0xbc597afe	-0.0132739525
99	0xbbe01c6d	-0.006839326
100	0x3d87063d	0.06592987
101	0xbd2a20f4	-0.041535333
102	0x3deed1f0	0.11661136
103	0xbc6d8cbe	-0.014498888
104	0xbd26ab12	-0.04069049
105	0xbccd10b4	-0.025032379
106	0xbd8882da	-0.06665583
107	0xbb92b8e7	-0.0044776085
108	0x3d1f95c3	0.038961183
109	0xbd62e0f7	-0.055390324
110	0xba14e5c8	-0.0005679992
111	0xbc55f1f0	-0.013058171
112	0xbd757bfb	-0.05993269
113	0xbd46661e	-0.04843723
114	0xbca90d91	-0.020636352
115	0xbd2dbe62	-0.04241789
116	0x3d39a26e	0.04532092
117	0x3e1c5081	0.15265085
118	0x3d0445ef	0.032293256
119	0xbd2b9d66	-0.041898154
120	0xbd1e30d4	-0.038620785
121	0xbd30c57f	-0.043157097
122	0x3abfbfdd	0.0014629323
123	0xbd4ddb48	-0.05025795
124	0x3d96f8ee	0.07371698
125	0xbc859939	-0.016308414
126	0xbd0f57d1	-0.034995858
127	0x3cf41460	0.029794872

fcnn.4.weight f4 [64, 128]
0	0x3dba36d5	0.0909249
1	0xbe999c2b	-0.3000196
2	0x3d22572d	0.03963392
3	0xbe2d204f	-0.16906856
4	0xbe590017	-0.2119144
5	0x3e4fbea8	0.20287573
6	0xbe9494ba	-0.2901972
7	0xbd9bf310	-0.0761472
8	0xbd5c3a6e	-0.05376666
9	0x3dbb812c	0.09155497
10	0x3ed6408b	0.41846117
11	0x3f0fe4d0	0.56208515
12	0x3ec26f29	0.37975433
13	0xbe08ad18	-0.1334728
14	0x3ec0042f	0.37503192
15	0xbcd328d5	-0.025776306
16	0x3d4c189b	0.049828153
17	0x3d67865f	0.05652463
18	0xbd4c4c8b	-0.049877685
19	0x3d001f19	0.031279657
20	0x3d978f72	0.07400407
21	0x3d61bd18	0.055111974
22	0xbd66ea02	-0.05637551
23	0xbc0aa3f7	-0.008461944
24	0x3ccc92e4	0.024972387
25	0xbe94ba9f	-0.2904863
26	0x3d31eaf5	0.043436963
27	0xbaf9b531	-0.0019051192
28	0xbde023d2	-0.10944332
29	0xbd6824df	-0.056675788
30	0x3da230e0	0.079194784
31	0xbea78168	-0.32715917
32	0xbe4b2a13	-0.19840269
33	0xbe72f03f	-0.23724459
34	0x3c8f5343	0.017495757
35	0xbd9f9bfb	-0.07793423
36	0xbe20c90a	-0.1570169
37	0xbe06a106	-0.13147363
38	0xbe192723	-0.14956336
39	0x3c239121	0.009983332
40	0x3eed0925	0.4629604
41	0x3c2f00fb	0.010681386
42	0xbd91573c	-0.07096717
43	0x3ea8df5c	0.3298291
44	0x3dc1d68d	0.094647504
45	0x3d930eaa	0.07180531
46	0xbd9510c5	-0.07278589
47	0xbd5e5c49	-0.05428723
48	0x3e9267f9	0.2859495
49	0x3d950e2a	0.07278092
50	0x3d0313be	0.03200125
51	0x3e82f5b4	0.25578082
52	0xbe667313	-0.22504835
53	0xbe581ba7	-0.21104299
54	0x3d2b8b99	0.041881178
55	0x3ed13437	0.4086015
56	0xbcd65ad1	-0.026166352
57	0x3d9fa2fd	0.077947594
58	0xbcff8a75	-0.031193951
59	0xbd2c73d4	-0.04210265
60	0xbd2d5a44	-0.042322412
61	0xbdb2e30a	-0.087347105
62	0x3dc0a594	0.094065815
63	0x3e7c109d	0.24615712
64	0xbd99a9b0	-0.075030684
65	0xbe23f6e5	-0.16012152
66	0x3d431ea3	0.04763664
67	0xbdcbb56a	-0.09946711
68	0xbdf8e2e8	-0.12152654
69	0x3efacb7d	0.48983374
70	0x3d02b85c	0.0319141
71	0xbe8b44d2	-0.27200943
72	0x3e59fc98	0.21287763
73	0x3e87c2d1	0.2651582
74	0x3db08035	0.086182036
75	0x3e7d1de5	0.24718435
76	0x3d024d7d	0.03181218
77	0xbd576706	-0.052588485
78	0xbe121d2f	-0.14268945
79	0xbc8abe67	-0.016936494
80	0xbd04de5d	-0.032438625
81	0x3e69b79b	0.22823946
82	0xbd96abf0	-0.07357013
83	0xbe1e45cd	-0.15456314
84	0x3cf24a0c	0.029576324
85	0xbdd5a173	-0.104311846
86	0xbe27af6c	-0.16375512
87	0xbe43ad5f	-0.19109105
88	0x3db33c8c	0.08751783
89	0xbd71e107	-0.059052493
90	0xbe93b949	-0.288523
91	0xbda1b38a	-0.078955725
92	0xbe938357	-0.28811142
93	0x3e133f34	0.14379579
94	0xbdb5d918	-0.08879298
95	0xbe35b52d	-0.17744894
96	0xbd121b8c	-0.035670802
97	0x3e60af30	0.21941829
98	0xbdab0202	-0.08349992
99	0x3e18cee8	0.14922678
100	0xbd8a8e59	-0.06765432
101	0x3c17d404	0.009266857
102	0x3c730bae	0.014834328
103	0xbe336503	-0.17519002
104	0xbb88106c	-0.0041523483
105	0xbd9c6b6f	-0.07637679
106	0xbcaa41c3	-0.02078331
107	0x3d26e6a7	0.04074731
108	0xbe8dfccd	-0.27731934
109	0xbdab2dc8	-0.083583415
110	0xbe445db9	-0.19176377
111	0xbd8dd919	-0.06926174
112	0xbe0223b6	-0.12708935
113	0x3dc0a743	0.09406903
114	0x3ebc9a6b	0.36836562
115	0x3d1a4960	0.037667632
116	0xbcd2a438	-0.025713071
117	0x3bdfffe4	0.0068359245
118	0xbc91cc3d	-0.017797584
119	0xbe0ab641	-0.13546087
120	0xbe1a2312	-0.15052441
121	0x3eba8779	0.36431482
122	0xbe31908f	-0.17340301
123	0xbe321eae	-0.17394516
124	0x3f1a9fc8	0.60400057
125	0xbe68c16d	-0.22730036
126	0xbe2297fa	-0.15878287
127	0x3d26f0e8	0.04075709
128	0xbe27b7c8	-0.163787
129	0xbdeacd8e	-0.11464988
130	0x3ddd1d58	0.107966125
131	0xbdccf82f	-0.10008275
132	0xbeb4f580	-0.35343552
133	0x3e3f931f	0.18708466
134	0xbe516bff	-0.20451353
135	0xbd8afe57	-0.06786793
136	0x3cad365b	0.021144083
137	0x3dbc915f	0.09207415
138	0x3eda6db5	0.42661825
139	0x3edae28a	0.4275096
140	0x3ebcb75c	0.36858642
141	0xbe0d6487	-0.1380788
142	0x3e7122a9	0.23548378
143	0xbd2bd46e	-0.041950636
144	0xbd1b12c9	-0.03785971
145	0xbc0b11b6	-0.008488109
146	0x3d26b491	0.040699545
147	0x3dc2b205	0.09506611
148	0x3d17cadf	0.037058707
149	0xbdc1e759	-0.09467954
150	0xbe44d155	-0.19220479
151	0xbd493568	-0.049123198
152	0x3da2c826	0.079483315
153	0xbdd55fde	-0.10418676
154	0x3a940675	0.0011293428
155	0x3cf397cc	0.029735468
156	0xbd0a9fdb	-0.033843856
157	0x3c08b517	0.008343956
158	0x3dc8af1d	0.09799025
159	0xbea0025a	-0.31251794
160	0xbe7a4c43	-0.24443154
161	0xbe6387c5	-0.2221976
162	0xbcf822a1	-0.03028995
163	0xbdccd13f	-0.10000848
164	0xbe5f48bb	-0.21805088
165	0xbdd21c6f	-0.102593295
166	0xbe2d3e20	-0.1691823
167	0x3d036928	0.032082707
168	0x3ef1b5b2	0.47208935
169	0x3cc80384	0.024415739
170	0x3e384017	0.17993198
171	0x3e8af5b6	0.27140588
172	0x3dd63d87	0.10460954
173	0x3ce3bc95	0.027799884
174	0xbdd3d3ba	-0.10343118
175	0x3d16f344	0.03685309
176	0x3ed46b15	0.41487947
177	0x3d946cc8	0.07247311
178	0x3dc2267e	0.09479998
179	0x3ee3cf15	0.4449393
180	0xbe8a8835	-0.27057043
181	0xbe38035b	-0.1797003
182	0x3d2566af	0.04038113
183	0x3eb0e4bd	0.34549513
184	0xbcd756b8	-0.026286468
185	0x3c895483	0.016763931
186	0x3d305920	0.043053746
187	0x3c7c3912	0.015394466
188	0xbcd7927e	-0.02631497
189	0x3cf849b2	0.030308578
190	0x3dd77f6c	0.10522351
191	0x3e55cf87	0.20879947
192	0xbda4f9b9	-0.08055443
193	0xbe3940a2	-0.18091062
194	0x3dfa38c6	0.1221786
195	0x3cb99be3	0.02265734
196	0xbe06cf32	-0.13164976
197	0x3edbc6ab	0.4292501
198	0xbbe669af	-0.0070316414
199	0xbe1ec987	-0.15506564
200	0x3e6ed204	0.23322302
201	0x3eaecc70	0.34140348
202	0x3d56e076	0.052460156
203	0x3ead2089	0.33813885
204	0xbd248c33	-0.040172767
205	0x3d4a49a7	0.049386647
206	0xbe3c966d	-0.18416758
207	0xbcab916c	-0.020943366
208	0xbe3bf2fd	-0.18354411
209	0x3e95c1cb	0.29249415
210	0x3d3bb116	0.04582318
211	0xbe0df8c1	-0.13864423
212	0xbc9d4aa3	-0.019200629
213	0xbe2f7cc9	-0.17137446
214	0xbd71d889	-0.059044395
215	0xbdee0dd5	-0.11623732
216	0x3da7fad7	0.08202141
217	0xbdd65ce3	-0.104669355
218	0xbe83546a	-0.2565034
219	0xbd294d14	-0.041333273
220	0xbe56dcae	-0.2098262
221	0x3d7549ab	0.05988471
222	0xbe7433eb	-0.2384793
223	0xbe65e73b	-0.22451489
224	0xbc4bdf39	-0.012443357
225	0x3ec37997	0.38178703
226	0xbe1a30d1	-0.15057684
227	0x3c3288ca	0.010896871
228	0xbcd99f0f	-0.026565103
229	0xbdb9bf06	-0.09069638
230	0xbdc17eb6	-0.09447996
231	0xbd7d2883	-0.061806213
232	0xbdab0ae1	-0.08351684
233	0xbdd09ea7	-0.101865105
234	0xbe37d269	-0.17951359
235	0xbcd53397	-0.026025577
236	0xbec4a619	-0.38407972
237	0xbe629c09	-0.22129835
238	0xbe36f7e2	-0.17867997
239	0xbe4c9d37	-0.19981848
240	0xbe7e1b86	-0.24815187
241	0x3db5753a	0.0886025
242	0x3ecf0fb1	0.4044166
243	0x3d476499	0.04867992
244	0x3cd918ed	0.026501143
245	0xbd93d598	-0.07218474
246	0xbd919312	-0.071081296
247	0xbe586004	-0.21130377
248	0xbdc5a89d	-0.09651301
249	0x3ef5955d	0.47965518
250	0xbe4c67d1	-0.19961478
251	0x3d473ace	0.048640065
252	0x3f1713fc	0.5901487
253	0x3d8cf0bf	0.06881856
254	0xbe5a35c5	-0.21309574
255	0xbd9c0811	-0.07618726

fcnn.4.bias f4 [64]
0	0xbd984454	-0.074349076
1	0x3d9ecb53	0.07753625
2	0xbc69f725	-0.014280115
3	0xbcf06c92	-0.029348645
4	0x3b6d1764	0.0036177272
5	0x3d313ffd	0.043273915
6	0xbda3b614	-0.07993713
7	0xbd313974	-0.043267682
8	0xbdb1dca8	-0.08684665
9	0x3ce0126a	0.02735253
10	0x3d475419	0.048664186
11	0x3ccd2160	0.025040329
12	0xbccabd51	-0.024748476
13	0xbc379ce8	-0.011206843
14	0xbcecf57a	-0.028925646
15	0xbdf5af00	-0.11996269
16	0x3cde5f0d	0.027144933
17	0x3ddd3481	0.1080103
18	0x3d1f8354	0.038943604
19	0x3d5153a0	0.05110514
20	0x3db80ab3	0.08986416
21	0xbd4184d0	-0.0472458
22	0x3d268cda	0.04066167
23	0xbca8e47c	-0.020616762
24	0xbdbe72a5	-0.092992105
25	0x3cc2e329	0.023789959
26	0x3dc75d9a	0.0973465
27	0xbd3c68de	-0.045998447
28	0xbda0569f	-0.07829022
29	0x3d7fd62c	0.06246011
30	0x3d2570bf	0.040390726
31	0x3de855df	0.113445036
32	0xbdf62fa1	-0.12020803
33	0x3c1b5a70	0.009482011
34	0xbd593775	-0.053031404
35	0x3cfca2da	0.030839372
36	0xbd4ba961	-0.04972208
37	0x3da232c0	0.07919836
38	0xbd2d52fa	-0.04231546
39	0x3d6048fe	0.05475711
40	0xbc7768ac	-0.015100639
41	0xbc082296	-0.008309027
42	0x3df5230f	0.119695775
43	0xbb5bd08d	-0.0033541054
44	0xbd8d64fc	-0.06904027
45	0xbd92f830	-0.07176244
46	0xbd0fd1c8	-0.035112172
47	0xbbb9bdc2	-0.005668373
48	0xbdf54f45	-0.1197801
49	0x3b58d1b4	0.0033083977
50	0xbd3e52c7	-0.04646566
51	0x3b83fe24	0.0040280987
52	0x3d3e4d68	0.04646054
53	0xbc5703c8	-0.01312346
54	0xbd8dd489	-0.069253035
55	0x3a8b7ffa	0.0010642998
56	0x3d85c7d7	0.06532257
57	0x3d20863c	0.039190516
58	0xbc179622	-0.009252103
59	0xbe1cac92	-0.15300205
60	0x3e20aef8	0.15691745
61	0x3d875f49	0.06609971
62	0xbca9fe75	-0.020751217
63	0x3d603643	0.054739248
