experiments/tcnn-abilities/models/NoBTCNN_SmallFCNN_2.pth (torch, 28502 bytes, 9 tensors)

fcnn.0.weight f4 [64, 27]
000000 77 e4 8e bc d7 e0 b1 bd c8 1e 96 bd 95 13 9e bd
       -0.017442925 -0.08685463 -0.0733009 -0.07718579
000010 af d0 75 3e 88 23 2e 3f 63 4a 13 3e 1e b0 74 bc
       0.24005388 0.68022966 0.14383845 -0.014934568
000020 37 f5 e4 3d 29 00 80 be d4 5a c2 bc c5 bf 1d 3f
       0.111795835 -0.25000122 -0.02372495 0.6162074
000030 e3 38 23 bf 9d 6b 7d bd 60 33 2c 3f 52 a3 8e 3d
       -0.6375868 -0.061870206 0.6726589 0.06964745
000040 df 59 03 3e f7 7a c3 3d 7d 1b 54 3e 95 2c fe be
       0.12827252 0.09544938 0.20713611 -0.49643388
000050 ca ee 0e be f5 56 42 be 74 76 68 be d0 ac 53 be
       -0.13958278 -0.18978484 -0.22701436 -0.20671391
000060 3f 27 ea be e9 96 a6 3d d6 7b 27 3e 2c e8 1c 3d
       -0.45733067 0.081342526 0.16355833 0.038307354
000070 7b 59 13 3e fb 72 02 3e a9 78 8e 3d 53 c7 0b be
       0.14389603 0.12739174 0.06956608 -0.13650255
000080 ec 53 f2 be 3d 9a 90 bd f9 80 b6 bd 27 2b ee bd
       -0.47329652 -0.070606686 -0.08911318 -0.116293244
000090 77 5e 65 3c 4c d0 02 bd 8d 59 21 bf 86 f7 0c 3f
       0.013999573 -0.03193693 -0.6302727 0.5506519
0000a0 a0 d9 6e 3b e8 5f f7 be ed 50 9a 3d 2f ad db be
       0.0036445633 -0.48315358 0.075349666 -0.42905566
0000b0 92 b7 76 3d e4 55 3e be 30 c0 eb 3d 15 7f 59 bd
       0.06023366 -0.18587452 0.11511266 -0.05309971
0000c0 4d d5 1a be e1 f8 64 3e bb b6 9a 3d 16 bf 96 3e
       -0.1512043 0.22360565 0.07554384 0.29442662
0000d0 4a d7 7b be a7 7f 50 bd 34 0a 70 3e 29 39 a6 3e
       -0.24593845 -0.05090299 0.23441392 0.32465485
0000e0 8b e2 66 3d 35 3e 0f be 0b fa c3 3e a4 1d 45 3f
       0.056368392 -0.13988574 0.38276705 0.76998353
0000f0 76 6c 3f bf be 97 2c be 96 9a 34 bd be 66 ab 3e
       -0.74774873 -0.1685476 -0.044092737 0.33476824
000100 f8 85 1d 3d 3e be 1f be 35 51 50 be 07 90 02 bf
       0.03845784 -0.15599915 -0.20343478 -0.5100102
000110 be 31 28 3f 5d 6c 0c 3f 02 8c 08 3e 8a 4e 99 be
       0.657009 0.5485285 0.13334659 -0.29942733
000120 0c bf d4 be 51 64 ae be bb ee 1f be a3 b3 a5 be
       -0.41552007 -0.3406091 -0.15618412 -0.32363614
000130 1c 2e 2f be e3 0e 68 be ab 97 94 bd 67 55 ed bd
       -0.17107433 -0.22661929 -0.07255491 -0.11588555
000140 f4 46 79 3e 10 9a 51 3d c8 47 b0 3c 5a b2 88 bc
       0.24343473 0.051172316 0.021518603 -0.016686607
000150 d8 79 ee 3b 72 b0 e4 be 72 42 0d bf 37 5c ba be
       0.0072777085 -0.44665867 -0.5517951 -0.3639848
000160 0d fc aa be e7 b4 38 3f 79 b6 8e 3d 2b 26 4e 3d
       -0.33395424 0.72151035 0.06968398 0.05032937
000170 74 1f e6 b5 58 4b f3 3e f8 2b 12 3f 12 6d 19 bf
       -1.714549e-06 0.4751842 0.5709834 -0.59932053
000180 cf 9b 4e bd da 94 67 bd aa e7 c1 3e 16 7e c3 be
       -0.05044156 -0.05653844 0.37872058 -0.38182133
000190 6d a7 1b be 16 8f f1 3e e3 57 93 3e 90 5a 70 3e
       -0.15200587 0.47179478 0.2877799 0.23472047
0001a0 e7 6a 93 3f 9b e4 56 bd 8a 5c 99 be 33 c4 a2 3d
       1.1516999 -0.05246411 -0.29953414 0.07947578
0001b0 5f 33 b7 bc 5d 98 9e 3d e5 79 fb bd 3c 7d c3 bc
       -0.022363363 0.07743905 -0.12279109 -0.023863427
0001c0 20 3c bc be 83 7b 05 bf d6 ef b4 bd c3 b8 4f be
       -0.36764622 -0.5214159 -0.088348076 -0.20285325
0001d0 2f 8c 93 bd 34 94 dc bc 26 30 19 3e 78 0d 1c bf
       -0.07204472 -0.026926138 0.14959773 -0.6095805
0001e0 53 d0 23 3f 60 03 84 bd e3 dc bc be 93 63 8c bc
       0.6398975 -0.06445956 -0.36887273 -0.017137324
0001f0 3e a4 59 be bd 0a 55 be 9d 19 bb be 80 06 e4 bc
       -0.2125406 -0.20804878 -0.3654298 -0.02783513
000200 c0 74 2f 3e 37 ea db bd df 12 35 3e 5e 15 92 3e
       0.1713438 -0.10738032 0.1768298 0.28531927
000210 5f e0 21 3e 6b 08 94 bd 6f 51 19 be 90 ed d7 bd
       0.15808247 -0.07228168 -0.1497247 -0.10543358
000220 32 0a 5f be 14 42 18 3e 35 a9 2a 3e d4 e4 5b 3e
       -0.21781233 0.14868957 0.1666611 0.2147401
000230 0d 62 3e 3f b5 3e f2 3e be ea c9 3e e9 a6 4b 3a
       0.74368364 0.47313467 0.39436907 0.0007768707
000240 c1 e1 cd be 2c f0 0c be cb 66 31 3f e2 14 13 bf
       -0.402113 -0.13763493 0.69297475 -0.5745374
000250 45 e5 04 3f a1 f4 af 3e 86 f4 1c be 8a b3 87 3e
       0.5191234 0.34366325 -0.15327653 0.26504165
000260 9c 1f d0 3d 17 44 7d 3e 28 81 e6 bd 30 95 cb 3d
       0.10162279 0.24733005 -0.11255103 0.09940565
000270 b9 cd 38 3d cd c4 8a 3d 42 ae 38 bc f7 7c 08 be
       0.045118067 0.06775818 -0.011272015 -0.1332892
000280 77 84 dc 3d a4 08 42 be 80 fd 48 3e 82 39 ea 3e
       0.10767453 -0.18948609 0.19627953 0.45747
000290 d5 56 55 3d b9 82 59 be 1f cc ed be 54 81 e5 be
       0.052084763 -0.21241273 -0.46444795 -0.44825232
0002a0 20 5e 9c bd 77 19 0b be 13 36 ac 3b 5a 20 76 be
       -0.076351404 -0.13583933 0.0052554696 -0.24035779
0002b0 42 17 10 3e 0d bd ca be 9a 9f ae 3e 04 b2 24 bd
       0.14071372 -0.3959736 0.3410614 -0.04020883
0002c0 66 6d 32 bf 0c df 80 ba 6b ee 83 be eb 4a ca 3d
       -0.6969818 -0.0009832098 -0.25767836 0.09877571
0002d0 7c be f3 bd 4c 5c 36 3b 41 ea 75 3e 2a d9 5e 3e
       -0.119015664 0.002782601 0.24015142 0.21762529
0002e0 52 e9 af bb 41 0f a5 3e c1 40 c6 3d 1d 3f 41 bb
       -0.00536839 0.322382 0.096803196 -0.0029487081
0002f0 fc 1b 9e 3d 7f 60 0f 3d d0 2b 06 3e d7 2a be 3d
       0.07720181 0.035004135 0.1310265 0.09285515
000300 d8 f6 11 bd 9f 4e 39 be 14 33 4c bf 56 bd f1 be
       -0.0356358 -0.18096398 -0.7976544 -0.47214764
000310 d1 fd d4 bd 00 a8 50 3e c3 a8 14 3f f1 e5 4c 3e
       -0.10399974 0.20376587 0.5807001 0.2000959
000320 bf 5f e1 be 3a 45 2a 3f c0 ed 42 3e fa aa 06 be
       -0.4401836 0.6651188 0.19036007 -0.1315116
000330 87 52 4f 3d 7c 4a 05 be 4c 48 6c bd 5b ab b1 bd
       0.050615814 -0.13016695 -0.057686135 -0.086752616
000340 8a 4d c7 bd 3a d7 74 3e a0 df a6 3d cc 9d a4 bd
       -0.09731586 0.23910227 0.08148122 -0.0803791
000350 a7 05 f3 3e 94 1a cd bd ac 76 0e 3c 80 68 32 bd
       0.4746525 -0.10014835 0.008695286 -0.04355669
000360 1c b8 57 bd 99 68 a9 3e 33 3f 0e 3e 3d 4b 86 bd
       -0.052665815 0.33087614 0.13891296 -0.06557319
000370 ae 8e ee be 71 5a 53 bf a9 59 5b bd 47 76 13 3d
       -0.4659323 -0.8255988 -0.053552303 0.03600147
000380 61 fe ba 3e fa 72 7e 3e 35 26 3d 3e da eb 0d bf
       0.365222 0.24848548 0.18471606 -0.55438006
000390 c4 03 ca 3e 5b 83 1e be a1 e3 27 bf 24 2a 8a 3e
       0.39455998 -0.15479796 -0.6558171 0.26985276
0003a0 ed 1a 71 be ef af b6 bd c3 fa af bd 07 db 88 3e
       -0.23545428 -0.089202754 -0.08592751 0.26729605
0003b0 0a 91 a2 3e 48 4a ae 3d 42 e0 97 3d 77 a8 56 3e
       0.3175128 0.08510262 0.07415821 0.20962702
0003c0 e5 73 fa 3d 4d 1d ca bb 7f dc 53 3e 72 38 45 3e
       0.122291364 -0.0061680437 0.20689581 0.19259813
0003d0 8f 82 22 3e 89 b6 11 3e f2 99 bc 3d fd 27 91 3e
       0.15870117 0.14229788 0.0920905 0.2835082
0003e0 18 65 f4 3e e5 06 1b bf 61 bd 20 be 90 2f 2f be
       0.47733378 -0.60557395 -0.15697242 -0.17107987
0003f0 76 f5 22 3e d4 93 90 3d 41 21 26 be c5 ab 0d bf
       0.15913948 0.07059446 -0.16223623 -0.55340225

fcnn.0.bias f4 [64]
000000 71 1e 27 be db 9e 21 be 87 87 c4 be 9c 02 e5 3d
       -0.16320206 -0.15783255 -0.3838465 0.11182138
000010 2b 38 21 be c4 77 1c 3e e6 5b 02 be 79 14 fd 3d
       -0.15744083 0.15280062 -0.12730369 0.123574205
000020 df bc 56 3e de 94 86 be 9a 66 d3 3c d9 e1 98 3d
       0.20970486 -0.26285452 0.02580576 0.07464952
000030 ec 6d 1a 3d c8 5b 78 3e 61 cd 98 bd af 2e 7b 3e
       0.037702486 0.24253762 -0.07461048 0.24529527
000040 3a 70 08 be 7a bd 99 bd f1 87 2e be a9 84 8a 3b
       -0.13324061 -0.07506843 -0.17044045 0.00422724
000050 70 91 96 3e b3 45 04 3d d1 ac 82 3e 34 cb 0f 3f
       0.29407835 0.032293033 0.25522473 0.5616944
000060 89 e9 50 be 54 5c 92 bb d7 f0 3d 3e 9f f6 ea bd
       -0.20401587 -0.004466573 0.18548904 -0.114728205
000070 8c f7 1d bd e1 e1 ca 3d 96 11 1d bc af 31 34 3e
       -0.038566157 0.09906364 -0.009586712 0.17597078
000080 7e e5 2c 3e d2 2c af 3d d5 e1 8b bc 11 a6 bf 3e
       0.1688442 0.08553471 -0.017075459 0.37431386
000090 41 85 3c bd 9a b6 8d 3c 41 c8 24 3e 42 60 eb 3c
       -0.04602552 0.017298985 0.16092016 0.028732423
0000a0 28 4c f4 3c fc 34 74 3e f1 48 a9 bd 3f da 3f bd
       0.02982147 0.23848337 -0.082658656 -0.046838995
0000b0 88 ae 12 be f2 f4 70 bd 0e 98 92 bd d4 42 5e 3e
       -0.14324391 -0.058827348 -0.071579084 0.2170518
0000c0 a4 ff 92 be e0 25 30 bd 48 02 11 3e 9e 86 a4 3e
       -0.28710663 -0.04300487 0.14161026 0.32133955
0000d0 81 3b e5 bb 00 c2 06 be 10 3b c5 3d f5 1d df 3d
       -0.006995619 -0.13159943 0.09630406 0.10894386
0000e0 ce 42 09 3e e0 43 13 3e d5 2c fa 3d 2b 32 36 3e
       0.1340439 0.14381361 0.12215582 0.17792575
0000f0 0b 2a b2 bd 27 a9 b5 3e 93 c0 2e be db e9 59 3e
       -0.08699425 0.35480615 -0.17065649 0.21280615

fcnn.2.weight f4 [1, 64]
000000 1f 73 10 3e 7a 02 4f be 4c 45 0d 3e 98 8f 7f bf
       0.14106415 -0.20215788 0.13795966 -0.9982848
000010 6e f1 c6 bd 95 2c 6a 3e 94 67 5c be 48 db e9 be
       -0.09714018 0.22868569 -0.21523887 -0.4567511
000020 e0 95 d2 bd c1 ad 5f 3e f0 23 4a 3e 29 ff 38 be
       -0.10282493 0.21843626 0.19740272 -0.18066086
000030 4e 72 6f 3e 77 6a e0 be f0 a1 ed 3d f8 29 ae bf
       0.23383448 -0.43831226 0.11603153 -1.3606558
000040 84 a4 fe bd 63 9a 54 3e c8 d5 06 3e 1b 4d 4d 3e
       -0.124337226 0.20762019 0.13167489 0.20048945
000050 bc 1a 39 bf f3 19 20 3e 69 a1 96 3e 62 18 8b 3f
       -0.7230642 0.15634899 0.2942002 1.0866816
000060 95 86 35 be 62 cf 88 3e 31 77 2f 3e 3d 4b 4c 3e
       -0.1772712 0.2672072 0.17135312 0.19950576
000070 e3 3d 70 bd 1f e7 5c 3e a4 28 83 3d 97 23 a1 3e
       -0.05865277 0.2157254 0.06404236 0.31472465
000080 42 fc be 3d 61 a5 5e bf da 3f 22 be 6d 36 31 bf
       0.09325458 -0.869711 -0.1584467 -0.6922367
000090 fb 04 8b 3d 15 6b 24 be 53 28 41 bf c8 bf 42 3e
       0.06788059 -0.16056474 -0.75452155 0.19018471
0000a0 d3 fb 0b 3e ba 5e 80 bf 15 d0 dd bd 64 b7 4f 3e
       0.13670282 -1.0028908 -0.10830704 0.20284802
0000b0 f0 98 29 3e c8 18 e0 bd fb 38 27 3e b6 31 7e bf
       0.16562247 -0.10942227 0.1633033 -0.992946
0000c0 8a a5 29 3e 21 3b 5d 3e cd dd 3b 3e 24 bb 03 bf
       0.16567054 0.21604587 0.18346329 -0.5145743
0000d0 ba 61 0e 3e 60 47 60 3e 76 9e 90 bd de 4c bc bd
       0.13904467 0.21902227 -0.07061474 -0.09194349
0000e0 b4 e4 bf be 9c 3c 4c 3e 85 a4 41 3e a7 80 91 3e
       -0.37479174 0.19944996 0.18910415 0.28418466
0000f0 45 e4 42 3e 83 51 5c be 85 1e ea 3d 81 7e 3f be
       0.1903239 -0.21515469 0.114316024 -0.18700601

exp_avg f4 [64, 27]
000000 a4 b6 78 3e 54 6e 54 3d 32 85 02 3e f5 be 32 3e
       0.24288422 0.05186303 0.12746122 0.17455657
000010 93 01 d0 3c 3a b3 9a 3b 26 85 64 bc 3a 45 1e 3d
       0.025391376 0.0047210725 -0.013947761 0.03864024
000020 99 6f 36 3e 5b 4a 06 3d f2 df 5f 35 c6 04 bc 3d
       0.17816009 0.032785755 8.3399857e-07 0.09180598
000030 12 2c 4b 38 56 68 8b 3c 0d c6 26 3c a4 b6 78 3e
       4.8440015e-05 0.017017525 0.010179055 0.24288422
000040 ce 03 07 3d 4f cb 09 3f 26 d8 b5 bb f7 e3 a8 3d
       0.032962613 0.5382585 -0.0055494485 0.08246606
000050 ca bd fe 3e 06 b8 cc 3e 51 86 1c 3d a5 8b 07 3d
       0.49754173 0.3998415 0.03821403 0.03309216
000060 f7 e3 a8 3d aa a6 e4 40 1f 5d 5e 40 97 9b 87 bb
       0.08246606 7.1453447 3.4744337 -0.004138421
000070 11 07 34 ba aa 7f f1 ba 3a 97 31 bb 74 2f be b9
       -0.0006867508 -0.0018424888 -0.0027098195 -0.0003627498
000080 f7 7c 8c b8 8b af 51 39 b8 d9 10 ba cd 02 2a bb
       -6.698997e-05 0.00019997188 -0.00055256067 -0.002594161
000090 4e 30 66 b9 80 bc 4d b2 6c 81 c3 ba 9d 41 3a b5
       -0.00021952504 -1.197543e-08 -0.001491589 -6.938588e-07
0000a0 db dc 7e b9 b7 cd 17 b9 97 9b 87 bb 10 2b f7 b9
       -0.00024305603 -0.00014477117 -0.004138421 -0.00047143595
0000b0 a5 6f 01 bc 65 5c a7 38 72 18 b5 ba 8f b6 ee bb
       -0.007900153 7.9803904e-05 -0.0013816489 -0.0072849463
0000c0 38 43 b9 bb 3e 4e 0f ba aa 35 b3 b9 72 18 b5 ba
       -0.005653765 -0.0005466676 -0.00034181523 -0.0013816489
0000d0 4a b5 dd bd a4 1b 4c bd 5d 3c bc bb 16 15 ea 3a
       -0.10825594 -0.049831048 -0.0057445006 0.0017859067
0000e0 7f 93 28 3b 2f 62 9f 3d 9c 03 d8 3c 27 ed 96 3b
       0.002572268 0.07782399 0.026368909 0.0046059075
0000f0 ec 58 b4 3b 12 99 04 3d 05 df 12 3d 47 34 fa 3c
       0.0055037644 0.03237254 0.03585722 0.030542506
000100 ee 10 0c 32 7e ce 92 3b b2 8e fe 34 28 20 9b 3c
       8.152922e-09 0.004480182 4.741501e-07 0.018936232
000110 16 a5 3f 3c 5d 3c bc bb ba 0d 04 3d 3c 62 c0 3d
       0.011697074 -0.0057445006 0.032239653 0.09393737
000120 bb e3 0f 3a 67 77 d6 3c b8 37 2e 3d 17 41 77 3c
       0.00054889516 0.026179982 0.042533606 0.015091202
000130 b8 19 19 3d f2 09 0c 3d 67 77 d6 3c 85 9e 97 3f
       0.037378043 0.034189172 0.026179982 1.1845251
000140 c6 43 22 40 13 06 5a be 09 cc 1c bd a7 1e 34 bd
       2.5353866 -0.2129138 -0.03828052 -0.043974545
000150 0a 09 19 bf ad 49 7a be b6 39 cf bd 86 41 81 3a
       -0.5977942 -0.24442168 -0.10118429 0.0009861446
000160 a0 a7 04 bb ce a8 a5 be 0f e8 8c be 22 26 c6 b6
       -0.0020241514 -0.3235535 -0.27520797 -5.905299e-06
000170 3a f5 92 be a2 d3 65 b6 d1 2c 39 bc 56 4f 1a be
       -0.28702718 -3.4246846e-06 -0.011302189 -0.15069327
000180 13 06 5a be f7 fc 99 be be 34 5d bf 3d 7b ce 39
       -0.2129138 -0.3007581 -0.86408603 0.00039383202
000190 4f 74 d7 3c bc 07 30 bf 8c 5e 0d bf 43 c1 83 be
       0.026300577 -0.687618 -0.5522239 -0.25733384
0001a0 9c 7b 66 bd 4f 74 d7 3c b9 74 ca c0 56 1c 92 c1
       -0.056270227 0.026300577 -6.3267484 -18.263836
0001b0 7f 8e 02 bb 27 5e ad b9 e3 6a 68 ba 18 14 ab ba
       -0.001992136 -0.0003306728 -0.0008866025 -0.0013052253
0001c0 f6 7b 37 b9 6f 47 09 b8 fb a9 c9 38 06 be 8b b9
       -0.00017498419 -3.2729873e-05 9.616088e-05 -0.00026653724
0001d0 b1 c5 a3 ba 7c 26 df b8 4f 3d c5 b1 79 65 3c ba
       -0.001249483 -0.00010640637 -5.7404246e-09 -0.00071867515
0001e0 74 f1 b2 b4 58 59 f6 b8 df 45 93 b8 7f 8e 02 bb
       -3.3330764e-07 -0.00011746836 -7.022521e-05 -0.001992136
0001f0 30 29 6e b9 1d 36 79 bb 85 72 20 38 86 6a 2e ba
       -0.00022712792 -0.0038026639 3.8253627e-05 -0.00066534465
000200 e0 bd 65 bb d5 44 32 bb 83 0c 8a b9 28 07 2d b9
       -0.0035055801 -0.0027201672 -0.00026330733 -0.00016501232
000210 86 6a 2e ba 16 74 55 bd 9c ba c4 bc c5 69 00 3f
       -0.00066534465 -0.05211266 -0.024014764 0.5016139
000220 23 6f a9 3d 2f 9b 5a 3e e7 63 22 3e d5 19 eb ba
       0.08273151 0.2134826 0.15858422 -0.0017936776
000230 33 87 9e 38 b1 a2 86 bd 5c 54 03 bd b9 9e 60 3e
       7.55921e-05 -0.06574 -0.032062873 0.21935548
000240 1a 15 cd bc ba a3 68 32 7f 67 2b 3e ea 72 a4 38
       -0.025034476 1.3541404e-08 0.167387 7.841534e-05
000250 8e cb 4a bc f7 eb 1b bb c5 69 00 3f 21 a4 0b 3a
       -0.012377633 -0.002379177 0.5016139 0.00053268863
000260 ab bc 38 3f db 5f e4 bc 8d 22 ae 3d 73 23 42 3f
       0.72162884 -0.027877739 0.08502684 0.7583534
000270 27 00 1e 3f 54 f1 21 3a cf fc 81 bd 8d 22 ae 3d
       0.6171898 0.0006177623 -0.063470475 0.08502684
000280 78 0d 1e 41 e4 d1 5b 3f 59 24 df be fc 93 ac bd
       9.878288 0.8586714 -0.4358242 -0.08426663
000290 de 45 5a be 5f ae 5d be 99 ae 20 bd 15 d2 e5 bb
       -0.21315715 -0.21648549 -0.03922901 -0.007013569
0002a0 c9 fa ad 3c e2 fb 6f bd ce f0 91 be d6 3d 8a bb
       0.021237748 -0.058589824 -0.28504032 -0.004218797
0002b0 c0 51 ab b5 14 ac 24 be af 22 9b b8 18 c8 d2 bc
       -1.2764285e-06 -0.16081268 -7.397436e-05 -0.025730178
0002c0 48 3c 91 bc 59 24 df be d1 2f 4d bd 3c ba 45 bf
       -0.01772894 -0.4358242 -0.05009443 -0.77237296
0002d0 7d 09 0b 3c 0e d2 ad bd dd 58 44 bf 79 a7 1a bf
       0.008486149 -0.084873304 -0.76698095 -0.60411793
0002e0 2e f5 6d bd 13 74 14 bd 0e d2 ad bd 24 2a 2b c1
       -0.05809515 -0.03624351 -0.084873304 -10.697788
0002f0 0a c8 a6 c0 d4 b1 83 bf b2 b9 02 be b9 04 cb be
       -5.211919 -1.0288644 -0.1276615 -0.3965204
000300 27 04 9e be ff 9c 69 3b 1c 01 1d b9 00 d9 f8 3d
       -0.30862543 0.0035646555 -0.000149731 0.121507645
000310 86 57 ae bb 23 91 0d bf 6b e8 4c 3d d0 b5 35 b6
       -0.005320492 -0.55299586 0.05002634 -2.707693e-06
000320 67 ff 7a be ae b5 24 b9 a0 0c 77 3c 5c f1 9b 3b
       -0.24511491 -0.0001570794 0.015078694 0.004758997
000330 d4 b1 83 bf 35 89 8b ba 5e f2 ac bf 90 75 ed 3c
       -1.0288644 -0.0010645749 -1.3511465 0.028986722
000340 c4 4e da bd 76 e0 c5 bf ba 12 98 bf 7d cf a1 ba
       -0.106595546 -1.5459125 -1.1880715 -0.0012345162
000350 84 da 52 3d c4 4e da bd 3b 32 a3 c1 44 fe 1b c0
       0.051477924 -0.106595546 -20.399527 -2.4373941
000360 2b 56 56 be 9e 5e 0e bd a6 12 bf bd 47 a9 0b be
       -0.20931308 -0.034758203 -0.09329729 -0.13638793
000370 27 9d 90 bc 8d 74 58 bb ca 35 26 3c 53 8a e4 bc
       -0.017653061 -0.0033028454 0.01014466 -0.02789799
000380 cd 43 0a be f9 f6 28 bc 4f 0e 24 b5 eb 17 9a bd
       -0.13502426 -0.010312789 -6.111558e-07 -0.07524093
000390 a0 3a 14 b8 55 62 48 bc 76 4f d7 bb 2b 56 56 be
       -3.534055e-05 -0.012230475 -0.006570752 -0.20931308
0003a0 d5 94 c3 bc 15 46 cc be 9a 3d 85 3b 06 e0 85 bd
       -0.02387468 -0.39897218 0.0040661814 -0.0653687
0003b0 55 c3 be be 47 86 92 be 10 df e2 bc cf 3e 8d bc
       -0.37258402 -0.2861807 -0.027694255 -0.017241864
0003c0 06 e0 85 bd 6f 4c af c0 4a 43 21 c0 b6 32 f4 bb
       -0.0653687 -5.4780803 -2.519732 -0.0074523343
0003d0 93 c3 8b 3b a6 91 b4 3b bd 2f b2 3d 7c 9d 2c 3d
       0.0042652576 0.0055105267 0.087005116 0.042142376
0003e0 b7 66 ed 3b 9a c4 13 3b d9 cc e2 3c 65 db 46 3d
       0.0072449106 0.0022547604 0.02768557 0.048549075
0003f0 f3 09 4a 3d 29 0f 5e 32 64 ae 36 3b a9 87 49 35
       0.049325895 1.2925548e-08 0.002787494 7.5075747e-07

exp_avg_sq f4 [64, 27]
000000 27 37 89 3f d7 44 9f 3d 5c a7 6c 3e 1a cc 49 3f
       1.0719956 0.07776802 0.23110718 0.7882706
000010 a4 7a c6 3c 42 d6 82 3c 14 96 44 3d b5 57 74 3d
       0.024228401 0.015971307 0.04799469 0.059653956
000020 d2 9a 0e 3f 95 8b 4a 3d ea 4e af 36 db 4c 8a 3e
       0.5570499 0.049449522 5.224593e-06 0.2701176
000030 4e e6 da 34 83 da 22 3d 59 e3 c2 3c 27 37 89 3f
       4.0773233e-07 0.03975917 0.023790048 1.0719956
000040 f0 fa 8b 3c a3 e9 08 40 8c 48 2d 3d 58 c7 02 3e
       0.01708743 2.13926 0.042305514 0.12771356
000050 6a 3d 02 40 a7 43 ae 3f 7a a1 0d 3d 57 6a 88 3d
       2.0349984 1.3614396 0.034577824 0.06660908
000060 58 c7 02 3e 73 90 9b 43 21 35 3b 43 2d 2e 7f 39
       0.12771356 311.1285 187.20753 0.00024335897
000070 e0 7b 97 37 d7 37 5d 38 4a 82 3d 39 06 28 b9 36
       1.8058287e-05 5.274251e-05 0.00018072981 5.518089e-06
000080 96 bd 73 36 08 45 36 37 e4 06 63 37 9f 45 04 39
       3.6320175e-06 1.0864118e-05 1.3531859e-05 0.00012614437
000090 f0 97 41 37 6b 41 3a 31 09 43 80 38 3f e9 fd 2e
       1.1539072e-05 2.7103748e-09 6.116002e-05 1.1546541e-10
0000a0 5e 3d 17 37 40 ed b5 36 2d 2e 7f 39 f5 23 82 36
       9.0145895e-06 5.42184e-06 0.00024335897 3.878488e-06
0000b0 be 3a 00 3a 06 99 20 37 3d d3 0d 38 50 12 f4 39
       0.0004891566 9.572372e-06 3.381375e-05 0.0004655295
0000c0 92 34 a4 39 63 93 03 37 67 b5 80 37 3d d3 0d 38
       0.00031319686 7.842525e-06 1.5343261e-05 3.381375e-05
0000d0 4d e9 90 3d 0d d6 2d 3d 6d 79 e1 3b 7a 6e 4c 3b
       0.070757486 0.042440463 0.00688093 0.003119378
0000e0 5f 89 4d 3b b5 0d 30 3d 3b a1 80 3c a7 09 5b 3c
       0.0031362397 0.042981822 0.01570188 0.0133690005
0000f0 b3 fd 07 39 19 24 0f 3c 13 a6 c7 3c 7b ac 08 3d
       0.00012969114 0.008736634 0.024371183 0.033367615
000100 2d 5d 33 33 f0 68 40 3a e1 cc f8 2e 2a 3b 36 3b
       4.1761428e-08 0.00073398557 1.1314128e-10 0.002780626
000110 5b 2c 80 3c 6d 79 e1 3b af ef 6a 3c 2f b7 36 3d
       0.01564615 0.00688093 0.014339372 0.04460829
000120 f4 f5 44 38 2e 0b 97 3c 01 32 e3 3c 2c 03 15 3b
       4.6959103e-05 0.018437948 0.027733805 0.0022737486
000130 14 a5 ed 3c 73 19 0f 3c 2e 0b 97 3c 11 87 40 41
       0.02900938 0.008734095 0.018437948 12.032975
000140 cf 39 0c 43 20 14 16 40 4e e7 df 3d 4e 40 e2 3d
       140.22581 2.3449783 0.1093279 0.110474214
000150 1b 0a b6 40 7d a4 44 3f a0 ff 20 3f 35 7e 55 39
       5.6887336 0.7681349 0.6289005 0.00020360279
000160 b5 ae b1 3c e8 93 6d 3f 85 4a d4 3f 23 69 8a 37
       0.021689752 0.9280381 1.6585242 1.649984e-05
000170 6d 98 e9 3f 87 93 93 30 42 03 5a 3a e7 30 42 3f
       1.8249642 1.0737587e-09 0.00083165255 0.7585587
000180 20 14 16 40 9a df 32 3f 8a 89 e8 40 d1 5e 3c 39
       2.3449783 0.6987244 7.2667894 0.00017964399
000190 2c 67 50 3f 46 4d cf 40 e8 3e ae 40 be 74 bb 3f
       0.8140743 6.478183 5.445179 1.4645002
0001a0 eb 08 e8 3c 2c 67 50 3f d0 7f 19 44 2e 3d d7 45
       0.028324565 0.8140743 613.9971 6887.6475
0001b0 ad d0 63 38 92 02 87 36 67 77 45 37 06 4c 29 38
       5.4315362e-05 4.0236127e-06 1.1769916e-05 4.0363542e-05
0001c0 9d 9a a4 35 c4 94 58 35 c8 98 22 36 5a 4e 4a 36
       1.226395e-06 8.0682753e-07 2.4228812e-06 3.0145952e-06
0001d0 bb d8 eb 37 06 62 2c 36 98 b4 b6 2f 39 7d 64 37
       2.8115106e-05 2.5687054e-06 3.3233927e-10 1.3619015e-05
0001e0 e0 07 c8 2d ad bd 06 36 dc a4 a1 35 ad d0 63 38
       2.2740865e-11 2.0077962e-06 1.2043415e-06 5.4315362e-05
0001f0 c0 7c 67 35 e8 20 e5 38 f8 46 0f 36 c8 fc fc 36
       8.623574e-07 0.000109257 2.134997e-06 7.539613e-06
000200 1e 11 da 38 67 a6 92 38 bc 4a ea 35 a3 4b 65 36
       0.000103982384 6.992817e-05 1.7456109e-06 3.4167685e-06
000210 c8 fc fc 36 8a 60 81 3c 30 da 1a 3c ce d3 35 40
       7.539613e-06 0.015793104 0.009451434 2.8410525
000220 a3 83 4c 3e 65 37 1b 3f 76 ea f8 3f 8a 6f 7e 3c
       0.1997209 0.606314 1.9446552 0.015529523
000230 3c 84 8e 36 16 2a 01 3e de d1 f5 3d 92 0d b5 3f
       4.247324e-06 0.12613711 0.120029196 1.4144766
000240 8d 68 04 3d 81 d8 9b 36 f0 38 37 3f b5 d7 90 35
       0.03232627 4.6445643e-06 0.71571255 1.0791615e-06
000250 bf d4 b7 3d b0 c7 67 3c ce d3 35 40 22 62 98 36
       0.08976125 0.01414673 2.8410525 4.541377e-06
000260 83 99 b1 40 0c 98 e4 3d 4f 60 a2 3e e1 ef ac 40
       5.549989 0.11161813 0.31714103 5.404282
000270 6c ff 6a 40 ca 23 1a 37 94 9a 0e 3e 4f 60 a2 3e
       3.6718397 9.187448e-06 0.13926154 0.31714103
000280 1f c5 42 44 81 22 14 42 71 4c 21 40 5b 94 34 3e
       779.08 37.033695 2.5202906 0.17634718
000290 9e 45 08 3f 8f d1 d8 3f 89 6a 34 3d 34 49 19 3d
       0.5323123 1.6938952 0.044046912 0.037423328
0002a0 c9 e9 e5 3d 25 d5 0e 3e a0 6b a4 3f 8e ef d6 3d
       0.112262316 0.13948496 1.2845345 0.1049491
0002b0 a9 d2 2b 36 ca 81 0a 3f e0 d9 6a 35 1b 82 be 3d
       2.5603606e-06 0.5410429 8.748884e-07 0.093021594
0002c0 25 cf 33 3d 71 4c 21 40 43 e7 23 3d 96 59 9d 40
       0.04389872 2.5202906 0.04001547 4.917186
0002d0 f3 af ca 3d a4 eb 9a 3e 40 61 97 40 9e cd 49 40
       0.09896841 0.30257905 4.7306213 3.1531749
0002e0 67 eb a5 3d f9 c0 21 3e a4 eb 9a 3e b8 cb 32 44
       0.0810154 0.1579627 0.30257905 715.1831
0002f0 76 78 db 43 97 33 3a 41 26 c1 57 3f 45 7b 23 40
       438.9411 11.637595 0.84279096 2.5543988
000300 0d 61 d6 40 e9 fa 85 3d 9b 68 96 37 d2 4d a5 3d
       6.699347 0.06541998 1.7930104e-05 0.08071484
000310 02 39 f9 3d f5 3f b8 40 5a 08 0b 3e bf 15 88 37
       0.121690765 5.7578073 0.13577405 1.622259e-05
000320 e8 43 e0 3f 31 da a0 36 c3 64 88 3d ca 18 74 3d
       1.7520723 4.7937724e-06 0.06659844 0.059593953
000330 97 33 3a 41 0b b3 a0 37 8e 01 ad 41 f1 dd d9 3c
       11.637595 1.915686e-05 21.62576 0.026595088
000340 fb 75 83 3f ce 61 a9 41 86 66 64 41 42 a0 22 38
       1.027038 21.172756 14.27503 3.877306e-05
000350 9d 7d 53 3e fb 75 83 3f 35 7e 43 45 70 17 68 42
       0.20653386 1.027038 3127.888 58.02289
000360 4a 5b 1a 3f e3 aa 36 3d 0a a0 05 3e a5 a1 e5 3e
       0.60295546 0.044596564 0.13049331 0.44849887
000370 76 0a 5a 3c f5 2f 13 3c 93 43 dc 3c 0f f5 08 3d
       0.013308158 0.008983602 0.02688769 0.03343683
000380 a5 ef 9f 3e ce eb e6 3c 9c 50 b3 35 87 88 1a 3e
       0.31237522 0.028188612 1.336e-06 0.15091144
000390 13 be 72 34 cf aa b6 3c a8 ea 56 3c 4a 5b 1a 3f
       2.2607155e-07 0.022298245 0.01311747 0.60295546
0003a0 1a 37 1d 3c 51 5a 9b 3f fd 24 c2 3c a1 18 ab 3d
       0.009595657 1.2136937 0.023699278 0.08354307
0003b0 88 d1 93 3f 77 bc 46 3f 9c 28 9f 3c 64 22 1b 3d
       1.1548319 0.77631325 0.019428544 0.037874594
0003c0 a1 18 ab 3d ae 73 2f 43 01 62 d2 42 52 8a 0e 3d
       0.08354307 175.45187 105.191414 0.03479988
0003d0 8e ee 1f 3c 17 c6 20 3c e8 98 fa 3d 05 69 2f 3d
       0.009761466 0.009812853 0.12236196 0.042824764
0003e0 ac 1b 15 3d 79 80 44 39 60 5a 3c 3c e0 22 5b 3d
       0.036403343 0.00018739876 0.011496156 0.053500056
0003f0 e0 d8 b9 3d 37 c0 f2 36 6d 1d d2 38 7b 65 b4 2e
       0.09074569 7.2345388e-06 0.00010019061 8.203479e-11

exp_avg f4 [64]
000000 50 cb 09 3f a3 6f 01 bc 3e 62 c0 3d bd 34 5d bf
       0.53825855 -0.007900151 0.09393738 -0.864086
000010 1f 36 79 bb ac bc 38 3f 3d ba 45 bf 5f f2 ac bf
       -0.0038026643 0.7216289 -0.772373 -1.3511466
000020 14 46 cc be 7f 6c fb 3d 33 7a 45 3f 7e 68 9c bc
       -0.39897215 0.12276553 0.77139586 -0.019092795
000030 88 37 43 3f cb be e7 bf cc 79 93 3b f8 5f 9b bf
       0.7625661 -1.81051 0.0045006033 -1.2138662
000040 33 6f 9f bb 64 07 a1 3d 6a df e0 3d 90 a9 1f 3e
       -0.004865551 0.07862738 0.10980113 0.15592027
000050 df 17 6b bf 5a a6 1c 3f e8 6c 71 3f 6f 08 d8 bb
       -0.918333 0.6119133 0.943068 -0.0065928022
000060 43 dc e2 bb 5a 67 63 3f f2 4a 09 3f 08 8f 47 3f
       -0.00692323 0.88829577 0.5362998 0.77952623
000070 be 74 62 be f7 fb 31 3f 8e a0 22 3b 17 15 80 3f
       -0.22114846 0.6952509 0.0024814936 1.0006436
000080 d0 23 bb 3e 44 11 cf be fc c3 ca bb fc 09 2d bf
       0.3655076 -0.4044286 -0.006187914 -0.6759336
000090 22 f2 2b 3b ea c9 cd bb 56 e7 f9 bf 6f 42 3e 3f
       0.0026236852 -0.0062801735 -1.9523723 0.7432012
0000a0 8c 37 df 3e 3c 76 b6 bf 72 68 bd be c9 a1 48 3f
       0.43597066 -1.4254832 -0.36993748 0.78371865
0000b0 c2 cc 25 3f 58 22 be be 90 7a 23 3f a3 42 ec bf
       0.6476556 -0.37135577 0.6385889 -1.8457836
0000c0 7b 89 04 3e dd 10 58 3f 15 91 37 3f 7c 50 ce be
       0.1294307 0.8440073 0.7170575 -0.4029578
0000d0 bf 5e f2 3e d5 fa 5a 3f f1 25 8e be dd 6d ba be
       0.4733791 0.8553899 -0.27763322 -0.36411944
0000e0 fd 7b 1c be ae 56 47 3f dd 40 3d 3f 6f 48 8e 3f
       -0.15281673 0.7786664 0.739271 1.1115855
0000f0 44 da d8 3d e5 d0 b0 be 81 40 91 3b 75 4c 3a bf
       0.10588506 -0.34534374 0.0044327383 -0.72772914

exp_avg_sq f4 [64]
000000 a3 e9 08 40 be 3a 00 3a 2f b7 36 3d 8b 89 e8 40
       2.13926 0.0004891566 0.04460829 7.26679
000010 e8 20 e5 38 81 99 b1 40 96 59 9d 40 8e 01 ad 41
       0.000109257 5.5499883 4.917186 21.62576
000020 51 5a 9b 3f b1 88 02 3e 74 29 94 40 6c 1b a6 3a
       1.2136937 0.12747456 4.63006 0.0012672967
000030 c0 d7 ba 40 8d af b2 41 78 86 1f 39 d2 f0 63 41
       5.8388367 22.335718 0.00015213515 14.246294
000040 d9 a0 3f 39 98 58 a8 3d 93 f9 ae 3d c5 50 aa 3e
       0.000182751 0.08220023 0.08543696 0.33264747
000050 ad 1c 96 40 a2 e0 32 40 bf b0 15 41 42 70 72 42
       4.6910005 2.7949605 9.355651 60.609627
000060 c1 67 c2 39 7b 60 fa 40 48 a4 4a 40 83 a2 97 40
       0.00037079866 7.8242774 3.166277 4.738588
000070 20 c4 b7 3e d4 49 a4 40 7b c7 41 38 ec 44 29 41
       0.3589182 5.134012 4.6200566e-05 10.579327
000080 4e ac 84 3f fb d1 4d 40 b2 9a 9d 39 07 65 4b 40
       1.0365083 3.2159412 0.0003006063 3.1780412
000090 ca f7 56 38 25 12 a2 39 d5 a3 ad 41 4c 3d 8a 40
       5.1252347e-05 0.00030912567 21.704996 4.3199825
0000a0 ab 55 f5 3f 26 69 b1 41 da 42 a1 3f d9 28 98 40
       1.9166769 22.176342 1.2598526 4.7549863
0000b0 24 e1 51 40 43 81 96 3f 5a 61 47 40 f7 ef c9 41
       3.2793665 1.1758198 3.1153169 25.24217
0000c0 0e c9 8f 3d b4 d3 ad 40 fb 92 7d 40 b3 ef ff 3f
       0.0702077 5.4320927 3.962096 1.9995025
0000d0 85 98 02 40 c5 99 b1 40 ed 2b 12 3f 50 94 5e 3f
       2.040559 5.5500207 0.57098275 0.86945057
0000e0 d9 ac 4c 3e 9a cc 95 40 4b 5f 8a 40 c0 26 1c 41
       0.19987811 4.681226 4.3241324 9.75946
0000f0 0b ba a5 3d e6 35 05 3f 14 0b 1b 39 0c 6d 83 40
       0.080921255 0.5203537 0.00014786079 4.1070614

exp_avg f4 [1, 64]
000000 0c e3 d6 40 43 8f 1d be 00 fc 2f 40 7f 6c 11 3f
       6.7152157 -0.15386681 2.7497559 0.56806177
000010 2f c9 c1 bd 6b 39 a1 40 1e 57 40 40 0d 43 cc 3f
       -0.09462201 5.038259 3.0053172 1.5957962
000020 d7 7a eb 40 cb 7d cd 3f d3 d0 54 41 63 3f ea bd
       7.358745 1.6054014 13.300982 -0.11437871
000030 d4 31 97 40 0f 08 69 40 68 cc 8f bd ee de 0e 3f
       4.7248325 3.6411169 -0.07021409 0.55808914
000040 76 24 2b be f0 7c 5f 3f 4d 7d 71 40 85 9d 0b 40
       -0.16713127 0.87300014 3.7732728 2.1814892
000050 0d a4 07 3f e6 65 90 40 3b 6d 82 40 41 85 3b c0
       0.52984697 4.512439 4.075834 -2.9300082
000060 b4 fa d7 bd 6c 1d bd 40 7c 65 12 41 26 2f 6a 41
       -0.10545865 5.9098415 9.149776 14.636511
000070 27 05 9b 40 f5 7c 12 41 ab 14 ac bd 03 e5 2d 40
       4.844379 9.155507 -0.084023796 2.7171028
000080 59 2a 93 41 eb f4 25 3f 05 2b 01 be 33 72 10 3f
       18.395678 0.6482684 -0.12614067 0.56424254
000090 91 3c 88 bd 30 9c e3 bd 96 83 44 3f 8c 54 68 41
       -0.06652177 -0.11113775 0.76763284 14.520641
0000a0 fe 55 e5 40 75 6c 60 3f 9e 01 b9 40 6f 9f 90 40
       7.166747 0.8766549 5.7814474 4.519462
0000b0 34 57 5b 41 93 ce 8e 40 1c a3 03 41 4c fb 34 3f
       13.70879 4.4627166 8.227322 0.7069595
0000c0 9c ab f9 3f a0 02 02 41 03 f8 0d 41 ef 33 14 3f
       1.9505496 8.125641 8.87305 0.57891744
0000d0 02 ce e4 40 03 c1 86 40 ad b5 0b 41 d3 4f 8c 40
       7.1501474 4.211061 8.731854 4.384744
0000e0 50 20 e0 3e 9b aa 04 41 1e db 69 41 24 37 81 40
       0.43774652 8.291652 14.615995 4.037981
0000f0 c3 cc 11 40 73 c7 c0 3f 3b 51 ae bd 4e 41 b9 40
       2.2781227 1.5060867 -0.08511587 5.789222

exp_avg_sq f4 [1, 64]
000000 0b 80 dd 43 bc 26 10 3e 2e d5 bf 43 33 a8 f9 3f
       443.00034 0.14077276 383.66547 1.9504455
000010 23 e9 79 3d 28 e7 75 43 7e a3 8a 42 c1 42 b8 41
       0.061013352 245.90295 69.31932 23.032595
000020 26 18 0a 44 23 dd 08 43 97 0e 83 44 d7 54 b0 3d
       552.3773 136.86382 1048.4559 0.08609932
000030 47 58 59 43 ef 38 ca 42 ed c6 f1 3c fb 6b bb 3f
       217.34483 101.1112 0.0295138 1.4642328
000040 d0 3c 28 3e 50 09 1d 42 00 b2 02 44 3c a2 2f 43
       0.16429448 39.259094 522.78125 175.63373
000050 9e 1a 98 40 33 f7 0a 43 84 30 1f 43 d2 b5 c9 42
       4.753249 138.96562 159.18951 100.85512
000060 0f e8 a1 3d 95 72 a4 43 31 4e 3c 44 86 09 9e 44
       0.0790559 328.89517 753.22174 1264.2976
000070 2e 50 7d 43 31 df 37 44 1b 20 63 3d 26 38 9d 42
       253.3132 735.48737 0.05545054 78.609665
000080 7d 70 f5 44 a3 1f ea 3f 0a 88 bf 3d ed 95 ff 3f
       1963.5153 1.8290905 0.09352119 1.9967629
000090 cb c6 f1 3c f3 2d 9c 3d 2d 86 97 40 26 86 99 44
       0.029513737 0.076259516 4.735129 1228.1921
0000a0 dd 34 f0 43 e1 51 20 40 de f9 7d 43 d1 99 06 43
       480.413 2.5049975 253.97604 134.60085
0000b0 a3 6e 92 44 54 2e 1e 43 75 9a c8 43 f0 5c ba 3f
       1171.4574 158.18097 401.2067 1.4559612
0000c0 c5 fe 2e 43 3d 62 ce 43 e5 07 e8 43 b1 c0 45 40
       174.9952 412.7675 464.06168 3.089886
0000d0 ae 48 e7 43 d0 25 e0 42 bf 56 12 44 72 c7 f5 42
       462.5678 112.07385 585.3554 122.88954
0000e0 02 5e 18 40 1e 1d dd 43 67 78 b0 44 cf a2 e6 42
       2.3807378 442.22748 1411.7626 115.317986
0000f0 17 68 89 43 fb 37 73 42 21 e7 2c 3d dc 68 b1 43
       274.8132 60.80467 0.04221261 354.8192
