experiments/tcnn-abilities/models/NoBTCNN_MediumFCNN_1.pth (torch, 591498 bytes, 21 tensors)

fcnn.0.weight f4 [256, 27]
0	0xbdba9066	-0.09109573
1	0xbddc175d	-0.10746644
2	0xbe495f87	-0.19665347
3	0xbe370018	-0.1787113
4	0xbe04972f	-0.12948297
5	0x3ed88613	0.4228979
6	0x3de4acc2	0.111657634
7	0x3dcb640a	0.0993119
8	0xbd31fe0c	-0.04345517
9	0xbdfd1f4a	-0.123594835
10	0xbe08080e	-0.13284323
11	0x3d486385	0.048923034
12	0xbdafae94	-0.0857822
13	0xbb540513	-0.0032351657
14	0x3d7fb917	0.062432375
15	0xbe4b28d9	-0.19839801
16	0x3e6ace88	0.22930348
17	0x3cc81872	0.024425719
18	0x3e5cdac2	0.21567824
19	0x3d77c3b4	0.06048937
20	0xbd9c389e	-0.07627986
21	0xbcf7be00	-0.030241966
22	0xbcf57b94	-0.029966153
23	0x3e0d888d	0.13821621
24	0x3dcb9925	0.099413194
25	0xbc2540fe	-0.010086296
26	0xbd3634d8	-0.04448399
27	0x3ccaa51c	0.024736933
28	0x3d27ee16	0.04099854
29	0xbb379307	-0.002801122
30	0xbd1c65b0	-0.038182914
31	0xbdb499a6	-0.088183686
32	0x3ed419fd	0.41426077
33	0x3d025dbc	0.031827673
34	0xbde593a0	-0.11209798
35	0xbe625fe1	-0.22106887
36	0x3dd4da68	0.1039322
37	0xbdf77dc0	-0.12084532
38	0xbd0525d5	-0.032506783
39	0xbdc97faf	-0.09838807
40	0xbe0d3888	-0.13791096
41	0xbe322ae0	-0.17399168
42	0xbc73f404	-0.014889721
43	0xbe3c77de	-0.184051
44	0x3d9c4cb2	0.07631816
45	0xbeccc1fb	-0.39991745
46	0xbd99de9e	-0.07513164
47	0xbd080b8c	-0.033214137
48	0xbba88d02	-0.0051437626
49	0xbd4b6742	-0.04965902
50	0x3e301975	0.17197211
51	0xbd8669a7	-0.0656312
52	0x3d2f9555	0.042867023
53	0xbe9d2ff9	-0.30700663
54	0xbd5ba450	-0.053623497
55	0x3d6fa8b6	0.058510505
56	0xbcca0be9	-0.024663882
57	0xbb044707	-0.0020183937
58	0x3e248dbf	0.16069697
59	0x3eaf39ff	0.34223935
60	0xb9aa6b43	-0.00032504843
61	0xbd4b2b70	-0.049601972
62	0x3de63db5	0.112422384
63	0xbe01dd90	-0.12682176
64	0xbe057be6	-0.13035545
65	0xbd17493e	-0.036935084
66	0x3d2311ba	0.039811827
67	0x3e11e3ba	0.14247027
68	0x3e4543f7	0.19264208
69	0xbe088df6	-0.13335404
70	0x3cd069fa	0.025441159
71	0x3e17aa67	0.14811097
72	0xbf02103b	-0.50806016
73	0xbe23f07c	-0.16009706
74	0xbbb97e95	-0.0056608417
75	0x3d83aa79	0.064289995
76	0xbea7ae95	-0.32750383
77	0xbe36d636	-0.17855152
78	0xbc82ec5e	-0.01598185
79	0x3dd4ad12	0.10384573
80	0xbea6caff	-0.3257675
81	0xbe2d1322	-0.1690183
82	0xbe066712	-0.13125256
83	0xbe3205ed	-0.17385073
84	0xbdb8afb4	-0.09017888
85	0x3e32f976	0.17477974
86	0x3e223913	0.15842085
87	0x3e3abc08	0.1823579
88	0x3e006a60	0.12540579
89	0xbe3dc4e6	-0.18532142
90	0xbd2d591e	-0.042321317
91	0x3e2a32f8	0.16621006
92	0x3bb04d54	0.005380312
93	0xbe70d7a5	-0.23519762
94	0x3d9329b3	0.07185688
95	0x3e319402	0.17341617
96	0x3c8d089a	0.017216016
97	0xbcc870a3	-0.024467772
98	0xbe0fc9c2	-0.14041808
99	0x3e67ff69	0.22656025
100	0xbd259260	-0.040422797
101	0x3dac1bbe	0.08403729
102	0xbdd48cbb	-0.10378405
103	0xbe9dc9ac	-0.30817926
104	0xbd891136	-0.06692736
105	0xbded89d7	-0.115985565
106	0x3d385c60	0.04500997
107	0x3d5a4628	0.053289562
108	0xbd2a7c59	-0.041622493
109	0xbb95d8fb	-0.004572985
110	0xbd221d91	-0.039578978
111	0x3dd358eb	0.10319694
112	0xbda5226f	-0.08063208
113	0x3edb8fab	0.42883047
114	0xbd91ad40	-0.07113123
115	0x3d9d4c21	0.07680536
116	0x3d894167	0.06701928
117	0xbde0acde	-0.10970472
118	0xbe07b5e6	-0.13252982
119	0x3e17b9fd	0.14817043
120	0xbc92b3dc	-0.01790803
121	0xbc029fb6	-0.007972648
122	0x3e875a68	0.26436162
123	0x3e1437e9	0.14474453
124	0xbd52cf47	-0.051467206
125	0xbe2d5e48	-0.16930497
126	0x3c225a4c	0.009909224
127	0xbe047488	-0.12935078
128	0xbda434e5	-0.08017901
129	0xbd8984c3	-0.067147754
130	0xbd2cfac9	-0.042231355
131	0xbdeee4ed	-0.11664758
132	0xbde2560e	-0.1105157
133	0x3e047321	0.12934543
134	0x3d92144f	0.0713278
135	0x3c90b31d	0.017663533
136	0x3ded3157	0.115816765
137	0x3e2ad5fb	0.1668319
138	0x3da14653	0.078747414
139	0x3e0b4092	0.1359885
140	0x3e968290	0.29396486
141	0xbc41aeda	-0.011821473
142	0xbb817200	-0.0039503574
143	0xbb821736	-0.003970052
144	0xbc931dee	-0.017958608
145	0xbd9cc0fd	-0.07653997
146	0x3da47cd1	0.08031619
147	0xbd838d4f	-0.06423437
148	0x3d9a1ace	0.07524644
149	0x3eb90c2a	0.36142093
150	0x3dd76527	0.1051734
151	0xbe299771	-0.16561677
152	0x3dc11257	0.09427326
153	0x3dd6eba1	0.104941614
154	0xbe471401	-0.19441225
155	0x3e0a1eea	0.13488355
156	0xbeaf54dc	-0.3424443
157	0xbd5d292b	-0.05399434
158	0xbd4e7d2a	-0.050412335
159	0xbe3eae0c	-0.18621081
160	0xbc775646	-0.015096253
161	0x3cfba4e2	0.03071827
162	0x3d005534	0.031331256
163	0xbd913b75	-0.07091419
164	0x3d6eab9d	0.058269132
165	0xbdb7b168	-0.089693844
166	0x3d3edbee	0.04659646
167	0x3e820b67	0.25399324
168	0x3e85c085	0.26123443
169	0x3e26649d	0.16249318
170	0x3e1a9a66	0.15097961
171	0xbe004626	-0.1252676
172	0xbde4e40b	-0.11176308
173	0xbc5b25ec	-0.0133757405
174	0x3c7d7288	0.015469201
175	0x3c5f0ed1	0.013614372
176	0x3e3ebe30	0.18627238
177	0x3db3fb08	0.08788115
178	0x3e57cec3	0.21074967
179	0xbda03865	-0.078232564
180	0xbeb9c1c7	-0.36280653
181	0x3ddf4c24	0.109031945
182	0xbde7e5ee	-0.113231525
183	0x3d47b579	0.04875705
184	0xbcf91b1c	-0.030408435
185	0x3e1187e0	0.14211988
186	0xbd8ba00b	-0.06817635
187	0x3d148401	0.0362587
188	0xbe9c96f6	-0.30583924
189	0xbf2f9861	-0.68591887
190	0xbe283610	-0.16426873
191	0xbeaed7d3	-0.34149036
192	0x3e3242ad	0.17408247
193	0x3dc8321f	0.09775185
194	0xbe8c315b	-0.27381405
195	0xbdb4a0a5	-0.08819703
196	0xbd8834d9	-0.06650705
197	0x3e2576f8	0.16158664
198	0x3e1bb177	0.15204416
199	0x3e755792	0.23959187
200	0x3cdfc302	0.027314667
201	0x3e3210ba	0.17389193
202	0x3cd43302	0.025903229
203	0x3d8ac33c	0.06775519
204	0xbebfd16c	-0.37464464
205	0xbb9abbdf	-0.004722103
206	0xbde0f80a	-0.1098481
207	0x3d124fa2	0.035720475
208	0xbc76c477	-0.015061489
209	0xbca41eb3	-0.02003417
210	0xbd086143	-0.03329588
211	0x3e1da820	0.15396166
212	0x3deb885f	0.1150062
213	0x3dfc125d	0.1230819
214	0xbe4eb180	-0.20184898
215	0x3d66a12a	0.05630604
216	0xbd8a24db	-0.06745311
217	0x3e148ee0	0.14507627
218	0x3ddef480	0.108864784
219	0x3d89962e	0.067180976
220	0xbe2e0051	-0.16992308
221	0xbee61c88	-0.44943643
222	0xbe183be3	-0.14866595
223	0xbba89a8e	-0.0051453775
224	0x3eb0655e	0.34452337
225	0x3e1ab6b9	0.15108766
226	0x3e4a9046	0.19781598
227	0x3dd16d59	0.102259345
228	0x3eac4ac5	0.33650795
229	0x3cc7a230	0.02436933
230	0xbdaf118a	-0.08548267
231	0x3e6144d0	0.21998906
232	0x3d899e43	0.06719639
233	0xbd1c8832	-0.038215823
234	0xbe15e395	-0.14637597
235	0x3de41b22	0.11137988
236	0xbe09f8ff	-0.1347389
237	0x3daa99a9	0.083300896
238	0x3ea143c9	0.31497028
239	0xbcc87a08	-0.024472252
240	0x3e865607	0.2623751
241	0xbdc634e8	-0.0967806
242	0xbd56f054	-0.05247529
243	0xbdc1367e	-0.09434222
244	0xbe12b8ac	-0.14328259
245	0xbdf7124b	-0.12064036
246	0x3dc8a852	0.097977296
247	0x3e78b853	0.24289064
248	0xbdfb1d7c	-0.12261483
249	0xbd204059	-0.039123867
250	0xbd1283a5	-0.035770077
251	0xbe3a3cb4	-0.18187219
252	0xbe32ed5e	-0.17473361
253	0xbd934a55	-0.07191912
254	0x3e18103b	0.14849941
255	0xbd65c935	-0.05610009

fcnn.0.bias f4 [256]
0	0xbcb3efa5	-0.021964857
1	0x3e4751bf	0.19464777
2	0xbd32a8d1	-0.043618027
3	0xbc6a88ad	-0.014314813
4	0xbe2b57ef	-0.16732763
5	0xbe1e7587	-0.1547452
6	0xbdede278	-0.11615461
7	0x3e20bc88	0.15696919
8	0x3d239e89	0.039946113
9	0x3d9ead43	0.07747891
10	0xbdfdde3e	-0.12395905
11	0xbdf44a61	-0.11928249
12	0x3e1d5c5b	0.15367262
13	0xbd5b4872	-0.053535886
14	0xbe895ba6	-0.26827735
15	0xbbe13215	-0.0068724253
16	0xbd6ce061	-0.057831172
17	0xbdd54305	-0.104131736
18	0x3ccbe741	0.024890544
19	0xbe38a256	-0.18030676
20	0x3e24e818	0.16104162
21	0xbe2bcd98	-0.16777647
22	0xbdd19867	-0.102341466
23	0x3e7c26f4	0.24624234
24	0x3de5e6d7	0.1122567
25	0x3c36fda1	0.011168868
26	0xbe39b828	-0.18136656
27	0x3e7794b9	0.24177827
28	0xbd3a1af9	-0.04543588
29	0x3cf589cc	0.029972933
30	0x3dc08f7c	0.094023675
31	0xbc578e80	-0.013156533
32	0xbe17e67b	-0.14834015
33	0x3e23ec78	0.16008174
34	0xbde10556	-0.10987346
35	0xbd75fa13	-0.060052942
36	0x3e2e7848	0.17038071
37	0x3e2636ea	0.16231886
38	0x3d921446	0.07132773
39	0xbbdeef65	-0.0068034404
40	0xbccfd1cc	-0.025368594
41	0x3d24a650	0.04019767
42	0x3d75590b	0.05989937
43	0x3dd7b73e	0.105329975
44	0x3d968f5b	0.07351562
45	0xbc99058e	-0.018679406
46	0x3ddda736	0.108229086
47	0xbab8a2a1	-0.0014086553
48	0x3e15c50b	0.14625947
49	0xbdab970a	-0.08378418
50	0xbe178f93	-0.14800863
51	0xbdd590b6	-0.10427992
52	0xbe1c1bc8	-0.15244973
53	0xbe380e1f	-0.17974137
54	0x3d2054fe	0.039143555
55	0x3e103527	0.14082776
56	0x3e6d6b85	0.23185547
57	0x3e274207	0.16333781
58	0xbd987544	-0.07444242
59	0xbd6b75ec	-0.057485506
60	0x3dc3921a	0.09549351
61	0x3d52f65d	0.05150448
62	0xbe6efc46	-0.23338422
63	0xbdce993a	-0.100878194
64	0xbd41242e	-0.047153644
65	0xbdd0abd3	-0.10189023
66	0xbcdc84b7	-0.026918752
67	0xbd85af70	-0.06527603
68	0x3d346f91	0.04405171
69	0xbca49f9a	-0.020095635
70	0x3cf81684	0.030284174
71	0x3dffc520	0.124887705
72	0xbdd128bf	-0.1021285
73	0x3e21a34e	0.15784952
74	0xbdb42796	-0.08796613
75	0x3e4e1b34	0.20127565
76	0xbdbad8b6	-0.091233656
77	0x3dd5ff8c	0.10449132
78	0xbe8041b5	-0.2505013
79	0xbe5e2f49	-0.21697725
80	0x3d96d5aa	0.07364972
81	0xbe0a0a67	-0.1348053
82	0x3e4ac378	0.19801128
83	0xbcb24475	-0.021761158
84	0x3e3a4457	0.18190132
85	0xbe30087c	-0.17190737
86	0x3e26b67a	0.16280547
87	0x3e66dffb	0.2254638
88	0xbdf76353	-0.120794915
89	0xbe1506ca	-0.14553371
90	0xbe92cfc3	-0.28674135
91	0x3e3bfd23	0.18358283
92	0x3de4c47c	0.11170289
93	0xbe1fbac1	-0.15598585
94	0xbddd9ba4	-0.10820702
95	0xbd7e9776	-0.062156163
96	0xbe0cb7a1	-0.13741924
97	0xbdc1ac3e	-0.09456681
98	0x3d7edee2	0.062224276
99	0x3e65db53	0.22446947
100	0x3cbc69c1	0.022999646
101	0x3df34d37	0.11879962
102	0x3e03b74d	0.12862892
103	0x3e20e9ea	0.15714231
104	0x3ddc3805	0.107528724
105	0xbe1137bc	-0.14181417
106	0xbdc1a5ae	-0.09455429
107	0xbdecb287	-0.11557489
108	0xbd835ac6	-0.06413798
109	0xbe04fbd2	-0.12986687
110	0x3d0f862c	0.035040066
111	0xbdb4b40d	-0.088234045
112	0xbe3e4148	-0.1857959
113	0x3dd5caf0	0.10439098
114	0xbc419898	-0.011816166
115	0xbdfff9dc	-0.12498829
116	0xbc2efbf2	-0.010680186
117	0x3d9c6985	0.07637314
118	0x3e411e05	0.18859108
119	0xbcb16723	-0.021655625
120	0xbd629d54	-0.05532582
121	0x3e6380f3	0.22217159
122	0xbde301f5	-0.11084358
123	0xbe1587c3	-0.1460257
124	0x3d03bfea	0.032165445
125	0xbd5caf08	-0.05387786
126	0x3cad5b42	0.02116168
127	0x3db7c571	0.08973206
128	0x3e3e544d	0.18586846
129	0xbe4e341c	-0.20137066
130	0xbe7bdc7e	-0.2459583
131	0xbe21fc91	-0.15819003
132	0x3e55445e	0.20826861
133	0x3e44caab	0.19217937
134	0x3e487b3b	0.19578259
135	0x3e1c5bc9	0.15269388
136	0x3e22facc	0.15915984
137	0xbe2b0fd4	-0.16705257
138	0x3e829b54	0.2550913
139	0x3d20e6ae	0.039282493
140	0x3d71f2d8	0.059069484
141	0xbe5f0fc1	-0.21783353
142	0x3ea4275f	0.32061288
143	0x3e2aa655	0.16665013
144	0x3d2b4af2	0.04181952
145	0x3cdcee20	0.026969016
146	0xbdb73a1b	-0.089466296
147	0x3e252ca1	0.16130306
148	0xbe0b2c83	-0.13591199
149	0x3e411501	0.18855669
150	0x3d960ecf	0.07327043
151	0xbdbf3db2	-0.09337939
152	0xbd12eec2	-0.03587223
153	0xbdc664ac	-0.096871704
154	0x3c968519	0.018374013
155	0x3e70b5f3	0.23506908
156	0x3e4208f6	0.18948731
157	0x3b55a16c	0.0032597436
158	0x3e605ab6	0.21909603
159	0x388b968c	6.656078e-05
160	0xbdfad635	-0.12247888
161	0xbc9c0524	-0.01904542
162	0xbd8f6976	-0.07002537
163	0xbd2be9ab	-0.04197089
164	0xbd897a45	-0.06712774
165	0x3d4b8779	0.049689744
166	0x3d7825bb	0.060582858
167	0x3b4a7c23	0.0030896745
168	0x3e1b32ef	0.15156148
169	0xbc62aa1d	-0.0138345035
170	0xbd98c127	-0.07458716
171	0xbda56889	-0.08076579
172	0xbe6c0814	-0.23049957
173	0x3cff5ea8	0.031173065
174	0xbc300e59	-0.010745608
175	0x3e331c4b	0.17491262
176	0xbe895b9c	-0.26827705
177	0x3e9a2d95	0.301129
178	0xbe7a5aaf	-0.24448656
179	0xbda42f4c	-0.08016834
180	0xbbba55f2	-0.005686515
181	0xbdb774f6	-0.089578554
182	0xbe451f8b	-0.19250314
183	0xbd6cb26a	-0.057787336
184	0x3c1e0893	0.009645599
185	0x3e9c8c5d	0.3057584
186	0x3cdf0031	0.027221771
187	0xbe04136c	-0.12898034
188	0xbe063b53	-0.13108568
189	0xbdf0cbca	-0.1175762
190	0xbddad65f	-0.10685419
191	0x3e04a6b1	0.12954213
192	0xbe739dc2	-0.23790649
193	0xbdb08c26	-0.08620481
194	0xbde82adc	-0.113363
195	0xbe51422a	-0.20435396
196	0xbe79d214	-0.24396545
197	0x3d982384	0.07428649
198	0x3d79b285	0.060961265
199	0xbdcad86f	-0.09904563
200	0xbe0b0d06	-0.13579187
201	0xbdfbcc12	-0.12294783
202	0x3dc0844a	0.09400232
203	0x3e44b254	0.19208652
204	0xbe19c06a	-0.15014806
205	0xbdf79e79	-0.12090773
206	0xbe3964ca	-0.18104854
207	0xbd855d38	-0.06511921
208	0x3e262778	0.16225994
209	0x3e4ae73c	0.19814771
210	0x3e0a0df6	0.13481888
211	0xbcf07c71	-0.029356213
212	0x3e6f6cfe	0.23381421
213	0x3d4d62a1	0.050142888
214	0xbdc5cdb4	-0.096583754
215	0x3e0eaddb	0.13933508
216	0x3d8ec2d8	0.06970757
217	0x3e6c31cb	0.2306587
218	0x3e86803a	0.26269704
219	0x3d27b0a8	0.040939957
220	0x3e0b7fa8	0.13622916
221	0xbd793d15	-0.060849268
222	0x3e397f23	0.18114905
223	0x3d03a5b9	0.032140467
224	0x3dbb265a	0.09138174
225	0xbdc93597	-0.098246746
226	0x3dc8b8c2	0.09800865
227	0x3db0adac	0.08626875
228	0x3d1ed4ad	0.038777042
229	0xbe883571	-0.26603273
230	0xbd93c745	-0.07215742
231	0x3e01007e	0.12597844
232	0x3d3bae80	0.045820713
233	0x3cd7a39b	0.02632313
234	0x3dd1085c	0.102066725
235	0xbded0dc1	-0.11574889
236	0xbe264186	-0.16235933
237	0x3df8ef32	0.12154998
238	0xbe0775b4	-0.13228494
239	0x3cff1f09	0.031142728
240	0x3dde9103	0.108675025
241	0xbe14c917	-0.14529835
242	0x3a98e408	0.0011664638
243	0xbde611f8	-0.11233896
244	0xbc8364dd	-0.016039306
245	0x3d97c240	0.07410097
246	0xbde6cea2	-0.11269881
247	0x3e7d4dc2	0.24736694
248	0x3e6f6091	0.23376681
249	0x3da1ae20	0.0789454
250	0x3e863185	0.26209655
251	0x3e1b5b4d	0.15171547
252	0xbd600ba0	-0.054698586
253	0x3e3a9a7b	0.18222992
254	0x3d0a50b9	0.03376839
255	0x3d8cba8d	0.06871519

fcnn.2.weight f4 [128, 256]
0	0x3ce5a3fd	0.028032297
1	0x3cbd3b93	0.023099696
2	0xbdc55103	-0.096345924
3	0x3d08e66f	0.033422884
4	0xbcb5eb0b	-0.022206804
5	0xbd914027	-0.07092314
6	0xbde2c519	-0.1107275
7	0x3dfaf793	0.12254252
8	0x3dc2ce3c	0.09511992
9	0xba9cf31d	-0.0011974309
10	0x3e12117e	0.14264485
11	0xbca0a706	-0.019610893
12	0xbc8cb052	-0.01717392
13	0x3e0a65af	0.13515352
14	0xbe3b5f8c	-0.18298167
15	0xbd01bc28	-0.03167358
16	0xbcd598e8	-0.026073888
17	0xbcec4ff6	-0.028846722
18	0xbd1f1902	-0.03884221
19	0xbd9cd808	-0.07658392
20	0x3d805e60	0.062680006
21	0xbda2abdd	-0.079429366
22	0xbde2a678	-0.11066908
23	0x3d5bd8d0	0.053673565
24	0xbbf273cc	-0.007399058
25	0xbd40d9b0	-0.047082603
26	0xbcff1bb5	-0.031141141
27	0x3d91cc36	0.07119028
28	0xbd8b92f4	-0.068151385
29	0xbc17855b	-0.009248103
30	0xbd93a80d	-0.072097875
31	0x3e18d168	0.14923632
32	0xbd90b301	-0.07065392
33	0x3d2ab103	0.041672718
34	0xbd99f63d	-0.07517669
35	0xbd3cfd3c	-0.04613994
36	0x3d3f3faf	0.046691593
37	0xbce8c1f0	-0.02841279
38	0x3cf62714	0.03004793
39	0xbcd8f456	-0.026483696
40	0x3c7bfcd0	0.015380099
41	0x3dfa2991	0.122149594
42	0xbc25ca6a	-0.01011906
43	0xbd34aed1	-0.04411203
44	0xbd55502e	-0.05207842
45	0xbd9bd7f9	-0.07609553
46	0xbd368cda	-0.04456792
47	0xbdbf07bf	-0.09327649
48	0xbd163636	-0.036672793
49	0xbc1e7d14	-0.009673376
50	0xbd2a042c	-0.041507885
51	0x3c44eda4	0.012019549
52	0xbd356cd9	-0.04429326
53	0xbd4e1194	-0.050309733
54	0x3d498a3a	0.04920409
55	0xbd5ba3c5	-0.05362298
56	0xbc9f45b3	-0.019442415
57	0xbd3d8547	-0.04626968
58	0xbcffada7	-0.031210734
59	0xbd7d8201	-0.06189156
60	0xbc7d27ba	-0.015451366
61	0xbe0f592f	-0.13998865
62	0xbd527b7a	-0.051387288
63	0xbdcd1ebc	-0.10015628
64	0x3d3235c3	0.043508302
65	0xbd9b3ffa	-0.07580562
66	0xbd31289e	-0.043251626
67	0xbdc7f6ea	-0.09763892
68	0x3d63e838	0.055641383
69	0xbdc9dc30	-0.098564506
70	0x3cdef6af	0.027217237
71	0x3eb2dcf1	0.3493419
72	0xbd7b569c	-0.061361894
73	0xbb8d97cb	-0.0043210736
74	0xbdd01109	-0.10159499
75	0x3d305dca	0.043058194
76	0x3cd88409	0.026430147
77	0xbc0ce216	-0.008598825
78	0xbd6d4feb	-0.057937544
79	0xbd918c2c	-0.07106814
80	0xbdbce860	-0.092240095
81	0xbd8ce031	-0.068786986
82	0x3f044dae	0.5168103
83	0xbd30ec06	-0.04319384
84	0xbd4aa6df	-0.049475547
85	0xbc805001	-0.015663149
86	0x3be399e0	0.0069458336
87	0x3dc2aa89	0.09505183
88	0xbd0bd20b	-0.03413586
89	0x3d0440b1	0.032288257
90	0xbe8d069f	-0.27544114
91	0xbd7af722	-0.06127084
92	0x3c33116d	0.010929448
93	0x3bbaf3c3	0.005705328
94	0xbda6329f	-0.08115124
95	0xbe8ef488	-0.27920938
96	0x3cb34d05	0.021887312
97	0x3d0bbff0	0.034118593
98	0xbdab37aa	-0.083602265
99	0x3c4a5171	0.012348519
100	0xbb5de1f0	-0.0033856593
101	0xbc93b99c	-0.018032841
102	0x3e3b4be4	0.18290669
103	0x3e90f1ed	0.28309575
104	0xbdd44cbf	-0.10366201
105	0xbc90049b	-0.017580321
106	0xbca20918	-0.019779727
107	0x3e4d8862	0.20071557
108	0x3bec3fba	0.0072097452
109	0xbdbbeb16	-0.091756985
110	0xbd21be9b	-0.039488416
111	0xbdbcbdff	-0.092159264
112	0xbc89b9ba	-0.016812194
113	0xbd5a8c32	-0.053356357
114	0x3e4eaf54	0.2018407
115	0xbd290a82	-0.041269787
116	0xbd9d3eb3	-0.076779746
117	0x3e703dc4	0.23461062
118	0x3d8c0c98	0.068383396
119	0x3c1f10bc	0.00970858
120	0x3b5cc29e	0.0033685337
121	0x3e196e9c	0.149836
122	0xbd0c4b75	-0.03425165
123	0xbd7a1ce0	-0.061062694
124	0x3d04b3bc	0.03239797
125	0xbc679ea3	-0.014136943
126	0x3df96f94	0.12179485
127	0xbd1d5a0d	-0.038415957
128	0x3dc628e0	0.09675765
129	0xbce1e920	-0.027576983
130	0xbd2f77b7	-0.04283878
131	0xbc67d83e	-0.014150677
132	0x3e7fd5dd	0.24983926
133	0x3e923b6e	0.28560966
134	0x3e953ea5	0.29149356
135	0xbc9fba92	-0.019498143
136	0x3efb594d	0.4909157
137	0xbd92a694	-0.071606785
138	0x3d461094	0.048355654
139	0xbd54a59a	-0.051915742
140	0xbcc0aeb6	-0.023520809
141	0xbd8ee7e5	-0.06977824
142	0x3e14917e	0.14508626
143	0x3e9eb7e2	0.30999666
144	0xbd7c6b5d	-0.061625827
145	0xbd903c45	-0.070427455
146	0x3b1c2ab5	0.0023829166
147	0x3ecd212d	0.40064374
148	0x3ea4228d	0.3205761
149	0xbe5e8b0d	-0.21732731
150	0x3d19855e	0.037480704
151	0x3e261a11	0.16220881
152	0x3c346916	0.011011383
153	0x3d07d844	0.03316523
154	0x3d2935a1	0.04131091
155	0x3eae7e95	0.3408095
156	0xbbd8f0e1	-0.006620512
157	0x3dfa71a3	0.12228706
158	0xbd1c91be	-0.038224928
159	0x3cf786c7	0.030215634
160	0x3c91597b	0.017742863
161	0xbd797edc	-0.060912
162	0xbd242dae	-0.040082626
163	0xbcd7f4a8	-0.026361778
164	0xbcffe66c	-0.031237803
165	0xbc2541ad	-0.010086459
166	0xbd6eb294	-0.058275774
167	0xbd0a49b7	-0.033761706
168	0x3e0f50c8	0.1399566
169	0xbdd7833a	-0.10523076
170	0x3c6e4465	0.014542674
171	0x3d8da21d	0.06915686
172	0x3c6a5429	0.014302292
173	0xbd0e2994	-0.03470762
174	0x3d9e3ad3	0.077260636
175	0x3cd7503d	0.026283378
176	0xbe369c44	-0.17833048
177	0x3e35a162	0.17737344
178	0xbdd04233	-0.101688765
179	0x3d5e3327	0.054248
180	0xbd15bc61	-0.036556605
181	0xbca7a310	-0.020463496
182	0xbd452c46	-0.048137926
183	0x3d15ef90	0.036605418
184	0x3eba01c2	0.36329466
185	0xbcf3af6f	-0.02974674
186	0x3dc33761	0.09532047
187	0xbd2ec312	-0.042666502
188	0xbd1e4756	-0.03864225
189	0x3d35e7de	0.04441058
190	0xbb53f53a	-0.0032342211
191	0xbdd1ae81	-0.10238362
192	0xbd52311c	-0.051316366
193	0xbd4f020f	-0.050539073
194	0xbd2b8631	-0.04187602
195	0xbd19cd0b	-0.03754906
196	0xbd698fcd	-0.057021905
197	0x3d27b418	0.040943235
198	0xbdaa5e93	-0.0831882
199	0x3dc28053	0.09497132
200	0xbd2551da	-0.040361263
201	0xbdc989e8	-0.09840757
202	0x3d4ec8a8	0.05048433
203	0x3ca434d9	0.020044731
204	0x3beff62b	0.0073230467
205	0xbd8c2a47	-0.06844001
206	0xb99f9102	-0.00030434883
207	0xbd5b6a24	-0.05356802
208	0x3da523fc	0.08063504
209	0x3c8cb674	0.017176844
210	0x3e347c99	0.17625655
211	0xbdb5bd0a	-0.08873947
212	0x3c90c23b	0.017670741
213	0x3cd80202	0.026368145
214	0xbd2114b9	-0.039326403
215	0x3b7da663	0.003870391
216	0xbcee2988	-0.029072538
217	0x3c81962f	0.015818683
218	0xbc8cfce1	-0.017210426
219	0x3d2cda1a	0.042200185
220	0xbb0fe9d6	-0.0021959445
221	0xbc79012c	-0.015198033
222	0x3db93f36	0.0904526
223	0xbc8287dc	-0.015933923
224	0x3cc7175b	0.024303129
225	0x3d46e003	0.048553478
226	0xbd092040	-0.03347802
227	0xbdad78ba	-0.084702924
228	0xbd28dd15	-0.041226465
229	0xbe03f22e	-0.12885353
230	0xbd89cad5	-0.0672814
231	0x3a5bc439	0.00083834265
232	0x3da37abc	0.07982394
233	0x3ea246ce	0.31694645
234	0xbcfb9dc5	-0.030714879
235	0x3ce102c0	0.027467132
236	0xbcd67fb6	-0.026183944
237	0x3dd2e7f1	0.102981456
238	0x3bbcb241	0.005758554
239	0xbd915bf6	-0.07097618
240	0xba32d966	-0.0006822556
241	0xbdb43d2d	-0.08800731
242	0xbd03dda1	-0.032193784
243	0x3d8b9c83	0.068169616
244	0xbce6985a	-0.028148819
245	0xbda00ecb	-0.078153215
246	0xbc3d9a21	-0.011572392
247	0x3d2ad279	0.04170463
248	0x3e093b4a	0.13401523
249	0xbda4d096	-0.08047597
250	0x3d6296b2	0.055319495
251	0x3c951e98	0.018203065
252	0x3a66304b	0.0008781
253	0xbcbd51fb	-0.02311038
254	0xbd2a853c	-0.04163097
255	0x3d5057f1	0.050865117

fcnn.2.bias f4 [128]
0	0x3ddb4da5	0.10708169
1	0xbb8d5e51	-0.004314222
2	0xbd4d07ad	-0.05005615
3	0x3db4dc09	0.08831031
4	0x3d94d456	0.07267062
5	0x3c0a5f54	0.00844558
6	0xbcbe794c	-0.023251198
7	0xbda8cb51	-0.082419045
8	0x3c728eb9	0.014804536
9	0xbcb4b0b9	-0.022056924
10	0xbc9952e3	-0.018716281
11	0xbd01e348	-0.031710893
12	0xbc90232d	-0.017594898
13	0x3d62491b	0.0552455
14	0x3c597378	0.013272159
15	0xbcfb56bf	-0.030681012
16	0x3be1ccac	0.006890854
17	0x3e27278c	0.1632368
18	0x3bda82b3	0.0066684126
19	0x3aff77f2	0.0019490703
20	0xbd60a26e	-0.054842405
21	0xb7beaf07	-2.2731268e-05
22	0xbcf0b116	-0.029381316
23	0x3c83b38a	0.016076822
24	0x3dce5884	0.10075477
25	0xbd3e6dbd	-0.046491373
26	0xbbb126a9	-0.00540622
27	0x3d9134f1	0.07090176
28	0x3da121ed	0.07867799
29	0x3cf05acf	0.029340176
30	0xbd07cafc	-0.033152565
31	0x3dea853d	0.114511944
32	0xbd04bd3c	-0.03240703
33	0x3d420af7	0.04737374
34	0x3cbd179d	0.023082549
35	0x3ddcf289	0.107884474
36	0x3dc83712	0.09776129
37	0x3db8e9ce	0.0902897
38	0xbd07e9f1	-0.03318209
39	0x3ceeb34a	0.029138226
40	0x3db72949	0.089434214
41	0xbcd096ba	-0.025462497
42	0x3ce69b66	0.028150272
43	0xbc76114f	-0.015018775
44	0xbc7f3bbe	-0.0155782085
45	0xbda42abc	-0.080159634
46	0xbba7228b	-0.0051005534
47	0x3d580504	0.05273916
48	0x3d2da42e	0.042392902
49	0xbd600691	-0.054693762
50	0x3defeded	0.117153026
51	0x3b484352	0.0030557704
52	0xbc887eff	-0.016662119
53	0x3d0476eb	0.03233997
54	0x3a9cc1d1	0.0011959617
55	0x3cbfa49d	0.023393923
56	0x3bd75be7	0.006572235
57	0x3d7c903d	0.061660994
58	0x3d93ca56	0.07216327
59	0x3d30dfd4	0.04318221
60	0x3dae745e	0.08518289
61	0x3d5a4ce1	0.053295974
62	0xbd951ecf	-0.07281267
63	0x3d95bb12	0.073110715
64	0xbc9777cb	-0.018489739
65	0x3da090da	0.07840128
66	0x3d0f15ee	0.034933023
67	0x3d403270	0.0469231
68	0x3da848ab	0.08216985
69	0xbda5444d	-0.08069668
70	0x3da4e9c6	0.08052401
71	0x3a774ef3	0.00094340666
72	0xbc8219bd	-0.015881414
73	0xbc86471f	-0.016391335
74	0x3d17d73a	0.03707049
75	0x3e297ab8	0.1655072
76	0xbd5b6e1d	-0.05357181
77	0xbc9458c7	-0.018108739
78	0xbd043187	-0.032273795
79	0xbc44dd62	-0.012015672
80	0xbc9b2937	-0.018940551
81	0xbb28d5de	-0.002576224
82	0x3d948a1e	0.07252906
83	0xbb48712e	-0.0030585038
84	0x3d36f35a	0.044665672
85	0xbd51351b	-0.051076036
86	0x3d18dfac	0.037322685
87	0xbdede3a6	-0.11615686
88	0x3de2149f	0.110390894
89	0x3c97aad2	0.01851407
90	0x3df343cf	0.11878168
91	0x3d973d72	0.07384767
92	0xbd4d5a3b	-0.05013488
93	0xbd01a76e	-0.031653814
94	0xbbc0758e	-0.0058733886
95	0x3d0f3bed	0.03496926
96	0x3da8d76d	0.08244214
97	0x3db385f7	0.08765786
98	0x3dae29ec	0.0850409
99	0x3c15260e	0.009103311
100	0xbd52fd01	-0.051510815
101	0x3cb7ae60	0.022422016
102	0x3d179e55	0.03701623
103	0xbca466ea	-0.020068604
104	0xbd299f2a	-0.041411556
105	0x3d55a3f4	0.05215831
106	0x3d615243	0.05501009
107	0x3d0916b4	0.033468917
108	0x3d17f96c	0.0371031
109	0x3deb0321	0.11475206
110	0xbcf096a1	-0.0293687
111	0x3dbea0e4	0.09308031
112	0x3deeb84a	0.11656244
113	0x3ccbf55a	0.024897266
114	0xbdc4882b	-0.095962845
115	0x3dc3458c	0.095347494
116	0x3d00b7cc	0.031425282
117	0x3d93c158	0.07214612
118	0xbc1d6a04	-0.009607796
119	0x3b43340d	0.0029785663
120	0x3d3927c9	0.045203958
121	0x3d201998	0.039086908
122	0xbd18d9da	-0.037317134
123	0xbd3c7cd1	-0.04601747
124	0xbd955400	-0.07291412
125	0x3d957f22	0.07299639
126	0x3c968fac	0.018379055
127	0xbd84ba3f	-0.06480836

fcnn.4.weight f4 [64, 128]
0	0xbbf5e4d4	-0.007504085
1	0x3a9c7bb3	0.0011938721
2	0xbd445096	-0.047928415
3	0xbd9f0bf8	-0.07765955
4	0xbe2fb2de	-0.17158076
5	0xbd831da3	-0.06402137
6	0x3ce9168f	0.02845314
7	0x3e80e08d	0.2517132
8	0xbd314110	-0.04327494
9	0x3d90b1ce	0.070651636
10	0x3db9602b	0.09051546
11	0x3c178c0a	0.0092496965
12	0x3baea595	0.0053297975
13	0x3ab91327	0.0014120088
14	0x3de6dce0	0.11272597
15	0xbd2b4918	-0.041817755
16	0x3cdba449	0.026811736
17	0xbf31ad37	-0.6940493
18	0x3e3965bb	0.18105213
19	0x3e699500	0.22810745
20	0xbd09fcb9	-0.03368828
21	0x3d6ce640	0.05783677
22	0x3e00945a	0.12556592
23	0xbc2a9f1f	-0.010413914
24	0xbd5c1ab5	-0.053736407
25	0x3db90542	0.09034206
26	0x3daeaf77	0.08529561
27	0x3cc8723e	0.024468537
28	0xbda36207	-0.079776816
29	0x3cb7cc7b	0.022436371
30	0xbcb2a2db	-0.021806171
31	0xbddeca4d	-0.108784296
32	0xbd878b67	-0.06618386
33	0xbe286b30	-0.16447139
34	0x3dbc9a19	0.09209079
35	0xbd56f5f2	-0.052480645
36	0xbec5bbaf	-0.38619754
37	0xbe2a0aad	-0.16605635
38	0xbdce1d10	-0.10064137
39	0xbe0dc26c	-0.13843697
40	0xbd3b03e8	-0.045658022
41	0x3d6acde9	0.057325277
42	0xbdeb114a	-0.11477907
43	0x3da8283d	0.082108
44	0xbd2bbc1f	-0.041927453
45	0x3e8ae5fa	0.27128583
46	0x3dce58ec	0.10075554
47	0xbe47808f	-0.19482635
48	0xbe43c864	-0.19119412
49	0x3e0662ea	0.1312367
50	0xbef8c1c1	-0.48585322
51	0xbe582f01	-0.2111168
52	0x3b9c3232	0.004766726
53	0xbe0f5f11	-0.14001109
54	0x3caf72bf	0.02141702
55	0x3e92de15	0.2868506
56	0x3e082b0a	0.13297668
57	0x3eb72e68	0.35777593
58	0xbd471338	-0.048602313
59	0x3dc941e0	0.09827018
60	0xbd83a5f3	-0.06428137
61	0x3db81392	0.08988108
62	0x3deeed2b	0.1166633
63	0xbde54cc0	-0.111962795
64	0x3dd50330	0.104009986
65	0xbdb1b9cc	-0.08678016
66	0x3ebe4c6c	0.3716768
67	0xbe0f88f0	-0.14017081
68	0xbe45013b	-0.1923875
69	0x3dc1e150	0.09466803
70	0xbf14077a	-0.5782391
71	0xbda023b7	-0.07819312
72	0xbca481f2	-0.020081494
73	0x3ddfbeea	0.10925086
74	0xbd6f3f1f	-0.058409806
75	0x3ed4e0a8	0.4157765
76	0xbd17df70	-0.03707832
77	0xbcf3fbbe	-0.029783126
78	0xbd8e1382	-0.069373146
79	0x3dc3ce9d	0.09560893
80	0x3d0ed810	0.034874022
81	0xbd6ba4a9	-0.05753008
82	0xbee2be1f	-0.44285676
83	0xbac9682e	-0.0015366131
84	0xbccc8462	-0.024965469
85	0x3dcaf3c1	0.099097736
86	0xbd2215be	-0.039571516
87	0x3c3d834e	0.01156695
88	0xbdaddb18	-0.084890544
89	0x3d70e389	0.058810744
90	0xbed3c814	-0.41363585
91	0xbf09a92c	-0.5377376
92	0x3d276ace	0.04087334
93	0x3da40182	0.080081
94	0x3d0a1f47	0.033721235
95	0x3d36b933	0.044610213
96	0xb9a4607b	-0.000313524
97	0xbeffd4d8	-0.49967074
98	0xbe112f4a	-0.14178196
99	0x3cc8a430	0.024492353
100	0x3cf96f1b	0.030448487
101	0xbbf7a92d	-0.007558009
102	0x3dcaf6b0	0.09910333
103	0x3ec94493	0.3931013
104	0x3d95ac74	0.073082834
105	0xbdce6531	-0.100778945
106	0x3ee2009b	0.44141087
107	0xbe1e17a0	-0.154387
108	0xbe412ded	-0.18865176
109	0xbe35cb4e	-0.17753336
110	0x3da8eb0c	0.08247957
111	0xbdc62f1a	-0.09676953
112	0x3c9e189f	0.01929885
113	0xbd1aacd0	-0.037762463
114	0x3d1ee35e	0.038791053
115	0xbd80651e	-0.062692866
116	0xbcf05313	-0.029336488
117	0xbdad393e	-0.08458184
118	0xbd093e43	-0.033506643
119	0x3dccce64	0.100003034
120	0xbd2b1861	-0.041771296
121	0x3ddcb66e	0.10776983
122	0x3df23901	0.11827279
123	0x3cf586f7	0.029971583
124	0x3d9e5eaa	0.077328995
125	0x3d5ae2cc	0.053438947
126	0xbdebc3a3	-0.11511924
127	0x3e29fb9f	0.16599892
128	0xbde1921a	-0.11014195
129	0x3d5b70eb	0.053574484
130	0x3dd61eb2	0.104550734
131	0x3dc95aa1	0.09831739
132	0xbd918437	-0.07105296
133	0xbbadb1c9	-0.0053007347
134	0xbd9fd6b4	-0.07804623
135	0x3e712af2	0.23551539
136	0x3d87e68b	0.066357695
137	0x3dd57630	0.10422933
138	0x3d554b0f	0.052073535
139	0x3dd22d07	0.102624945
140	0x3dba36f7	0.09092515
141	0x3de59638	0.112102926
142	0x3cf6442b	0.030061802
143	0x3d2fbac5	0.042902727
144	0x3e04d1c8	0.1297065
145	0xbf0f4d93	-0.55977744
146	0x3e56da36	0.20981678
147	0x3e490232	0.19629744
148	0x3d5a842b	0.0533487
149	0x3d9144e2	0.070932165
150	0x3c9c68f0	0.019093007
151	0xbd2f98b1	-0.042870227
152	0xbdbf3930	-0.093370795
153	0x3e251eee	0.1612508
154	0x3e0724bb	0.13197605
155	0xbd6c61df	-0.057710525
156	0x3dbb0bcc	0.091331095
157	0x3d1ce16b	0.038300913
158	0x3bf3536c	0.007425716
159	0xbbaf02af	-0.005340896
160	0xbd7b2205	-0.06131174
161	0xbd1838f0	-0.037163675
162	0x3dcc9d04	0.09990886
163	0xbda4debd	-0.080502965
164	0xbdb6e8de	-0.08931135
165	0x3de32f07	0.11092954
166	0xbd8b86b3	-0.06812801
167	0x3c8c93fd	0.01716041
168	0x3d5eba74	0.054377034
169	0xbdc5e04b	-0.09661921
170	0x3cc4ef52	0.024039898
171	0x3cf469ae	0.029835548
172	0x3d42b2ff	0.047533985
173	0x3eb75b6f	0.35811946
174	0x3c60b710	0.0137155205
175	0x3cbef352	0.023309384
176	0xbd445fec	-0.04794304
177	0xbd0f86dd	-0.035040725
178	0xbe1b3a8f	-0.15159057
179	0x3de0f31d	0.1098387
180	0xbd9e47be	-0.077285275
181	0x3afb39dd	0.0019167025
182	0x3c97a4b9	0.018511163
183	0x3e6eb6a6	0.23311862
184	0x3c2591cf	0.010105564
185	0x3e889778	0.2667806
186	0x3c41a909	0.011820086
187	0x3a09808d	0.0005245291
188	0xbd916fe5	-0.0710142
189	0x3db51f8f	0.0884391
190	0x3daf868a	0.08570583
191	0xbcf76828	-0.030201033
192	0x3d7a401c	0.061096296
193	0x3aab6275	0.0013075607
194	0x3e7b59e9	0.24546017
195	0xbdb72f31	-0.08944548
196	0x3d861214	0.06546417
197	0x3c9ba8e6	0.019001435
198	0xbebf9eaa	-0.3742574
199	0x3d57acbc	0.052654967
200	0x3d8c73df	0.06858038
201	0x3dba3342	0.09091808
202	0x3da0555b	0.0782878
203	0x3ee5f49c	0.44913185
204	0x3d7226a4	0.05911888
205	0x3d77eddf	0.060529586
206	0xbcb52350	-0.022111565
207	0x3d9646b2	0.07337703
208	0xbcbd50f7	-0.023109896
209	0x3882c56d	6.2356565e-05
210	0xbcb5e00a	-0.022201557
211	0x3de88af8	0.11354631
212	0x3d6defcd	0.05809002
213	0x3dee144c	0.11624965
214	0x3bf10e8e	0.0073564714
215	0xbc21243a	-0.009835297
216	0xbcedd90b	-0.029034158
217	0x3dc64327	0.09680777
218	0xbbc2b58f	-0.0059420536
219	0xbd9f8bf4	-0.07790366
220	0x3dcc183f	0.09965562
221	0x3dd520c2	0.10406639
222	0xbcb59fe7	-0.022170974
223	0x3da034f0	0.07822597
224	0x3d3a4775	0.045478303
225	0xbdfd5172	-0.1236905
226	0x3dbd4b2f	0.09242856
227	0xbcbbcbf0	-0.022924393
228	0xbd52eda9	-0.05149618
229	0x3cd22ef7	0.02565716
230	0x3d8c0eeb	0.06838783
231	0x3e5565ec	0.20839661
232	0x3d981e36	0.07427637
233	0x3d5280e1	0.05139244
234	0x3ee07790	0.4384122
235	0x3d819d60	0.06328845
236	0xbc923be7	-0.01785083
237	0x3d872a99	0.06599922
238	0xbd014d16	-0.031567656
239	0xbca614f5	-0.020273665
240	0x3a033d51	0.000500639
241	0x3dac2118	0.0840475
242	0x3cfa8bde	0.030584272
243	0x3d3545ed	0.04425614
244	0x3df6e0bd	0.12054584
245	0xbd8b2d9e	-0.0679581
246	0x3c765286	0.015034324
247	0x3d5f4e9f	0.05451834
248	0xbd0ec592	-0.034856386
249	0x3ddaae3e	0.10677765
250	0x3e12663f	0.14296816
251	0x3e106eba	0.14104739
252	0xbcbdb55c	-0.023157768
253	0xbc9beab2	-0.01903281
254	0xbdb6eccc	-0.08931884
255	0x3da41268	0.08011323

fcnn.4.bias f4 [64]
0	0xbd42aee7	-0.04753008
1	0x3c530942	0.012880625
2	0xbd1137b1	-0.035453502
3	0x3cced48b	0.025247833
4	0x3c9caa7a	0.019124258
5	0xbdf2c19a	-0.11853333
6	0xbcc8250c	-0.024431728
7	0x3d953658	0.07285756
8	0xbc11b636	-0.00889354
9	0xbd3b904c	-0.04579191
10	0xbdd383cd	-0.103278734
11	0xbd6faad4	-0.058512524
12	0xbd8eaf3f	-0.06967019
13	0xbc598d76	-0.013278356
14	0xbdbe319c	-0.09286806
15	0xbc1b2445	-0.009469097
16	0x3dabb216	0.083835766
17	0x3d126294	0.035738543
18	0xbd8beedc	-0.06832668
19	0x3c0963c1	0.0083856
20	0xbce0904c	-0.027412556
21	0x3da47831	0.08030737
22	0x3d8c9b43	0.06865551
23	0xbd2bf271	-0.041979257
24	0xbdac8561	-0.084238775
25	0xbcb1813b	-0.021668067
26	0xbdab96a0	-0.08378339
27	0xbd8ca106	-0.0686665
28	0xba1efd10	-0.0006064931
29	0x3d00ad49	0.031415258
30	0x3dc06636	0.09394495
31	0xbdaf1578	-0.08549017
32	0x3d79df69	0.061004076
33	0xbc33dea7	-0.010978377
34	0xbd10eda9	-0.0353829
35	0xbde16729	-0.11006004
36	0xbd96c30c	-0.07361421
37	0xbd479b29	-0.048731957
38	0xbd9e8e0e	-0.077419385
39	0x3cd3407d	0.025787586
40	0x3d37e6e9	0.044897947
41	0xbdb46816	-0.08808915
42	0xbce12360	-0.027482688
43	0x3cd2c414	0.025728263
44	0x3d105664	0.03523864
45	0xbd4416dd	-0.047873367
46	0xbd8aebc9	-0.06783254
47	0x3e1c0df7	0.15239702
48	0xbda7742a	-0.081764534
49	0xbd9e64ca	-0.07734068
50	0x3c5d6f93	0.013515371
51	0xbde30d6a	-0.11086543
52	0x3c1cecc4	0.009577934
53	0xba01efa4	-0.00049566687
54	0xbdb9fdfc	-0.09081647
55	0x3d34a677	0.044104066
56	0xbd57ade7	-0.05265608
57	0x3d115b25	0.035487313
58	0xbd8a2500	-0.067453384
59	0x3d1f908d	0.038956214
60	0x3dda22b1	0.10651148
61	0x3bdcfdcd	0.0067441226
62	0x3cab7a88	0.02093245
63	0x3d90809a	0.07055779

fcnn.6.weight f4 [1, 64]
0	0x3ec6315a	0.38709527
1	0x3dbdef34	0.0927414
2	0x3e0562b6	0.13025936
3	0x3e203316	0.15644488
4	0xbe1a9b69	-0.15098347
5	0x3e8bd94e	0.27314228
6	0x3e078af7	0.13236605
7	0xbe3f1e35	-0.18663867
8	0xbe212434	-0.15736467
9	0xbdab9f1d	-0.08379958
10	0x3ee73f38	0.4516542
11	0xbe0b42e1	-0.13599731
12	0x3e9fb21d	0.31190577
13	0x3e3bb77e	0.18331715
14	0xbe303054	-0.17205936
15	0xbe1ff1d1	-0.1561959
16	0x3dece4eb	0.115671
17	0x3ea83be1	0.32858184
18	0x3eb76be8	0.35824513
19	0x3ea1152f	0.31461474
20	0xbe306d03	-0.17229085
21	0x3e08b2d8	0.13349473
22	0x3de322ac	0.110905975
23	0x3e8de307	0.2771227
24	0x3e1f162e	0.15535805
25	0x3e70027a	0.23438445
26	0xbe4a5c14	-0.19761688
27	0x3e395e68	0.1810242
28	0x3e343c83	0.17601208
29	0xbe192b85	-0.14958008
30	0x3e42f7f8	0.19039905
31	0xbdc21f59	-0.09478635
32	0x3e3efefa	0.18651953
33	0xbdbcfade	-0.092275366
34	0xbdcfe427	-0.101509385
35	0xbe5c67c6	-0.21523961
36	0xbdf5d3dc	-0.120032996
37	0x3e45621c	0.19275707
38	0x3f03e978	0.5152812
39	0xbe3acd12	-0.1824229
40	0x3e3b7f77	0.18310343
41	0xbe4d6e3e	-0.20061585
42	0xbe33a7af	-0.17544435
43	0x3e6cd034	0.23126298
44	0xbdb0aa9e	-0.08626293
45	0x3e337577	0.17525278
46	0xbe164000	-0.14672852
47	0xbf4341de	-0.7627238
48	0x3e2cd8a1	0.16879512
49	0x3eb8c829	0.3609021
50	0x3dda6572	0.106638804
51	0x3ec5c27f	0.3862495
52	0xbd8e8a6f	-0.06959998
53	0x3e33b083	0.17547803
54	0xbe274de9	-0.16338314
55	0x3dc84923	0.09779575
56	0x3e2f4f1e	0.17120025
57	0xbe278672	-0.1635988
58	0xbd8c6dc5	-0.068568744
59	0x3dd600be	0.1044936
60	0xbdec92be	-0.11551426
61	0x3e07be00	0.13256073
62	0xbdaaff65	-0.08349494
63	0xbdfcc2b5	-0.12341825

exp_avg f4 [256, 27]
0	0xbb3fb260	-0.0029250607
1	0x3a8e46ee	0.0010854879
2	0x3b041e54	0.0020159679
3	0x3bee99dc	0.007281525
4	0xb9b75570	-0.00034968136
5	0xb8b0a93c	-8.423856e-05
6	0x39d33c2c	0.00040289888
7	0x39d511a9	0.00040639684
8	0x3b2a6e35	0.002600563
9	0xb94e95ee	-0.00019701544
10	0x23425547	1.0534819e-17
11	0xbafaa227	-0.0019121811
12	0x34afffe2	3.278247e-07
13	0x395d9377	0.00021131137
14	0xb99c92b4	-0.0002986394
15	0xbb3fb260	-0.0029250607
16	0xb9105b93	-0.00013767024
17	0xbbcf38a7	-0.006323892
18	0x38fa5c4d	0.00011938121
19	0xba22bd29	-0.00062079966
20	0xbbff9464	-0.007799672
21	0xbbac2769	-0.0052537215
22	0xb81689d2	-3.5891142e-05
23	0xb77c3054	-1.5031623e-05
24	0xba22bd29	-0.00062079966
25	0xbd042082	-0.032257564
26	0xbc628671	-0.013825999
27	0xbe8d1fb0	-0.27563238
28	0x3d4bda60	0.049768806
29	0x3d9e98d5	0.07743994
30	0x3f49786d	0.7869938
31	0x3bceace1	0.00630723
32	0xb9d19580	-0.00039974973
33	0x3ba38875	0.004990632
34	0x3a5379ca	0.0008067159
35	0x3dbd47b0	0.09242189
36	0x3ba8982d	0.005145094
37	0x2629f79d	5.896923e-16
38	0xbe2cf855	-0.16891606
39	0x3420074f	1.490382e-07
40	0x3a22ae3e	0.00062057737
41	0x3c150c39	0.009097152
42	0xbe8d1fb0	-0.27563238
43	0xb9d4c7fe	-0.00040584797
44	0xbf6834a0	-0.907053
45	0xbc06deaa	-0.008231798
46	0xbdc0d7a9	-0.09416134
47	0xbf738550	-0.95125294
48	0xbf49d557	-0.78841156
49	0x369ef08d	4.7367707e-06
50	0x3ca333e8	0.019922212
51	0xbdc0d7a9	-0.09416134
52	0xc0a8d946	-5.2765226
53	0xbf7b0223	-0.98050135
54	0xbf087dd8	-0.5331702
55	0x3e6b2b37	0.22965704
56	0x3ed494fb	0.41519913
57	0x3fa19241	1.2622758
58	0xbc881337	-0.016610725
59	0xba361d72	-0.0006947137
60	0x3d397aca	0.045283116
61	0x3ad62ba8	0.0016339915
62	0x3f29ab88	0.6627736
63	0xbd538f75	-0.051650483
64	0xa721fd43	-2.2480532e-15
65	0xbecc7402	-0.39932257
66	0xb50247c4	-4.8533207e-07
67	0x3a70a107	0.00091792684
68	0xbc795a6a	-0.01521931
69	0xbf087dd8	-0.5331702
70	0xba282e00	-0.0006415546
71	0xbf92be49	-1.146432
72	0xba1b4114	-0.0005922478
73	0xbd58e8e9	-0.052956495
74	0xbfadc320	-1.3575172
75	0xbf9ab26c	-1.20857
76	0x38bcb3f6	8.998059e-05
77	0x3da0bf5c	0.07848999
78	0xbd58e8e9	-0.052956495
79	0xbfd22eea	-1.6420567
80	0xbfa9c45a	-1.3263047
81	0xbd8902c3	-0.0668998
82	0xbc7ff96e	-0.0156234335
83	0x3c2a41da	0.010391677
84	0x3d6762ff	0.056490894
85	0xbc23d592	-0.00999965
86	0xbb3a2f14	-0.0028409408
87	0x3d0028b6	0.031288825
88	0x3d4c4cae	0.049877815
89	0xbb7c6077	-0.0038509646
90	0xba9d2251	-0.0011988377
91	0x2958ff31	4.8182978e-14
92	0x3dd7a5e7	0.1052969
93	0x377d76f3	1.510767e-05
94	0x3cfd9007	0.030952467
95	0xbc220bbe	-0.009890495
96	0xbd8902c3	-0.0668998
97	0xbb99f49e	-0.00469835
98	0x3e1740d6	0.14770827
99	0x3d08afea	0.03337089
100	0xbc24f5c4	-0.010068361
101	0x3e229f7a	0.15881148
102	0x3e49a7c8	0.1969291
103	0xba7dc880	-0.0009681061
104	0x3d1ef503	0.03880788
105	0xbc24f5c4	-0.010068361
106	0x3e252fd0	0.1613152
107	0x3ec21358	0.37905383
108	0xbecadbad	-0.39620724
109	0x3ccc82f0	0.02496478
110	0x3d2be77f	0.04196882
111	0xbe9b8d58	-0.30381274
112	0xbd176858	-0.036964744
113	0xbd21ae33	-0.03947277
114	0x3cb7a16c	0.02241584
115	0xbc0a3d6f	-0.0084374985
116	0x3e16f489	0.1474172
117	0xbd467f88	-0.048461467
118	0xa668f783	-8.082661e-16
119	0xbe3d2feb	-0.1847531
120	0xb70c6aaf	-8.3694895e-06
121	0xbb2448e5	-0.0025067863
122	0xbd290040	-0.041260004
123	0xbecadbad	-0.39620724
124	0xbd1ce1ed	-0.038301397
125	0xbef90f47	-0.48644468
126	0x3c83310e	0.016014602
127	0xbcf0da1d	-0.02940088
128	0xbef8f7e3	-0.48626623
129	0xbeb6dcc1	-0.35715297
130	0x3b87dbb5	0.004146064
131	0x3a943fe3	0.0011310544
132	0xbcf0da1d	-0.02940088
133	0xbfecd52b	-1.8502554
134	0xc03203f5	-2.7814915
135	0xbf9039fb	-1.1267694
136	0xbe423365	-0.18964918
137	0xbe3b9838	-0.18319786
138	0x3e277add	0.16355462
139	0xbe28bdfe	-0.16478726
140	0xbe0f6b75	-0.14005835
141	0x3f62683f	0.88440317
142	0x3f879c64	1.0594602
143	0x3f42e473	0.76129836
144	0xbe0481ec	-0.12940186
145	0xa68b046b	-9.64626e-16
146	0xbf40d5e6	-0.75326383
147	0xb9089027	-0.00013023672
148	0x3f1976d5	0.5994695
149	0xbe36ff21	-0.17870761
150	0xbf9039fb	-1.1267694
151	0xbe07751c	-0.13228267
152	0xbeb4a6f0	-0.35283613
153	0x3f5a537f	0.85283655
154	0x3d840f19	0.06448192
155	0xbece1aae	-0.4025473
156	0x3e18b23e	0.14911744
157	0x3c801afe	0.01563787
158	0x3f804d9f	1.0023688
159	0x3d840f19	0.06448192
160	0xbea3ddf1	-0.32005265
161	0x40d6b50a	6.7095995
162	0xbfc7a445	-1.5597006
163	0x3ff019a0	1.875782
164	0x4043ce25	3.059457
165	0x3fd4d48b	1.6627363
166	0xbda38a18	-0.07985324
167	0xbb369194	-0.0027857767
168	0x3e89c0c7	0.2690489
169	0x3c4b4488	0.012406476
170	0x40959dc8	4.6755104
171	0xbdb00ca7	-0.08596163
172	0xa689b9af	-9.556614e-16
173	0xc0114d37	-2.2703378
174	0xb61bd0d9	-2.3218365e-06
175	0x3be229ed	0.0069019706
176	0xbe000c6c	-0.12504739
177	0xbfc7a445	-1.5597006
178	0xbb2b5a49	-0.0026146343
179	0x40255790	2.5834694
180	0xbd88ed3f	-0.06685876
181	0x3ce2b0a6	0.027672123
182	0x3f7c6886	0.9859699
183	0x3f4a233a	0.7896
184	0x39a748ce	0.00031906966
185	0x3efb2232	0.49049526
186	0x3ce2b0a6	0.027672123
187	0x423729d2	45.79084
188	0x401949a6	2.3951201
189	0x3d9b9a7e	0.075978264
190	0x3e013cc5	0.12620838
191	0x3df1802e	0.117920265
192	0x3ec61d1c	0.38694084
193	0x3ee3c56a	0.44486552
194	0x3f02fe16	0.51168954
195	0xbc6beec4	-0.014400188
196	0xbc22251f	-0.009896546
197	0x3f053322	0.5203115
198	0x3ee502f9	0.4472883
199	0xa9a96e1e	-7.52421e-14
200	0x3cfa8dda	0.030585218
201	0x3613d5b3	2.2029096e-06
202	0xbbb46dd4	-0.0055062566
203	0x3eff5dc4	0.49876225
204	0x3d9b9a7e	0.075978264
205	0x3efac1a0	0.4897585
206	0x3ee66c8a	0.45004684
207	0xbc417dcf	-0.01180978
208	0xbdedbcc1	-0.116082676
209	0x3f24cead	0.6437786
210	0x3c19dade	0.009390561
211	0xbd863075	-0.06552211
212	0xbc4b2257	-0.012398324
213	0xbdedbcc1	-0.116082676
214	0x40e8ae22	7.2712564
215	0x41db555a	27.416676
216	0xbb653080	-0.0034971535
217	0x3a0663b9	0.0005126554
218	0x3a347538	0.0006883922
219	0xba00928e	-0.0004904651
220	0x38065983	3.2031454e-05
221	0x39235274	0.00015575608
222	0x38414db4	4.6087152e-05
223	0x389a993a	7.371833e-05
224	0x39dcf528	0.00042144326
225	0x39362376	0.00017370083
226	0xa9af6cf4	-7.7904615e-14
227	0xbabfbf1a	-0.0014629096
228	0xb4814105	-2.407543e-07
229	0xb9169bab	-0.00014363106
230	0x3763b730	1.3572906e-05
231	0xbb653080	-0.0034971535
232	0x393e6ad8	0.00018159614
233	0xbba94be7	-0.005166519
234	0xb7e48bf2	-2.7244885e-05
235	0xb8dbdf4f	-0.00010484328
236	0xbbb39432	-0.0054803127
237	0xbb554f8c	-0.0032548634
238	0x369d0346	4.6793457e-06
239	0x38c72375	9.495664e-05
240	0xb8dbdf4f	-0.00010484328
241	0xbd1213d9	-0.03566346
242	0x3bdd6479	0.006756362
243	0x3f593630	0.8484831
244	0x3d62f239	0.055406783
245	0xbc6e5b86	-0.014548188
246	0xbd8b6714	-0.0680677
247	0x3db5360f	0.088482015
248	0x3dd72400	0.10504913
249	0xbe648cd6	-0.2231935
250	0xbe605782	-0.21908382
251	0xbeb619a0	-0.35566425
252	0x3dcf8606	0.10132985
253	0x2a4695bd	1.7637884e-13
254	0x3f0c7cc9	0.5487791
255	0x38b2be32	8.523128e-05

exp_avg_sq f4 [256, 27]
0	0x3ab5a6b0	0.0013858881
1	0x38cc4a77	9.741348e-05
2	0x399b9eaa	0.00029682118
3	0x3a925af5	0.0011166023
4	0x374c7a3b	1.21878065e-05
5	0x33fa1cbd	1.164676e-07
6	0x37f8114c	2.9571958e-05
7	0x36efb97b	7.144348e-06
8	0x3a1d841e	0.00060087617
9	0x3758c58e	1.29206e-05
10	0x2c5c315f	3.1291287e-12
11	0x3a4eb729	0.00078855694
12	0x2bcebb1a	1.4689111e-12
13	0x36a484aa	4.903025e-06
14	0x374c43b0	1.2175107e-05
15	0x3ab5a6b0	0.0013858881
16	0x34327bd6	1.6622593e-07
17	0x3b54ef7b	0.0032491374
18	0x37c1e510	2.3114058e-05
19	0x38b18011	8.463872e-05
20	0x3b44e0c4	0.0030041197
21	0x3b24cc90	0.0025146343
22	0x3559a8c7	8.10844e-07
23	0x3805e801	3.192574e-05
24	0x38b18011	8.463872e-05
25	0x3ead6003	0.33862314
26	0x3c1e2b71	0.009653912
27	0x41e9975f	29.198912
28	0x3ec7ae08	0.38999963
29	0x3f8d0a7c	1.1018825
30	0x41c84493	25.033484
31	0x3d0bf13c	0.034165606
32	0x36adc626	5.1788693e-06
33	0x3c7a950d	0.015294326
34	0x3792db6d	1.7506734e-05
35	0x3ff22691	1.891802
36	0x3d29b933	0.041436385
37	0x3428e3a0	1.5729029e-07
38	0x41168e8d	9.409802
39	0x2baec060	1.2416838e-12
40	0x376cb6f4	1.4109293e-05
41	0x3d09a5db	0.033605438
42	0x41e9975f	29.198912
43	0x36c28585	5.7971943e-06
44	0x4246277a	49.53855
45	0x3b2e5817	0.0026602799
46	0x3ecf7a8a	0.40523177
47	0x42412f4c	48.29619
48	0x41ff0dd4	31.881752
49	0x35879afa	1.0103388e-06
50	0x3c895315	0.01676325
51	0x3ecf7a8a	0.40523177
52	0x45103e06	2307.8765
53	0x42537346	52.86257
54	0x427f4059	63.81284
55	0x402b499c	2.6763678
56	0x41030ff4	8.191395
57	0x4249f673	50.490673
58	0x3e80e818	0.25177073
59	0x37619220	1.3445067e-05
60	0x3e1e9a83	0.15488629
61	0x3902e907	0.00012484576
62	0x4165e205	14.367681
63	0x3e8c486c	0.27399004
64	0x2e571c2c	4.8910362e-11
65	0x41b2e158	22.360031
66	0x2cae8f42	4.9612823e-12
67	0x38c3bf59	9.333966e-05
68	0x3e7f33dc	0.24922127
69	0x427f4059	63.81284
70	0x37806ca8	1.5309386e-05
71	0x4303215e	131.13034
72	0x3cc6d99d	0.024273688
73	0x400f957a	2.2434983
74	0x42f7f29c	123.97385
75	0x42c0207c	96.063446
76	0x369d1628	4.681544e-06
77	0x3e25273a	0.16128245
78	0x400f957a	2.2434983
79	0x4622e5a9	10425.415
80	0x430d1068	141.06409
81	0x3da7a009	0.08184821
82	0x3c309cce	0.010779573
83	0x3d93307a	0.071869805
84	0x3e99b9d8	0.300246
85	0x3b528950	0.0032125302
86	0x3ab13411	0.0013519545
87	0x3d749db2	0.059720702
88	0x3d75578d	0.059897948
89	0x3e588de3	0.21147875
90	0x3bcf19d7	0.006320219
91	0x326b9cdc	1.3714466e-08
92	0x3e71dd09	0.23619474
93	0x3167e299	3.374373e-09
94	0x3d49fcc4	0.04931332
95	0x3b48acf1	0.003062066
96	0x3da7a009	0.08184821
97	0x3ac5cd5c	0.0015091109
98	0x3f87dc7f	1.0614165
99	0x3d6ad20b	0.05732922
100	0x3cb9eced	0.022695983
101	0x3f84166a	1.031934
102	0x3f6e6141	0.9311715
103	0x3a2f8ca4	0.00066966773
104	0x3d7cc01c	0.061706647
105	0x3cb9eced	0.022695983
106	0x42c3a57d	97.82322
107	0x41cb94b4	25.447609
108	0x405f6933	3.4907959
109	0x3e113262	0.14179376
110	0x3f204710	0.6260843
111	0x400f898c	2.2427702
112	0x3d8d220e	0.06891261
113	0x3d3c1bb4	0.045924857
114	0x3d5c4931	0.05378074
115	0x3d586216	0.052827917
116	0x3f9fe3bd	1.2491375
117	0x3da49422	0.080360666
118	0x2dc9418f	2.2880168e-11
119	0x3f0c97e9	0.54919297
120	0x320c609d	8.17104e-09
121	0x3d25654a	0.0403798
122	0x3d8b6ab2	0.0680746
123	0x405f6933	3.4907959
124	0x3d537a2c	0.051630184
125	0x40cc53e5	6.385241
126	0x3d3c49f2	0.045968957
127	0x3e2b9dd1	0.16759421
128	0x40c011d6	6.0021772
129	0x4072e174	3.7950106
130	0x3bf2af41	0.007406146
131	0x3d79bf25	0.060973305
132	0x3e2b9dd1	0.16759421
133	0x4461178c	900.3679
134	0x438f1880	286.1914
135	0x43972130	302.25928
136	0x40a912a2	5.2835245
137	0x40a9f89b	5.3115973
138	0x4395c28e	299.51996
139	0x40840f04	4.126833
140	0x3f1260ef	0.5717916
141	0x41ab12a9	21.384111
142	0x41ae1748	21.761368
143	0x41d8bd7a	27.092518
144	0x4089dddf	4.308334
145	0x33238f1a	3.8081545e-08
146	0x40c0f2b2	6.029626
147	0x34eec1ee	4.4472057e-07
148	0x4181891c	16.191948
149	0x4082a154	4.0821934
150	0x43972130	302.25928
151	0x3f25d014	0.6477063
152	0x43a75957	334.69797
153	0x41a89a4a	21.075336
154	0x3e65febe	0.22460458
155	0x43a6ea27	333.8293
156	0x4035c774	2.8402987
157	0x3e328148	0.1743213
158	0x41b01f60	22.01532
159	0x3e65febe	0.22460458
160	0x46a3b7f9	20955.986
161	0x461f4a8a	10194.635
162	0x43d61608	428.17212
163	0x42f16e81	120.71583
164	0x43e425c7	456.29514
165	0x42cfd13b	103.90865
166	0x41621313	14.129657
167	0x3976bd09	0.00023530809
168	0x40ff0592	7.96943
169	0x3be7a0c6	0.0070687262
170	0x445541db	853.029
171	0x416267bf	14.150329
172	0x2eca4fad	9.20005e-11
173	0x438878b0	272.94287
174	0x2f70b7cd	2.1893172e-10
175	0x3bac6750	0.0052613392
176	0x41606a76	14.025991
177	0x43d61608	428.17212
178	0x398c11aa	0.00026716042
179	0x44b5d845	1454.7584
180	0x3f9dbba3	1.2322887
181	0x42d27b16	105.2404
182	0x449b5576	1242.6707
183	0x449b0b61	1240.3556
184	0x38b3cdad	8.573695e-05
185	0x410348b2	8.205248
186	0x42d27b16	105.2404
187	0x48c41985	401612.16
188	0x44be040b	1520.1263
189	0x3e4cb02a	0.19989076
190	0x4023af1d	2.557563
191	0x40247981	2.569916
192	0x411f0921	9.939729
193	0x40ff0a13	7.96998
194	0x40d52efe	6.6619864
195	0x3bac9b8b	0.0052675656
196	0x3ba8fe8d	0.005157298
197	0x40fc1261	7.8772435
198	0x411b6dcd	9.714307
199	0x34e77af1	4.3116555e-07
200	0x3cfe2b73	0.031026578
201	0x2f09f1cf	1.2545985e-10
202	0x3b73bfe6	0.0037193238
203	0x40fc1d3c	7.8785686
204	0x3e4cb02a	0.19989076
205	0x40f184af	7.5474467
206	0x412400de	10.250212
207	0x3ba0aabd	0.004903166
208	0x3fa31ca5	1.2743117
209	0x4104d923	8.303012
210	0x3e027bd3	0.12742548
211	0x3fcf8d00	1.6214905
212	0x3bb679a4	0.0055687
213	0x3fa31ca5	1.2743117
214	0x453b7b5e	2999.7104
215	0x471c99af	40089.684
216	0x38b8dba8	8.814718e-05
217	0x370ed8d6	8.514346e-06
218	0x37adb77d	2.070865e-05
219	0x38912133	6.9203226e-05
220	0x35bfff5d	1.430493e-06
221	0x352becff	6.404734e-07
222	0x360d3f42	2.1047458e-06
223	0x35dee875	1.6607943e-06
224	0x381fa2cf	3.806018e-05
225	0x36064360	2.0006773e-06
226	0x2dbfb944	2.179646e-11
227	0x37c61a6f	2.3615748e-05
228	0x2b6987a7	8.2966484e-13
229	0x35a328dc	1.2156338e-06
230	0x35be9623	1.4199799e-06
231	0x38b8dba8	8.814718e-05
232	0x353f016e	7.1155125e-07
233	0x393a34cc	0.0001775801
234	0x35da32a7	1.6257007e-06
235	0x37e797fc	2.760812e-05
236	0x392d0a66	0.0001650244
237	0x391b87b8	0.00014832511
238	0x33242e7f	3.8226514e-08
239	0x361c34e6	2.3276602e-06
240	0x37e797fc	2.760812e-05
241	0x3cadae7f	0.02120137
242	0x3b6bb6c5	0.0035967093
243	0x41202799	10.009667
244	0x3e5949ee	0.21219608
245	0x3f8f2a97	1.1184872
246	0x4114e2f9	9.305413
247	0x3e9c37c0	0.30511284
248	0x3e75f395	0.240187
249	0x3fb924c6	1.4464347
250	0x3fbd99ca	1.4812558
251	0x407052b1	3.755047
252	0x3eafa941	0.34308818
253	0x34b17434	3.3053368e-07
254	0x40002dc6	2.0027938
255	0x33a7d73c	7.8156944e-08
