experiments/tcnn-abilities/models/NoBTCNN_SmallFCNN_5.pth (torch, 28502 bytes, 9 tensors)

fcnn.0.weight f4 [64, 27]
0	0xbcc8d9ae	-0.02451786
1	0xbdb7285a	-0.08943243
2	0xbd13cfd4	-0.036086872
3	0xbd19b38e	-0.037524752
4	0x3e70e8af	0.23526262
5	0x3f22227e	0.6333388
6	0x3e841061	0.25793746
7	0x3d202ef8	0.039107293
8	0x3ddca0ac	0.10772833
9	0xbe810c24	-0.25204575
10	0xbcea2a48	-0.028584614
11	0x3f0b1d52	0.54341614
12	0xbf415144	-0.75514627
13	0xbbdb6b2f	-0.006696127
14	0x3f307af9	0.6893764
15	0x3d8025c1	0.06257201
16	0x3e6f95e3	0.23397021
17	0x3dc20115	0.09472863
18	0x3ea7b244	0.32753193
19	0xbef574fc	-0.47940814
20	0xbe1744e3	-0.14772372
21	0xbe447105	-0.19183739
22	0xbea4f338	-0.3221681
23	0xbe0a6f22	-0.13518956
24	0xbee16fa3	-0.44030485
25	0x3da420e2	0.080140844
26	0x3e2c07d1	0.16799857
27	0x3d48a065	0.04898109
28	0x3e388251	0.18018462
29	0x3ddced29	0.10787422
30	0x3d1dcd34	0.038525775
31	0xbe072c22	-0.13200429
32	0xbedbe6a9	-0.42949417
33	0xbe353972	-0.17697695
34	0xbe0ee003	-0.13952641
35	0xbde800f8	-0.1132831
36	0x3c51df22	0.012809547
37	0xbcde33d2	-0.02712432
38	0xbf100152	-0.56252015
39	0x3f2b1e07	0.66842693
40	0xbd439ebd	-0.047758806
41	0xbeff3c1e	-0.49850553
42	0x3db02d19	0.08602352
43	0xbf074855	-0.52844745
44	0x3d868fa1	0.06570364
45	0xbe98b77e	-0.29827493
46	0x3dd53438	0.104103506
47	0xbd210a49	-0.03931645
48	0xbe1558a0	-0.14584589
49	0x3ea02447	0.31277677
50	0x3d004117	0.031312075
51	0x3e911c4e	0.28341907
52	0xbe774b87	-0.24149905
53	0xbd5eb9c4	-0.05437638
54	0xbf02cbec	-0.5109241
55	0x3e8e062f	0.27739093
56	0x3c4a6a7c	0.012354489
57	0x3d727f8c	0.05920367
58	0x3ec451e2	0.38343722
59	0x3f3af757	0.7303366
60	0x3e3550ff	0.17706679
61	0x3de3523a	0.11099668
62	0x3e530273	0.20606403
63	0x3ea92bc0	0.3304119
64	0x3d147a9d	0.036249746
65	0xbcb5c226	-0.022187304
66	0xbf3c2bed	-0.73504525
67	0x3de00870	0.10939109
68	0x3f27aca4	0.65497804
69	0xbe498844	-0.19680887
70	0x3e84ae98	0.25914454
71	0xbea34e64	-0.31895745
72	0x3e516327	0.2044798
73	0xbf11eefc	-0.57005286
74	0xbdaab0b1	-0.083344825
75	0xbf22cbdb	-0.6359231
76	0xbe91bfad	-0.2846655
77	0x3d582998	0.052774042
78	0xbe9a9fbb	-0.3019999
79	0xbc2efc14	-0.010680217
80	0x3e90386a	0.2816804
81	0x3d561895	0.052269537
82	0x3dffea4b	0.1249586
83	0x3da85f22	0.0822127
84	0x3c1a838d	0.009430778
85	0xbebd9bbc	-0.37032878
86	0xbee318ff	-0.44355008
87	0xbf0045f1	-0.5010672
88	0xbe78a4b2	-0.24281576
89	0x3f208739	0.62706333
90	0x3d9aa52f	0.075510375
91	0x3d62beff	0.05535793
92	0x3a948733	0.0011331796
93	0x3f1432bf	0.5788993
94	0x3d8a541c	0.06754324
95	0xbf057320	-0.5212879
96	0xbd4a1d58	-0.04934439
97	0xbe149c9a	-0.14512864
98	0x3ed7d978	0.42158103
99	0xbf068e92	-0.52561295
100	0xbe52df1f	-0.20592926
101	0x3edb6f8f	0.4285855
102	0x3e6efa00	0.23337555
103	0x3e9421df	0.28932092
104	0x3f983994	1.1892571
105	0xbdd9e1a9	-0.106387444
106	0xbe976c34	-0.2957474
107	0x3d95f796	0.07322614
108	0xbc431200	-0.011906147
109	0x3dee3be6	0.116325185
110	0xbe1340ed	-0.14380236
111	0xbd6ec44f	-0.058292683
112	0xbeb981b7	-0.36231777
113	0xbef39b2a	-0.47579318
114	0xbe4eabc4	-0.20182711
115	0xbe8355e2	-0.2565146
116	0xbd8e1501	-0.069376
117	0xbce627d8	-0.02809517
118	0x3e1e0fd4	0.15435725
119	0xbf093442	-0.53595364
120	0x3f421e9f	0.75827974
121	0xbdf4b72e	-0.11949001
122	0xbec559a6	-0.3854496
123	0xbbdae55e	-0.0066801747
124	0xbea20068	-0.31640935
125	0xbe4f736e	-0.20258877
126	0xbef833b8	-0.48476958
127	0xbd213d1f	-0.03936493
128	0x3e3e43c2	0.18580535
129	0xbdcfc6c0	-0.101453304
130	0x3e8aa9de	0.27082723
131	0x3e74aba7	0.23893605
132	0x3e1611f3	0.14655285
133	0xbd8a0989	-0.067401
134	0xbe1dbffa	-0.15405264
135	0xbda1719f	-0.07883
136	0xbe745c01	-0.23863222
137	0x3e3b1e14	0.18273193
138	0x3e4ef864	0.20211941
139	0x3ec50a48	0.38484406
140	0x3f317d90	0.6933222
141	0x3ee16458	0.4402187
142	0x3edb59d4	0.4284197
143	0xbca5d70c	-0.020244144
144	0xbeadc427	-0.33938715
145	0xbe13f9e3	-0.14450793
146	0x3f1b1891	0.6058436
147	0xbf3465dc	-0.70467925
148	0x3f01c77a	0.50695
149	0x3f14df4b	0.5815322
150	0xbe01b676	-0.1266726
151	0x3ebdc13e	0.37061495
152	0x3dc36db5	0.09542409
153	0x3e88cf72	0.26720768
154	0xbdd9f376	-0.106421396
155	0x3daab4a2	0.08335234
156	0x3d327bd1	0.04357511
157	0xbcdd9925	-0.027050564
158	0x3d04cf6f	0.032424387
159	0xbe023618	-0.12715948
160	0x3dd52379	0.104071565
161	0xbe308ecd	-0.17241974
162	0x3e630301	0.22169115
163	0x3f14deb8	0.5815234
164	0x3d691106	0.056901
165	0xbe8fa8eb	-0.28058562
166	0xbebe3681	-0.37150958
167	0xbed2a279	-0.41139582
168	0xbe623ed2	-0.22094277
169	0xbe4eccaf	-0.20195268
170	0x3cee7854	0.029110111
171	0xbe03057b	-0.1279506
172	0x3e1e79d3	0.1547616
173	0xbec8271d	-0.3909234
174	0x3eef596c	0.4674791
175	0xbdd06d28	-0.1017707
176	0xbf1db3fa	-0.6160275
177	0x3cc81e9c	0.024428658
178	0xbec06d36	-0.3758332
179	0x3da5f87a	0.08104034
180	0xbe8c182a	-0.27362186
181	0xbe064ad7	-0.13114487
182	0x3e7fcbe1	0.24980117
183	0x3e479ef9	0.19494237
184	0x3dccb8c8	0.09996182
185	0x3e811529	0.25211456
186	0xbd180f2c	-0.037123844
187	0xbbafb7e9	-0.0053625
188	0x3d8c5e4f	0.068539254
189	0xbe8536f2	-0.26018482
190	0x3e357a1e	0.17722365
191	0x3c53ef78	0.012935512
192	0x3e81c3d1	0.2534471
193	0xbedb78f4	-0.42865717
194	0xbf47f0ce	-0.78101814
195	0xbeabf624	-0.33586228
196	0x3d524f95	0.051345427
197	0x3eacf31f	0.33779237
198	0x3ed69e63	0.41917714
199	0x3e608355	0.21925099
200	0xbcfd8e75	-0.030951718
201	0x3f50100c	0.81274486
202	0x3c9692e0	0.018380582
203	0xbec4cea8	-0.38438916
204	0xbe7a7174	-0.24457341
205	0xbe22a0d4	-0.15881664
206	0x3d29e8df	0.04148185
207	0xbeb5efea	-0.35534602
208	0xbddb1093	-0.10696521
209	0x3e630e0e	0.2217333
210	0x3dce4f08	0.10073668
211	0x39c8c0da	0.00038290658
212	0x3f1a37f9	0.6024166
213	0xbde0dd95	-0.109797634
214	0xbd525590	-0.05135113
215	0xbc09412d	-0.0083773555
216	0xbd4c22b4	-0.049837783
217	0x3ec8a91a	0.39191514
218	0x3e0f99c9	0.14023508
219	0xbdd93917	-0.10606592
220	0xbef0cb08	-0.470299
221	0xbf480c13	-0.78143424
222	0xbe484787	-0.19558536
223	0xbcd7daf0	-0.026349515
224	0x3ebb04b4	0.36527026
225	0x3e800e73	0.25011024
226	0x3e47367c	0.19454378
227	0xbeec3620	-0.46135044
228	0x3f03041e	0.5117816
229	0xbe62d2a7	-0.2215067
230	0xbf2ff3d9	-0.68731457
231	0x3e8b9cd6	0.27268094
232	0xbeb3b040	-0.35095406
233	0xbdbd8490	-0.092538
234	0xbe6d62ed	-0.23182268
235	0x3e74c854	0.23904544
236	0x3ea91e41	0.33030894
237	0x3db37ed3	0.08764424
238	0x3e3b10da	0.18268147
239	0x3e20fb03	0.15720753
240	0x3dc09907	0.09404188
241	0xbbdc71b5	-0.006727422
242	0x3e4e5311	0.20148875
243	0xbdc20119	-0.094728656
244	0x3df8afbf	0.12142896
245	0x3ddf516a	0.109042004
246	0x3ba4eb31	0.00503292
247	0x3e538193	0.20654897
248	0x3edd5989	0.43232372
249	0xbf206f8e	-0.6267022
250	0xbdb4e9fe	-0.08833693
251	0xbd37134d	-0.04469614
252	0x3e172328	0.14759505
253	0x3da1143b	0.07865187
254	0x3e057212	0.13031796
255	0xbf2bf347	-0.67168087

fcnn.0.bias f4 [64]
0	0xbe27db9c	-0.16392368
1	0xbe1c04d6	-0.1523622
2	0xbece873e	-0.40337557
3	0x3e1e652d	0.15468283
4	0xbe1ba0fa	-0.15198126
5	0x3e161e85	0.1466008
6	0xbe148521	-0.1450391
7	0x3e641639	0.22274102
8	0x3e535296	0.20636973
9	0xbe9c3060	-0.30505657
10	0x3ca8b810	0.02059558
11	0x3da0a03d	0.07843063
12	0x3d0e32e6	0.03471651
13	0x3e73f32e	0.23823234
14	0xbd9821ea	-0.074283436
15	0x3e7f5093	0.2493308
16	0xbe02d58b	-0.12776773
17	0x3e2222dc	0.1583361
18	0xbca42cfa	-0.020040978
19	0x3cab898e	0.020939615
20	0x3e5cc2d5	0.21558698
21	0x3c94a418	0.018144652
22	0x3e7f4dea	0.24932066
23	0x3f1870db	0.59547204
24	0xbe4a5171	-0.1975763
25	0xbc2df23d	-0.010616836
26	0x3e39567b	0.18099396
27	0xbdf5a9af	-0.11995255
28	0xbd34b86c	-0.04412119
29	0x3dc5e0cc	0.09662017
30	0xbc42853a	-0.011872584
31	0x3e87bcd4	0.26511252
32	0x3e27bbbb	0.16380207
33	0x3ca258db	0.01981776
34	0xbc4c33da	-0.012463534
35	0x3ecf5a5d	0.4049863
36	0xbd5872b3	-0.05284376
37	0x3cc9ae63	0.024619287
38	0x3e07d3fd	0.13264461
39	0x3cbd0cad	0.023077333
40	0x3cc6d4bb	0.02427136
41	0x3e53a795	0.20669396
42	0xbdcd074f	-0.1001116
43	0xbd44d7ad	-0.048057247
44	0xbe1810f7	-0.14850222
45	0xbd764e3b	-0.0601332
46	0xbd9d7430	-0.07688177
47	0x3e4e83bd	0.20167442
48	0xbe9927ba	-0.2991312
49	0xbd47d633	-0.04878826
50	0x3e0b4c46	0.13603315
51	0x3ea171b8	0.31532073
52	0xbc341bc1	-0.010992945
53	0xbe09f638	-0.13472831
54	0x3dc6b0f9	0.097017236
55	0x3dd7499e	0.10512088
56	0x3e1618e2	0.1465793
57	0x3e0d5eb7	0.13805662
58	0x3df0c71d	0.11756728
59	0x3e323b98	0.17405546
60	0xbdd4bc3c	-0.10387465
61	0x3eb0f973	0.34565315
62	0xbe368429	-0.17823853
63	0x3e54c67e	0.20778844

fcnn.2.weight f4 [1, 64]
0	0x3e0b360a	0.13594833
1	0xbe497696	-0.19674143
2	0x3e208e03	0.15679173
3	0xbf5ca0d2	-0.8618289
4	0xbdc55ec7	-0.09637218
5	0x3e5a3ab1	0.21311451
6	0xbe844a5b	-0.2583798
7	0xbf5aac30	-0.8541899
8	0xbde0e3ea	-0.10980971
9	0x3e5c5258	0.21515787
10	0x3e494a13	0.19657163
11	0xbe3e31ec	-0.18573731
12	0x3e6ddafe	0.2322807
13	0xbeef9e99	-0.46800688
14	0x3e0044f2	0.125263
15	0xbf65b9e1	-0.89736754
16	0xbdfca0e3	-0.12335374
17	0xbf6530fe	-0.8952788
18	0x3e056383	0.13026242
19	0x3e547b63	0.20750193
20	0xbf03a54f	-0.51424116
21	0x3e2763b9	0.16346635
22	0x3e95333e	0.29140657
23	0x3f8f1b0c	1.1180129
24	0xbe3bbc31	-0.18333508
25	0x3e7f5d7e	0.24938008
26	0x3e2fa721	0.17153598
27	0x3e4b8917	0.19876514
28	0xbda0ee7e	-0.07857989
29	0x3e58be61	0.21166374
30	0x3d9b984e	0.07597409
31	0x3edaa2f8	0.4270246
32	0x3dba37fe	0.09092711
33	0xbf0e1691	-0.55503184
34	0xbe2011cb	-0.15631787
35	0xbf23403a	-0.63769877
36	0x3da10b41	0.07863475
37	0xbe23ffa6	-0.16015491
38	0xbf478eb2	-0.7795211
39	0x3e40f56b	0.1884362
40	0x3e037158	0.12836206
41	0xbf7d44f5	-0.98933345
42	0xbdeb1189	-0.11477954
43	0x3e4f0d99	0.20220031
44	0x3e2acc9c	0.16679615
45	0xbdd769a5	-0.10518197
46	0x3e217175	0.15765937
47	0xbf7c3438	-0.9851718
48	0x3e25b401	0.16181947
49	0x3e60f8c5	0.21969898
50	0x3e3775ee	0.1791608
51	0xbea0c228	-0.3139813
52	0x3e124ef8	0.14287937
53	0x3e5cb11a	0.21551934
54	0xbda60fe3	-0.08108499
55	0xbde718da	-0.11284037
56	0xbe8d5908	-0.27606988
57	0x3e4c0ca1	0.19926693
58	0x3e3c6adf	0.18400143
59	0x3e90654c	0.28202283
60	0x3e457510	0.19282937
61	0xbe7389c6	-0.23783025
62	0x3e032b86	0.12809572
63	0xbe4f73fc	-0.20259088

exp_avg f4 [64, 27]
0	0xbbd60f5b	-0.0065325922
1	0x3d060c8b	0.032726806
2	0x3d8f0f24	0.0698531
3	0x3b436c13	0.0029819056
4	0x3d4a235c	0.049350128
5	0xba5a3fd8	-0.00083255535
6	0x3d2dda7f	0.042444702
7	0x3cd0f910	0.025509387
8	0x3e22a344	0.15882593
9	0x3d71a535	0.058995444
10	0x3628ac97	2.5134411e-06
11	0xbe37f184	-0.17963225
12	0x398914b1	0.00026146093
13	0x3cb4c4f0	0.022066563
14	0x3d0a3969	0.033746157
15	0xbbd60f5b	-0.0065325922
16	0x3ce13a56	0.027493637
17	0xbcffc0a7	-0.031219793
18	0x3ca501d0	0.020142466
19	0x3dc07fff	0.09399413
20	0xbd97b20b	-0.07407006
21	0xbe18f4dd	-0.14937158
22	0x3da616a6	0.081097886
23	0x3d1b3f44	0.03790213
24	0x3dc07fff	0.09399413
25	0x40129e0a	2.290896
26	0x40be9de4	5.9567738
27	0xb9a4e4bf	-0.00031450947
28	0xba22730e	-0.0006196954
29	0xba9bacbb	-0.0011877039
30	0xb9520c16	-0.00020031663
31	0xba3aad75	-0.0007121184
32	0x375bb7d3	1.3096217e-05
33	0xba2096b4	-0.0006125972
34	0xb9c0efe2	-0.0003679982
35	0xbb13dc81	-0.002256185
36	0xba241f68	-0.00062607834
37	0xb31c132a	-3.633901e-08
38	0x3b1c6e6e	0.0023869532
39	0xb67e039f	-3.7851057e-06
40	0xb9a6bd71	-0.00031803132
41	0xb9fef200	-0.0004862696
42	0xb9a4e4bf	-0.00031450947
43	0xb9cfddac	-0.00039647275
44	0x39c6f52d	0.00037948173
45	0xb9985a57	-0.00029059008
46	0xbab016bf	-0.0013434513
47	0x3a83eb9e	0.0010064726
48	0x3b176aed	0.0023104504
49	0xba996edf	-0.0011706016
50	0xb9e4d62a	-0.00043647113
51	0xbab016bf	-0.0013434513
52	0xbd171a77	-0.036890473
53	0xbdb03adb	-0.08604976
54	0x3c29e9c9	0.01037068
55	0x3c27933a	0.010227973
56	0x3c2efc1b	0.010680224
57	0x3e058fa0	0.1304307
58	0x3d502e1e	0.05082523
59	0xba7963d4	-0.0009513472
60	0x3d635239	0.055498336
61	0x3cf0e445	0.029405722
62	0x3dbf4a72	0.09340371
63	0x3dba9322	0.091100946
64	0x32f93821	2.901294e-08
65	0xbc4bc13d	-0.012436208
66	0x399e3d51	0.00030181793
67	0x3cd06c04	0.02544213
68	0x3d13fe58	0.036131233
69	0x3c29e9c9	0.01037068
70	0x3d01ee1e	0.031721227
71	0x3e37e58f	0.17958663
72	0x3cd91213	0.026497876
73	0x3da7333e	0.081640705
74	0x3daad053	0.08340516
75	0x3c1d7edf	0.009612768
76	0x3dbfa0fc	0.09356877
77	0x3d3fb6af	0.04680508
78	0x3da7333e	0.081640705
79	0x401f63f5	2.490476
80	0x40d78ae9	6.735707
81	0xbdc35f78	-0.095396936
82	0xbde1a7ac	-0.11018309
83	0xbde6bf0c	-0.11266908
84	0xbeb3abc8	-0.35091996
85	0xbe9ed10d	-0.31018868
86	0xbdbb0150	-0.0913111
87	0xbb2f9836	-0.0026793606
88	0xbad2f549	-0.0016094829
89	0xbef5e73a	-0.48027974
90	0xbf04faa2	-0.51944935
91	0xb7856222	-1.5900532e-05
92	0x3e44aa6c	0.19205636
93	0xb78b0262	-1.65712e-05
94	0xbb201e70	-0.0024432205
95	0xbe74e51d	-0.23915525
96	0xbdc35f78	-0.095396936
97	0xbea16e37	-0.315294
98	0xbf2f2b5e	-0.6842555
99	0xbaa68ac0	-0.0012706146
100	0xbe2d190b	-0.16904084
101	0xbee6ea80	-0.45100784
102	0xbc99a857	-0.018757029
103	0xbf0039b6	-0.5008806
104	0xbc9bccf9	-0.019018637
105	0xbe2d190b	-0.16904084
106	0xc1086e24	-8.52689
107	0xc20e8604	-35.630875
108	0xb921a109	-0.00015414147
109	0xb99fd69b	-0.00030486737
110	0xba18e37d	-0.0005832238
111	0xb8cdeed1	-9.819645e-05
112	0xb9b78cca	-0.00035009376
113	0x36c0c8d5	5.745426e-06
114	0xb99de39c	-0.00030114956
115	0xb93de5e0	-0.0001811008
116	0xba914b78	-0.0011085114
117	0xb9a1d255	-0.00030865023
118	0xb2990abe	-1.781643e-08
119	0x3a99998e	0.0011718736
120	0xb5f8a42d	-1.8525221e-06
121	0xb9244c1d	-0.00015668613
122	0xb97b2254	-0.00023950014
123	0xb921a109	-0.00015414147
124	0xb94c91ab	-0.00019509222
125	0x39422bec	0.00018517644
126	0xb915f160	-0.00014299667
127	0xba2d11d2	-0.00066020817
128	0x3a015e7d	0.00049350393
129	0x3a949a8c	0.0011337562
130	0xba16ce92	-0.0005752827
131	0xb96131a2	-0.00021476162
132	0xba2d11d2	-0.00066020817
133	0xbc9486c3	-0.018130666
134	0xbd2d45d8	-0.042302936
135	0x3d1b523c	0.03792022
136	0x3d67e273	0.056612443
137	0x3df1f0dc	0.118135184
138	0xbdfe5e7b	-0.124203645
139	0xba94d1ab	-0.001135399
140	0xb77581fd	-1.4633403e-05
141	0x3d6f58b5	0.058434207
142	0x3cb8a840	0.022541165
143	0x3e3004b7	0.17189299
144	0xbd51fb77	-0.051265206
145	0x3328f2ad	3.933626e-08
146	0xbe83ee89	-0.25767925
147	0x39d6f097	0.00040996514
148	0x3c721a48	0.014776774
149	0xbc04fd18	-0.008116983
150	0x3d1b523c	0.03792022
151	0x39e0c980	0.0004287474
152	0xbe537950	-0.20651746
153	0x3cdc6567	0.026903821
154	0x3d6e5313	0.058184694
155	0xbe26b000	-0.16278076
156	0xbe73981a	-0.23788491
157	0x3aa5fbdd	0.0012663562
158	0x3ca13ec8	0.019683257
159	0x3d6e5313	0.058184694
160	0x3fc3e781	1.5305024
161	0x3f53413e	0.82521427
162	0xbd7a00ab	-0.061035793
163	0xbde9126d	-0.113804676
164	0xbe43c09f	-0.19116448
165	0xbb1a6fed	-0.0023565248
166	0xbdc81494	-0.0976955
167	0x3af3d952	0.0018604195
168	0xbd8286df	-0.06373381
169	0xbd2d5e02	-0.04232598
170	0xbe7cb558	-0.24678552
171	0xbdcbc2e0	-0.09949279
172	0xb6a02869	-4.773076e-06
173	0x3e20fe4a	0.15722004
174	0xba0293ec	-0.00049811485
175	0xbd2a23d0	-0.04153806
176	0xbd97a7ed	-0.07405076
177	0xbd7a00ab	-0.061035793
178	0xbd547b7a	-0.05187557
179	0x3c5510d6	0.013004502
180	0xbcb0552a	-0.021524984
181	0xbdf782a6	-0.12085466
182	0x3d47f9f8	0.048822373
183	0x3d70f8d9	0.05883107
184	0xbe1d0697	-0.15334545
185	0xbd1dde20	-0.038541913
186	0xbdf782a6	-0.12085466
187	0xc096c077	-4.7109942
188	0xc132f02b	-11.183635
189	0x3d7e19cc	0.06203632
190	0xbe18c123	-0.14917426
191	0xbe7ddfba	-0.24792376
192	0xbf19421b	-0.59866494
193	0xbd523664	-0.051321402
194	0x387453b5	5.825209e-05
195	0xbe34ba7a	-0.1764926
196	0xbe32693a	-0.17422953
197	0xbf4bdcfb	-0.79634064
198	0x3e31fec4	0.17382342
199	0xb7845cd8	-1.577886e-05
200	0x3f3b2533	0.73103637
201	0xbad78a2c	-0.0016444377
202	0xbe87fc29	-0.2655957
203	0xbd04f3dc	-0.032459125
204	0x3d7e19cc	0.06203632
205	0xbd0f6997	-0.035012808
206	0x3ee3a9d8	0.44465518
207	0xbd8de9b9	-0.06929345
208	0x3def8cec	0.116968006
209	0x3ef4ce28	0.47813535
210	0x3fae7d9d	1.3632084
211	0xbd246f0b	-0.04014496
212	0xbe5c7db8	-0.21532333
213	0x3def8cec	0.116968006
214	0xc03484bf	-2.8206022
215	0xc0dba7c1	-6.864228
216	0xbc8eff61	-0.017455759
217	0xbd0c6799	-0.034278486
218	0xbd86f8ed	-0.065904476
219	0xbbe93fa9	-0.0071181846
220	0xbd10e0ab	-0.03537051
221	0x3a648561	0.0008717385
222	0xbd0b134b	-0.033953946
223	0xbca690d8	-0.020332739
224	0xbdfb9d84	-0.12285903
225	0xbcf9474d	-0.030429507
226	0xb6081f83	-2.0283921e-06
227	0x3e07daac	0.1326701
228	0xb95e6582	-0.00021209384
229	0xbc8fab7c	-0.017537825
230	0xbcba58f3	-0.022747492
231	0xbc8eff61	-0.017455759
232	0xbcb3c588	-0.021944776
233	0x3cd2e4d7	0.025743885
234	0xbc8390d2	-0.016060267
235	0xbd94782e	-0.07249485
236	0x3d6f7111	0.058457438
237	0x3e03d05f	0.12872456
238	0xbd850d27	-0.06496649
239	0xbcc59e18	-0.024123237
240	0xbd94782e	-0.07249485
241	0xbffe8e98	-1.9887266
242	0xc09888f7	-4.7667193
243	0x3c87a987	0.01656033
244	0x3c90f0a8	0.017692879
245	0x3c9605b0	0.018313259
246	0x3e415d71	0.18883301
247	0x3da3f210	0.08005154
248	0xbab303a9	-0.0013657707
249	0x3d3612d1	0.04445154
250	0x3d260236	0.040529452
251	0x3dc33ab2	0.095326796
252	0x3df8376d	0.12119947
253	0x332b15eb	3.9833974e-08
254	0xbba3febf	-0.0050047333
255	0x368b2284	4.146541e-06

exp_avg_sq f4 [64, 27]
0	0x3f7536ad	0.95786554
1	0x3d8e1845	0.06938223
2	0x3e4f7473	0.20259266
3	0x3f2fa348	0.6860852
4	0x3ced6cd4	0.028982557
5	0x3c73b687	0.014875061
6	0x3d356ea3	0.044294965
7	0x3d619845	0.055076856
8	0x3ef2a88d	0.4739422
9	0x3d2ca08a	0.04214529
10	0x36c7dce8	5.956379e-06
11	0x3e731016	0.23736605
12	0x368b549c	4.1523726e-06
13	0x3d24d30d	0.040240336
14	0x3ce3bc2c	0.027799688
15	0x3f7536ad	0.95786554
16	0x3c861174	0.016365744
17	0x3fe19074	1.7622209
18	0x3d197c3b	0.03747199
19	0x3dade7e4	0.08491495
20	0x3fda5b04	1.7059026
21	0x3f8a9f92	1.0829947
22	0x3ce32f0c	0.027732395
23	0x3d7e1250	0.062029183
24	0x3dade7e4	0.08491495
25	0x437fd9f0	255.85132
26	0x431322ed	147.13643
27	0x39696ce5	0.00022261178
28	0x37870784	1.6096754e-05
29	0x38443c9b	4.6786485e-05
30	0x3929b10f	0.00016183055
31	0x36df5ce2	6.656731e-06
32	0x36673f59	3.4458556e-06
33	0x372b0722	1.0194055e-05
34	0x3754445b	1.26521e-05
35	0x38e537d8	0.000109299726
36	0x3727e3ce	1.0007016e-05
37	0x31571b28	3.1302054e-09
38	0x3864ccbb	5.4550106e-05
39	0x308a8c7f	1.0080753e-09
40	0x371b4f13	9.257131e-06
41	0x36d68d5f	6.3941548e-06
42	0x39696ce5	0.00022261178
43	0x367df0d3	3.7840116e-06
44	0x39d83330	0.00041236868
45	0x3710d7a4	8.633277e-06
46	0x37c50995	2.3488692e-05
47	0x39d10924	0.00039870397
48	0x39858d56	0.0002547304
49	0x36d574e2	6.3615016e-06
50	0x3770a3aa	1.4343221e-05
51	0x37c50995	2.3488692e-05
52	0x3d73652d	0.05942266
53	0x3d0a8a79	0.033823464
54	0x3bc64f6c	0.0060519483
55	0x3c010010	0.00787355
56	0x3c0138d2	0.007887082
57	0x3dde93c3	0.10868027
58	0x3d08e43e	0.033420794
59	0x3c8f632f	0.01750335
60	0x3d40c068	0.047058493
61	0x3d860e46	0.06545691
62	0x3da8dacf	0.082448594
63	0x3d35e3be	0.044406645
64	0x3340082b	4.4710912e-08
65	0x3b4e6cc5	0.0031497937
66	0x36995c57	4.570505e-06
67	0x3d4383cf	0.047733124
68	0x3d06184a	0.032738008
69	0x3bc64f6c	0.0060519483
70	0x3c9e1d68	0.019301131
71	0x3de84ad4	0.11342397
72	0x3d3146d2	0.04328043
73	0x3ce56559	0.028002428
74	0x3db65ae8	0.08904058
75	0x3be0c07f	0.006858885
76	0x3d073016	0.033004843
77	0x3d88fedd	0.06689236
78	0x3ce56559	0.028002428
79	0x41fcb544	31.588509
80	0x432c0ed8	172.05798
81	0x3fd9e8a0	1.7024117
82	0x3d4a0a7e	0.049326412
83	0x3d4af63c	0.049551234
84	0x4064bc2c	3.573985
85	0x3f0325fc	0.51229835
86	0x3ec026b8	0.3752954
87	0x391a18a1	0.0001469576
88	0x3b3cf53f	0.0028832702
89	0x3f1e5f91	0.6186457
90	0x3f510007	0.81640667
91	0x37a345ba	1.9463583e-05
92	0x3f8dfd72	1.109297
93	0x32538e35	1.2314151e-08
94	0x39107ee3	0.00013780179
95	0x3f005a8f	0.5013818
96	0x3fd9e8a0	1.7024117
97	0x3ee10623	0.43949994
98	0x408b6551	4.3561177
99	0x39023cd8	0.00012420432
100	0x3e8dbd73	0.276836
101	0x408479d3	4.139871
102	0x40555cf8	3.3337994
103	0x3f4699c5	0.77578384
104	0x3b9fe115	0.004879127
105	0x3e8dbd73	0.276836
106	0x43999c3e	307.22064
107	0x4554d8fe	3405.562
108	0x385673d1	5.112944e-05
109	0x3677e080	3.6936544e-06
110	0x373420a3	1.0736435e-05
111	0x381ba45a	3.7107944e-05
112	0x35cd5c37	1.5300528e-06
113	0x3553797e	7.878042e-07
114	0x361d1472	2.3406724e-06
115	0x36431950	2.9071998e-06
116	0x37d2479e	2.50673e-05
117	0x361a6d2c	2.3011335e-06
118	0x2fd04cf5	3.788966e-10
119	0x37521434	1.2521679e-05
120	0x2f771a0b	2.2473771e-10
121	0x360ea460	2.1255328e-06
122	0x35c5104f	1.468239e-06
123	0x385673d1	5.112944e-05
124	0x35687e7b	8.661079e-07
125	0x38c64ad8	9.4553165e-05
126	0x3604ec09	1.9806923e-06
127	0x36b4dd05	5.390148e-06
128	0x38bfcd14	9.1457885e-05
129	0x38751e1e	5.84406e-05
130	0x35c46e8a	1.4635309e-06
131	0x365d1848	3.29457e-06
132	0x36b4dd05	5.390148e-06
133	0x3c5f6c1e	0.013636617
134	0x3bfe9169	0.007768799
135	0x401a989c	2.4155645
136	0x3e2d188f	0.169039
137	0x3f003545	0.5008128
138	0x3fd6e90c	1.678987
139	0x3c80f312	0.015740905
140	0x367a20b9	3.727195e-06
141	0x3de291c7	0.11062961
142	0x3e05f7d3	0.13082819
143	0x3f9007d6	1.1252391
144	0x3cedd6f8	0.02903317
145	0x36cebd31	6.161303e-06
146	0x3f177e1b	0.59176797
147	0x372f046c	1.0431842e-05
148	0x3dd06881	0.101761825
149	0x3c6b2d74	0.014354099
150	0x401a989c	2.4155645
151	0x36898350	4.098205e-06
152	0x408b9ee3	4.3631454
153	0x3dbfc6cf	0.093640916
154	0x3e5f81b5	0.21826823
155	0x4087f342	4.2484446
156	0x403018b2	2.7515073
157	0x36e88ed0	6.9307644e-06
158	0x3e190c8f	0.14946197
159	0x3e5f81b5	0.21826823
160	0x4419887d	614.1326
161	0x421b3257	38.79916
162	0x40547a21	3.3199542
163	0x3e6c51d6	0.23078093
164	0x3f2fdee4	0.6869948
165	0x40081c5d	2.1267312
166	0x3d9fb52c	0.07798228
167	0x3d519fe7	0.051177885
168	0x3e15d06c	0.14630288
169	0x3e3f96d2	0.18709877
170	0x3fcd21ac	1.6025901
171	0x3df291ed	0.118442394
172	0x3666478d	3.4314319e-06
173	0x3f2405d2	0.6407138
174	0x3767909e	1.3802344e-05
175	0x3e0dfdc6	0.13866338
176	0x3d9c1070	0.07620323
177	0x40547a21	3.3199542
178	0x3d66b8cd	0.056328584
179	0x40bbcd59	5.868817
180	0x3dfacc39	0.12245984
181	0x3e8caf0f	0.2747731
182	0x40b6f716	5.717662
183	0x406a4ad3	3.660817
184	0x3dc402ac	0.09570822
185	0x3e567995	0.20944817
186	0x3e8caf0f	0.2747731
187	0x44549d67	850.4594
188	0x43fd4130	506.50928
189	0x40a2a71f	5.0829005
190	0x3f9562db	1.1670793
191	0x40b9f05d	5.810591
192	0x41645a42	14.272036
193	0x3d33f670	0.043936193
194	0x38634af0	5.419081e-05
195	0x3fc64d29	1.5492297
196	0x3fe0b612	1.7555563
197	0x417c1bca	15.756784
198	0x3e7f6df6	0.2494429
199	0x37b8da33	2.2036116e-05
200	0x40bd1d5f	5.9098353
201	0x3916a425	0.00014366263
202	0x3fa06c52	1.2533057
203	0x3d0cb755	0.034354527
204	0x40a2a71f	5.0829005
205	0x3a340715	0.00068675104
206	0x41fcd616	31.604534
207	0x3fa8f3b0	1.3199368
208	0x3f29deb0	0.6635542
209	0x41f614d5	30.760172
210	0x41d284c0	26.31482
211	0x3bd3db78	0.0064653717
212	0x4001f7cf	2.03075
213	0x3f29deb0	0.6635542
214	0x45997e82	4911.8135
215	0x44007cf4	513.9524
216	0x3f262dca	0.6491362
217	0x3d3fd1f0	0.04683107
218	0x3e0b88b5	0.13626368
219	0x3eef20ea	0.467048
220	0x3c93838f	0.018007068
221	0x3c2457b3	0.010030675
222	0x3cf4008c	0.029785417
223	0x3d179c32	0.037014194
224	0x3ea2dabf	0.31807515
225	0x3ce50cda	0.02796023
226	0x35cb09c1	1.5127517e-06
227	0x3e22cb10	0.15897775
228	0x363a001b	2.7716221e-06
229	0x3cdda432	0.027055833
230	0x3c8d875a	0.017276455
231	0x3f262dca	0.6491362
232	0x3c34a469	0.011025527
233	0x3f9928ed	1.1965615
234	0x3cce6859	0.025196241
235	0x3d8bfcb8	0.06835312
236	0x3f943ed5	1.1581675
237	0x3f3db294	0.74100614
238	0x3c98c5ff	0.0186491
239	0x3d2bc2ed	0.041933943
240	0x3d8bfcb8	0.06835312
241	0x432d18ab	173.09636
242	0x42c5cedb	98.904015
243	0x3c2ce6c6	0.010553068
244	0x3c014134	0.007889081
245	0x3c01c55a	0.007920587
246	0x3db6f4aa	0.08933385
247	0x3d5d4756	0.05402311
248	0x3d129caa	0.035793938
249	0x3b155748	0.002278762
250	0x3c5659dc	0.013082948
251	0x3d5aeb72	0.053447194
252	0x3d9ce039	0.076599546
253	0x36ee25e9	7.097366e-06
254	0x3b99862a	0.004685183
255	0x30865da9	9.776403e-10

exp_avg f4 [64]
0	0xbcffc07c	-0.031219713
1	0x39c6f513	0.00037948097
2	0x3e37e58f	0.17958663
3	0xbf2f2b60	-0.6842556
4	0x39422bef	0.00018517648
5	0xbe53794e	-0.20651743
6	0x3c5510d3	0.0130044995
7	0x3ee3a9da	0.44465524
8	0x3cd2e4dd	0.025743896
9	0x3e632707	0.22182857
10	0xbd1b7da2	-0.03796161
11	0xbc1c79c4	-0.009550516
12	0xbe70c264	-0.23511654
13	0x3e1b3dbd	0.1516027
14	0xb98268e7	-0.0002487369
15	0xbf82fd72	-1.0233595
16	0x39783735	0.00023671689
17	0xbe76cba9	-0.24101128
18	0xbdaecb65	-0.08534888
19	0x3cea1601	0.028574945
20	0xbdead80b	-0.11466988
21	0xbd02958d	-0.031880904
22	0xbe8c0558	-0.27347827
23	0xc03d7e2f	-2.9608266
24	0x39b9fee7	0.00035475867
25	0xbe851638	-0.25993514
26	0xbe275d3e	-0.16344163
27	0xbd1d2ac3	-0.03837086
28	0xbd315a19	-0.043298814
29	0xbe5eda18	-0.21762884
30	0xb91e5c6c	-0.00015102484
31	0xbf2b36bb	-0.6688039
32	0xbc8e0e39	-0.017340766
33	0xbebe056d	-0.37113515
34	0x39a29d74	0.0003101636
35	0xbf910967	-1.1330994
36	0xb925cefa	-0.00015812731
37	0x399ffb06	0.0003051387
38	0xbf98259f	-1.1886481
39	0xbd14eff3	-0.036361646
40	0xbdfbdde1	-0.122981794
41	0xc01ca921	-2.4478228
42	0x3de76f98	0.11300582
43	0xbd658e4b	-0.056043904
44	0xbd037a3f	-0.032099005
45	0x3df5c7fb	0.12001034
46	0xbcfc959f	-0.030833064
47	0xc023309d	-2.5498421
48	0x3e169313	0.14704542
49	0xbd2de971	-0.042458955
50	0xbd0d9767	-0.034568217
51	0xbf49359c	-0.78597426
52	0xbe107425	-0.14106806
53	0xbd2b011f	-0.041749116
54	0xbb6c80c8	-0.0036087502
55	0x3bf6a216	0.0075266464
56	0xbe433087	-0.1906148
57	0xbd1f6208	-0.03891185
58	0xbd113cf2	-0.035458513
59	0xbd58f8ea	-0.052971758
60	0x3e14acc8	0.14519036
61	0xbf090f62	-0.535391
62	0xb9852cb4	-0.00025401043
63	0x3d554343	0.0520661

exp_avg_sq f4 [64]
0	0x3fe19073	1.7622207
1	0x39d83331	0.0004123687
2	0x3de84ad1	0.11342395
3	0x408b6551	4.3561177
4	0x38c64ad8	9.4553165e-05
5	0x408b9ee3	4.3631454
6	0x40bbcd59	5.868817
7	0x41fcd617	31.604536
8	0x3f9928ee	1.1965616
9	0x3dbc34d5	0.091897644
10	0x40823c4f	4.069862
11	0x3b3a7e69	0.0028456694
12	0x40a5e850	5.1846085
13	0x41afd775	21.980204
14	0x39203d6a	0.00015281668
15	0x40537b0c	3.3043852
16	0x39273309	0.00015945373
17	0x40a819ca	5.253148
18	0x3e394358	0.18092096
19	0x3ea6d55b	0.32584652
20	0x3f076a9a	0.52897036
21	0x40224bdf	2.5358808
22	0x41043c65	8.264745
23	0x4269cbc1	58.44898
24	0x39b6bd30	0.000348547
25	0x40c5283a	6.1611605
26	0x403791ca	2.8682733
27	0x4085be79	4.179501
28	0x3f099747	0.53746456
29	0x408ecc80	4.4624634
30	0x3866bd7f	5.5012755e-05
31	0x41857a7e	16.68481
32	0x3f6256d4	0.8841374
33	0x3eea5d10	0.45774126
34	0x3988a7fe	0.00026065105
35	0x4014d8a8	2.3257236
36	0x3877aab2	5.904836e-05
37	0x398f47ec	0.0002732867
38	0x41a7a079	20.953356
39	0x4071b666	3.7767577
40	0x3fc3bbe3	1.5291713
41	0x4170f680	15.060181
42	0x3f97a359	1.1846725
43	0x40840724	4.1258717
44	0x403d615c	2.9590673
45	0x3f764c92	0.9621059
46	0x402457f5	2.5678685
47	0x41c9b1af	25.21176
48	0x3d5e1433	0.054218482
49	0x409e4d54	4.9469395
50	0x405667bf	3.3500822
51	0x3f760f9d	0.96117574
52	0x3ff7e765	1.9367491
53	0x4096c2e0	4.7112885
54	0x3f25597a	0.64589655
55	0x3f8cca9c	1.0999331
56	0x3dbe2c5e	0.09285806
57	0x40839d0b	4.1129203
58	0x406b7255	3.6788533
59	0x41091ebb	8.570003
60	0x3d872a4c	0.06599864
61	0x3f1e015e	0.61720836
62	0x3927fa19	0.0001601953
63	0x40857b5e	4.1713095

exp_avg f4 [1, 64]
0	0x40fb5db4	7.8551884
1	0xbd7494c0	-0.05971217
2	0x413335f4	11.200672
3	0x3f6c885c	0.9239557
4	0xbd9c731a	-0.076391414
5	0xbf63de27	-0.8901085
6	0x4033c459	2.808859
7	0xbdeba32b	-0.11505731
8	0x4117763e	9.466368
9	0x409ee370	4.9652634
10	0x40cdf902	6.4366465
11	0xbd94668b	-0.07246121
12	0xbf5c9a9d	-0.8617342
13	0x3fb3b27c	1.4038844
14	0xbd127a5c	-0.035761222
15	0x3f50416a	0.81349814
16	0xbdce2b47	-0.10066848
17	0x3e9d22ed	0.3069071
18	0x41221d2b	10.132121
19	0x40a497f7	5.1435504
20	0x3da88bc7	0.082297854
21	0x3d4a7d36	0.049435817
22	0xbef3121e	-0.4747476
23	0xc0b08897	-5.5166736
24	0xbdcde5e7	-0.10053616
25	0xbf525d95	-0.82174045
26	0x3ebd7dc0	0.37010002
27	0x4100125c	8.004482
28	0x40c776a7	6.233234
29	0x3f1f03f3	0.621154
30	0xbdb7303e	-0.08944748
31	0xbfdd6520	-1.7296486
32	0x41214a63	10.080661
33	0x3f4623b6	0.7739824
34	0xbd8313bd	-0.06400249
35	0x3f8d065a	1.1017563
36	0xbcc0b523	-0.023523873
37	0xbd25257b	-0.040318947
38	0x3ee2545a	0.4420498
39	0x4103b7d4	8.23238
40	0xbe746670	-0.23867202
41	0x3fef15d9	1.8678542
42	0x3fc1b62d	1.5133721
43	0x3f1de327	0.6167473
44	0x407f0910	3.9849281
45	0x3f96e7cf	1.1789492
46	0x405c19be	3.4390712
47	0x3f27b888	0.6551595
48	0x40b1ddfc	5.5583477
49	0x40240837	2.5630014
50	0x409c627f	4.8870234
51	0x40322bfe	2.783935
52	0xbeac829b	-0.33693394
53	0x4031458e	2.7698703
54	0x411e0a31	9.877488
55	0x404e7880	3.2261047
56	0x3f58e2ce	0.84721076
57	0x400acf88	2.1689167
58	0x40266293	2.5997665
59	0x3e043cd5	0.1291383
60	0x40da3c8a	6.81989
61	0x4081b540	4.0533752
62	0xbd1e283b	-0.038612586
63	0x40f0774b	7.514562

exp_avg_sq f4 [1, 64]
0	0x43d09ea5	417.2394
1	0x3dfb5ec3	0.12273934
2	0x441f2572	636.5851
3	0x3fd227a2	1.6418345
4	0x3d5adda3	0.053434025
5	0x43562bf3	214.17168
6	0x423b6596	46.849205
7	0x407ac02c	3.9179792
8	0x43d03d51	416.47903
9	0x4300efb1	128.9363
10	0x44668280	922.03906
11	0x3da39c97	0.079888515
12	0x43391aae	185.10422
13	0x42937827	73.73467
14	0x3ccde204	0.025132187
15	0x3faa480f	1.330324
16	0x3e12fd93	0.14354543
17	0x3f24aea0	0.64328957
18	0x440199d4	518.40356
19	0x431e5c61	158.36086
20	0x3d5887c1	0.05286384
21	0x42bf3bbd	95.61668
22	0x43045d93	132.36552
23	0x42ca473c	101.13913
24	0x3d8d83c1	0.06909896
25	0x438596b3	267.17734
26	0x442299b1	650.4014
27	0x448ae37b	1111.1088
28	0x43391888	185.09583
29	0x441bb6fe	622.85925
30	0x3d39bb7a	0.045344807
31	0x42eaf62f	117.48083
32	0x44d6696f	1715.2948
33	0x3fa3b521	1.2789651
34	0x3da82adc	0.082113
35	0x400b7792	2.179173
36	0x3ce1a12c	0.027542673
37	0x3d86b1d3	0.06576886
38	0x4045d6d5	3.0912373
39	0x4485bd04	1069.9067
40	0x43c87579	400.91776
41	0x40eecce5	7.4625115
42	0x4364b69e	228.71335
43	0x42dfb8d8	111.86102
44	0x447dd416	1015.31384
45	0x43133e09	147.24232
46	0x43ac6e2e	344.86078
47	0x3ff6e819	1.928958
48	0x43256c58	165.42322
49	0x43b2bf8a	357.4964
50	0x43ca3ee5	404.49136
51	0x41b24970	22.285858
52	0x43bffc8f	383.9731
53	0x42cfe1c8	103.94098
54	0x43ed63e2	474.78033
55	0x42b7b36c	91.85043
56	0x3fe08aca	1.7542355
57	0x43bcaa69	377.33133
58	0x449e90f6	1268.53
59	0x42c4a068	98.31329
60	0x43775a90	247.35376
61	0x425faa40	55.91626
62	0x3d1f5173	0.038896035
63	0x4382297d	260.32413
