experiments/tcnn-abilities/models/NoBTCNN_MediumFCNN_2.pth (torch, 591498 bytes, 21 tensors)

fcnn.0.weight f4 [256, 27]
0.011509875 0.038681068 0.19576634 0.0096249785 0.04012005 0.22735095 0.1482322 0.116907746
-0.047306567 0.071998805 -0.10977241 -0.022366466 0.17762978 0.109863214 -0.07904613 0.018572887
0.09929441 -0.1023041 -0.34644184 -0.03654262 0.12746833 0.054234613 0.07548741 0.10125945
-0.009942058 0.014231965 -0.19591255 0.005559877 -0.085994765 0.14814635 -0.087504975 -0.012284415
0.15945445 -0.09094255 -0.03712417 0.030449815 -0.16267893 0.04637811 0.08819721 0.05733139
-0.25409213 0.12687925 0.06327073 -0.10178268 0.01978026 -0.035109904 -0.26507267 0.076150134
0.21259551 -0.2613251 -0.11680268 -0.090632096 0.073355556 0.029937597 0.21545689 0.14772955
0.0012075859 0.0010581737 -0.106434986 -0.3674323 -0.18381445 0.021962434 -0.0060639414 -0.22553863
-0.047332905 -0.055465132 0.23490366 -0.009228077 -0.13594067 0.1403772 0.16570427 0.1461415
-0.24360108 0.052418202 -0.06166416 -0.056235224 -0.18316467 0.1993807 0.10804684 -0.13459326
0.026502471 -0.12662785 -0.12622938 -0.184883 0.069094434 0.04681693 -0.09303584 0.40658543
0.020731052 -0.10373385 -0.10880349 -0.022730505 -0.060928263 -0.27477035 -0.29112923 -0.23859173
-0.0757036 -0.2199858 -0.10750517 0.02343798 0.1126941 -0.09364938 -0.1957872 -0.3057397
0.22955184 0.17366044 -0.12935 0.11659488 0.043454904 0.25267735 0.2686493 0.2516422
-0.094729096 -0.31978706 0.045644313 -0.10332456 -0.05378995 1.1038889 0.15871696 -0.0070066545
0.102799125 -0.1035262 -0.02740275 0.06652004 -0.021300923 0.09821617 0.02039581 -0.10804534
-0.019741304 -0.00057887123 -0.02522535 0.540819 -0.083193436 -0.102197655 -0.008769886 0.10526794
-0.0969915 0.18806678 -0.006625451 -0.09327959 0.23669198 0.19793159 0.17281947 -0.12120188
0.06677157 -0.116983734 0.1427874 -0.25674644 0.18796468 0.12140029 -0.23714407 -0.09124782
-0.049951356 -0.20196041 -0.04664084 -0.06647329 0.21835427 0.21956411 -0.009148141 0.1739567
0.025908912 -0.07860751 -0.16799012 -0.09587379 -0.077822775 -0.08302331 -0.006936829 -0.2494796
-0.004338685 -0.18453191 0.12312729 -0.26072982 -0.0014929001 0.24737626 -0.1603391 -0.12707719
-0.0022520798 0.18212752 0.2002865 0.08950009 0.16620123 0.03241041 -0.032447413 -0.0048332084
0.023390157 0.030329546 -0.2225217 0.014875583 0.0016165919 -0.07396591 -0.052648105 0.023672195
-0.020271426 -0.13732909 -0.24624053 0.08768366 -0.069997795 0.15383509 -0.029991683 -0.04900107
-0.14323856 0.25318766 -0.23009351 0.13272634 0.111186504 0.16439499 0.03213526 -0.15033178
0.12942313 0.12519702 0.07976602 0.12689608 0.094355 -0.031442963 0.019165393 -0.010034193
-0.06852966 -0.10326407 0.1136323 0.001358567 -0.038456347 -0.13733087 -0.0146870455 -0.07682157
0.019048097 -0.046553236 -0.1298719 -0.0405748 0.06581769 0.29456756 -0.35573828 0.06756316
-0.030695975 0.20397724 0.15576775 -0.020343278 0.12924993 0.13760586 -0.280415 -0.04989486
0.17557852 -0.15820177 0.13452043 0.15383822 0.12551332 -0.019032974 -0.11566899 0.028216489
-0.11629834 0.004005138 -0.055026837 0.39720833 0.019605838 0.13822505 0.13924137 0.10091562
00000000: ea93 3c3c 0a70 1e3d f976 483e 16b2 1d3c
00000010: ec54 243d b0ce 683e 2fca 173e 546d ef3d
00000020: 88c4 41bd 1c74 933d 5bd0 e0bd e139 b7bc
00000030: 95e4 353e f7ff e03d f0e2 a1bd 2b26 983c
00000040: de5a cb3d d084 d1bd d360 b1be b7ad 15bd
00000050: 0f87 023e 1d25 5e3d 2599 9a3d 1d61 cf3d
00000060: 03e4 22bc 302d 693c 4d9d 48be a12f b63b
00000070: 061e b0bd adb3 173e cf35 b3bd 9244 49bc
00000080: 0748 233e 1640 babd 840f 18bd e471 f93c
00000090: 4e95 26be f9f6 3d3d bda0 b43d 52d4 6a3d
000000a0: 5d18 82be a2ec 013e 1694 813d 7073 d0bd
000000b0: 360a a23c 67cf 0fbd 9bb7 87be 9af4 9b3d
000000c0: a3b2 593e 67cc 85be 3e36 efbd 529d b9bd
000000d0: 703b 963d b13f f53c bba0 5c3e 6a46 173e
000000e0: dc47 9e3a 6bb2 8a3a 96fa d9bd 1620 bcbe
000000f0: db39 3cbe 90ea b33c 07b4 c6bb 99f3 66be
00000100: 26e0 41bd 682f 63bd 968a 703e 5c31 17bc
00000110: 0834 0bbe 0abf 0f3e 61ae 293e 1ea6 153e
00000120: 9072 79be 78b4 563d 8f93 7cbd e856 66bd
00000130: 858f 3bbe 742a 4c3e a947 dd3d d1d2 09be
00000140: b61b d93c bbaa 01be 4642 01be f851 3dbe
00000150: 6281 8d3d 1cc3 3f3d 9389 bebd f72b d03e
00000160: 2bd4 a93c 6a72 d4bd 5dd4 debd 5335 babc
00000170: ea8f 79bd b3ae 8cbe e40e 95be 6451 74be
00000180: 7d0a 9bbd f543 61be ac2b dcbd 0201 c03c
00000190: 2acc e63d 3fcb bfbd 717c 48be ea89 9cbe
000001a0: a30f 6b3e 0bd4 313e 5474 04be 4cc9 ee3d
000001b0: c5fd 313d ed5e 813e 678c 893e 3fd7 803e
000001c0: 5401 c2bd 21bb a3be 88f5 3a3d d49b d3bd
000001d0: da52 5cbd 3b4c 8d3f b386 223e 1498 e5bb
000001e0: 5988 d23d 8b05 d4bd bb7b e0bc a93b 883d
000001f0: 467f aebc 8f25 c93d 1d15 a73c e046 ddbd
00000200: 84b8 a1bc 64bf 17ba 65a5 cebc 1d73 0a3f
00000210: 5261 aabd 014d d1bd 91af 0fbc b896 d73d
00000220: 7ba3 c6bd 9494 403e 501a d9bb 5f09 bfbd
00000230: 625f 723e 94ae 4a3e 96f7 303e b138 f8bd
00000240: 88bf 883d 2b95 efbd dc36 123e 4574 83be
00000250: d079 403e b7a0 f83d e5d5 72be 23e0 babd
00000260: cb99 4cbd b6ce 4ebe 770a 3fbd 2623 88bd
00000270: 4398 5f3e 6ad5 603e 16e2 15bc b521 323e
00000280: ed3e d43c f9fc a0bd 9a05 2cbe 7a59 c4bd
00000290: 8c61 9fbd 2008 aabd 574e e3bb 9577 7fbe
000002a0: 872b 8ebb eff5 3cbe 292a fc3d 617e 85be
000002b0: 6aad c3ba 3450 7d3e ef2f 24be 8620 02be
000002c0: a197 13bb a37f 3a3e e717 4d3e d34b b73d
000002d0: a830 2a3e c7c0 043d 94e7 04bd e45f 9ebb
000002e0: b79c bf3c ab75 f83c bbdc 63be b8b8 733c
000002f0: d3e3 d33a 707b 97bd 8aa5 57bd 31ec c13c
00000300: 4310 a6bc ff9f 0cbe 7a26 7cbe 7e93 b33d
00000310: 015b 8fbd f286 1d3e 1eb1 f5bc 59b5 48bd
00000320: 21ad 12be d0a1 813e a29d 6bbe 6ae9 073e
00000330: c0b5 e33d 2957 283e 43a0 033d 93f0 19be
00000340: 7f87 043e a633 003e 5e5c a33d 0cf1 013e
00000350: 323d c13d 56ca 00bd be00 9d3c 7566 24bc
00000360: 4759 8cbd 1d7c d3bd 0db8 e83d f211 b23a
00000370: 6784 1dbd 77a0 0cbe efa1 70bc a154 9dbd
00000380: c10a 9c3c 9bae 3ebd 24fd 04be c331 26bd
00000390: 6dcb 863d 8fd1 963e 5423 b6be 8e5e 8a3d
000003a0: 2076 fbbc 69df 503e 9581 1f3e f2a6 a6bc
000003b0: 185a 043e 8de8 0c3e 8e92 8fbe 8d5e 4cbd
000003c0: dbca 333e a5ff 21be b9bf 093e c487 1d3e
000003d0: 9086 003e 0aeb 9bbc dde3 ecbd 4426 e73c
000003e0: d32d eebd 883d 833b d263 61bd e45e cb3e
000003f0: 6c9c a03c de8a 0d3e 4a95 0e3e d9ac ce3d

fcnn.0.bias f4 [256]
0.10828521 -0.02450833 0.13354203 0.08508761 0.02813408 -0.026550997 0.09181478 -0.018080534
0.09159465 -0.14710465 0.07508978 -0.08801413 -0.060350128 0.17261024 -0.16698019 -0.019803755
0.14587109 0.15219222 -0.15030196 -0.06456951 0.18978095 0.22214714 -0.068881676 0.22685918
-0.01832409 -0.11984196 -0.10720849 0.15192653 0.008934288 -0.033302147 -0.027222153 0.10897029
-0.22248237 0.07211071 -0.2146289 -0.08904786 0.18469037 -0.069631025 -0.08455414 0.26753467
0.046903778 0.15545832 0.12588125 0.020100629 0.03608991 -0.20416471 0.12075286 0.05885012
0.00058923644 0.15970547 0.08451455 -0.07641629 -0.10966558 0.102506995 -0.06727367 -0.06430453
0.22738658 0.022981007 -0.02879574 -0.078041725 -0.11394001 0.035733916 -0.07729729 -0.026139693
-0.05761434 0.035091054 0.10277884 0.0023511704 -0.3067482 0.071919054 -0.04208256 0.2959953
-0.14506844 0.13588645 0.13033219 -0.19179922 -0.050855413 0.27504966 0.0029900414 0.022698784
0.20797944 0.261486 -0.0991181 0.16194688 0.017542185 0.092788145 0.12592822 -0.0474876
-0.1221744 -0.15709181 0.0031889363 0.14083228 -0.013236282 0.11240423 -0.18051717 0.15366486
0.09938127 -0.104783006 -0.09001092 -0.011943998 -0.1909428 -0.14515068 0.0028523155 0.11281908
0.16941574 0.12912776 0.007272462 0.13142966 -0.26738548 -0.016006349 0.22462936 0.0015948503
0.12564817 0.011563739 0.07307955 0.024427015 -0.05923686 -0.046442743 -0.21145062 0.11862367
-0.124555446 -0.02454126 -0.073684275 0.21508954 -0.081514984 -0.14263608 -0.20835614 0.16351548
0.013519337 -0.11262658 -0.13351947 -0.18614987 -0.17073481 0.040684156 -0.1865017 0.115708746
0.14024729 0.26767924 0.18173113 -0.028489938 -0.1550164 0.08903657 0.26587173 -0.2496634
-0.061974507 -0.04915285 0.15312149 0.0123423785 -0.19121264 -0.06423982 -0.022548825 0.09954142
0.1580377 -0.06987732 0.19243276 -0.04959275 0.3007516 -0.090820625 0.002187613 0.11871423
0.18529385 -0.12747951 0.14033513 0.0022330952 0.16681868 -0.10089399 0.06589482 0.14556132
-0.010361394 0.20390946 -0.15988442 0.18861155 0.02307097 0.03381545 0.06373697 0.12253849
0.086658016 -0.19885053 -0.057803426 -0.10414721 -0.1852274 -0.06108639 0.027052544 0.13506702
0.055646993 0.15803532 0.13765855 0.026867172 -0.025449937 -0.094169304 -0.07372613 -0.006142866
-0.036595315 0.13472652 -0.08684293 -0.046513055 0.09779957 0.034064244 0.014601099 0.19671787
-0.09982073 -0.15596376 -0.13031587 -0.19266367 -0.20136307 -0.047300316 -0.06254806 -0.116151355
-0.078127496 -0.18758655 -0.10813207 -0.15943673 -0.06536609 0.1756615 0.21054575 0.023957742
-0.10890697 0.045434535 0.08992333 -0.14962399 0.094890185 -0.14620027 0.0027444111 -0.17813337
0.08827177 -0.1895786 -0.16534999 0.025020586 0.02950216 -0.23695664 0.27900934 -0.12669297
0.16257262 0.17581306 -0.00043389594 -0.0705658 -0.043635655 -0.10310702 0.114238106 0.0056680166
-0.07258393 -0.06301197 0.22154918 -0.08114148 0.17772537 -0.061659 -0.14240593 -0.14472601
0.13340656 0.12406585 0.08241638 -0.079177134 0.1013581 0.1418701 0.16903605 0.15485153
00000000: a3c4 dd3d b1c5 c8bc 3ebf 083e 6a42 ae3d
00000010: 7179 e63c 7a81 d9bc 6309 bc3d a11d 94bc
00000020: fa95 bb3d 9aa2 16be acc8 993d c140 b4bd
00000030: b231 77bd bdc0 303e dbfc 2abe 7c3b a2bc
00000040: 3b5f 153e 47d8 1b3e c2e8 19be 053d 84bd
00000050: f055 423e 8a7a 633e d611 8dbd c64d 683e
00000060: 671c 96bc b46f f5bd 2090 dbbd a192 1b3e
00000070: 1f61 123c d567 08bd fe00 dfbc d12b df3d
00000080: 6bd2 63be c8ae 933d aec7 5bbe b95e b6bd
00000090: 791f 3d3e b69a 8ebd b92a adbd 4efa 883e
000000a0: 2d1e 403d 7730 1f3e 04e7 003e 13aa a43c
000000b0: 03d3 133d 8e10 51be 474d f73d d30c 713d
000000c0: fd76 1a3a d589 233e f715 ad3d 2580 9cbd
000000d0: 5998 e0bd 30ef d13d c7c6 89bd 18b2 83bd
000000e0: 07d8 683e aa42 bc3c 0be5 ebbc 57d4 9fbd
000000f0: 6159 e9bd ba5d 123d 0b4e 9ebd e922 d6bc
00000100: 04fd 6bbd a3bb 0f3d b67d d23d 1816 1a3b
00000110: 1a0e 9dbe 4c4a 933d c35e 2cbd b28c 973e
00000120: d28c 14be d125 0b3e cd75 053e 0467 44be
00000130: c44d 50bd 4fd3 8c3e 92f4 433b cdf2 b93c
00000140: 90f8 543e 7ee1 853e 6efe cabd 67d5 253e
00000150: a1b4 8f3c b607 be3d 54f3 003e 5c82 42bd
00000160: 9236 fabd addc 20be 79fd 503b 5636 103e
00000170: fedc 58bc 3034 e63d 7ed9 38be 525a 1d3e
00000180: 6888 cb3d 7998 d6bd a557 b8bd c2b0 43bc
00000190: 8286 43be 61a2 14be eaed 3a3b b10d e73d
000001a0: 527b 2d3e 113a 043e d54d ee3b 7f95 063e
000001b0: c0e6 88be bf1f 83bc 3d05 663e 4c0a d13a
000001c0: eaa9 003e d675 3d3c bbaa 953d 2a1b c83c
000001d0: 5aa2 72bd bf3a 3ebd 8386 58be f7f0 f23d
000001e0: ed16 ffbd c10a c9bc c8e7 96bd 6f40 5c3e
000001f0: 54f1 a6bd 310f 12be 505b 55be 9a70 273e
00000200: 3680 5d3c c4a8 e6bd 54b9 08be 129e 3ebe
00000210: 1bd5 2ebe 6ea4 263d 4dfa 3ebe b5f8 ec3d
00000220: fc9c 0f3e 410d 893e ba17 3a3e bb63 e9bc
00000230: 9fbc 1ebe ce58 b63d 5720 883e c3a7 7fbe
00000240: fbd8 7dbd 8054 49bd e1cb 1c3e b037 4a3c
00000250: 3fcd 43be 2b90 83bd 50b8 b8bc 5fdc cb3d
00000260: a3d4 213e d71b 8fbd 180d 453e c421 4bbd
00000270: 1dfc 993e 2a00 babd 0e5e 0f3b 7220 f33d
00000280: acbd 3d3e fd89 02be 03b4 0f3e 1f59 123b
00000290: 84d2 2a3e 82a1 cebd ddf3 863d 070e 153e
000002a0: d6c2 29bc a4cd 503e beb8 23be 6323 413e
000002b0: 55ff bc3c 1282 0a3d 8788 823d 76f5 fa3d
000002c0: c279 b13d 799f 4bbe 49c3 6cbd 224b d5bd
000002d0: 40ac 3dbe b935 7abd 4c9d dd3c 024f 0a3e
000002e0: 1aee 633d 03d4 213e 5df6 0c3e 8b18 dc3c
000002f0: 637c d0bc d6db c0bd bafd 96bd 184a c9bb
00000300: f8e4 15bd c0f5 093e b5da b1bd 7984 3ebd
00000310: 244b c83d f386 0b3d 7339 6f3c 6970 493e
00000320: d06e ccbd f7b4 1fbe 8671 05be a049 45be
00000330: 1f32 4ebe fabd 41bd 3319 80bd c3e0 edbd
00000340: 4f01 a0bd b016 40be 5974 ddbd 6243 23be
00000350: a8de 85bd 9ce0 333e 4e99 573e 0743 c43c
00000360: 9e0a dfbd 9019 3a3d b929 b83d 0837 19be
00000370: c955 c23d 86b5 15be 94db 333b 9868 36be
00000380: d4c7 b43d e420 42be 8251 29be f9f7 cc3c
00000390: 84ae f13c c3a4 72be 50da 8e3e cdbb 01be
000003a0: 7079 263e 5708 343e 877c e3b9 cd84 90bd
000003b0: 4dbb 32bd c629 d3bd abf5 e93d c5ba b93b
000003c0: e2a6 94bd 6b0c 81bd cadd 623e 812d a6bd
000003d0: a4fd 353e 268e 7cbd dcd2 11be 0e33 14be
000003e0: bb9b 083e 3d16 fe3d ebc9 a83d 9f27 a2bd
000003f0: d694 cf3d 6546 113e c917 2d3e 6691 1e3e

fcnn.2.weight f4 [128, 256]
0.031053847 0.0011754746 -0.083063826 -0.062979706 -0.36202276 0.106004395 -0.074547395 -0.014232971
-0.03688097 -0.036551174 -0.06887433 -0.0019537348 -0.19095859 0.06536738 0.012025473 -0.037552338
-0.040284295 -0.05833283 -0.072399974 0.020476533 -0.06657555 -0.22774711 -0.008312044 0.0020865714
-0.06721847 -0.019723909 0.06453249 0.47155645 0.006280735 -0.013431071 -0.01929877 0.17603989
0.15534034 -0.2920548 0.0104698315 -0.019314248 -0.27010307 -0.044212382 0.05696472 -0.036527384
0.1343419 0.0801943 0.004556686 0.033156943 0.028180482 -0.038333677 -0.2631906 0.031463325
-0.26072145 -0.005136237 0.11020409 0.30588916 0.011241911 0.05398324 -0.03489064 0.04083884
-0.028788988 -0.027329823 -0.08659421 -0.013933368 -0.26553714 -0.019186424 0.020014178 0.0041105687
0.0024617976 -0.011461371 0.019082563 -0.37764928 0.005955529 -0.04886816 0.073133044 0.052691333
-0.02584708 0.0134419445 -0.033458967 0.051970392 -0.03548122 -0.4060323 0.010076578 0.12198368
0.039621506 0.31469387 -0.030244298 -0.012643374 0.057784446 -0.06063705 0.010004776 0.009396549
-0.10929846 0.02574825 0.0035842732 -0.120179705 -0.06062837 -0.24242462 -0.044464163 0.020202668
0.023558885 0.03420379 0.0005465814 -0.057529397 0.061211217 -0.024393229 0.016113967 0.04712313
0.02643247 -0.39846075 0.3027831 0.060051423 0.028254025 0.16405596 -0.083042376 0.03333812
-0.008701823 0.0038043836 0.050448954 0.022411382 0.0021798017 0.03930217 -0.026316378 -0.038689364
-0.018500041 -0.07536297 0.032030422 -0.028006585 0.14775771 0.02081583 -0.028396102 -0.08696742
-0.0129968105 0.06055749 0.013561874 -0.013899603 -0.032989986 -0.03362117 0.0042063408 -0.28709647
0.03684468 -0.099639185 0.07071722 0.07670981 0.15932915 0.10776545 -0.5033308 -0.015631225
0.0019585937 0.018742869 0.061214488 -0.12128856 0.05915659 0.0069590705 -0.0359022 0.053312123
-0.014418204 -0.06809634 0.030598193 0.04689679 0.119352415 0.0076796883 -0.013516734 0.033692703
-0.000412949 -0.31774178 0.03816286 -0.002552995 -0.1485165 -0.019961582 0.030621601 -0.029054368
-0.027020235 0.1560529 -0.028095886 0.05551351 -0.027753094 -0.23039925 0.049854964 0.04406355
-0.060593788 0.022753207 -0.056496248 -0.0037015853 -0.024960341 0.021865405 0.04033859 -0.46600968
0.0674677 0.026241709 -0.014755197 0.00533541 -0.14601116 0.034779977 -0.07922077 0.0055904547
-0.04411214 0.023245208 0.03357892 -0.2410311 -0.07320912 0.036699347 0.013856702 0.1354843
-0.025031079 0.036528178 0.032006342 -0.009298368 -0.01917654 0.019852957 -0.020221973 0.06427618
-0.029029045 0.046785478 -0.017590126 0.028579358 -0.0392246 -0.3095413 0.03472928 0.039270677
-0.02061965 0.005271399 -0.015473415 -0.0486722 0.06511566 -0.028988523 -0.3608264 0.05004773
0.014193554 -0.03012311 0.03320115 0.063515246 0.0317234 -0.04430837 -0.0126662105 0.06252533
-0.034537796 -0.012830048 -0.053885125 -0.029590033 -0.055383135 0.017279088 -0.026413808 -0.016940812
0.06546814 0.07495716 0.045800325 -0.0449983 -0.11411948 -0.112376906 0.05830566 -0.1905659
-0.2637305 0.027028538 0.015428448 -0.052157138 0.1252502 0.044359464 -0.006585634 0.0078548435
00000000: a364 fe3c 6212 9a3a 5e1d aabd 81fb 80bd
00000010: 0c5b b9be d518 d93d 4eac 98bd 6831 69bc
00000020: 8010 17bd afb6 15bd fc0d 8dbd 3b0a 00bb
00000030: a68a 43be 55df 853d 7d06 453c 7bd0 19bd
00000040: 2501 25bd 68ee 6ebd 7046 94bd 67be a73c
00000050: c358 88bd 8a36 69be 3d2f 08bc dcbe 083b
00000060: d6a9 89bd 0994 a1bc 9c29 843d d96f f13e
00000070: a0ce cd3b ff0d 5cbc 7418 9ebc cd43 343e
00000080: 8a11 1f3e 3588 95be a889 2b3c ea38 9ebc
00000090: f34a 8abe 0b18 35bd d753 693d bd9d 15bd
000000a0: ec90 093e e93c a43d 4150 953b 93cf 073d
000000b0: c1da e63c c603 1dbd ebc0 86be b0df 003d
000000c0: 487d 85be e14d a8bb afb2 e13d 819d 9c3e
000000d0: fe2f 383c 881d 5d3d 7de9 0ebd a146 273d
000000e0: e2d6 ebbc cbe2 dfbc 4e58 b1bd c848 64bc
000000f0: 7cf4 87be d92c 9dbc c6f4 a33c f3b1 863b
00000100: 1c56 213b 79c8 3bbc 0953 9c3c 3f5b c1be
00000110: 9926 c33b fb29 48bd c7c6 953d ded2 573d
00000120: 41bd d3bc 9a3b 5c3c 450c 09bd e8de 543d
00000130: c154 11bd 77e3 cfbe 3b18 253c 94d2 f93d
00000140: 294a 223d 8e1f a13e e4c2 f7bc 2726 4fbc
00000150: 62af 6c3d 8e5e 78bd 12eb 233c fcf3 193c
00000160: dfd7 dfbd feed d23c 20e6 6a3b c720 f6bd
00000170: 7455 78bd 293e 78be 0e20 36bd 1180 a53c
00000180: 90fe c03c 4619 0c3d 7548 0f3a f2a3 6bbd
00000190: 9db8 7a3d 4fd4 c7bc 7001 843c 2f04 413d
000001a0: e888 d83c 0c03 ccbe 6306 9b3e 7bf8 753d
000001b0: fc74 e73c 49fe 273e 1f12 aabd 8d8d 083d
000001c0: 1792 0ebc f752 793b 90a3 4e3d 1398 b73c
000001d0: 01db 0e3b 50fb 203d 7295 d7bc bd78 1ebd
000001e0: 668d 97bc e757 9abd 5532 033d 116e e5bc
000001f0: cc4d 173e f685 aa3c f19e e8bc fa1b b2bd
00000200: 93f0 54bc 210b 783d 9f32 5e3c 29bb 63bc
00000210: 8220 07bd 5ab6 09bd 58d5 893b 4ffe 92be
00000220: 72ea 163d a10f ccbd 31d4 903d 081a 9d3d
00000230: 2e27 233e 22b4 dc3d 4ada 00bf 0e0d 80bc
00000240: c05b 003b a58a 993c 0bbc 7a3d 2366 f8bd
00000250: 2e4e 723d ea08 e43b 2f0e 13bd d05d 5a3d
00000260: 553a 6cbc 1876 8bbd 10a9 fa3c d916 403d
00000270: 0a6f f43d e5a5 fb3b 4b75 5dbc 5c01 0a3d
00000280: 1481 d8b9 0daf a2be a950 1c3d 2650 27bb
00000290: b614 18be 7986 a3bc 27da fa3c 6d03 eebc
000002a0: 8a59 ddbc 55cc 1f3e 5829 e6bc 2262 633d
000002b0: 755a e3bc c8ed 6bbe b834 4c3d fb7b 343d
000002c0: 3131 78bd ef64 ba3c 9c68 67bd 4c96 72bb
000002d0: a179 ccbc 141f b33c 143a 253d d298 eebe
000002e0: 812c 8a3d daf8 d63c c8bf 71bc aad4 ae3b
000002f0: f383 15be 7375 0e3d 803e a2bd 2230 b73b
00000300: eeae 34bd bc6c be3c 0d8a 093d dbd0 76be
00000310: aaee 95bd 0e52 163d 3807 633c 65bc 0a3e
00000320: fa0d cdbc 929e 153d 1519 033d 2f58 18bc
00000330: 1f18 9dbc aba2 a23c 8da8 a5bc 3ba3 833d
00000340: 52ce edbc 21a2 3f3d 2b19 90bc 421f ea3c
00000350: f9a9 20bd 337c 9ebe 4a40 0e3d 4ada 203d
00000360: 8aea a8bc b3bb ac3b 3584 7dbc 805c 47bd
00000370: 5c5b 853d 5779 edbc 3dbe b8be d9fe 4c3d
00000380: 158c 683c bec4 f6bc eefd 073d 4814 823d
00000390: 65f0 013d b27c 35bd f085 4fbc 480d 803d
000003a0: 8177 0dbd 1f35 52bc a6b6 5cbd cc66 f2bc
000003b0: 6dd9 62bd e08c 8d3c c561 d8bc 75c7 8abc
000003c0: 2914 863d 2483 993d 1f99 3b3d 2350 38bd
000003d0: 79b7 e9bd dd25 e6bd ead1 6e3d b523 43be
000003e0: af07 87be f46a dd3c 9ac7 7c3c b9a2 55bd
000003f0: 9741 003e 45b2 353d 4dcc d7bb 9ab1 003c

fcnn.2.bias f4 [128]
0.022620343 0.0946978 -0.053909976 0.0072847186 -0.07337552 -0.050290693 -0.038132526 -0.015175301
0.035930336 -0.029117955 -0.041976206 0.0029498404 0.05351883 0.03441271 -0.04816971 -0.046947304
-0.032683596 0.032295343 0.04356916 -0.045281645 -0.056959357 0.0016758 0.024105227 0.13698253
0.08971908 -0.0031792407 -0.028545287 -0.02419886 -0.06922211 0.0052553862 0.041630283 -0.022700831
-0.0720981 -0.07012815 -0.08195638 -0.05546876 -0.050928444 0.024627846 0.12704234 0.09228585
-0.1490856 0.13756956 0.0152981095 -0.033505816 0.016803913 0.02688958 0.07534454 0.0032566602
-0.008244779 0.034266047 0.038232297 -0.079873055 0.08727529 -0.04168356 -0.02083594 0.07328781
-0.04401097 -0.046377406 -0.006814749 -0.03697838 0.061126288 0.033727422 0.022541989 0.009676769
0.04916737 -0.008265592 -0.036818814 -0.005133953 0.07962761 0.06778388 -0.023574784 -0.033074
-0.006861206 0.057919495 -0.018876981 0.1339344 0.02540334 -0.0021491533 0.00053122407 0.021872502
0.051048327 -0.013355593 0.08690412 0.057814173 -0.04266043 0.01600074 0.042707033 0.12165731
0.12039213 0.040308435 -0.033683006 0.08089864 0.042195503 -0.049231596 0.12048173 0.058046028
0.02994274 -0.048244867 -0.005398967 0.049908604 -0.00056123897 0.07359511 -0.034484472 -0.014456193
0.07540164 -0.022859458 0.079708755 0.0056175436 -0.04898528 0.049736373 0.049728233 -0.055595893
-0.05595465 0.024843097 0.10225727 0.05076556 -0.05644544 -0.03758121 -0.034232937 -0.03546748
0.0004757073 0.04919466 0.06333927 0.019608734 -0.040112942 0.07198199 0.071976855 -0.0045253653
00000000: 4c4e b93c ecf0 c13d b5d0 5cbd a6b4 ee3b
00000010: e845 96bd 9dfd 4dbd da30 1cbd d3a1 78bc
00000020: b02b 133d c788 eebc 3eef 2bbd 1c52 413b
00000030: 9036 5b3d 58f4 0c3d 9a4d 45bd d14b 40bd
00000040: 3cdf 05bd 1f48 043d 9375 323d 3f79 39bd
00000050: 374e 69bd 84a6 db3a 5378 c53c 2645 0c3e
00000060: a3be b73d cf5a 50bb ced7 e9bc b03c c6bc
00000070: 52c4 8dbd 6035 ac3b 8484 2a3d 18f7 b9bc
00000080: 2ba8 93bd 599f 8fbd bfd8 a7bd 3633 63bd
00000090: 589a 50bd 56c0 c93c 6317 023e 5d00 bd3d
000000a0: e5a9 18be 09df 0c3e eca4 7a3c 653d 09bd
000000b0: 5ca8 893c 8947 dc3c 3d4e 9a3d b16d 553b
000000c0: 1c15 07bc 8e5a 0c3d 7899 1c3d 7c94 a3bd
000000d0: 63bd b23d 61bc 2abd 22b0 aabc eb17 963d
000000e0: d944 34bd 3cf6 3dbd 424e dfbb a476 17bd
000000f0: 8f5f 7a3d c425 0a3d faa9 b83c 508b 1e3c
00000100: b963 493d 686c 07bc 53cf 16bd b83a a8bb
00000110: cd13 a33d 46d2 8a3d e81f c1bc 9a78 07bd
00000120: f8d3 e0bb fe3c 6d3d e6a3 9abc 1926 093e
00000130: aa1a d03c cfd8 0cbb d841 0b3a f62d b33c
00000140: 0d18 513d 6bd1 5abc cafa b13d 8ece 6c3d
00000150: b4bc 2ebd fc13 833c 92ed 2e3d 7827 f93d
00000160: 2690 f63d 751a 253d 31f7 09bd 30ae a53d
00000170: 31d5 2c3d 12a7 49bd 20bf f63d acc1 6d3d
00000180: 7a4a f53c 699c 45bd d1e9 b0bb f76c 4c3d
00000190: 1c20 13ba 08b9 963d 973f 0dbd abd9 6cbc
000001a0: 2d6c 9a3d c243 bbbc 583e a33d 5f13 b83b
000001b0: caa4 48bd 5eb8 4b3d d5af 4b3d 85b8 63bd
000001c0: b430 65bd c083 cb3c 426c d13d 8cef 4f3d
000001d0: 5533 67bd c1ee 19bd d637 0cbd 5946 11bd
000001e0: 5a68 f939 5780 493d 05b8 813d 7fa2 a03c
000001f0: 784d 24bd 4b6b 933d 9a68 933d 8449 94bb

fcnn.4.weight f4 [64, 128]
0.10817904 -0.12793963 0.13177288 0.10393554 0.032902114 0.14235897 0.065291405 -0.03443652
-0.03864018 0.0973932 0.12055692 -0.029127195 0.030970622 -0.04878254 0.08768218 0.062694535
0.0336609 0.12987581 0.009375443 -0.06922391 0.006045173 -0.01125909 -0.02432989 -0.5861952
-0.4651475 0.107399516 0.034285918 -0.03751646 0.092582546 -0.06593983 -0.058258004 0.2852372
0.048660003 -0.038280975 0.17350098 -0.0077993996 0.028276162 -0.011853014 -0.12762801 -0.36890396
-0.004458522 -0.66242564 -0.17509982 0.026679652 0.09959409 -0.14849432 -0.21058762 -0.029311158
-0.02104709 -0.10699834 -0.37651825 0.029452762 -0.63611335 0.118025675 0.11709209 0.28452265
-0.017007953 -0.019321239 0.36526883 0.12993665 0.042951748 -0.0414078 -0.1538239 0.23630665
0.033605434 -0.043892507 -0.00849295 -0.1262528 -0.17547712 -0.37712798 -0.04120909 -0.007691174
0.04327926 -0.12386399 0.107934944 -0.103354365 -0.057907518 0.16260135 0.25678647 -0.44016623
-0.10285227 -0.008212162 -0.13480142 -0.15026942 0.0465788 0.024961706 0.25450972 0.031584706
-0.17031422 0.083905995 0.13297945 -0.35473093 0.06740522 -0.044255402 -0.12617289 0.027720476
-0.031624425 -0.009230115 0.2684057 -0.15166381 0.0185886 -0.15902044 -0.06647145 0.03615863
-0.5403823 0.14950089 -0.11484197 0.08716283 0.024541896 0.1163685 0.1360722 -0.121240765
-0.014348072 0.12387707 -0.19636865 -0.03260473 0.038068008 0.03289252 -0.019485265 -0.110452615
0.20699973 -0.48966098 0.08412796 -0.018528963 0.0040343273 -0.03705459 -0.093497425 0.062605426
-0.043555263 -0.061380308 -0.014161385 0.009403889 -0.053653877 -0.0053033717 -0.008437784 -0.0089216465
-0.027161224 -0.07345117 -0.03942474 0.03648067 -0.07413737 0.0013528746 0.068499975 -0.020742128
-0.09599778 -0.10387817 0.07003374 0.04700324 -0.07726644 -0.110190205 -0.036420062 0.056539565
0.16733679 -0.015561754 -0.08042047 -0.025626983 -0.053188466 0.08397714 -0.11178901 -0.08175956
-0.049242828 -0.09778996 -0.044709153 -0.039133213 0.014451602 0.08157653 -0.059514653 -0.005291181
0.043222588 0.051791895 -0.055471662 0.024501 0.00654506 -0.1317631 -0.007294354 -0.07644707
0.067988135 0.06338314 0.009038315 0.06500656 -0.07612844 0.017586764 -0.09044089 -0.062342934
-0.09419883 0.059555035 -0.04520214 -0.020400716 0.1926643 0.007520494 -0.11815457 -0.13984795
0.09610969 -0.020297322 0.025324335 -0.060338873 0.009075426 -0.048587065 -0.028586276 -0.031611014
-0.106062755 0.0014903308 0.008491106 -0.13867576 -0.0018372788 -0.026858522 0.039119735 -0.02259511
-0.036423087 -0.04752677 -0.0042379578 0.043609258 -0.0018140005 -0.0134672765 -0.12798896 0.0016743924
-0.09973643 0.010201485 -0.105727755 0.044439312 -0.011265507 -0.04364001 0.019082936 -0.03836741
-0.025922034 -0.037339315 -0.04686801 0.047248177 -0.06218128 -0.012645049 -0.0914234 -0.018329661
0.07947039 -0.011530042 -0.08847407 0.005564599 -0.08861636 -0.010931084 -0.054982845 -0.024801368
-0.009937445 0.021132365 -0.026011832 0.027380645 0.034271028 -0.08764264 0.06960348 -0.01300428
-0.132703 -0.06972247 0.007334747 -0.037456412 0.048359934 0.01850086 -0.027679883 0.007326171
00000000: f98c dd3d 9b02 03be 78ef 063e 28dc d43d
00000010: 5ec4 063d 8dc6 113e 80b7 853d 4f0d 0dbd
00000020: 2a45 1ebd 1676 c73d 8ce6 f63d 289c eebc
00000030: 1ab6 fd3c 33d0 47bd b792 b33d fe65 803d
00000040: 03e0 093d 2afe 043e 759b 193c 44c5 8dbd
00000050: 9616 c63b 0c78 38bc 7a4f c7bc e310 16bf
00000060: d027 eebe 47f4 db3d 646f 0c3d dcaa 19bd
00000070: eb9b bd3d 760b 87bd f29f 6ebd 9c0a 923e
00000080: b64f 473d 83cc 1cbd 3eaa 313e 1b92 ffbb
00000090: 69a3 e73c 2533 42bc ebb0 02be fbe0 bcbe
000000a0: cb18 92bb ba94 29bf 5e4d 33be 498f da3c
000000b0: fcf7 cb3d e50e 18be 48a4 57be f41d f0bc
000000c0: f26a acbc f221 dbbd 00c7 c0be eb46 f13c
000000d0: 53d8 22bf 72b7 f13d facd ef3d f4ac 913e
000000e0: 4354 8bbc 9347 9ebc 8404 bb3e 1d0e 053e
000000f0: 2cee 2f3d 3a9b 29bd 0384 1dbe 5ffa 713e
00000100: daa5 093d a1c8 33bd 0426 0bbc 6a48 01be
00000110: 46b0 33be eb16 c1be ddca 28bd 3e06 fcbb
00000120: 9845 313d 67ac fdbd ff0c dd3d 74ab d3bd
00000130: 6f30 6dbd f880 263e 8479 833e 785d e1be
00000140: 36a4 d2bd 4e8c 06bc 6209 0abe 3ae0 19be
00000150: 69c9 3e3d 7e7c cc3c 194f 823e f75e 013d
00000160: da66 2ebe e8d6 ab3d c42b 083e 4b9f b5be
00000170: bf0b 8a3d 2745 35bd 7733 01be 0d16 e33c
00000180: 9d88 01bd e939 17bc 796c 893e c24d 1bbe
00000190: 1f47 983c 41d6 22be 2f22 88bd 121b 143d
000001a0: 7f56 0abf c316 193e 4432 ebbd 6d82 b23d
000001b0: 160c c93c 9c52 ee3d 8356 0b3e 144d f8bd
000001c0: 2d14 6bbc 43b3 fd3d dd14 49be 8a8c 05bd
000001d0: 33ed 1b3d 4fba 063d 909f 9fbc fb34 e2bd
000001e0: bdf7 533e d8b4 fabe 484b ac3d 0dca 97bc
000001f0: 6432 843b 8ec6 17bd 947b bfbd 4637 803d
00000200: 0167 32bd eb69 7bbd 2705 68bc c512 1a3c
00000210: 2bc4 5bbd e8c7 adbb a23e 0abc 192c 12bc
00000220: 3781 debc 916d 96bd d67b 21bd c16c 153d
00000230: 55d5 97bd f052 b13a b749 8c3d 65eb a9bc
00000240: 7c9a c4bd 14be d4bd d96d 8f3d 7886 403d
00000250: de3d 9ebd 67ab e1bd 342d 15bd 0896 673d
00000260: 565a 2b3e baf6 7ebc 7db3 a4bd aeef d1bc
00000270: 26dc 59bd 35fc ab3d a3f1 e4bd 8e71 a7bd
00000280: d9b2 49bd 1a46 c8bd f220 37bd 264a 20bd
00000290: 69c6 6c3c 9911 a73d a3c5 73bd a561 adbb
000002a0: 2b0a 313d bd23 543d 4136 63bd 52b6 c83c
000002b0: f177 d63b e8ec 06be 7a05 efbb 4890 9cbd
000002c0: 5d3d 8b3d 05cf 813d 7115 143c 2922 853d
000002d0: 3ae9 9bbd 1e12 903c 1339 b9bd 4e5b 7fbd
000002e0: 51eb c0bd fbef 733d e125 39bd 671f a7bc
000002f0: ca49 453e 7a6e f63b 06fb f1bd 4d34 0fbe
00000300: 28d5 c43d 9246 a6bc fb74 cf3c e525 77bd
00000310: 18b1 143c 3b03 47bd c42d eabc 8d7a 01bd
00000320: 6e37 d9bd 3457 c33a 481e 0b3c 0501 0ebe
00000330: d9d0 f0ba 6706 dcbc 043c 203d 6119 b9bc
00000340: 6030 15bd 6eab 42bd 91de 8abb 9f9f 323d
00000350: c2c3 edba daa5 5cbc 8a0f 03be 4977 db3a
00000360: 9d42 ccbd 2124 273c cb87 d8bd ff05 363d
00000370: f692 38bc debf 32bd d153 9c3c 2527 1dbd
00000380: 725a d4bc 1cf1 18bd acf8 3fbd 4e87 413d
00000390: ccb1 7ebd 2e2d 4fbc 313c bbbd 1628 96bc
000003a0: 5fc1 a23d 80e8 3cbc e531 b5bd 3d57 b63b
000003b0: 7f7c b5bd 4a18 33bc b135 61bd 3d2c cbbc
000003c0: aad0 22bc c81d ad3c c416 d5bc 604d e03c
000003d0: c75f 0c3d fc7d b3bd 458c 8e3d e70f 55bc
000003e0: 4ce3 07be a8ca 8ebd 5158 f03b e56b 19bd
000003f0: 1115 463d 1e8f 973c ecc0 e2bc 6010 f03b

fcnn.4.bias f4 [64]
-0.004429924 0.05051544 -0.10720347 -0.1375412 0.105143696 -0.09791605 0.034784228 -0.08408403
-0.053913813 0.069169685 -0.06530878 -0.035148025 0.0615571 -0.024113484 0.0854038 -0.033913463
0.11226992 -0.11088738 -0.015186368 0.024966206 0.08393429 0.090129144 -0.0016870977 -0.004018437
0.02812365 0.059528433 -0.04291498 -0.008589259 0.09648514 -0.11032435 0.015564561 0.001225741
0.0660896 0.05198003 -0.11968335 -0.1264787 -0.0044762054 -0.0026009446 0.0014732351 -0.080777965
0.050942328 0.035498064 -0.014421092 0.068792865 0.021401284 -0.09425463 -0.03292151 -0.029063806
0.050335642 0.055847075 -0.0850561 -0.057847038 -0.055807702 -0.060462695 0.008317297 -0.021873146
-0.094685666 -0.0837228 0.0448806 -0.0767476 -0.041598126 0.059101578 0.017872386 -0.008956344
00000000: e528 91bb 47e9 4e3d 7e8d dbbd 9ad7 0cbe
00000010: 9455 d73d 3688 c8bd e879 0e3d 3f34 acbd
00000020: bbd4 5cbd d6a8 8d3d 9cc0 85bd 60f7 0fbd
00000030: 4c23 7c3d a489 c5bc 30e8 ae3d d8e8 0abd
00000040: c6ed e53d ec18 e3bd 3ed0 78bc ee85 cc3c
00000050: bee5 ab3d a195 b83d 9b21 ddba 18ad 83bb
00000060: 9263 e63c 16d4 733d 9ec7 2fbd f7b9 0cbc
00000070: 009a c53d bcf1 e1bd 8002 7f3c 0ba9 a03a
00000080: fc59 873d 03e9 543d 8b1c f5bd a283 01be
00000090: 22ad 92bb 9c74 2abb 9119 c13a eb6e a5bd
000000a0: e7a8 503d 6b66 113d 7246 6cbc 46e3 8c3d
000000b0: bf51 af3c 9208 c1bd b5d8 06bd 3817 eebc
000000c0: bf2c 4e3d e7bf 643d e431 aebd 04f1 6cbd
000000d0: 9e96 64bd bba7 77bd 4645 083c 502f b3bc
000000e0: 8fea c1bd dc76 abbd b8d4 373d d92d 9dbd
000000f0: cc62 2abd 7f14 723d 1c69 923c a1bd 12bc

fcnn.6.weight f4 [1, 64]
0.36074597 -0.12311664 -0.1682655 -0.13569896 -0.37879798 0.31152427 -0.20148128 0.24158949
-0.14887565 0.17272583 0.26478273 -0.1668592 0.18926509 0.118081614 0.17289215 -0.12122576
0.15563586 0.2116083 -0.103043266 0.28064916 0.14162047 0.11033216 -0.1071299 -0.07318682
0.1729047 0.1240972 0.18141109 0.41959992 -0.17921881 0.2385225 0.20937076 0.2502882
-0.1089633 0.1888445 -0.16944304 -0.09591347 -0.037130147 -0.11008941 -0.10742693 0.19612645
0.2514174 -0.17561637 0.14965764 0.105475165 0.14398742 0.3368411 0.41115704 -0.10612386
-0.09474927 0.1590032 -0.13153213 0.20536852 -0.16273504 0.20405702 0.2090572 -0.08524295
-0.15489015 0.3155175 0.14565189 0.23516318 0.3054753 -0.15160897 0.38046685 0.15313227
00000000: b2b3 b83e 9424 fcbd cb4d 2cbe abf4 0abe
00000010: cff1 c1be 1c80 9f3e 1c51 4ebe 3c63 773e
00000020: dc72 18be 0adf 303e 9a91 873e 23dd 2abe
00000030: b5ce 413e c6d4 f13d a40a 313e 3645 f8bd
00000040: 025f 1f3e d9af 583e 5908 d3bd 3fb1 8f3e
00000050: f504 113e d4f5 e13d ec66 dbbd f9e2 95bd
00000060: ee0d 313e ac26 fe3d d4c3 393e cdd5 d63e
00000070: 2385 37be 3e3f 743e 4a65 563e c625 803e
00000080: 2728 dfbd 7460 413e 7a82 2dbe 486e c4bd
00000090: c815 18bd 8e76 e1bd a602 dcbd 5fd5 483e
000000a0: c8b9 803e c7d4 33be da3f 193e 5d03 d83d
000000b0: 7071 133e 7076 ac3e 2d83 d23e 7757 d9bd
000000c0: e80b c2bd bcd1 223e 5cb0 06be 204c 523e
000000d0: 04a4 26be 53f4 503e 1713 563e db93 aebd
000000e0: 869b 1ebe 828b a13e c525 153e 9ece 703e
000000f0: 4267 9c3e 623f 1bbe 8dcc c23e b5ce 1c3e

exp_avg f4 [256, 27]
3.4277015 0.955812 1.8685665 3.53594 0.061258618 0.0011499013 0.051394165 0.011524015
3.2433445 0.109787025 -3.5219505e-14 1.6277238 1.1163454e-06 0.0078443745 0.06238815 3.4277015
0.0010198351 8.529293 0.046359725 1.1085019 7.3124228 5.9502277 0.00027673293 0.06586153
1.1085019 108.10282 9.509477 -0.668937 -0.2875915 -0.5924857 -1.101805 -0.01312362
0.002658498 -0.16057795 -0.19413042 -1.2705731 -0.023424448 -6.138301e-13 -0.708402 -6.3239086e-06
-0.15928636 -0.014754493 -0.668937 0.001904748 -2.7528965 -0.15670373 -0.33949953 -2.2830648
-1.940167 0.0023756241 -0.19307251 -0.33949953 -38.1957 -5.6395717 -5.5008035 0.015030522
-0.02761526 -5.4916534 -0.0075397533 -0.006701836 -0.023503318 -0.036036633 -0.18512529 -0.0050175837
1.5658653e-11 -0.09163397 -3.10255e-06 -0.02450841 -0.005467101 -5.5008035 -0.0048499913 -5.7547097
-0.022637507 -0.24989873 -5.699082 -0.51697236 -0.00012260536 -0.037713565 -0.24989873 -28.350433
-6.157795 0.019474225 -0.037547503 -0.046868704 -0.35031646 -0.05178901 -0.06915132 -0.03884731
-0.35546935 -0.19374505 -0.025530044 -1.7596559e-12 -0.021535411 -1.0898162e-06 0.0016199787 -0.029788725
0.019474225 -0.061750356 -0.4912628 0.029208168 -0.20351651 -0.34332114 -0.2324976 -0.013824799
-0.3597143 -0.20351651 -6.6139417 -7.4887486 -11.182397 -0.97689056 -1.0760036 -11.562254
-0.37118623 -0.011824912 -0.05116446 -0.076049 -0.50286555 -0.30221882 2.0218082e-11 -0.23362143
-6.629524e-06 -0.052528605 -0.36429465 -11.182397 -0.010487763 -11.996488 -0.04887827 -0.25427726
-11.859542 -4.4913244 -0.0026625984 -0.10061084 -0.25427726 -62.74296 -14.0152445 2.456416
2.8462355 5.3229256 4.8685412 0.15883033 0.0026829408 0.11430387 0.018029664 9.11444
0.24532102 6.1136276e-15 4.985275 1.338096e-06 0.01291634 0.15762162 2.456416 0.0023695447
15.993548 0.114862286 3.0742881 12.642472 12.143719 0.0007636194 0.18248713 3.0742881
241.0441 16.685026 -3.5035264 -1.2582757 -2.2978535 -4.2271233 -0.16836093 -0.11696929
-0.6371786 -0.82246834 -4.674629 -0.055059526 3.2667432e-12 -1.9332203 -6.92309e-05 -0.627543
-0.1307062 -3.5035264 -0.10248646 -10.098746 -0.59430414 -1.34298 -8.583948 -6.216793
-0.068659365 -0.87033 -1.34298 -136.95836 -28.313677 -6.4632215 -2.2723057 -4.4781413
-7.5285506 -0.0429048 -0.0029596728 -1.094517 -1.5527955 -9.185016 -0.08092921 8.98686e-15
-4.2497187 -0.00010935374 -1.115591 -0.046574004 -6.4632215 0.039430518 -19.62964 -1.0536069
-2.8539028 -16.756992 -12.879311 0.061468586 -1.6401947 -2.8539028 -274.57776 -35.839035
0.80795413 0.008228317 -0.014491232 -0.6640677 -0.07163994 -0.092885 -0.9457118 -1.5296869
-1.3015786 -0.033735327 1.0436007e-11 0.3772223 -0.00012346532 -1.0096532 -0.041954983 0.80795413
-0.081397794 0.3425045 -0.9696232 0.14282376 0.4542777 1.810469 -0.01717782 -1.5121558
0.14282376 -17.221352 -23.958977 -2.659206 -0.9758895 -2.7582364 -4.275666 -0.22172233
-0.1714855 -0.7416991 -1.1994613 -8.141731 -0.14523116 3.4838893e-13 -4.3558946 -8.5074906e-05
00000000: 765f 5b40 18b0 743f 302d ef3f d74c 6240
00000010: 51ea 7a3d 49b8 963a b082 523d 39cf 3c3c
00000020: f592 4f40 05d8 e03d 539d 1ea9 4159 d03f
00000030: 56d5 9535 b185 003c b78a 7f3d 765f 5b40
00000040: fdab 853a fc77 0841 b2e3 3d3d 64e3 8d3f
00000050: 5eff e940 4468 be40 7716 9139 69e2 863d
00000060: 64e3 8d3f a534 d842 d126 1841 753f 2bbf
00000070: 313f 93be 25ad 17bf f207 8dbf 7404 57bc
00000080: 323a 2e3b 8c6e 24be 20ca 46be 24a2 a2bf
00000090: a1e4 bfbc 1fc7 2cab d559 35bf f631 d4b6
000000a0: f71b 23be d4bc 71bc 753f 2bbf bda8 f93a
000000b0: 752f 30c0 f176 20be e2d2 adbe bc1d 12c0
000000c0: 6457 f8bf 5cb0 1b3b cdb4 45be e2d2 adbe
000000d0: 66c8 18c2 5f77 b4c0 9506 b0c0 9442 763c
000000e0: 6639 e2bc a0bb afc0 0910 f7bb 139b dbbb
000000f0: 088a c0bc 269b 13bd 7c91 3dbe 8b6a a4bb
00000100: 27bc 892d 97aa bbbd 6735 50b6 dcc5 c8bc
00000110: 5e25 b3bb 9506 b0c0 adec 9ebb 9526 b8c0
00000120: 4b72 b9bc 74e5 7fbe e15e b6c0 4d58 04bf
00000130: a08f 00b9 8a79 1abd 74e5 7fbe b0cd e2c1
00000140: a80c c5c0 6988 9f3c 69cb 19bd 66f9 3fbd
00000150: ae5c b3be b720 54bd 359f 8dbd 5b1e 1fbd
00000160: 1400 b6be 1a65 46be 6224 d1bc 49a6 f7ab
00000170: 086b b0bc cd45 92b5 7755 d43a 7c07 f4bc
00000180: 6988 9f3c f1ed 7cbd cc86 fbbe f845 ef3c
00000190: a266 50be cac7 afbe da13 6ebe 6981 62bc
000001a0: 792c b8be a266 50be 69a5 d3c0 d4a3 efc0
000001b0: 19eb 32c1 8015 7abf 7cba 89bf fefe 38c1
000001c0: 1f0c bebe 47bd 41bc d391 51bd 94bf 9bbd
000001d0: ccbb 00bf 6dbc 9abe 13d7 b12d 753a 6fbe
000001e0: 2d73 deb6 3c28 57bd d484 babe 19eb 32c1
000001f0: ded4 2bbc 9df1 3fc1 9534 48bd a130 82be
00000200: afc0 3dc1 eeb8 8fc0 fd7e 2ebb 0e0d cebd
00000210: a130 82be cbf8 7ac2 713e 60c1 eb35 1d40
00000220: b928 3640 6855 aa40 17cb 9b40 6ba4 223e
00000230: 47d4 2f3b 2618 ea3d f2b2 933c bfd4 1141
00000240: 6f35 7b3e 4344 dc27 5f87 9f40 a198 b335
00000250: 0e9f 533c 9067 213e eb35 1d40 5d4a 1b3b
00000260: 93e5 7f41 eb3c eb3d 23c1 4440 9147 4a41
00000270: ac4c 4241 a12d 483a e8dd 3a3e 23c1 4440
00000280: 4a0b 7143 ef7a 8541 c739 60c0 2e0f a1bf
00000290: 0810 13c0 9844 87c0 cf66 2cbe 988d efbd
000002a0: 231e 23bf 498d 52bf 9096 95c0 1986 61bd
000002b0: 6ae0 652c c373 f7bf 0e30 91b8 a8a6 20bf
000002c0: d9d7 05be c739 60c0 6ce4 d1bd 7794 21c1
000002d0: 5124 18bf c5e6 abbf da57 09c1 f8ef c6c0
000002e0: 489d 8cbd f2cd 5ebf c5e6 abbf 57f5 08c3
000002f0: 6982 e2c1 b6d2 cec0 756d 11c0 ef4c 8fc0
00000300: e3e9 f0c0 f2bc 2fbd 12f7 41bb 2219 8cbf
00000310: 01c2 c6bf d3f5 12c1 37be a5bd 94e4 2128
00000320: b2fd 87c0 d854 e5b8 b0cb 8ebf 62c4 3ebd
00000330: b6d2 cec0 e581 213d 8109 9dc1 97dc 86bf
00000340: 58a6 36c0 520e 86c1 a811 4ec1 7cc6 7b3d
00000350: e6f1 d1bf 58a6 36c0 f449 89c3 2c5b 0fc2
00000360: 15d6 4e3f 10d0 063c a26c 6dbc 5700 2abf
00000370: f6b7 92bd 7e3a bebd 2b1a 72bf c8cc c3bf
00000380: 219a a6bf 0e2e 0abd 9997 372d 4823 c13e
00000390: 7876 01b9 513c 81bf fdd8 2bbd 15d6 4e3f
000003a0: e3b3 a6bd c05c af3e 3a39 78bf 6440 123e
000003b0: 1697 e83e 73bd e73f 80b8 8cbc 528e c1bf
000003c0: 6440 123e 54c5 89c1 fcab bfc1 6e30 2ac0
000003d0: e5d3 79bf f286 30c0 42d2 88c0 2e0b 63be
000003e0: e599 2fbe fedf 3dbf f387 99bf 8844 02c1
000003f0: 7ab7 14be 2320 c42a 7d63 8bc0 3e6a b2b8

exp_avg_sq f4 [256, 27]
176.4856 4.114153 12.816577 151.87717 0.35301015 5.266088e-05 0.21103156 0.00081598666
29.089352 0.5184259 1.8658217e-11 43.149673 2.5424748e-10 0.00054360105 0.34300804 176.4856
5.3545802e-05 306.1849 0.02734014 6.5619555 293.51086 168.30087 5.4285298e-05 0.2193042
6.5619555 24643.32 329.97842 17.48776 0.94680923 2.591612 13.04358 0.0830997
0.00015599061 0.4333475 0.3955445 5.626289 0.0912714 9.92596e-08 5.43611 1.5544382e-08
0.30644152 0.081562154 17.48776 0.00016592053 30.327604 0.37755528 1.1133654 28.103436
15.533653 0.0004666571 0.45631838 1.1133654 3735.2585 140.96054 414.47748 1.1954966
1.2291976 414.09042 0.0032083087 0.0019954215 0.008220194 0.0095521035 0.08092186 0.02948811
5.1285974e-07 0.12446299 2.0755604e-09 0.0061435523 0.0031449173 414.47748 0.0020934886 415.45374
0.0073904716 7.5624 415.4672 7.416197 0.027565645 0.010268358 7.5624 7934.215
575.3198 0.87193286 0.012901101 0.014196549 2.8568532 0.21401773 0.17147607 0.9499947
2.639567 1.3254821 0.23446131 5.4684586e-12 0.013104761 4.023938e-08 0.05676818 0.2090221
0.87193286 0.1740711 2.996916 0.84218353 1.3411996 2.858952 0.6563042 0.18815014
2.6421862 1.3411996 772.97327 1705.1008 1137.11 24.339975 24.727495 1160.1914
11.616166 0.005414635 0.030736199 0.034379896 17.456211 17.213604 1.0857087e-07 10.633188
7.2702235e-09 0.023003757 10.779261 1137.11 0.005507045 1166.0668 0.027075069 0.41721582
1165.6763 373.6797 0.005578738 0.07106165 0.41721582 26763.184 1290.5778 175.2584
36.345478 113.56388 140.33284 2.8153021 0.00036647773 2.088499 0.0025263985 247.42525
4.7400107 7.115014e-11 160.03763 4.868452e-10 0.0017386321 2.7340074 175.2584 0.00037305205
764.101 0.21568576 49.176582 677.35114 641.30566 0.0003679857 2.1905613 49.176582
134156.67 822.4597 130.6816 6.536681 21.671082 108.02347 1.1575286 0.77219605
5.9315944 6.275278 54.83615 1.4345305 2.818877e-07 33.055515 8.392401e-07 4.391482
1.1280491 130.6816 0.7856694 297.50308 5.2915554 9.1648655 277.36063 178.47566
0.7752757 6.8355045 9.1648655 35891.24 6138.345 537.39844 27.397305 91.92213
380.39148 2.99858 0.122590244 18.248484 19.605774 226.47633 4.2701087 1.8402795e-11
141.51576 3.237001e-06 13.430902 2.934952 537.39844 0.14173529 1113.5044 16.242807
39.347935 1032.7063 618.0547 0.52931184 21.54335 39.347935 151144.33 8847.359
180.02374 0.52361065 0.5305926 259.10873 0.37723023 0.31575912 7.663482 13.000994
9.897605 0.40960896 7.773797e-08 12.252564 2.227559e-06 7.834461 0.36792165 180.02374
0.320571 493.991 7.368422 8.063079 492.07596 470.97528 0.32502037 13.061183
8.063079 13564.254 5980.306 463.02155 22.346357 81.05628 423.4731 2.7129045
1.3139805 10.466795 10.0816345 213.95479 3.1471932 1.5941587e-09 199.92998 1.351781e-06
00000000: 507c 3043 24a7 8340 b310 4d41 8ee0 1743
00000010: bfbd b43e 30e0 5c38 a818 583e f0e7 553a
00000020: feb6 e841 8fb7 043f 921e a42d 4499 2c42
00000030: 27c6 8b2f 7380 0e3a c09e af3e 507c 3043
00000040: 5e96 6038 ab17 9943 6ef8 df3c 8afb d140
00000050: 64c1 9243 064d 2843 65b0 6338 4891 603e
00000060: 8afb d140 a486 c046 3dfd a443 efe6 8b41
00000070: 1762 723f f9dc 2540 81b2 5041 2d30 aa3d
00000080: 6991 2339 b9df dd3e cf84 ca3e 8f0a b440
00000090: 80ec ba3d 8b28 d533 9df4 ad40 7586 8532
000000a0: e7e5 9c3e 0f0a a73d efe6 8b41 f4fa 2d39
000000b0: ef9e f241 ed4e c13e c282 8e3f d6d3 e041
000000c0: d889 7841 a8a9 f439 90a2 e93e c282 8e3f
000000d0: 2374 6945 e6f5 0c43 1e3d cf43 0806 993f
000000e0: 5956 9d3f 930b cf43 7d42 523b 9ec5 023b
000000f0: fead 063c 6d80 1c3c 5cba a53d 0d91 f13c
00000100: 74ab 0935 74e6 fe3d a5a1 0e31 da4f c93b
00000110: f51a 4e3b 1e3d cf43 e932 093b 14ba cf43
00000120: c52b f23b 2eff f140 cdbb cf43 7c51 ed40
00000130: 59d1 e13c 9d3c 283c 2eff f140 b8f1 f745
00000140: 78d4 0f44 fe36 5f3f 245f 533c a498 683c
00000150: afd6 3640 7727 5b3e 6c97 2f3e da32 733f
00000160: aaee 2840 66a9 a93f a016 703e 7f67 c02c
00000170: 5ab5 563c abd3 2c33 c085 683d e409 563e
00000180: fe36 5f3f b23f 323e 79cd 3f40 5799 573f
00000190: 6eac ab3f 12f9 3640 8d03 283f 6eaa 403e
000001a0: 9419 2940 6eac ab3f 4a3e 4144 3a23 d544
000001b0: 8523 8e44 45b8 c241 e9d1 c541 2006 9144
000001c0: d1db 3941 406d b13b 7bca fb3c efd1 0c3d
000001d0: 52a6 8b41 76b5 8941 7827 e933 8a21 2a41
000001e0: 90cd f931 6072 bc3c da77 2c41 8523 8e44
000001f0: 7174 b43b 23c2 9144 89cc dd3c 509d d53e
00000200: a4b5 9144 00d7 ba43 d9cd b63b c588 913d
00000210: 509d d53e 5e16 d146 7d52 a144 2742 2f43
00000220: c561 1142 b520 e342 3555 0c43 e92d 3440
00000230: cf23 c039 f8a9 0540 ef91 253b dd6c 7743
00000240: 2bae 9740 f875 9c2e a209 2043 afd2 0530
00000250: d0e2 e33a faf9 2e40 2742 2f43 3396 c339
00000260: 7706 3f44 badc 5c3e d2b4 4442 7956 2944
00000270: 9053 2044 34ee c039 2832 0c40 d2b4 4442
00000280: 2b03 0348 6c9d 4d44 7dae 0243 7e2c d140
00000290: 605e ad41 040c d842 e629 943f a4ae 453f
000002a0: 9fcf bd40 14cf c840 3858 5b42 b29e b73f
000002b0: 5a56 9734 d938 0442 2448 6135 0587 8c40
000002c0: ea63 903f 7dae 0243 a121 493f 65c0 9443
000002d0: 6c54 a940 4aa3 1241 29ae 8a43 c579 3243
000002e0: 7878 463f 74bc da40 4aa3 1241 3d33 0c47
000002f0: c3d2 bf45 8059 0644 ae2d db41 21d8 b742
00000300: 1c32 be43 bce8 3f40 9810 fb3d e5fc 9141
00000310: a0d8 9c41 f179 6243 bba4 8840 69df a12d
00000320: 0984 0d43 413b 5936 f9e4 5641 41d6 3b40
00000330: 8059 0644 0e23 113e 2430 8b44 45f1 8141
00000340: 4964 1d42 9a16 8144 8083 1a44 fb80 073f
00000350: c858 ac41 4964 1d42 159a 1348 703d 0a46
00000360: 1406 3443 590b 063f ebd4 073f eb8d 8143
00000370: 5224 c13e 2eab a13e 3f3b f540 1204 5041
00000380: 975c 1e41 44b8 d13e e7f0 a633 810a 4441
00000390: 2c7d 1536 e8b3 fa40 3a60 bc3e 1406 3443
000003a0: e221 a43e d9fe f643 1dca eb40 5f02 0141
000003b0: b909 f643 d67c eb43 1269 a63e 9bfa 5041
000003c0: 5f02 0141 04f1 5346 73e2 ba45 c282 e743
000003d0: 57c5 b241 d11c a242 8fbc d343 3aa0 2d40
000003e0: 8330 a83f fe77 2741 604e 2141 6df4 5543
000003f0: 9d6b 4940 7919 db30 13ee 4743 d76e b535

exp_avg f4 [256]
8.529294 -2.7528963 -5.7547097 -0.4912626 -11.996488 15.993547 -10.098745 -19.629639
0.3425048 -12.798137 -23.36918 0.046163257 -1.0567902 4.817542 0.4557042 -1.9145589
-0.007627991 -14.677265 -1.1062148 2.789865 -7.0954857 -1.0773755 -0.46770674 0.012939118
0.04695125 1.3536334 0.042086523 25.83602 -0.42533612 -11.550896 0.013704692 -0.13080928
36.793495 -7.3089128 15.476997 3.203194 -1.9433889 -6.293986 16.167078 -0.0599176
8.584879 5.0316844 5.0409737 -8.773285 0.7709163 0.6312018 7.2230196 -0.83364874
-21.271519 0.008343347 13.804071 14.255124 0.016471103 0.054670185 0.3034143 0.010975508
-1.0533369 0.005651201 -0.38041523 10.18226 -4.979781 -4.042855 0.2811105 0.11420298
0.05543748 -0.002368592 -0.0015592858 -1.8629717 20.896332 -1.3048493 13.873662 -0.007178678
0.013927824 -0.97157925 -3.031775 1.3543235 -0.21643214 -17.050236 -9.610675 6.1753783
-0.061724205 22.8992 8.55653 -1.5119442 4.52389 -4.5962048 -2.0836358 0.023108099
-0.44187418 -3.3019755 2.648881 -0.97786266 -2.726854 -6.2330174 -0.007764767 -1.11658
-0.9375244 1.8432482 -0.0735307 -0.10990593 27.785875 -0.2123027 0.040825173 0.02784065
7.3230915 -26.209684 8.078257 10.637648 21.288067 13.108952 -0.4386674 0.0017528167
-2.5557008 -7.1306744 -1.7860336 20.447937 3.0563672 0.69568396 15.309886 0.32763714
13.238584 -12.9858055 -0.049486037 0.72826195 4.4567614 -1.8566644 -3.7215958 -10.519046
-1.3910514 35.840973 4.05125 6.946418 1.1728562 0.68040484 -0.40834683 -19.214088
15.853104 -2.5134935 0.19886152 4.7788963 31.256966 6.1998515 -28.836523 9.878741
7.7451053 2.285505 -0.6900816 -0.28417715 2.037284 -1.9130296 -0.019853529 -3.7547731
-2.2167306 -3.0821505 13.953993 -1.2021149 3.3971417 0.034500144 0.027077312 0.024933029
15.985436 -1.4697182 -1.7753257 2.287304 -27.500402 -0.015993152 -0.14006077 0.02707201
0.023245918 3.9047964 -0.04191605 -5.2838416 -0.019764876 -1.4173428 12.043547 20.47022
-2.066367 -0.02918848 0.042544723 0.016622717 0.04799104 0.010780779 0.030601203 -6.7698483
0.037723444 2.542759 -4.949847 -1.9050926 -1.6371319 1.7526243 0.011287273 -0.59751254
0.0043357597 0.16904198 -0.019984677 -1.8706692 -1.3771129 -1.9881166 -0.37130627 14.964877
0.75041395 1.2552251 -0.62595195 4.1896753 0.06325056 0.03702486 0.7396112 9.424981
-0.038542006 3.3661232 0.1039854 0.026846243 -2.8145177 -6.2897286 0.0370746 -0.03219905
1.4114184 -5.967962 -1.0791118 -3.5734773 -5.01487 -1.2784588 6.5530915 0.16521369
0.22493601 0.09146238 0.039479807 3.6118803 2.5128818 2.0046976 -0.053980306 6.973085
1.4135695 -0.05939124 -0.31263116 4.3489285 -0.03886203 2.0101056 -0.7171613 -0.51707894
11.648661 -1.2292124 0.015889606 -1.0895941 -0.7415772 -0.4309227 0.5379348 -1.3645228
-22.382446 -6.034059 16.151917 -5.4502497 21.94147 -4.1926723 8.207592 -0.031345755
00000000: fd77 0841 742f 30c0 9526 b8c0 c686 fbbe
00000010: 9df1 3fc1 92e5 7f41 7694 21c1 8009 9dc1
00000020: ca5c af3e 2bc5 4cc1 15f4 bac1 af15 3d3d
00000030: e744 87bf 4e29 9a40 1052 e93e 4410 f5bf
00000040: 3af4 f9bb 14d6 6ac1 7298 8dbf 268d 3240
00000050: 380e e3c0 71e7 89bf 4277 efbe 98fe 533c
00000060: f44f 403d dc43 ad3f eb62 2c3d 2bb0 ce41
00000070: a8c5 d9be 78d0 38c1 a589 603c def2 05be
00000080: 8a2c 1342 9de2 e9c0 c8a1 7741 2101 4d40
00000090: f8c0 f8bf 5568 c9c0 2d56 8141 286c 75bd
000000a0: aa5b 0941 8f03 a140 a84f a140 605f 0cc1
000000b0: c55a 453f 7196 213f fa22 e740 016a 55bf
000000c0: 122c aac1 89b2 083c 7add 5c41 fd14 6441
000000d0: 68ee 863c d8ed 5f3d 1e59 9b3e 9ed2 333c
000000e0: bed3 86bf b62d b93b c9c5 c2be 89ea 2241
000000f0: 5e5a 9fc0 115f 81c0 b7ed 8f3e 41e3 e93d
00000100: 6912 633d 613a 1bbb f360 ccba db75 eebf
00000110: b02b a741 4d05 a7bf 85fa 5d41 1e3b ebbb
00000120: 8731 643c 6bb9 78bf 9a08 42c0 795a ad3f
00000130: 63a0 5dbe e266 88c1 53c5 19c1 b39c c540
00000140: 85d2 7cbd 9031 b741 8ce7 0841 6387 c1bf
00000150: b5c3 9040 1c14 93c0 4a5a 05c0 324d bd3c
00000160: 553d e2be 9153 53c0 4487 2940 3555 7abf
00000170: c784 2ec0 e174 c7c0 966f febb 18ec 8ebf
00000180: 9901 70bf 8fef eb3f 4397 96bd 5c16 e1bd
00000190: 7949 de41 e165 59be 4c38 273d 1312 e43c
000001a0: c456 ea40 6fad d1c1 8a40 0141 ce33 2a41
000001b0: f64d aa41 44be 5141 0399 e0be c5be e53a
000001c0: 9a90 23c0 7c2e e4c0 c09c e4bf 6095 a341
000001d0: 859b 4340 5818 323f 4bf5 7441 0ec0 a73e
000001e0: 3dd1 5341 dcc5 4fc1 dfb1 4abd 606f 3a3f
000001f0: ca9d 8e40 2ea7 edbf a02e 6ec0 034e 28c1
00000200: f90d b2bf 285d 0f42 d7a3 8140 0e49 de40
00000210: 2720 963f 032f 2e3f d612 d1be 74b6 99c1
00000220: 50a6 7d41 14dd 20c0 5ba2 4b3e b8ec 9840
00000230: 440e fa41 2f65 c640 33b1 e6c1 530f 1e41
00000240: e7d7 f740 b745 1240 30a9 30bf ab7f 91be
00000250: dc62 0240 27de f4bf dea3 a2bc 344e 70c0
00000260: eade 0dc0 f441 45c0 8e43 5f41 e7de 99bf
00000270: c56a 5940 0650 0d3d 3dd1 dd3c 5a40 cc3c
00000280: 59c4 7f41 ba1f bcbf df3d e3bf 3063 1240
00000290: d300 dcc1 1204 83bc 176c 0fbe 1fc6 dd3c
000002a0: 396e be3c 2fe8 7940 2ab0 2bbd 3b15 a9c0
000002b0: f3e9 a1bc 7d6b b5bf 5eb2 4041 03c3 a341
000002c0: 5b3f 04c0 ae1c efbc 6043 2e3d 5d2c 883c
000002d0: 4192 443d dda1 303c 60af fa3c 99a2 d8c0
000002e0: e683 1a3d 90bc 2240 2665 9ec0 13da f3bf
000002f0: 8a8d d1bf fe55 e03f 41ee 383c 95f6 18bf
00000300: fd12 8e3b 5719 2d3e e8b6 a3bc 1772 efbf
00000310: 3c45 b0bf 9b7a febf db1b bebe 2370 6f41
00000320: 211b 403f 37ab a03f 633e 20bf d211 8640
00000330: 8289 813d 61a7 173d 2957 3d3f b9cc 1641
00000340: 39de 1dbd 906e 5740 4cf6 d43d a7ec db3c
00000350: 0f21 34c0 7545 c9c0 89db 173d 27e3 03bd
00000360: 5ca9 b43f 8bf9 bec0 5620 8abf dab3 64c0
00000370: d179 a0c0 8aa4 a3bf edb2 d140 c72d 293e
00000380: a055 663e a150 bb3d 94b5 213d 0c29 6740
00000390: 0ed3 2040 f74c 0040 741a 5dbd 8323 df40
000003a0: d8ef b43f 3b44 73bd 3111 a0be 6c2a 8b40
000003b0: cb2d 1fbd 92a5 0040 e297 37bf 495f 04bf
000003c0: ea60 3a41 d556 9dbf eb2a 823c d277 8bbf
000003d0: 01d8 3dbf e6a1 dcbe 18b6 093f afa8 aebf
000003e0: 400f b3c1 0317 c1c0 2037 8141 7268 aec0
000003f0: 2188 af41 5f2a 86c0 4c52 0341 6864 00bd
