experiments/tcnn-abilities/models/SmallBTCNN_SmallFCNN_5.pth (torch, 57266 bytes, 15 tensors)

btcnn.layers.0.conv1d.weight f4 [27, 27, 3]
00000000: 8770 dbbd d586 7c3c d555 d53c 470d 1ebc
00000010: 9faf 3ebf a3fa dcbd 47bb 4bbe 0623 1b3f
00000020: 9b12 eabe 9219 b3bd 77a5 5a3e 6948 1cbf
00000030: 8ef5 773b 248c 2ebf 952c f9bc 7272 ca3b
00000040: 440a b4bd 8e83 abba 3248 243d c418 923e
00000050: 553c 5fbd 29a3 a93d d6fc 26be cecf 773d
00000060: ab0e 123c aede bdbd d26b 58bd 7d16 40bd
00000070: 1dba 4b3e 64be 6a3c f52d 5dbd 1ddd c93d
00000080: 80bc d0bc 9d3a a5bd 02b8 bfbd 7572 9cbd
00000090: 2e26 95bd f4d3 cbbd 3d4f b2bd 07e9 91bc
000000a0: 8a40 8bbe ab4a 70b9 ae99 583d f92d f53e
000000b0: 7d87 5dbd 1def 1dbb 7444 1c3e cd31 6f3e
000000c0: f9b3 a8bd e49e 0e3c 3b26 debd ab87 b9bc
000000d0: 0e82 4e3c 0e82 723c dd42 343d cffe c0be
000000e0: 9502 943c 022d 403e da45 22be 5db2 403e
000000f0: 5e79 293e 4b04 88be 00c5 bb3d 54b9 e53e
00000100: 71aa 9ebc fda9 433e 80f6 133d 07e9 8a3c
00000110: e4db 1a3c abe2 21bc 1e50 dc3d bdf0 273d
00000120: a7c2 d23e 5981 86bd ec5b 893e ffca e7bc
00000130: 6535 04bd fdc7 5e3e e046 4cbe 1375 dfbd
00000140: 21b8 7f3e 1dc8 983b 6d8d 59be 5263 47bd
00000150: a1f5 0bbe 93b7 7ebe 4c5f 6d3d ff6f acbe
00000160: 41b8 813d b97b 6a3c 4741 973d 171e f5bd
00000170: 0611 fcbe b27b 873d 08ce 9fbe ce11 a0bc
00000180: 82dd bd3d e7a7 9fbd 52e9 353d 9dde 4c3c
00000190: d038 093d 80da 723d 6d9b 89be c549 c1bd
000001a0: c932 d53d 8386 223d b58a 2b3d a6d6 0fbe
000001b0: 24a0 74be c0a5 aabe 3d9d 29bd 775d 9bbd
000001c0: 8662 5d3d b73c d23d 6543 843d 03b1 fcbe
000001d0: 98f5 49be 4b36 00bd 15ac 00bd 8b71 c53d
000001e0: b15a f7be 18bf 3dbe 3746 dfbd b949 0a3d
000001f0: 2479 b9be b736 c23d 7dca 34be 74ef a4be
00000200: e174 793e e368 833e fd88 87bd b5d4 a2bd
00000210: 7d16 cebd 87a0 823d e240 d33d d438 b5bd
00000220: 61b6 90bd d985 103d ef05 5dbe 3a8e 50be
00000230: 74e2 55be 59ee 753e 030b 953e 9ad6 fdbd
00000240: 0ba8 4b3d 9756 0ebd e5ec 213e d355 55be
00000250: 2bce 64bc feb7 b73d 9416 02be 735e e13e
00000260: c958 c5bd fe10 adbe cb02 193d 0590 17be
00000270: 7357 3a3d 4a9f 0b3e ac99 1f3e c929 c43d
00000280: a92d 27bd 155c f83d 59e5 8cbd df9e 88bd
00000290: 80ee ae3d 2f98 21be 0c4c 33bd cdad 6d3e
000002a0: 473b c1be 0033 14bf 1241 543d b2c3 0fbd
000002b0: 8fc1 74be ddfb 19bf 67f7 24bd 6bb2 8b3d
000002c0: 9792 cfbd cea6 5abd c271 e93e f950 7e3d
000002d0: f977 653d 24b1 c13e 6010 debd 51db 1abd
000002e0: 05a5 38bf 4727 74bd e650 29be 3d0b 4cbd
000002f0: 27eb dfbd 8772 b53b 7330 d7be abd8 7e3b
00000300: 4913 7fbc fd30 f7bd 0dcb dbbd fdde 60bd
00000310: 829e b9be 4e07 873e d097 b23d e497 b2bd
00000320: 605b 353d e785 93bc e137 1cbf e4c1 103c
00000330: 6b0b 203d a9d8 9ebe 059d 943d 9b41 3a3d
00000340: 9d2e 2bbd de88 8dbe 028d b73c b907 373e
00000350: b951 103d 48bc 703d 1722 84bd 1d1f 95bc
00000360: bbbe c33d 9e5e 8dbd 07b3 18bd 0654 5ebe
00000370: f12f efbe 0f43 82be 245c 67bd 6df0 ed3c
00000380: fd9e 173f 270b c4bd 3af4 0f3e a3b7 6dbe
00000390: 16b6 8abe ba3e a2be 1e8f d2bd bc1f 20be
000003a0: 0166 0ebf 1d49 a63b 276b b23e e04c 54bd
000003b0: 2d5e 49be 5991 b4bd 251c c73d ba4d b93d
000003c0: 7841 6abe e83d 263c afc6 02bd 9a5a a73d
000003d0: 5fd0 4ebd ab42 db3d 53ec a3bc e953 69bb
000003e0: 9bd1 353e e435 2cbe be80 7b3e c722 cf3d
000003f0: 4296 ccbd c8dc f3be cc4f 45bd c700 a43d
-0.10714822 0.015413006 0.026041904 -0.00964672 -0.74486727 -0.10789993 -0.1989566 0.60600317
-0.4571732 -0.087451115 0.21352182 -0.6104799 0.003783557 -0.6818259 -0.030416766 0.0061781937
-0.087910205 -0.0013085471 0.040107913 0.2853452 -0.054500896 0.082830735 -0.16307387 0.060500912
0.00891463 -0.092709884 -0.0528372 -0.046896446 0.19895215 0.014327619 -0.053998906 0.09856627
-0.025480509 -0.0806782 -0.093612686 -0.076390184 -0.07282673 -0.09952536 -0.0870652 -0.017811311
-0.27197677 -0.00022916 0.052880935 0.47886637 -0.05408429 -0.0024098821 0.15260488 0.23358841
-0.08237452 0.008704875 -0.10847136 -0.0226477 0.01260425 0.014801515 0.04400908 -0.37694404
0.018067637 0.18767169 -0.15846959 0.1881804 0.16550204 -0.26565775 0.09168434 0.44867957
-0.019368382 0.19107814 0.036123753 0.01695682 0.00945184 -0.009880702 0.10757469 0.04100107
0.41164133 -0.0656764 0.26827943 -0.028295038 -0.032277483 0.21755977 -0.19948912 -0.10911002
0.24972583 0.0046625272 -0.21245356 -0.048678704 -0.13667919 -0.24874716 0.05795221 -0.33679196
0.06333972 0.014311724 0.073854975 -0.1196863 -0.49231738 0.0661539 -0.31211877 -0.01953974
0.09270765 -0.07795697 0.044411965 0.012504247 0.033501446 0.05929041 -0.26876393 -0.094378985
0.10410077 0.03967906 0.04188033 -0.14046726 -0.23889214 -0.33329582 -0.04140972 -0.075861864
0.054049037 0.10265487 0.06458167 -0.493538 -0.19722593 -0.031301778 -0.03141411 0.09640797
-0.4831138 -0.18529928 -0.10902064 0.033761714 -0.36225235 0.09483092 -0.17655368 -0.32213938
0.24360992 0.2566596 -0.06617925 -0.07950727 -0.10062883 0.063782744 0.1031511 -0.0884873
-0.07066036 0.035283897 -0.21584295 -0.20366755 -0.20887166 0.24016704 0.29109964 -0.123944476
0.049720805 -0.034750547 0.15813024 -0.2083352 -0.01396517 0.089706406 -0.12703925 0.44017372
-0.09636075 -0.33802027 0.03735618 -0.14801033 0.045493554 0.13634983 0.15585965 0.095782824
-0.04081503 0.12126938 -0.06879682 -0.06670927 0.08541584 -0.1578071 -0.043773696 0.23210831
-0.37740538 -0.5789032 0.05181987 -0.03509874 -0.23901962 -0.6014994 -0.040275004 0.0682114
-0.10135382 -0.053381734 0.45594603 0.06208894 0.056022618 0.3783046 -0.10842967 -0.037806813
-0.721268 -0.05960777 -0.16534767 -0.049815405 -0.109335236 0.0055373344 -0.4202915 0.0038886468
-0.015568563 -0.12069891 -0.10732088 -0.05490016 -0.36253744 0.2637276 0.08720362 -0.08720377
0.044276595 -0.018008186 -0.61022764 0.00883529 0.03907339 -0.31024674 0.072565116 0.045472723
-0.0417925 -0.27643484 0.022406105 0.1787404 0.035234187 0.05877331 -0.064518146 -0.018203313
0.09557863 -0.069028124 -0.03728011 -0.2171174 -0.46716264 -0.25441787 -0.056484357 0.029045308
0.5922697 -0.0957244 0.14058009 -0.23214583 -0.27092046 -0.31688482 -0.10281204 -0.15637106
-0.55624396 0.0050746338 0.34847376 -0.051831126 -0.19664831 -0.08816785 0.09722165 0.09048028
-0.22876537 0.010146596 -0.03192776 0.08171578 -0.050491687 0.10706075 -0.02001015 -0.0035602993
0.1775574 -0.16817433 0.2456083 0.10114055 -0.09989597 -0.4762938 -0.048171803 0.08007961

btcnn.layers.0.conv1d.bias f4 [27]
00000000: 4c34 933b 2b4a e33c c4af 47bd 9d9a 8d3d
00000010: e39f e53d 2d95 4c3d 3b71 d2bd a369 9d3d
00000020: 1e7a c9bd d0d8 243e 4d09 10be 6a04 973d
00000030: b6e6 d439 2672 a0bd 25d9 353d 972f 8f3c
00000040: e66f 9abd 0c58 52bd c5d2 463c 278b 65bd
00000050: 8e99 b23d 4b90 96bd b51e 203d 89b9 e83c
00000060: 9f5c 293d a24d d53d 8f34 f13d
0.0044923183 0.027745327 -0.048751608 0.06914256 0.112121366 0.049946953 -0.10275503 0.07686164
-0.09837745 0.16098332 -0.14066048 0.07373889 0.00040607684 -0.07834272 0.04439654 0.017478747
-0.07540874 -0.0513535 0.012135212 -0.05604091 0.087206945 -0.073517404 0.039091785 0.028408783
0.041348096 0.10415198 0.11777603

fcnn.0.weight f4 [64, 27]
00000000: a262 4dbe e2b1 7d3c 4a4f 203e 881a 263d
00000010: d597 0e3d c6fa 33be 7be5 28be 199f 8f3d
00000020: 439c 8cbd fa51 27be 9140 5fbd cf34 40be
00000030: 0aaa 343d 9199 b53b 126a a63d 799e 9a3d
00000040: b798 2a3d d826 4c3d 1446 4cbd 0621 203e
00000050: 2e71 ee3d 2833 c43d d41d 2abe f1a6 ac3d
00000060: 44ef 9d3c 52a1 583d 37f7 0ebe 2481 8ebe
00000070: 0df4 923d aa05 cbbd 25ae 0c3e 056f bbbd
00000080: 8d33 bb3c 6a2d 063d a371 03be bca1 19be
00000090: 6b46 963e bbd1 41be 77d9 21be fb02 cebd
000000a0: 02f0 6cbb d343 e2be e35a e63d 9b51 cbbd
000000b0: 8f2e 7fbe 084e 863e 8382 d03c c699 3cbe
000000c0: cb8e be3d ddde 89bd 8f3f aabe 97fc e73d
000000d0: fbf3 f93d 67c7 353e f5b1 59be 2d37 29bd
000000e0: 9a13 80be 16bf d1bc 674e e63c 9507 b4bd
000000f0: ace3 9ebe 45c0 7abe 6e60 ffbe 4bfe 8f3e
00000100: ecc2 92be cb67 ca3d dc9b 9cbe a192 86be
00000110: d97f abbe 9aa8 7abe 170c 4c3e 777f a2be
00000120: cf8a 40bc c70e 093d 4001 8fbd 006d 62be
00000130: e029 b339 1b03 c5be 3221 3e3e 299e a23e
00000140: 4cb5 d13e 693a 42bc 454a 0f3e 70e7 b33d
00000150: bb4d 0f3d c6b4 dbbb cc99 83be 1a9f 863c
00000160: 5c33 93bd 1944 adbe 443c 553e 025f ecbe
00000170: b65d 51be 9c0b 263d 2c36 ecbc 483a dabe
00000180: df16 ac3b 33b3 b33e bc0f b1be 6229 053e
00000190: 8e0f 4ebe a7d7 2bbe b773 1dbe e2b8 8f3e
000001a0: 64ee 36bf d2f4 283e 556d d63e 40b5 1b3f
000001b0: 91c3 f73d d9e0 d5bb d484 b83b 5c49 193e
000001c0: 649f 863d 583c 363e d075 2a3c e634 b53d
000001d0: 216c eb3d 55d1 ac3c 4f5e 103f 5d6f 4f3e
000001e0: 778b 45bd 62af 5d3e 1b97 e93e affb f93d
000001f0: 5582 aabf ef20 6e3d cd98 97be 8177 2d3e
00000200: a474 f5bc 5d9e 4f3e 1059 5e3d c9c6 093f
00000210: e4f5 24be b403 61bf 060c 92bf cf92 13be
00000220: 8d59 87bd 04d4 0fbe 0896 c4bd bd5b 46be
00000230: 90ee d23d 7c98 3cbc fc10 53be a457 8fbe
00000240: 3a11 483e 5404 19be 8445 cbbd 663e 603d
00000250: a348 3cbe 1c7b d3be f547 be3c a867 643e
00000260: e4c4 30be d4ac 843e 0f6b a43d d5ec 6a3d
00000270: 9313 82bb 120e ea3d d127 fbbe 3a0b c03e
00000280: cad2 5e3e c80d e73e 2113 12be 3536 51be
00000290: 7ec6 b8be 43c4 113d e170 fbbd aa6c 143d
000002a0: ecf0 65be cbfd 4cbd a5b9 abbe 5ed5 febc
000002b0: 32fa b1be 29e6 8dbd 349c edbd 16a1 56bd
000002c0: acb0 0abf 7628 3fbe 2270 b73e df55 c9be
000002d0: 32a3 02bd 8503 3fbe ba74 f1bd a1e5 9abd
000002e0: 759d 423e 5572 07bf 8758 843d 5c13 d53d
000002f0: 53b9 d33e 04cf 173d 9bfd 10be 779e c8bd
00000300: 36d2 943d 1afd 40bd 086e ef3c 4525 8f3d
00000310: 0ee8 4fbe 3f00 3fbe 5bb0 b33d 4f72 a6be
00000320: 864e 50be e9c5 533d c708 20bd 0915 c5be
00000330: 914a cdbd 3315 ee3e f560 89bd dd36 983e
00000340: ec32 f3bd b79a 8abd 0746 13be 7838 383e
00000350: 5315 dcbe 29ae 7b3e 285c b23e a4ea d23e
00000360: 4120 bcbb 8285 76bd f04a 7d3e ee89 903e
00000370: 3ad3 7a3e b1f1 483e c36b 233d 0f97 403e
00000380: 269d ea3e 9d4a dc3d c6ba 6a3e 7a86 583e
00000390: 2a88 7bba 0a7e 823e fda5 a53e f55d 843e
000003a0: 1851 0fbf 72dd c93d d9aa 43bc ed82 41bd
000003b0: 0bd5 803e 4bee adbc 7f0a b43c 79ef 1d3f
000003c0: c40c a0be 09a0 d6be 079d 15bf 8bbe 7d3e
000003d0: 0902 d7bd e3b0 03be f286 0bbe 5984 6fbd
000003e0: e61b 61bd d2f8 44be 319f d33d e59e c3be
000003f0: 68f3 f83d a5ae 5dbe d553 843e 6b4f 27be
-0.20057157 0.015484305 0.15655246 0.040552646 0.034812767 -0.17576131 -0.1649379 0.07012767
-0.06865742 -0.16339865 -0.054504935 -0.18770145 0.044107474 0.005541988 0.081257 0.075497575
0.041649546 0.04984173 -0.04987152 0.15637597 0.11642681 0.0958007 -0.16612941 0.08430279
0.01927913 0.052888222 -0.13961492 -0.278329 0.07175455 -0.0991319 0.13738306 -0.09152035
0.02285173 0.032758154 -0.12836318 -0.15003103 0.293506 -0.18927662 -0.15805613 -0.10059162
-0.0036153798 -0.4419237 0.11247804 -0.099276744 -0.24920104 0.26231408 0.025452858 -0.18418035
0.09304579 -0.06731961 -0.33251616 0.113274746 0.12204739 0.17751847 -0.21259291 -0.041312385
-0.25014955 -0.025603812 0.028113557 -0.08790509 -0.31033075 -0.24487408 -0.49878258 0.28123698
-0.2866434 0.09883078 -0.3058766 -0.26283744 -0.33495978 -0.24478379 0.19926487 -0.31737873
-0.011751845 0.03346136 -0.0698266 -0.22111893 0.0003417274 -0.38478932 0.1856735 0.31761292
0.4095863 -0.011854746 0.13993175 0.087843776 0.03498624 -0.0067048995 -0.25703275 0.016433287
-0.071875304 -0.33841017 0.20823771 -0.46166235 -0.20445904 0.040538415 -0.028834425 -0.4262259
0.00525175 0.35097656 -0.34582317 0.13004068 -0.20123121 -0.16781484 -0.15376173 0.28070742
-0.71457505 0.16499642 0.4188029 0.6082344 0.12097848 -0.006527048 0.0056310687 0.1496939
0.0657337 0.17796457 0.010404065 0.0884798 0.11495233 0.021095911 0.56393903 0.20257325
-0.048228707 0.21648934 0.45623097 0.12206208 -1.3321024 0.058136877 -0.29608765 0.16940118
-0.029962845 0.20275255 0.054284155 0.5381895 -0.16109425 -0.87896276 -1.1409919 -0.14411472
-0.06608877 -0.14045721 -0.09598929 -0.19370933 0.102994084 -0.0115109645 -0.20611948 -0.27996552
0.19537821 -0.14943057 -0.099253684 0.054747008 -0.18387084 -0.41304862 0.023227671 0.22305167
-0.17262608 0.25913107 0.08028232 0.057354767 -0.0039696186 0.11428465 -0.49053815 0.37508565
0.21760097 0.45127702 -0.1426511 -0.20430835 -0.36088938 0.03558756 -0.12277389 0.036236443
-0.22455186 -0.050046723 -0.33540073 -0.0311076 -0.34761196 -0.06928665 -0.11602059 -0.052399717
-0.5417583 -0.18667778 0.35827738 -0.39323327 -0.031893916 -0.18653686 -0.11789842 -0.075633295
0.19005378 -0.5290883 0.06462198 0.10404083 0.4135233 0.03706266 -0.14159243 -0.0979585
0.07266657 -0.047116376 0.029227272 0.069895305 -0.20303366 -0.18652438 0.087738715 -0.32509086
-0.20342454 0.051702414 -0.03907087 -0.3849261 -0.10023988 0.4650055 -0.06707946 0.29729357
-0.11874947 -0.06767791 -0.14382182 0.17990291 -0.4298502 0.24578156 0.34835935 0.41194642
-0.0057411497 -0.060185917 0.24735618 0.28230232 0.24494639 0.19623448 0.03989769 0.18807624
0.4582302 0.10756419 0.22922811 0.21145049 -0.000959518 0.25486785 0.32353202 0.25852934
-0.55983114 0.098566905 -0.011942589 -0.047244 0.2516254 -0.021231791 0.021977661 0.6169353
-0.3125974 -0.41918972 -0.5844273 0.24779718 -0.10498435 -0.12860446 -0.13625696 -0.058475826
-0.054958247 -0.19235542 0.10333098 -0.38207164 0.12155801 -0.21648653 0.2584521 -0.1633889

fcnn.0.bias f4 [64]
00000000: 8b17 b3bd 9fb9 3a3a 3240 8c3d e8fe 393e
00000010: c970 b63d 14df f83d 04a5 16be 74e5 073e
00000020: a832 0c3d 730f 1f3e c3b3 3dbc a19f dc3d
00000030: 2952 953d 49f5 233e 9d3e e63c 5dd2 c7bd
00000040: fd86 aebd d727 8f3d 04cd 5c3e ea32 f3bc
00000050: 98dc 78bc d24f 03bc ba22 813d c2c3 0cbe
00000060: 2bc8 d8bd b92b de3e 8c92 643e 5de2 e83c
00000070: 077b 393e 6123 1fbe d9b6 4cbe aa39 3c3e
00000080: 2f68 c1bd 38e2 803e 5679 2b3e 1e31 b13d
00000090: d5f9 413e 1dbe 293e f136 183d 3e54 833d
000000a0: dd43 36be 5202 42be c5e9 0a3d f308 443e
000000b0: 28f4 fc3d 1451 f63d 7bbb 273e 19e5 12bd
000000c0: 7fc5 29bd 3fd3 2e3e c6fb 153e d992 41bd
000000d0: a48a 4c3e 5215 5f3b 64de 4f3e f7c6 69bd
000000e0: c00c febc 4ed2 ed3d 6e06 b2bc 61ba 363e
000000f0: fbff 2abe c48a 5dbe fde8 043e 3475 903d
-0.08744725 0.00071229966 0.06848182 0.18163645 0.08908231 0.12151924 -0.14711386 0.13271123
0.034227997 0.15533237 -0.011578503 0.10772634 0.072910614 0.16011538 0.028106028 -0.097569205
-0.08521841 0.06990021 0.21562582 -0.029687364 -0.015189312 -0.008014636 0.06305452 -0.1374655
-0.10585054 0.43392733 0.22321528 0.02842825 0.18113337 -0.1554084 -0.19991626 0.18381372
-0.094436996 0.2517259 0.16745505 0.086519465 0.1894296 0.16576429 0.03716177 0.06412552
-0.17799325 -0.18946198 0.033914346 0.19144039 0.123512566 0.12027183 0.16380112 -0.035863016
-0.041448113 0.17072771 0.14646825 -0.047259185 0.19974762 0.0034039808 0.20299679 -0.057074513
-0.031011939 0.11612378 -0.021731582 0.17844535 -0.16699211 -0.21634966 0.12979503 0.07053605

fcnn.2.weight f4 [1, 64]
00000000: 109d fa3b 0073 08bf c6a8 b3be 11e4 68bf
00000010: 00bb 8b3f dce4 18bf 5736 99be 204a 22bf
00000020: 4a6e 8c3e 789c 93bf 2c74 793e 2271 863e
00000030: c724 ca3e 7a49 49bf 4ba2 55bf 1990 a3be
00000040: c5e2 bc3e 3bf6 a53e 7afd 9a3e 0301 30bf
00000050: b2b3 c23e 02f8 6dbf 7399 f33e 146b b8bd
00000060: e32c 4dbe 5cd0 2cbf 1388 a03e 8721 9e3e
00000070: 737a bcbe 8b04 9fbe 26a6 acbe 4d39 5dbf
00000080: f3ad 78be b39e 92be e176 84bf 2ac7 5c3e
00000090: 5d1b a33e fa1e 2cbf 0082 45bf 877c 3abf
000000a0: 8b9a b9be d584 cc3e 1738 a83e 57ef 873e
000000b0: 8d5f b93e 0638 cf3e 344c c03e fbcc cc3e
000000c0: 32e4 f33e 9f76 6fbf e15b 28bf 77ea 913e
000000d0: 602f 69bf 5ae7 28bf f965 c1be 9c9c e53e
000000e0: 9935 c53e 8e63 8c3f 52fa 9bbe 6a18 d23e
000000f0: fa52 8bbe 8027 7ebe 0af8 79be dd22 e53e
0.007648118 -0.53300476 -0.350897 -0.90973 1.0916443 -0.5972421 -0.2992427 -0.63394356
0.27427894 -1.1532125 0.24360722 0.26258188 0.39481184 -0.7862774 -0.83450764 -0.31945875
0.3689176 0.3241442 0.30271512 -0.68751544 0.38027722 -0.92956555 0.4757801 -0.090047985
-0.20036654 -0.6750543 0.31353816 0.30884954 -0.3681217 -0.31058154 -0.3372051 -0.8641556
-0.24285106 -0.28636703 -1.0348779 0.2156035 0.31856814 -0.67234766 -0.7715149 -0.72846264
-0.3625072 0.39945093 0.32855293 0.2654979 0.36205712 0.4047243 0.37558138 0.40000138
0.47635037 -0.93540376 -0.65765196 0.28499195 -0.91087914 -0.65978014 -0.3777311 0.44846046
0.38517454 1.0967882 -0.30464417 0.4103425 -0.27211744 -0.24819756 -0.24411026 0.4475316

exp_avg f4 [27, 27, 3]
00000000: 0000 0000 0000 0000 0000 0000 0000 0000
00000010: 5e0b cfba 3a0b 273d 84a2 9e3e 2db7 2cbd
00000020: ca57 4b3c 0000 0000 dd61 2a3f 2bab 2a3f
00000030: 0000 0000 9951 853c 0000 0000 0000 0000
00000040: 0000 0000 0000 0000 0000 0000 d240 323e
00000050: 0000 0000 0000 0000 daff ca3d 0000 0000
00000060: 0000 0000 0000 0000 98ee 5a3f 0000 0000
00000070: aa7a 113e 0000 0000 0000 0000 0000 0000
00000080: 0000 0000 0000 0000 3ffe c83b ac59 f8ba
00000090: 0000 0000 0000 0000 0000 0000 0000 0000
000000a0: 56e7 65b8 0000 0000 0000 0000 dea7 033f
000000b0: 0000 0000 0000 0000 aecb 013f 002c ef3f
000000c0: 0000 0000 0000 0000 0000 0000 0000 0000
000000d0: 0000 0000 0000 0000 0000 0000 8212 143d
000000e0: 0000 0000 69ef bfbc c3df 99bc 866c a3bd
000000f0: 5aff a33f a919 bf3e 6755 28bf a43c 5dbe
00000100: 8d01 8abf 5e80 8ebf 0000 0000 0000 0000
00000110: 0000 0000 0000 0000 d359 e73d 0000 0000
00000120: b6f0 7bbd 0000 0000 6aef bfbc 5ffa 4341
00000130: 093a d440 2605 b341 3eeb 773f 3243 de3f
00000140: 7ca9 8f3f 0000 0000 5bf1 6bb9 0000 0000
00000150: e058 1e3b 60ed f2bd 682a ad3e 6427 343f
00000160: ffae a43d 0000 0000 0000 0000 179a 8e3e
00000170: ed71 3f3c 0000 0000 841d a8bc 0000 0000
00000180: 0000 0000 0000 0000 0000 0000 0000 0000
00000190: f6ab ad3e 0000 0000 0400 0080 9ff4 a1ba
000001a0: 0000 0000 16b2 93bb 0000 0000 baa0 a33f
000001b0: ad48 94b1 5128 0bb6 0000 0000 9a08 6232
000001c0: 0400 0000 0000 0000 0000 0000 76fc 833d
000001d0: 54da 1135 0000 0000 0000 0000 0000 0000
000001e0: 0400 0080 338d 123a 0000 0000 0000 0000
000001f0: ee94 963d 0000 0000 5bf1 6bb9 edb8 f1bb
00000200: bac4 333f 092a a93e 0000 0000 0000 0000
00000210: 0400 0000 0000 0000 0000 0000 0000 0000
00000220: 4cbe 873c 0000 0000 58b4 5ebe 821e 443d
00000230: 0400 0000 41bf 4a3e 2ca9 1bbe 0400 0080
00000240: 0000 0000 5a89 043f fae0 b6bf d812 f43d
00000250: 0000 0000 0000 0000 0400 0000 fd79 573c
00000260: 0000 0000 27b4 033a 0000 0000 56b4 5ebe
00000270: b953 d33f 5e29 1f41 99ca 4541 5dcc c641
00000280: 5e54 663e f97d 743f 0000 0000 61a2 a43f
00000290: 0000 0000 4cb0 2db4 1581 18bf 67fe 2abe
000002a0: e160 ad3e 6b38 903a 0000 0000 0000 0000
000002b0: c045 443d 5873 a5bc 0000 0000 ee71 1abc
000002c0: 0000 0000 0000 0000 e0ed f53e 0000 0000
000002d0: 0000 0000 ed40 113f 0000 0000 0400 0000
000002e0: 96ad a73b 0000 0000 0400 0000 0000 0000
000002f0: a4e9 3140 0400 0080 edbf ce3c 0000 0000
00000300: 0400 0000 0400 0000 0000 0000 0000 0000
00000310: 0400 0000 0efa 3ebe 0000 0000 0000 0000
00000320: 0000 0000 0400 0000 f473 033b 0000 0000
00000330: 0000 0000 4093 ae3d 0000 0000 61a2 a43f
00000340: d998 ffbd 4c7c eabd 0400 0000 d419 db3c
00000350: 0000 0000 2954 493d 0000 0000 0000 0000
00000360: 0000 0000 7b57 15b4 0000 0000 7764 97bd
00000370: b86f 303f 37da 833a 408c e23e e45a d5bf
00000380: dcc3 f7bf 0000 0000 9657 783f 011e d93e
00000390: 0400 0000 e9dd 9b3d 0000 0000 0400 0080
000003a0: 285d b63b 0000 0000 6b2b 2fbe 0000 0000
000003b0: 7764 97bd c4f0 1441 ff0f 8042 85ca 53bf
000003c0: 1213 ab3d 8221 e63e 45d6 d83e 22d5 583f
000003d0: 0400 0000 0000 0000 b4eb 893d fe9e 92be
000003e0: 90ba 623d 3804 f03e d0d1 5b3e 0000 0000
000003f0: 294c c73e ee31 b83e 52f9 4d3e 9cf7 60bd
0.0 0.0 0.0 0.0 -0.0015796234 0.04078219 0.30983365 -0.042166878
0.012411067 0.0 0.6655558 0.6666743 0.0 0.01627426 0.0 0.0
0.0 0.0 0.0 0.1740754 0.0 0.0 0.09912081 0.0
0.0 0.0 0.85520315 0.0 0.14206949 0.0 0.0 0.0
0.0 0.0 0.006133824 -0.0018947623 0.0 0.0 0.0 0.0
-5.4813303e-05 0.0 0.0 0.5142802 0.0 0.0 0.50701416 1.8685303
0.0 0.0 0.0 0.0 0.0 0.0 0.0 0.036150463
0.0 -0.02342959 -0.018783456 -0.079796836 1.2812302 0.37324265 -0.65755314 -0.21605164
-1.0781723 -1.1132925 0.0 0.0 0.0 0.0 0.112964295 0.0
-0.061508857 0.0 -0.023429591 12.248626 6.6320844 22.377514 0.96843326 1.7364256
1.1223598 0.0 -0.00022501258 0.0 0.002416186 -0.11861682 0.33821416 0.70372605
0.0804119 0.0 0.0 0.27851936 0.011684877 0.0 -0.020521887 0.0
0.0 0.0 0.0 0.0 0.33920258 0.0 -6e-45 -0.0012356228
0.0 -0.0045073135 0.0 1.2783425 -4.315629e-09 -2.0736081e-06 0.0 1.3156887e-08
6e-45 0.0 0.0 0.064446375 5.433442e-07 0.0 0.0 0.0
-6e-45 0.00055904983 0.0 0.0 0.07352625 0.0 -0.00022501258 -0.007376781
0.70222056 0.33039883 0.0 0.0 6e-45 0.0 0.0 0.0
0.016570233 0.0 -0.21748483 0.047880657 6e-45 0.1979952 -0.15201253 -6e-45
0.0 0.5177208 -1.4287407 0.11917657 0.0 0.0 6e-45 0.013151643
0.0 0.0005024098 0.0 -0.2174848 1.6509925 9.947599 12.361962 24.849787
0.22493121 0.9550472 0.0 1.2862054 0.0 -1.6176017e-07 -0.59571964 -0.1669861
0.33862975 0.0011003142 0.0 0.0 0.04791808 -0.020196602 0.0 -0.009426577
0.0 0.0 0.48033047 0.0 0.0 0.56739694 0.0 6e-45
0.0051171286 0.0 6e-45 0.0 2.7798853 -6e-45 0.025238002 0.0
6e-45 6e-45 0.0 0.0 6e-45 -0.18650076 0.0 0.0
0.0 6e-45 0.0020058127 0.0 0.0 0.085241795 0.0 1.2862054
-0.12480325 -0.11449489 6e-45 0.026745714 0.0 0.049152527 0.0 0.0
0.0 -1.3908532e-07 0.0 -0.07392209 0.6892047 0.001005954 0.44247627 -1.6668363
-1.9356647 0.0 0.97008646 0.42405704 6e-45 0.076106854 0.0 -6e-45
0.0055653043 0.0 -0.17106406 0.0 -0.07392209 9.308781 64.03124 -0.82730895
0.08353247 0.4494744 0.42350975 0.84700215 6e-45 0.0 0.0673441 -0.28636926
0.0553537 0.4687822 0.21466756 0.0 0.38925293 0.35975593 0.2011464 -0.05492364

exp_avg_sq f4 [27, 27, 3]
00000000: 0000 0000 0000 0000 0000 0000 0000 0000
00000010: 5dcb 643d ac59 123f 46b1 0e41 bb85 d940
00000020: 3fcc 693a 0000 0000 8083 1842 a509 1840
00000030: 0000 0000 f6c4 973d 0000 0000 0000 0000
00000040: 0000 0000 0000 0000 0000 0000 35f5 0540
00000050: 0000 0000 0000 0000 8f71 433e 0000 0000
00000060: 0000 0000 0000 0000 e93f 9041 0000 0000
00000070: cf9f 983e 0000 0000 0000 0000 0000 0000
00000080: 0000 0000 0000 0000 c73b 803a 799c a839
00000090: 0000 0000 0000 0000 0000 0000 0000 0000
000000a0: f49c 4935 0000 0000 0000 0000 f052 3c40
000000b0: 0000 0000 0000 0000 1159 5b41 2d0f 8542
000000c0: 0000 0000 0000 0000 0000 0000 0000 0000
000000d0: 0000 0000 0000 0000 0000 0000 8386 223e
000000e0: 0000 0000 2b0c 8240 8346 0740 408b f73c
000000f0: 6578 0143 c181 1d42 fe77 1841 4078 543f
00000100: 9be3 b841 d47b f641 0000 0000 0000 0000
00000110: 0000 0000 0000 0000 0719 093f 0000 0000
00000120: 45c6 233d 0000 0000 2c0c 8240 b107 be45
00000130: 90b5 3c45 78ba 2e46 7b02 9142 6c6f 0843
00000140: c39f 1743 0000 0000 00fb 603b 0000 0000
00000150: 321b 473a b10f 843f d18f f53f 510c 6c41
00000160: 2d05 e640 0000 0000 0000 0000 b9e9 bc40
00000170: aad0 623c 0000 0000 a6d9 0f3f 0000 0000
00000180: 0000 0000 0000 0000 0000 0000 0000 0000
00000190: 7927 6540 0000 0000 da44 3739 b855 9339
000001a0: 0000 0000 135d ec3d 0000 0000 ad6a a941
000001b0: 6d6a 9637 d3eb be37 0000 0000 99e0 8438
000001c0: 26e2 3637 0000 0000 0000 0000 c8a4 883c
000001d0: 0123 d739 0000 0000 0000 0000 0000 0000
000001e0: 440a 1938 f4d7 8038 0000 0000 0000 0000
000001f0: fdc1 913e 0000 0000 00fb 603b b94f 2c3b
00000200: 5e28 7442 f919 993f 0000 0000 0000 0000
00000210: 26e2 3637 0000 0000 0000 0000 0000 0000
00000220: a5b0 a03d 0000 0000 f4f0 9540 37f8 fa3e
00000230: 4faf 4737 a2ac 0f43 a7ae fc42 31ca dc37
00000240: 0000 0000 b91e a841 147f 7f42 3fdf 423f
00000250: 0000 0000 0000 0000 633c 3336 66a3 a53e
00000260: 0000 0000 b983 ec37 0000 0000 f4f0 9540
00000270: 08ab 2646 1924 6046 7ef7 0746 2e89 0646
00000280: 5c34 0e43 19e4 2c43 0000 0000 89e9 2142
00000290: 0000 0000 cd4e f336 a6d9 af40 3f68 2c41
000002a0: bdec aa41 20cb ea3c 0000 0000 0000 0000
000002b0: 1bfb d441 7598 8b3d 0000 0000 3da7 1940
000002c0: 0000 0000 0000 0000 80e0 8340 0000 0000
000002d0: 0000 0000 c53f 2241 0000 0000 e791 6233
000002e0: 1181 0b3b 0000 0000 98b7 3138 0000 0000
000002f0: 5966 9b42 20b9 4233 fb6e 0b3b 0000 0000
00000300: 25c1 8636 3a83 2d37 0000 0000 0000 0000
00000310: 0a26 1d37 128c f640 0000 0000 0000 0000
00000320: 0000 0000 2642 ac34 8af2 ea3a 0000 0000
00000330: 0000 0000 5a09 2a3f 0000 0000 89e9 2142
00000340: 5244 d23f c431 2d42 3c5c 1036 a6ac 913d
00000350: 0000 0000 8e4d 0143 0000 0000 0000 0000
00000360: 0000 0000 68fd a937 0000 0000 0285 2e41
00000370: be8b a23f de41 8c38 62f9 4943 0417 5343
00000380: de7b f141 0000 0000 3039 ca42 fc33 2642
00000390: e4c1 0537 fa31 1f3f 0000 0000 7720 2333
000003a0: eaf6 613b 0000 0000 b7f7 773f 0000 0000
000003b0: 0285 2e41 b051 0546 6a03 3947 92d1 5f46
000003c0: 7f88 5540 05f7 6a45 5b92 7c43 ccb5 8c41
000003d0: 6d3a c038 0000 0000 d070 1d3f ec3c cf3f
000003e0: 1f19 f43f 05bb 8e41 50c5 1641 0000 0000
000003f0: f7b2 8240 171f bd40 00f9 2a40 9cb9 4f3d
0.0 0.0 0.0 0.0 0.055858005 0.5716808 8.91828 6.7975745
0.00089186797 0.0 38.128418 2.3755887 0.0 0.07410614 0.0 0.0
0.0 0.0 0.0 2.0930912 0.0 0.0 0.19086288 0.0
0.0 0.0 18.031206 0.0 0.29809424 0.0 0.0 0.0
0.0 0.0 0.000978344 0.00032160038 0.0 0.0 0.0 0.0
7.510673e-07 0.0 0.0 2.942562 0.0 0.0 13.709245 66.52964
0.0 0.0 0.0 0.0 0.0 0.0 0.0 0.15871625
0.0 4.0639853 2.1136787 0.030217767 129.47029 39.376713 9.529295 0.82995987
23.111135 30.810463 0.0 0.0 0.0 0.0 0.53553814 0.0
0.039984006 0.0 4.063986 6080.9614 3019.3477 11182.617 72.504845 136.43524
151.62407 0.0 0.0034329295 0.0 0.00075953 1.0317289 1.9184514 14.753007
7.188132 0.0 0.0 5.9035306 0.013843695 0.0 0.5619148 0.0
0.0 0.0 0.0 0.0 3.5805342 0.0 0.00017477889 0.0002810189
0.0 0.1154119 0.0 21.177088 1.7930952e-05 2.275958e-05 0.0 6.336085e-05
1.09007e-05 0.0 0.0 0.016680136 0.00041034076 0.0 0.0 0.0
3.6487603e-05 6.14374e-05 0.0 0.0 0.28468314 0.0 0.0034329295 0.0026292636
61.03942 1.1961051 0.0 0.0 1.09007e-05 0.0 0.0 0.0
0.07846192 0.0 4.685663 0.49017498 1.19021415e-05 143.67435 126.34112 2.6320196e-05
0.0 21.015001 63.8741 0.76121897 0.0 0.0 2.6708228e-06 0.32351226
0.0 2.819473e-05 0.0 4.685663 10666.758 14345.024 8701.873 8610.295
142.20453 172.891 0.0 40.47806 0.0 7.251138e-06 5.4953184 10.775451
21.365595 0.02866131 0.0 0.0 26.62261 0.06816188 0.0 2.4008324
0.0 0.0 4.121155 0.0 0.0 10.140569 0.0 5.2752423e-08
0.0021286646 0.0 4.2371074e-05 0.0 77.6999 4.5337515e-08 0.0021275866 0.0
4.015996e-06 1.0342157e-05 0.0 0.0 9.366786e-06 7.7045984 0.0 0.0
0.0 3.2085626e-07 0.0017925065 0.0 0.0 0.6642052 0.0 40.47806
1.64271 43.2986 2.151136e-06 0.07113008 0.0 129.30295 0.0 0.0
0.0 2.0264371e-05 0.0 10.907473 1.2698896 6.687989e-05 201.97415 211.0899
30.185482 0.0 101.111694 41.550766 7.972561e-06 0.62185633 0.0 3.798092e-08
0.0034479448 0.0 0.9686236 0.0 10.907473 8532.422 47363.414 14324.393
3.336456 3759.4387 252.5717 17.588768 9.166156e-05 0.0 0.61500263 1.6190467
1.9070166 17.841318 9.423172 0.0 4.0843463 5.910045 2.6714478 0.05071412

exp_avg f4 [27]
00000000: 55ef 993f 4de5 903f 4529 0a40 c687 b63f
00000010: f0d3 0c40 962c b73f 22d5 c43f 2104 e73f
00000020: ecd8 ab40 68cb 2cc0 fd4b b940 8873 9f3f
00000030: 4cd1 bb3f c59f c93f ef84 df40 3cf6 c43f
00000040: eb7b ebc0 1efd 2c40 4374 59c0 116e b53f
00000050: 8e6e bc3f 944a c33f 429f 9fbf 8b60 0741
00000060: 9596 7ec0 3e20 c6c0 1c15 15c1
1.2026163 1.1319977 2.158769 1.4260185 2.2004356 1.4310482 1.5377543 1.8048135
5.3702297 -2.699915 5.790526 1.2457132 1.4673247 1.5751883 6.9849772 1.5387645
-7.3588767 2.702949 -3.397721 1.4174215 1.4721239 1.5257134 -1.2470477 8.46107
-3.9779408 -6.191436 -9.317654

exp_avg_sq f4 [27]
00000000: d886 2443 70f9 3643 5c26 f143 5213 5743
00000010: 1325 f243 975f 9143 dcf5 5243 6cc8 a943
00000020: 2c42 4845 c96f 4444 3b18 8945 1c05 1c43
00000030: 6827 5043 9b72 8843 84da a645 482a 6c43
00000040: df6e a245 216e 4b44 afca 9a44 d719 7d43
00000050: a6a2 8e43 9d6c 9643 3975 fa42 9714 0546
00000060: 852a fe44 1fba 7645 d16c 0f46
164.52673 182.97437 482.29968 215.07547 484.28964 290.7468 210.96039 339.5658
3204.1357 785.74664 4387.029 156.01996 208.15393 272.89536 5339.3145 236.16516
5197.859 813.72076 1238.3339 253.10094 285.2707 300.84854 125.22895 8517.147
2033.3287 3947.6326 9179.204

exp_avg f4 [64, 27]
00000000: baaa 3639 bfeb 7239 e264 b138 89c3 7639
00000010: ea83 0239 4057 4f39 decb 0039 db78 0339
00000020: 9071 1538 3f23 0a3a b12b d438 e84b c338
00000030: b3d0 1d39 23b8 7639 e921 00b8 cc6b 5239
00000040: 78a6 e537 c716 fd37 0e0a 023a 4149 4a39
00000050: a1ff 1c39 4196 8739 1b0c 9639 6d20 25b8
00000060: 7545 023a 65fe 4539 e2eb 8db7 af7a a1bf
00000070: ca5b e2bf 3f9a 31bf 28f5 e7bf 6543 8bbf
00000080: a0d9 bbbf d33e 85bf 6618 6abf ef73 b6be
00000090: 10e2 76c0 e6a1 50bf 2e94 1fbf e027 aebf
000000a0: 7dc8 e4bf d832 993e 3e9f c0bf 5c49 163e
000000b0: c735 6ebe 8229 5fc0 a225 b7bf da17 95bf
000000c0: 9f84 edbf ea3c fabf 4f8d 983e 7d9b 56c0
000000d0: e85d aebf 06f9 203d 2d43 08bc 3590 38bc
000000e0: 1595 84bb f0a3 3cbc f0dd cabb bc87 1abc
000000f0: 89f5 c7bb d349 c3bb 673c e4ba d129 d0bc
00000100: 80e4 9bbb ce1c 93bb 6968 f5bb e2eb 39bc
00000110: 846c ac3a 6870 1fbc bb26 afba 382c c4ba
00000120: c611 c3bc a932 17bc b3a5 f3bb 1a7b 47bc
00000130: 19a9 61bc 51a0 dc3a e808 c3bc 2efd 11bc
00000140: 25ef 2a3a b4ca 09c0 ad8e 3ac0 5606 86bf
00000150: 49a2 3ec0 4bd8 ccbf 3b55 1cc0 14f5 c9bf
00000160: 567c c5bf 4169 e6be d77f d2c0 74c6 9dbf
00000170: cfb7 94bf b4c8 f7bf f9f6 3bc0 7b5d af3e
00000180: ea2b 21c0 f1ff b0be a207 c6be b649 c5c0
00000190: 31e8 18c0 261a f6bf 01e2 49c0 2038 64c0
000001a0: 8e04 e03e e43d c5c0 82c4 13c0 d710 2e3e
000001b0: 4145 5340 bb2f 8b40 830d e83f 595c 8c40
000001c0: f1b8 2740 9d39 4340 11fb 2540 eed8 1340
000001d0: ebba cc3f cdde 1141 f788 d13f 1c02 cc3f
000001e0: bc55 4440 e511 8740 21f3 1e3c f658 6440
000001f0: 7e40 ca3f 06e8 3b3f 5f1e 0241 5eb5 4e40
00000200: c77b 4040 87e6 8040 503a 7640 cee0 59bf
00000210: b62e f340 8d87 5d40 507c 0e3f 78e8 b4bf
00000220: 3ae4 f4bf adf4 2fbf fc39 fabf 4578 86bf
00000230: e231 cdbf 1590 84bf 0da6 81bf d344 97be
00000240: c726 8ac0 f91a 4fbf ab44 43bf 00a4 a2bf
00000250: cbbb f6bf d703 663e a291 d3bf 854d 68be
00000260: 5501 82be 5f7a 81c0 6db3 c8bf 3a86 a1bf
00000270: 687c 04c0 eec8 15c0 d309 933e 0273 81c0
00000280: f9ec c1bf 5ead e43d fc71 e8bb b372 1dbc
00000290: e92a 62bb 4bee 20bc fe12 adbb 6fd0 03bc
000002a0: a799 aabb f68e a6bb f7a6 c2ba b594 b1bc
000002b0: 61f7 84bb 6cf6 7abb e95d d1bb 1699 1ebc
000002c0: 8a0d 933a 0103 08bc f370 95ba dc5b a7ba
000002d0: 1168 a6bc baf8 00bc 4ee0 cfbb b025 2abc
000002e0: ae80 40bc b112 bc3a 735f a6bc 380f f9bb
000002f0: fc90 113a c102 c0bf b2f7 01c0 00c2 3abf
00000300: 74cd 04c0 feb3 8ebf 5dd4 d9bf 49b0 8cbf
00000310: a699 89bf db86 a0be 92a6 92c0 17dc 5bbf
00000320: 6d3b 4fbf 899c acbf a3f3 02c0 976b 743e
00000330: e890 e0bf 3e98 76be 95f5 89be 9972 89c0
00000340: 850e d5bf 0270 abbf 17a8 0cc0 edfe 1ec0
00000350: 4c25 9c3e c36a 89c0 2fe6 cdbf 71ce f23d
00000360: e375 263f e27f 613f 1cf7 a13e 497d 663f
00000370: bae7 f73e 7ac6 3c3f 025a f43e e98e ee3e
00000380: 9f6b 0b3e 2c52 fe3f ed6b be3e 1cbb b33e
00000390: 76f1 153f ce24 633f 5c7c d2bd 4fcc 423f
000003a0: e7fe d53d 33b8 ef3d a850 ee3f 1bb5 383f
000003b0: 07de 143f e3a9 733f 93d8 893f 56a4 06be
000003c0: 8944 ee3f f953 323f c273 50bd 6fb6 4dc0
000003d0: 1ff5 90c0 078c c7bf 701e 9cc0 3c87 3cc0
000003e0: 2691 73c0 4fee 36c0 a6ef 0dc0 81ea 61bf
000003f0: ba51 15c1 502a ebbf b497 e2bf 4968 65c0
0.00017420473 0.0002316674 8.4588086e-05 0.0002353323 0.00012446908 0.00019773562 0.00012282978 0.00012538156
3.563013e-05 0.00052695343 0.00010117086 9.312463e-05 0.00015050433 0.00023528984 -3.054916e-05 0.00020067318
2.7376445e-05 3.0170557e-05 0.0004960605 0.0001929151 0.00014972549 0.00025861154 0.0002861925 -3.9369264e-05
0.00049694563 0.00018882153 -1.6918351e-05 -1.2615565 -1.7684262 -0.69375986 -1.8121691 -1.0879942
-1.4675789 -1.0409797 -0.9144348 -0.35635325 -3.8575478 -0.8149704 -0.6233548 -1.3605919
-1.7873684 0.29921603 -1.5048597 0.14676422 -0.23262702 -3.4869084 -1.430836 -1.1647904
-1.8556098 -1.954984 0.2979531 -3.3532403 -1.3622408 0.039299987 -0.008316797 -0.01126485
-0.0040460923 -0.011513695 -0.006191008 -0.009431776 -0.006102268 -0.0059597283 -0.0017413021 -0.025410565
-0.004757464 -0.004489518 -0.0074892533 -0.011347743 0.0013154899 -0.00973139 -0.0013362983 -0.0014966791
-0.023812186 -0.009228387 -0.0074355244 -0.012175346 -0.013773226 0.0016832446 -0.023807958 -0.00891046
0.00065206207 -2.152997 -2.9149582 -1.0470684 -2.978655 -1.6003507 -2.442702 -1.5777917
-1.5428569 -0.45002177 -6.5781054 -1.2326188 -1.1618594 -1.9358125 -2.936949 0.34251007
-2.5183053 -0.34570268 -0.38677698 -6.165248 -2.3891718 -1.922673 -3.1544192 -3.5659256
0.43753475 -6.163805 -2.308869 0.16998611 3.301102 4.3495765 1.8129123 4.386273
2.620663 3.0503914 2.5934489 2.3101153 1.5994543 9.116895 1.6369923 1.5938144
3.0677328 4.2209344 0.009701521 3.5679297 1.5800931 0.73400915 8.132415 3.2298198
3.0075548 4.0281405 3.847309 -0.8510865 7.599452 3.4613984 0.55658436 -1.4133444
-1.9132149 -0.6873272 -1.9548945 -1.0505453 -1.6030848 -1.035647 -1.01288 -0.29544696
-4.3172336 -0.8090053 -0.76276654 -1.2706299 -1.927606 0.22462402 -1.6528819 -0.22685821
-0.2539164 -4.046188 -1.5679756 -1.2619088 -2.0700932 -2.3403888 0.28718433 -4.045289
-1.5150443 0.1116588 -0.007093666 -0.009609866 -0.003451044 -0.0098224385 -0.005281805 -0.0080453
-0.005206305 -0.0050829602 -0.0014850785 -0.021677354 -0.00405781 -0.0038293852 -0.006389369 -0.009680053
0.0011219245 -0.008301497 -0.0011401459 -0.0012768465 -0.020313295 -0.007871801 -0.006343878 -0.010384962
-0.01174943 0.0014348832 -0.020309186 -0.007600691 0.00055529154 -1.500084 -2.0307431 -0.7295227
-2.0750399 -1.1148679 -1.7017933 -1.0991298 -1.0750015 -0.31352887 -4.5828333 -0.85882705
-0.8095005 -1.3485271 -2.0461204 0.23869167 -1.7544222 -0.24081513 -0.26945177 -4.295239
-1.6645056 -1.3393557 -2.1977594 -2.4843094 0.30497205 -4.2942824 -1.6085871 0.11855782
0.6502363 0.8808576 0.31633842 0.9003492 0.4841898 0.7374035 0.4772492 0.46593407
0.13615273 1.9868827 0.37191716 0.3510369 0.58571565 0.88728034 -0.10277626 0.76093
0.104490094 0.11705055 1.8618364 0.72151345 0.58151287 0.951811 1.0769218 -0.13148627
1.8614665 0.6965938 -0.050891645 -3.2142599 -4.529922 -1.5589608 -4.8787155 -2.945754
-3.8057342 -2.8582952 -2.217752 -0.8824845 -9.332453 -1.8372288 -1.7702546 -3.58449

exp_avg_sq f4 [64, 27]
00000000: e939 de38 44cc 3f3a 1efe 1239 26e5 8d3a
00000010: e049 313a 790b 2239 02e8 333a c8c4 9238
00000020: bf0d 9538 0367 7539 8bc2 5438 d27c c938
00000030: 2116 623a 3282 e039 6982 6c37 2b62 c338
00000040: 5a21 9f38 46bb 8a39 05d2 c838 9126 5339
00000050: c394 673a 3ae6 9e39 4e32 4d39 3af7 0239
00000060: 7e59 013a cdba 5038 f4cf 8637 d120 8242
00000070: 0bc8 1743 1ae4 5041 5dd1 4543 df5c d842
00000080: 6f7c 3342 a0c1 b142 59fd 0042 e9aa 6141
00000090: 2ffa b843 0f71 1c41 660d d941 7046 1443
000000a0: 5033 e142 87c2 7941 9b75 d442 13f7 b140
000000b0: dbb8 e440 417f a443 8ad6 6242 d3f5 0543
000000c0: 70de e941 9aa2 c642 ab06 3741 16c9 7b43
000000d0: 2b44 7741 b78e df40 e866 523b 228d f13b
000000e0: dbf5 203a a117 1c3c 1f39 aa3b e874 113b
000000f0: 547d 8c3b 72f4 d03a ba7d 343a f802 903c
00000100: a38b f339 2719 b23a 37b6 ea3b 587a b03b
00000110: a124 4f3a b45d a83b c521 9e39 bc64 b039
00000120: 06cc 7e3c ac2f 343b c1bf d53b 5f99 b13a
00000130: 93ae a03b 0770 173a 9194 413c f213 413a
00000140: 0622 ca39 616c 5243 a9e1 f143 3194 2142
00000150: a76b 1c44 77c8 aa43 8ae0 1143 f1bf 8c43
00000160: 7616 d142 12ae 3442 14c7 9044 17a7 f341
00000170: 6418 b242 428c eb43 31f0 b043 95e4 4f42
00000180: 0ac9 a843 add7 9d41 6249 b041 f6ec 7f44
00000190: d00c 3443 04e8 d543 2b9e b142 098d a143
000001a0: 24d5 1742 237f 4244 238b 4042 18e2 c941
000001b0: 3a82 6443 f828 ff43 8c00 3242 5367 2644
000001c0: 6a4c b743 eddf 1643 c553 9743 e115 e342
000001d0: e4c8 3342 9d4d 9944 dd73 0442 2b36 c042
000001e0: d2ee f743 aa09 be43 34a2 4042 740c b243
000001f0: 9a60 cd40 c57d bf41 7f21 8c44 81e1 3743
00000200: 92bc e243 be52 cb42 5b93 a843 417e 1f42
00000210: 4ce2 5744 d35c 4542 bfb6 7841 cdf0 ae42
00000220: 4e8f 4943 56ee 8641 2e66 8243 42b4 0e43
00000230: c896 7342 68f1 ea42 54f7 2d42 4465 9641
00000240: 4138 f243 6d76 4a41 cb46 1442 21ab 4443
00000250: 2782 1343 f58b ad41 e6cb 0c43 bd09 0341
00000260: f475 1241 b0a7 d543 3a83 9542 8e2d 3243
00000270: 6190 1342 032d 0743 6644 7d41 7960 a243
00000280: 4cce 9f41 657d 2841 d845 243b 611d bc3b
00000290: 9323 f939 10bc f23b a3e7 833b c2d1 e13a
000002a0: ba5e 5a3b 54ed a23a 107a 0c3a 3192 5e3c
000002b0: 5de4 bd39 9500 8b3a 2ee7 b53b 7d23 893b
000002c0: a958 203a 15d3 823b 7e30 7739 bbca 8939
000002d0: 954f 453c 3302 0d3b a791 a63b 8a99 8a3a
000002e0: d740 783b aff8 ea39 89bb 153c 4941 173a
000002f0: 19db 9c39 f574 cb42 5ae0 6943 722e 9c41
00000300: 7638 9743 ed2c 2543 0a26 8d42 ba23 0843
00000310: 912f 4a42 a79d ae41 8704 0c44 3355 6b41
00000320: 9553 2c42 79bb 6343 8601 2b43 22f7 c841
00000330: 6a38 2343 4664 1841 7150 2a41 7c58 f743
00000340: 2df7 ad42 a6d4 4e43 7989 2b42 bf6e 1c43
00000350: 04c4 9241 b7eb bb43 f30a ba41 7b61 4341
00000360: e500 9f41 877a 3642 bbeb 7240 8fc5 6b42
00000370: b275 0042 96a6 5b41 f714 d441 b4d8 1d41
00000380: a849 8840 fb72 d942 0a0d 3840 7383 0641
00000390: b531 3142 f249 0542 2e50 9c40 9a59 fe41
000003a0: e5c1 ee3f 0743 0540 c470 c042 d436 8841
000003b0: 7876 2142 252e 0641 b68e f241 13ab 6440
000003c0: 1426 9242 cde4 9140 484b 1840 6960 ab43
000003d0: e869 2a44 41a1 6542 fd87 5b44 60eb df43
000003e0: d879 6643 5c68 b543 4753 2943 efe7 8942
000003f0: fc54 c044 559d 4942 195b 0c43 df89 1d44
0.000105965715 0.000731651 0.00014018311 0.0010825738 0.00067630224 0.00015453798 0.000686288 6.998476e-05
7.107434e-05 0.00023403396 5.072592e-05 9.6076765e-05 0.0008624513 0.00042821612 1.409706e-05 9.31661e-05
7.587923e-05 0.0002646094 9.575862e-05 0.00020136895 0.0008834118 0.0003030764 0.00019569063 0.00012489865
0.0004934295 4.9765036e-05 1.607088e-05 65.064095 151.78142 13.055689 197.81783 108.18139
44.871517 88.878174 32.24741 14.104226 369.95456 9.777602 27.131542 148.27515
112.60022 15.609992 106.2297 5.5614104 7.1475654 328.99417 56.70951 133.96025
29.233612 99.31758 11.439128 251.78549 15.454143 6.9861712 0.0032104794 0.0073715607
0.0006140151 0.009527118 0.0051947976 0.0022194926 0.004287401 0.0015941991 0.000688519 0.01757954
0.0004645261 0.0013587818 0.007162835 0.0053856783 0.00079018815 0.0051381234 0.0003016127 0.0003364439
0.015551573 0.0027494235 0.006523103 0.0013549736 0.0049036234 0.0005776886 0.011815206 0.0007365338
0.00038553792 210.42336 483.76297 40.39472 625.68207 341.56613 145.8771 281.49954
104.54387 45.16999 1158.2212 30.456587 89.04764 471.09576 353.8765 51.973225
337.57062 19.73031 22.035831 1023.7025 180.05005 427.81262 88.80892 323.10184
37.958145 777.9865 48.135876 25.235397 228.5087 510.32007 44.500534 665.61444
366.597 150.87471 302.65445 113.54273 44.946182 1226.4254 33.113148 96.1058
495.86578 380.0755 48.1584 356.0973 6.418042 23.93641 1121.0468 183.88087
453.4732 101.661606 337.1512 39.873295 863.5359 49.34065 15.544616 87.470314
201.55978 16.866375 260.79828 142.70413 60.897247 117.4715 43.49153 18.799446
484.43948 12.653913 37.069134 196.66847 147.5084 21.693338 140.79648 8.1898775
9.153797 427.31006 74.7563 178.17795 36.890995 135.17583 15.829199 324.7537
19.97573 10.530614 0.0025066044 0.005740807 0.00047519486 0.0074076727 0.004025416 0.001722865
0.0033320622 0.0012430348 0.0005358765 0.013584659 0.00036219033 0.0010605032 0.0055512404 0.0041851387
0.0006116727 0.003992448 0.0002357382 0.00026281722 0.0120429 0.0021516203 0.005083281 0.0010574323
0.0037880444 0.00044817242 0.00913895 0.0005769921 0.0002991788 101.72843 233.87637 19.522678
302.4411 165.17549 70.574295 136.13956 50.54645 21.826979 560.07074 14.708301
43.081623 227.73232 171.00595 25.12067 163.22037 9.524481 10.644639 494.69128
86.982765 206.83066 42.88425 156.4326 18.34571 375.84152 23.255346 12.211299
19.875437 45.619656 3.7956378 58.94293 32.114937 13.72817 26.510237 9.865406
4.2589912 108.72457 2.8757958 8.407092 44.298542 33.322212 4.8847876 31.79375
1.8652922 2.082216 96.220245 17.026772 40.365692 8.386266 30.319683 3.5729415
73.07437 4.55918 2.3795948 342.7532 681.6548 57.407475 878.1248 447.83887
230.47595 362.8153 169.3253 68.952995 1538.6558 50.403645 140.35585 630.15424

exp_avg f4 [64]
00000000: a0a1 3338 959d d1be 3862 0fbb 91ba 10bf
00000010: 7fc0 7b3f cffc bdbe ebb5 f4ba c49d c9be
00000020: 9b3f 2f3e 579d 90bf 17ba 1b3e ccc9 273e
00000030: 80fe 7b3e 9481 28bf cac6 04bf 3393 02bb
00000040: d984 6b3e e103 4f3e 4465 413e 768c 65bd
00000050: 64c1 723e 68e8 13bf 30ca 973e 7f26 14ba
00000060: 6311 a4ba 2666 10bf 643f 483e f048 453e
00000070: c36a 16bb 3ef0 fdba a4d1 09bb ba79 09bf
00000080: 8eb3 c6ba 5f26 eaba f0ad 81bd 36da 093e
00000090: 1c7d 4b3e d0cf 2dbe 7e73 f5be 5bbe e7be
000000a0: d120 14bb 4400 7f3e c2cd 513e 71a8 293e
000000b0: fc2d 673e af2c 813e 01c7 6f3e 284f 7f3e
000000c0: 79f6 973e 9900 25bf 880c d5be 9615 363e
000000d0: 46b7 f8be a5da d1be ec58 1abb 031c 8f3e
000000e0: 8ae5 753e cc29 833f 92e1 e6ba 93f3 823e
000000f0: 4a8c deba 040b cbba eeb4 c7ba 04cd 8e3e
4.282745e-05 -0.40940538 -0.0021878611 -0.5653468 0.983406 -0.3710694 -0.0018669938 -0.39378178
0.17114107 -1.1298016 0.15207706 0.16385573 0.24608803 -0.6582272 -0.5186583 -0.0019924163
0.22999896 0.20216323 0.18886286 -0.056042157 0.23706585 -0.577765 0.29646444 -0.00056514883
-0.0012517389 -0.56405866 0.19555432 0.19266105 -0.0022951819 -0.0019373966 -0.0021029497 -0.53701365
-0.0015159713 -0.0017864219 -0.06332004 0.13462147 0.19871944 -0.16973805 -0.47939676 -0.45262417
-0.0022602568 0.24902445 0.20488647 0.16568162 0.22576135 0.25229403 0.23415758 0.2493254
0.2968023 -0.64454037 -0.41611123 0.17781672 -0.48577327 -0.40987125 -0.0023551537 0.2795106
0.24013343 1.024713 -0.0017614833 0.25576457 -0.0016979065 -0.0015490954 -0.0015236416 0.2789079

exp_avg_sq f4 [64]
00000000: c53d 3039 553d 7c41 0a52 583a e044 5642
00000010: d630 4e42 b78b b241 7c14 273a c56b cf41
00000020: 79d5 a140 ab80 9242 3626 8240 b376 9440
00000030: a215 2041 d005 0542 d20f 3d42 2de7 393a
00000040: b0b0 0c41 9c09 e340 f034 d040 8267 223e
00000050: 1945 1841 16f1 6f42 c274 6f41 6828 2d39
00000060: 52cd 8d39 0ff5 cc40 3687 cc40 94e7 d740
00000070: aa9c 703a 36e2 2e3a af35 483a 8513 4942
00000080: 4381 d839 e053 123a 37e0 1241 896b 4040
00000090: b839 e240 7456 c43e 33cb 1942 0a6f 0a42
000000a0: 9a6d 683a bbbc 2041 da7d ee40 4d85 9540
000000b0: 112c 0e41 6c4c 3141 6756 1841 e46e 2941
000000c0: 6a72 6c41 203c 6a42 4b4e db41 ae31 b440
000000d0: c8e1 6042 ff91 d941 acf1 803a 6ee0 5e41
000000e0: 9a04 2341 a535 5042 1d1f 013a 74c7 3941
000000f0: 90d2 fa39 cb99 d239 d4e8 c439 a167 5941
0.00016807679 15.764974 0.0008251971 53.56726 51.54769 22.31822 0.0006373597 25.927622
5.0573087 73.251305 4.0671644 4.6394897 10.005281 33.255676 47.26545 0.0007091638
8.793137 7.094923 6.506462 0.15859798 9.51687 59.985435 14.966005 0.00016513618
0.0002704659 6.4049144 6.3915052 6.747019 0.0009178618 0.00066712813 0.0007637394 50.269062
0.00041295038 0.00055819564 9.17974 3.0065634 7.0695457 0.38347208 38.448437 34.608437
0.00088664296 10.046077 7.4528627 4.672522 8.885758 11.081158 9.521094 10.589573
14.777933 58.558716 27.413229 5.6310644 56.22049 27.196287 0.0009837649 13.929792
10.188623 52.052387 0.0004925596 11.611195 0.00047840597 0.00040168906 0.00037557504 13.5878

exp_avg f4 [1, 64]
00000000: 21b8 8abc 19ac 8040 e167 6fbc a8fd 5f40
00000010: 35c8 47c0 5c68 a140 74ed 07bd c55f 7740
00000020: e356 0d40 3684 8b40 9cf2 3940 b163 db3f
00000030: 238b 523e b5c9 6e40 5938 a540 35b6 05bd
00000040: e5a9 253f 5c12 993f d48f 7540 5222 283e
00000050: 4cee 9d3e 3fe1 ae40 7b59 a73e 96e2 d2bc
00000060: 55eb 27bd 5628 9b3f 7a88 633f 40e9 5f40
00000070: 22cb 78bc c302 dfbc 1168 9cbc d34c 9540
00000080: 5e68 17bd 49b9 fcbc b779 bf3e 5d3a 2840
00000090: 3a07 3640 7a81 713e 6786 b440 b6a3 8240
000000a0: c873 61bc 35de 043f 8fe3 f63f cc97 1a40
000000b0: e50f f73f 8361 a13f 63eb 3a3f 6c60 4a3f
000000c0: 9b7e 0cbe ce85 c740 6193 b040 cf77 f83f
000000d0: 693f 7a40 8d42 9440 cca7 61bc 1176 a03f
000000e0: 5a2a 5d3f c2d1 92c0 7cf5 783b 0441 503f
000000f0: 5354 92bc 05f9 c0bc cb5d 88bc c585 403f
-0.016933503 4.021008 -0.014612169 3.499857 -3.1215947 5.043989 -0.033185437 3.8652203
2.2084281 4.359889 2.9054327 1.7139798 0.20560889 3.7310612 5.1631284 -0.03264447
0.64712363 1.1958728 3.8369036 0.16419342 0.3084587 5.464996 0.32685456 -0.02574281
-0.040995914 1.2121685 0.8888012 3.4986115 -0.015185149 -0.027222997 -0.019092591 4.665628
-0.036964767 -0.03085007 0.3739755 2.6285622 2.844191 0.23584548 5.6414065 4.0824842
-0.013760515 0.5190156 1.9288195 2.415515 1.9301726 1.2607883 0.7301542 0.7905338
-0.13720171 6.2350836 5.5179906 1.9411563 3.9101202 4.633124 -0.013772916 1.2536031
0.8639275 -4.588105 0.0037988117 0.81349206 -0.017862475 -0.023556242 -0.016646286 0.75204116

exp_avg_sq f4 [1, 64]
00000000: e8c3 3f3c 5497 cf42 d1fc a43d d322 d642
00000010: ecd9 fd42 75d5 3743 3035 283e 5fe9 1e43
00000020: 74f6 b744 3aba b542 5172 d444 8eb6 6c44
00000030: 95a4 2844 cf5d a242 9d56 5d43 e0a4 193e
00000040: 9d32 3844 5701 4744 8c63 f944 a86c 913e
00000050: 23a6 6644 0131 ac43 f0a4 2144 7964 a63c
00000060: bc70 4f3e 3be6 0341 acf7 8044 84b1 c344
00000070: 3e95 b13d ada4 eb3d 8b50 003e 6df3 4b43
00000080: b7bd 653e 731f 323e 1472 7740 c34a ac44
00000090: da57 ae44 b4ec 803f 3a90 6843 b9b9 3043
000000a0: c162 bb3d d115 1744 c684 8b44 cee9 ac44
000000b0: fd08 4e44 46fd 3044 11ad 3f44 6f78 5c44
000000c0: be30 1644 c57d 7843 73b1 5243 d4e9 9544
000000d0: c95e 2243 f3e3 0b43 09cd a03d 9d9b 6644
000000e0: 1f10 8344 44e2 3443 a4f7 703c 42c2 2644
000000f0: 47d3 133e 8b83 053e 61d6 df3d 4f66 4444
0.0117044225 103.79556 0.080560334 107.068016 126.92563 183.83382 0.1642654 158.9116
1471.7017 90.86372 1699.5724 946.8524 674.5716 81.18322 221.33833 0.15004301
736.79083 796.02094 1995.1108 0.2840321 922.5959 344.38284 646.57715 0.020311581
0.20257849 8.243709 1031.7397 1565.5474 0.08671044 0.11506019 0.12530725 203.95088
0.22435652 0.1739481 3.8663378 1378.3363 1394.7454 1.0072236 232.56339 176.72548
0.09149695 604.3409 1116.1492 1383.3064 824.14044 707.9574 766.70416 881.8818
600.7616 248.49129 210.69316 1199.3071 162.37025 139.89043 0.07851607 922.43146
1048.5038 180.88385 0.01470748 667.0353 0.14436065 0.13038461 0.109295614 785.5986
