experiments/tcnn-abilities/models/SmallBTCNN_SmallFCNN_2.pth (torch, 57266 bytes, 15 tensors)

btcnn.layers.0.conv1d.weight f4 [27, 27, 3]
0	0xbddb7087	-0.10714822
1	0x3c7c86d5	0.015413006
2	0x3cd555d5	0.026041904
3	0xbc1e0d47	-0.00964672
4	0xbf2c7e6d	-0.6738041
5	0xbf411611	-0.75424296
6	0xbe910029	-0.28320435
7	0x3ea168c3	0.3152524
8	0xbe54b735	-0.20773013
9	0xbdb31992	-0.087451115
10	0xbb330406	-0.002731563
11	0xbee45448	-0.44595551
12	0x3b77f58e	0.003783557
13	0xbf1d0d6a	-0.61348593
14	0xbcf92c95	-0.030416766
15	0x3bca7272	0.0061781937
16	0xbdb40a44	-0.087910205
17	0xbaab838e	-0.0013085471
18	0x3d244832	0.040107913
19	0xbe03b544	-0.12862116
20	0xbd5f3c55	-0.054500896
21	0x3da9a329	0.082830735
22	0x3ec900e2	0.39258486
23	0x3d77cfce	0.060500912
24	0xbcc5f04f	-0.02416244
25	0xbdbddeae	-0.092709884
26	0xbdcbf396	-0.0995857
27	0xbd40167d	-0.046896446
28	0x3e798046	0.24365339
29	0x3c6abe64	0.014327619
30	0xbd5d2df5	-0.053998906
31	0x3d9c859e	0.07642673
32	0xbcd0bc80	-0.025480509
33	0xbda53a9d	-0.0806782
34	0x3d5bd3ee	0.05366891
35	0x3d49e789	0.049293075
36	0xbd95262e	-0.07282673
37	0xbddf00be	-0.108888134
38	0xbdb24f3d	-0.0870652
39	0xbc91e907	-0.017811311
40	0xbea3d291	-0.31996587
41	0xb9704aab	-0.00022916
42	0x3d5899ae	0.052880935
43	0x3f337b39	0.701099
44	0xbd5d877d	-0.05408429
45	0xbb1def1d	-0.0024098821
46	0x3e19293a	0.14957133
47	0x3eb0be3c	0.34520137
48	0xbda8b3f9	-0.08237452
49	0x3c0e9ee4	0.008704875
50	0xbdde263b	-0.10847136
51	0xbd3772e0	-0.044787288
52	0x3c4e820e	0.01260425
53	0x3c72820e	0.014801515
54	0x3d3442dd	0.04400908
55	0xbd804abe	-0.06264256
56	0x3c940295	0.018067637
57	0x3de08d6b	0.10964473
58	0x3efa52a7	0.48891184
59	0xbf00aa47	-0.5025982
60	0x3e430c83	0.19047742
61	0xbec211ee	-0.37904304
62	0xbf0e36cd	-0.5555237
63	0xbd63fa3b	-0.05565856
64	0x3e8176e6	0.25286025
65	0x3ebccae3	0.3687354
66	0x3d13f680	0.036123753
67	0xbeb0dd3f	-0.34543797
68	0x3c1adbe4	0.00945184
69	0xbc21e2ab	-0.009880702
70	0xbd46f418	-0.04857263
71	0x3d27f0bd	0.04100107
72	0x3de61a35	0.11235467
73	0xbd868159	-0.0656764
74	0x3e42d1a6	0.19025287
75	0x3baf32c2	0.005346627
76	0xbdcfaea4	-0.10140732
77	0x3eb0a6c7	0.3450224
78	0xbd185eec	-0.0371999
79	0xbc7518a0	-0.014959484
80	0x3e67508f	0.22589324
81	0x3b98c81d	0.0046625272
82	0x3d29ed80	0.041486263
83	0xbd476352	-0.048678704
84	0xbea33c4d	-0.31881943
85	0xbf1d73df	-0.6150493
86	0x3e7a5f4d	0.24450417
87	0xbe907595	-0.28214708
88	0xbca3e9f3	-0.020009017
89	0x3c6a7bb9	0.014311724
90	0x3d974147	0.073854975
91	0xbd1fdc41	-0.03902841
92	0xbf090dbd	-0.5353659
93	0xbdbb9598	-0.09159392
94	0xbea6c47f	-0.3257179
95	0xbca011ce	-0.01953974
96	0x3dbddd82	0.09270765
97	0xbd9fa7e7	-0.07795697
98	0x3d35e952	0.044411965
99	0x3c4cde9d	0.012504247
100	0x3d978ac8	0.07399517
101	0x3d72da80	0.05929041
102	0xbebd2ded	-0.369491
103	0xbe384eae	-0.17998764
104	0x3dd532c9	0.10410077
105	0x3c39235b	0.011299933
106	0x3d2b8ab5	0.04188033
107	0xbe57caa5	-0.21073397
108	0xbe3df1f4	-0.18549329
109	0xbe895150	-0.2681985
110	0xbd299d3d	-0.04140972
111	0xbd8f73c7	-0.07004505
112	0x3d4a2b7d	0.04935788
113	0x3dd23cb7	0.10265487
114	0x3d844365	0.06458167
115	0xbe92496e	-0.28571647
116	0x3ddff657	0.109356575
117	0xbd00364b	-0.031301778
118	0xbd00ac15	-0.03141411
119	0x3dc5718b	0.09640797
120	0xbf03090f	-0.511857
121	0xbe925861	-0.28583053
122	0xbddf4637	-0.10902064
123	0x3d0a49b9	0.033761714
124	0xbe3ecade	-0.18632075
125	0x3dc236b7	0.09483092
126	0x3d9e7ca8	0.0773862
127	0xbeed04e7	-0.46292803
128	0x3e1a0e7d	0.1504459
129	0x3e2d6a3e	0.1693506
130	0xbd8788fd	-0.06617925
131	0xbda2d4b5	-0.07950727
132	0xbdd7b1c6	-0.105319545
133	0x3d82a087	0.063782744
134	0x3dd340e2	0.1031511
135	0xbdb538d4	-0.0884873
136	0x3e2bb806	0.16769418
137	0x3d1085d9	0.035283897
138	0xbe9290ef	-0.286262
139	0xbe6d4c9d	-0.23173757
140	0xbde5a8e5	-0.11213855
141	0x3e48709d	0.19574209
142	0x3e48d034	0.19610673
143	0xbdfd061b	-0.1235468
144	0x3d4ba80b	0.049720805
145	0x3d8323ef	0.06403338
146	0x3e47db89	0.1951734
147	0xbe170a6f	-0.14750074
148	0xbc64ce2b	-0.01396517
149	0x3db7b7fe	0.089706406
150	0xbddb3d44	-0.10705045
151	0x3e9ec23f	0.31007573
152	0xbdc558c9	-0.09636075
153	0xbf005417	-0.5012831
154	0x3d1902cb	0.03735618
155	0xbe5fabc9	-0.21842875
156	0x3cb89bf5	0.022535304
157	0x3e0df779	0.13863935
158	0x3e01718e	0.12640974
159	0x3dd06fea	0.10177596
160	0xbb5b93bf	-0.0033504812
161	0x3dffec64	0.1249626
162	0xbd8ce559	-0.06879682
163	0xbdd515c2	-0.104045406
164	0x3daeee80	0.08541584
165	0xbea7224b	-0.3264335
166	0x3edf2532	0.43583065
167	0xbefc3f55	-0.49267069
168	0x3e18c354	0.14918262
169	0xbe22f6c0	-0.1591444
170	0x3d544112	0.05181987
171	0xbd0fc3b2	-0.03509874
172	0xbe8d9020	-0.2764902
173	0xbe864eba	-0.2623194
174	0xbe830ab8	-0.25594115
175	0x3e3777ef	0.17916845
176	0xbdcf9297	-0.10135382
177	0xbd5aa6ce	-0.053381734
178	0x3f096e59	0.53684
179	0x3d7e50f9	0.06208894
180	0x3e0007e2	0.12503007
181	0x3ec58395	0.38576952
182	0xbdde1060	-0.10842967
183	0xbe1b353a	-0.15157023
184	0xbd9536bd	-0.07285831
185	0xbd742747	-0.05960777
186	0xbeeacecc	-0.45860898
187	0xbd4c0b3d	-0.049815405
188	0xbd1c108e	-0.038101725
189	0xbe802598	-0.25028682
190	0xbf572550	-0.8404131
191	0x3b7ed8ab	0.0038886468
192	0xbc267b03	-0.010161164
193	0xbd8a6087	-0.067566924
194	0xbddbcb0d	-0.10732088
195	0xbd60defd	-0.05490016
196	0xbf08a1d2	-0.5337192
197	0x3ee2f5b4	0.44328082
198	0x3db297d0	0.08720362
199	0xbdb297e4	-0.08720377
200	0x3d355b60	0.044276595
201	0xbe407da6	-0.18797931
202	0xbdbbeb39	-0.091757245
203	0x3c10c1e4	0.00883529
204	0xbe84e4b2	-0.2595573
205	0x3ee97e00	0.45603943
206	0x3d949d05	0.072565116
207	0x3c054fb9	0.008136683
208	0xbe448384	-0.19190794
209	0x3e02a621	0.12758686
210	0xbdac6351	-0.084173806
211	0x3d9e81ee	0.07739626
212	0x3d1051b9	0.035234187
213	0xbf031f24	-0.5121939
214	0xbd842217	-0.064518146
215	0xbc951f1d	-0.018203313
216	0x3da3d2ce	0.07999192
217	0xbcca810e	-0.024719741
218	0xbd18b307	-0.03728011
219	0x3e7cc37a	0.24683943
220	0xbea39f81	-0.3195763
221	0x3c707b00	0.014677763
222	0x3dd9e6e7	0.10639744
223	0x3d232477	0.039829697
224	0xbe1b14a0	-0.15144587
225	0xbdc40b27	-0.0957244
226	0x3c9325c4	0.017962344
227	0xbe2c905f	-0.16851948
228	0xbe714bdf	-0.23564099
229	0xbdb20197	-0.086917095
230	0xbdd28f1e	-0.10281204
231	0xbed5f8a0	-0.41791248
232	0xbf047ea6	-0.5175575
233	0x3ba6491d	0.0050746338
234	0x3e35c9c3	0.17752747
235	0xbd544ce0	-0.051831126
236	0x3e88dc9d	0.26730815
237	0xbd763866	-0.06011238
238	0x3da3e842	0.08003284
239	0xbdf9e7fe	-0.12202452
240	0xbe468530	-0.19386744
241	0xbe93bbdb	-0.2885426
242	0x3e932ea4	0.2874652
243	0x3e3acfbc	0.18243307
244	0xbc7b13c9	-0.015324541
245	0x3ddb42ab	0.10706075
246	0x3d13930a	0.0360289
247	0xbde9860b	-0.1140252
248	0xbe02b5ff	-0.12764739
249	0xbe35f605	-0.1776963
250	0x3e1886c4	0.14895159
251	0x3dcf22c7	0.10114055
252	0x3e3b7b8b	0.18308847
253	0x3cc1f20b	0.023674985
254	0x3dec8a94	0.11549869
255	0xbde310d2	-0.110871926

btcnn.layers.0.conv1d.bias f4 [27]
0	0xbcbfc772	-0.023410533
1	0x3ca2750d	0.019831205
2	0xbd9c298e	-0.076251134
3	0x3e0cc5cc	0.13747329
4	0x3dcb7403	0.09934237
5	0xbc2c9b8f	-0.010535135
6	0xbdec195e	-0.11528276
7	0x3d3d5f56	0.046233498
8	0xbe116676	-0.14199242
9	0x3d937939	0.07200856
10	0xbe29291c	-0.16519588
11	0x3cb86fbe	0.02251422
12	0x3b7ab65c	0.0038255667
13	0xbdc4ba90	-0.096058965
14	0x3cec41b0	0.028839916
15	0xbb7664b8	-0.0037596654
16	0xbd4975c5	-0.04918458
17	0xbdc9b20c	-0.09848413
18	0xbd873cd3	-0.06603398
19	0xbdbf139e	-0.093299136
20	0x3d83c14a	0.06433351
21	0xbdd2a411	-0.102851994
22	0x3bbb4e9e	0.005716159
23	0xba04e454	-0.0005069424
24	0x3d66a011	0.056304995
25	0x3e027efe	0.12743756
26	0x3e105ee6	0.14098701

fcnn.0.weight f4 [64, 27]
0	0xbeb9db2e	-0.36300033
1	0x3e105d7a	0.14098158
2	0x3e60c31e	0.21949431
3	0x3e2b0fbb	0.1670522
4	0x3e1a6797	0.15078579
5	0xbe94cd24	-0.2906276
6	0xbd895d97	-0.06707304
7	0xbe36553d	-0.17805953
8	0xbe9245af	-0.2856879
9	0xbd535d3a	-0.05160258
10	0xbd208db0	-0.039197624
11	0xbebbe48d	-0.36697808
12	0x3e241e5f	0.1602721
13	0x3ce8ff3b	0.028442016
14	0x3e383005	0.17987068
15	0x3e36fb51	0.17869307
16	0x3caa6664	0.020800777
17	0xbe8bfa00	-0.27339172
18	0xbe7f2015	-0.24914582
19	0x3e620cb1	0.22075154
20	0x3e5d4d21	0.21611454
21	0x3e00d57f	0.12581442
22	0xbe3be39b	-0.18348543
23	0x3e66af83	0.2252789
24	0x3d87bbd1	0.0662762
25	0x3e445027	0.191712
26	0xbe20f70d	-0.15719242
27	0xbea375b3	-0.31925735
28	0x3dd25197	0.10269468
29	0xbe42642a	-0.18983522
30	0x3e6011c5	0.21881779
31	0xbe3f54cf	-0.18684696
32	0x3dafd7e1	0.085860975
33	0xbd09cc3c	-0.03364204
34	0xbe4dbb15	-0.20090897
35	0xbe08c69d	-0.13357015
36	0x3e42ad4b	0.19011419
37	0xbe4d0405	-0.20021065
38	0xbe580540	-0.21095753
39	0xbe124638	-0.14284599
40	0x3d676589	0.056493316
41	0xbe1729c5	-0.14762028
42	0x3defae33	0.11703148
43	0xbea67248	-0.32509065
44	0xbe6027dc	-0.21890205
45	0x3e049394	0.12946922
46	0x3dbaf683	0.0912905
47	0xbe949f36	-0.29027718
48	0x3e17f59e	0.1483979
49	0xbdf3065d	-0.11866448
50	0xbe9e4701	-0.30913547
51	0x3d97b1cf	0.07406961
52	0x3d35d392	0.044391222
53	0xbccc9b22	-0.024976317
54	0xbe2507a4	-0.16116196
55	0xbbd43095	-0.006475518
56	0xbe91fc48	-0.28512788
57	0x3d5a2379	0.053256486
58	0x3d75fe26	0.060056828
59	0xbe265cab	-0.16246288
60	0xbe93b93e	-0.28852266
61	0xbe9ddf58	-0.3083446
62	0xbef8112b	-0.48450598
63	0x3e0ef2a3	0.13959746
64	0xbe96bb0e	-0.29439586
65	0x3e134799	0.14382781
66	0xbe80baa2	-0.2514239
67	0xbe9d01a4	-0.30665314
68	0xbea5286e	-0.32257408
69	0xbe5dd1de	-0.21662089
70	0x3e1de7b5	0.1542042
71	0xbe94204f	-0.289309
72	0xbe3f06e6	-0.18654975
73	0x3cf618e6	0.03004117
74	0xbd886ff1	-0.06661976
75	0xbe75cb0a	-0.24003235
76	0x3c8834f9	0.016626822
77	0xbeab00cf	-0.33399054
78	0x3e437daf	0.19090913
79	0x3ea9e005	0.33178726
80	0x3ec21b99	0.3791168
81	0x3d631fe0	0.05545032
82	0x3e3919ee	0.18076298
83	0x3d310fbe	0.043227904
84	0x3e047c4d	0.12938042
85	0x3ce6f910	0.028194934
86	0xbea20372	-0.31643254
87	0x3d15c7d0	0.03656751
88	0xbdf1c8ab	-0.118058525
89	0xbe8ac726	-0.27105063
90	0x3d49f89f	0.04930937
91	0xbf086c6b	-0.5329043
92	0xbe0bd3ee	-0.13655064
93	0x3dd5f1ad	0.104464866
94	0xbd89fe56	-0.06737964
95	0xbece073d	-0.40239897
96	0x3cbb0807	0.022830976
97	0x3eb3798b	0.35053667
98	0xbea47847	-0.32123014
99	0xbda8b96f	-0.08238494
100	0xbe4e959b	-0.20174257
101	0xbe20039a	-0.15626374
102	0xbe5a4dbc	-0.21318716
103	0x3ea3f6c1	0.32024196
104	0xbf295824	-0.66150117
105	0x3e0fbcb4	0.14036828
106	0x3efa72f2	0.4891582
107	0x3f1d549a	0.61457217
108	0x3da239ab	0.079211555
109	0xbcfbc800	-0.030735016
110	0x3e26760e	0.16255972
111	0x3db832ba	0.0899405
112	0x3d111d7f	0.03542852
113	0x3ea1e38c	0.31618917
114	0xbc18e4fc	-0.009331938
115	0x3de7a82b	0.11311372
116	0x3ddeb5f7	0.10874551
117	0x3e763d80	0.24046898
118	0x3f16462e	0.58700836
119	0x3e2eb550	0.17061353
120	0xbded8590	-0.11597741
121	0x3e9adec8	0.30248094
122	0x3ef564f0	0.47928572
123	0x3dad4c65	0.08461837
124	0xbfb090a3	-1.379414
125	0x3d9dafcb	0.076995455
126	0xbdbdb410	-0.0926286
127	0x3e71e4d4	0.23622447
128	0xbd7ebb69	-0.062190447
129	0x3e904654	0.28178656
130	0x3d8c8e16	0.06863038
131	0x3ef8f394	0.48623335
132	0xbe318e2a	-0.17339388
133	0xbf9f287d	-1.2434231
134	0xbf90d264	-1.1314206
135	0xbd0e3e93	-0.034727644
136	0xbd419b81	-0.04726744
137	0x3da9eab4	0.08296719
138	0xbdbd3f0a	-0.09240539
139	0xbd80fb69	-0.06297953
140	0x3ed25092	0.41077095
141	0x3d401781	0.046897415
142	0x3d96a865	0.073563375
143	0x3ebec1a7	0.3725712
144	0x3c35a9ad	0.011087817
145	0x3eb64381	0.35598376
146	0x3aab28f1	0.0013058466
147	0x3de7b503	0.11313822
148	0xbb9778d8	-0.00462256
149	0x3ee27c2e	0.44235367
150	0x3d5be40b	0.053684276
151	0xbf8832de	-1.0640523
152	0x3d82431f	0.063604586
153	0x3dbb0a08	0.09132773
154	0x3e83fb7d	0.25777808
155	0x3dfdcc21	0.1239245
156	0x3dc89d5a	0.097956374
157	0xbde79075	-0.1130685
158	0x3ee03d44	0.43796742
159	0xbcc1ee50	-0.023673207
160	0xbf0d9053	-0.55298346
161	0xbf40c426	-0.752993
162	0xbdc06e1a	-0.09396
163	0xbe32645c	-0.17421097
164	0xbec917a8	-0.3927586
165	0x3ddd9c3d	0.10820816
166	0xbdc29ede	-0.09502958
167	0xbd02bd4b	-0.031918805
168	0xbe50c910	-0.203892
169	0xbdea9325	-0.11453847
170	0xbea57b47	-0.32320616
171	0xbe27f75b	-0.16402952
172	0xbeb7a62d	-0.3586897
173	0xbcf6eeed	-0.030143226
174	0xbd857b98	-0.06517714
175	0xbdbdc985	-0.092669524
176	0xbf09cc6f	-0.53827566
177	0xbe258f17	-0.16167866
178	0x3ea63474	0.32461894
179	0xbeb8b7fd	-0.36077872
180	0xbe509ec9	-0.20373072
181	0xbe4109d2	-0.18851402
182	0xbdeff434	-0.117165
183	0xbdbfadbe	-0.093593106
184	0x3e542232	0.2071617
185	0xbef9df99	-0.48803404
186	0x3d94c1e4	0.07263544
187	0x3def2f6a	0.116789654
188	0x3eba162e	0.36345047
189	0x3db35bc2	0.08757736
190	0xbded035d	-0.11572907
191	0xbdf0d30c	-0.11759004
192	0x3e1bc0d1	0.15210272
193	0xbcc05c1b	-0.02348142
194	0xbd7af09d	-0.061264623
195	0x3daae19c	0.08343813
196	0xbe901733	-0.281427
197	0xbe3c02a1	-0.18360378
198	0xbd8da906	-0.06917004
199	0xbe9fbec6	-0.31200236
200	0xbe2952dd	-0.16535516
201	0x3ddc533b	0.107580625
202	0xbdbcf6e1	-0.09226776
203	0xbec5d78a	-0.38641006
204	0xbda0695e	-0.07832597
205	0x3ed88fa5	0.42297092
206	0xbcb95931	-0.022625538
207	0x3dd7980a	0.10527046
208	0xbdfecb71	-0.12441147
209	0xbd8e2a0d	-0.06941614
210	0xbe2ca5ea	-0.16860166
211	0x3e41c740	0.18923664
212	0xbeb9745e	-0.36221594
213	0x3e8371e9	0.25672844
214	0x3eb73761	0.35784438
215	0x3eb42734	0.3518616
216	0xbd6f942c	-0.058490917
217	0xbdc1881b	-0.09449788
218	0x3e96716c	0.2938341
219	0x3e4df18c	0.20111674
220	0x3e5cf0fd	0.21576305
221	0x3e8c787c	0.27435672
222	0x3c913aab	0.01772817
223	0x3e866114	0.2624594
224	0x3ee71a61	0.45137313
225	0x3e80f8aa	0.25189716
226	0x3e7ced02	0.24699786
227	0x3e2cd055	0.16876347
228	0xbd6c1a28	-0.057642132
229	0x3e9a86b9	0.3018091
230	0x3eaa5c2f	0.33273456
231	0x3e6d2769	0.23159565
232	0xbf05c98a	-0.5226065
233	0x3d8cf358	0.06882352
234	0x3e34a8ba	0.17642489
235	0xbd3006ef	-0.042975362
236	0x3e7f3f46	0.2492648
237	0xbaf89813	-0.001896622
238	0x3b12a565	0.0022376415
239	0x3f146585	0.57967407
240	0xbea40110	-0.3203206
241	0xbede6daf	-0.43443057
242	0xbf06fe7d	-0.5273207
243	0x3ebfc82d	0.3745741
244	0xbe17f9d2	-0.14841393
245	0xbe83ecb3	-0.25766525
246	0xbe16c5ed	-0.1472394
247	0xbdb6946c	-0.08915028
248	0xbe0f80eb	-0.14014022
249	0xbe8078a2	-0.25092036
250	0x3dcdf3f1	0.10056294
251	0xbe94abc8	-0.2903731
252	0xbdd1a5dd	-0.10236714
253	0xbe6270af	-0.22113298
254	0x3ec90676	0.39262742
255	0xbe410fc5	-0.18853672

fcnn.0.bias f4 [64]
0	0x3d3165d2	0.043309994
1	0xbda5bd28	-0.08092719
2	0x3dc26469	0.09491808
3	0x3e5439cd	0.20725174
4	0x3dc4c07a	0.096070245
5	0xbd1d5249	-0.03840855
6	0xbdfe7fd5	-0.12426726
7	0x3e1645a6	0.14675006
8	0x3c1aef80	0.009456515
9	0x3e04b659	0.12960185
10	0xbd07cbe5	-0.033153433
11	0x3d981348	0.074255526
12	0x3d383eee	0.04498189
13	0x3e76176b	0.24032371
14	0x3d367bf1	0.044551793
15	0xbd359c12	-0.044338293
16	0xbddd8a0d	-0.10817347
17	0x3d43e463	0.04782523
18	0x3e46427e	0.19361302
19	0x3c4fd07a	0.012683982
20	0xbd1cb289	-0.038256202
21	0x3bb6d50b	0.005579596
22	0x3d291cfb	0.041287404
23	0xbcbd3c52	-0.023100052
24	0xbda7b017	-0.08187883
25	0x3e70627b	0.23475067
26	0x3e49f656	0.19722876
27	0x3bce0b6d	0.006287983
28	0x3e56df0f	0.20983528
29	0xbe08ea37	-0.13370596
30	0xbe3640cb	-0.17798154
31	0x3e5743e5	0.21021993
32	0xbd945441	-0.07242633
33	0x3e8c610b	0.27417788
34	0x3e16979d	0.14706273
35	0x3d770f50	0.060317338
36	0x3e2b6a15	0.16739686
37	0x3d3f90c8	0.046768934
38	0x3d8c9c1d	0.06865714
39	0x3dc2c3c8	0.095099986
40	0xbe1f7522	-0.15572026
41	0xbe5f3ded	-0.21800967
42	0x3c34062d	0.010987801
43	0x3e2c0f64	0.16802746
44	0x3dcf939d	0.10135577
45	0x3dc90f5d	0.098173834
46	0x3e10b7f9	0.1413268
47	0xbd773237	-0.060350623
48	0xbd875db2	-0.06609668
49	0x3ea845b1	0.3286567
50	0x3e3e0963	0.18558268
51	0xbd8df064	-0.069306165
52	0x3e5c2464	0.21498257
53	0xbc2e7ad2	-0.0106494
54	0x3e5cf62c	0.21578282
55	0xbda58771	-0.08082474
56	0xbd5a58f5	-0.053307492
57	0x3dc7586c	0.09733662
58	0x3d71d8aa	0.059044518
59	0x3e1cd7a0	0.1531663
60	0xbe100f59	-0.14068355
61	0xbe42a552	-0.19008377
62	0x3e275ae3	0.16343264
63	0x3d44cf61	0.048049334

fcnn.2.weight f4 [1, 64]
0	0xbf08d690	-0.53452396
1	0xbf4905d3	-0.7852451
2	0xbeaf9077	-0.34289905
3	0xbf62ebfe	-0.88641346
4	0x3f926209	1.1436168
5	0x3f85b9a1	1.0447274
6	0xbea768e6	-0.3269722
7	0xbf240586	-0.6407093
8	0x3eb04f9c	0.34435737
9	0xbfb7da56	-1.4363506
10	0x3e850b9f	0.2598543
11	0x3e8d04b6	0.27542657
12	0x3eaa8df2	0.3331142
13	0xbf85edf9	-1.0463248
14	0xbf325e44	-0.6967509
15	0xbe9a143f	-0.30093572
16	0x3e91a414	0.28445494
17	0x3e9571c3	0.29188356
18	0x3e8d899d	0.27644053
19	0xbf2de5d7	-0.6792883
20	0x3e99db4c	0.30050123
21	0xbf580b94	-0.84392667
22	0x3ebc358d	0.36759606
23	0xbf420a5a	-0.75797045
24	0xbe676a72	-0.225992
25	0xbf1a1bed	-0.6019886
26	0x3e96c250	0.29445124
27	0x3ec20ebc	0.37901866
28	0xbea83403	-0.32852182
29	0xbe981103	-0.2970048
30	0xbe942a96	-0.2893874
31	0xbf3e59d4	-0.74355817
32	0xbe8060c9	-0.2507384
33	0xbe991b2c	-0.29903543
34	0xbf6f3822	-0.93445027
35	0x3e6a9f28	0.22912276
36	0x3ea5d5b3	0.32389602
37	0x3e45905d	0.19293351
38	0xbf2ddfe5	-0.6791976
39	0xbf21f5dd	-0.6326578
40	0xbea0ec63	-0.3143035
41	0x3e938e21	0.28819373
42	0x3eba5ccd	0.36398926
43	0x3e99b55d	0.30021182
44	0x3e9c6949	0.30549076
45	0x3ec953d1	0.3932176
46	0x3e96d4e2	0.29459292
47	0x3ed0908b	0.40735278
48	0x3ed0dd91	0.40794042
49	0xbf4d98cc	-0.80311275
50	0xbf05fdfc	-0.52340674
51	0x3ea578f5	0.32318845
52	0xbf78490f	-0.9698648
53	0xbf27d4e1	-0.655592
54	0xbea46570	-0.3210864
55	0x3ef0774e	0.46966022
56	0x3ec3ccd6	0.38242215
57	0x3f84cb93	1.0374626
58	0xbf0c3466	-0.54767454
59	0x3effd1fe	0.499649
60	0xbe558dfa	-0.20854941
61	0xbe741fbf	-0.23840235
62	0xbe423f2e	-0.18969414
63	0x3ed3379f	0.41253373

exp_avg f4 [27, 27, 3]
0	0x00000000	0.0
1	0x00000000	0.0
2	0x00000000	0.0
3	0x00000000	0.0
4	0x3daa6c7c	0.08321473
5	0x3d96581d	0.07341025
6	0xbe78324c	-0.24237937
7	0x3d3e1e1e	0.04641544
8	0x3a9f175a	0.0012137697
9	0x00000000	0.0
10	0xbedab3f8	-0.4271543
11	0xbdbd064c	-0.09229717
12	0x00000000	0.0
13	0x3d9cff25	0.076658525
14	0x00000000	0.0
15	0x00000000	0.0
16	0x00000000	0.0
17	0x00000000	0.0
18	0x00000000	0.0
19	0xbcbe7541	-0.02324927
20	0x00000000	0.0
21	0x00000000	0.0
22	0xbe1d7c06	-0.15379342
23	0x00000000	0.0
24	0x00000004	6e-45
25	0x00000000	0.0
26	0x3c8d15b4	0.017222263
27	0x00000000	0.0
28	0x3d35a11e	0.044343106
29	0x00000000	0.0
30	0x00000000	0.0
31	0x00000004	6e-45
32	0x00000000	0.0
33	0x00000000	0.0
34	0xbc3e7e45	-0.011626785
35	0xbcc2ae9b	-0.023764899
36	0x00000000	0.0
37	0x00000004	6e-45
38	0x00000000	0.0
39	0x00000000	0.0
40	0x3a145260	0.0005658027
41	0x00000000	0.0
42	0x00000000	0.0
43	0xbb035c33	-0.0020043969
44	0x00000000	0.0
45	0x00000000	0.0
46	0xbd816e96	-0.06319921
47	0xbf055c5a	-0.5209404
48	0x00000000	0.0
49	0x00000000	0.0
50	0x00000000	0.0
51	0xaa3c016a	-1.6698245e-13
52	0x00000000	0.0
53	0x00000000	0.0
54	0x00000000	0.0
55	0xbd6b1f4c	-0.057402894
56	0x00000000	0.0
57	0xbe1a9a33	-0.15097885
58	0xbce2d125	-0.027687619
59	0x3d30477d	0.043036927
60	0xbf845e63	-1.0341305
61	0xbe01942f	-0.12654184
62	0xbe45d932	-0.19321135
63	0x369e339f	4.7147764e-06
64	0xbf4415ef	-0.7659597
65	0xbf14c82a	-0.58117926
66	0x00000000	0.0
67	0x3c3c970a	0.01151062
68	0x00000000	0.0
69	0x00000000	0.0
70	0xbd11b63e	-0.03557419
71	0x00000000	0.0
72	0xbb82f797	-0.0039968
73	0x00000000	0.0
74	0xbe1a9a34	-0.15097886
75	0xc1127d0f	-9.155532
76	0xc0165e20	-2.349495
77	0xc18f9cc4	-17.951546
78	0xbf43b740	-0.7645149
79	0xc03a69a3	-2.9126976
80	0xbfb2d02c	-1.3969779
81	0x00000000	0.0
82	0x3f377a60	0.71671104
83	0x00000000	0.0
84	0x3d0128e1	0.031533126
85	0x3dff7355	0.1247317
86	0xbcbfd2a0	-0.023415864
87	0x3fb5fc46	1.4217613
88	0x3f043c38	0.51654387
89	0x00000000	0.0
90	0x00000000	0.0
91	0x3f22a835	0.63537914
92	0xb9acd324	-0.00032963709
93	0x3c18532c	0.0092971735
94	0x3a758a40	0.0009366609
95	0x00000000	0.0
96	0x00000000	0.0
97	0x00000000	0.0
98	0x00000000	0.0
99	0x00000000	0.0
100	0x3e82156c	0.2540697
101	0x00000000	0.0
102	0x00000004	6e-45
103	0x3c848182	0.016175035
104	0x00000000	0.0
105	0x3df23c64	0.11827925
106	0x00000000	0.0
107	0x3fb01bc1	1.375847
108	0x3adda9a7	0.0016911522
109	0x3a592702	0.00082837057
110	0x00000000	0.0
111	0x00000004	6e-45
112	0x31ac2f61	5.011245e-09
113	0x00000000	0.0
114	0x00000000	0.0
115	0x3d6d0077	0.05786177
116	0x3d3dbd29	0.046322975
117	0x00000000	0.0
118	0x00000000	0.0
119	0x00000000	0.0
120	0x00000004	6e-45
121	0x3d1b0577	0.03784701
122	0x00000000	0.0
123	0x00000000	0.0
124	0xbd79a72e	-0.06095045
125	0x00000000	0.0
126	0x3f377a60	0.71671104
127	0x3b005cac	0.0019586487
128	0x3f1c5bf8	0.61077833
129	0x3e07877d	0.13235278
130	0x00000000	0.0
131	0x00000000	0.0
132	0x31ac2f61	5.011245e-09
133	0x00000000	0.0
134	0x00000000	0.0
135	0x00000000	0.0
136	0xbd4bd2b4	-0.04976149
137	0x00000000	0.0
138	0x3e10aa0c	0.14127368
139	0x3dfa261f	0.12214302
140	0x00000004	6e-45
141	0x4034c940	2.8247833
142	0x3fe9c3ac	1.8262839
143	0x80000004	-6e-45
144	0x00000000	0.0
145	0x3f8a2d58	1.0795088
146	0x400f3099	2.2373412
147	0x3bfbfabb	0.0076898015
148	0x00000000	0.0
149	0x00000000	0.0
150	0xb58ee8be	-1.0647561e-06
151	0x3e0d58cd	0.13803406
152	0x00000000	0.0
153	0x3c53d47e	0.01292908
154	0x00000000	0.0
155	0x3e10aa0e	0.1412737
156	0x4220fb07	40.245144
157	0x42704a1c	60.072372
158	0x41c8dce7	25.107862
159	0x410fee4f	8.995681
160	0x40a2177e	5.0653677
161	0x4085c22d	4.179953
162	0x00000000	0.0
163	0x3efd1c15	0.49435487
164	0x00000000	0.0
165	0x00000004	6e-45
166	0xbe9d2fc6	-0.3070051
167	0x3e5caac1	0.21549512
168	0xbeef7a2b	-0.46772894
169	0x40448c9f	3.0710828
170	0x00000000	0.0
171	0x00000000	0.0
172	0x3ff6865c	1.9259753
173	0x92ec298e	-1.4903938e-27
174	0x00000004	6e-45
175	0x3e0abc8c	0.13548487
176	0x00000000	0.0
177	0x00000000	0.0
178	0x3d90c80c	0.07069406
179	0x00000000	0.0
180	0x3c4d69f4	0.012537468
181	0x3f53cd3e	0.8273505
182	0x00000000	0.0
183	0x00000004	6e-45
184	0x00000000	0.0
185	0x00000000	0.0
186	0x00000004	6e-45
187	0x00000000	0.0
188	0x40b0f099	5.52937
189	0x00000004	6e-45
190	0x3d5c444d	0.053776074
191	0x00000000	0.0
192	0x00000004	6e-45
193	0x00000000	0.0
194	0x00000000	0.0
195	0x00000000	0.0
196	0x00000004	6e-45
197	0x3f8ca746	1.0988548
198	0x00000000	0.0
199	0x00000000	0.0
200	0x00000000	0.0
201	0x00000004	6e-45
202	0x00000000	0.0
203	0x00000000	0.0
204	0x00000004	6e-45
205	0xbd47ead2	-0.048807926
206	0x00000000	0.0
207	0x3efd1c15	0.49435487
208	0xb7900d78	-1.717241e-05
209	0x402397ab	2.556132
210	0x00000004	6e-45
211	0x00000000	0.0
212	0x00000000	0.0
213	0x3f1427c9	0.5787321
214	0x00000000	0.0
215	0x00000000	0.0
216	0x00000004	6e-45
217	0x00000000	0.0
218	0x00000000	0.0
219	0x404b267e	3.1742244
220	0x3e9a2d2b	0.30112585
221	0x00000000	0.0
222	0x417e59a9	15.89689
223	0x4125e983	10.36951
224	0xb3d2c88a	-9.815365e-08
225	0x00000000	0.0
226	0x400f8f8f	2.2431371
227	0x40c0f011	6.029305
228	0x00000004	6e-45
229	0x00000000	0.0
230	0x00000000	0.0
231	0x00000004	6e-45
232	0x3e9e0be1	0.30868438
233	0x00000000	0.0
234	0xbe79823e	-0.2436609
235	0x00000000	0.0
236	0x404b267e	3.1742244
237	0x429c3c91	78.11829
238	0x4360532b	224.32487
239	0x416466f0	14.275131
240	0x3fd3be08	1.6542368
241	0x4141e439	12.118218
242	0x41948d34	18.568947
243	0x3d0a33fe	0.03374099
244	0xba503969	-0.0007943125
245	0x00000000	0.0
246	0x3cd25e4c	0.02567973
247	0x3d543be9	0.051814947
248	0x3d7d962f	0.061910804
249	0x3e2ff3cd	0.17182846
250	0x3db9546d	0.09049306
251	0x00000000	0.0
252	0x3b71b382	0.0036880677
253	0xbd703f04	-0.058653846
254	0xbd437be8	-0.047725588
255	0x3b275f19	0.002553886

exp_avg_sq f4 [27, 27, 3]
0	0x00000000	0.0
1	0x00000000	0.0
2	0x00000000	0.0
3	0x00000000	0.0
4	0x3cc8dcd0	0.024519354
5	0x3d01e8b7	0.031716075
6	0x3f7a5c40	0.9779701
7	0x3f15ea57	0.585607
8	0x3a602097	0.0008549778
9	0x00000000	0.0
10	0x404bcfa5	3.1845486
11	0x3edbc326	0.42922324
12	0x00000000	0.0
13	0x3c9fc004	0.01950074
14	0x00000000	0.0
15	0x00000000	0.0
16	0x00000000	0.0
17	0x00000000	0.0
18	0x00000000	0.0
19	0x3e31dfa1	0.17370464
20	0x00000000	0.0
21	0x00000000	0.0
22	0x3e12393e	0.14279649
23	0x00000000	0.0
24	0x336eb388	5.5576976e-08
25	0x00000000	0.0
26	0x4020c7cc	2.5121946
27	0x00000000	0.0
28	0x3f9b6c12	1.2142355
29	0x00000000	0.0
30	0x00000000	0.0
31	0x328c488d	1.6331137e-08
32	0x00000000	0.0
33	0x00000000	0.0
34	0x3a9df324	0.0012050611
35	0x3a8b6d52	0.0010637438
36	0x00000000	0.0
37	0x33026bb8	3.0365953e-08
38	0x00000000	0.0
39	0x00000000	0.0
40	0x3b9d4bad	0.004800281
41	0x00000000	0.0
42	0x00000000	0.0
43	0x3f36b465	0.7136901
44	0x00000000	0.0
45	0x00000000	0.0
46	0x3f758321	0.9590321
47	0x40d1278d	6.536078
48	0x00000000	0.0
49	0x00000000	0.0
50	0x00000000	0.0
51	0x328c488d	1.6331137e-08
52	0x00000000	0.0
53	0x00000000	0.0
54	0x00000000	0.0
55	0x3cb73c08	0.022367492
56	0x00000000	0.0
57	0x3fcf7944	1.6208882
58	0x3eb3be06	0.35105914
59	0x3bfc5741	0.007700831
60	0x413ede5c	11.929287
61	0x40906013	4.511728
62	0x3eedfda0	0.46482563
63	0x3c985b24	0.018598147
64	0x4007c57b	2.1214283
65	0x4033d580	2.809906
66	0x00000000	0.0
67	0x3c91fb8b	0.01782014
68	0x00000000	0.0
69	0x00000000	0.0
70	0x3ca7f461	0.020502271
71	0x00000000	0.0
72	0x3b166924	0.0022950852
73	0x00000000	0.0
74	0x3fcf7944	1.6208882
75	0x440e98ed	570.38947
76	0x43a61dcf	332.23288
77	0x44b87bb2	1475.8655
78	0x40d58e64	6.6736317
79	0x42f57741	122.73292
80	0x4165cb07	14.362067
81	0x00000000	0.0
82	0x40cc9d22	6.3941813
83	0x00000000	0.0
84	0x3c8b197a	0.016979922
85	0x3e49cdfe	0.19707486
86	0x3fa80ec6	1.3129508
87	0x40f7bc8a	7.741765
88	0x40293692	2.6439557
89	0x00000000	0.0
90	0x00000000	0.0
91	0x3ff9e324	1.9522443
92	0x39d17821	0.0003995309
93	0x3cfa757a	0.030573595
94	0x3e4d513d	0.20050521
95	0x00000000	0.0
96	0x00000000	0.0
97	0x00000000	0.0
98	0x00000000	0.0
99	0x00000000	0.0
100	0x3fac8569	1.3478214
101	0x00000000	0.0
102	0x382ee0c6	4.169417e-05
103	0x3ae6bb48	0.0017603422
104	0x00000000	0.0
105	0x3d8fb1d3	0.07016339
106	0x00000000	0.0
107	0x4110deca	9.054392
108	0x39c48db2	0.00037489604
109	0x37d5263a	2.540938e-05
110	0x00000000	0.0
111	0x3851b553	4.9998354e-05
112	0x371471fa	8.848025e-06
113	0x00000000	0.0
114	0x00000000	0.0
115	0x3b39fb26	0.0028378456
116	0x3d81a4bf	0.06330251
117	0x00000000	0.0
118	0x00000000	0.0
119	0x00000000	0.0
120	0x38b873fc	8.7954075e-05
121	0x3af5ed8d	0.0018762812
122	0x00000000	0.0
123	0x00000000	0.0
124	0x3da1733f	0.078833096
125	0x00000000	0.0
126	0x40cc9d21	6.394181
127	0x3b199d41	0.0023439678
128	0x412eb3ef	10.918929
129	0x3db8a670	0.090161204
130	0x00000000	0.0
131	0x00000000	0.0
132	0x371471fa	8.848025e-06
133	0x00000000	0.0
134	0x00000000	0.0
135	0x00000000	0.0
136	0x3cde97ae	0.027171936
137	0x00000000	0.0
138	0x401a56a0	2.4115372
139	0x3e88442d	0.26614514
140	0x35f38864	1.8144606e-06
141	0x422d093d	43.25902
142	0x421945a2	38.318
143	0x37b742d4	2.184642e-05
144	0x00000000	0.0
145	0x411b3a6d	9.701764
146	0x41e0bcd6	28.092205
147	0x3e80fafc	0.25191486
148	0x00000000	0.0
149	0x00000000	0.0
150	0x36291d21	2.5199918e-06
151	0x3e2fc905	0.17166527
152	0x00000000	0.0
153	0x3b64799f	0.003486253
154	0x00000000	0.0
155	0x401a569f	2.411537
156	0x458315fc	4194.748
157	0x45e21b0c	7235.381
158	0x45556415	3414.2551
159	0x44b7e398	1471.1123
160	0x4261fbb3	56.4958
161	0x4262879b	56.632427
162	0x00000000	0.0
163	0x4292507c	73.157196
164	0x00000000	0.0
165	0x3a0ca4b3	0.0005365118
166	0x411a2a9b	9.635402
167	0x3efecbc4	0.49764836
168	0x412e5f81	10.898316
169	0x4224fbac	41.245773
170	0x00000000	0.0
171	0x00000000	0.0
172	0x420a490a	34.571327
173	0x3a53fef7	0.0008087004
174	0x376d5100	1.414516e-05
175	0x3fd2b842	1.6462481
176	0x00000000	0.0
177	0x00000000	0.0
178	0x3fe4f4f5	1.7887255
179	0x00000000	0.0
180	0x3d8c5d13	0.0685369
181	0x419849d0	19.036041
182	0x00000000	0.0
183	0x358902c0	1.0208096e-06
184	0x00000000	0.0
185	0x00000000	0.0
186	0x39d7ac63	0.00041136434
187	0x00000000	0.0
188	0x434c80a1	204.50246
189	0x39a3f6ac	0.00031273568
190	0x3de5878c	0.11207494
191	0x00000000	0.0
192	0x3639288d	2.7590752e-06
193	0x00000000	0.0
194	0x00000000	0.0
195	0x00000000	0.0
196	0x3a2916be	0.0006450227
197	0x42518834	52.38301
198	0x00000000	0.0
199	0x00000000	0.0
200	0x00000000	0.0
201	0x35aab277	1.2717927e-06
202	0x00000000	0.0
203	0x00000000	0.0
204	0x37a469b9	1.9599554e-05
205	0x408e3d41	4.4449773
206	0x00000000	0.0
207	0x4292507c	73.157196
208	0x356807bd	8.6437996e-07
209	0x4343f98e	195.97482
210	0x35c27af6	1.4489913e-06
211	0x00000000	0.0
212	0x00000000	0.0
213	0x40ebd7eb	7.370107
214	0x00000000	0.0
215	0x00000000	0.0
216	0x37097730	8.193587e-06
217	0x00000000	0.0
218	0x00000000	0.0
219	0x424ccb28	51.198395
220	0x40f07162	7.5138407
221	0x00000000	0.0
222	0x44308d7c	706.2107
223	0x43eeb097	477.3796
224	0x38831101	6.249734e-05
225	0x00000000	0.0
226	0x43283092	168.18973
227	0x434d971a	205.59024
228	0x35e3c04a	1.6968781e-06
229	0x00000000	0.0
230	0x00000000	0.0
231	0x364840cf	2.9840046e-06
232	0x3e7ead63	0.2487083
233	0x00000000	0.0
234	0x402093d0	2.5090218
235	0x00000000	0.0
236	0x424ccb27	51.19839
237	0x46952663	19091.193
238	0x47d4e0ed	108993.85
239	0x448b0b36	1112.3503
240	0x42ebb17f	117.84667
241	0x4408d2c2	547.2931
242	0x444ef708	827.85986
243	0x3e099532	0.1343582
244	0x395d828b	0.00021124833
245	0x00000000	0.0
246	0x3c6a307f	0.014293789
247	0x3c7b28e8	0.015329577
248	0x3c1c5467	0.009541607
249	0x3e805768	0.25066686
250	0x3dcd9768	0.10038644
251	0x00000000	0.0
252	0x3d4cdb48	0.05001381
253	0x3e1554d7	0.14583145
254	0x3d0e2b9f	0.03470957
255	0x3a8ae81d	0.001059774

exp_avg f4 [27]
0	0xbf9a36cf	-1.2047976
1	0x40ad62b7	5.4183
2	0x41a33662	20.401554
3	0x3e7f7701	0.2494774
4	0x4139c308	11.610115
5	0x41d0be9e	26.093075
6	0x410e53de	8.895475
7	0x41a5af50	20.710602
8	0x421aff34	38.74922
9	0x400ceae4	2.2018366
10	0x422d8ae5	43.38564
11	0x40076711	2.1156657
12	0x40883de9	4.2575574
13	0x418d1234	17.633888
14	0x4256d36d	53.70647
15	0x411a2304	9.633549
16	0xc2574842	-53.820564
17	0x41684b14	14.51833
18	0xbf877b9c	-1.0584598
19	0x4181286a	16.144733
20	0x412e4e52	10.894121
21	0x41801b10	16.013214
22	0xc14beb13	-12.744891
23	0x42709448	60.144806
24	0xc1ff8bba	-31.943226
25	0xc24245d1	-48.56818
26	0xc276706f	-61.6098

exp_avg_sq f4 [27]
0	0x4171081d	15.064481
1	0x4287cbb0	67.89783
2	0x4471792a	965.8932
3	0x407fe2c8	3.9982166
4	0x438688aa	269.0677
5	0x44b5cdf0	1454.4355
6	0x431e2d12	158.17606
7	0x44522d85	840.71124
8	0x453cf234	3023.1377
9	0x41968f53	18.819983
10	0x458abc03	4439.5015
11	0x41d00cd7	26.00627
12	0x41f66424	30.798897
13	0x441a222f	616.5341
14	0x45b384c7	5744.597
15	0x434c1bb6	204.10825
16	0x45c2e9c8	6237.2227
17	0x43dde3f9	443.78104
18	0x40d765eb	6.731191
19	0x4409c5a5	551.0882
20	0x43644675	228.27522
21	0x441021ce	576.5282
22	0x43941ea8	296.2395
23	0x45ef4580	7656.6875
24	0x450a77d9	2215.4905
25	0x45a0d856	5147.042
26	0x4600e2d6	8248.709

exp_avg f4 [64, 27]
0	0xc00cd3a9	-2.2004187
1	0xc080c8e9	-4.024525
2	0xbf4983bb	-0.7871663
3	0xc0b6f83e	-5.717803
4	0xc01eb244	-2.4796305
5	0xbff516ca	-1.914758
6	0xc024780f	-2.5698278
7	0xbf65bc76	-0.89740694
8	0xbf33af1d	-0.70189077
9	0xc0898c17	-4.298351
10	0xbf4b751b	-0.79475564
11	0xbfb9717a	-1.4487755
12	0xc0638dcf	-3.5555303
13	0xbfc58828	-1.5432177
14	0xbf41cbc8	-0.7570157
15	0xc023c7dc	-2.5590734
16	0xbed6ffbb	-0.41991982
17	0xbe1e5944	-0.1546374
18	0xbfbde5c0	-1.4835739
19	0xbfc971a0	-1.5737801
20	0xc0362a82	-2.8463445
21	0xc0298d48	-2.6492481
22	0xc047c246	-3.1212325
23	0xbf595b60	-0.8490505
24	0xc0aad669	-5.338673
25	0xc0182734	-2.3773928
26	0xbef00079	-0.4687536
27	0xbfaf6aec	-1.3704505
28	0xc0155aed	-2.3336747
29	0xbe2f535c	-0.17121643
30	0xc028ed8f	-2.6394994
31	0xbf44991c	-0.76796126
32	0xc005fd93	-2.093602
33	0xbf71c8b6	-0.94446886
34	0xbf0166f0	-0.50547695
35	0xbedca050	-0.4309106
36	0xc03642b1	-2.8478205
37	0xbf2b6f08	-0.66966295
38	0xbf5285ed	-0.82235605
39	0xbf9d659b	-1.2296633
40	0xbf502365	-0.8130401
41	0xbe42c061	-0.19018699
42	0xbfa8162e	-1.3131769
43	0xbe18eb89	-0.149336
44	0xbe097326	-0.13422832
45	0xbf75e076	-0.96045625
46	0xbfabd96a	-1.3425725
47	0xbf62eb84	-0.8864062
48	0xc044a110	-3.0723305
49	0xbfe16d0f	-1.7611407
50	0xbdb06333	-0.08612671
51	0xc0031386	-2.0480666
52	0xc01c9c09	-2.4470236
53	0xbe946717	-0.289849
54	0xbd895888	-0.06706339
55	0xbd69c9d1	-0.057077233
56	0xbc539e9f	-0.012916236
57	0xbdb4e199	-0.08832092
58	0xbd2cc51d	-0.04218017
59	0xbcc9b623	-0.024622982
60	0xbd3f52cd	-0.046709824
61	0xbcc6f703	-0.024287706
62	0xbc79a17c	-0.015236255
63	0xbd72ff1c	-0.059325323
64	0xbc40d238	-0.01176887
65	0xbd36fee2	-0.04467667
66	0xbd7af204	-0.06126596
67	0xbcd1609b	-0.02555876
68	0xbc4fb66d	-0.012677771
69	0xbd1f1ec6	-0.038847707
70	0xbc67f1f8	-0.014156811
71	0xbc338df6	-0.010959139
72	0xbd3dc3e5	-0.046329398
73	0xbca11ff0	-0.01966855
74	0xbd4fde96	-0.050749384
75	0xbcd41348	-0.0258881
76	0xbd87b9a5	-0.06627206
77	0xbc5cfb91	-0.0134877125
78	0xbdd5bae9	-0.10436041
79	0xbcb508f6	-0.022099
80	0xbc66a246	-0.014076775
81	0xc18a77f0	-17.308563
82	0xc16bafad	-14.73039
83	0xc05576b2	-3.3353696
84	0xc1b65aaa	-22.79427
85	0xc12e2945	-10.885076
86	0xc0cb6f45	-6.3573327
87	0xc140e9d5	-12.057088
88	0xc0c89517	-6.2681994
89	0xc07b9426	-3.9309173
90	0xc174fb20	-15.31131
91	0xc04230cf	-3.034229
92	0xc13884e6	-11.532446
93	0xc17cfdc9	-15.811959
94	0xc0d32200	-6.5979004
95	0xc051a1fb	-3.2755115
96	0xc12067be	-10.025328
97	0xc069c3d2	-3.652577
98	0xc03559f4	-2.8336153
99	0xc13f4f17	-11.956809
100	0xc0a2749d	-5.076735
101	0xc1519441	-13.098695
102	0xc0d5f8b4	-6.6866093
103	0xc188d29c	-17.102837
104	0xc05ee7d5	-3.4829
105	0xc1d784b4	-26.939796
106	0xc0b678ba	-5.702237
107	0xc0687aa6	-3.6324859
108	0x4191daf6	18.231915
109	0x41611150	14.066727
110	0x403b5792	2.9272199
111	0x41b34229	22.407305
112	0x412d4bfc	10.831051
113	0x409e7f7e	4.953063
114	0x413d25f7	11.821769
115	0x40e0b0d0	7.0215836
116	0x4084f4f6	4.1549025
117	0x415ddbd5	13.86617
118	0x404218df	3.032768
119	0x413d3042	11.824282
120	0x41802708	16.019058
121	0x40ce1218	6.4397087
122	0x4034edfe	2.827026
123	0x411f2b01	9.947999
124	0x4088dd63	4.2770247
125	0x402a8052	2.664082
126	0x414b2450	12.696365
127	0x40766c11	3.8503458
128	0x4160aa66	14.041601
129	0x4082ac7c	4.083555
130	0x418b9ebf	17.452513
131	0x405af1e8	3.4210148
132	0x41e2e56d	28.362024
133	0x4083ade3	4.1149764
134	0x406df223	3.7179039
135	0x41919635	18.198343
136	0x4176bac8	15.420601
137	0x403b5845	2.9272625
138	0x41bcf2f0	23.618622
139	0x4130958c	11.03651
140	0x40db582c	6.854513
141	0x4143c2b3	12.235034
142	0x40e66241	7.199494
143	0x408f265d	4.473433
144	0x417e007b	15.875117
145	0x4063eb61	3.5612414
146	0x413cc013	11.796893
147	0x4183263f	16.393675
148	0x40d9fdc7	6.8122287
149	0x402ee091	2.7324564
150	0x4129d8b4	10.615406
151	0x4086c1cc	4.211157
152	0x402d0e55	2.7039998
153	0x414b3bfb	12.702144
154	0x409ca284	4.8948383
155	0x4160d95f	14.053069
156	0x40e1c518	7.0553093
157	0x418e123b	17.758902
158	0x4056c86a	3.3559823
159	0x41e64427	28.783278
160	0x40d535ac	6.6628017
161	0x406ec869	3.730982
162	0xbd82fa48	-0.063953936
163	0xbd5ef2e9	-0.054430876
164	0xbc49ce46	-0.012317246
165	0xbdac7eb9	-0.08422608
166	0xbd24c226	-0.040224217
167	0xbcc05bde	-0.023481306
168	0xbd36739f	-0.04454386
169	0xbcbdbc6d	-0.023161137
170	0xbc6e0ca3	-0.01452938
171	0xbd67bb42	-0.056575067
172	0xbc37e20b	-0.011223326
173	0xbd2e82a6	-0.042605065
174	0xbd6f4f1b	-0.05842505
175	0xbcc7aaaf	-0.02437338
176	0xbc461336	-0.012089541
177	0xbd17bdfd	-0.03704642
178	0xbc5d30cb	-0.013500403
179	0xbc2b388c	-0.010450494
180	0xbd34f775	-0.044181306
181	0xbc99a767	-0.018756581
182	0xbd463ad0	-0.04839593
183	0xbcca3e3f	-0.024687884
184	0xbd816f04	-0.06320003
185	0xbc52bb72	-0.012862073
186	0xbdcbd25c	-0.09952232
187	0xbcaca63b	-0.021075359
188	0xbc5bf0f7	-0.01342415
189	0xc147e983	-12.49451
190	0xc12a220c	-10.633312
191	0xc01a0411	-2.4064982
192	0xc183a28b	-16.454367
193	0xc0fb7051	-7.8574605
194	0xc092c4f3	-4.5865417
195	0xc10b3aab	-8.701823
196	0xc090ba40	-4.5227356
197	0xc035a277	-2.838041
198	0xc130d96c	-11.0530815
199	0xc00c634c	-2.1935606
200	0xc105299d	-8.3226595
201	0xc13699d0	-11.412552
202	0xc098548d	-4.760321
203	0xc0171321	-2.3605425
204	0xc0e7930e	-7.236701
205	0xc028d392	-2.6379132
206	0xc0029d70	-2.0408592
207	0xc10a18d9	-8.631066
208	0xc06a8323	-3.664254
209	0xc1173f13	-9.452899
210	0xc09a661c	-4.8249645
211	0xc1458f37	-12.347465
212	0xc020c637	-2.512098
213	0xc19b9127	-19.445875
214	0xc083d489	-4.119694
215	0xc027d1d7	-2.6221826
216	0x40d78341	6.734772
217	0x40b76c0e	5.7319403
218	0x3fa60749	1.2970973
219	0x410de9c7	8.869575
220	0x40878c9f	4.2359157
221	0x401e4197	2.4727533
222	0x40961b03	4.6907973
223	0x401c19c5	2.4390728
224	0x3fc3d974	1.5300736
225	0x40bea57c	5.9577007
226	0x3f974744	1.1818624
227	0x408f9256	4.4866133
228	0x40c4e210	6.1525955
229	0x40244517	2.566717
230	0x3fa2f716	1.2731655
231	0x4079ae30	3.9012566
232	0x3fb5f945	1.4216696
233	0x3f8cdf0f	1.1005572
234	0x4094e203	4.6525893
235	0x3ffcd32e	1.9751947
236	0x40a3165b	5.096479
237	0x4026628f	2.5997655
238	0x40d4f86d	6.6553254
239	0x3fad6056	1.3545024
240	0x4127af50	10.480301
241	0x400e0867	2.2192628
242	0x3fb4f2dd	1.4136616
243	0xc1e0c228	-28.094803
244	0xc1983cf6	-19.029766
245	0xc0928433	-4.5786376
246	0xc1f19bdf	-30.201109
247	0xc172f26b	-15.184184
248	0xc103f020	-8.246124
249	0xc183c656	-16.471844
250	0xc1238f97	-10.222556
251	0xc0c6784f	-6.202186
252	0xc197e77b	-18.988028
253	0xc07e487b	-3.9731739
254	0xc1993956	-19.152996
255	0xc1ad99c5	-21.700083

exp_avg_sq f4 [64, 27]
0	0x41c10f6e	24.132534
1	0x424c988b	51.148968
2	0x40931b2c	4.597067
3	0x42b5dbd3	90.929344
4	0x41cff26a	25.993366
5	0x41a3faf2	20.497532
6	0x41f8eca8	31.115555
7	0x40af32fb	5.474973
8	0x405b596f	3.4273336
9	0x4274f2fe	61.237297
10	0x4047f352	3.124226
11	0x412436c9	10.263375
12	0x4246c2a8	49.690094
13	0x4125a15d	10.351895
14	0x408de7df	4.4345546
15	0x41b50a2d	22.629969
16	0x40b0ef92	5.5292444
17	0x4015f159	2.3428557
18	0x412958ac	10.584148
19	0x4144fb2d	12.311322
20	0x4205ad9d	33.419544
21	0x421b9214	38.892654
22	0x41f5b3b3	30.712744
23	0x4089d0ff	4.306762
24	0x42d48b95	106.27262
25	0x41ecd3e3	29.60346
26	0x400a4d35	2.1609623
27	0x419b87f5	19.441385
28	0x420b7899	34.86777
29	0x3f2aa695	0.66660434
30	0x423efa8a	47.744667
31	0x40d7542c	6.729025
32	0x421bfae6	38.995018
33	0x40f9eb56	7.8099775
34	0x40874bd5	4.228007
35	0x4055263d	3.3304589
36	0x427c42c6	63.06521
37	0x40c17828	6.0459175
38	0x4115c1b7	9.359794
39	0x414580cd	12.3439455
40	0x406f5993	3.7398422
41	0x3e599c91	0.21251132
42	0x416a53a8	14.645424
43	0x408586f5	4.1727242
44	0x3f1b614e	0.6069535
45	0x4118ad35	9.542287
46	0x4171150e	15.06764
47	0x41070354	8.438313
48	0x4290e8ab	72.45443
49	0x41d47b5e	26.560238
50	0x3e93f4bb	0.28897652
51	0x41cc7d70	25.561249
52	0x42708153	60.126293
53	0x3ee03e6f	0.43797633
54	0x3c12754f	0.008939101
55	0x3bea06c0	0.007141918
56	0x3a07dbff	0.0005182623
57	0x3c6de002	0.01451874
58	0x3b89af86	0.004201832
59	0x3b1d4219	0.0023995696
60	0x3b9a55ae	0.004709921
61	0x3aee9876	0.0018203396
62	0x3a494061	0.00076771347
63	0x3bf99f0f	0.007617838
64	0x3a068d93	0.00051327905
65	0x3b8dd32f	0.0043281536
66	0x3c082b70	0.008311138
67	0x3ade493f	0.0016959085
68	0x3a21bf6f	0.00061701884
69	0x3b707b43	0.0036694563
70	0x3a3bdfff	0.0007166862
71	0x39d1196f	0.00039882536
72	0x3b8d97d9	0.00432108
73	0x3a9bb7c0	0.0011880323
74	0x3bcc5aab	0.0062363944
75	0x3b22e420	0.0024855211
76	0x3c029926	0.007971084
77	0x3a159fc8	0.0005707708
78	0x3c9b721c	0.01897531
79	0x3af5772c	0.0018727533
80	0x3a062908	0.00051178085
81	0x441436a9	592.85406
82	0x43ec700a	472.8753
83	0x4207f01b	33.984478
84	0x4471067d	964.1014
85	0x438ad685	277.67593
86	0x431e7f5c	158.4975
87	0x439b92b9	311.14627
88	0x42f0abee	120.3358
89	0x424a62fa	50.596657
90	0x43fc6c61	504.8467
91	0x42067852	33.6175
92	0x438fa73a	287.30646
93	0x4409a0fe	550.5155
94	0x42df4f1c	111.65451
95	0x4221ff3d	40.499256
96	0x4372b4ce	242.70627
97	0x423c2c06	47.04299
98	0x41d1a29b	26.204397
99	0x438f6b1e	286.83685
100	0x429b5120	77.65845
101	0x43ce6ef7	412.8669
102	0x43244741	164.27834
103	0x440450a6	529.26013
104	0x42168c81	37.63721
105	0x449d9050	1260.5098
106	0x42f65965	123.1746
107	0x420669cb	33.603313
108	0x441dbfb1	630.9952
109	0x43d95787	434.6838
110	0x420a9299	34.64316
111	0x446a4443	937.0666
112	0x43919b90	291.21533
113	0x42b90102	92.50197
114	0x43a12216	322.2663
115	0x42f74056	123.625656
116	0x423a8737	46.632046
117	0x43ced6ab	413.6771
118	0x41d3fc11	26.49808
119	0x439956d4	306.67834
120	0x440f6a5a	573.66174
121	0x42eaa5dd	117.32395
122	0x4226b8dd	41.68053
123	0x43676040	231.37598
124	0x418fc0d7	17.96916
125	0x41f57385	30.681406
126	0x4397ec52	303.84625
127	0x4245fbc8	49.49588
128	0x43d8eee2	433.86627
129	0x4228ff33	42.249218
130	0x4406a644	538.5979
131	0x422c63a4	43.097305
132	0x44ac724d	1379.5719
133	0x4192eb33	18.364843
134	0x41abecef	21.49069
135	0x4404ad70	530.70996
136	0x43c1595b	386.6981
137	0x41d6e376	26.861065
138	0x4447dc50	799.4424
139	0x4371ebb0	241.92065
140	0x42dfc0b5	111.87638
141	0x4385db66	267.71405
142	0x42cffebc	103.99753
143	0x4221f6f5	40.49117
144	0x43c005dc	384.04578
145	0x41c1f449	24.24428
146	0x43825605	260.67203
147	0x43edf109	475.8831
148	0x42c25399	97.16328
149	0x42041f06	33.030296
150	0x4345baba	197.7294
151	0x414d286c	12.822369
152	0x41c13261	24.1496
153	0x438019b5	256.20084
154	0x4258d4ce	54.207817
155	0x43b2bd42	357.47858
156	0x42daa84a	109.32869
157	0x43e14072	450.50348
158	0x420acd87	34.70071
159	0x448e4084	1138.0161
160	0x4289f0fd	68.97068
161	0x418be717	17.487837
162	0x3c09f9a1	0.008421333
163	0x3bdd1838	0.006747272
164	0x3a01b9a4	0.0004948622
165	0x3c5fc833	0.013658571
166	0x3b823b51	0.003974356
167	0x3b14b1c6	0.002268897
168	0x3b921100	0.004457593
169	0x3ae1b284	0.001721934
170	0x3a3e9dd4	0.0007271443
171	0x3beb83dd	0.00718735
172	0x39feee8e	0.00048624392
173	0x3b855c2d	0.004069826
174	0x3c00764c	0.007840704
175	0x3ad3850f	0.0016137677
176	0x3a18e34e	0.0005832211
177	0x3b63a1e7	0.0034733952
178	0x3a321af3	0.0006794177
179	0x39c5a8e6	0.00037700607
180	0x3b852d28	0.004064221
181	0x3a9591d6	0.001141126
182	0x3bc1365c	0.0058963727
183	0x3b1a2f8a	0.002352687
184	0x3bf5acab	0.0074973903
185	0x3a0dad44	0.0005404542
186	0x3c926c8d	0.017874027
187	0x3ae8a9b4	0.0017750771
188	0x39fe127b	0.00048460424
189	0x4395cbb4	299.59143
190	0x436ea18a	238.63101
191	0x4188c13b	17.09435
192	0x43f3c688	487.55103
193	0x430c425f	140.25926
194	0x42a02310	80.06848
195	0x431d136c	157.07587
196	0x4272e51f	60.72375
197	0x41cc7f31	25.562105
198	0x437edd96	254.86557
199	0x41888876	17.066631
200	0x43116994	145.41241
201	0x438b1485	278.1603
202	0x4260ce9d	56.20177
203	0x41a4d66d	20.6047
204	0x42f4a04b	122.31307
205	0x41beac27	23.834059
206	0x41551031	13.316453
207	0x43111bc7	145.1085
208	0x421ba483	38.910656
209	0x435039df	208.22606
210	0x42a59ca2	82.80592
211	0x4385d980	267.69922
212	0x41982856	19.019695
213	0x441ef66b	635.8503
214	0x42791b3d	62.2766
215	0x4187dab2	16.981785
216	0x42b0bf88	88.374084
217	0x428ce7d5	70.4528
218	0x40a255bc	5.0729656
219	0x430fa75e	143.65378
220	0x4225a8c4	41.41481
221	0x41bd488d	23.660425
222	0x42399b5d	46.401722
223	0x418f8d2b	17.94393
224	0x40f1ef07	7.560428
225	0x429674c8	75.22809
226	0x40a1a8d0	5.051857
227	0x422b61d8	42.84555
228	0x42a42602	82.074234
229	0x418520ca	16.64101
230	0x40c2b8f1	6.085076
231	0x4210978b	36.14799
232	0x40e1ac4b	7.052282
233	0x407ba823	3.9321373
234	0x422b123a	42.7678
235	0x41393725	11.575963
236	0x4275f0e8	61.48526
237	0x41c3e660	24.487488
238	0x429dc892	78.89174
239	0x40b3e046	5.621127
240	0x433b98c2	187.59671
241	0x41937a2e	18.434658
242	0x40a0bb3d	5.022856
243	0x44af8333	1404.1
244	0x445248dc	841.1384
245	0x424ef0d2	51.735176
246	0x44e07681	1795.7032
247	0x43fde4a1	507.78616
248	0x4385654d	266.7914
249	0x440ab9a2	554.9005
250	0x438bc004	279.50012
251	0x42ddb58e	110.8546
252	0x445781d3	862.0285
253	0x428fd523	71.91628
254	0x442a47ad	681.11993
255	0x4481414c	1034.0405

exp_avg f4 [64]
0	0xbf6dd455	-0.9290212
1	0xbea6086f	-0.3242831
2	0xbc9d3583	-0.019190555
3	0xc09e93cd	-4.955542
4	0x4097c8c4	4.7432575
5	0x40982a15	4.755137
6	0xbc95eb56	-0.018300693
7	0xc064c956	-3.5747886
8	0x3ff6aeaa	1.9272053
9	0xc0e80d74	-7.251642
10	0x3fba438f	1.4551867
11	0x3fc56873	1.54225
12	0x3feea0f3	1.8642868
13	0xc02bf922	-2.6870809
14	0xc0790dad	-3.8914597
15	0xbc8a04eb	-0.016848048
16	0x3fcbdb63	1.5926327
17	0x3fd12ce7	1.6341828
18	0x3fc6219c	1.5479007
19	0xbe7411ae	-0.2383487
20	0x3fd75479	1.6822654
21	0xc096b7b5	-4.709925
22	0x4003a7c6	2.057115
23	0xc07ca1c3	-3.9473732
24	0xbc4f6c07	-0.012660033
25	0xbe07cfbd	-0.1326284
26	0x3fd2fe5a	1.6483872
27	0x4007babb	2.1207721
28	0xbc96a2bd	-0.018388147
29	0xbc883677	-0.016627533
30	0xbc84bad3	-0.016202366
31	0xc084ca1a	-4.1496706
32	0xbc661990	-0.0140441805
33	0xbc89242f	-0.016740886
34	0xbeae4c08	-0.34042382
35	0x3fa4484c	1.2834563
36	0x3fe811d9	1.8130447
37	0x3c1dca4c	0.009630751
38	0xc07260d8	-3.7871609
39	0xc061ec01	-3.5300295
40	0xbc902020	-0.017593443
41	0x3fce86ac	1.6134849
42	0x40025a70	2.0367699
43	0x3fd71df5	1.6806017
44	0x3fdae709	1.7101756
45	0x400cca9d	2.1998665
46	0x3fd31c38	1.6492987
47	0x4011db30	2.2790031
48	0x401211cc	2.2823362
49	0xc0811e1e	-4.0349264
50	0xc05251b4	-3.2862368
51	0x3fe79031	1.8090879
52	0xc0a22d1b	-5.068006
53	0xc058d03e	-3.38771
54	0xbc933cfe	-0.01797342
55	0x40282290	2.6271095
56	0x4008f224	2.139779
57	0x408e64e6	4.4498167
58	0xc0429bc3	-3.040757
59	0x4032d915	2.7944996
60	0xbc3f7b00	-0.01168704
61	0xbc5ac626	-0.013352906
62	0xbc2e32bc	-0.010632213
63	0x4013b89c	2.3081427

exp_avg_sq f4 [64]
0	0x40981faf	4.7538676
1	0x3f3efd7b	0.7460553
2	0x3a771857	0.0009425929
3	0x4275fe39	61.498264
4	0x427afcd2	62.746895
5	0x424919a1	50.27503
6	0x3a68285e	0.0008856113
7	0x41f8b2c8	31.087296
8	0x411314a2	9.192537
9	0x42ed08bb	118.51705
10	0x40ad234a	5.4105577
11	0x40c12e2b	6.0368857
12	0x41095bc5	8.584905
13	0x41ced1f0	25.852509
14	0x4217626d	37.84612
15	0x3a462aef	0.0007559498
16	0x40cbdf98	6.371044
17	0x40dc71d4	6.888895
18	0x40ce2df8	6.4431114
19	0x3f2c502c	0.6730983
20	0x40e89a63	7.268846
21	0x4267c2d3	57.940258
22	0x4131489c	11.080227
23	0x42307958	44.1185
24	0x39d1f742	0.00040047808
25	0x3dbd5d3f	0.09246301
26	0x40d44b4e	6.6341925
27	0x4138c5ba	11.548273
28	0x3a6665a0	0.0008788947
29	0x3a3d062d	0.0007210698
30	0x3a332e0e	0.0006835171
31	0x42344f66	45.077538
32	0x3a082813	0.000519396
33	0x3a3b1937	0.0007137241
34	0x3f9054a0	1.1275826
35	0x407ebee8	3.980402
36	0x4109a599	8.602929
37	0x398d252b	0.00026921308
38	0x420fbb49	35.932896
39	0x41f70a4b	30.880026
40	0x3a4fd266	0.0007927775
41	0x40cdc0a4	6.4297657
42	0x412781a5	10.4691515
43	0x40decf9a	6.962842
44	0x40f70cd6	7.720317
45	0x41436438	12.211967
46	0x40e2d374	7.088312
47	0x414fd7a9	12.990151
48	0x414fa811	12.978532
49	0x420d95aa	35.396156
50	0x41a96e2c	21.178795
51	0x41069295	8.410787
52	0x428f6a96	71.708176
53	0x41c03a3b	24.028433
54	0x3a65937a	0.00087576325
55	0x418fcd0c	17.97512
56	0x41394284	11.578739
57	0x424d10dc	51.266464
58	0x41b358f8	22.418442
59	0x419e5408	19.79103
60	0x39b39fe6	0.00034260674
61	0x39e68fbf	0.00043976118
62	0x398f989d	0.0002738879
63	0x415e0dd3	13.878375

exp_avg f4 [1, 64]
0	0x405ff603	3.4993904
1	0x3f7874c8	0.97053194
2	0xbe1d6a92	-0.15372685
3	0x41232330	10.196091
4	0xbebe9b9c	-0.37228096
5	0xbef38c77	-0.47568104
6	0xbe50ea7e	-0.20401952
7	0x411d375c	9.826015
8	0x4183f346	16.493786
9	0x40fe13c2	7.939912
10	0x41abd037	21.476667
11	0x418cadec	17.584923
12	0x416ab230	14.668503
13	0x408c5704	4.385622
14	0x410d7626	8.841345
15	0xbe8019c3	-0.25019655
16	0x418b53a7	17.415846
17	0x418f254b	17.89321
18	0x41df18b1	27.887056
19	0x3f6ec56f	0.9327001
20	0x41a13ae1	20.15375
21	0x4162f0fb	14.183833
22	0x419b5bb2	19.419773
23	0x41664bc1	14.393495
24	0xbe7098c8	-0.23495781
25	0xbcf1ec2c	-0.02953156
26	0x41822983	16.27027
27	0x4187b419	16.962938
28	0xbe31f37a	-0.17378035
29	0xbe505c8e	-0.20347807
30	0xbe7701bc	-0.24121755
31	0x41464fef	12.394515
32	0xbe919927	-0.28437158
33	0xbe68c22e	-0.22730324
34	0x3f6fa393	0.9360897
35	0x41985fbf	19.046751
36	0x41abd489	21.478777
37	0xbdef1553	-0.11673989
38	0x415f5161	13.957368
39	0x4103df23	8.241977
40	0xbe405e6c	-0.18786019
41	0x418791dc	16.94622
42	0x41580fe1	13.503877
43	0x418bbb4c	17.466454
44	0x419a9d6b	19.326864
45	0x41425570	12.145859
46	0x418d3695	17.651651
47	0x41659c17	14.350608
48	0x4166674f	14.400222
49	0x40eb7382	7.35785
50	0x414bc677	12.735953
51	0x4192a7b0	18.331879
52	0x4141f1d9	12.121545
53	0x410863c2	8.524355
54	0xbe51fb32	-0.2050598
55	0x417dbb11	15.8581705
56	0x4163533d	14.207822
57	0xc00341dd	-2.050895
58	0x41463d9f	12.390044
59	0x41252008	10.32032
60	0xbe848b85	-0.25887695
61	0xbe4362df	-0.19080685
62	0xbe46a2d8	-0.19398057
63	0x418578b3	16.683935

exp_avg_sq f4 [1, 64]
0	0x428ac2a0	69.38013
1	0x3fe7ca20	1.8108559
2	0x3d9cf9f4	0.07664862
3	0x431d5792	157.34207
4	0x433cd756	188.84116
5	0x4289b758	68.85809
6	0x3dfc2f78	0.123137414
7	0x430cbae2	140.73001
8	0x446c9d7d	946.46075
9	0x42c5c426	98.8831
10	0x44ad692b	1387.2865
11	0x445fe6ee	895.6083
12	0x44414656	773.099
13	0x4225d993	41.462475
14	0x42fd7eb7	126.74749
15	0x3e2bcf14	0.16778213
16	0x44615d41	901.4571
17	0x4468e565	931.5843
18	0x4501bf77	2075.9666
19	0x40835234	4.1037846
20	0x449ca676	1253.2019
21	0x4399d3ac	307.6537
22	0x44890f19	1096.4718
23	0x43b22f11	356.3677
24	0x3e26990e	0.16269323
25	0x3dd7b5b8	0.10532707
26	0x445f3635	892.847
27	0x4469f634	935.8469
28	0x3db4bdc9	0.08825261
29	0x3df007bc	0.11720225
30	0x3e281b8d	0.1641676
31	0x438938b6	274.44305
32	0x3e620af5	0.22074492
33	0x3e1de7d7	0.15420471
34	0x402e6d80	2.7254333
35	0x44912c45	1161.3834
36	0x44a81c85	1344.8912
37	0x3cc858a7	0.024456335
38	0x4398111a	304.1336
39	0x42e75d2a	115.68196
40	0x3dd79613	0.10526671
41	0x4458b92a	866.8932
42	0x44285670	673.3506
43	0x447ce80b	1011.6257
44	0x448275f4	1043.686
45	0x4409c92c	551.1433
46	0x44692f19	932.7359
47	0x4433587f	717.38275
48	0x44364d2b	729.20575
49	0x42c64ed1	99.15394
50	0x4385d256	267.64325
51	0x447eb420	1018.81445
52	0x435d1290	221.07251
53	0x42e71da0	115.55786
54	0x3de44e84	0.11147788
55	0x444f4da1	829.21295
56	0x4434e7c9	723.62164
57	0x434586bd	197.52632
58	0x436d6000	237.375
59	0x43da589a	436.6922
60	0x3e3ba8c7	0.18326102
61	0x3de9506b	0.11392292
62	0x3de6d5d5	0.11271254
63	0x4456cbc6	859.18396
