experiments/tcnn-abilities/models/SmallBTCNN_MediumFCNN_3.pth (torch, 620446 bytes, 27 tensors)

btcnn.layers.0.conv1d.weight f4 [27, 27, 3]
0	0x3b81c68e	0.003960437
1	0xbe1bcdeb	-0.1521527
2	0xbdb3e1d7	-0.0878331
3	0xbdade05e	-0.0849006
4	0xbdb42b1f	-0.08797287
5	0x3ead4af6	0.33846253
6	0xbdd36d8a	-0.10323627
7	0xbc2f99db	-0.010717834
8	0x3cd62cb2	0.02614436
9	0x3c033b72	0.008009778
10	0xbcae1d20	-0.021254122
11	0xbd4d40fa	-0.050110795
12	0xbe87e2d7	-0.26540253
13	0xbd2fa087	-0.0428777
14	0xbde2e9bd	-0.11079738
15	0xbd654f75	-0.05598398
16	0xbd922ef5	-0.071378626
17	0xbddccb35	-0.10780946
18	0x3cec4948	0.028843537
19	0xbda0ee4f	-0.07857954
20	0xbd911b22	-0.07085253
21	0x3d7afa5d	0.06127392
22	0x3ddde616	0.10834901
23	0xbdc357f0	-0.09538257
24	0xbe42384b	-0.18966787
25	0x3d326ca7	0.04356065
26	0xbdbce512	-0.09223379
27	0x3ed2717e	0.41102213
28	0xbe766896	-0.24063334
29	0xbcbf7815	-0.02337269
30	0x3d7ff4bd	0.06248926
31	0xbddefeb7	-0.10888427
32	0x3d4cefd9	0.050033424
33	0xbd760100	-0.060059547
34	0x3d0cb73a	0.034354426
35	0x3e8b040c	0.27151525
36	0x3cddfa32	0.027096841
37	0x3d8e9254	0.069615036
38	0xbc4c8400	-0.012482643
39	0xbdddf034	-0.10836831
40	0x3e3a0bd4	0.18168575
41	0xbc381b80	-0.011237025
42	0x3d969dff	0.07354354
43	0x3d56035d	0.0522493
44	0xbdc39860	-0.095505476
45	0xbd56b16f	-0.052415308
46	0x3e8643ef	0.26223704
47	0x3d518df7	0.05116078
48	0x3d9d53f4	0.076820284
49	0x3e866c44	0.26254475
50	0x3c615eb9	0.013755494
51	0x3d24d3c0	0.040241003
52	0x3d52fda4	0.05151142
53	0xbd25c632	-0.040472217
54	0xbdb53542	-0.08848049
55	0xbd9ee76e	-0.077589855
56	0x3d92d0cd	0.07168732
57	0xbe87c45e	-0.26517004
58	0xbe9ece09	-0.31016567
59	0xbd72cef9	-0.059279416
60	0x3e0f2f1c	0.13982815
61	0x3d6cd92b	0.057824295
62	0x3eb3a1d9	0.35084417
63	0xbd426d60	-0.04746759
64	0xbcb3d376	-0.021951418
65	0x3e1997f2	0.14999369
66	0xbdd5d8b9	-0.10441727
67	0xbea0e748	-0.31426454
68	0xbdb25949	-0.08708436
69	0x3eac15a8	0.33610272
70	0x3c5ba7a9	0.0134066725
71	0x3d89401d	0.06701682
72	0xbdf6b3ab	-0.12045988
73	0x3d3c38e4	0.045952693
74	0xbe91f566	-0.28507537
75	0x3cf5f25c	0.030022793
76	0x3e0bea1b	0.13663523
77	0x3d062474	0.03274961
78	0xbe877441	-0.26455882
79	0x3d5618c5	0.052269716
80	0x3dd0d40b	0.10196694
81	0xbcec9d8e	-0.028883722
82	0xbd55d5dc	-0.052205905
83	0x3dbeebd9	0.09322328
84	0xbd60b57c	-0.054860577
85	0x3e08e005	0.13366707
86	0x3c160be8	0.009158112
87	0x3d70b779	0.058768723
88	0x3ddbf02e	0.1073917
89	0xbd75ea27	-0.06003776
90	0xbc994dc5	-0.018713841
91	0x3da287fd	0.07936094
92	0x3c458964	0.012056682
93	0xbd7272ce	-0.059191518
94	0x3d876c4d	0.066124536
95	0xbdc762f0	-0.09735668
96	0xbda76a4e	-0.08174573
97	0xbc969d2b	-0.01838549
98	0xbd3a974e	-0.04555445
99	0x3be3bdab	0.0069501004
100	0xbc8653e5	-0.016397426
101	0x3d8cd1a5	0.06875924
102	0x3da1c49b	0.07898828
103	0x3e19b3fc	0.15010065
104	0x3ddb2602	0.10700609
105	0xbdf8827b	-0.12134262
106	0xbcb1e640	-0.021716237
107	0x3dd92ff7	0.10604852
108	0x3d3a3064	0.045456305
109	0x3d43d5be	0.047811262
110	0x3c186dab	0.009303491
111	0xbd303a75	-0.0430245
112	0xbd4a28af	-0.049355205
113	0x3d0cd720	0.034384847
114	0xbc8c3abb	-0.017117849
115	0x3cc0b595	0.023524085
116	0xbda15075	-0.07876674
117	0xbcc1c7e4	-0.023654886
118	0xbd0e1deb	-0.0346965
119	0x3dd16002	0.1022339
120	0x3d5c721f	0.05381977
121	0xbdefde88	-0.11712366
122	0x3cd8e0a4	0.026474304
123	0x3cdbb45d	0.026819402
124	0x3d95623b	0.072941266
125	0x3d8119f2	0.06303777
126	0x3c2efd07	0.010680444
127	0x3e9b8059	0.3037136
128	0xbe008c3d	-0.12553497
129	0xbe29a786	-0.16567811
130	0xbe0658be	-0.1311979
131	0xba9d0400	-0.0011979342
132	0x3e228ed0	0.15874791
133	0x3d8bd61b	0.06827947
134	0x3d067240	0.0328238
135	0xbd900e0b	-0.070339285
136	0x3e37a546	0.1793414
137	0xbd80ec17	-0.062950306
138	0x3e4dbe13	0.20092039
139	0x3e39744d	0.18110771
140	0x3e64fbd1	0.22361685
141	0x3d85e2cc	0.06537399
142	0x3d97aaa2	0.074055925
143	0x3e9db3c1	0.30801204
144	0xbc81e96c	-0.015858375
145	0x3dad3bbd	0.0845866
146	0x3ce6fc49	0.02819647
147	0x3d734aa7	0.059397366
148	0x3e58cd5c	0.21172088
149	0xbd6a0839	-0.057136748
150	0x3db1d524	0.086832315
151	0xbd14fb8f	-0.036372717
152	0x3db893bb	0.09012552
153	0x3dcd9a4e	0.10039197
154	0xbd8276eb	-0.06370338
155	0x3c995ac4	0.018720038
156	0xbe3d3786	-0.18478212
157	0xbde998f7	-0.11406129
158	0x3cf52e67	0.029929353
159	0xbd7514b5	-0.0598342
160	0x3c992601	0.01869488
161	0x3e3f0f77	0.18658243
162	0x3d0668b4	0.032814696
163	0xbe012c8f	-0.12614654
164	0xbd59ff67	-0.053222086
165	0xbdcb72c5	-0.09934
166	0x3e362b41	0.17789938
167	0x3d6b35f3	0.057424497
168	0xbecb1018	-0.39660716
169	0x3df888b9	0.12135453
170	0x3cbfdf39	0.02342187
171	0x3d705d2a	0.0586826
172	0xbda41b92	-0.08013071
173	0xbca17ddc	-0.019713335
174	0xbd420bb9	-0.04737446
175	0xbe5cc2fc	-0.21558756
176	0x3c5b76e4	0.013395045
177	0x3d7c5000	0.06159973
178	0xbde86592	-0.11347498
179	0xbc9f2839	-0.01942836
180	0x3dd82dd7	0.10555618
181	0x3d64ac78	0.05582854
182	0xbdd7a69e	-0.105298266
183	0xbdb3aeee	-0.087735996
184	0xbdc4b6f6	-0.096052095
185	0x3d8b1fae	0.06793152
186	0x3ec1aa50	0.3782525
187	0x3d286aae	0.041117363
188	0xbe0dec0a	-0.13859573
189	0xbc21a7e4	-0.009866688
190	0x3c246b81	0.010035397
191	0xbce03507	-0.027369035
192	0x3b10a8ec	0.0022073342
193	0xbdbda61d	-0.09260199
194	0xbd7c6b8e	-0.06162601
195	0x3db53ce2	0.08849503
196	0xbddd5d2a	-0.10808785
197	0x3e513bbf	0.20432948
198	0xbdc46b3e	-0.09590767
199	0x3d505a95	0.050867636
200	0x3c982964	0.018574424
201	0xbd0b5ab5	-0.03402205
202	0x3d7fdaec	0.06246464
203	0x3d99f904	0.07518199
204	0x3d813910	0.06309712
205	0x3e6c7075	0.23089774
206	0x3dc2bc7d	0.095086075
207	0x3d7505f1	0.05982012
208	0xbebb4056	-0.36572522
209	0x3d9a048b	0.07520398
210	0x3d7ad255	0.061235745
211	0xbd3fb140	-0.0467999
212	0xbd209620	-0.03920567
213	0xbeb45dd5	-0.35227838
214	0x3d01264e	0.03153067
215	0x3d7d90ae	0.061905555
216	0x3dba1e7d	0.090878464
217	0xbe24b24c	-0.1608364
218	0x3d81e2a5	0.06342057
219	0xbcb13f8a	-0.021636743
220	0x3e2533ab	0.16132991
221	0xbeca8757	-0.3955638
222	0x3d9132d4	0.07089773
223	0x3dda869a	0.106702045
224	0xbe18ab60	-0.14909124
225	0x3d18b7b4	0.037284568
226	0xbdde98cd	-0.10868988
227	0x3d03b5d6	0.032155834
228	0x3ddcc947	0.10780578
229	0x3d723e99	0.05914173
230	0x3daf072b	0.08546289
231	0xbc851521	-0.016245427
232	0x3da4b93f	0.080431454
233	0xbd7477ab	-0.059684437
234	0xbcecd12f	-0.02890834
235	0xbda2ded9	-0.07952661
236	0xbc587156	-0.013210615
237	0xbb3e5d01	-0.0029047134
238	0x3c80a049	0.01570143
239	0x3d308528	0.043095738
240	0xbe887fd3	-0.26660022
241	0xbe6f47a2	-0.2336717
242	0x3db916af	0.0903753
243	0xbe9569d7	-0.29182312
244	0xbd61d0b2	-0.055130668
245	0xbdbf5530	-0.0934242
246	0x3d2033bd	0.03911184
247	0xbc054e2f	-0.008136316
248	0x3e15878d	0.1460249
249	0xbdd07c0c	-0.1017991
250	0xbe87851a	-0.26468736
251	0xbdcc3343	-0.09970715
252	0xbe13c0a8	-0.14428961
253	0x3c14b40c	0.00907613
254	0xbe62fffe	-0.22167966
255	0x3d234767	0.039863016

btcnn.layers.0.conv1d.bias f4 [27]
0	0xbaabee14	-0.0013117217
1	0xbda4323c	-0.08017394
2	0xbd04102d	-0.03224199
3	0xbd9aba5f	-0.07555079
4	0xbca28c3d	-0.019842261
5	0x3c8c64c3	0.01713789
6	0xbdf7db83	-0.121024154
7	0xbd3b5f83	-0.045745384
8	0x3d3e29c5	0.046426553
9	0xbd3828b3	-0.04496069
10	0x3d55c764	0.052192107
11	0x3c572fe0	0.013133973
12	0xbc92892c	-0.017887674
13	0xbd09f390	-0.033679545
14	0xbd9352ea	-0.07193549
15	0xbd363a0c	-0.04448895
16	0x3e359ac5	0.17734821
17	0x3e104a55	0.14090855
18	0x3ce27aa5	0.027646372
19	0xbd7192fc	-0.058978066
20	0x3c06fefc	0.008239504
21	0xbdc5e878	-0.096634805
22	0xbccf13ce	-0.025277998
23	0xbd9aeeff	-0.07565116
24	0x3d9c0ab9	0.07619233
25	0xbd05cadd	-0.03266417
26	0xbc08ad2e	-0.0083420705

fcnn.0.weight f4 [256, 27]
0	0x3d9fa2ce	0.077947244
1	0xbd7588b3	-0.05994482
2	0x3e5795d3	0.21053247
3	0x3e0234c9	0.12715448
4	0x3d822119	0.06353969
5	0x3e599239	0.21247186
6	0x3e06aac4	0.1315108
7	0xbd1316ea	-0.035910524
8	0x3d11eb8c	0.035625026
9	0xbdb3b325	-0.087744035
10	0x3e36c66e	0.17849132
11	0xbe313359	-0.17304744
12	0x3cbff460	0.023431957
13	0xbe519643	-0.20467477
14	0x3e5553db	0.2083277
15	0x3d585734	0.05281754
16	0xbdec8c03	-0.115501426
17	0x3cb0752c	0.021540247
18	0xbd4eadc9	-0.050458703
19	0xbe1a0d2c	-0.15044087
20	0xbe386a49	-0.18009295
21	0x3e699b12	0.22813061
22	0xbc968c8a	-0.018377561
23	0xbd8a229c	-0.067448825
24	0x3e4121d7	0.18860565
25	0xbe12384d	-0.1427929
26	0xbe2ce884	-0.16885573
27	0x3d7eeeb4	0.062239364
28	0xbd9bf5ad	-0.07615218
29	0xbd550dfe	-0.052015297
30	0xbd84e151	-0.06488288
31	0xbddd648f	-0.10810196
32	0xbcc78804	-0.02435685
33	0x3dbbeb2f	0.09175717
34	0xbe57b384	-0.21064574
35	0x3d80b7b0	0.062850356
36	0xbdfe78de	-0.12425397
37	0x3d6ebc22	0.058284886
38	0xbd5a9c06	-0.05337145
39	0xbd6beaa9	-0.057596836
40	0xbdd08c2a	-0.10182984
41	0xbcc758a5	-0.024334261
42	0x3d941d68	0.07232171
43	0x3eb03a17	0.3441932
44	0x3db1d5f3	0.08683386
45	0x3dc4f147	0.096163325
46	0xbe09ba62	-0.13450006
47	0xbbabbe91	-0.005241223
48	0xbcaa94e7	-0.020822955
49	0x3e298209	0.1655351
50	0xbde8a0e0	-0.113588095
51	0xbe46ed8f	-0.19426559
52	0x3e07a51d	0.1324658
53	0x3e3c95c7	0.1841651
54	0xbda847b9	-0.08216805
55	0xbdccc5ee	-0.099986896
56	0x3ccbbff3	0.024871802
57	0xbe546d51	-0.20744826
58	0xbdba1cca	-0.09087522
59	0xbe35fb65	-0.1777168
60	0xbdaf4df4	-0.0855979
61	0xbe34944d	-0.17634697
62	0x3b90473f	0.0044030244
63	0xbe4accc7	-0.19804679
64	0xbcb6f344	-0.022332795
65	0x3e1c8e4a	0.15288654
66	0xbbc3cc36	-0.0059752716
67	0x3e31337c	0.17304796
68	0xbd46fc27	-0.048580315
69	0xbd453b02	-0.048151977
70	0x3d298ab1	0.041392032
71	0x3b8ec912	0.0043574655
72	0xbd95f2f3	-0.073217295
73	0x3b4972f5	0.0030738686
74	0x3d8feb34	0.07027283
75	0xbd8119d6	-0.06303756
76	0x3e3b576f	0.18295072
77	0x3daa1214	0.083042294
78	0xbc812b57	-0.015767736
79	0xbd94db51	-0.07268394
80	0x3c3c52f5	0.011494388
81	0xbdcd5a06	-0.10026936
82	0x3e2e7366	0.17036209
83	0xbd20ae5d	-0.039228786
84	0xbe03e968	-0.12882006
85	0xbd01cc5b	-0.03168903
86	0xbd2a27f4	-0.04154201
87	0xbdc5d319	-0.09659404
88	0xbbe9c0b7	-0.007133569
89	0x3df9792a	0.12181313
90	0xbdb7c62c	-0.08973345
91	0xbe0ca66a	-0.13735357
92	0x3e4e744d	0.20161553
93	0x3e3df8fb	0.1855201
94	0xbd2fd008	-0.042923003
95	0x3ae0798a	0.0017126065
96	0x3de1dc5c	0.11028358
97	0x3d805c10	0.062675595
98	0x3e5a7582	0.21333888
99	0xbe2342cd	-0.15943451
100	0xbd32651f	-0.043553468
101	0x3c9a2499	0.01881628
102	0x3c05dcfe	0.008170364
103	0xbd73774d	-0.059439946
104	0xbe0f9151	-0.14020278
105	0x3db6a6ec	0.089185566
106	0xbe1dc56c	-0.15407342
107	0xbdc21629	-0.09476883
108	0x3d182e83	0.037153732
109	0xbe803686	-0.25041598
110	0xbd0b474a	-0.034003533
111	0x3d941e46	0.07232337
112	0xbd3d9566	-0.046285056
113	0xbd3abc5b	-0.045589786
114	0x3e1ee50e	0.15517065
115	0xbcf00d8e	-0.029303338
116	0x3dfa3d45	0.122187175
117	0xbe3a679e	-0.1820359
118	0xbd59ccca	-0.053173818
119	0x3e3f00e6	0.18652686
120	0x3c91108a	0.017708082
121	0x3e09f698	0.13472974
122	0x3da3bb87	0.079947524
123	0xbda883fe	-0.082283005
124	0x3d8b69dd	0.06807301
125	0xbd44365f	-0.047903415
126	0x3dfe3f2c	0.12414393
127	0xbd249b56	-0.040187202
128	0x3db78846	0.08961539
129	0xbe4d03b8	-0.2002095
130	0xbdc2db81	-0.09514523
131	0x3d76dc8e	0.06026893
132	0xbdc4a05f	-0.09600901
133	0x3abb3e9a	0.0014285624
134	0xbdec6ac8	-0.115438044
135	0x3d55f098	0.0522314
136	0xbe8a8642	-0.27055556
137	0x3d96b921	0.07359529
138	0xbd6a0dab	-0.05714194
139	0x3e29ae76	0.16570458
140	0xbd95a49f	-0.073067896
141	0xbda4ef8c	-0.080535024
142	0xbd9efff0	-0.0776366
143	0xbe501f8d	-0.20324536
144	0xbd9fe44a	-0.078072146
145	0xbd9a96f2	-0.07548322
146	0x3d80251e	0.062570795
147	0xbd7da70f	-0.061926898
148	0x3d97c4d6	0.0741059
149	0x3dda6340	0.10663462
150	0x3c8dddb7	0.017317636
151	0xbe207c77	-0.1567248
152	0xbe2fff8f	-0.17187332
153	0xbda7c412	-0.08191694
154	0x3ca59fbb	0.020217767
155	0xbe4b0f09	-0.19829954
156	0x3e26f1ab	0.16303127
157	0xbe25dc2c	-0.1619727
158	0x3c2a6409	0.010399827
159	0x3dc24912	0.09486593
160	0x3d90bbef	0.070670955
161	0xbdbee94e	-0.09321843
162	0x3df90cd2	0.121606484
163	0x3c3cc8ae	0.011522455
164	0xbe616b0d	-0.22013493
165	0xbe042e23	-0.12908225
166	0x3e56d5cd	0.20979996
167	0xbd19176c	-0.037375852
168	0xbd9af47d	-0.07566164
169	0xbe84a43c	-0.2590655
170	0xbe0ce4e6	-0.13759193
171	0xbde342e2	-0.11096741
172	0xbcb4b85b	-0.022060564
173	0x3e3c448c	0.18385524
174	0x3d3e2b41	0.04642797
175	0x3c8fa3d0	0.017534167
176	0x3e32aa28	0.17447722
177	0x3dce2648	0.10065895
178	0x3db3b9f6	0.087757036
179	0x3e3ef9a3	0.18649916
180	0xbca4b677	-0.020106537
181	0xbe1bb4a6	-0.1520563
182	0xbdf4b700	-0.11948967
183	0x3e017e85	0.1264592
184	0x3d8a383a	0.067490056
185	0xbe21da39	-0.15805902
186	0xbe1d473e	-0.15359208
187	0x3cbfcfb4	0.02341447
188	0x3bd8166c	0.00659447
189	0x3e012b36	0.1261414
190	0xbeef89ba	-0.46784765
191	0x3d9dbdeb	0.077022396
192	0x3dbefbfb	0.09325405
193	0xbe242d75	-0.16032965
194	0x3e648909	0.223179
195	0x3e69a8cd	0.22818299
196	0x3d6f2298	0.0583826
197	0xbd8fcf03	-0.07021906
198	0x3cb6f240	0.02233231
199	0xbb8205c1	-0.003967971
200	0xbe6fd9f7	-0.2342299
201	0x3e2bb831	0.16769482
202	0xbd93cbc8	-0.072166026
203	0x3e45c301	0.1931267
204	0x3e169b0b	0.14707582
205	0xbec5e255	-0.3864924
206	0xbd108484	-0.035282627
207	0xbc852698	-0.016253754
208	0x3ce14095	0.027496615
209	0x3d1c0ed8	0.038100094
210	0x3d0f98d5	0.03505786
211	0xbe090e8b	-0.13384454
212	0xbe520eb4	-0.20513421
213	0xbd61eb75	-0.05515619
214	0xbe826592	-0.25468117
215	0xbdd358e5	-0.1031969
216	0xbe3a425b	-0.18189375
217	0xbe533255	-0.20624669
218	0x3cc8335c	0.024438553
219	0x3c0ad4cb	0.008473585
220	0xbdeb2500	-0.114816666
221	0x3d91e228	0.07123214
222	0x3d0cf5c1	0.034414057
223	0x3e8f1031	0.2794204
224	0x3e472230	0.19446635
225	0xbe38d246	-0.18048963
226	0xbe291e82	-0.16515544
227	0x3e12dbfd	0.14341731
228	0xbd207ebf	-0.039183374
229	0x3d62d6d2	0.05538065
230	0x3d72500d	0.059158374
231	0x3d68fa89	0.056879554
232	0xbd2d72e4	-0.042345896
233	0x3e293a0a	0.16526046
234	0x3cdba1dd	0.02681058
235	0x3de965ad	0.11396346
236	0x3e347ccb	0.1762573
237	0xbdd0c327	-0.10193472
238	0x3d6c4268	0.057680517
239	0xbcb15656	-0.021647613
240	0xbe2cdf90	-0.16882157
241	0xbe0e9a9e	-0.1392617
242	0x3c197b6d	0.009367806
243	0xbe2c16e2	-0.16805604
244	0x3d413f9f	0.047179814
245	0xbe3ed49d	-0.18635793
246	0x3c7d5cb1	0.015463994
247	0x3cde5de3	0.027144378
248	0xbe5f22f5	-0.21790679
249	0xbe069d32	-0.13145903
250	0xbc395f4f	-0.011314227
251	0xbd79498f	-0.060861167
252	0xbd87d191	-0.066317685
253	0xbe051c63	-0.1299911
254	0x3df7b894	0.12095752
255	0xbd68cc84	-0.056835666

fcnn.0.bias f4 [256]
0	0x3daeace5	0.08529071
1	0x3e7ffc31	0.24998547
2	0x3db73dba	0.0894732
3	0xbe1b22f2	-0.1515005
4	0x3ca5c00e	0.02023318
5	0xbca32782	-0.0199163
6	0x3e6d19d0	0.23154378
7	0x3e261f58	0.16222894
8	0x3da34657	0.07972401
9	0x3dd65aa0	0.10466504
10	0x3e27b21f	0.16376542
11	0xbdbd1fdf	-0.092345946
12	0xbdae52ec	-0.0851191
13	0x3db043f0	0.08606708
14	0x3dcc33fb	0.09970852
15	0xbd2a6790	-0.04160267
16	0x3df5267c	0.11970231
17	0x3d566cd2	0.052349873
18	0x3c923daa	0.01785167
19	0x3df6387d	0.12022493
20	0x3d64e224	0.055879727
21	0xbe28a938	-0.16470802
22	0x3da435db	0.080180846
23	0x3e4c109c	0.19928211
24	0xbd01824d	-0.031618405
25	0x3ddd58ce	0.10807954
26	0xbdf4e8e2	-0.11958481
27	0x3cf70403	0.03015328
28	0xbce9d355	-0.028543154
29	0xbd1d88fe	-0.038460724
30	0x3e687d98	0.2270416
31	0xbd8ccdb5	-0.06875173
32	0x3e24c8a0	0.16092157
33	0xbde3e5f1	-0.11127842
34	0x3e506b99	0.20353545
35	0xbdb8c5b2	-0.090220824
36	0x3d3e9d40	0.046536684
37	0xbe4016db	-0.18758719
38	0xbde777f8	-0.11302179
39	0x3b281811	0.002564911
40	0xbdb89b53	-0.09014001
41	0xbd37e92e	-0.04490011
42	0x3e84f0cf	0.25964972
43	0xbdcccd7b	-0.1000013
44	0x3d52527e	0.051348202
45	0xbdf9104c	-0.121613115
46	0xbe103edd	-0.1408648
47	0xbd9d3552	-0.07676186
48	0xbd599a1b	-0.053125482
49	0x3dbcb890	0.0921489
50	0xbdf0afd4	-0.117522866
51	0x3dbf43d2	0.093391076
52	0xbe227e91	-0.15868594
53	0xbbbd59a4	-0.0057785083
54	0xbd21ec38	-0.039531916
55	0x3e5dad0a	0.2164804
56	0xbe21615b	-0.15759794
57	0x3deb259b	0.11481782
58	0xbe269f85	-0.1627179
59	0x3df93aa0	0.12169385
60	0xbd78d7ce	-0.060752682
61	0x3dc1acc4	0.094567806
62	0xbd63c629	-0.055608902
63	0x3d6526c1	0.05594516
64	0xbe1dd932	-0.15414885
65	0x3ccc8fba	0.024970878
66	0x3e230a68	0.15921938
67	0x3d486660	0.048925757
68	0x3d296da0	0.041364312
69	0x3e0bb35a	0.13642636
70	0x3e2c76b6	0.1684216
71	0x3d9aca33	0.07558098
72	0x3dbb67cb	0.09150656
73	0x3e133f7b	0.14379685
74	0xbdad5bca	-0.08464773
75	0x3dc91b7a	0.09819694
76	0xbc5c7b78	-0.013457172
77	0x3d6ada68	0.057337195
78	0xbdeeaa7e	-0.116536126
79	0xbe1464cc	-0.14491576
80	0x3dde7df6	0.10863869
81	0xbe158008	-0.14599621
82	0xbe2a4647	-0.16628371
83	0x3dd1357b	0.10215279
84	0x3dfb8410	0.12281048
85	0x3db35a57	0.08757465
86	0x3ca8e05f	0.020614801
87	0x3e82aaea	0.25521022
88	0x3d2e58fb	0.042565327
89	0xbe10b53e	-0.14131638
90	0x3d8b86d8	0.06812829
91	0x3e4b570f	0.19857429
92	0xbe1a9f62	-0.15099862
93	0x3e31e67e	0.17373082
94	0xbe02fba9	-0.12791313
95	0x3df40c3e	0.119163975
96	0xbcdbc1de	-0.026825842
97	0x3e1dbe09	0.15404524
98	0xbe5d31bc	-0.21601003
99	0xbcadd389	-0.021219032
100	0xbe60d5bc	-0.21956533
101	0x3b70ac63	0.0036723844
102	0xbdfa788e	-0.12230025
103	0xbe1f5526	-0.15559825
104	0x3d4d227c	0.050081715
105	0xbe18d782	-0.1492596
106	0xbe1ba164	-0.15198284
107	0xbe4b0bc5	-0.19828708
108	0x3e00c4fa	0.1257514
109	0xbcdf3f66	-0.02725191
110	0xbe3ed00e	-0.18634054
111	0x3e240027	0.16015683
112	0xbdd7b047	-0.10531669
113	0x3d53c3bf	0.05170035
114	0x3e77c0d5	0.24194653
115	0xbe363b28	-0.17796004
116	0x3e40480d	0.18777485
117	0x3d71de60	0.059049964
118	0x3e198e05	0.14995582
119	0xbe306b9c	-0.1722855
120	0xbd89f010	-0.067352414
121	0xbd16d844	-0.03682734
122	0xbdc2e282	-0.09515859
123	0xbdcb4b29	-0.09926445
124	0x3dc0553d	0.09391258
125	0x3e0a7f5b	0.13525145
126	0xbe119063	-0.14215235
127	0x3c9c4b18	0.019078776
128	0x3ddd7172	0.108126536
129	0x3e28ea76	0.1649569
130	0x3e2dbc86	0.16966447
131	0x3e0634ef	0.1310613
132	0xbd4c18e1	-0.049828414
133	0x3e2222e0	0.15833616
134	0xbdf5ab87	-0.11995607
135	0xbe55ffc6	-0.20898351
136	0xbe0c5bf5	-0.13706954
137	0x3d41a4a2	0.047276147
138	0x3cc652b8	0.024209365
139	0x3e0fc125	0.14038523
140	0x3e027473	0.12739734
141	0x3d90946e	0.07059561
142	0xbd3f776a	-0.04674474
143	0x3e4da846	0.20083722
144	0x3cb3e22a	0.02195843
145	0xbd161846	-0.036644243
146	0xbbdfae2e	-0.0068261838
147	0x3e6b94ae	0.23005936
148	0x3e308dba	0.17241564
149	0x3d2d9b98	0.042384714
150	0xbe1b7f6b	-0.15185325
151	0x3deb1de6	0.11480312
152	0x3e1f1160	0.15533972
153	0x3e3510f4	0.17682248
154	0xbde245f1	-0.110484965
155	0xbdb8b107	-0.0901814
156	0x3daa7c6d	0.083245136
157	0xbdd89ad2	-0.10576405
158	0xbe92956f	-0.28629634
159	0x3d819a22	0.063282266
160	0xbdf2df20	-0.11858964
161	0x3e204690	0.15651917
162	0x3d8597cf	0.06523096
163	0xbe56c708	-0.20974362
164	0xbdee9bb7	-0.11650794
165	0xbcb48927	-0.022038056
166	0xbe1f2709	-0.15542234
167	0xbe60e4de	-0.21962306
168	0xbda5f2b7	-0.08102935
169	0x3d67679b	0.05649529
170	0x3d1aa8f8	0.037758797
171	0x3e486935	0.19571383
172	0xbd7cbf26	-0.06170573
173	0xbcb74466	-0.022371482
174	0x3e64b5c0	0.22334957
175	0x3df7e879	0.121048875
176	0xbdcb38da	-0.09922953
177	0x3e4a05e4	0.1972881
178	0xbdfb1b4f	-0.12261068
179	0x3e3c99f8	0.1841811
180	0xbd3c9a12	-0.04604537
181	0xbe1c0151	-0.15234877
182	0xbbe2d966	-0.0069228886
183	0x3d856277	0.06512921
184	0x3e860f59	0.26183584
185	0xbe2c8f38	-0.16851509
186	0xbdfa582c	-0.12223849
187	0xbda33e96	-0.07970922
188	0x3def5812	0.1168672
189	0x3e0900a0	0.13379145
190	0x3dcff3df	0.101539366
191	0xbe214682	-0.15749553
192	0x3c146ec4	0.009059612
193	0x3e15c498	0.14625776
194	0x3d40184d	0.046898175
195	0x3dfb42cf	0.12268602
196	0xbd756d82	-0.059918888
197	0xbe011265	-0.12604673
198	0x3d8e3847	0.06944328
199	0x3e06b5a0	0.13155222
200	0xbd87496e	-0.066058025
201	0xbd0bc374	-0.034121946
202	0xbd50764c	-0.050894067
203	0xbe2b945b	-0.16755812
204	0xbd9fa4ce	-0.07795106
205	0x3e67bd7a	0.22630873
206	0x3ddb5ad0	0.107106805
207	0x3e1b0db8	0.15141952
208	0x3d8d2179	0.0689115
209	0x3df72680	0.1206789
210	0x3ddac267	0.106816106
211	0x3e02c3d5	0.12770016
212	0xbd25c235	-0.040468413
213	0xbd66e62c	-0.056371853
214	0xbe2bda07	-0.1678239
215	0x3e0b128d	0.13581295
216	0xbe219670	-0.15780044
217	0x3ade7e58	0.0016974909
218	0xbdaf9ba5	-0.08574609
219	0xbdb0ed57	-0.08639019
220	0x3e0bf0ec	0.13666123
221	0x3e6bc0e1	0.23022796
222	0x3d9d5d73	0.0768384
223	0x3db334ec	0.087503284
224	0xbd5b26fb	-0.05350397
225	0x3e253e70	0.161371
226	0x3d7359f1	0.059411947
227	0x3c83a803	0.016071325
228	0xbbc6fa37	-0.0060723084
229	0xbbb7061d	-0.0055854456
230	0x3d7dae3d	0.061933745
231	0x3de778e6	0.113023564
232	0x3b2db08e	0.002650294
233	0x3e2e6898	0.17032087
234	0x3e7969ad	0.24356718
235	0x3e34b7f5	0.17648299
236	0x3d366c90	0.044537127
237	0xbd072a3b	-0.03299926
238	0x3e14f0ce	0.14544985
239	0xbd8b4288	-0.06799799
240	0x3e4de769	0.20107807
241	0x3e2cba8f	0.16868041
242	0xbdac7b73	-0.084219836
243	0x3b0eb53c	0.0021775505
244	0x3d7ddcbe	0.061978094
245	0x3c351fcc	0.011054944
246	0xbe4eac93	-0.2018302
247	0xbc882292	-0.016618047
248	0xbd5e1de1	-0.054227713
249	0xbd519532	-0.051167674
250	0xbdcf84e0	-0.10132766
251	0x3d768007	0.06018069
252	0x3cc46151	0.023972185
253	0xbe497660	-0.19674063
254	0x3e22e8c6	0.15909109
255	0xbdf0e59e	-0.11762546

fcnn.2.weight f4 [128, 256]
0	0xbacb31a5	-0.0015502466
1	0x3d8ee588	0.06977373
2	0xbe1fc45a	-0.15602246
3	0xbe04d777	-0.12972818
4	0xbd66dcfb	-0.056363087
5	0xbda79b2e	-0.08183895
6	0xbda44cbf	-0.08022451
7	0x3e80d5fe	0.25163263
8	0x3c020b2c	0.007937234
9	0x3c37af9b	0.011211301
10	0x3e2d38de	0.16916224
11	0xbd1ace21	-0.037794236
12	0x3b1e8985	0.0024190855
13	0x3d1bdd4c	0.038052842
14	0x3d8b9e04	0.068172485
15	0xbc9177ef	-0.017757384
16	0x3dbf64ad	0.09345374
17	0xbc012059	-0.007881247
18	0xbd95914d	-0.073031045
19	0xbdb175d2	-0.086650506
20	0xbd8778eb	-0.0661486
21	0x3b54b2c1	0.0032455178
22	0xbdd44cee	-0.10366236
23	0x3d2770ca	0.04087905
24	0x3d0df1d0	0.03465444
25	0x3e5ca5e9	0.21547665
26	0xbc837523	-0.016047066
27	0xbe1600aa	-0.14648691
28	0xbd8cac73	-0.068688296
29	0x3cb667c7	0.022266282
30	0x3b7acafa	0.0038267956
31	0xbcea54c2	-0.028604869
32	0xbd111862	-0.035423644
33	0xbd96cc19	-0.07363147
34	0xbd44d1b9	-0.04805157
35	0xbb311edd	-0.0027026453
36	0x3d5967cc	0.053077504
37	0x3d666247	0.05624607
38	0x3da71f05	0.081602134
39	0x3e430a0e	0.19046804
40	0x3cefcadb	0.029271534
41	0x3d59520c	0.05305676
42	0xbeda8af3	-0.42684135
43	0x3c68121d	0.014164475
44	0x3c63c271	0.013901339
45	0xbd591c70	-0.053005636
46	0xbd4347c7	-0.047675874
47	0xbca46166	-0.020065974
48	0xbe9c70ae	-0.30554718
49	0xbd9220a0	-0.07135129
50	0xbc96f50f	-0.0184274
51	0xbe540f03	-0.20708852
52	0x3d56c0fb	0.052430134
53	0x3d8e6c3b	0.06954237
54	0xbd0989b2	-0.033578582
55	0x3dcb3fb7	0.09924262
56	0x3d614ff9	0.05500791
57	0x3db940f3	0.09045591
58	0x3d3bf118	0.04588422
59	0x3e2945f0	0.16530585
60	0x3d4c080b	0.049812358
61	0xba9a113d	-0.0011754405
62	0x3c97b679	0.018519627
63	0x3c963997	0.018338008
64	0xbd082fb4	-0.03324862
65	0x3da0cb7b	0.07851311
66	0xbe14b2aa	-0.1452128
67	0x3da68bbb	0.0813212
68	0x3dcb64a3	0.09931304
69	0x3db1103b	0.08645674
70	0xbd919a3e	-0.071094975
71	0x39aed4aa	0.00033346313
72	0x3d897c30	0.0671314
73	0xbd144735	-0.03620072
74	0xbe53d8a5	-0.20688112
75	0x3db1a963	0.08674886
76	0xbcd02c69	-0.025411801
77	0xbdb2cf80	-0.08730984
78	0x3db3e024	0.08782986
79	0x3d9d62d9	0.07684869
80	0xbe5e2264	-0.21692806
81	0x3cc29a00	0.023755074
82	0x3da48cec	0.08034691
83	0x3c07fd3f	0.008300125
84	0xbdaf5ba7	-0.08562403
85	0xbd09ac7f	-0.03361177
86	0xbbb87d1a	-0.0056301476
87	0xbd48bec1	-0.049010042
88	0x3e2da4c7	0.16957389
89	0x3dc02b78	0.09383291
90	0x3cd81edc	0.026381902
91	0x3d3cbfd1	0.046081368
92	0x3dbe12a3	0.092808984
93	0xbe00fe98	-0.1259712
94	0xbd4ce015	-0.05001839
95	0xbd65ae8b	-0.05607466
96	0xbe33660e	-0.175194
97	0xbc8ecf3c	-0.017432801
98	0x3cb8145c	0.022470646
99	0x3bd8ff59	0.0066222367
100	0x3d97dcd1	0.07415164
101	0x3dab9be5	0.08379344
102	0xbbf8809c	-0.007583691
103	0xbe9532b3	-0.29140243
104	0x3dcc7a27	0.09984236
105	0x3d7e49be	0.062082045
106	0x3d9defa3	0.07711723
107	0x3de3e300	0.11127281
108	0x3e58ae1f	0.21160172
109	0x3dabcc0f	0.083885305
110	0x3c51617f	0.012779593
111	0x3b9c2dd7	0.0047662067
112	0xbc059315	-0.008152743
113	0x3ba7196a	0.005099465
114	0xb91cae21	-0.00014942187
115	0xbb98ebc4	-0.0046667773
116	0x3de6134f	0.112341516
117	0xba1a2197	-0.0005879639
118	0xbdd4b21b	-0.103855334
119	0xbb1d19dd	-0.0023971715
120	0x3c1ce6d3	0.009576517
121	0x3ca63883	0.020290619
122	0x3cbca161	0.02302617
123	0x3c03d6af	0.00804679
124	0x3e3dbe6d	0.18529673
125	0x3d673bf9	0.05645368
126	0x3d49c134	0.04925652
127	0xbe09b2ad	-0.13447066
128	0x3dbc92af	0.09207665
129	0xbdc917b3	-0.098189734
130	0xbd3437e5	-0.043998618
131	0x3b43086a	0.0029759654
132	0xbc5d2835	-0.013498356
133	0xbd66c35b	-0.05633865
134	0x3ca99d62	0.020704929
135	0x3d3dcc48	0.046337396
136	0x3c0c8a2b	0.008577864
137	0x3c7b17df	0.0153255155
138	0xbd60b7c7	-0.054862764
139	0x3d986c3a	0.074425176
140	0x3d51060e	0.051031165
141	0xbd4cf223	-0.050035607
142	0x3d902d40	0.07039881
143	0xbcad8971	-0.021183701
144	0xbd9a6312	-0.075384274
145	0x3d4c1b4a	0.049830712
146	0xbc7696f2	-0.015050637
147	0x3e91ae9a	0.28453523
148	0x3e271edd	0.16320367
149	0x3d8308a1	0.0639813
150	0xbe02f454	-0.12788516
151	0xbc6b5930	-0.014364526
152	0x3d2de3a9	0.04245344
153	0xbd8d0ee0	-0.06887603
154	0x3dd92057	0.106018715
155	0x3dede555	0.11616007
156	0x3d071210	0.03297621
157	0xbd4e0951	-0.050301854
158	0xbcaf2abf	-0.021382688
159	0xbcffbe73	-0.031218743
160	0xbc4e5f4b	-0.012595962
161	0x3d1fdc44	0.03902842
162	0xbc8f9ac3	-0.01752985
163	0xbb2aac89	-0.002604278
164	0x3db5d5f4	0.08878699
165	0x3de43f30	0.111448646
166	0x3d81e071	0.06341637
167	0xbc9bf8dc	-0.019039564
168	0xbd18cf6e	-0.037307195
169	0x3dd1c256	0.10242145
170	0x3c9a3f0f	0.018828897
171	0x3d221c39	0.039577696
172	0x3d4c5ac7	0.04989126
173	0xbd15f0c5	-0.03660657
174	0x3c43b354	0.011944611
175	0xbd588285	-0.052858848
176	0x3d60cb1e	0.054881208
177	0x3dd37369	0.10324747
178	0xbdad83f9	-0.084724374
179	0x3c94ea28	0.01817806
180	0x3d89e41f	0.06732964
181	0xbd122dbf	-0.035688158
182	0xbb49098f	-0.0030675863
183	0xbac3be03	-0.0014933947
184	0xbe031bc9	-0.12803568
185	0x3dfd770b	0.12376221
186	0x3d4a5d48	0.049405366
187	0x3ccf4760	0.025302589
188	0xbe927a99	-0.2860916
189	0xbd81cf08	-0.06338316
190	0xbd494ecd	-0.049147416
191	0x3d8a342b	0.067482315
192	0x3c92293c	0.017841928
193	0x3bd7b216	0.006582509
194	0xbf016bbe	-0.50555027
195	0x3d4a63dd	0.049411643
196	0x3d9c6ce3	0.07637956
197	0xbe1370be	-0.14398476
198	0x3d53d81f	0.05171978
199	0x3dd86604	0.10566333
200	0xbd09f63d	-0.033682097
201	0x3d815868	0.0631569
202	0x3bccda0a	0.006251578
203	0x3d8c5be3	0.068534635
204	0x3c925d5a	0.01786678
205	0x3d8067c7	0.06269794
206	0x3d897cf5	0.06713287
207	0x3dc1d727	0.09464865
208	0x3d407867	0.046989825
209	0x3d42530f	0.047442492
210	0x3c28d649	0.010304996
211	0x3e7d09bd	0.24710746
212	0x3d4b3017	0.04960641
213	0xbdea6906	-0.11445813
214	0xbe6a281c	-0.22866863
215	0x3d005d99	0.03133926
216	0x3d6c35c8	0.057668477
217	0xbddd6dcf	-0.1081196
218	0xbe81c50c	-0.25345647
219	0x3da0d071	0.07852257
220	0xbe13551f	-0.1438794
221	0x3e377097	0.17914043
222	0x3d47c6f0	0.048773706
223	0xbc733492	-0.014844077
224	0xbe3e2e0e	-0.18572256
225	0xbc2895c5	-0.010289614
226	0x3de2fe1c	0.11083624
227	0xbcf315dd	-0.029673511
228	0x3e5094ff	0.20369337
229	0x3d0ee886	0.03488972
230	0x3d87c795	0.06629864
231	0xbb9b58e4	-0.004740821
232	0xbe95c666	-0.29252928
233	0xbde4c43d	-0.11170242
234	0xbf439150	-0.76393604
235	0xbe9d9061	-0.30774215
236	0x3d248743	0.040168058
237	0x3d7ef46e	0.062244825
238	0xbd801638	-0.06254238
239	0x3d2b6cc8	0.04185179
240	0xbe2098be	-0.15683267
241	0xbe7caf7e	-0.2467632
242	0xbccac003	-0.024749761
243	0x3d834b43	0.064108394
244	0xbc1fc586	-0.009751683
245	0x3db15081	0.08657933
246	0x3da60dde	0.08108114
247	0x3d8daa5c	0.06917259
248	0xbcf24a05	-0.02957631
249	0x3e45b9fb	0.19309227
250	0xbc8a25a5	-0.016863653
251	0xbe022209	-0.12708296
252	0xbc3ea2b4	-0.011635471
253	0xbc8a000a	-0.016845722
254	0xbbe3e939	-0.0069552925
255	0x3d224230	0.039613903

fcnn.2.bias f4 [128]
0	0x3c5905ff	0.0132460585
1	0xbd35ed13	-0.044415545
2	0x3d2f05f9	0.042730305
3	0x3d0fc439	0.035099242
4	0x3dbf01bb	0.09326502
5	0x3dd81326	0.10550527
6	0x3cdd8e33	0.027045345
7	0x3dd96745	0.106154
8	0xbd6b624e	-0.057466798
9	0x3be67ff5	0.0070342966
10	0xbc4a7ab7	-0.012358359
11	0x3d3a20b1	0.045441333
12	0x3a84aacb	0.0010121701
13	0x3c704307	0.014664418
14	0x3df40818	0.11915606
15	0x3aecd5ba	0.0018069067
16	0xbd25bb38	-0.04046175
17	0xbd841826	-0.064499184
18	0x3c489bab	0.012244145
19	0xbd02dd2a	-0.0319492
20	0xbcded94c	-0.027203225
21	0x3ccb0c0e	0.024786022
22	0x3bc958ad	0.006144604
23	0x3d512808	0.051063567
24	0xbd286c81	-0.041119102
25	0xbc6649ea	-0.014055708
26	0x3c2782ed	0.010224086
27	0xbcd3db83	-0.025861507
28	0xbd4e4ce7	-0.05036631
29	0x3c091b80	0.008368373
30	0xbcfb1fab	-0.030654749
31	0x3aac7d25	0.0013159855
32	0xbd3d3222	-0.04619039
33	0x3d4a1284	0.049334064
34	0x3c4d5b4a	0.012533972
35	0xbd90d3d7	-0.07071655
36	0x3b54325c	0.003237865
37	0x3d22390a	0.039605178
38	0xbdb07f85	-0.086180724
39	0xbd4fb66a	-0.050711073
40	0x3cb9df5d	0.022689516
41	0xbd0432da	-0.03227506
42	0xbadc6ac5	-0.0016816488
43	0x3ce62c2a	0.028097231
44	0xbd39f52c	-0.04539983
45	0xbd2d2532	-0.0422718
46	0x3cff4563	0.031161016
47	0x3d9bd18f	0.076083295
48	0xbd7a2ada	-0.061076023
49	0x3d706f5c	0.05869995
50	0xbd7173a2	-0.058948167
51	0x3ba92463	0.0051618083
52	0x3d4be787	0.04978135
53	0x3cd2e467	0.025743676
54	0x3d20c3d1	0.039249245
55	0x3cabcff4	0.020973183
56	0xbcbb2907	-0.022846712
57	0x3d95e50d	0.073190786
58	0x3ce0fd22	0.027464453
59	0x3d2843d8	0.041080326
60	0xbd3e4464	-0.04645194
61	0xbd8870ca	-0.06662138
62	0xbd617c1d	-0.055050004
63	0x3d8fd137	0.070223264
64	0xb9e8498d	-0.00044305288
65	0x3d49e861	0.04929388
66	0xbd91ede4	-0.07125452
67	0xbd5f6a79	-0.0545449
68	0xbc3506ad	-0.011048955
69	0xbd40bdad	-0.04705589
70	0x3d277087	0.0408788
71	0xbcac24ed	-0.021013701
72	0x3d537462	0.051624663
73	0xbc43d60b	-0.011952887
74	0xbcdc5d03	-0.02689982
75	0xbbde96b0	-0.0067928657
76	0x3c9b4441	0.018953444
77	0x3d8abd46	0.06774382
78	0x3d195b73	0.03744073
79	0xbd26c84e	-0.04071837
80	0xbdaf49b7	-0.08558982
81	0xbd830a78	-0.06398481
82	0x3d6f23ea	0.05838386
83	0x3d0f2b0d	0.034953166
84	0x3cbd0398	0.023073003
85	0xbcc8e826	-0.02452476
86	0xbd9c5478	-0.07633299
87	0x3dbf92eb	0.09354194
88	0x3c024818	0.007951759
89	0x3b301114	0.0026865648
90	0x3d5ec25e	0.05438458
91	0x3d271e5b	0.040800434
92	0x3c95e258	0.018296406
93	0xbd6f1616	-0.058370672
94	0xbd807fff	-0.06274413
95	0x3d919aab	0.07109579
96	0xbb3abddc	-0.0028494513
97	0x3cbf4371	0.023347588
98	0xbcdcdc88	-0.026960626
99	0x3d4b6679	0.049658272
100	0xbd11533d	-0.035479773
101	0x3cd09f24	0.02546651
102	0xbd42380a	-0.047416724
103	0x3ca59bff	0.020215986
104	0x3db02bda	0.08602114
105	0x3c4bb635	0.012433578
106	0x3d56d947	0.052453306
107	0xbc600cf8	-0.013674967
108	0xbd072d9e	-0.03300249
109	0xbd520f86	-0.051284336
110	0x3c7d1338	0.015446477
111	0x3c995339	0.018716441
112	0xbaeb345f	-0.0017944685
113	0xbd52800d	-0.05139165
114	0x3b9c0ed0	0.004762508
115	0xbd72c5f8	-0.05927083
116	0xbd831870	-0.064011455
117	0xbd8e390b	-0.06944474
118	0x3d7b21c9	0.061311517
119	0xbd2bc039	-0.041931365
120	0xbd250b43	-0.040293943
121	0xbd3497e2	-0.04409016
122	0x3c8b71ab	0.017021975
123	0x3b84c2db	0.004051549
124	0x3cac9cc4	0.021070845
125	0xbd174630	-0.03693217
126	0x3bdb42e3	0.006691323
127	0x3d963a23	0.073353074

fcnn.4.weight f4 [64, 128]
0	0xbdbc4550	-0.09192908
1	0xbcee4d51	-0.029089602
2	0x3d6b07b6	0.0573804
3	0xbeb612f1	-0.35561326
4	0xbd64446f	-0.055729326
5	0xbdb591bb	-0.088656865
6	0xbdd11830	-0.102096915
7	0x3c5144e2	0.012772771
8	0xbd16a113	-0.036774706
9	0x3ce4fcf2	0.027952645
10	0xbe0dbf9f	-0.13842629
11	0xbe1e6bb9	-0.1547078
12	0xbdd36936	-0.10322802
13	0xbd87039e	-0.06592487
14	0x3e3ca534	0.18422395
15	0x3ced8dbd	0.02899825
16	0xbea657dd	-0.3248891
17	0xbedc18c5	-0.42987648
18	0xbeac3847	-0.33636686
19	0xbea798c6	-0.32733744
20	0xbd4c558a	-0.049886264
21	0xbe0f6d76	-0.140066
22	0xbe042c86	-0.1290761
23	0x3d0404d1	0.032231156
24	0xbe870b97	-0.2637603
25	0xbc587b26	-0.013212955
26	0xbd86b2ae	-0.06577049
27	0xbeaf1633	-0.34196624
28	0xbdc9ce1c	-0.09853765
29	0xbecff3ac	-0.40615594
30	0xbdc3f716	-0.09568612
31	0x3d8e85ad	0.069590904
32	0xbdb22891	-0.08699144
33	0xbca9cd62	-0.020727817
34	0xbe217449	-0.15767016
35	0xbe85d313	-0.261376
36	0x3e0ef324	0.13959938
37	0xbe611a27	-0.21982633
38	0xbe965dae	-0.29368347
39	0xbe0e48e8	-0.13894999
40	0xbd892bb1	-0.066977866
41	0x3e4f3a03	0.20236973
42	0xbdb88ee0	-0.09011626
43	0xbd09431f	-0.033511277
44	0xbd051ee8	-0.032500178
45	0xbe29b925	-0.16574533
46	0x3d14004f	0.036133107
47	0xbe260e1d	-0.16216321
48	0x3eac8ace	0.3369965
49	0x3e8d742f	0.27627704
50	0xbeb1f092	-0.34753853
51	0xbef10212	-0.47071892
52	0xbdfbc18a	-0.12292774
53	0x3b969524	0.0045954157
54	0xbd3216fa	-0.043478943
55	0xbe0bbc34	-0.13646013
56	0xbe5ca1dd	-0.21546121
57	0x3e4c7613	0.19966917
58	0x3c52529c	0.012837078
59	0xbd318e0f	-0.04334837
60	0xbeca82f8	-0.39553046
61	0xbe4523f8	-0.19252002
62	0xbdbc8b7f	-0.09206294
63	0xbb552353	-0.0032522276
64	0xbe0945bb	-0.13405506
65	0xbde72517	-0.11286371
66	0xbe9caf96	-0.3060271
67	0x3d057b28	0.032588154
68	0xbe4d4807	-0.20047008
69	0xbe65babb	-0.22434513
70	0x3e800814	0.25006163
71	0xbe70e6d4	-0.23525554
72	0xbdd40200	-0.10351944
73	0xbd4f1b77	-0.050563302
74	0xbeb39031	-0.35070947
75	0xbe216a82	-0.15763286
76	0xbd102a74	-0.035196736
77	0xbd121de4	-0.035673037
78	0xbd661bde	-0.05617892
79	0xbec8bb53	-0.39205417
80	0xbd320ee2	-0.043471225
81	0xbdf31088	-0.118683875
82	0x3d03de79	0.03219459
83	0x3d89ebf4	0.067344576
84	0x3c16d06f	0.009204968
85	0xbd956f19	-0.07296581
86	0xbe711db0	-0.23546481
87	0xbda6a609	-0.081371374
88	0x3d2f2a7d	0.04276513
89	0xbe888355	-0.26662698
90	0x3ddaebae	0.106894836
91	0x3b820bd2	0.0039686942
92	0xbd6e0adc	-0.058115825
93	0xbd4b4e7c	-0.049635395
94	0xbd25bb7a	-0.040461995
95	0x3c8fbde3	0.0175466
96	0xbd895494	-0.06705585
97	0x3d92c57f	0.07166576
98	0xbcaa58a9	-0.02079423
99	0x3beea9d6	0.0072834296
100	0xbe677bc5	-0.22605808
101	0xbe290f66	-0.1650978
102	0xbe639acc	-0.22227019
103	0xbdb2570c	-0.08708009
104	0x3d2c9f4c	0.042144105
105	0xbdf5309a	-0.11972161
106	0xbdeb2292	-0.11481203
107	0xbdc70e89	-0.09719569
108	0xbea8baf4	-0.32955134
109	0xbe796886	-0.24356279
110	0xbd7abcd1	-0.061215226
111	0x3b06592d	0.002049993
112	0x3cde573d	0.027141208
113	0xbecd80d4	-0.4013735
114	0xbdf3c6be	-0.119031414
115	0xbe120341	-0.14259054
116	0xbebf01ad	-0.37305966
117	0x3a94db55	0.001135687
118	0xbcfc172a	-0.030772764
119	0xbe8bf2e4	-0.27333748
120	0x3eb3a5ba	0.35087377
121	0x3ccfc7d3	0.025363838
122	0xbc3f2071	-0.0116654495
123	0xbe76f57a	-0.2411708
124	0xbdfd2da4	-0.12362221
125	0x3e6d7d3a	0.23192301
126	0xbeab7384	-0.3348657
127	0xbd7ddfc7	-0.06198099
128	0xbd0ec712	-0.034857817
129	0x3dd495ed	0.103801586
130	0xbd251701	-0.04030514
131	0xbe308474	-0.17238027
132	0xbd14c3c7	-0.03631952
133	0x3d1e244c	0.038608834
134	0x3dd4f5a9	0.103984185
135	0x3d6f6877	0.058449235
136	0x3dab2362	0.08356358
137	0xbc6ebedf	-0.014571874
138	0x3c12681e	0.008935956
139	0xbbf2a398	-0.007404756
140	0x3ddcf81f	0.10789513
141	0x3ce1ec04	0.027578361
142	0x3e398523	0.18117194
143	0x3d83be7b	0.06432816
144	0xbe25a2d2	-0.16175392
145	0xbed55d1b	-0.41672596
146	0xbe89b7ef	-0.26898143
147	0xbeb1250e	-0.34598583
148	0x3da9acb9	0.08284897
149	0x3dda8207	0.10669332
150	0x3c8f2851	0.017475279
151	0x3d92abcc	0.07161674
152	0xbe5f71d9	-0.21820773
153	0x3d074899	0.03302822
154	0xbb44f79d	-0.0030054816
155	0xbe583569	-0.21114124
156	0x3d54a9b0	0.05191964
157	0xbdfa2f5b	-0.122160636
158	0x3d14ce01	0.036329273
159	0xbb3574f9	-0.002768813
160	0x3dbe32c0	0.092870235
161	0xbdba7c35	-0.09105722
162	0xbc9a3fc3	-0.018829232
163	0xbe95259a	-0.2913025
164	0x3e2ef568	0.17085803
165	0x3bc8ecd3	0.0061317473
166	0xbe934a11	-0.28767446
167	0x3d393d9c	0.04522477
168	0xbd243b3c	-0.040095553
169	0x3e860e49	0.26182774
170	0x3d851af7	0.06499284
171	0x3cfc9a83	0.030835396
172	0x3d7106dd	0.058844436
173	0xbd77e2d9	-0.060519073
174	0x3d5c1dd4	0.053739384
175	0xbe6c3187	-0.23065768
176	0x3e787af3	0.24265651
177	0xbd495f34	-0.04916306
178	0xbe80b21d	-0.2513589
179	0xbebabb61	-0.36471084
180	0x3d8d02fd	0.068853356
181	0x3ddd8e4d	0.10818157
182	0x3de5985e	0.11210702
183	0xbcd4999e	-0.025952157
184	0xbcb7913b	-0.022408118
185	0x3e81f406	0.25381488
186	0x3d5acd31	0.053418342
187	0x3de35264	0.11099699
188	0xbe632299	-0.22181167
189	0xbe223682	-0.15841106
190	0x3d6c7966	0.057732962
191	0x3e4f4c75	0.2024401
192	0x3dc79101	0.09744454
193	0xbc1401d7	-0.009033642
194	0xbe7781d2	-0.24170616
195	0xbdaa538d	-0.08316717
196	0xbd981678	-0.074261606
197	0x3cf55ea9	0.029952364
198	0xbc0be57d	-0.008538601
199	0xbdf33737	-0.11875766
200	0x3cb695f4	0.0222883
201	0xbd3e0103	-0.046387684
202	0xbe7ee989	-0.24893774
203	0xbd905a01	-0.07048417
204	0x3cd7d5cb	0.026347062
205	0x3dd392ca	0.10330732
206	0x3daeef37	0.0854172
207	0xbe6413d7	-0.22273193
208	0xbda91306	-0.082555816
209	0xbaa12ab0	-0.0012296047
210	0x3de97f85	0.114012755
211	0x3e53ba51	0.20676543
212	0x3c5b05ea	0.013368109
213	0xbbda4436	-0.0066609634
214	0xbe2674d9	-0.16255511
215	0x3d15544f	0.036457356
216	0x3cb86590	0.022509366
217	0xbe8829cd	-0.2659439
218	0x3ddee641	0.10883761
219	0x3d591ae6	0.053004168
220	0x3dd56647	0.104198985
221	0xbddf24b3	-0.10895672
222	0xbd8fe891	-0.070267804
223	0x3e29146a	0.16511694
224	0x3b9c4254	0.004768649
225	0x3cee6766	0.029102039
226	0x3d8771bf	0.06613492
227	0x3db888a8	0.0901044
228	0xbd83ba78	-0.064320505
229	0x3ce6741b	0.028131535
230	0xbe12e345	-0.14344509
231	0x3dc15ffc	0.09442136
232	0x3da881eb	0.08227905
233	0xbdf8c3ac	-0.121466964
234	0x3db51c91	0.08843339
235	0x3dcd9d98	0.10039824
236	0xbe12f14e	-0.14349863
237	0xbe4cae76	-0.19988427
238	0x3e0285bb	0.12746327
239	0x3dab9511	0.083780415
240	0xbc44571e	-0.011983661
241	0xbec719ab	-0.3888677
242	0x3d6897e4	0.05678548
243	0xbe0310c2	-0.12799361
244	0xbdd78fd7	-0.10525482
245	0xbd09f36e	-0.03367942
246	0x3d9d4017	0.0767824
247	0xbe9e4380	-0.30910873
248	0x3eaba6e0	0.33525753
249	0xbb9135a7	-0.0044314447
250	0x3d909ae4	0.07060793
251	0xbe3626ed	-0.17788287
252	0x3df7ceab	0.12099966
253	0x3dc86531	0.09784926
254	0xbe1df506	-0.154255
255	0xbc19ff17	-0.009399197

fcnn.4.bias f4 [64]
0	0xbdbb6bee	-0.09151445
1	0x3e28d95c	0.16489166
2	0xbd719d38	-0.058987826
3	0x3af2e767	0.0018532098
4	0xbd1c1427	-0.038105156
5	0x3cbc9323	0.023019379
6	0x3d9e9f99	0.077452846
7	0x3cc139d2	0.023587141
8	0xbcff96fc	-0.031199925
9	0xba54cf61	-0.000811806
10	0x3b88bfac	0.0041732397
11	0xbda7e01b	-0.081970416
12	0xbdd1e36a	-0.10248454
13	0xbbfc6fb4	-0.0077037457
14	0x3d544a9a	0.051828958
15	0x3d2abe6e	0.041685514
16	0xbda96a68	-0.082722485
17	0x3d09e044	0.033661142
18	0xbcd79ba3	-0.02631933
19	0x3d6e9999	0.05825195
20	0xbd085f44	-0.033293977
21	0xbcb6e854	-0.02232758
22	0xbc9fbffd	-0.019500727
23	0x3ce980de	0.028503831
24	0xbcf75855	-0.030193487
25	0xbdb7fa1a	-0.0898325
26	0x3d37797d	0.044793595
27	0xbb6fb94f	-0.0036578958
28	0xbd14aaaf	-0.03629559
29	0xbd676dbf	-0.056501146
30	0x3dac964e	0.08427106
31	0xbd964ee7	-0.07339268
32	0x3c88dd7c	0.016707174
33	0x3dc80c3a	0.09767957
34	0xbc9415a3	-0.018076723
35	0x3d2a7240	0.041612864
36	0x3cf768e9	0.030201392
37	0x3d15c77d	0.0365672
38	0x396f4172	0.00022817196
39	0x3cd009fb	0.025395384
40	0xbd0c94a0	-0.034321427
41	0x3d19db3e	0.0375626
42	0x3ce130f1	0.027489157
43	0x3d000c11	0.031261507
44	0x3d763b3a	0.060115077
45	0xbd766f18	-0.06016454
46	0xbcb3157b	-0.021860829
47	0x3c000fad	0.007816237
48	0xbda2ffff	-0.07958984
49	0xbc990cf8	-0.018682942
50	0x3b8c290d	0.0042773546
51	0xbbc62b7a	-0.0060476633
52	0x3d93e6fd	0.07221792
53	0x3de07cb6	0.10961287
54	0x3cf00db0	0.029303402
55	0x3d7fef8c	0.06248431
56	0x3d283cc3	0.041073572
57	0x3c073244	0.00825173
58	0xbd733123	-0.059373032
59	0x3d834bdd	0.06410954
60	0xbcbfaec6	-0.023398768
61	0x3cf2386b	0.029567918
62	0x3df5cae9	0.12001593
63	0xbd505e6c	-0.050871298

fcnn.6.weight f4 [1, 64]
0	0xbe98e914	-0.29865324
1	0xbe83428a	-0.25636703
2	0xbe9d6521	-0.30741218
3	0x3e5f6160	0.2181449
4	0xbe90b102	-0.28260046
5	0x3eaddd06	0.3395769
6	0xbe30c52e	-0.17262718
7	0xbe55c833	-0.20877151
8	0xbe739d8b	-0.23790567
9	0x3ea273d5	0.31728998
10	0xbe963393	-0.29336223
11	0x3ec778be	0.38959306
12	0xbe5e77bd	-0.21725364
13	0xbe8cf9e1	-0.27534392
14	0x3eb9ec1b	0.36312947
15	0xbe9a0c26	-0.30087394
16	0x3eca7843	0.39544877
17	0x3e535800	0.20639038
18	0x3f07b09b	0.53003854
19	0xbe7e4986	-0.24832734
20	0x3eec43c4	0.4614545
21	0xbe8c9f62	-0.2746535
22	0xbe976a0f	-0.29573104
23	0xbe87e39e	-0.26540846
24	0x3e8df28d	0.27724114
25	0x3f0e3aff	0.5555877
26	0x3e9acc7c	0.30234134
27	0xbe7c0b7f	-0.2461376
28	0xbe70bd33	-0.23509674
29	0xbe49a788	-0.19692814
30	0xbe7a7fcf	-0.24462818
31	0xbea3a154	-0.3195902
32	0xbe9d3f3f	-0.30712315
33	0xbe7fd3c1	-0.24983121
34	0x3e8a4d7a	0.27012235
35	0xbea3edc4	-0.32017338
36	0x3e836a9d	0.25667277
37	0x3f0bea1b	0.5465409
38	0x3e9fcf64	0.31212914
39	0x3e7e8aae	0.2485759
40	0xbe126fef	-0.14300512
41	0x3f094915	0.5362714
42	0xbe481a68	-0.19541323
43	0xbe371c45	-0.17881878
44	0x3e91575b	0.2838696
45	0xbe6590e1	-0.22418548
46	0x3ef656d2	0.48113114
47	0xbe8c7260	-0.2743101
48	0x3e76f134	0.24115449
49	0xbe84b65b	-0.25920376
50	0x3e8884fd	0.26663962
51	0xbe9a2ed9	-0.30113867
52	0xbe73f729	-0.23824753
53	0xbe883c31	-0.26608422
54	0xbe68592b	-0.22690265
55	0x3ed03c3a	0.4067095
56	0xbe92ee8d	-0.28697625
57	0x3edcab0a	0.43099242
58	0x3e73179f	0.2373948
59	0xbe8767a2	-0.26446253
60	0xbea21ea2	-0.31663996
61	0x3e9a16cb	0.30095515
62	0xbea147bf	-0.3150005
63	0xbea13ea9	-0.31493118

exp_avg f4 [27, 27, 3]
0	0x00000000	0.0
1	0x407be0f6	3.9356055
2	0x00000000	0.0
3	0x3fc00ec9	1.5004512
4	0x3e991858	0.29901385
5	0x3e264034	0.16235429
6	0x401e3628	2.4720554
7	0x3e7adc80	0.24498177
8	0x00000000	0.0
9	0x00000000	0.0
10	0x41006189	8.023812
11	0x3e018dbf	0.12651728
12	0x00000004	6e-45
13	0xbe49a201	-0.19690706
14	0x00000000	0.0
15	0x00000000	0.0
16	0x00000000	0.0
17	0x00000000	0.0
18	0x3ca05fb8	0.019576892
19	0x3f76e10b	0.9643714
20	0x00000000	0.0
21	0x00000000	0.0
22	0x3e87bff7	0.26513645
23	0x00000000	0.0
24	0xc0249e94	-2.5721788
25	0x00000000	0.0
26	0x40c52a5a	6.16142
27	0x3e0291b2	0.12750891
28	0x80000004	-6e-45
29	0x00000000	0.0
30	0x00000000	0.0
31	0x00000000	0.0
32	0x00000000	0.0
33	0x00000000	0.0
34	0xbe7aefdc	-0.24505562
35	0x3d5ebf39	0.054381583
36	0x00000000	0.0
37	0x00000000	0.0
38	0x00000000	0.0
39	0x00000000	0.0
40	0xbb510040	-0.0031891018
41	0x00000000	0.0
42	0x80000004	-6e-45
43	0xbe238692	-0.15969303
44	0x00000000	0.0
45	0x407be0f4	3.935605
46	0x3da8aa42	0.08235599
47	0xbf8ec19d	-1.1152836
48	0x00000000	0.0
49	0xbe35b666	-0.1774536
50	0x00000000	0.0
51	0xbb318ac3	-0.0027090765
52	0x00000000	0.0
53	0x00000000	0.0
54	0x00000000	0.0
55	0x00000004	6e-45
56	0x00000000	0.0
57	0x400c04ad	2.1877854
58	0xbca66d0c	-0.02031567
59	0x00000000	0.0
60	0x40b88ed2	5.767434
61	0x4054e4bd	3.326461
62	0xbce5bb00	-0.02804327
63	0x00000000	0.0
64	0xc00f24e3	-2.2366264
65	0x40383375	2.8781407
66	0x00000000	0.0
67	0x3d7a31a1	0.061082486
68	0x00000000	0.0
69	0x3e1b3e9d	0.15160604
70	0xbd1c2444	-0.038120523
71	0x00000000	0.0
72	0x3f09cfb7	0.5383257
73	0x00000000	0.0
74	0x400c04ad	2.1877854
75	0x42bc64d3	94.19692
76	0x432b0f23	171.05913
77	0x429cf3ef	78.47643
78	0x3deb91b3	0.11502399
79	0x40f12ceb	7.536733
80	0x411853d6	9.520468
81	0x00000000	0.0
82	0x00000004	6e-45
83	0x00000000	0.0
84	0x3b254b00	0.0025221705
85	0xc11a0049	-9.62507
86	0xc128eda6	-10.55802
87	0xc25c87e2	-55.132698
88	0xc2198617	-38.380947
89	0x00000000	0.0
90	0x00000004	6e-45
91	0xc1b6cbdb	-22.849539
92	0xc2045f0a	-33.09281
93	0x00000000	0.0
94	0x00000000	0.0
95	0x00000000	0.0
96	0x00000000	0.0
97	0x00000000	0.0
98	0x00000000	0.0
99	0x00000000	0.0
100	0x00000004	6e-45
101	0x00000000	0.0
102	0x00000004	6e-45
103	0xc0de54ad	-6.9478364
104	0x00000000	0.0
105	0x00000004	6e-45
106	0x00000000	0.0
107	0xbfa287d5	-1.2697703
108	0x00000000	0.0
109	0xbfc80d93	-1.5629143
110	0x00000000	0.0
111	0x00000000	0.0
112	0xb000e677	-4.689364e-10
113	0x00000000	0.0
114	0x00000004	6e-45
115	0x00000004	6e-45
116	0x3c8b6029	0.017013626
117	0x00000000	0.0
118	0x00000000	0.0
119	0x00000000	0.0
120	0x80000004	-6e-45
121	0xbc4cddf9	-0.012504094
122	0x00000000	0.0
123	0x00000000	0.0
124	0x00000000	0.0
125	0x00000000	0.0
126	0x00000004	6e-45
127	0x3edddcaa	0.43332416
128	0x3fe1dbd1	1.7645208
129	0x00000004	6e-45
130	0x3cb320d8	0.021866247
131	0x00000000	0.0
132	0xc100e7f3	-8.056628
133	0x409bf39e	4.8734884
134	0x00000000	0.0
135	0x00000000	0.0
136	0x39fec17f	0.0004859082
137	0x00000000	0.0
138	0xbec90edb	-0.39269146
139	0xc02940da	-2.6445832
140	0xbe3678d8	-0.17819536
141	0xc1df438b	-27.90798
142	0xc104235c	-8.258633
143	0x3fb6634e	1.4249055
144	0x00000004	6e-45
145	0xc1451d41	-12.319642
146	0xc22497e2	-41.148323
147	0x00000004	6e-45
148	0xbe08d420	-0.1336217
149	0x00000000	0.0
150	0x409bf39e	4.8734884
151	0xbb855d4b	-0.0040699593
152	0x00000000	0.0
153	0xc12cbd40	-10.796204
154	0x00000000	0.0
155	0xbec90ed3	-0.39269122
156	0xc3376e5f	-183.43114
157	0xc2fdbf42	-126.87355
158	0xc49cee86	-1255.4539
159	0xc079819b	-3.8985355
160	0xc32c02d8	-172.01111
161	0xc2a38642	-81.76222
162	0x80000004	-6e-45
163	0x00000004	6e-45
164	0x00000000	0.0
165	0x00000000	0.0
166	0x401b1b94	2.4235582
167	0x40c8c516	6.2740583
168	0x411207e1	9.126924
169	0x416b51b9	14.707452
170	0x00000004	6e-45
171	0x00000004	6e-45
172	0x4210b663	36.178112
173	0x41e4b5e9	28.588823
174	0x00000000	0.0
175	0xbdb66e23	-0.08907726
176	0x00000000	0.0
177	0x00000000	0.0
178	0x334d554d	4.7807863e-08
179	0x00000000	0.0
180	0x00000000	0.0
181	0x415d578f	13.833877
182	0x00000000	0.0
183	0x00000000	0.0
184	0x00000004	6e-45
185	0x00000000	0.0
186	0xbf803a11	-1.001772
187	0x00000000	0.0
188	0x41cfaa64	25.958199
189	0x00000000	0.0
190	0x3e1cd2bd	0.15314765
191	0x00000000	0.0
192	0x00000004	6e-45
193	0x00000000	0.0
194	0x00000000	0.0
195	0x80000004	-6e-45
196	0x202de091	1.4727973e-19
197	0xbf91e9f9	-1.1399528
198	0x00000000	0.0
199	0x00000000	0.0
200	0x00000000	0.0
201	0x00000000	0.0
202	0x00000004	6e-45
203	0x00000000	0.0
204	0x00000000	0.0
205	0xc1149d71	-9.288438
206	0x00000000	0.0
207	0x00000004	6e-45
208	0x3da470d2	0.08029331
209	0x42d2fdd4	105.49576
210	0x00000000	0.0
211	0x00000000	0.0
212	0x00000000	0.0
213	0x00000004	6e-45
214	0x00000000	0.0
215	0x00000000	0.0
216	0x00000000	0.0
217	0x3cedca01	0.029026987
218	0x00000000	0.0
219	0x41909652	18.073399
220	0x411b2290	9.695938
221	0x3c876d88	0.01653172
222	0x432462e3	164.38628
223	0x42e1c4c3	112.8843
224	0x413361c5	11.2113695
225	0x80000004	-6e-45
226	0x415affbc	13.687435
227	0xc0390fcf	-2.8915899
228	0x00000000	0.0
229	0x00000000	0.0
230	0x00000000	0.0
231	0x00000004	6e-45
232	0xc06d7e49	-3.7108328
233	0x00000000	0.0
234	0x00000004	6e-45
235	0x00000000	0.0
236	0x41909650	18.073395
237	0x448c920d	1124.5641
238	0x449b4d0a	1242.4075
239	0x446fcd3b	959.2067
240	0x41fbd880	31.480713
241	0x42e34ff1	113.656136
242	0x433b460f	187.27367
243	0x134dd7c8	2.5981026e-27
244	0x00000000	0.0
245	0x00000000	0.0
246	0x00000000	0.0
247	0x40a353e9	5.103993
248	0x403209d9	2.781851
249	0x41bbfb3d	23.497675
250	0x3eea76d2	0.45793778
251	0xbe0b83a1	-0.13624431
252	0xbfb71b12	-1.4305136
253	0x41eafe89	29.374285
254	0x414051ee	12.020002
255	0x00000000	0.0
