experiments/tcnn-abilities/models/SmallBTCNN_MediumFCNN_2.pth (torch, 620446 bytes, 27 tensors)

btcnn.layers.0.conv1d.weight f4 [27, 27, 3]
0.003960437 -0.10506656 -0.0878331 0.067952566 0.030131837 0.12284858 -0.14402886 0.057832114
0.02614436 0.008009778 -0.006719086 -0.15559511 -0.37298256 -0.16245587 -0.11079738 -0.05598398
-0.071378626 -0.10780946 -0.048272174 -0.41173786 -0.07085253 0.06127392 -0.46220988 -0.09538257
-0.31674632 0.04356065 -0.085896485 0.22734532 -0.29248112 -0.02337269 0.06248926 -0.108394496
0.050033424 -0.060059547 -0.19347365 0.088712424 0.027096841 0.069615036 -0.012482643 -0.10836831
-0.13861178 -0.011237025 0.10619887 0.2542431 -0.095505476 -0.0053296434 -0.2649112 0.20564337
0.076820284 0.32552472 0.013755494 0.28373444 0.05151142 -0.040472217 -0.08848049 -0.2630264
0.07168732 -0.14059211 -0.41035601 -0.059279416 0.1103872 -0.0047411355 0.30769485 -0.04746759
0.005898124 0.036218986 -0.10441727 -0.17516461 -0.08708436 0.42488468 -0.0054337042 0.06701682
0.036827736 0.045952693 -0.16049756 0.033191178 0.12795539 0.051623505 -0.088045835 0.04712688
0.058170386 -0.028883722 -0.054190964 0.09322328 -0.081027515 0.090573974 0.03772286 0.16762896
0.14824691 0.00026542053 -0.025889808 0.069611914 -0.05033232 -0.059191518 0.066124536 -0.09735668
-0.08174573 -0.01838549 -0.04555445 0.0069501004 -0.044633985 0.06875924 0.10244271 0.24902381
0.10700609 -0.11011484 -0.021716237 0.12368 -0.042302 -0.13824531 0.009303491 -0.040201433
-0.055791724 0.034384847 -0.017944524 0.00892909 0.25086957 -0.023654886 -0.0346965 0.1022339
0.04819076 -0.09367153 0.026474304 0.016362553 0.072941266 0.06303777 0.008695436 0.109605685
0.19236867 -0.17752077 0.1366456 -0.0011979342 0.11588112 -0.0057028504 0.0328238 -0.070339285
0.23762153 -0.062950306 0.16272424 0.16977276 0.41254365 0.10478288 0.12775432 0.40596566
-0.024943877 0.05236777 -0.051738016 0.10660128 0.082368776 -0.057136748 0.049077515 -0.0779764
0.09012552 0.0029308102 -0.06370338 -0.019476142 -0.25246224 -0.1158673 0.033514813 0.008184043
0.008942686 0.20440859 0.031152222 -0.2310985 -0.053222086 -0.09934 -0.011419631 0.12895802
-0.23042153 0.075816765 0.041990835 0.0554765 -0.0487954 -0.24401951 -0.04737446 -0.22333114
0.013395045 0.06159973 -0.11601776 -0.01942836 0.10555618 -0.047394883 -0.105298266 -0.087735996
-0.095414765 0.06793152 0.05972845 0.041117363 -0.14572565 -0.009866688 0.15341657 -0.027369035
0.004481793 -0.09260199 -0.06162601 0.087379836 -0.20490457 0.27388906 -0.09590767 0.08223933
0.018574424 -0.03402205 0.071855515 0.07518199 0.06309712 0.24103968 0.095086075 -0.045131706
-0.2550823 0.09017445 0.061235745 -0.0467999 -0.03920567 -0.5351186 0.03153067 0.061905555
0.090878464 -0.026421929 0.06342057 -0.05409443 0.030012272 -0.35500678 0.06832907 0.083587915
-0.23847196 0.03672886 0.019806929 -0.00044967036 0.10780578 0.05914173 0.08546289 -0.061671693
0.24342386 -0.059684437 -0.046738308 -0.07952661 -0.04566832 -0.021114696 0.0322721 0.040548794
-0.2624136 -0.20151736 0.11546745 -0.12839362 -0.055130668 -0.0934242 0.03911184 -0.054678235
-0.15538123 -0.07679706 -0.20351727 -0.08379224 -0.13754298 0.013336847 -0.1424291 0.039863016
00000000: 8ec6 813b 232d d7bd d7e1 b3bd b72a 8b3d
00000010: 0bd7 f63c 0998 fb3d 4d7c 13be 5ee1 6c3d
00000020: b22c d63c 723b 033c c72b dcbb 5354 1fbe
00000030: 92f7 bebe d55a 26be bde9 e2bd 754f 65bd
00000040: f52e 92bd 35cb dcbd 0bb9 45bd 4ecf d2be
00000050: 221b 91bd 5dfa 7a3d c6a6 ecbe f057 c3bd
00000060: 932c a2be a76c 323d 7fea afbd 36cd 683e
00000070: 16c0 95be 1578 bfbc bdf4 7f3d effd ddbd
00000080: d9ef 4c3d 0001 76bd f51d 46be dcae b53d
00000090: 32fa dd3c 5492 8e3d 0084 4cbc 34f0 ddbd
000000a0: 3ff0 0dbe 801b 38bc cb7e d93d 272c 823e
000000b0: 6098 c3bd 4aa4 aebb 71a2 87be 2d94 523e
000000c0: f453 9d3d 2dab a63e b95e 613c a445 913e
000000d0: a4fd 523d 32c6 25bd 4235 b5bd 65ab 86be
000000e0: cdd0 923d 61f7 0fbe 2f1a d2be f9ce 72bd
000000f0: af12 e23d 875b 9bbb 2e8a 9d3e 606d 42bd
00000100: 0d45 c13b 5c5a 143d b9d8 d5bd 5a5e 33be
00000110: 4959 b2bd 7c8a d93e 370d b2bb 1d40 893d
00000120: aed8 163d e438 3c3d 7959 24be 79f3 073d
00000130: bd06 033e 2b73 533d 6051 b4bd 1e08 413d
00000140: 1244 6e3d 8e9d ecbc 58f7 5dbd d9eb be3d
00000150: c1f1 a5bd d97e b93d 4983 1a3d eda6 2b3e
00000160: 0ace 173e 2428 8b39 dd16 d4bc b190 8e3d
00000170: 4329 4ebd ce72 72bd 4d6c 873d f062 c7bd
00000180: 4e6a a7bd 2b9d 96bc 4e97 3abd abbd e33b
00000190: 20d2 36bd a5d1 8c3d 7ccd d13d 1900 7f3e
000001a0: 0226 db3d e483 e1bd 40e6 b1bc f14b fd3d
000001b0: dd44 2dbd 2e90 0dbe ab6d 183c 42aa 24bd
000001c0: dd85 64bd 20d7 0c3d 6500 93bc 514b 123c
000001d0: fa71 803e e4c7 c1bc eb1d 0ebd 0260 d13d
000001e0: ad63 453d dcd6 bfbd a4e0 d83c c30a 863c
000001f0: 3b62 953d f219 813d 4d77 0e3c f278 e03d
00000200: 4bfc 443e 01c8 35be d3ec 0b3e 0004 9dba
00000210: 1553 ed3d fade babb 4072 063d 0b0e 90bd
00000220: 0f53 733e 17ec 80bd 2fa1 263e e9d8 2d3e
00000230: ec38 d33e 6898 d63d 07d2 023e bbda cf3e
00000240: 1a57 ccbc 967f 563d 3eeb 53bd c651 da3d
00000250: f6b0 a83d 3908 6abd 8105 493d 17b2 9fbd
00000260: bb93 b83d d612 403b eb76 82bd 6e8c 9fbc
00000270: bb42 81be d64b edbd d446 093d 5d16 063c
00000280: 5884 123c 7c50 513e f232 ff3c 16a5 6cbe
00000290: 67ff 59bd c572 cbbd 6719 3bbc 920d 043e
000002a0: 9ff3 6bbe d245 9b3d 95fe 2b3d 543b 633d
000002b0: afdd 47bd 40e0 79be b90b 42bd ebb0 64be
000002c0: e476 5b3c 0050 7c3d b89a edbd 3928 9fbc
000002d0: d72d d83d 2321 42bd 9ea6 d7bd eeae b3bd
000002e0: d168 c3bd ae1f 8b3d d2a5 743d ae6a 283d
000002f0: 1b39 15be e4a7 21bc 3c19 1d3e 0735 e0bc
00000300: 01dc 923b 1da6 bdbd 8e6b 7cbd 33f4 b23d
00000310: 81d2 51be 303b 8c3e 3e6b c4bd 186d a83d
00000320: 6429 983c b55a 0bbd fc28 933d 04f9 993d
00000330: 1039 813d 1bd3 763e 7dbc c23d 06dc 38bd
00000340: 269a 82be 62ad b83d 55d2 7a3d 40b1 3fbd
00000350: 2096 20bd 88fd 08bf 4e26 013d ae90 7d3d
00000360: 7d1e ba3d cd72 d8bc a5e2 813d 1f92 5dbd
00000370: 4cdc f53c 73c3 b5be 1df0 8b3d 2430 ab3d
00000380: fe31 74be 0071 163d 2442 a23c bcc1 ebb9
00000390: 47c9 dc3d 993e 723d 2b07 af3d 759b 7cbd
000003a0: 1b44 793e ab77 74bd ab70 3fbd d9de a2bd
000003b0: b40e 3bbd baf8 acbc c02f 043d 7e16 263d
000003c0: 135b 86be 915a 4ebe 337a ec3d 9e79 03be
000003d0: b2d0 61bd 3055 bfbd bd33 203d 49f6 5fbd
000003e0: 421c 1fbe c747 9dbd d566 50be 449b abbd
000003f0: 11d8 0cbe ca82 5a3c efd8 11be 6747 233d

btcnn.layers.0.conv1d.bias f4 [27]
-0.01737223 -0.08384509 -0.02692304 -0.08416409 -0.01836864 0.024697106 -0.12704217 -0.027679015
0.054529484 -0.04388701 0.05937584 0.009572324 -0.016472645 -0.052036334 -0.07105136 -0.14155008
0.16478997 0.059671387 0.028691325 -0.051317714 0.010202561 -0.09415166 -0.035876647 -0.07338373
0.093585856 -0.03502083 -0.0019580133
00000000: 3550 8ebc f9b6 abbd b58d dcbc 395e acbd
00000010: d579 96bc 9651 ca3c 5817 02be 1abf e2bc
00000020: 4f5a 5f3d dec2 33bd 1534 733d 3dd5 1c3c
00000030: a4f1 86bc 0d24 55bd 6083 91bd 81f2 10be
00000040: b4be 283e fc69 743d 120a eb3c 8632 52bd
00000050: a428 273c 96d2 c0bd 64f3 12bd 364a 96bd
00000060: f1a9 bf3d 0072 0fbd 0352 00bb

fcnn.0.weight f4 [256, 27]
0.08775313 -0.124265455 0.22516477 0.12555169 0.06804934 0.19844803 0.13436924 -0.03127129
0.049979527 -0.09335124 0.18128248 -0.16892177 0.026342021 -0.22177096 0.2143877 0.09486771
-0.17579798 0.08417752 -0.041514046 -0.15550266 -0.17524636 0.22723967 -0.017029865 -0.06263826
0.17407699 -0.14461985 -0.15959844 0.06456468 0.09123837 0.09154669 -0.06643065 -0.17163648
0.01447116 0.10054737 -0.13471921 0.060071588 -0.105803974 0.046591945 -0.06527594 -0.09678486
-0.113797724 -0.0029433693 -0.017896773 0.3347253 0.09063331 0.08655981 -0.05647204 -0.023612129
0.0020822722 0.19050483 -0.098094806 -0.19088726 0.11994609 0.1739094 -0.0915366 -0.14942686
0.020527715 -0.21148586 -0.053936094 -0.16620733 -0.0887222 -0.1871863 0.0027066336 -0.1931004
-0.029383322 0.13736813 -0.001996639 0.17490174 -0.051324867 -0.0370123 0.10239729 -0.049266417
-0.078476325 -0.0045913155 0.057937764 -0.07014985 0.16499954 0.076924175 -0.0060059284 -0.08404376
0.011386695 -0.085940294 -0.037215073 0.048625458 -0.11574858 -0.10080362 -0.17252049 -0.07993443
-0.09991798 0.1108326 -0.06606528 -0.14113742 0.19608198 0.21292816 -0.04958838 -0.03986766
0.08330912 -0.17851561 0.19847952 -0.1838444 -0.03198954 -0.050766226 0.03193737 -0.020495707
-0.1515602 0.090682976 -0.13333508 -0.019311925 0.029660335 -0.20189793 -0.033558547 0.07530358
-0.06059778 -0.025508137 0.16609651 -0.06374504 0.115641445 -0.16664815 -0.057330698 0.18334699
0.008974115 0.1590451 0.08318183 -0.09117916 0.15689151 -0.094588496 0.110475644 -0.040488333
0.09535777 -0.19391204 -0.08781329 0.06305172 -0.08742547 0.00090304366 -0.11388888 0.04359448
-0.0761431 0.19412652 -0.1049235 0.18729858 -0.2269701 -0.07608182 -0.11054821 -0.1587638
-0.069966815 -0.027494736 0.06576772 -0.03352442 0.0793798 0.1281404 0.013971504 -0.09482649
-0.10616389 -0.08147166 0.012463501 -0.1472189 0.1677515 -0.16290745 0.011409377 0.09641036
0.07875211 -0.049289457 0.093978286 -0.23220083 -0.2620625 -0.16525401 0.16252656 -0.057089645
-0.1035779 -0.24940342 -0.17713498 -0.12606803 -0.05522848 0.15852365 0.0465627 0.016911056
0.15253186 -0.021820301 0.08706996 0.096145175 -0.050400525 -0.14284901 -0.14811721 0.11452348
0.041236285 -0.187517 -0.16504137 -0.0100016 -0.017939603 0.13845624 -0.7521223 0.076306
0.08882658 -0.15003936 0.17555432 0.22708102 0.090037905 -0.06106701 0.01876241 0.0031095287
-0.24485962 0.156243 -0.08386107 0.19917937 0.17845564 -0.41151252 0.03174664 -0.0056317416
0.0035001216 0.035635114 0.024018172 -0.15061927 -0.23358047 -0.079299025 -0.26821765 -0.09612351
-0.175851 -0.21967998 0.06453783 -0.020409314 -0.18126942 0.00051045313 0.043378334 0.29911375
0.19326809 -0.15678945 -0.15693827 0.15326057 -0.026525153 0.07591285 0.056215845 0.01971028
-0.05118851 0.23728734 0.04511462 0.16915864 0.15858908 -0.07243495 0.05540364 -0.027689382
-0.19859275 -0.13801068 0.00511261 -0.16496627 -0.005330514 -0.22491732 0.018816914 0.026679376
-0.23455754 -0.12972 -0.048426457 -0.07255873 -0.060636763 -0.12945347 0.12607254 -0.05582347
00000000: eab7 b33d e37e febd 9891 663e 9f90 003e
00000010: 745d 8b3d f635 4b3e 1798 093e 5316 00bd
00000020: 55b7 4c3d ef2e bfbd 1da2 393e d4f9 2cbe
00000030: 39cb d73c ed17 63be 7388 5b3e 004a c23d
00000040: 6304 34be 4365 ac3d a20a 2abd 173c 1fbe
00000050: c873 33be 84b1 683e 3782 8bbc 7d48 80bd
00000060: 3d41 323e 3a17 14be c66d 23be 7d3a 843d
00000070: 2fdb ba3d d57c bb3d cb0c 88bd 79c1 2fbe
00000080: 7218 6d3c c8eb cd3d d5f3 09be a00d 763d
00000090: c1af d8bd 32d7 3e3d 64af 85bd 2437 c6bd
000000a0: c80e e9bd 8be5 40bb 419c 92bc 1d61 ab3e
000000b0: f59d b93d 4546 b13d 3a4f 67bd 396e c1bc
000000c0: bb76 083b b313 433e eee5 c8bd f377 43be
000000d0: 4ca6 f53d 4e15 323e 8a77 bbbd 5b03 19be
000000e0: bd29 a83c c08f 58be 18ec 5cbd 4132 2abe
000000f0: fcb3 b5bd c4ad 3fbe c761 313b 1cbc 45be
00000100: 4bb5 f0bc 3baa 0c3e 0bda 02bb 7119 333e
00000110: 063a 52bd 369a 17bd acb5 d13d 95cb 49bd
00000120: 32b8 a0bd bf72 96bb 2650 6d3d b9aa 8fbd
00000130: a4f5 283e 6c8a 9d3d 61cd c4bb 231f acbd
00000140: 438f 3a3c 7701 b0bd d56e 18bd 7d2b 473d
00000150: 970d edbd 2172 cebd 36a9 30be aab4 a3bd
00000160: cca1 ccbd 34fc e23d 3c4d 87bd 5486 10be
00000170: b7c9 483e d709 5a3e 2f1d 4bbd 454c 23bd
00000180: f99d aa3d cccc 36be 373e 4b3e b541 3cbe
00000190: 7707 03bd 3ff0 4fbd c2d0 023d 9de6 a7bc
000001a0: 9932 1bbe ffb7 b93d fe88 08be 0b34 9ebc
000001b0: 3bfa f23c 55be 4ebe b074 09bd c338 9a3d
000001c0: 6135 78bd 71f6 d0bc 3415 2a3e c28c 82bd
000001d0: 6cd5 ec3d d0a5 2abe 98d3 6abd 50bf 3b3e
000001e0: 2b08 133c b8dc 223e 3c5b aa3d 24bc babd
000001f0: 2ba8 203e 9db7 c1bd 0e41 e23d 18d7 25bd
00000200: ef4a c33d e190 46be 74d7 b3bd 4321 813d
00000210: 200c b3bd 3cba 6c3a 933e e9bd 2090 323d
00000220: eaf0 9bbd 1ac9 463e 22e2 d6bd 33cb 3f3e
00000230: da6a 68be c9d0 9bbd 1a67 e2bd fa92 22be
00000240: c34a 8fbd a43c e1bc 3ab1 863d e750 09bd
00000250: e091 a23d 3d37 033e bce8 643c 6434 c2bd
00000260: 746c d9bd 9dda a6bd b633 4c3c 8dc0 16be
00000270: 0dc7 2b3e 36d1 26be 65ee 3a3c cb72 c53d
00000280: c948 a13d bee3 49bd b077 c03d 0ec6 6dbe
00000290: 0e2d 86be 5938 29be 5d6d 263e d5d6 69bd
000002a0: a620 d4bd 9c63 7fbe df62 35be fa17 01be
000002b0: 4237 62bd 0654 223e 88b8 3e3d 0e89 8a3c
000002c0: 5031 1c3e 7dc0 b2bc bc51 b23d c3e7 c43d
000002d0: c870 4ebd 0347 12be 0aac 17be 498b ea3d
000002e0: 61e7 283d 7504 40be 9b00 29be c0dd 23bc
000002f0: 13f6 92bc 79c7 0d3e 168b 40bf 5246 9c3d
00000300: b6ea b53d eba3 19be 83c4 333e ed87 683e
00000310: cb65 b83d 6721 7abd a0b3 993c 3cc9 4b3b
00000320: 7bbc 7abe 2afe 1f3e 5abf abbd adf5 4b3e
00000330: 13bd 363e c5b1 d2be c408 023d 798a b8bb
00000340: 4c62 653b 20f6 113d c2c1 c43c f03b 1abe
00000350: b82f 6fbe 8767 a2bd d353 89be 67dc c4bd
00000360: 4912 34be caf3 60be 692c 843d 6f31 a7bc
00000370: b19e 39be eecf 053a 7bad 313d 7025 993e
00000380: 12e8 453e 6a8d 20be 6db4 20be 57f0 1c3e
00000390: 474b d9bc 3278 9b3d 9642 663d 7477 a13c
000003a0: 0bab 51bd 74fb 723e 1cca 383d ec37 2d3e
000003b0: 2d65 223e c658 94bd edee 623d d8d4 e2bc
000003c0: e65b 4bbe ac52 0dbe ae87 a73b ebec 28be
000003d0: 98ab aebb ba50 66be ee25 9a3c b58e da3c
000003e0: da2f 70be 52d5 04be d25a 46bd ac99 94bd
000003f0: 415e 78bd 738f 04be 2919 013e 27a7 64bd

fcnn.0.bias f4 [256]
0.089345284 0.25400957 0.096302286 -0.13480078 0.027554793 -0.027737105 0.183745 0.16038944
0.0447782 0.08035954 0.16948186 -0.0869506 -0.0025908113 0.005735497 0.110453136 -0.049017143
0.19062476 0.049951453 0.047528677 0.11432295 0.062273312 -0.17352009 0.08989276 0.20640802
-0.027173892 0.13053563 -0.121470556 0.020323563 -0.07085419 -0.041522555 0.20743237 -0.08477748
0.15970898 -0.12378999 0.18831952 -0.13256226 0.05341052 -0.19737485 -0.10550561 -0.07190595
-0.04739124 -0.043671604 0.27524945 -0.106964886 0.016347567 -0.18945035 -0.12012595 -0.07267664
-0.003837137 0.09215658 -0.12810168 0.10973144 -0.15625855 -0.008089326 -0.01961379 0.23047897
-0.12016826 0.12213151 -0.1646124 0.14877306 -0.06355161 0.10658835 -0.056196418 0.059094477
-0.16254097 0.020380283 0.15301454 0.073144816 0.08496098 0.14847177 0.15501623 0.054831613
0.096910425 0.2639842 -0.098298885 0.21389225 -0.014919589 0.06645461 -0.11872408 -0.14051843
0.18897602 -0.15153432 -0.16624945 0.10992754 0.12797648 0.086998135 0.011839047 0.22273001
0.09949472 -0.13976946 0.060924694 0.24749157 -0.14597356 0.2205296 -0.088600256 0.11502397
0.036288667 0.20704675 -0.20018272 -0.019026052 -0.19433323 0.08061883 -0.10988611 -0.12364263
0.120373234 -0.08238713 -0.16150488 -0.16520208 0.11847226 -0.010858756 -0.19123836 0.12576865
-0.10441592 0.039183177 0.20441037 -0.14256711 0.16669016 0.0838385 0.050898436 -0.16763245
-0.061863776 -0.037168536 -0.12164167 -0.15117547 0.032214902 0.1485337 -0.18662801 -0.008932263
0.121057436 0.16634868 0.16619629 0.10059993 -0.027132602 0.14737059 -0.12501891 -0.20848164
-0.13675515 0.05288953 0.037259214 0.15199742 0.1221755 0.054004747 -0.1485313 0.20969751
-0.016264686 -0.042626683 0.004671982 0.18192075 0.19083634 0.03102352 -0.15099683 0.15062207
0.17666373 0.16557625 -0.11925644 -0.02643247 0.0862486 -0.11516534 -0.25403503 0.06616777
-0.112839505 0.1939745 0.06347562 -0.20839444 -0.1257136 -0.0052338787 -0.16332215 -0.22018202
-0.07817105 0.0760371 0.03091764 0.17679262 -0.058177494 -0.0796061 0.21118498 0.114359565
-0.117442586 0.17734724 -0.22315697 0.16615467 -0.04221588 -0.12454736 -0.07740646 0.07803668
0.25856975 -0.21900333 -0.13586111 -0.061361335 0.16101234 0.070789985 0.080945216 -0.13445714
0.00055193104 0.14172485 0.015430725 0.28128478 -0.18046467 -0.11805794 0.13737904 0.13512005
-0.0748663 -0.031505205 -0.051288124 -0.16601744 -0.108526714 0.22057958 0.118032634 0.19206554
0.071275726 0.12745592 0.10248339 0.084828384 -0.044437114 -0.09348321 -0.15884008 0.15158749
-0.034438893 0.094733946 -0.05615088 -0.10759023 0.08774119 0.23300068 0.13829263 0.08648334
-0.098937795 0.16997156 0.060796157 0.021406757 0.022057543 -0.009487742 0.055277836 0.10206834
-0.0032028952 0.14717816 0.20562802 0.09145367 0.016656278 -0.08928816 0.14010477 -0.045282587
0.088867016 0.14966248 -0.09425904 0.02225602 0.06087699 0.013139254 -0.20543121 -0.016761655
-0.04909792 -0.023790248 -0.118359275 0.082469724 -0.013340268 -0.29776284 0.20045747 -0.10452168
00000000: a9fa b63d 8b0d 823e 223a c53d 3709 0abe
00000010: 97ba e13c ed38 e3bc a627 3c3e 213d 243e
00000020: 5969 373d 8b93 a43d a78c 2d3e 2813 b2bd
00000030: 9aca 29bb d6f0 bb3b 4135 e23d 33c6 48bd
00000040: 2333 433e e599 4c3d 6ead 423d 2722 ea3d
00000050: 4d12 7f3d 40af 31be b219 b83d a05c 533e
00000060: c89b debc 22ab 053e 8ec5 f8bd 9a7d a63c
00000070: 001c 91bd 8e13 2abd 2769 543e d19f adbd
00000080: c08a 233e 9b85 fdbd d5d6 403e 67be 07be
00000090: fdc4 5a3d a21c 4abe 5313 d8bd 6d43 93bd
000000a0: 511d 42bd ffe0 32bd 7fed 8c3e 6810 dbbd
000000b0: 55eb 853c 46ff 41be 9804 f6bd 7dd7 94bd
000000c0: 7a78 7bbb 97bc bc3d 162d 03be e1ba e03d
000000d0: 3e02 20be 1889 04bc 19ad a0bc ae02 6c3e
000000e0: c71a f6bd 1620 fa3d 2790 28be f757 183e
000000f0: 5927 82bd fe4a da3d 372e 66bd 0d0d 723d
00000100: 2471 26be 8df4 a63c d8af 1c3e f3cc 953d
00000110: 0600 ae3d fc08 183e 93bc 1e3e 1d97 603d
00000120: f978 c63d f028 873e ed50 c9bd 9206 5b3e
00000130: 4b71 74bc 5b19 883d 9c25 f3bd 10e4 0fbe
00000140: ee82 413e d02b 1bbe 4c3d 2abe b121 e13d
00000150: 440c 033e 142c b23d 90f8 413c 5613 643e
00000160: e3c3 cb3d ba1f 0fbe 2c8c 793d 6e6e 7d3e
00000170: 187a 15be 83d2 613e 0d74 b5bd b091 eb3d
00000180: 6da3 143d 1004 543e b3fc 4cbe 86dc 9bbc
00000190: 4aff 46be 7c1b a53d f80b e1bd 5938 fdbd
000001a0: 3e86 f63d 95ba a8bd 8961 25be bc2a 29be
000001b0: 96a1 f23d ece8 31bc fdd3 43be 7fc9 003e
000001c0: 04d8 d5bd 8a7e 203d f450 513e 1dfd 11be
000001d0: d3b0 2a3e 85b3 ab3d e17a 503d d7a7 2bbe
000001e0: df64 7dbd 093e 18bd 451f f9bd becd 1abe
000001f0: c6f3 033d 3819 183e 6a1b 3fbe a058 12bc
00000200: f6ec f73d 4f57 2a3e 5c2f 2a3e 5607 ce3d
00000210: 3145 debc 51e8 163e f504 00be 367c 55be
00000220: 8b09 0cbe b1a2 583d 1e9d 183d 36a5 1b3e
00000230: 2637 fa3d 1534 5d3d 9718 18be f2ba 563e
00000240: 853d 85bc 5199 2ebd 6d17 993b 6f49 3a3e
00000250: 9a6a 433e 0925 fe3c ea9e 1abe ac3c 1a3e
00000260: 56e7 343e d28c 293e b83c f4bd e888 d8bc
00000270: 1ba3 b03d cedb ebbd e110 82be f882 873d
00000280: 6618 e7bd 40a1 463e 81ff 813d 5a65 55be
00000290: 11bb 00be f580 abbb ec3d 27be 6577 61be
000002a0: 2518 a0bd 57b9 9b3d fe46 fd3c 2009 353e
000002b0: 864b 6ebd 8608 a3bd e040 583e 5935 ea3d
000002c0: bd85 f0bd 849a 353e 4383 64be 7324 2a3e
000002d0: 8fea 2cbd b012 ffbd 4787 9ebd b2d1 9f3d
000002e0: 4163 843e 6942 60be 2d1f 0bbe 0656 7bbd
000002f0: 6be0 243e 57fa 903d 9bc6 a53d 22af 09be
00000300: 77af 103a 5220 113e 27d1 7c3c 8f04 903e
00000310: bbcb 38be 5cc8 f1bd 17ad 0c3e e95c 0a3e
00000320: 8153 99bd 9a0b 01bd 7f13 52bd 7a00 2abe
00000330: 4143 debd 9ddf 613e 18bb f13d d4ac 443e
00000340: 02f9 913d ce83 023e d0e2 d13d 81ba ad3d
00000350: b103 36bd 2074 bfbd f9a6 22be c039 1b3e
00000360: cc0f 0dbd df03 c23d 77fe 65bd 4458 dcbd
00000370: a7b1 b33d bb97 6e3e 959c 0d3e 2d1e b13d
00000380: e69f cabd 060d 2e3e 6405 793d 395d af3c
00000390: 05b2 b43c 7972 1bbc 036b 623d 3509 d13d
000003a0: aae7 51bb dfb5 163e 2790 523e 104c bb3d
000003b0: bf72 883c b6dc b6bd a077 0f3e 3c7a 39bd
000003c0: e9ff b53d 1f41 193e e20a c1bd 4252 b63c
000003d0: 275a 793d 0746 573c 8f5c 52be bd4f 89bc
000003e0: e71a 49bd c4e3 c2bc 5966 f2bd e3e5 a83d
000003f0: 2491 5abc 5f74 98be b944 4d3e 760f d6bd

fcnn.2.weight f4 [128, 256]
0.01861819 0.08509722 -0.12383989 0.123316124 -0.081974015 -0.07884184 -0.054070536 0.3362267
0.009671953 0.013143433 0.18322062 -0.039169215 -0.09865008 -0.04449966 0.06572239 -0.015714526
0.09797494 -0.016781632 -0.026622929 -0.03461984 -0.054326843 -0.09642873 -0.067013785 0.036938794
0.036911055 0.15622865 -0.00710781 -0.12183413 -0.024769219 0.036877908 -0.08089114 -0.022120899
-0.040523026 -0.047803167 -0.024524827 -0.013972399 0.055716813 0.063470036 0.06524207 0.06428295
-0.058822513 0.05909375 -0.44273496 -0.00054724736 -0.006831064 -0.2306652 -0.017730275 0.030877873
-0.18045346 -0.06350468 -0.0029537345 -0.21791396 0.06875621 0.0685551 -0.00011256349 0.1531809
0.045579236 0.1449332 0.057913218 0.11373543 0.053289596 0.0051819263 0.024744224 -0.0071792915
-0.009983123 0.052964836 -0.21798772 0.069655456 -0.12512104 0.097970776 -0.068314984 -0.04162321
0.051923007 -0.037402164 -0.097028 -0.22805808 -0.024709253 -0.04286074 0.099441044 0.06956617
-0.13891402 0.0009663874 0.078015916 7.6127e-05 -0.06501892 -0.025870139 0.005957883 -0.035731234
0.041779496 0.08281835 0.025301138 0.056740973 0.07418682 -0.042255413 -0.064172976 -0.051044334
-0.019613205 -0.0334122 0.0034509026 0.0050216476 0.06276219 0.06420424 -0.0008379316 -0.3854574
-0.05020351 -0.051621217 0.064439185 0.11804188 0.16557196 0.08190935 -0.00029508132 -0.15568851
-0.07065268 0.022220837 -0.008998729 -0.018997176 0.09530198 0.00027216334 0.023752544 -0.0067660306
0.014737123 0.047493234 -0.09469398 -0.0002059098 -0.08030377 0.08692763 0.059425045 -0.030603575
0.08087649 -0.110041074 -0.045556724 0.006713046 -0.010064525 -0.15851855 0.03241651 0.031856757
0.029444315 0.018956732 -0.08645201 0.055150375 0.039701365 -0.07339319 0.050236348 -0.013502659
-0.05170247 0.04816474 -0.036958657 0.20185247 0.31111377 0.11225428 -0.11734236 0.001008079
0.04418272 -0.0616415 0.0772663 0.34216562 0.010585879 -0.04457833 -0.04679913 -0.04366454
-0.02354486 0.056717947 -0.022581588 -0.01088927 0.1070979 0.040093366 0.05611477 -0.0061965385
0.009903278 0.022001082 -0.20666358 0.06506333 0.03845737 0.0074624075 0.025729986 -0.052992724
0.012710089 0.07650942 0.0036527074 -0.023024458 0.05722381 0.047515325 -0.012533769 -0.011249526
-0.12292803 0.16659348 0.042834442 0.0122266095 -0.5236661 -0.07467841 -0.034668274 0.071969055
0.014174429 0.00397792 -0.43397892 0.07173366 0.027004447 0.013822211 0.036830258 0.05335493
-0.058458105 0.06748973 -0.0040759398 0.095652625 -0.11437908 0.07265253 0.11383258 0.18722518
0.08475428 0.11849071 -0.0013316219 0.17050077 -0.032118116 -0.10723081 -0.310634 0.044602178
-0.09192275 0.22530977 -0.21250288 0.07580705 -0.19945568 0.24025604 0.05701629 -0.022126138
0.01581119 -0.024494817 0.08161874 0.021711823 0.13154536 0.081717946 0.061397363 0.00965565
-0.253852 -0.13829084 -0.18883704 0.013258902 -0.09908698 0.00035674468 -0.06516247 0.039679646
-0.12015415 -0.01652328 -0.038754087 -0.14396206 -0.043900136 0.080783226 0.06848558 0.047988173
-0.026582498 -0.00058962515 -0.065602444 -0.053655308 -0.007703511 0.017866079 -0.0032316116 0.030202143
00000000: 2d85 983c 7447 ae3d c59f fdbd 2a8d fc3d
00000010: fee1 a7bd d577 a1bd 1179 5dbd e825 ac3e
00000020: 1c77 1e3c 8e57 573c 309e 3b3e e66f 20bd
00000030: 0e09 cabd 4745 36bd 7699 863d c0bb 80bc
00000040: 16a7 c83d a279 89bc 5418 dabc 89cd 0dbd
00000050: d385 5ebd 6d7c c5bd 863e 89bd 224d 173d
00000060: 0c30 173d 67fa 1f3e a2e8 e8bb 2c84 f9bd
00000070: d1e8 cabc 4a0d 173d 41aa a5bd e336 b5bc
00000080: 79fb 25bd 41cd 43bd 4ae8 c8bc 7dec 64bc
00000090: 5037 643d 94fc 813d a29d 853d c7a6 833d
000000a0: e0ef 70bd 4a0c 723d 28ae e2be 2675 0fba
000000b0: 1ed7 dfbb 8033 6cbe 153f 91bc 98f3 fc3c
000000c0: cbc8 38be be0e 82bd 7193 41bb d624 5fbe
000000d0: 0ed0 8c3d 9e66 8c3d 1010 ecb8 74db 1c3e
000000e0: 4bb1 3a3d 5e69 143e 6936 6d3d 1fee e83d
000000f0: 3146 5a3d 26cd a93b 66b4 ca3c 4340 ebbb
00000100: 4190 23bc a8f1 583d 2c38 5fbe 85a7 8e3d
00000110: bb1f 00be e7a4 c83d bae8 8bbd 197d 2abd
00000120: 38ad 543d 0333 19bd 9eb6 c6bd 0f88 69be
00000130: 0f6b cabc be8e 2fbd bfa7 cb3d b578 8e3d
00000140: 7a3f 0ebe 2955 7d3a cfc6 9f3d 5fa6 9f38
00000150: a428 85bd 9ded d3bc 583a c33b ea5a 12bd
00000160: fa20 2b3d ab9c a93d 5544 cf3c 3969 683d
00000170: 42ef 973d 0314 2dbd 1f6d 83bd dd13 51bd
00000180: dfab a0bc 3bdb 08bd 8a28 623b a28c a43b
00000190: 7789 803d 837d 833d a3a8 5bba ac5a c5be
000001a0: 32a2 4dbd c570 53bd b1f8 833d f1bf f13d
000001b0: b28b 293e 17c0 a73d 25b5 9ab9 cf6c 1fbe
000001c0: 5ab2 90bd 7908 b63c 686f 13bc f79f 9bbc
000001d0: af2d c33d 25b1 8e39 b294 c23c 94b5 ddbb
000001e0: f973 713c 4488 423d ebee c1bd 7ee9 57b9
000001f0: 4e76 a4bd 1d07 b23d ad67 733d 59b4 fabc
00000200: 93a2 a53d 375d e1bd b099 3abd 1df9 db3b
00000210: ade5 24bc b052 22be 2dc7 043d 3b7c 023d
00000220: 3435 f13c 264b 9b3c c00d b1bd 5ce5 613d
00000230: e69d 223d 2b4f 96bd a1c4 4d3d 423a 5dbc
00000240: f8c5 53bd 6448 453d f661 17bd 6ab2 4e3e
00000250: 4e4a 9f3e 92e5 e53d 3151 f0bd 8521 843a
00000260: f1f8 343d cc7b 7cbd cb3d 9e3d 5530 af3e
00000270: 6570 2d3c c497 36bd 72b0 3fbd 97d9 32bd
00000280: 26e1 c0bc 1451 683d 06fd b8bc e968 32bc
00000290: 2556 db3d f138 243d 9ad8 653d 550c cbbb
000002a0: 5c41 223c 9d3b b43c 9e9f 53be ec3f 853d
000002b0: 7a85 1d3d 3687 f43b b1c7 d23c e60e 59bd
000002c0: fa3d 503c f9b0 9c3d 4362 6f3b ca9d bcbc
000002d0: 8463 6a3d 6e9f 423d 705a 4dbc ef4f 38bc
000002e0: b1c1 fbbd 7b97 2a3e 2b73 2f3d 1e52 483c
000002f0: fb0e 06bf fff0 98bd 5200 0ebd 8364 933d
00000300: dd3b 683c 3659 823b 7c32 debe 19e9 923d
00000310: 6e38 dd3c 8e76 623c 53db 163d b38a 5a3d
00000320: c471 6fbd 0e38 8a3d 768f 85bb 86e5 c33d
00000330: 943f eabd daca 943d 0e21 e93d f5b7 3f3e
00000340: a793 ad3d 42ab f23d d189 aeba c197 2e3e
00000350: 498e 03bd d49b dbbd 6b0b 9fbe c6b0 363d
00000360: ff41 bcbd 9bb7 663e 5b9a 59be ba40 9b3d
00000370: 1c3e 4cbe ae05 763e ea89 693d e041 b5bc
00000380: 7886 813c 5ba9 c8bc ba27 a73d fedc b13c
00000390: d4b3 063e bd5b a73d cd7b 7b3d bb32 1e3c
000003a0: e4f8 81be 1d9c 0dbe 7f5e 41be de3b 593c
000003b0: 1dee cabd 7609 bb39 e773 85bd 2087 223d
000003c0: 6113 f6bd d45b 87bc 9bbc 1ebd ca6a 13be
000003d0: a1d0 33bd ad71 a53d 2b42 8c3d 3f8f 443d
000003e0: 8ac3 d9bc 1391 1aba 935a 86bd abc5 5bbd
000003f0: bc6d fcbb e25b 923c 72c9 53bb 7c6a f73c

fcnn.2.bias f4 [128]
0.028362084 -0.02137974 0.03418029 -0.008193864 0.056664478 0.055495154 0.058013797 0.10826588
-0.10771817 0.037581038 -0.024462227 -0.010647887 0.010571309 0.024819713 0.019945001 0.078794025
-0.040303223 0.12372276 0.021111023 0.03565857 -0.03950611 0.0006324763 -0.024683228 0.008999811
-0.050386008 -0.013763054 0.0010151505 0.01624944 -0.0335084 0.012360186 -0.04392255 0.066044495
-0.023908067 0.032091323 0.015403041 -0.062484916 0.014140153 -0.0059694634 -0.09613517 -0.04609942
0.010530994 -0.0041294917 -0.021011183 0.031831592 -0.041371174 -0.097049944 0.03247243 0.15253532
-0.032894924 0.042442244 -0.0878827 0.011986951 0.06308927 0.12903592 0.080530696 0.023598485
-0.008474936 0.12062149 -0.019215848 0.042016648 -0.0019666532 -0.031687632 -0.039944954 -0.13620208
0.010581281 0.07474368 -0.07543549 -0.0038422185 0.05126766 -0.034725588 0.081648745 -0.032167237
0.053347103 0.048145905 0.0694083 -0.038144626 0.11567236 0.076812565 0.04166939 -0.03942515
0.102090664 -0.04205795 0.057422 0.12068328 0.019246053 0.024734272 0.047443733 0.10206539
0.03488913 0.04174059 0.05616033 0.039656747 0.052121535 -0.025071373 -0.05342415 0.021996533
0.026266279 0.111091316 -0.0030554996 0.08581326 -0.034201276 0.0040258793 -0.06535491 0.026478527
0.09493753 -0.005188645 0.08622741 -0.010246451 -0.027889084 -0.06290276 0.041156713 0.005427632
0.01988158 -0.09498777 -0.043187745 -0.083602354 0.019340396 -0.058637444 0.04060925 0.0711662
0.052171003 -0.0402105 -0.022841826 0.044658598 0.010068255 -0.014098408 0.07509745 0.11720232
00000000: 9a57 e83c 9124 afbc a200 0c3d 8e3f 06bc
00000010: 0319 683d e34e 633d e09f 6d3d 80ba dd3d
00000020: 589b dcbd 93ee 193d 0265 c8bc 7a74 2ebc
00000030: 4933 2d3c b652 cb3c b363 a33c c35e a13d
00000040: fe14 25bd 5c62 fd3d 06f1 ac3c b80e 123d
00000050: 29d1 21bd c4cc 253a 7b34 cabc f173 133c
00000060: 8f61 4ebd 6f7e 61bc cc0e 853a 8c1d 853c
00000070: 1b40 09bd 6182 4a3c 22e8 33bd 5642 873d
00000080: dada c3bc 3172 033d 095d 7c3c 2ff0 7fbd
00000090: 1aac 673c 7d9b c3bb 84e2 c4bd bfd2 3cbd
000000a0: 318a 2c3c b050 87bb a51f acbc d861 023d
000000b0: d274 29bd 1fc2 c6bd d001 053d 3832 1c3e
000000c0: d4bc 06bd ebd7 2d3d d8fb b3bd eb64 443c
000000d0: f234 813d fe21 043e 47ed a43d 9c51 c13c
000000e0: 75da 0abc 6608 f73d 8e6a 9dbc a619 2c3d
000000f0: f7e2 00bb e4ca 01bd 529d 23bd 8f78 0bbe
00000100: 1c5d 2d3c 3713 993d ec7d 9abd bbcd 7bbb
00000110: 0afe 513d 6b3c 0ebd 7537 a73d cbc1 03bd
00000120: 7e82 5a3d a434 453d f025 8e3d 8a3d 1cbd
00000130: a1e5 ec3d e84f 9d3d 86ad 2a3d 447c 21bd
00000140: e914 d13d f544 2cbd 5533 6b3d cc28 f73d
00000150: e6a9 9d3c 879f ca3c 5c54 423d a907 d13d
00000160: e8e7 0e3d 2ef8 2a3d 6008 663d 1d6f 223d
00000170: 647d 553d 7b62 cdbc 48d3 5abd 1332 b43c
00000180: 612c d73c d883 e33d c73e 48bb ddbe af3d
00000190: a316 0cbd 86eb 833b ccd8 85bd 7fe9 d83c
000001a0: 9c6e c23d 8205 aabb ff97 b03d bbe0 27bc
000001b0: a677 e4bc 2ad3 80bd f193 283d 47da b13b
000001c0: b2de a23c f388 c2bd a2e5 30bd b637 abbd
000001d0: c06f 9e3c d12d 70bd e355 263d 96bf 913d
000001e0: 43b1 553d c4b3 24bd c81e bbbc efeb 363d
000001f0: 52f5 243c 02fd 66bc b1cc 993d c507 f03d

fcnn.4.weight f4 [64, 128]
-0.103766285 -0.036209423 0.14193618 -0.48930138 -0.17075422 -0.042700678 -0.15996651 0.02506701
-0.27903894 0.01773875 -0.25103578 -0.26298678 -0.114042684 -0.08489954 -0.22102311 -0.048418857
-0.3457809 -0.39777136 -0.36112076 0.044330273 -0.31782714 0.009498816 -0.25703046 -0.05680304
-0.26833892 0.030987151 -0.17503239 -0.41073263 -0.11381471 -0.4659729 -0.16591005 0.24531835
-0.09696352 -0.08255078 -0.08728654 -0.27934358 0.035654828 -0.3443144 -0.28191403 -0.068737336
-0.051030856 -0.08409713 -0.16892667 0.19312002 -0.051694535 -0.3061595 0.012638531 0.28393283
0.17970741 -0.3718441 0.3144618 -0.50292224 -0.13037574 -0.18028967 -0.32635346 0.011193771
-0.16232187 0.33851412 -0.24279696 -0.06797388 -0.40129706 -0.39327332 -0.118363135 -0.052615274
-0.15450332 -0.11014473 -0.270025 -0.5963492 -0.16943914 -0.15455332 -0.032501806 -0.16087227
-0.11208767 -0.06250065 -0.08830302 -0.33919096 -0.05114712 -0.054729976 -0.07373204 -0.38136017
-0.20476367 -0.07547735 0.029781237 0.17294547 -0.026624996 -0.10597723 -0.0064181206 -0.0837253
-0.83294225 -0.052989166 0.09799458 0.028309833 -0.086948656 -0.0005168795 0.008383085 -0.012515355
-0.087403014 0.029056821 -0.03682155 -0.02142332 -0.1729708 -0.21151718 -0.31177464 -0.101517744
0.04461969 -0.122201934 -0.12860128 -0.12328308 -0.38585588 -0.14648238 -0.084870756 -0.012340038
0.010952825 -0.2190363 -0.31410632 -0.3404033 -0.13685028 0.013622661 0.003211286 -0.10509124
0.13733968 -0.0044863406 -0.0063324147 -0.0048441975 -0.2727594 -0.6603791 -0.39633965 0.15143022
-0.037688117 0.09942477 -0.009350877 -0.31456774 0.065321505 -0.024146179 0.12883279 0.10278192
-0.20501399 -0.016127814 -0.007649534 -0.14930947 0.103830166 0.019706024 -0.14193928 -0.007867097
-0.22544973 -0.2598542 -0.31681004 -0.011123225 -0.03730985 0.037495367 -0.10188449 0.034317344
-0.24433921 0.057847336 -0.04176492 -0.25157914 0.041685846 -0.23275061 0.09139092 0.44012618
0.0934671 -0.119780675 0.027175656 -0.3037323 0.009741605 -0.1597728 -0.3240822 0.09996269
-0.034761555 -0.027014032 0.025179276 0.30771324 0.036496665 -0.21629317 0.0988429 0.45674866
0.014929621 -0.33688927 0.30400804 -0.44688624 0.0687175 -0.07140259 -0.075568 0.064880446
0.02084822 0.52427024 -0.22926971 0.091947004 -0.19932896 -0.22705565 0.039550662 0.030238008
0.08453118 0.03866839 -0.21623285 -0.26250184 -0.04677517 0.092089824 0.043846413 -0.040775977
0.044926103 -0.04165694 -0.021778371 -0.2988187 0.031199114 0.110345215 0.10942036 -0.24863996
-0.14925316 0.03003049 0.12481062 0.44937363 -0.017054934 0.34033567 0.02723936 0.074914835
-0.32900935 -0.032235675 0.17067975 0.09353783 0.087864 -0.052148223 -0.015319643 0.078500435
-0.0062265843 0.14177032 0.06002128 0.07349276 -0.019992119 -0.074639715 -0.27434897 0.08305355
0.11950858 -0.13519725 0.079711445 0.0703491 -0.23545532 -0.1142197 0.10835325 0.07120414
-0.017660633 -0.25382948 -0.15952569 -0.37488776 0.12827148 0.030087931 0.087211214 -0.09007722
0.3780754 -0.028526234 0.05645069 0.060626145 -0.016814914 -0.3352113 -0.20361035 0.38487464
00000000: 6b83 d4bd 5550 14bd b857 113e b685 fabe
00000010: 32da 2ebe e8e6 2ebd 43ce 23be 5559 cd3c
00000020: 31de 8ebe db50 913c c387 80be 34a6 86be
00000030: 368f e9bd cfdf adbd e253 62be da52 46bd
00000040: 320a b1be b0a8 cbbe d2e4 b8be a993 353d
00000050: 3dba a2be eca0 1b3c 7f99 83be 4eaa 68bd
00000060: b863 89be c4d8 fd3c b13b 33be 8c4b d2be
00000070: b017 e9bd 0094 eebe 53e4 29be bc34 7b3e
00000080: cf94 c6bd 6210 a9bd 49c3 b2bd 1f06 8fbe
00000090: cc0a 123d fa49 b0be 0957 90be 29c6 8cbd
000000a0: bb05 51bd 1e3b acbd 1dfb 2cbe 41c1 453e
000000b0: a6bd 53bd f0c0 9cbe d711 4f3c a55f 913e
000000c0: 3805 383e 5a62 bebe 2301 a13e 83bf 00bf
000000d0: 3881 05be db9d 38be cd17 a7be 1466 373c
000000e0: b437 26be b951 ad3e c49f 78be e435 8bbd
000000f0: cf76 cdbe 1f5b c9be 5f68 f2bd 1d83 57bd
00000100: 1e36 1ebe 8f93 e1bd b840 8abe 57aa 18bf
00000110: 7481 2dbe 3a43 1ebe 9d20 05bd b3bb 24be
00000120: 388e e5bd 5700 80bd 37d8 b4bd 70aa adbe
00000130: a47f 51bd 8a2c 60bd d300 97bd a441 c3be
00000140: 91ad 51be de93 9abd c8f7 f33c 9e18 313e
00000150: aa1c dabc 970a d9bd 194f d2bb 2c78 abbd
00000160: b43b 55bf 2b0b 59bd 62b1 c83d 06ea e73c
00000170: 2312 b2bd 327f 07ba 3559 093c 340d 4dbc
00000180: 5a00 b3bd 9208 ee3c 32d2 16bd f57f afbc
00000190: 421f 31be f697 58be eda0 9fbe 89e8 cfbd
000001a0: 23c3 363d 0245 fabd 0eb0 03be d77b fcbd
000001b0: e78e c5be 7aff 15be b8d0 adbd df2d 4abc
000001c0: 7a73 333c 0d4b 60be 8bd2 a0be 5749 aebe
000001d0: 7b22 0cbe 9531 5f3c 7074 523b 133a d7bd
000001e0: c6a2 0c3e 2702 93bb 2580 cfbb 13bc 9ebb
000001f0: 1fa7 8bbe 9b0e 29bf 08ed cabe 8610 1b3e
00000200: db5e 1abd 379f cb3d 6c34 19bc 060f a1be
00000210: 48c7 853d 35ce c5bc beec 033e 547f d23d
00000220: 30ef 51be 7a1e 84bc f1a8 fabb 95e4 18be
00000230: e9a4 d43d 876e a13c 8858 11be ffe4 00bc
00000240: 4bdc 66be 9c0b 85be ed34 a2be 303e 36bc
00000250: 37d2 18bd be94 193d d1a8 d0bd 5890 0c3d
00000260: 0f34 7abe 54f1 6c3d b111 2bbd fbce 80be
00000270: c7be 2a3d 2d56 6ebe 2a2b bb3d 3858 e13e
00000280: ae6b bf3d 924f f5bd 7b9f de3c cd82 9bbe
00000290: 419b 1f3c 7b9b 23be 1aee a5be 3db9 cc3d
000002a0: 2262 0ebd 884c ddbc c544 ce3c 978c 9d3e
000002b0: 877d 153d f57b 5dbe 256e ca3d f6da e93e
000002c0: 5e9b 743c c07c acbe f1a6 9b3e 46ce e4be
000002d0: c3bb 8c3d 853b 92bd 65c3 9abd 0ae0 843d
000002e0: e3c9 aa3c 9336 063f aec5 6abe b64e bc3d
000002f0: e41c 4cbe 4781 68be e0ff 213d b3b5 f73c
00000300: af1e ad3d bf62 1e3d 256c 5dbe a466 86be
00000310: 5297 3fbd 9799 bc3d 4c98 333d b604 27bd
00000320: 6f04 383d 78a0 2abd 8e68 b2bc c4fe 98be
00000330: 4995 ff3c acfc e13d c817 e03d 799b 7ebe
00000340: d2d5 18be 8102 f63c b69c ff3d 4d14 e63e
00000350: cab6 8bbc 7a40 ae3e 1425 df3c f36c 993d
00000360: ea73 a8be 8e09 04bd acc6 2e3e c390 bf3d
00000370: 0af2 b33d 6099 55bd 3dff 7abc d6c4 a03d
00000380: 6008 ccbb 3d2c 113e e0d8 753d 5f83 963d
00000390: 83c6 a3bc b5dc 98bd 7877 8cbe fb17 aa3d
000003a0: eac0 f43d 2671 0abe c13f a33d 3013 903d
000003b0: 331b 71be 05ec e9bd 4fe8 dd3d 7ad3 913d
000003c0: 08ad 90bc f0f5 81be b45a 23be 4af1 bfbe
000003d0: 9959 033e f77a f63c cb9b b23d 687a b8bd
000003e0: 1993 c13e d9af e9bc d738 673d 1f53 783d
000003f0: 6ebf 89bc d1a0 abbe 3b7f 50be 4a0e c53e

fcnn.4.bias f4 [64]
-0.15452333 0.12149997 -0.12280994 0.055312905 -0.11711264 0.015590018 0.17414795 -0.019716086
-0.09436248 0.08382237 -0.048233762 -0.054778002 -0.16068535 -0.07697693 0.014229765 0.12104105
-0.110079356 0.09940885 -0.0567925 0.0309561 -0.067981206 -0.074935265 0.0373347 -0.027066786
0.027149215 -0.115747295 0.10175226 -0.025807492 -0.09893544 -0.12460447 -0.014199428 -0.1329063
0.08349709 0.026862143 0.02760314 -0.012109122 0.12298636 -0.0061376574 -0.028483229 0.08532822
-0.04651779 -0.014325252 -0.013231702 0.12735276 0.042542428 -0.12203012 -0.053564396 -0.05835221
-0.040867627 -0.11846811 0.061571784 -0.07387144 0.017611671 0.074356414 -0.017573262 0.030483743
0.12071016 -0.0132558085 0.0013542132 -0.0026314817 -0.090540394 0.06574563 0.012693761 -0.10069954
00000000: 5d3b 1ebe fad4 f83d c783 fbbd c98f 623d
00000010: c0d8 efbd 466d 7f3c d753 323e a183 a1bc
00000020: 1e41 c1bd 10ab ab3d c490 45bd e65e 60bd
00000030: b38a 24be 15a6 9dbd f623 693c 5fe4 f73d
00000040: 4971 e1bd de96 cb3d 419f 68bd a697 fd3c
00000050: bb39 8bbd a977 99bd 45ec 183d 2abb ddbc
00000060: 0868 de3c eb0c edbd 7d63 d03d 3c6a d3bc
00000070: aa9e cabd a130 ffbd b8a4 68bc 9718 08be
00000080: 8600 ab3d ff0d dc3c fb1f e23c 5765 46bc
00000090: 46e0 fb3d 671e c9bb a955 e9bc 90c0 ae3d
000000a0: 7089 3ebd 76b4 6abc c8c9 58bc c368 023e
000000b0: f840 2e3d edea f9bd 5766 5bbd ba02 6fbd
000000c0: d064 27bd 699f f2bd b232 7c3d e949 97bd
000000d0: 5a46 903c 2d48 983d cdf5 8fbc 0bb9 f93c
000000e0: e336 f73d e42e 59bc db7f b13a f074 2cbb
000000f0: 3e6d b9bd a5a5 863d 7ef9 4f3c 8f3b cebd

fcnn.6.weight f4 [1, 64]
-0.3220255 -0.26004463 -0.30115846 0.24215275 -0.30634925 0.35835195 -0.58220124 -0.2525741
-0.2512009 0.24988331 -0.29869282 0.31874436 -0.22522001 -0.29656455 0.37529325 -0.2996131
0.41591352 0.2233094 0.54415464 -0.25477952 0.49833935 -0.27017483 -0.5044897 -0.2790153
0.27132913 0.5352887 0.3193962 -0.27389002 -0.24695674 -0.21502043 -0.11915804 -0.30962697
-0.32662842 -0.24836603 0.29952496 -0.34358597 0.24187325 0.5533597 0.38098627 0.24562906
-0.13091545 0.4916135 -0.20764656 -0.2307256 0.25782478 -0.23569325 0.44849092 -0.29070035
0.27262735 -0.24909757 0.29862413 -0.3007943 -0.2600685 -0.284905 -0.24944785 0.40786213
-0.35591784 0.34502348 0.26351318 -0.28874347 -0.3284973 0.237288 -0.235628 -0.3244541
00000000: 87e0 a4be 9224 85be 7131 9abe e4f6 773e
00000010: cfd9 9cbe e879 b73e 240b 15bf 6451 81be
00000020: 689d 80be 69e1 7f3e 44ee 98be 7632 a33e
00000030: 13a0 66be 4fd7 97be 7026 c03e e366 99be
00000040: 9ef2 d43e 38ab 643e b84d 0b3f 7672 82be
00000050: 5626 ff3e 5b54 8abe 3d26 01bf 18db 8ebe
00000060: a7eb 8a3e ae08 093f e687 a33e 503b 8cbe
00000070: 3ae2 7cbe 512e 5cbe 2109 f4bd 6d87 9ebe
00000080: d73b a7be aa53 7ebe 565b 993e 80ea afbe
00000090: 9fad 773e fba8 0d3f a210 c33e 2f86 7b3e
000000a0: b30e 06be c4b4 fb3e 4da1 54be 5543 6cbe
000000b0: 9c01 843e 9259 71be 9aa0 e53e add6 94be
000000c0: d095 8b3e 6f13 7fbe 43e5 983e b601 9abe
000000d0: b327 85be 11df 91be 426f 7fbe 4ed3 d03e
000000e0: dd3a b6be eba6 b03e 33eb 863e 2fd6 93be
000000f0: cc30 a8be a0fb 723e 7748 71be d91e a6be

exp_avg f4 [27, 27, 3]
0.0 -8.056202 0.0 0.20434356 -0.40519026 -2.0530293 1.3725952 4.840485
0.0 0.0 -4.15953 -0.08727431 -0.14104106 -0.37676305 0.0 0.0
0.0 0.0 -1.4435499 0.014026467 0.0 0.0 0.00020845007 0.0
-2.0204535 0.0 1.6610765 -0.7224619 6e-45 0.0 0.0 -3.8834005e-13
0.0 0.0 0.010811799 0.46564105 0.0 0.0 0.0 0.0
-0.23229742 0.0 6e-45 -0.27727544 0.0 -8.056201 -6.14217e-05 -10.704338
0.0 -0.49756244 0.0 -0.030115264 0.0 0.0 0.0 -5.4128697e-05
0.0 -1.2004871 8.941178e-28 0.0 -5.890639 -5.608119 0.02612258 0.0
-5.448624 6.1737556 0.0 0.40285298 0.0 0.0029984135 0.019651547 0.0
-1.8486242 0.0 -1.2004871 -183.26566 -309.2532 15.031956 -8.510266 -34.873627
-5.8679657 0.0 6e-45 0.0 16.963594 4.266656 4.075617 3.4138508
-0.52572674 6e-45 6e-45 43.04349 -0.2945224 0.0 0.0 0.0
0.0 0.0 0.0 0.0 -2.5299501 0.0 6e-45 -0.4490508
0.0 0.00050498557 0.0 -5.8745627 6e-45 7.156512e-30 0.0 -6e-45
-7.944024e-12 0.0 6e-45 6e-45 -0.9006744 0.0 0.0 0.0
-6e-45 0.27583313 0.0 0.007642071 0.0 0.0 6e-45 -0.40179
-1.451643 6e-45 0.010266243 0.0 23.227116 7.1069426e-33 0.0 0.0
-0.0029819657 0.0 8.05755 8.093422 0.049986966 4.6578918 14.579488 11.492706
6e-45 1.9558376 0.9748349 6e-45 -0.37022692 0.0 7.1069426e-33 4.376482
0.0 15.993618 0.0 8.057549 65.69757 55.59521 196.68219 36.945465
34.153946 8.551682 0.0 -6e-45 0.0 0.0 -3.955957 -6.8993335
-4.0617275 -1.742298 0.0 6e-45 -5.5593624 -0.752273 0.0 6e-45
0.0 0.0 6e-45 0.0 0.0 -2.2986283 0.0 0.0
6e-45 0.0 -6e-45 0.0 -5.115714 0.0 -6.313015 0.0
6e-45 0.0 0.0 -6e-45 0.0005640775 25.401918 0.0 -0.00085151475
0.0 0.0 6e-45 0.0 0.0 -0.45345974 0.0 -6e-45
0.025065592 -68.953224 0.0 0.0 0.0 6e-45 0.0 0.0
0.0 -0.05768481 0.0 -24.590021 -4.7068853 0.0252031 -54.85445 -52.967007
-0.020887576 -6e-45 -8.426336 -2.601865 0.0 0.0 0.0 6e-45
2.9496436 0.0 6e-45 0.0 -24.590021 -775.2521 -1042.4021 -284.0443
-15.842293 -47.512295 -84.94692 3.8743342e-11 0.0 0.0 0.0 -2.0816634
-0.29348204 -1.2391107 0.8891849 0.27857786 -2.0809257 -14.373374 -2.6307342 0.0
00000000: 0000 0000 34e6 00c1 0000 0000 703f 513e
00000010: 1975 cfbe d564 03c0 33b1 af3f 41e5 9a40
00000020: 0000 0000 0000 0000 df1a 85c0 e0bc b2bd
00000030: 116d 10be 16e7 c0be 0000 0000 0000 0000
00000040: 0000 0000 0000 0000 3ec6 b8bf 44cf 653c
00000050: 0000 0000 0000 0000 6493 5a39 0000 0000
00000060: 1c4f 01c0 0000 0000 289e d43f 43f3 38bf
00000070: 0400 0000 0000 0000 0000 0000 b39d daaa
00000080: 0000 0000 0000 0000 f923 313c 8168 ee3e
00000090: 0000 0000 0000 0000 0000 0000 0000 0000
000000a0: 60df 6dbe 0000 0000 0400 0000 0cf7 8dbe
000000b0: 0000 0000 33e6 00c1 86cf 80b8 f844 2bc1
000000c0: 0000 0000 81c0 febe 0000 0000 49b4 f6bc
000000d0: 0000 0000 0000 0000 0000 0000 3f08 63b8
000000e0: 0000 0000 90a9 99bf baad 8d12 0000 0000
000000f0: 1d80 bcc0 b675 b3c0 05ff d53c 0000 0000
00000100: 215b aec0 688f c540 0000 0000 bf42 ce3e
00000110: 0000 0000 0881 443b 48fc a03c 0000 0000
00000120: b89f ecbf 0000 0000 90a9 99bf 0244 37c3
00000130: 69a0 9ac3 e482 7041 0d2a 08c1 987e 0bc2
00000140: 60c6 bbc0 0000 0000 0400 0000 0000 0000
00000150: 71b5 8741 7288 8840 746b 8240 887c 5a40
00000160: 0796 06bf 0400 0000 0400 0000 892c 2c42
00000170: a4cb 96be 0000 0000 0000 0000 0000 0000
00000180: 0000 0000 0000 0000 0000 0000 0000 0000
00000190: b4ea 21c0 0000 0000 0400 0000 fde9 e5be
000001a0: 0000 0000 0261 043a 0000 0000 6bfc bbc0
000001b0: 0400 0000 bc26 110f 0000 0000 0400 0080
000001c0: b4c0 0bad 0000 0000 0400 0000 0400 0000
000001d0: 9992 66bf 0000 0000 0000 0000 0000 0000
000001e0: 0400 0080 003a 8d3e 0000 0000 576a fa3b
000001f0: 0000 0000 0000 0000 0400 0000 6bb7 cdbe
00000200: 70cf b9bf 0400 0000 be33 283c 0000 0000
00000210: 22d1 b941 fd9a 130a 0000 0000 0000 0000
00000220: 156d 43bb 0000 0000 baeb 0041 a87e 0141
00000230: 22bf 4c3d 730d 9540 9545 6941 20e2 3741
00000240: 0400 0000 e358 fa3f c88e 793f 0400 0000
00000250: 628e bdbe 0000 0000 fd9a 130a 240c 8c40
00000260: 0000 0000 dce5 7f41 0000 0000 b9eb 0041
00000270: 2865 8342 7f61 5e42 a4ae 4443 28c8 1342
00000280: a49d 0842 b1d3 0841 0000 0000 0400 0080
00000290: 0000 0000 0000 0000 662e 7dc0 57c7 dcc0
000002a0: acf9 81c0 9f03 dfbf 0000 0000 0400 0000
000002b0: 4ce6 b1c0 f794 40bf 0000 0000 0400 0000
000002c0: 0000 0000 0000 0000 0400 0000 0000 0000
000002d0: 0000 0000 ba1c 13c0 0000 0000 0000 0000
000002e0: 0400 0000 0000 0000 0400 0080 0000 0000
000002f0: eeb3 a3c0 0000 0000 3804 cac0 0000 0000
00000300: 0400 0000 0000 0000 0000 0000 0400 0080
00000310: 9ade 133a 2137 cb41 0000 0000 3038 5fba
00000320: 0000 0000 0000 0000 0400 0000 0000 0000
00000330: 0000 0000 e02b e8be 0000 0000 0400 0080
00000340: 5b56 cd3c 0de8 89c2 0000 0000 0000 0000
00000350: 0000 0000 0400 0000 0000 0000 0000 0000
00000360: 0000 0000 e846 6cbd 0000 0000 5db8 c4c1
00000370: ce9e 96c0 bb76 ce3c f56a 5bc2 37de 53c2
00000380: 6c1c abbc 0400 0080 46d2 06c1 f584 26c0
00000390: 0000 0000 0000 0000 0000 0000 0400 0000
000003a0: f6c6 3c40 0000 0000 0400 0000 0000 0000
000003b0: 5db8 c4c1 22d0 41c4 de4c 82c4 ac05 8ec3
000003c0: 087a 7dc1 970c 3ec2 d3e4 a9c2 2065 2a2e
000003d0: 0000 0000 0000 0000 0000 0000 f939 05c0
000003e0: 4743 96be 2e9b 9ebf 9fa1 633f c2a1 8e3e
000003f0: e32d 05c0 57f9 65c1 f35d 28c0 0000 0000

exp_avg_sq f4 [27, 27, 3]
0.0 4538.8193 0.0 56.82725 34.51705 57.70582 433.1357 103.28434
0.0 0.0 1072.2562 1.1405864 0.49511003 9.603365 0.0 0.0
0.0 0.0 20.79362 0.1139909 0.0 0.0 0.0044668163 0.0
420.20737 0.0 5637.575 11.527165 6.901297e-05 0.0 0.0 3.2524958e-21
0.0 0.0 0.021197982 41.604603 0.0 0.0 0.0 0.0
0.65959066 0.0 2.6270257e-07 1.1303259 0.0 4538.8193 0.004653034 2337.6797
0.0 33.126717 0.0 0.10631821 0.0 0.0 0.0 0.00023798354
0.0 285.4867 0.0006333558 0.0 12110.715 3767.7966 0.0072302297 0.0
7132.16 2343.3848 0.0 18.567448 0.0 1.6402705 0.1352578 0.0
60.00189 0.0 285.4867 1.1055361e+06 4.2128535e+06 341589.25 1794.4325 240122.58
15614.948 0.0 0.009296261 0.0 1745.7861 1178.5012 729.7465 6830.38
7181.3076 0.0027609598 120.84952 21145.906 31.73253 0.0 0.0 0.0
0.0 0.0 0.0 0.0 519.4845 0.0 0.0019986967 5.6790338
0.0 2446.7896 0.0 7722.0664 2.8537815 38.80089 0.0 1.4979825e-06
4.815242e-05 0.0 0.17167984 6.7977317e-06 17.39912 0.0 0.0 0.0
3.6177503e-06 0.15721421 0.0 0.004991486 0.0 0.0 0.009296262 67.93675
148.84604 8.148276e-05 0.005187641 0.0 50816.004 164.64725 0.0 0.0
0.0019156293 0.0 1149.213 1104.0364 5.8795657 9914.6045 52955.582 977.60175
279.1067 9113.137 6062.6934 24.086994 34.8428 0.0 161.26694 3501.8591
0.0 27457.65 0.0 1149.213 106514.414 361164.34 3.269959e+06 148567.25
235244.5 18105.42 0.0 0.024782121 0.0 0.0 686.8281 3117.2698
8901.808 3635.1738 0.0 7.061953e-08 6978.6074 8.5925665 0.0 0.037560377
0.0 0.0 2.0882184e-05 0.0 0.0 385.98495 0.0 0.0
2.3685145e-09 0.0 7.125055e-06 0.0 70366.25 0.0 2690.0784 0.0
1.4094476e-05 0.0 0.0 8.513386e-11 0.0079295905 10493.249 0.0 6.3267144e-06
0.0 0.0 1.3099586e-07 0.0 0.0 2902.5435 0.0 0.024782121
0.073930524 205445.39 0.0 0.0 0.0 0.024302384 0.0 0.0
0.0 18.232037 0.0 11955.999 4572.476 0.019797847 466771.8 373679.06
460.4736 8.2024006e-11 59761.95 46326.297 0.0 0.0 0.0 9.578976e-05
1070.5159 0.0 3.1630753e-07 0.0 11955.999 1.6078344e+07 3.9113588e+07 2.4857256e+07
29795.674 172363.84 606062.5 0.0037407717 0.0 0.0 0.0 11.906001
12.97534 536.35944 62.032143 2.8768895 14.76838 9961.623 692.7373 0.0
00000000: 0000 0000 8ed6 8d45 0000 0000 1b4f 6342
00000010: 7611 0a42 c2d2 6642 5f91 d843 9591 ce42
00000020: 0000 0000 0000 0000 3308 8644 bcfe 913f
00000030: 107f fd3e 62a7 1941 0000 0000 0000 0000
00000040: 0000 0000 0000 0000 5559 a641 1074 e93d
00000050: 0000 0000 0000 0000 5f5e 923b 0000 0000
00000060: 8b1a d243 0000 0000 9a2c b045 456f 3841
00000070: 0ebb 9038 0000 0000 0000 0000 6bc0 751d
00000080: 0000 0000 0000 0000 64a7 ad3c 1d6b 2642
00000090: 0000 0000 0000 0000 0000 0000 0000 0000
000000a0: efda 283f 0000 0000 9109 8d34 85ae 903f
000000b0: 0000 0000 8ed6 8d45 7a78 983b e01a 1245
000000c0: 0000 0000 c281 0442 0000 0000 5dbd d93d
000000d0: 0000 0000 0000 0000 0000 0000 388b 7939
000000e0: 0000 0000 4cbe 8e43 ca07 263a 0000 0000
000000f0: dc3a 3d46 bf7c 6b45 90eb ec3b 0000 0000
00000100: 48e1 de45 2876 1245 0000 0000 228a 9441
00000110: 0000 0000 62f4 d13f 0581 0a3e 0000 0000
00000120: ef01 7042 0000 0000 4cbe 8e43 01f4 8649
00000130: eb90 804a a8ca a648 d74d e044 a57e 6a48
00000140: cbfb 7346 0000 0000 584f 183c 0000 0000
00000150: 2839 da44 0a50 9344 c76f 3644 0a73 d545
00000160: 766a e045 38f1 343b f4b2 f142 d033 a546
00000170: 39dc fd41 0000 0000 0000 0000 0000 0000
00000180: 0000 0000 0000 0000 0000 0000 0000 0000
00000190: 02df 0144 0000 0000 91fc 023b a5ba b540
000001a0: 0000 0000 a2ec 1845 0000 0000 8850 f145
000001b0: 5ba4 3640 1d34 1b42 0000 0000 490e c935
000001c0: 44f7 4938 0000 0000 d7cc 2f3e 1218 e436
000001d0: 6631 8b41 0000 0000 0000 0000 0000 0000
000001e0: 7ac8 7236 c3fc 203e 0000 0000 9f8f a33b
000001f0: 0000 0000 0000 0000 594f 183c 9edf 8742
00000200: 96d8 1443 b9e1 aa38 16fd a93b 0000 0000
00000210: 0180 4647 b2a5 2443 0000 0000 0000 0000
00000220: da15 fb3a 0000 0000 d1a6 8f44 2a01 8a44
00000230: 6725 bc40 6bea 1a46 95db 4e47 8366 7444
00000240: a88d 8b43 8c64 0e46 8c75 bd45 2ab2 c041
00000250: 075f 0b42 0000 0000 5644 2143 bfdd 5a45
00000260: 0000 0000 4d83 d646 0000 0000 d1a6 8f44
00000270: 3509 d047 8b59 b048 1c95 474a d015 1148
00000280: 20bb 6548 d772 8d46 0000 0000 e003 cb3c
00000290: 0000 0000 0000 0000 00b5 2b44 51d4 4245
000002a0: 3b17 0b46 c832 6345 0000 0000 7fa7 9733
000002b0: dc14 da45 277b 0941 0000 0000 e9d8 193d
000002c0: 0000 0000 0000 0000 262c af37 0000 0000
000002d0: 0000 0000 13fe c043 0000 0000 0000 0000
000002e0: 59c3 2231 0000 0000 c213 ef36 0000 0000
000002f0: 206f 8947 0000 0000 4121 2845 0000 0000
00000300: 5077 6c37 0000 0000 0000 0000 1a36 bb2e
00000310: 1deb 013c fff4 2346 0000 0000 104a d436
00000320: 0000 0000 0000 0000 dea7 0c34 0000 0000
00000330: 0000 0000 b268 3545 0000 0000 e003 cb3c
00000340: e368 973d 59a1 4848 0000 0000 0000 0000
00000350: 0000 0000 cb15 c73c 0000 0000 0000 0000
00000360: 0000 0000 36db 9141 0000 0000 ffcf 3a46
00000370: cfe3 8e45 182f a23c 7aea e348 e275 b648
00000380: 9f3c e643 695f b42e f371 6947 4cf6 3447
00000390: 0000 0000 0000 0000 0000 0000 bce2 c838
000003a0: 82d0 8544 0000 0000 fad0 a934 0000 0000
000003b0: ffcf 3a46 0856 754b dd34 154c 54a5 bd4b
000003c0: 59c7 e846 f652 2848 e8f6 1349 bc27 753b
000003d0: 0000 0000 0000 0000 0000 0000 fb7e 3e41
000003e0: fe9a 4f41 0117 0644 ea20 7842 f51e 3840
000003f0: 494b 6c41 7ea6 1b46 302f 2d44 0000 0000

exp_avg f4 [27]
-19.773636 183.9164 -85.69768 -37.33127 42.24765 -42.710663 -51.33278 -71.49716
-41.47956 -24.021996 25.854229 68.743835 53.145985 74.637634 -50.289696 9.753796
120.12842 -27.012815 -23.957867 -19.663612 15.1273575 -61.388992 44.422585 23.318602
0.5195342 64.715096 -30.055813
00000000: 6830 9ec1 99ea 3743 3665 abc2 3853 15c2
00000010: 98fd 2842 b8d7 2ac2 c454 4dc2 8cfe 8ec2
00000020: 12eb 25c2 0c2d c0c1 76d5 ce41 d87c 8942
00000030: 7d95 5442 7846 9542 a628 49c2 8c0f 1c41
00000040: c041 f042 3f1a d8c1 b6a9 bfc1 144f 9dc1
00000050: a809 7241 548e 75c2 bab0 3142 7f8c ba41
00000060: 3100 053f 216e 8142 4e72 f0c1

exp_avg_sq f4 [27]
24725.709 1.7476096e+06 614036.4 63030.36 171398.6 307580.06 164286.27 359991.72
66200.195 48854.793 16980.445 423813.06 185731.4 377163.22 190313.39 26319.15
836861.94 45389.61 5591.723 54996.543 5616.3833 305925.1 125965.83 124126.42
9515.239 261009.3 67577.25
00000000: 6b2b c146 cd54 d549 46e9 1549 5c36 7647
00000010: a661 2748 822f 9648 916f 2048 f7c6 af48
00000020: 194c 8147 cbd6 3e47 e4a8 8446 a2f0 ce48
00000030: da60 3548 6729 b848 59da 3948 4d9e cd46
00000040: df4f 4c49 9c4d 3147 c9bd ae45 8bd4 5647
00000050: 1183 af45 a360 9548 ea06 f647 366f f247
00000060: f5ac 1446 53e4 7e48 a0fc 8347
