experiments/justification/models/[all] NoBTCNN_MediumFCNN_1.pth (torch, 591778 bytes, 21 tensors)

fcnn.0.weight f4 [256, 27]
-0.08057114 -0.066190384 -0.11942287 -0.18607824 -0.18761875 0.0997683 -0.00057052885 0.030241791
-0.06924998 -0.20355853 -0.10551492 0.095568866 0.1275755 -0.15208966 -0.06632323 -0.18420495
0.017577391 0.043450713 0.17979111 -0.025140787 -0.080034696 -0.03339941 0.17174098 0.030811628
0.014165669 -0.0034888026 -0.0780926 0.043033753 0.1428401 0.08704883 -0.05453741 -0.017814899
0.14714292 -0.08364495 -0.11168946 -0.16384734 0.099120416 -0.09722981 -0.1720027 0.11383507
-0.15520549 -0.16695203 0.008256857 -0.18681088 0.066610746 -0.08101716 -0.056189902 -0.06512715
-0.055086434 0.11637057 0.13920356 -0.045761928 0.08919624 -0.18269472 -0.07914287 0.15080819
0.04831095 -0.042988032 0.16047049 0.08557949 -0.13478495 -0.08789169 0.15956673 -0.11749313
-0.09150795 -0.108669095 0.1391495 0.1213133 0.12070002 -0.15791894 0.038449146 0.14020339
-0.19067158 -0.18043089 -0.029065259 0.03755285 -0.18899295 -0.17181382 -0.03482512 0.12173083
-0.17354958 -0.19039953 -0.10893793 -0.13007155 -0.06642465 0.15824792 -0.108906835 0.093143694
0.104136474 -0.12991057 -0.017447561 0.17362925 -0.038017537 -0.041475732 0.0029589585 0.017628893
-0.005258254 -0.07141684 -0.07270463 0.11132445 0.03869436 0.11335632 -0.06545119 -0.073529966
-0.061491564 -0.038325947 0.087361544 0.080469355 -0.03450413 0.09689484 0.011624865 0.14588201
-0.08505289 0.17636675 -0.08109569 0.09376691 0.16647689 -0.094736606 -0.09869814 0.12687516
0.13892654 0.049174 0.11733667 0.14852326 -0.06555404 -0.09716939 0.001955503 -0.0775206
-0.042021368 -0.0065636546 0.13773052 -0.073509775 -0.059736304 0.15886144 0.100104876 0.04667219
0.07535835 0.045949075 0.04129651 0.040179294 0.01060275 -0.054015465 0.011931165 0.0057529965
0.0504901 -0.061653677 -0.0315494 0.098818935 0.11253606 0.14939637 0.13051245 -0.17355926
0.14745444 -0.039283354 -0.08042056 0.15037394 -0.08493339 0.11550099 0.065853566 -0.072477214
0.00012426596 0.045744903 -0.017005892 0.056492724 0.12531348 -0.00933439 0.06894127 -0.025101664
0.09484823 0.12864004 0.15864441 -0.027895916 -0.053709872 0.003217204 0.18441524 0.030668061
0.10757772 0.035930976 0.20674373 0.033327207 -0.10583657 0.098872036 0.0046914634 0.0413113
0.11826652 0.21320738 -0.07862501 0.0063793072 -0.16975494 -0.16442378 0.044493355 -0.14570564
0.17737655 0.084005736 -0.046185263 -0.0015290858 -0.023048349 0.0049373307 0.1555107 0.19210917
0.16552664 0.03188749 0.047575574 0.18053107 0.14376146 -0.09510145 -0.1249051 0.11805204
0.035022203 -0.03948718 -0.1283497 -0.021503497 0.1251367 0.17275251 -0.18828043 0.061594553
-0.14942068 0.13569134 0.16335894 0.042477965 -0.14115252 -0.1701601 -0.13526705 0.01729441
0.18475117 0.15931551 0.1661915 0.104887396 0.12898536 0.047182836 0.047021747 0.13466449
0.14669752 -0.09082423 -0.073970415 -0.0012428078 -0.14954352 0.050941464 0.06223643 -0.021291284
0.14896527 -0.19271035 -0.07842594 -0.060704682 0.0077054817 -0.0803317 0.09976553 0.06479129
-0.17081814 -0.14293976 -0.07450974 -0.12318629 -0.112806715 -0.030740926 0.07821798 0.17533319
00000000: 7b02 a5bd d38e 87bd fa93 f4bd 4b8b 3ebe
00000010: 211f 40be 5353 cc3d 8b8f 15ba a2bd f73c
00000020: efd2 8dbd a671 50be 3518 d8bd 9cb9 c33d
00000030: 27a3 023e 64bd 1bbe 79d4 87bd 39a0 3cbe
00000040: 76fe 8f3c 60f9 313d 291b 383e 0df4 cdbc
00000050: 3be9 a3bd d2cd 08bd dedc 2f3e ab68 fc3c
00000060: 1f17 683c 65a4 64bb 03ef 9fbd 2944 303d
00000070: ad44 123e a846 b23d 9f62 5fbd 8df0 91bc
00000080: a2ac 163e 0b4e abbd 72bd e4bd 99c7 27be
00000090: a5ff ca3d 6c20 c7bd 7a21 30be 5c22 e93d
000000a0: 30ee 1ebe 79f5 2abe c547 073c 5a4b 3fbe
000000b0: 376b 883d 53ec a5bd 6227 66bd 6261 85bd
000000c0: 50a2 61bd b253 ee3d 618b 0e3e dc70 3bbd
000000d0: 85ac b63d 5314 3bbe a815 a2bd 766d 1a3e
000000e0: b4e1 453d 3814 30bd 6052 243e 4d44 af3d
000000f0: 1105 0abe 8f00 b4bd 7665 233e 3da0 f0bd
00000100: 8568 bbbd e78d debd 357d 0e3e 1c73 f83d
00000110: 9231 f73d 81b5 21be da7c 1d3d 7a91 0f3e
00000120: 693f 43be e0c2 38be 441a eebc 04d1 193d
00000130: 5e87 41be f6ef 2fbe c9a4 0ebd 034e f93d
00000140: fbb6 31be 18f8 42be d91a dfbd 7a31 05be
00000150: a609 88bd be0b 223e 8c0a dfbd 1fc2 be3d
00000160: 8145 d53d 4707 05be 30ee 8ebc decb 313e
00000170: 47b8 1bbd 75e2 29bd 16eb 413b 786a 903c
00000180: 6e4d acbb fe42 92bd 2ae6 94bd 13fe e33d
00000190: fa7d 1e3d 5c27 e83d 460b 86bd e196 96bd
000001a0: 94de 7bbd abfb 1cbd 9cea b23d 1ecd a43d
000001b0: 3454 0dbd cd70 c63d 3876 3e3c 1862 153e
000001c0: 3630 aebd 7c99 343e 7f15 a6bd de08 c03d
000001d0: eb78 2a3e 4405 c2bd 4022 cabd 90eb 013e
000001e0: c242 0e3e ad6a 493d 354e f03d 7b16 183e
000001f0: 3241 86bd bf00 c7bd e527 003b 1fc3 9ebd
00000200: 991e 2cbd ed13 d7bb 3b09 0d3e 4b8c 96bd
00000210: 0eae 74bd 93ac 223e c903 cd3d 572b 3f3d
00000220: 7b55 9a3d 1935 3c3d 8726 293d 0b93 243d
00000230: 28b7 2d3c 523f 5dbd ef7a 433c a283 bc3b
00000240: b5ce 4e3d 9188 7cbd f239 01bd 9561 ca3d
00000250: 4e79 e63d 5dfb 183e 0ea5 053e 85b9 31be
00000260: 4cfe 163e 95e7 20bd 89b3 a4bd a0fb 193e
00000270: 8ff1 adbd c88b ec3d 3cde 863d ef6e 94bd
00000280: 644d 0239 025f 3b3d f14f 8bbc ea64 673d
00000290: 2d52 003e 45ef 18bc 1531 8d3d 01a2 cdbc
000002a0: ca3f c23d 37ba 033e ae73 223e fa85 e4bc
000002b0: e2fe 5bbd bad7 523b 59d7 3c3e 963b fb3c
000002c0: b551 dc3d 5c2c 133d a1b4 533e 1c82 083d
000002d0: d8c0 d8bd 6c7d ca3d d9ba 993b 0a36 293d
000002e0: b835 f23d 0953 5a3e 2606 a1bd 8209 d13b
000002f0: 3dd4 2dbe b55e 28be aa3e 363d dc33 15be
00000300: 33a2 353e 330b ac3d c22c 3dbd 9b6b c8ba
00000310: e4cf bcbc 55c9 a13b 323e 1f3e 44b8 443e
00000320: d17f 293e 759c 023d 9bde 423d 23dd 383e
00000330: 3436 133e 8dc4 c2bd 3fce ffbd 45c5 f13d
00000340: 7173 0f3d 4fbd 21bd 1b6e 03be 1a28 b0bc
00000350: d623 003e 09e6 303e 96cc 40be 924a 7c3d
00000360: bc01 19be acf2 0a3e 9147 273e 60fd 2d3d
00000370: 498a 10be 733e 2ebe 7283 0abe 02ad 8d3c
00000380: 692f 3d3e 9b23 233e 1b2e 2a3e 34cf d63d
00000390: bd14 043e ca42 413d e099 403d 7de5 093e
000003a0: e037 163e 0e02 babd cd7d 97bd b6e5 a2ba
000003b0: f021 19be ffa7 503d a0eb 7e3d 0f6b aebc
000003c0: 5a8a 183e dd55 45be c79d a0bd 79a5 78bd
000003d0: 447e fc3b f284 a4bd df51 cc3d 4cb1 843d
000003e0: f3ea 2ebe cd5e 12be 9098 98bd 1849 fcbd
000003f0: 3507 e7bd 65d4 fbbc c030 a03d 8b8a 333e

fcnn.0.bias f4 [256]
0.012890259 0.2029482 -0.044056453 0.058829598 -0.10803075 -0.11709614 -0.020083379 0.1280705
-0.025592938 0.051937863 -0.13321951 -0.11727689 0.19378448 -0.11514038 -0.17039926 -0.07406165
0.0048863133 -0.1514431 0.071464315 -0.09966069 0.14536841 -0.091021486 0.00013088383 0.16030765
0.068809725 0.03961065 -0.15039878 0.13759904 -0.030890856 0.112555996 0.08839421 -0.058907196
-0.094127394 0.129941 -0.062514745 0.011800812 0.118428536 0.14384507 0.09894559 0.03566358
0.054590475 -0.017056787 0.04932915 0.17514482 -0.02360195 0.026574926 0.15735936 0.031634938
0.12971984 -0.09264923 -0.14272135 -0.14033169 -0.19474334 -0.089507446 0.04561667 0.1709767
0.14873843 0.17111781 -0.044370588 -0.08444563 -0.01445899 0.019468674 -0.17744388 -0.08555215
-0.0033605043 -0.13270932 -0.0086674625 -0.0023941083 0.007262716 0.061356697 0.11669413 0.06391003
-0.056940425 0.06055203 0.0043133744 0.15811911 -0.15166241 0.109011166 -0.11902975 -0.18317898
0.13412553 -0.09727773 0.09787017 -0.0012613129 0.104560345 -0.19521938 0.16480689 0.12688771
-0.093083605 -0.1440776 -0.17194977 0.16972196 0.027815681 -0.05206223 -0.04345526 -0.018420849
-0.086028464 -0.099449106 0.08561011 0.12422096 -0.034582037 0.1799989 0.07613081 0.067559935
0.09932956 -0.1312573 -0.07121592 -0.15851644 -0.020882158 -0.063829705 0.094794065 -0.051646367
-0.05290365 0.09621035 -0.031266373 -0.032398146 0.059137408 0.023983631 0.122801885 0.08083124
-0.13142064 0.12355256 -0.025085056 -0.088569045 0.051093906 0.01459206 -0.029676992 0.006198305
0.056794126 -0.158176 -0.21248606 -0.11294962 0.11103507 0.1385399 0.12612595 0.027308898
0.105170906 -0.12210617 0.18307456 0.09484783 0.016284166 -0.1814372 0.16917308 0.088596456
0.0324003 0.106894255 -0.099659815 0.09977164 -0.113371015 0.074682064 0.12711067 -0.19978186
-0.016381629 -0.04490734 0.025110645 0.11710115 0.1504197 -0.0070029013 0.18185204 -0.010344406
-0.07900482 0.021355378 -0.06320207 -0.014869398 -0.12572 -0.005865931 0.12830505 0.026062839
0.1638671 0.03507723 -0.017647555 -0.06158238 -0.17700629 -0.0853877 -0.099518694 0.08026934
-0.17836215 0.10538909 -0.1643997 -0.13917513 -0.0015467866 0.014402395 -0.14007275 -0.16468057
-0.03845897 0.15869258 -0.04055214 -0.026606143 -0.062254515 -0.14284427 -0.16116928 0.18693334
-0.1561758 -0.0809381 -0.03597973 -0.1728174 -0.12053984 0.116590075 0.14627813 -0.08185663
-0.11186144 -0.042344037 0.11856522 0.07417008 -0.04501683 -0.0085109705 -0.18726029 -0.033284668
0.15885219 0.09171239 0.059592795 0.038895003 0.13359474 0.092349075 -0.029229194 0.074554
0.115781076 0.13355379 0.14326072 0.053703062 0.19327925 -0.10832617 0.1230401 -0.027008617
0.132932 -0.13499305 0.08591549 0.106353536 0.09839074 -0.19028872 0.01040015 0.04121714
-0.032147918 0.035485476 0.18886428 -0.09653681 -0.08318065 0.01050196 -0.067159876 0.062635854
0.15144187 -0.05994987 0.045078903 -0.10708708 0.030707538 0.12762335 -0.14555466 0.18300164
0.1490303 0.16910598 0.19777353 0.14458899 -0.10317589 0.17218502 0.059866685 -0.06170679
00000000: aa31 533c a7d1 4f3e 8a74 34bd 4ef7 703d
00000010: 3a3f ddbd 1ad0 efbd e685 a4bc ea24 033e
00000020: 48a8 d1bc ccbc 543d b26a 08be de2e f0bd
00000030: 706f 463e b8ce ebbd 257d 2ebe a2ad 97bd
00000040: 5e1d a03b e613 1bbe e25b 923d e71a ccbd
00000050: 75db 143e 7969 babd dc3d 0939 b027 243e
00000060: 1dec 8c3d c73e 223d 2302 1abe c3e6 0c3e
00000070: d20e fdbc c283 e63d 0608 b53d ac48 71bd
00000080: ddc5 c0bd 410f 053e bb07 80bd 3158 413c
00000090: a98a f23d 1f4c 133e fca3 ca3d f913 123d
000000a0: 439a 5f3d adba 8bbc 5d0d 4a3d 2a59 333e
000000b0: e058 c1bc a9b3 d93c d022 213e a393 013d
000000c0: 47d5 043e e1be bdbd 8c25 12be 1cb3 0fbe
000000d0: cc6a 47be ae4f b7bd 8cd8 3a3d 8414 2f3e
000000e0: e34e 183e 8239 2f3e efbd 35bd d5f1 acbd
000000f0: 66e5 6cbc c57c 9f3c d9b3 35be f735 afbd
00000100: e83b 5cbb f4e4 07be f901 0ebc 79e6 1cbb
00000110: 14fc ed3b 2951 7b3d 55fd ee3d 43e3 823d
00000120: 5d3a 69bd 6805 783d 3557 8d3b fae9 213e
00000130: 644d 1bbe 3f41 df3d dfc5 f3bd 4593 3bbe
00000140: 3458 093e 8c39 c7bd 2870 c83d a352 a5ba
00000150: bc23 d63d 97e7 47be 23c3 283e daee 013e
00000160: 9ea2 bebd 1489 13be 9a13 30be 98cb 2d3e
00000170: b6dd e33c 343f 55bd 25fe 31bd 52e7 96bc
00000180: b12f b0bd f9ab cbbd 5a54 af3d 8f67 fe3d
00000190: e5a5 0dbd a251 383e 78ea 9b3d dd5c 8a3d
000001a0: 4c6d cb3d 5068 06be a7d9 91bd 2252 22be
000001b0: 0f11 abbc 26b9 82bd 6423 c23d 248b 53bd
000001c0: 7fb1 58bd ef09 c53d 2b11 00bd ebb3 04bd
000001d0: 113a 723d 5279 c43c 8e7f fb3d d98a a53d
000001e0: 2293 06be 2009 fd3d 2d7f cdbc b063 b5bd
000001f0: d847 513d 8913 6f3c 2a1d f3bc 271b cb3b
00000200: f5a0 683d e4f8 21be f295 59be 2152 e7bd
00000210: 5b66 e33d 67dd 0d3e 2927 013e e9b6 df3c
00000220: d863 d73d cd12 fabd e677 3b3e 943f c23d
00000230: 5f66 853c acca 39be b53b 2d3e 0f72 b53d
00000240: 2db6 043d 60eb da3d 721a ccbd 1355 cc3d
00000250: 102f e8bd e9f2 983d 4d29 023e 9e93 4cbe
00000260: c432 86bc c2f0 37bd d7b4 cd3c bad2 ef3d
00000270: 9f07 1a3e 9878 e5bb 6c37 3a3e 957b 29bc
00000280: 47cd a1bd 79f1 ae3c 1670 81bd c79e 73bc
00000290: bebc 00be ff36 c0bb 6662 033e bc81 d53c
000002a0: c7cc 273e 24ad 0f3d 9b91 90bc ce3d 7cbd
000002b0: 2341 35be bfdf aebd 75d0 cbbd 4064 a43d
000002c0: 91a4 36be 3cd6 d73d 6558 28be ed83 0ebe
000002d0: 8cbd caba 06f8 6b3c 3b6f 0fbe 06a2 28be
000002e0: 2787 1dbd 4f80 223e 001a 26bd 20f5 d9bc
000002f0: 97fe 7ebd c545 12be 8f09 25be 746b 3f3e
00000300: 8dec 1fbe e0c2 a5bd 7b5f 13bd 0bf7 30be
00000310: 97dd f6bd c7c6 ee3d efc9 153e 73a4 a7bd
00000320: 9c17 e5bd f170 2dbd 52d2 f23d 7ce6 973d
00000330: 9163 38bd 9971 0bbc 29c1 3fbe 8155 08bd
00000340: 26aa 223e b5d3 bb3d 9317 743d 5e50 1f3d
00000350: 0fcd 083e 8321 bd3d 1072 efbc c4af 983d
00000360: a11e ed3d 53c2 083e f0b2 123e bef7 5b3d
00000370: ffea 453e 1cda ddbd 73fc fb3d 2d41 ddbc
00000380: 541f 083e 9e3b 0abe 76f4 af3d e2cf d93d
00000390: 1681 c93d 0cdb 42be 6465 2a3c 4ed3 283d
000003a0: 89ad 03bd 3859 113d a365 413e 17b5 c5bd
000003b0: 9e5a aabd 6a10 2c3c 1e8b 89bd 3a47 803d
000003c0: 9413 1b3e ff8d 75bd a8a4 383d 7950 dbbd
000003d0: 608e fb3c b2af 023e 480c 15be c864 3b3e
000003e0: 669b 183e 1e2a 2d3e 2585 4a3e 230f 143e
000003f0: e24d d3bd 4551 303e c536 753d 42c0 7cbd

fcnn.2.weight f4 [128, 256]
0.035949495 0.037188713 -0.05167042 0.06974096 0.023591373 -0.00049089896 0.031133143 -0.03526446
0.058356058 -0.018232089 0.027427861 0.09117298 0.011226984 0.015313726 -0.024636107 0.037035257
0.0065449974 0.021696951 -0.0027191618 -0.0062411395 0.013538318 0.06790657 -0.0637588 0.046894796
-0.0066243135 -0.01262503 0.045823384 0.044687394 0.011557568 0.034406487 -0.023082428 0.033096403
0.014544614 0.022212189 -0.004132667 0.041188538 0.029200107 -0.0103774285 0.0034492854 -0.018304063
0.048244722 -0.0025738755 0.0015906595 0.029330207 -0.04520561 -0.042123817 -0.041847453 -0.05948886
-0.037043408 0.009376003 0.055850483 -0.013070931 -0.024207845 -0.026685718 0.026580038 -0.02546227
-0.084829696 -0.024978401 -0.02481742 -0.02773262 -0.010384959 -0.021728063 0.02350235 -0.06846073
0.036803506 -0.031189624 -0.054412454 -0.034193352 0.046037484 -0.057465814 0.16829653 0.02653439
-0.06583736 0.0111717265 -0.020877417 -0.031032981 -0.027329918 0.033452794 0.031609327 -0.023362596
-0.0027997242 -0.050975632 0.026491212 0.03717871 -0.05507419 -0.020390723 0.038038522 0.03445864
-0.037874807 0.060175393 -0.03531423 -0.03805132 0.022505127 0.031334504 0.0036746415 -0.03491073
0.07507536 0.031058446 -0.06629372 0.03262541 -0.026399944 0.0049663577 0.0040590717 -0.015660785
-0.05798722 0.020517241 0.014103908 0.057262298 0.045948114 -0.05344583 -0.008333777 -0.051208302
0.014861191 -0.026179524 0.039632402 -0.021255465 -0.035346605 0.04953601 0.038709823 0.026033062
-0.02415456 0.0655196 0.014627062 0.06579537 0.045768987 0.02052453 0.058250424 -0.06816847
-0.017986553 -0.03382928 -0.061032254 0.03363292 -0.017150985 -0.049183246 -0.021391476 0.005114303
-0.053212676 -0.03968184 -0.057802863 -0.04354286 -0.0024841009 -0.0384549 0.050693735 -0.030578887
-0.02582836 -0.043169126 0.058096614 -0.023122447 0.062395643 0.033544883 0.03348138 0.0062545235
0.045240153 0.04519622 0.04662059 -0.04030103 -0.013665454 0.022108285 -0.035880595 -0.06337529
0.050602812 -0.03972052 0.0024471357 -0.016806787 -0.05548048 -0.017600302 0.08566765 -0.007572726
-0.06823819 -0.06721257 0.042955633 0.081749395 0.04457673 -0.027895244 -0.050760616 -0.07250244
-0.015633002 -0.036739852 -0.031658128 -0.0085640615 -0.008136003 0.015653985 -0.010069323 0.026345827
-0.01714982 -0.0013003948 0.09762456 0.013951352 -0.03392764 0.032914136 -0.006226542 -0.031597033
0.10980517 -0.0449118 -0.019151088 -0.021720693 0.003838481 0.06833561 -0.045950454 0.058681615
0.0027195641 -0.055726767 0.052934043 -0.02906827 0.16741149 -0.03622126 -0.02244321 -0.030331893
0.021336371 -0.048169285 0.022534464 -0.04365757 -0.038021732 0.03898924 0.006376964 0.0009986884
-0.04298259 -0.02654784 -0.04256008 0.046243202 0.0593559 0.07187787 0.022374569 -0.024233187
0.041083425 -0.054641973 -0.049319707 -0.047648344 -0.0024385154 -0.0378499 0.0050163353 0.0030568389
0.0013793044 -0.00074731535 0.01039509 0.04897074 -0.011407453 0.03915668 0.03596242 -0.06688525
0.05723293 -0.061196145 -0.035866585 0.0022074697 0.02581557 -0.049238343 -0.04384566 0.032014694
0.03271929 -0.074231654 0.026100772 0.012294821 -0.031967655 -0.0072537786 -0.0051632966 -0.039653398
00000000: c73f 133d 3153 183d 5da4 53bd 59d4 8e3d
00000010: b242 c13c acaf 00ba ef0a ff3c 7771 10bd
00000020: c306 6f3d 765b 95bc 65b0 e03c e6b8 ba3d
00000030: 62f1 373c 6ce6 7a3c a9d1 c9bc 48b2 173d
00000040: 6b77 d63b cebd b13c f733 32bb 7982 ccbb
00000050: d2cf 5d3c 9a12 8b3d f993 82bd c214 403d
00000060: c510 d9bb 37d9 4ebc 4db1 3b3d 210a 373d
00000070: f45b 3d3c d1ed 0c3d 5c17 bdbc 1890 073d
00000080: 884c 6e3c 56f6 b53c 536b 87bb 50b5 283d
00000090: 1035 ef3c 1706 2abc 680d 623b 67f2 95bc
000000a0: 429c 453d 77ae 28bb ad7d d03a e745 f03c
000000b0: 8529 39bd 068a 2cbd 3c68 2bbd 97aa 73bd
000000c0: d4ba 17bd cf9d 193c 7ac3 643d 7527 56bc
000000d0: 884f c6bc 029c dabc 61be d93c 4096 d0bc
000000e0: 31bb adbd 819f ccbc e74d cbbc 852f e3bc
000000f0: ad25 2abc 0dff b1bc 0088 c03c 2435 8cbd
00000100: 46bf 163d 6281 ffbc 98df 5ebd 540e 0cbd
00000110: cd91 3c3d 4661 6bbd ed55 2c3e a65e d93c
00000120: bdd5 86bd 9e09 373c 1e07 abbc e138 febc
00000130: fee2 dfbc cc05 093d c878 013d ea62 bfbc
00000140: 947b 37bb d3cb 50bd 1904 d93c b448 183d
00000150: 7995 61bd 720a a7bc 48ce 1b3d 8124 0d3d
00000160: 9d22 1bbd 797a 763d a7a5 10bd b3db 1bbd
00000170: ac5c b83c 9c58 003d 41d2 703b 8efe 0ebd
00000180: 1cc1 993d 486e fe3c 00c5 87bd 39a2 053d
00000190: b244 d8bc d4bc a23b f601 853b 0c4b 80bc
000001a0: 0284 6dbd c613 a83c 1414 673c df8b 6a3d
000001b0: 1734 3c3d 04ea 5abd 658a 08bc ccbf 51bd
000001c0: 5a7c 733c 7176 d6bc 9655 223d f11f aebc
000001d0: 9ac7 10bd 45e6 4a3d 318e 1e3d 4a43 d53c
000001e0: c9df c5bc 242f 863d 58a6 6f3c b9bf 863d
000001f0: 4378 3b3d 0f23 a83c ff97 6e3d e99b 8bbd
00000200: 8958 93bc 9290 0abd f5fc 79bd acc2 093d
00000210: 3980 8cbc 5f74 49bd 2d3d afbc e295 a73b
00000220: 89f5 59bd 6d89 22bd b2c2 6cbd ff59 32bd
00000230: 4ccc 22bb e382 1dbd 3ca4 4f3d 9380 fabc
00000240: ff95 d3bc 1cd2 30bd b7f6 6d3d 496b bdbc
00000250: 9392 7f3d 5c66 093d c623 093d bff2 cc3b
00000260: bd4d 393d ac1f 393d 3bf5 3e3d b112 25bd
00000270: 12e5 5fbc 6f1c b53c 88f7 12bd e7ca 81bd
00000280: e544 4f3d fcb1 22bd 2060 203b 63ae 89bc
00000290: 803f 63bd 822e 90bc 8572 af3d a124 f8bb
000002a0: 77c0 8bbd bea6 89bd 3ff2 2f3d 3a6c a73d
000002b0: 1796 363d 9184 e4bc 5dea 4fbd 297c 94bd
000002c0: c810 80bc 877c 16bd f4ab 01bd 4750 0cbc
000002d0: df4c 05bc c93c 803c cdf9 24bc 34d3 d73c
000002e0: c87d 8cbc 0272 aaba 63ef c73d 3694 643c
000002f0: b6f7 0abd f9d0 063d 0508 ccbb e46b 01bd
00000300: 88e1 e03d 70f5 37bd bee2 9cbc 98ef b1bc
00000310: 068f 7b3b 8af3 8b3d 8b36 3cbd 225c 703d
00000320: b73a 323b c041 64bd 5ed1 583d 9520 eebc
00000330: eb6d 2b3e be5c 14bd d3da b7bc 977a f8bc
00000340: 9dc9 ae3c 284d 45bd 329a b83c 48d2 32bd
00000350: adbc 1bbd 2eb3 1f3d daf5 d03b 6ce6 823a
00000360: 830e 30bd db7a d9bc 7a53 2ebd 8369 3d3d
00000370: 2c1f 733d b434 933d df4a b73c ad84 c6bc
00000380: 1847 283d 43d0 5fbd 7603 4abd e92a 43bd
00000390: 80cf 1fbb 7f08 1bbd 1260 a43b 3f55 483b
000003a0: c7c9 b43a 7ce7 43ba 2b50 2a3c 8b95 483d
000003b0: 53e6 3abc c162 203d 554d 133d 22fb 88bd
000003c0: 146d 6a3d cfa8 7abd d7e8 12bd 32ab 103b
000003d0: 2d7b d33c 25ae 49bd 8297 33bd d721 033d
000003e0: aa04 063d c406 98bd 49d1 d53c 3870 493c
000003f0: 84f0 02bd 1bb1 edbb df30 a9bb 9a6b 22bd

fcnn.2.bias f4 [128]
0.05371917 -0.008512914 -0.035435274 0.012650824 0.008034492 -0.010668478 0.011362783 -0.03666519
0.03688436 -0.007090298 0.00423116 -0.017702635 -0.011802963 -0.0520158 0.051774245 -0.054914057
0.023494668 0.045695405 0.034737248 0.02064727 -0.008647551 0.0018990516 0.0040782336 -0.008816436
0.025256174 0.0088284165 0.023810975 -0.008188814 0.03830445 0.039669402 -0.004066289 0.06176907
-0.056996725 -0.0065325852 0.039748497 0.05248771 -0.028199209 0.042107027 -0.06525165 0.019416418
-0.008883687 0.015830118 0.010139519 0.01385936 0.013910209 -0.048527587 0.041016985 0.04708262
-0.021557465 -0.0351058 0.034410287 -0.046378676 -0.02404613 -0.028592134 0.028355986 0.0017510407
0.035475075 0.049878806 -0.006845764 0.06782723 0.045153312 -0.006266782 -0.043948155 0.0091552315
-0.0032414652 0.051531725 -0.032660276 -0.01039926 0.017609758 -0.05051741 -0.0012275792 -0.028156174
-0.055108063 -0.0068920427 0.047344077 0.06241895 -0.060413945 0.016209036 -0.06633285 0.010054151
4.6870835e-05 -0.008967426 -0.020950062 0.004082195 -0.010755599 -0.035930645 0.058228374 -0.032774195
0.029314525 0.031166142 0.0136510255 -0.01860622 -0.03429632 -0.0085583525 -0.054066803 0.04806048
0.057900697 0.03389581 0.037351057 0.007299467 -0.019165149 -0.015509356 0.038925204 -0.028111134
-0.007931005 -0.021448156 0.060813144 0.00095416274 -0.014799386 0.07691388 -0.014610488 0.042565566
0.04680885 0.03355998 -0.03740287 0.035817638 0.058144297 0.048971903 0.02080148 0.033847608
-0.004634292 0.061170775 -0.0104576135 -0.02754104 -0.028227529 0.05372885 -0.044048686 -0.033683833
00000000: a208 5c3d c079 0bbc 9424 11bd 6745 4f3c
00000010: 1aa3 033c d7ca 2ebc f72a 3a3c 3d2e 16bd
00000020: 0e14 173d bb55 e8bb 8ba5 8a3b 1e05 91bc
00000030: 3761 41bc 850e 55bd 3b11 543d 90ed 60bd
00000040: e477 c03c 1b2b 3b3d a548 0e3d 7724 a93c
00000050: 75ae 0dbc 99e9 f83a b4a2 853b d072 10bc
00000060: 09e6 ce3c 10a5 103c 3c0f c33c 602a 06bc
00000070: 21e5 1c3d 627c 223d 813e 85bb 9001 7d3d
00000080: 6675 69bd 4c0f d6bb 52cf 223d 5afd 563d
00000090: 0702 e7bc 6b78 2c3d a8a2 85bd 2e0f 9f3c
000000a0: e28c 11bc 2aae 813c 3a20 263c 5e12 633c
000000b0: a5e7 633c ddc4 46bd 6d01 283d b5d9 403d
000000c0: 4899 b0bc 19cb 0fbd cdf1 0c3d 91f7 3dbd
000000d0: 64fc c4bc 0d3a eabc d04a e83c 2d83 e53a
000000e0: 504e 113d b84d 4c3d 6e52 e0bb 01e9 8a3d
000000f0: aef2 383d 9459 cdbb fb02 34bd d3ff 153c
00000100: c36e 54bb ee12 533d c8c6 05bd a861 2abc
00000110: 5742 903c 58eb 4ebd b9e6 a0ba c7a7 e6bc
00000120: feb8 61bd a5d6 e1bb ddeb 413d 03ab 7f3d
00000130: 9d74 77bd d0c8 843c 84d9 87bd 2aba 243c
00000140: 2d97 4438 1cec 12bc 779f abbc efc3 853b
00000150: 4038 30bc 032c 13bd e080 6e3d 3c3e 06bd
00000160: 0425 f03c 2350 ff3c 8da8 5f3c 126c 98bc
00000170: 4c7a 0cbd 5538 0cbc 2775 5dbd 11db 443d
00000180: 4829 6d3d 55d6 0a3d 6cfd 183d 5e30 ef3b
00000190: 3b00 9dbc f41a 7ebc 0970 1f3d 5249 e6bc
000001a0: 0cf1 01bc 0bb4 afbc 3417 793d c720 7a3a
000001b0: 2079 72bc 0685 9d3d d460 6fbc 3b59 2e3d
000001c0: a3ba 3f3d 3176 093d c033 19bd 84b5 123d
000001d0: b728 6e3d c396 483d de67 aa3c caa3 0a3d
000001e0: 42db 97bb 358e 7a3d 6956 2bbc bf9d e1bc
000001f0: 6b3d e7bc c812 5c3d 656c 34bd 0ff8 09bd

fcnn.4.weight f4 [64, 128]
0.04738861 -0.05010201 -0.06012817 0.029722877 -0.055349153 0.025522077 0.00039499343 0.028660828
-0.069351494 0.030619994 0.02927134 -0.04248294 -0.015582104 0.036108907 0.020455265 0.0097372485
0.005892043 -0.0055166115 -0.014992659 -0.09544334 -0.07665147 0.018130092 0.07394698 -0.011458524
-0.015604643 -0.10926177 -0.045543995 0.0043733986 -0.034645163 -0.018213103 -0.043529592 -0.008062362
-0.04484047 -0.054027542 0.06942195 -0.038808726 -0.08216252 -0.08555034 -0.085236825 -0.049236037
-0.013279871 0.05673292 -0.028999003 0.04315702 -0.0928026 -0.008669834 0.061690237 -0.09828041
-0.060606815 0.100103185 -0.085730195 -0.0829778 0.04395251 -0.057346467 -0.0055253995 -0.0025063057
0.09686046 0.050195523 0.06544178 0.076656096 -0.055218935 0.075937524 0.099503845 0.014260716
0.08552229 0.047928073 0.0086549455 -0.0023316003 -0.08293522 0.06907784 0.02843505 -0.052412897
-0.053546432 0.08642615 -0.06634528 -0.008964961 -0.046534885 -0.05925338 -0.054639705 0.033946037
0.0017982868 -0.03438571 -0.034039136 -0.020058597 0.071135454 0.039374385 -0.06036043 -0.028618876
0.033818074 0.043241765 0.065983795 -0.029715171 0.01843448 0.048000213 0.054306734 0.037061818
0.038203854 -0.003133434 -0.0505407 0.03463639 0.0042456295 0.040559288 0.080135554 0.0700114
0.008737204 -0.004217474 0.025854694 -0.096107714 -0.0904196 -0.06488082 0.065522164 -0.08874732
0.04319981 -0.049783073 0.044890907 -0.04374643 -0.040171817 -0.03137426 -0.03923947 0.02525398
0.055502035 0.06595539 -0.07127742 -0.03831765 0.0265124 0.06908142 0.026284782 0.03357411
-0.0371998 -0.006401695 0.084508754 0.060079336 -0.061375033 -0.026306082 -0.08471332 0.025065467
0.055848483 0.078816734 0.0022792285 0.05844968 0.07297715 0.05684818 -0.04120038 0.085706644
0.09880692 -0.05263153 0.037387744 -0.10246593 0.01834756 0.020390691 -0.025968073 -0.06010006
-0.079391696 -0.04596396 0.07843881 -0.03232867 0.04576337 0.0039762864 -0.015627665 -0.064027086
-0.028816065 -0.014403426 0.08199099 -0.15743244 -0.04986851 0.052085057 -0.053854022 0.0018983751
0.0010304302 -0.102973856 0.03674121 -0.0056303805 0.032323983 0.08964506 0.014586437 0.026107514
-0.016547183 -0.04855644 0.015953455 0.08650141 -0.043851495 0.0059732827 0.004689986 -0.042866006
-0.022427835 -0.028102143 0.015038381 -0.0058531677 -0.057662252 0.0646248 0.07787997 0.041951127
0.030462243 0.068469435 -0.07946121 -0.07591941 0.07000237 0.0073814685 0.04153303 0.03326341
0.05230549 0.06453866 0.07323 0.06498095 0.030622777 0.036945812 -0.025705017 -0.0048213825
-0.038660694 -0.029151635 -0.001442997 0.08059606 0.045979217 0.030729583 -0.006218108 0.012659379
-0.0067298748 0.08852023 0.07972752 -0.004260157 0.09443512 0.09404914 -0.068910465 0.06695939
0.00026203037 -0.07813646 0.032594863 -0.03282775 -0.05599969 0.035642397 0.053513564 -0.06879825
0.049239375 -0.004292741 0.067979924 -0.014235446 -0.03733878 0.061362844 -0.043414906 -0.049579795
-0.06731467 0.07006769 0.059177335 0.06148074 0.10476501 -0.08307873 0.003489835 -0.02119242
-0.008831826 0.07936681 -0.011493611 0.060283884 -0.023712724 -0.018444756 -0.06499245 -0.04486364
00000000: 8f1a 423d c437 4dbd f548 76bd 647d f33c
00000010: cbb5 62bd ad13 d13c 1f17 cf39 1dca ea3c
00000020: 2808 8ebd c8d6 fa3c 73ca ef3c 9702 2ebd
00000030: 154c 7fbc efe6 133d cd91 a73c fb88 1f3c
00000040: 0a12 c13b b1c4 b4bb c5a3 75bc cc77 c3bd
00000050: 72fb 9cbd 8f85 943c 8471 973d 88bc 3bbc
00000060: 9eaa 7fbc a3c4 dfbd 578c 3abd ba4e 8f3b
00000070: 16e8 0dbd a533 95bc 164c 32bd ff17 04bc
00000080: a4aa 37bd fc4b 5dbd 182d 8e3d e6f5 1ebd
00000090: d344 a8bd 0435 afbd a590 aebd baab 49bd
000000a0: d193 59bc c760 683d 518f edbc 6ac5 303d
000000b0: 4a0f bebd eb0b 0ebc e7ae 7c3d 3d47 c9bd
000000c0: da3e 78bd e602 cd3d 5093 afbd 44f0 a9bd
000000d0: 8c07 343d 21e4 6abd 690e b5bb d540 24bb
000000e0: c75e c63d d299 4d3d 5706 863d dffd 9c3d
000000f0: 402d 62bd 2285 9b3d acc8 cb3d c7a5 693c
00000100: 4f26 af3d 3a50 443d 79cd 0d3c c3cd 18bb
00000110: f1d9 a9bd af78 8d3d 9ff0 e83c e8ae 56bd
00000120: 8153 5bbd 3100 b13d 09e0 87bd c6e1 12bc
00000130: 5d9b 3ebd acb3 72bd e2cd 5fbd 000b 0b3d
00000140: 7eb4 eb3a 08d8 0cbd 9f6c 0bbd ed51 a4bc
00000150: 77af 913d 0947 213d 803c 77bd 2272 eabc
00000160: d284 0a3d 471e 313d 8322 873d 3b6d f3bc
00000170: e803 973c df9b 443d bd70 5e3d 22ce 173d
00000180: a57b 1c3d 4d5a 4dbb c403 4fbd e3de 0d3d
00000190: ec1e 8b3b 7f21 263d 1c1e a43d 2362 8f3d
000001a0: 7d26 0f3c bc32 8abb 39cd d33c 1fd4 c4bd
000001b0: e92d b9bd 3ce0 84bd 7c30 863d 28c1 b5bd
000001c0: 49f2 303d 56e9 4bbd 87df 373d 752f 33bd
000001d0: 348b 24bd 4c82 00bd 91b9 20bd 6fe1 ce3c
000001e0: 1a56 633d 9f13 873d e5f9 91bd f8f2 1cbd
000001f0: 8830 d93c 8f7a 8d3d 2f53 d73c 0285 093d
00000200: d15e 18bd 4fc5 d1bb ed12 ad3d c015 763d
00000210: 6364 7bbd da7f d7bc 2d7e adbd 1856 cd3c
00000220: 61c1 643d ab6a a13d 1c5f 153b ef68 6f3d
00000230: 0b75 953d a3d9 683d bbc1 28bd f786 af3d
00000240: 485b ca3d 2994 57bd e423 193d a8d9 d1bd
00000250: 9f4d 963c 610a a73c ffba d4bc 7b2b 76bd
00000260: 1d98 a2bd b544 3cbd 87a4 a03d 116b 04bd
00000270: 5f72 3b3d 824b 823b 9705 80bc a220 83bd
00000280: ab0f ecbc 59fc 6bbc e4ea a73d f835 21be
00000290: ec42 4cbd 2457 553d 0996 5cbd e6d2 f83a
000002a0: 800f 873a f5e3 d2bd f37d 163d 0e7f b8bb
000002b0: 2766 043d d497 b73d f3fb 6e3c 6ddf d53c
000002c0: f58d 87bc 1ee3 46bd d2b0 823c a727 b13d
000002d0: a09d 33bd 87bb c33b 74ae 993b 4494 2fbd
000002e0: 94ba b7bc 7736 e6bc 8b63 763c eecb bfbb
000002f0: 412f 6cbd 025a 843d 897f 9f3d f2d4 2b3d
00000300: f48b f93c b439 8c3d 8fbc a2bd a37b 9bbd
00000310: 675d 8f3d 3fe0 f13b 8a1e 2a3d 373f 083d
00000320: 483e 563d d82c 843d 9cf9 953d bb14 853d
00000330: 9edc fa3c 7e54 173d 5493 d2bc b0fc 9dbb
00000340: ad5a 1ebd 69cf eebc f222 bdba 8c0f a53d
00000350: b454 3c3d 9bbc fb3c 45c1 cbbb 4969 4f3c
00000360: 4886 dcbb 184a b53d 2f48 a33d c998 8bbb
00000370: 3367 c13d d69c c03d ee20 8dbd 0122 893d
00000380: 1f61 8939 0206 a0bd 3182 053d 6476 06bd
00000390: ee5f 65bd c3fd 113d 0a31 5b3d 19e6 8cbd
000003a0: 3aaf 493d 1faa 8cbb 0f39 8b3d ca3b 69bc
000003b0: 8cf0 18bd 9b57 7b3d d4d3 31bd 2f14 4bbd
000003c0: 46dc 89bd a67f 8f3d ef63 723d 3ad3 7b3d
000003d0: 0a8f d63d 2e25 aabd b7b5 643b ba9b adbc
000003e0: 5db3 10bc 118b a23d b34f 3cbc 3cec 763d
000003f0: 3041 c2bc 7519 97bc c31a 85bd f0c2 37bd

fcnn.4.bias f4 [64]
-0.004451888 0.006619671 -0.037486516 0.029957827 0.031981584 -0.067886375 -0.019091047 0.009146213
0.006745458 -0.012551387 -0.068011135 -0.054652464 -0.011364659 -0.022581942 -0.08997864 -0.008360572
0.08084803 0.092027195 -0.01507962 0.09243494 0.017685972 0.07906763 0.060283795 0.008688417
-0.055834293 -0.008745506 -0.07257181 -0.0691864 -0.0075817327 -0.01750425 0.08658104 -0.0482685
0.07533413 -0.00073731405 0.007792708 -0.09057228 -0.05886203 -0.051262762 -0.05786969 0.026250312
0.0588394 -0.0795048 -0.07190409 0.04092522 -0.029149292 -0.0516063 -0.064934485 0.045590866
-0.060459737 -0.025826972 0.010648394 -0.04362575 -0.052885998 -0.008429137 -0.08142206 0.05006912
-0.014837602 -0.019824661 -0.035301343 0.04160533 0.035685174 0.0033422632 0.07309983 0.0227884
00000000: 25e1 91bb d3e9 d83b 768b 19bd 1e6a f53c
00000010: 1fff 023d 0308 8bbd d464 9cbc ffd9 153c
00000020: 0109 dd3b 55a4 4dbc 6c49 8bbd 43db 5fbd
00000030: d632 3abc c4fd b8bc b946 b8bd c8fa 08bc
00000040: a793 a53d c178 bc3d 8310 77bc 884e bd3d
00000050: 2ce2 903c 36ee a13d 24ec 763d dd59 0e3c
00000060: 80b2 64bd 5049 0fbc 87a0 94bd 99b1 8dbd
00000070: 2f70 f8bb 1365 8fbc 6651 b13d 31b5 45bd
00000080: c848 9a3d 4f48 41ba f959 ff3b f67d b9bd
00000090: 5019 71bd e7f8 51bd c508 6dbd e50a d73c
000000a0: 9501 713d 6ad3 a2bd 7442 93bd 34a1 273d
000000b0: 7fca eebc 2161 53bd 5ffc 84bd 7dbd 3a3d
000000c0: a1a4 77bd 1693 d3bc 9a76 2e3c eab0 32bd
000000d0: fd9e 58bd 5d1a 0abc 9cc0 a6bd 4715 4d3d
000000e0: 6a19 73bc 5467 a2bc 2498 10bd 5a6a 2a3d
000000f0: 9e2a 123d df09 5b3b 5db5 953d bdae ba3c

fcnn.6.weight f4 [1, 64]
0.09326833 0.0398669 0.05790929 0.053551145 -0.10039995 0.06944089 0.07635822 -0.111803114
-0.120481916 -0.06530169 0.07121816 -0.07265297 0.013938391 0.13280097 -0.108325884 -0.080084026
0.038841683 -0.029538883 0.072206564 -0.052315757 -0.15890594 0.06329199 0.052731134 0.05316371
0.060023658 0.13068539 -0.11549403 0.096807644 0.122796275 -0.09363903 0.13418038 -0.07944092
0.07264747 -0.111897215 -0.11030078 -0.122542225 -0.03770958 0.13156202 0.12555683 -0.11515521
0.062818214 -0.10999499 -0.13070975 0.10352581 -0.01659669 0.11806618 -0.08344712 -0.12965725
0.036729153 0.052460104 0.052073143 -0.013811224 -0.026925756 0.10969128 -0.08583046 0.024096385
0.026693748 -0.11024092 -0.040907282 0.01810041 -0.041730188 0.058864217 -0.06302533 -0.05656328
00000000: 7703 bf3d 794b 233d 4b32 6d3d 7258 5b3d
00000010: 7d9e cdbd 0637 8e3d b361 9c3d 08f9 e4bd
00000020: 39bf f6bd e4bc 85bd d4da 913d 15cb 94bd
00000030: d95d 643c fafc 073e f6d9 ddbd 1803 a4bd
00000040: 7518 1f3d 87fb f1bc 09e1 933d 0c49 56bd
00000050: 3db8 22be 3b9f 813d 9afc 573d 31c2 593d
00000060: 5edb 753d 64d2 053e 2288 ecbd 1643 c63d
00000070: 9d7c fb3d d2c5 bfbd 9566 093e ecb1 a2bd
00000080: 32c8 943d 5e2a e5bd 60e5 e1bd 6bf7 fabd
00000090: 5c75 1abd 32b8 063e f891 003e 7fd6 ebbd
000000a0: d6a6 803d 0e45 e1bd c7d8 05be 5705 d43d
000000b0: c8f5 87bc aecc f13d 53e6 aabd dfc4 04be
000000c0: 4f71 163d 68e0 563d a64a 553d 7948 62bc
000000d0: 6793 dcbc d2a5 e03d e1c7 afbd c865 c53c
000000e0: d9ac da3c fec5 e1bd 658e 27bd 5047 943c
000000f0: 46ed 2abd 9b1b 713d 6d13 81bd e6ae 67bd

exp_avg f4 [256, 27]
-0.0026659176 -0.0025737812 -0.0027270825 -0.002697341 -0.0026719605 -0.002661463 -0.0026946699 -0.0027545523
-0.002629451 -0.002687091 -0.0027680295 -0.0027682572 -0.002660048 -0.002682146 -0.0026182688 -0.002674416
-0.002634547 -0.0026557911 -0.0026708504 -0.0027455182 -0.0027805546 -0.0026483338 -0.002714875 -0.0027535227
-0.0026566652 -0.0027141124 -0.0026511343 -0.0037657376 -0.0036644738 -0.003849681 -0.0038183548 -0.0037791608
-0.0037615646 -0.0038011689 -0.0038769948 -0.0037026226 -0.0037952869 -0.003906338 -0.0039025615 -0.003748493
-0.003755681 -0.0036981734 -0.0037872796 -0.0037120674 -0.00373842 -0.003760304 -0.0038798847 -0.003914765
-0.0037355095 -0.0038385622 -0.0038873376 -0.0037479235 -0.003840476 -0.0037580917 -3.1905944e-05 -1.3997671e-05
-3.017687e-05 -2.5986164e-05 -2.9064102e-05 -3.00236e-05 -3.323369e-05 -3.989561e-05 -4.2077216e-05 -2.9272536e-05
-3.340264e-05 -3.6983827e-05 -3.434286e-05 -5.4101114e-05 -3.0443382e-05 -2.4961653e-05 -3.5358287e-05 -3.9475366e-05
-3.7834074e-05 -2.8810564e-05 -4.038373e-05 -3.3795695e-05 -2.838038e-05 -3.6728346e-05 -3.4924113e-05 -2.7041993e-05
-2.5873725e-05 -0.005450695 -0.0053079296 -0.0055701584 -0.0055294232 -0.0054724454 -0.0054459996 -0.0055004144
-0.005611287 -0.0053560096 -0.0054935967 -0.005654328 -0.0056456635 -0.0054213223 -0.005431163 -0.0053489073
-0.005481025 -0.005372179 -0.005406289 -0.00543712 -0.0056167725 -0.005667777 -0.0054083685 -0.005554584
-0.005630713 -0.0054208445 -0.0055588526 -0.0054440703 0.13501528 0.13106981 0.1376661 0.1367801
0.13552313 0.13498668 0.1363702 0.13930137 0.13321789 0.13595979 0.14004023 0.1398801
0.1343102 0.1355721 0.13246399 0.13552064 0.13317725 0.13427736 0.13484308 0.13890614
0.14070815 0.13432333 0.137396 0.1397989 0.13429642 0.13744245 0.13478644 0.43799868
0.42585284 0.4475355 0.44420752 0.43972957 0.43774468 0.4423033 0.45150116 0.43069708
0.4415569 0.45452866 0.45376995 0.43585315 0.43748492 0.429769 0.44014743 0.43203753
0.43481028 0.43720198 0.45137838 0.45597705 0.43516362 0.4462363 0.452699 0.43553257
0.44645745 0.4372028 0.500073 0.48631215 0.51149404 0.5074251 0.5021176 0.4999369
0.5052396 0.515669 0.49137065 0.5044915 0.5191877 0.51816773 0.49793994 0.4992432
0.4907772 0.50272566 0.49342906 0.49639496 0.4993456 0.5157646 0.52076936 0.4971184
0.50973696 0.51669663 0.4971621 0.5099488 0.49906075 0.37754205 0.367506 0.38576773
0.38313186 0.37922594 0.37753114 0.38128448 0.38915512 0.37117574 0.380675 0.39183185
0.3910003 0.37557414 0.37697116 0.37036803 0.37949625 0.3723044 0.3746412 0.3766628
0.38914853 0.39312223 0.37534493 0.3846478 0.39046085 0.37523365 0.3848941 0.37715533
0.1340049 0.13132362 0.1370685 0.13633241 0.13476355 0.13420255 0.13542454 0.1379004
0.13140988 0.13530758 0.13909549 0.1386241 0.13328561 0.13303822 0.13158545 0.13509223
0.13196824 0.13276622 0.13354714 0.13834874 0.13929953 0.13337861 0.13678706 0.13846631
0.13302122 0.1368746 0.13414483 0.3227898 0.31500655 0.32996032 0.32776633 0.3242547
0.32277554 0.3259653 0.33232066 0.31690514 0.32558435 0.33493674 0.33419248 0.3211118
00000000: adb6 2ebb e2ac 28bb dab8 32bb dfc5 30bb
00000010: 0f1c 2fbb f16b 2ebb 0f99 30bb b885 34bb
00000020: de52 2cbb e819 30bb d467 35bb a66b 35bb
00000030: 3354 2ebb f1c6 2fbb 4397 2bbb 4145 2fbb
00000040: 5da8 2cbb c80c 2ebb 6f09 2fbb 27ee 33bb
00000050: f739 36bb ab8f 2dbb 0bec 31bb 7274 34bb
00000060: 721b 2ebb 40df 31bb a7be 2dbb 98ca 76bb
00000070: ab27 70bb ee4a 7cbb 5d3d 7abb ccab 77bb
00000080: 9584 76bb 081d 79bb 2e15 7ebb b3a7 72bb
00000090: 59ba 78bb bd00 80bb 1ec2 7fbb 47a9 75bb
000000a0: df21 76bb 0e5d 72bb 0234 78bb 2846 73bb
000000b0: 4800 75bb 6f6f 76bb aa45 7ebb 6e47 80bb
000000c0: 73cf 74bb 6390 7bbb b4c2 7ebb b99f 75bb
000000d0: 7fb0 7bbb 514a 76bb bfd2 05b8 8ad7 6ab7
000000e0: 5624 fdb7 ddfc d9b7 afce f3b7 31db fbb7
000000f0: 6764 0bb8 9655 27b8 117c 30b8 4b8e f5b7
00000100: d019 0cb8 151f 1bb8 5d0b 10b8 a1ea 62b8
00000110: aa60 ffb7 be64 d1b7 ac4d 14b8 5a92 25b8
00000120: 07b0 1eb8 37ae f1b7 b361 29b8 dabf 0db8
00000130: 6712 eeb7 c30c 1ab8 7b7b 12b8 3dd8 e2b7
00000140: 670b d9b7 be9b b2bb 24ee adbb e085 b6bb
00000150: 2a30 b5bb 3352 b3bb 5b74 b2bb d23c b4bb
00000160: e3de b7bb 7781 afbb a103 b4bb f147 b9bb
00000170: 42ff b8bb 59a5 b1bb e6f7 b1bb e345 afbb
00000180: 2c9a b3bb 1b09 b0bb 3d27 b1bb de29 b2bb
00000190: e70c b8bb c2b8 b9bb af38 b1bb 3a03 b6bb
000001a0: d881 b8bb 57a1 b1bb 0927 b6bb 2c64 b2bb
000001b0: 7241 0a3e 2a37 063e 58f8 0c3e 1510 0c3e
000001c0: 93c6 0a3e f339 0a3e a1a4 0b3e 05a5 0e3e
000001d0: 456a 083e 0b39 0b3e b566 0f3e bb3c 0f3e
000001e0: 9d88 093e 6ad3 0a3e a4a4 073e ecc5 0a3e
000001f0: 9e5f 083e 0180 093e 4e14 0a3e 693d 0e3e
00000200: cc15 103e 0e8c 093e 89b1 0c3e 7127 0f3e
00000210: 0085 093e b7bd 0c3e 7505 0a3e 5d41 e03e
00000220: 6209 da3e 6023 e53e 2b6f e33e 3c24 e13e
00000230: 1220 e03e 9475 e23e 292b e73e 5484 dc3e
00000240: bf13 e23e fbb7 e83e 8954 e83e 2528 df3e
00000250: 06fe df3e af0a dc3e 015b e13e 0634 dd3e
00000260: 749f de3e f0d8 df3e 111b e73e d375 e93e
00000270: c4cd de3e 1679 e43e 2ac8 e73e 20fe de3e
00000280: 1296 e43e 0cd9 df3e c904 003f e8fd f83e
00000290: 46f1 023f 9de6 013f c78a 003f bbf7 ff3e
000002a0: 6257 013f e202 043f ef94 fb3e 5b26 013f
000002b0: 7ce9 043f a4a6 043f fcf1 fe3e ce9c ff3e
000002c0: 2647 fb3e a1b2 003f bca2 fc3e 7b27 fe3e
000002d0: 3aaa ff3e 2609 043f 2451 053f 4e86 fe3e
000002e0: 1f7e 023f 3b46 043f 088c fe3e 018c 023f
000002f0: e484 ff3e 314d c13e bf29 bc3e 5983 c53e
00000300: dc29 c43e e729 c23e c34b c13e b837 c33e
00000310: 573f c73e bf0a be3e d5e7 c23e 2f9e c83e
00000320: 3131 c83e 414b c03e 5d02 c13e e1a0 bd3e
00000330: 554d c23e af9e be3e f9d0 bf3e f2d9 c03e
00000340: 7a3e c73e 5147 c93e 362d c03e 8ef0 c43e
00000350: 7cea c73e a01e c03e d710 c53e 811a c13e
00000360: 9538 093e b379 063e af5b 0c3e b99a 0b3e
00000370: 75ff 093e 656c 093e bbac 0a3e c335 0d3e
00000380: 5090 063e 128e 0a3e 0c6f 0e3e 7af3 0d3e
00000390: 067c 083e 2c3b 083e 56be 063e 9e55 0a3e
000003a0: af22 073e def3 073e 95c0 083e 4bab 0d3e
000003b0: 89a4 0e3e 6794 083e e811 0c3e 1dca 0d3e
000003c0: b736 083e db28 0c3e 435d 093e b444 a53e
000003d0: 8a48 a13e 8ff0 a83e fdd0 a73e b604 a63e
000003e0: d642 a53e ece4 a63e ef25 aa3e 6441 a23e
000003f0: feb2 a63e d47c ab3e 471b ab3e c468 a43e

exp_avg_sq f4 [256, 27]
3.1373205e-05 3.228183e-05 3.1785527e-05 3.185229e-05 3.1804313e-05 3.179116e-05 3.1993575e-05 3.1235337e-05
3.1429223e-05 3.1655716e-05 3.162025e-05 3.192913e-05 3.186731e-05 3.1406977e-05 3.2398424e-05 3.2351425e-05
3.1191397e-05 3.155555e-05 3.1580537e-05 3.140031e-05 3.0918796e-05 3.1030857e-05 3.179873e-05 3.0882497e-05
3.221658e-05 3.2048414e-05 3.104887e-05 5.890405e-05 6.0630093e-05 5.962043e-05 5.981263e-05 5.9727303e-05
5.970431e-05 6.0137445e-05 5.869961e-05 5.896892e-05 5.9471637e-05 5.940692e-05 5.9969076e-05 5.9864593e-05
5.8978618e-05 6.0827286e-05 6.0756058e-05 5.8588976e-05 5.9294907e-05 5.9257603e-05 5.8981223e-05 5.8080765e-05
5.829981e-05 5.9733582e-05 5.794594e-05 6.048286e-05 6.010118e-05 5.8263653e-05 2.8742295e-06 3.0328918e-06
2.9867574e-06 2.9158978e-06 2.903828e-06 2.8832317e-06 2.920556e-06 2.7970677e-06 2.860332e-06 2.899531e-06
2.889219e-06 2.963641e-06 2.9600333e-06 2.7828155e-06 3.0557012e-06 3.0507779e-06 2.8229383e-06 2.898554e-06
2.9519103e-06 2.878768e-06 2.7590652e-06 2.7715325e-06 2.9846808e-06 2.751928e-06 3.0294773e-06 2.9892662e-06
2.843235e-06 0.020097207 0.020759974 0.021026997 0.021890156 0.022033645 0.021605577 0.022383768
0.022016536 0.020680765 0.021088397 0.021647373 0.021369038 0.021052008 0.021009661 0.02158952
0.021571388 0.021113265 0.020920584 0.021197008 0.021552166 0.020877713 0.021405218 0.0205941
0.020992145 0.021802422 0.02137332 0.02133976 0.099176385 0.10429075 0.10235011 0.10043543
0.10035249 0.09976206 0.10088302 0.09707772 0.09893686 0.099929 0.0997815 0.10189584
0.10152965 0.09708858 0.10440138 0.10467128 0.09782124 0.099807024 0.10073317 0.09963354
0.09590872 0.0961844 0.102272324 0.09595769 0.10391036 0.10287141 0.0978519 0.7014556
0.72251344 0.7107579 0.71187085 0.7114593 0.710489 0.7151979 0.69795287 0.702248
0.7080946 0.70741624 0.71396387 0.7126553 0.70149344 0.72463614 0.7242492 0.69676113
0.7052891 0.7057609 0.702086 0.6911047 0.69347084 0.7115082 0.6899012 0.7209703
0.7169429 0.6940372 0.9479306 0.97599554 0.9600592 0.9625821 0.96249795 0.96083295
0.9670361 0.9441385 0.94982815 0.9570543 0.9562764 0.9655069 0.9628066 0.9492839
0.97963893 0.97863764 0.94130886 0.9534598 0.95374334 0.94918954 0.9343666 0.9384081
0.9613481 0.93305016 0.9744828 0.96926904 0.9385148 0.57076645 0.5910428 0.58087873
0.5791811 0.5792942 0.577684 0.58200985 0.56567115 0.57128614 0.5758753 0.5753286
0.5825209 0.58068293 0.5684232 0.5929486 0.59286547 0.5661092 0.5741088 0.57587683
0.5721743 0.5598971 0.56218594 0.58137035 0.5596141 0.5898826 0.5861122 0.5646659
0.11331006 0.11889947 0.11649039 0.1148527 0.11470911 0.11410809 0.11533551 0.11107055
0.11308751 0.11418973 0.11405292 0.11635564 0.1158411 0.111162975 0.11913861 0.11923378
0.11169182 0.11402768 0.11503252 0.11361966 0.109740816 0.110202715 0.116712146 0.10977122
0.1183692 0.11724754 0.111760706 0.40923986 0.42375705 0.4161668 0.41518942 0.41479757
0.41376767 0.41712695 0.40579507 0.40922537 0.4130109 0.4125484 0.41758305 0.4165856
00000000: b996 0338 5a66 0738 7351 0538 2399 0538
00000010: 9f65 0538 8057 0538 d730 0638 b002 0338
00000020: dfd2 0338 11c6 0438 fc9f 0438 a4eb 0538
00000030: 43a9 0538 fcba 0338 8be3 0738 14b1 0738
00000040: 82d3 0238 845a 0438 5875 0438 d3b3 0338
00000050: ceae 0138 2127 0238 a05f 0538 d487 0138
00000060: 4a20 0738 b96b 0638 783a 0238 be0f 7738
00000070: 114d 7e38 f310 7a38 53df 7a38 b483 7a38
00000080: 046b 7a38 173c 7c38 3a34 7638 6555 7738
00000090: 2f71 7938 b22b 7938 4e87 7b38 1e17 7b38
000000a0: cf5f 7738 cd20 7f38 52d4 7e38 6fbd 7538
000000b0: 6cb3 7838 5e8b 7838 9b62 7738 bf9b 7338
000000c0: f286 7438 728a 7a38 fb0a 7338 faae 7d38
000000d0: 2715 7c38 1f60 7438 e3e2 4036 af88 4b36
000000e0: 1a70 4836 beae 4336 63df 4236 8b7d 4136
000000f0: c5fe 4336 42b5 3b36 21f4 3f36 9095 4236
00000100: 68e4 4136 f7e2 4636 fca4 4636 68c0 3a36
00000110: 8c10 4d36 f7bb 4c36 b671 3d36 c784 4236
00000120: 6f19 4636 dc30 4136 6128 3936 91fe 3936
00000130: 6d4c 4836 c3ad 3836 064e 4b36 349b 4836
00000140: 68ce 3e36 e6a2 a43c d210 aa3c cf40 ac3c
00000150: fc52 b33c e77f b43c 2efe b03c 2a5e b73c
00000160: 065c b43c b56a a93c 93c1 ac3c d555 b13c
00000170: 1f0e af3c 4375 ac3c 741c ac3c 81dc b03c
00000180: 7bb6 b03c baf5 ac3c a561 ab3c 59a5 ad3c
00000190: 2b8e b03c bd07 ab3c ff59 af3c f5b4 a83c
000001a0: b8f7 ab3c fe9a b23c 1a17 af3c b8d0 ae3c
000001b0: fd1c cb3d 6496 d53d ef9c d13d 17b1 cd3d
000001c0: 9b85 cd3d 0d50 cc3d c29b ce3d afd0 c63d
000001d0: 699f ca3d 93a7 cc3d 3e5a cc3d c4ae d03d
000001e0: c7ee cf3d 61d6 c63d 64d0 d53d e55d d63d
000001f0: 8156 c83d a067 cc3d 314d ce3d ab0c cc3d
00000200: ca6b c43d 54fc c43d 2774 d13d 7785 c43d
00000210: f4ce d43d 3fae d23d 9466 c83d 9892 333f
00000220: a4f6 383f 3bf4 353f 2b3d 363f 3222 363f
00000230: 9be2 353f 3617 373f 0aad 323f 86c6 333f
00000240: b045 353f 3b19 353f 56c6 363f 9470 363f
00000250: 1395 333f c181 393f 6568 393f f05e 323f
00000260: d48d 343f bfac 343f e8bb 333f 3dec 303f
00000270: 4e87 313f 6725 363f 5d9d 303f 8291 383f
00000280: 9289 373f 6cac 313f 94ab 723f d8da 793f
00000290: 71c6 753f c86b 763f 4466 763f 26f9 753f
000002a0: ae8f 773f 10b3 713f f027 733f 8301 753f
000002b0: 88ce 743f 762b 773f 7e7a 763f 4504 733f
000002c0: 9ec9 7a3f ff87 7a3f 9ef9 703f f115 743f
000002d0: 8628 743f 16fe 723f a632 6f3f 833b 703f
000002e0: e91a 763f 60dc 6e3f b477 793f 0422 783f
000002f0: 8242 703f c01d 123f 954e 173f 78b4 143f
00000300: 3645 143f a04c 143f 19e3 133f 99fe 143f
00000310: d3cf 103f cf3f 123f 906c 133f bc48 133f
00000320: 1720 153f a3a7 143f 2f84 113f 7bcb 173f
00000330: 08c6 173f 88ec 103f cbf8 123f aa6c 133f
00000340: 047a 123f 6b55 0f3f 6beb 0f3f b0d4 143f
00000350: df42 0f3f 8c02 173f 730b 163f f28d 103f
00000360: 1b0f e83d 9181 f33d 8392 ee3d e437 eb3d
00000370: 9cec ea3d 81b1 e93d 0635 ec3d f578 e33d
00000380: 6d9a e73d 4edc e93d 9494 e93d de4b ee3d
00000390: 193e ed3d 6aa9 e33d f2fe f33d d730 f43d
000003a0: aebe e43d 5887 e93d 2b96 eb3d 6db1 e83d
000003b0: cbbf e03d f6b1 e13d c706 ef3d bccf e03d
000003c0: 8d6b f23d 7a1f f03d cce2 e43d e387 d13e
000003d0: aff6 d83e d113 d53e b593 d43e 5960 d43e
000003e0: 5bd9 d33e aa91 d53e 5fc4 cf3e fd85 d13e
000003f0: 2a76 d33e 8b39 d33e 72cd d53e b54a d53e
