experiments/justification/models/MediumBTCNN_SmallFCNN_3.pth (torch, 284086 bytes, 21 tensors)

btcnn.layers.0.conv1d.weight f4 [128, 27, 3]
00000000: def5 6abe 3013 75bc e061 91bd bb5d 773e
00000010: 8cff 79be be35 83bc c767 613e 37c5 d93e
00000020: 4309 753e dc32 da3d f193 f63d a7ac 34be
00000030: d4e5 5fbe 3487 af3d 67c4 05bd 3342 ad3c
00000040: 3326 8dbe d92f bb3d 832f d9bd 5a06 4ebd
00000050: c509 993d f649 6e3e e917 fd3d b972 4abd
00000060: b328 903e 2015 a6bd 448c 4fbe c803 cdbd
00000070: e669 84be 4ecb fcbc 0bbe 083d 35d9 493e
00000080: d980 4fbd b461 273f b6d8 a0bd c9b3 72be
00000090: 4614 bcba ac6c c3bc 5d64 763d 3d4c bcbc
000000a0: a0c3 1b3e a0b1 aabd 9562 9abe fb0a c0be
000000b0: cec9 b0bc e247 29bd e9dc ee3e e1c0 3cbe
000000c0: d8bc fdbd 6833 013e b0bb 983d 6a27 d33e
000000d0: 4e22 81bd 8e02 643c 8a52 423d 6048 383e
000000e0: eb71 173d f368 9cbe abdb ac3e 3b80 f63d
000000f0: 8453 6abe 1fb7 a73e a718 6abe 2d48 17be
00000100: bb48 f33d 5793 6f3d bb9c 1dbd 7f6f 2abe
00000110: f24d b83d 82a8 8cbc 36d7 423d 477f 66bd
00000120: 77ec 673e bd35 a5bd 4fa6 5cbe c862 1cbd
00000130: 353c 9fbe f8e5 383b 4b2f d73d d39a f63d
00000140: cd33 39be 199d 2cbe 9cad edbe a73a 823d
00000150: 9f0e a1be 2da4 c6be 28c0 603b fdc7 6bbe
00000160: 754d ffbe 5750 67bd ba8c 03be 2ebf 3ebe
00000170: 41d5 bbbd 3784 863b 1060 52be 202f 1cbd
00000180: 6456 c53d 764f b23e 74cb d33d c921 15bd
00000190: c212 423d c739 35bd fc7d b73e 58da e4bd
000001a0: dd9b dfbc 1ac8 0a3e b236 983c c697 773d
000001b0: 3465 43be 6f81 cc3d 726e 67bc 5156 803c
000001c0: 14b0 863d ab8d f5bb a232 94be 3b14 603c
000001d0: 2125 a53e 73f6 2fbe 67fe df3c 6b49 333d
000001e0: 1474 39bd 7cef fa3d ab2a f5b8 4202 02bd
000001f0: 6bbb 9bbe fd69 bdbd 0337 c3be 2f5e e6be
00000200: e903 313c 4deb 723e 5dab 1abe abdd 5f3c
00000210: 9683 393e 6bb8 78bc 8e1b 163c 68a4 97be
00000220: 0865 9dbe c551 d43d d93e d4be 4d0a 81be
00000230: 4dc5 0d3f c727 4d3e 5d74 a53e 3222 063e
00000240: b08f 1cbd c02c f13b eac3 3f3e af8f 92be
00000250: dee4 023e 6d00 cebd 610d ae3e 6083 0b3e
00000260: c79b 6e3c 4550 153e 8e07 05bc cbe3 edbe
00000270: 4aa2 283d 316a 623d 1ebe c1bd c2a5 47be
00000280: e675 38bc b4c1 fe3d c220 3ebe b3eb 533d
00000290: 577a b73d 7a2c 5c3e d5fa bb3d 6612 983c
000002a0: 07b7 21be 1687 ec3d 3540 0abd 2668 25be
000002b0: 8af5 803e d669 dcbe fd95 983b 216b 843e
000002c0: 596e 44bd 647a f7bd 5fe2 043d fd39 4c3d
000002d0: 3131 123e c2f3 5abe 2bde a6bc 53e7 dfbd
000002e0: 8504 34be 8062 4a3d e5c9 303e 34f8 cf3d
000002f0: fd1b 8d3d 9dd7 0f3d 2a68 f4bc 47f7 89bc
00000300: edfe 58bc f5b6 aabd cd01 a6bd 5e1e 363e
00000310: d622 773d f52c d03d 563f 1ebe 09a0 aebc
00000320: 0e48 cfbd 912f 213e 0eb2 87be e45f 78bc
00000330: 164a 8b3e 3557 0f3e c70c f13b d89e f63c
00000340: c89a ff3d 7a69 8a3e 341c 153e d65a 5cbe
00000350: fdb9 23bd a39e 8fbe 160a 593e 842c 7c3d
00000360: acbf ebbe e50c 043f d7d1 b9bd 82c9 88be
00000370: 746e db3d 2fd0 973d 7b52 c03e 01ba 6f3d
00000380: 1629 1f3d f4e0 62be 13fc 2cbe 80c1 803e
00000390: 80cf 7bbd 5349 3d3e 8012 d7bd 9330 c23e
000003a0: 213e d2bd 8ece cbbb cb21 9d3d 3ed7 bbbd
000003b0: 0d15 8fbd 7236 a73d d0bb 193d de5d f63d
000003c0: d030 bb3d bba8 f23d b17e 933e 885a 37be
000003d0: 3ca4 bbbe 555c ebbb 03b1 ccbd 563e c0bc
000003e0: 2764 ca3d d41d 64be c27d 083e 47fd 893e
000003f0: a81a 283d 1b7d 773d 7386 72be c806 efbe
-0.22945353 -0.014958188 -0.07098746 0.24156849 -0.2441389 -0.016016837 0.22012244 0.42533275
0.23929314 0.10654232 0.12039936 -0.17643987 -0.21865016 0.0857071 -0.032658007 0.02114973
-0.27568206 0.091399856 -0.10604765 -0.050299026 0.074725665 0.23270401 0.12358076 -0.049425814
0.2815605 -0.08109498 -0.20268351 -0.10010487 -0.25862044 -0.030858662 0.033384364 0.19711764
-0.050659988 0.6538346 -0.07853834 -0.23701395 -0.0014349304 -0.02385553 0.060154308 -0.022985572
0.15211344 -0.083346605 -0.30153337 -0.37508377 -0.021580603 -0.04132832 0.46652916 -0.18432952
-0.12389535 0.12617266 0.074576735 0.41241008 -0.06305371 0.013916625 0.047441997 0.17996359
0.036973875 -0.3054882 0.33761343 0.12036177 -0.22883421 0.32756898 -0.22860967 -0.14773627
0.118791066 0.058490124 -0.038479548 -0.16644095 0.08999242 -0.017170195 0.047568522 -0.056273725
0.22648798 -0.080668904 -0.21547817 -0.038180143 -0.31100622 0.0028213244 0.10507067 0.12041249
-0.18086167 -0.16856803 -0.46421516 0.06358843 -0.31456468 -0.3879713 0.0034294222 -0.23025508
-0.49863783 -0.056473102 -0.12846652 -0.18627617 -0.09171534 0.0041051167 -0.20544457 -0.03813088
0.09635618 0.3482625 0.1034154 -0.036409173 0.04738117 -0.044244554 0.35838306 -0.11174458
-0.027296001 0.13552895 0.018580768 0.060447477 -0.19081575 0.09985625 -0.014125453 0.015666159
0.06576553 -0.007493695 -0.2894488 0.013676698 0.3225489 -0.17183857 0.027342988 0.04377119
-0.045276716 0.12252709 -0.00011690458 -0.031740434 -0.30416426 -0.09248731 -0.38127908 -0.4499373
0.010804155 0.23722573 -0.15104432 0.01366369 0.18116602 -0.015180687 0.009161843 -0.2961762
-0.30741143 0.10367159 -0.414542 -0.2520317 0.5537918 0.20034705 0.3231534 0.13098982
-0.03822297 0.007360071 0.18727079 -0.28625247 0.12782618 -0.10058675 0.33994582 0.13624334
0.014563507 0.14581402 -0.008119477 -0.46462855 0.041170396 0.055277053 -0.0946009 -0.19496825
-0.011258578 0.1243929 -0.18567184 0.051738452 0.08958881 0.21501341 0.09178702 0.01856346
-0.15792476 0.11549203 -0.03375264 -0.1615301 0.2518733 -0.43049496 0.004656552 0.25862983
-0.0479568 -0.12083891 0.032442447 0.04985999 0.14276578 -0.21382049 -0.02036961 -0.109327935
-0.17579849 0.049410343 0.17264517 0.10154763 0.06890104 0.035117734 -0.029834826 -0.016841544
-0.013244373 -0.083356775 -0.08105812 0.17785022 0.060335957 0.10164825 -0.15453848 -0.021316545
-0.10121165 0.15740801 -0.26503032 -0.015159581 0.2720496 0.1399811 0.0073562595 0.03010504
0.12480694 0.27033597 0.1456154 -0.21519026 -0.039972294 -0.28050718 0.21195254 0.06156589
-0.46044672 0.51582175 -0.09073227 -0.26716238 0.10714427 0.07412755 0.37562928 0.058526997
0.038857542 -0.22156125 -0.16893034 0.2514763 -0.061477184 0.18485002 -0.105015755 0.37927684
-0.102657564 -0.0062196916 0.07672461 -0.091719136 -0.06986437 0.081646815 0.037532628 0.120296225
0.091401696 0.11848589 0.28807595 -0.17905629 -0.36648738 -0.0071826377 -0.099947 -0.023467224
0.09882384 -0.22277004 0.13329223 0.26951048 0.041041046 0.060422044 -0.23684101 -0.4668486

btcnn.layers.0.conv1d.bias f4 [128]
00000000: f62b 6d3e 2cf8 18bd 627e c23d 3f20 4f3e
00000010: be4a 2b3e 1ff8 d93d 47d2 b9bd f1fc b03b
00000020: c899 6e3d 563e 883d 936c b1bb 0c78 b03d
00000030: 0687 abbd 7e43 213e 4cbd e73c 15de 953e
00000040: afb0 c33d 96c9 ca3d 24cb 903d cd25 0a3e
00000050: 0d76 d43d 5cb8 3c3e 5f26 203e 02de 0c3e
00000060: 8fe7 a3bd 6b49 d2bc d323 7b3e ff4d 34bc
00000070: 933d 043e 2680 f93d aa7e 923e bfcb 4a3e
00000080: 8bd1 e1b9 9e24 0b3e 976a d0bd 71a2 843e
00000090: e306 1ebd d79c 8a3b b85b 2d3e fd1f e1bd
000000a0: dad2 3d3e e96e 073d ef79 efbc 0272 e4bd
000000b0: 9424 23bd 572f 1a3e 008f 7bbd c95e 8c3d
000000c0: 93e0 943e 8b87 ed3c eb3a 38bd 6b29 183e
000000d0: 9608 1d3e 6d51 e63d 693d 1f3d 37b6 2c3c
000000e0: b769 73bc 7e8c 23be 4173 0a3e f619 063e
000000f0: 1237 ee3d 4033 1a3e 475d ee3d 3ba9 a23e
00000100: d7a9 df3c 2ddf 713e 9d43 493d 9637 e6bd
00000110: 6d69 183e 9077 8a3e cbb2 d9bb e6c3 8b3c
00000120: d613 273e ba5a 473e 2752 523e d019 193e
00000130: 5b77 203e bbde b43d b97c d9bd 6187 753d
00000140: c6f6 333e 434a cc3d e0e7 e23d 1bec 3f3e
00000150: 5cc5 a53e d7b1 e3bd d496 183d 00e7 d73d
00000160: 2dd8 a0bd 5c26 223e e294 3b3e ee3c 4bbc
00000170: 10c8 7bbd 8e8b 9c3d bed7 dc3a 51b6 333e
00000180: 6edb 823c c749 cf3d 12f2 353d 6d26 fa3d
00000190: 0ba4 b93e 7748 a7bc bb4c 803e 820f 823e
000001a0: 30dd 54bd 3d90 963d 14da 433e 35c8 bd3d
000001b0: a488 bc3d 5bbb 473d afca 033e c0dc 093e
000001c0: 807d 943d 39b1 96bd f46b cabb 0fdf 5e3e
000001d0: 41b6 a23d b9f6 683d a158 1f3e d403 953d
000001e0: 3616 1f3e e343 a03d 98a2 1dbd 194d 253e
000001f0: 03e1 db3d d483 053e 72ba 71bd 1b1f a33e
0.23161301 -0.03734605 0.09496762 0.20227145 0.1672773 0.106430285 -0.0907331 0.0054012467
0.058252126 0.06652515 -0.0054145544 0.08616647 -0.08375363 0.15748402 0.028288506 0.29270998
0.09555184 0.09901731 0.07069996 0.13490982 0.10374079 0.18429703 0.15639637 0.13756564
-0.08003151 -0.025669774 0.24525385 -0.011004924 0.12914114 0.121826455 0.28612262 0.19804285
-0.00043071466 0.13588187 -0.101765804 0.25905183 -0.038580786 0.0042301225 0.16929519 -0.109924294
0.18537465 0.033064757 -0.029232947 -0.11154558 -0.039829805 0.15057121 -0.061415672 0.06854016
0.29077587 0.028995296 -0.044978064 0.1485955 0.15335307 0.112459995 0.038876925 0.01054149
-0.014856747 -0.15971562 0.13520528 0.13095841 0.116315976 0.15058613 0.11638885 0.31769738
0.027302666 0.23620291 0.049136747 -0.11241071 0.14883967 0.27044344 -0.0066436282 0.017061185
0.1631616 0.19468203 0.20539151 0.14951253 0.1567053 0.08831545 -0.10619492 0.05994356
0.17574605 0.09975102 0.11079383 0.18742411 0.32377136 -0.11117905 0.037253216 0.10542107
-0.07853732 0.15834945 0.18318513 -0.0124046635 -0.06147009 0.076438054 0.0016848964 0.17550017
0.015973773 0.10121494 0.04442031 0.122143604 0.36257967 -0.020420296 0.2505854 0.25402457
-0.051968753 0.0735173 0.19126159 0.09266702 0.0920575 0.04876266 0.12870286 0.13463116
0.072505 -0.07358021 -0.00617742 0.21764778 0.079449184 0.056875918 0.15561153 0.07276121
0.15535817 0.07825448 -0.03848514 0.16142692 0.10736277 0.1303857 -0.0590157 0.3185967

btcnn.layers.2.conv1d.weight f4 [27, 128, 3]
00000000: 7758 f8bd 8b8f 293e bdb4 d4bd 062d 553e
00000010: b14c e13c 735e e23d a9f7 0c3c 9e94 81bc
00000020: 6cca 863d d831 803d e081 10bd 4641 ff3d
00000030: 5ece aabd 41ea 123d 8a10 d73d 69ec 863d
00000040: ddc9 c3bc 5edb a73d 30a4 15bd dc82 a7bd
00000050: 032a 383d c9c5 a5be 61ca 92be af59 47be
00000060: ac50 02bd 2f5b 173c 9968 dd3d 61d9 a63d
00000070: 2491 3a3d d9c6 a73d ff21 56bd fcc2 b0bd
00000080: 9eb5 8c3d 3491 39b8 6c30 5abd 534d ef3c
00000090: f19f 89bd 54a4 203d 05eb b13d 8728 0a3e
000000a0: dedf 8d3d ed11 103c c941 af3d fb7e 08bc
000000b0: 6ea3 35bd f75d fcbe 165a 70be 1b82 033e
000000c0: d3e3 c6bd ca81 3b3d ab53 d63d 3d96 303d
000000d0: bb11 e8bd f56a 19be 2d8d bdbe 9c75 613c
000000e0: d319 5cbc c24f 1cbd f6bf b13c 63b6 a43c
000000f0: 2bff 903d 5907 883d b782 113e ce50 33bc
00000100: 49c4 5cbb 9628 243d e7b5 543c e436 6abd
00000110: 6b8e cc3d 2dc3 c8bd f50a 37be 90ad af3d
00000120: d0a9 74bd a0a7 e339 5de3 903d dc4c 8b3d
00000130: c998 463c 482e c23d be88 3bbf 5214 2abf
00000140: 26ef 8bbd 3049 863c 28b8 b5bd 7c10 88be
00000150: 8a8c 1cbe 2c0a 95be 57cf abbe 79fb debe
00000160: dacc fa3c 0d22 a63d 162d 883d c3a7 fabc
00000170: 0c31 563e 067a 33bd c69f 533d d6c9 5f3d
00000180: 70bf 5d3d a080 053c 8b3a 663e 91c4 8e3d
00000190: d34f 5f3c d860 333e e9d8 0abd 4e2d b9bc
000001a0: f642 613d 004a b23c 0248 edbc 31c2 d83d
000001b0: c723 0d3d 32c5 fc3c dcbe 223d 67d1 2abd
000001c0: 06d5 bf3b 0332 9dbc f50e b13d c2ae 2b3d
000001d0: 6384 bbbd 6a27 38be 1bf1 58be a4af 05be
000001e0: cd9f 5fbc eec5 a1bd 946f 0dbd 9d66 9abb
000001f0: 5632 eb3d 52af 68be ee69 adbb 12c0 85bd
00000200: 5b80 093e 77bb a03c 19ec 87bd 2f3a a1bc
00000210: 5b69 08bd 0235 93bd 7bb5 5f3d 2473 2abe
00000220: 9cf7 9bbe 5acb 86bd ecf2 583c f399 9bbc
00000230: 0acf 893d d0d5 053d 3a5f 83bd 1a31 cc3d
00000240: 79f6 4fbd aae1 88be e86b d33d bc6c 12be
00000250: 2ea3 4cbe 20c4 2cbd 7bcf 333d 6399 48bc
00000260: 8e36 f73c 1ada 5f3d 63d5 e73d 6f04 22be
00000270: 4b65 0bbf 648c 76bd 63bb bd3d 4288 143e
00000280: a954 403d c7d9 b6bd d78d 1fbe 31b4 6dbe
00000290: c879 4a3c 09ac 12bf ec14 273b 329d 4e3d
000002a0: ac5e 4d3e a10a 7ebd d311 bd3d 4cec 4e3d
000002b0: 5ea4 4a3d 48fc d7bd 792e d03d b619 313c
000002c0: 1a08 883d 3b44 b83d 3939 903e a311 15be
000002d0: 7800 bfbd 467e 17bd 8556 333d 178b c13a
000002e0: 485a 8c3d 2aaf fd3d a46c 2c3d bb67 163d
000002f0: 4a9c 1f3e 12cf 3cbf 5fdc ecbe 0ca5 f6be
00000300: 018b 113c 4daf b3bd 12b0 4a3d 08c1 96be
00000310: dd78 84be 85db 383d f874 28bd 2acb 3bbd
00000320: d5bf 723d 2f8e e5bb 5049 8b3c fe7c 493d
00000330: 8ab4 bb3d 5215 713d 62ce f13d 4ddd ec3b
00000340: 87bd 14bb 704a af3d 4de7 be3d 5ced c1bc
00000350: 39ee 4bba bbde 2b3c 9813 26be bbdc 1dbe
00000360: 0ff6 c6bd 9225 143e f2a7 a5bd 0fb6 14be
00000370: a122 acbe d58c b9be b543 54be 9d4d 84be
00000380: c39e d7be 4e4a c53d b7c7 2a3e 0237 ca3a
00000390: 759c 5a3d 804f 8a3d c385 823d a996 dcbe
000003a0: aa19 533e 11fe b63d 8f2d b6b9 9451 16bd
000003b0: c013 c3bc 2355 ad3b de07 c0bb d852 9a3d
000003c0: b6f4 b13d 2b84 c23d 7626 8fbe be95 d0bc
000003d0: f21b 4d3c 1544 23be d585 4d3d 25f8 163d
000003e0: 9ec5 5ebd 1b05 a53d 3d35 fb3d cb88 2fbe
000003f0: 1d79 0fbf 61cd 1abe 4a45 38bf 9ffa e9bb
-0.12126248 0.16558664 -0.103860356 0.20817956 0.02750239 0.11053171 0.008603969 -0.015817937
0.06581578 0.06259507 -0.03528011 0.12463622 -0.08340143 0.035867933 0.105012015 0.065880604
-0.023899967 0.08196138 -0.036533535 -0.08179256 0.04496194 -0.3237746 -0.28670028 -0.19467805
-0.031815216 0.009238048 0.10810966 0.081469305 0.045548573 0.08192224 -0.052278515 -0.0863094
0.06870578 -4.4242668e-05 -0.053268835 0.029211676 -0.067199595 0.039219216 0.086874045 0.13492022
0.06927465 0.008793336 0.085574694 -0.008331056 -0.04434531 -0.4929044 -0.23471865 0.128426
-0.09711423 0.045778073 0.10465177 0.04311203 -0.11331507 -0.14982207 -0.3702177 0.01376095
-0.013433891 -0.038162 0.02169798 0.0201065 0.070799194 0.066420265 0.1421002 -0.010944558
-0.003368633 0.04007777 0.012982822 -0.057181254 0.099881016 -0.09802852 -0.17875274 0.08578026
-0.05973226 0.00043421704 0.07074616 0.06801769 0.012121388 0.09481484 -0.73255527 -0.66437256
-0.06832723 0.01639232 -0.08873016 -0.26575077 -0.15287986 -0.29109323 -0.33556625 -0.43551233
0.030615259 0.081119634 0.066492245 -0.030597573 0.20917147 -0.043817542 0.051666044 0.054635845
0.054137647 0.008148342 0.2248327 0.06971086 0.013629871 0.17517412 -0.033898268 -0.02260461
0.0549955 0.021763802 -0.028965 0.10583914 0.034457948 0.030855749 0.0397328 -0.041703608
0.005854252 -0.019188887 0.08645431 0.04191471 -0.0915611 -0.17983785 -0.21185724 -0.13055283
-0.013648939 -0.0789908 -0.034530237 -0.0047119395 0.1148421 -0.2272313 -0.005292169 -0.06530775
0.1342787 0.01962064 -0.06636829 -0.019681064 -0.0333036 -0.07187845 0.054616433 -0.16645485
-0.30462348 -0.06581755 0.013241511 -0.018994307 0.06728943 0.03267461 -0.064146474 0.09970303
-0.050772164 -0.26734668 0.10323316 -0.14299291 -0.19984123 -0.042179227 0.04389904 -0.0122436015
0.03017738 0.054651357 0.11319997 -0.15822004 -0.54451436 -0.06019248 0.09264257 0.14505103
0.04695574 -0.089282565 -0.15581451 -0.23213269 0.0123581365 -0.57293755 0.0025494648 0.050442882
0.20055646 -0.062021855 0.09231915 0.05051832 0.04947316 -0.10546166 0.10165114 0.010809353
0.0664217 0.08997389 0.28168657 -0.14557509 -0.09326261 -0.036985658 0.043783683 0.0014766183
0.06853157 0.123869255 0.042095795 0.03672002 0.15586963 -0.73753464 -0.4626188 -0.48172796
0.008883239 -0.0877367 0.04948432 -0.29444146 -0.2587346 0.045131225 -0.041127175 -0.04584805
0.059264977 -0.007005475 0.017002732 0.049191467 0.091652945 0.058858223 0.118069425 0.0072285295
-0.0022695975 0.0855912 0.09321461 -0.023672752 -0.00077793334 0.010490115 -0.16218412 -0.15416233
-0.09714901 0.14467457 -0.08088674 -0.14522575 -0.3362017 -0.3624026 -0.20728953 -0.25840464
-0.42113313 0.09633313 0.16677748 0.001542777 0.053371865 0.06753445 0.06373169 -0.43083695
0.20615259 0.08935178 -0.0003474769 -0.036698893 -0.023813128 0.00528969 -0.005860313 0.075353324
0.08689253 0.09497865 -0.2795903 -0.025462028 0.01251887 -0.1594394 0.05017646 0.036857743
-0.05438768 0.080576144 0.12266014 -0.17142026 -0.5604418 -0.15117408 -0.71980727 -0.007140472

btcnn.layers.2.conv1d.bias f4 [27]
00000000: c784 943b 5c22 9ebc d6be 5cbd 5552 e43c
00000010: a9c9 d1bc 16c0 9f3a 7135 5abb abd0 9b3c
00000020: ea31 7a3d 624d d0bb fd6a 45bd f2a8 cd3c
00000030: f327 6ebc 49c9 2a3c b148 9abc 7a3a 59bd
00000040: 5309 303e aa40 29bd 558c 253d ed5a c8bc
00000050: be9c 1cbc d9e6 003d 30f7 423c acc2 103d
00000060: dbee b0bc a11d 9a3c 9725 b1bc
0.00453243 -0.019303493 -0.053892933 0.02787129 -0.025608854 0.0012187983 -0.0033296014 0.0190204
0.061082758 -0.006356881 -0.048197735 0.025104973 -0.014535892 0.010423967 -0.01883349 -0.053034283
0.17191057 -0.041321434 0.040417034 -0.02445742 -0.009558855 0.031470153 0.011899754 0.035341904
-0.02159827 0.018812956 -0.02162437

fcnn.0.weight f4 [64, 27]
00000000: b568 7c3e 3f3c 763e 39f2 743e 106e 163e
00000010: 151e 8a3e 458b 983e 766d 903e e2c9 35be
00000020: 51da 7a3b 1557 99be ccff 91be 8bd4 12b9
00000030: f2a6 413e b460 ddbe 5033 f5be 79fc dcbe
00000040: 5a67 b63c 643d cd3d 62a2 e5bd 5470 e33c
00000050: 73a7 2d3e 39dd c93b 40f1 463e 0a75 e13c
00000060: 9942 a93d c7e8 943e e451 c3be a9a2 26bd
00000070: 3f6c 97be a7b3 94bd 619f 523d c4c1 9bbe
00000080: a150 acbd 0446 f6bd 6755 ac3d 22e7 8c3d
00000090: 61ac 30bc 67a6 2d3e bcdf 873d 8033 e1bd
000000a0: 742e 853e deb8 a63e 6f78 ae3e 3571 4d3e
000000b0: e3eb f83d 07c0 e63d d382 f1bd 0e1f 603d
000000c0: 4a31 89be 5c89 6bbe 218e 76be 26a3 73be
000000d0: 3b5f 7abe 49b3 4a3e 481a f43d 5eb6 6a3d
000000e0: b4ec debd 8bbc 653d e49b 5b3d 39a8 45be
000000f0: e4cf 44be 6de1 7c3e e015 a0bd ff0a 71bd
00000100: 2c91 e33d 688e b13c 1cf5 a6bd cacd 8f3e
00000110: 44c8 00bd 805f 333c 727c febd d26f 073e
00000120: 0b3c 03be 9ec5 003e 6e60 0a3e 826b c2bd
00000130: e402 133d 2833 c43d 50a3 243e 677a 3ebd
00000140: 2e96 213d 645e 82be 9c31 82be 5251 3dbe
00000150: edc5 0abe 712b 8dbe 1c08 2bbe 196f b93b
00000160: b1b3 3e3d 3e5e 88bd 62d5 633b 62e0 1c3e
00000170: 5c31 86be 92f8 61be b537 fd3e 2457 d93d
00000180: 938a f73e e958 783e aff5 7bbe 9ec3 1b3d
00000190: ffe3 17be 9bea 813c 6c8d 19be 562b 89be
000001a0: cfd9 b33d 07ba ecbd f4e4 60be 8685 fb3e
000001b0: b236 143e db05 e23d 92f1 363d 916d 623e
000001c0: 9242 7d3e 8cef 333d 6fbc 553e a763 76bf
000001d0: b5ed 73bd 030d aebe 976e 59bf b08e 5a3e
000001e0: ed27 783e cedb c3be e301 26bf d316 80bf
000001f0: 18ff 0e3c 553f cc3d 0ef6 18be 84d4 7a3e
00000200: ffaf 873e 4ca0 b33d 31b9 a13e ccc3 a03c
00000210: f337 d23e 8b33 9b3d 1422 20bf 2fe1 c33d
00000220: 5bfd 8d3c 2626 223d fc75 dc3d ded5 8cbe
00000230: a97d 043e bf3e 62be b043 b4bd ab90 ea3d
00000240: 0fbe 24be 8634 023e a2ff 5dbe b92e 2f3e
00000250: b443 d33e a2e4 20be b71b 1c3e 1f22 173e
00000260: b65b b6bc 3a1d 84bc c38f b13d 0239 9dbe
00000270: 214d 933d 6f19 6abe b7f5 bbbd fc96 9bbc
00000280: 7456 d5bc ee1a 713d e18e a6bd 89fe 8bbe
00000290: 7f11 42be 6f6f 83be e816 93be 17e2 a639
000002a0: e3fe 70be 8b8a e5bc 0693 abbd 951d 3e3d
000002b0: 1673 c13e 6102 96bd d2b9 17be 785d fe3e
000002c0: 5976 993e 33b2 d13e bc53 6a3e f6a8 acbd
000002d0: 84fd 84bd 3bb6 06be 5f7b 7fbe 1137 61be
000002e0: acaf 53be b55a ccbc e309 3ebd 0816 6dbe
000002f0: 9e9d a63e 7356 d7bc 0307 87bd c977 47be
00000300: b717 0dbe 10d2 9bbe 4a61 35bb db9b dabd
00000310: 57ad 543e 98e9 003e 3324 803e 006a a83d
00000320: 4c02 03be 224a 6bbe 5507 a43e 11bf bb3e
00000330: 1cf1 7a3e f753 ab3d 828d 80be 9cdf adbd
00000340: f625 453c 4a64 6bbc 68fc 1abe a5c3 dcbd
00000350: b566 8ebe fdbb a2be 55da 01be 74b5 703e
00000360: 2a71 e13b 26db 21be 0c2b 3dbe ff04 8bbe
00000370: 27ad b6be dbc6 85be aee6 6dbd 6b83 ce3d
00000380: 9ee3 f8bc 1bbd 913e 3977 753e 24d5 d5bc
00000390: 4017 a939 3d27 133f 91de 853e 9368 923e
000003a0: 9397 6d3e 9965 f0bc 0478 bbbd 285d 62bd
000003b0: c1ac 7bbe 05c6 a6be 0856 69be 0c49 62be
000003c0: 6010 62bd 58c1 d7bd c9a2 c03e 64bf 6a3d
000003d0: 6cde 213d ff83 eebd 949d 1d3e 2586 23be
000003e0: e197 bfbd 7465 0d3d be45 9e3d 4b65 073d
000003f0: 27b3 a83e f2b1 963e b9f8 f1bc 44b6 e33d
0.24649318 0.2404642 0.23920526 0.14690423 0.26976076 0.29793754 0.28208512 -0.17752793
0.00382771 -0.2994925 -0.2851547 -0.00014002823 0.18911341 -0.4323784 -0.4789071 -0.4316137
0.022266079 0.10021475 -0.11212613 0.027763523 0.16958408 0.006160405 0.19427967 0.027521629
0.082646556 0.29083845 -0.38148415 -0.04068247 -0.29574773 -0.072608285 0.051421527 -0.3042127
-0.08413816 -0.12025073 0.08414727 0.068800226 -0.010783286 0.16958009 0.06634471 -0.10996151
0.26012003 0.32562917 0.3407626 0.20062716 0.12154367 0.11267095 -0.11792531 0.054717116
-0.26795417 -0.23001617 -0.24077655 -0.23792705 -0.2445039 0.19794954 0.11919075 0.057302825
-0.10884991 0.05608801 0.053615466 -0.19302453 -0.19219929 0.24695368 -0.07816672 -0.058848377
0.11111674 0.02167435 -0.0815222 0.28086692 -0.03144099 0.010948062 -0.1242608 0.1322625
-0.12815873 0.12575385 0.13513348 -0.09493162 0.03589143 0.0958007 0.16077924 -0.04650345
0.039449863 -0.2546264 -0.25428474 -0.18488052 -0.13552065 -0.27572206 -0.16702312 0.005658996
0.046558086 -0.066586 0.0034764637 0.1531997 -0.26209533 -0.22067478 0.49456564 0.10612324
0.4834791 0.24252667 -0.2460544 0.038028352 -0.14833067 0.015858939 -0.14995354 -0.26790875
0.08781778 -0.115589194 -0.21962339 0.49125308 0.1447399 0.11036273 0.044663973 0.22112109
0.24732426 0.04392962 0.20872663 -0.9624581 -0.059552867 -0.33994302 -0.8493437 0.21343493
0.2423398 -0.38253635 -0.6484663 -1.0006965 0.008727811 0.09973017 -0.14937612 0.24495131
0.26501462 0.087708086 0.31586602 0.019624613 0.4105831 0.075781904 -0.62552 0.09564435
0.017332723 0.039587162 0.10764691 -0.27506918 0.1293856 -0.22094248 -0.08801973 0.114533745
-0.16088127 0.12715349 -0.21679547 0.17107667 0.4126259 -0.15712216 0.15244947 0.1475911
-0.022260528 -0.016127218 0.086699985 -0.30707556 0.071924455 -0.22861265 -0.09177726 -0.018992893
-0.0260422 0.058863573 -0.08132721 -0.27342632 -0.18951987 -0.25670955 -0.28728414 0.00031830437
-0.23534732 -0.028020164 -0.08377652 0.04641493 0.37783116 -0.073246725 -0.14816979 0.49680686
0.29973105 0.40956268 0.22883505 -0.08430664 -0.06493667 -0.13155453 -0.24949406 -0.21993662
-0.20672482 -0.024945596 -0.046396147 -0.23152936 0.32542127 -0.02628634 -0.06593134 -0.19479288
-0.13778578 -0.30433702 -0.0027676397 -0.10674258 0.20769249 0.12589109 0.25027618 0.08223343
-0.12793845 -0.22977498 0.32036844 0.3666921 0.24506038 0.083656244 -0.25107962 -0.08489916
0.012032976 -0.0143671725 -0.15135348 -0.10779504 -0.27812734 -0.3178405 -0.12680943 0.23506719
0.0068799453 -0.15806255 -0.18473452 -0.2715225 -0.3567898 -0.26128277 -0.05808132 0.1008366
-0.030381974 0.2846459 0.23971261 -0.02610261 0.00032251514 0.5748175 0.26146367 0.2859541
0.23202352 -0.02934532 -0.091537505 -0.055264622 -0.24577619 -0.32572952 -0.22786725 -0.22098178
-0.055191398 -0.10534924 0.37624195 0.05731143 0.03951876 -0.1164627 0.15392143 -0.15969141
-0.093551405 0.03452058 0.07728146 0.033055585 0.32949182 0.29432636 -0.029537546 0.11118749

fcnn.0.bias f4 [64]
00000000: 7281 1a3e 9c63 033e bf55 03be 2b1f 9b3d
00000010: 16a0 4cbd 4e2f 9e3d 7580 2fbd 1480 c2bd
00000020: 7d2e 92bd 2f14 01be 0a47 09be f250 b4bd
00000030: f6ff 533d 77a9 0ebe eb08 6d3d 401c d1bc
00000040: 9ceb 48be 210c 273e 91a0 b3bd 7d60 dc3d
00000050: 4520 4ebe 5d27 943d 76c3 b83d e367 83bd
00000060: 5631 533d 7447 21be 0aab 463e dea1 873e
00000070: 8e7c 533d a29f a3bd 7133 bebd 0111 0abe
00000080: 45f4 9bbd e457 433d 802f 50bd b08e 05be
00000090: 16b3 1f3e 5ba0 c2bd 2d78 4bbe a781 e43d
000000a0: 115f 953d b97f 2dbe d0b7 cabd 7e06 283e
000000b0: 8a6d 97bd 5763 3b3d 249d de3d 0fd9 19be
000000c0: 9a01 ecbc 8016 c2bd be4f e63d 8523 04be
000000d0: 5650 d3bd 6dda 7a3d e14f 3fbe 9f9b 463e
000000e0: 60b2 fdbd 33b7 00bb fb40 ac3a 3676 d63c
000000f0: 8a5b a33d 4c23 62bd 60ae 263d 983b 2cbd
0.15088442 0.12830967 -0.12825678 0.07574304 -0.049957357 0.077238664 -0.042847116 -0.09497085
-0.07137773 -0.12605356 -0.13406006 -0.088045016 0.051757775 -0.13931833 0.057869833 -0.025526166
-0.19621128 0.1631322 -0.0877086 0.10760591 -0.20129497 0.072340705 0.09021656 -0.06416299
0.051560722 -0.15749913 0.19401184 0.26490682 0.051632456 -0.07989432 -0.092871554 -0.13483049
-0.0761495 0.04769124 -0.05082655 -0.13042712 0.1559566 -0.09503242 -0.19870062 0.11157542
0.07293523 -0.16943254 -0.09898341 0.16408727 -0.0739394 0.045749035 0.10869816 -0.15024208
-0.028809357 -0.09476948 0.11245678 -0.12904175 -0.10318057 0.061243463 -0.18682815 0.19395302
-0.12387538 -0.0019640445 0.0013141924 0.026179414 0.07976444 -0.055209443 0.04069364 -0.04204902

fcnn.2.weight f4 [1, 64]
00000000: fa89 903e 09c3 9fbe 593e 9abd 36c2 39be
00000010: 9229 723f c474 d3be 33bb e8bd a1a9 8cbe
00000020: bfb5 1bbe 914e aebe a128 b7be 9fa6 753f
00000030: d8d7 a13e 55a3 603e 82a2 9abe fa84 b9be
00000040: f43e d53e 0d54 803f 05fa a2be 970b 793f
00000050: 23e6 ba3e 2408 3a3e 58c0 d43e e048 d2be
00000060: a00d 33be 924d ab3e f339 623f 85f5 9cbe
00000070: 9827 31be 5da4 50be 77c3 27bf f5d9 16be
00000080: 9718 dbbe f17e 33be 1c77 9b3e 2f4b 6c3f
00000090: eca6 8c3e c310 4b3f f2c0 5a3e 519e 69be
000000a0: b8e7 84be 9743 60be babd 6dbe c185 bdbe
000000b0: c2b4 83be 9d6f b6bd 26b4 5cbe e8e6 a7be
000000c0: a6c8 803f 52e7 7e3e 0b93 253f e436 2e3f
000000d0: 71f5 1fbe e367 843e 2ef5 45be fc76 9ebe
000000e0: 3118 70be 2133 813f 895c a1be 038b a5be
000000f0: 7512 f0bd 90a5 aa3e 760d 6fbe 818a b9be
0.28230268 -0.31203488 -0.07531423 -0.18140492 0.9459468 -0.41300023 -0.113638304 -0.27473167
-0.1520605 -0.34044316 -0.35773185 0.9595737 0.31609988 0.21937306 -0.3020211 -0.36234266
0.41649592 1.002565 -0.31831375 0.9728331 0.36503705 0.18167168 0.41552997 -0.41071224
-0.17485666 0.3345762 0.88369673 -0.30656067 -0.1730026 -0.203752 -0.6553263 -0.14731582
-0.42792198 -0.17528893 0.3036431 0.9230222 0.274711 0.7932245 0.21362665 -0.22814299
-0.25958037 -0.21900783 -0.23216906 -0.3701611 -0.25723845 -0.08908007 -0.21553096 -0.32793355
1.0061233 0.24892929 0.64677495 0.68052506 -0.15620972 0.2586051 -0.1933181 -0.30950153
-0.23446728 1.0093728 -0.3151591 -0.3233262 -0.117222704 0.3332944 -0.23344979 -0.36238483

exp_avg f4 [128, 27, 3]
00000000: eb16 e43f 7094 323e 0000 0000 8243 3a3e
00000010: 71c6 7bbe 613d eebe 5e07 f7be 03b2 6a40
00000020: 6ec5 a6bd 6d5b 2bc0 a670 923e b393 2dbe
00000030: 7371 593a fa0f 3a3a 0000 0000 b5b3 1a3a
00000040: 4c49 3eba 0000 0000 c195 2b3b 3b20 003b
00000050: 0000 0000 4519 d33e 1b20 adbd 0000 0000
00000060: 986c b5be 0000 0000 f949 a6bc a822 2b3e
00000070: 6403 553c 0000 0000 8029 4434 c781 39b5
00000080: 0000 0000 6747 263d 4d11 7a3c 7aca 0bbd
00000090: 38f6 702f 7eac 3bb0 0000 0000 1240 ca3f
000000a0: 29da 93bc 0000 0000 4b5e 19ba e891 a2ba
000000b0: 0000 0000 7094 323e 8648 93bf eea8 a1be
000000c0: d96f d8bc 625a 3cbd 0000 0000 ae77 3340
000000d0: 65e5 483e 0000 0000 b831 563a 9813 a6ba
000000e0: 0000 0000 1432 61bd c5e8 d53f 3fce 2ebe
000000f0: 27bc efbf 48f2 95bf 4696 9fbe 2ec5 54c0
00000100: d39a 28bf 915d 49bf 98aa a53a c3dc 03bd
00000110: 0000 0000 9104 7b3d 3baa 0abe 0000 0000
00000120: c53c edbd 0000 0000 1132 61bd b680 b4c1
00000130: 214b 3e41 7000 87c1 9312 d041 d64e 08c1
00000140: 9730 bdbf 74d4 b43c a9e5 7c3d 0000 0000
00000150: a77a 2f3e f3a6 123b 4751 fb3d 65c4 b63e
00000160: 470e 39be 8127 3db7 5bf0 edbd fc8c ed3d
00000170: dec0 f23c c7b0 92bd 850b d7bb 0000 0000
00000180: f9d2 12bc 046a 35bc 0000 0000 aefa 1d3c
00000190: a7f8 b3bd 0000 0000 6a25 10ba 02f0 a23c
000001a0: 0000 0000 96d1 2e3f 0000 0000 2dee 8b3c
000001b0: 19d7 e73d d4f0 c43d 0000 0000 f6d9 7bb0
000001c0: 531d 50b3 0000 0000 7ac8 44bc b94b dcbb
000001d0: ef47 27be 50a7 44b1 3db4 41b3 0000 0000
000001e0: 5ebd afba 3a71 713d 0000 0000 a339 d6bd
000001f0: a792 1e3c 0000 0000 a9e5 7c3d 8ce6 703c
00000200: f0bd 0c40 38cb cdb8 6a85 20b9 0000 0000
00000210: 7a5d b3bf 805a 4bbd 0000 0000 6841 3d3d
00000220: aa3b 993d 0000 0000 6c2c 5c3e 69ac de3e
00000230: aabb 8dbc fde4 7740 7fa0 6140 8857 91bc
00000240: 38aa 98bf 7e55 66be 85da 0340 48f9 0b3a
00000250: 4e2c fdbb 0000 0000 5475 98bd 639e 25bd
00000260: 0000 0000 2205 8ebd 0000 0000 6c2c 5c3e
00000270: 543b 5941 05d0 bc41 6edf 1e41 025c 0f40
00000280: b11e 9c40 6f93 9540 7467 813e d281 f5bc
00000290: 0000 0000 08b9 3e3d e9c6 81bd 79b3 b13d
000002a0: 8b1c 063d 1e94 4ebe 7209 ac3b db85 be3e
000002b0: e077 bbbd 3ec0 883d 1bc4 2fbc 9052 a33c
000002c0: 0000 0000 7771 8f3b f27d c73c 0000 0000
000002d0: e64f 2fbd 8687 4a3d 0000 0000 dece 5ebd
000002e0: 1a98 b23d 0000 0000 cf9b aebe 0000 0000
000002f0: 0dae 933e 6997 1cbd 9b76 20bd 0000 0000
00000300: 2b78 17b3 49d4 0230 0000 0000 e760 553d
00000310: 3427 1a3c 4223 b5bd 6d89 632f f923 d832
00000320: 0000 0000 3450 13be 9830 8a3d 0000 0000
00000330: 8efc f3bc 9b2a c83d 0000 0000 d681 f5bc
00000340: 4839 b23d 7fb4 cabd 0a0f 65bb 09b3 513c
00000350: 0000 0000 c864 0e3f b21c abbc 0000 0000
00000360: dfc7 fe3b 1b96 cebc 0000 0000 966b c4bc
00000370: 5315 d7be 01d9 343c e365 2b3e baf1 cebe
00000380: fb49 cbbc 6f5c 4a3d d4af 513f 9d06 3cbd
00000390: 2197 293b 28d3 b5bb 0000 0000 99d6 c1bd
000003a0: 7ded 033d 0000 0000 5054 7739 0000 0000
000003b0: a66b c4bc 347c 6dbf fe62 cb40 395c ff40
000003c0: f935 4fc0 f0e3 6440 8da7 853e a978 43bd
000003d0: ed0b 143e 0000 0000 3ceb 963c 49ff febd
000003e0: dcfe 1ebd 71cc 98be 5c7e 0fbe 8c0b b837
000003f0: 4a85 873c 6a1c 403d e4de 003e 6f9d 9abc
1.7819494 0.17439437 0.0 0.18189815 -0.24587418 -0.46531203 -0.48247808 3.667115
-0.081431255 -2.6774552 0.2860157 -0.16950874 0.00082947983 0.00070977176 0.0 0.0005901412
-0.0007258847 0.0 0.002618179 0.001955046 0.0 0.41230217 -0.08453389 0.0
-0.35434413 0.0 -0.020298945 0.16712439 0.013001297 0.0 1.826902e-07 -6.910672e-07
0.0 0.04059544 0.015262914 -0.034128644 2.1915347e-10 -6.827533e-10 0.0 1.5800803
-0.018048363 0.0 -0.00058505376 -0.0012403103 0.0 0.17439437 -1.1506507 -0.31574196
-0.02642052 -0.045984633 0.0 2.8041797 0.19618757 0.0 0.0008170861 -0.0012670634
0.0 -0.0549794 1.6711661 -0.17070864 -1.8729295 -1.1714563 -0.31169337 -3.324535
-0.65861243 -0.78658396 0.0012639342 -0.032192957 0.0 0.06128365 -0.135415 0.0
-0.115838565 0.0 -0.054979388 -22.562847 11.893342 -16.875214 26.00907 -8.519247
-1.4780453 0.022073962 0.06174246 0.0 0.17136632 0.0022377342 0.12271362 0.35696712
-0.18071853 -1.1274476e-05 -0.1161811 0.11599156 0.029632982 -0.07162624 -0.0065626525 0.0
-0.008961433 -0.011072639 0.0 0.009642286 -0.08787661 0.0 -0.0005498739 0.019889835
0.0 0.6828855 0.0 0.017081345 0.113203235 0.09616247 0.0 -9.162301e-10
-4.8455444e-08 0.0 -0.012010688 -0.006722894 -0.16336034 -2.861686e-09 -4.510024e-08 0.0
-0.0013407876 0.058945872 0.0 -0.10460212 0.009678519 0.0 0.06174246 0.014703404
2.1990929 -9.813014e-05 -0.0001530849 0.0 -1.4012902 -0.049646854 0.0 0.046204954
0.07482083 0.0 0.2150132 0.43490914 -0.0173014 3.8733513 3.525421 -0.017741933
-1.1926947 -0.2249355 2.0602124 0.0005339575 -0.007726229 0.0 -0.074442536 -0.040434252
0.0 -0.06934573 0.0 0.2150132 13.576984 23.601572 9.929548 2.2399907
4.8787465 4.6742473 0.2527424 -0.02996913 0.0 0.04656318 -0.06336767 0.0867681
0.032742064 -0.2017369 0.0052501494 0.372115 -0.09153724 0.06677292 -0.0107279075 0.01993683
0.0 0.0043775397 0.024352048 0.0 -0.042800806 0.04944565 0.0 -0.054396503
0.08720417 0.0 -0.34103248 0.0 0.28843728 -0.038230333 -0.03917561 0.0
-3.526672e-08 4.75954e-10 0.0 0.052094366 0.009408761 -0.088446155 2.0694353e-10 2.5162068e-08
0.0 -0.14386064 0.0674755 0.0 -0.029783513 0.09773751 0.0 -0.029969137
0.08702332 -0.09897708 -0.003495159 0.012799033 0.0 0.5562253 -0.020887706 0.0
0.0077752913 -0.02521806 0.0 -0.023977082 -0.42008457 0.011038066 0.16738085 -0.40418798
-0.02481555 0.049404558 0.8190892 -0.045904744 0.0025877433 -0.0055488534 0.0 -0.094647594
0.03220891 0.0 0.00023587164 0.0 -0.023977112 -0.92767644 6.355834 7.9800076
-3.2376692 3.5764122 0.26104394 -0.047722492 0.14457674 0.0 0.018422715 -0.124510355
-0.03881727 -0.29843476 -0.14013046 2.1939886e-05 0.01654305 0.046902098 0.12585026 -0.018873898

exp_avg_sq f4 [128, 27, 3]
00000000: 5a75 df42 8dc3 0a41 0000 0000 774f d73f
00000010: b767 183f 96f9 2240 fe03 6841 2b16 1443
00000020: 8d54 473e 19ff 7c42 5b3b af40 8b55 1d40
00000030: 787d 8d38 cfe8 ad37 0000 0000 3a51 3c35
00000040: bf2f 2d36 0000 0000 b2bd 573a 0692 8539
00000050: 0000 0000 e5a5 0240 52c5 7c3f 0000 0000
00000060: faf8 ec40 0000 0000 7b8e 753e 2c21 5d3f
00000070: a50e 463b 0000 0000 1a6a 1334 2958 c534
00000080: 0000 0000 79d4 6b40 b9ba 103d f297 273f
00000090: ae20 0429 1c29 0e2b 0000 0000 b4d1 d040
000000a0: 27d1 cd3c 0000 0000 4676 4638 ea51 9137
000000b0: 0000 0000 8dc3 0a41 96e0 4e41 ed06 a541
000000c0: 5b2e d13c de7a 5a3d 0000 0000 4c1f c843
000000d0: 190d ab3f 0000 0000 bb4d 1f38 e8ec 6c39
000000e0: 0000 0000 0b23 ec3e 5d09 2342 1c58 2240
000000f0: b623 3f42 338b 6c43 f357 0240 f943 ea42
00000100: 9ea5 2141 c925 e641 04e7 133e 5c92 f43e
00000110: 0000 0000 b7bc e13e b3f1 923f 0000 0000
00000120: 6ef0 223f 0000 0000 0b23 ec3e 210e 1f46
00000130: 78df d444 7977 5845 c50a 7d45 3b7a 3745
00000140: d08e 6442 399b d23d 0663 1b3e 0000 0000
00000150: af22 f83e 0c54 b53e 156c 7f3e 5718 9140
00000160: ee94 bc3f ec06 5034 315d a63f 1811 2e40
00000170: 7945 553d 1aaa d73d 4c4a 5e3d 0000 0000
00000180: f882 003a d28a 803c 0000 0000 4524 443f
00000190: 738f 5c3f 0000 0000 1b08 a336 3a80 0d3c
000001a0: 0000 0000 a2ff bd40 0000 0000 668a 2141
000001b0: 9ad5 b33d e3b6 6b3d 0000 0000 cc27 3a2d
000001c0: a2ed 8d32 0000 0000 a6d5 543c 08a3 5f3e
000001d0: 0a75 703f 00f4 7831 f386 8f31 0000 0000
000001e0: 7ef8 6537 2b83 203d 0000 0000 dcf0 353d
000001f0: cfdd 173e 0000 0000 0863 1b3e 9ce6 443c
00000200: 9e55 b942 1f30 3636 ef78 4e3b 0000 0000
00000210: 46ff 6641 3fa7 223d 0000 0000 a0ae 633d
00000220: 8e45 703d 0000 0000 e6f9 e53e f3f0 693f
00000230: 81ce b03b 25f5 0843 e8d4 c142 d5a7 bf3b
00000240: 6d75 2141 1e24 6041 dbfa d041 c6f3 6d37
00000250: 882d 0d3d 0000 0000 fad0 743e 43d5 ab3d
00000260: 0000 0000 c84a e83e 0000 0000 e5f9 e53e
00000270: 72f4 0446 90ad ea45 5792 6745 3a59 c142
00000280: c4d9 8b43 1506 0c43 03cd be40 d94f 503f
00000290: 0000 0000 b7be 4d3e 6c92 4e3e 1897 543e
000002a0: 3164 953f 3a88 3240 f352 9b3b 4299 7a3f
000002b0: 3ff5 2f3f 4c81 023e fdb0 483c 2f07 d53c
000002c0: 0000 0000 4f01 f038 74b0 773b 0000 0000
000002d0: fc8a 1e3e 21a3 6b3e 0000 0000 f883 f13c
000002e0: 2c21 4d3d 0000 0000 3838 0540 0000 0000
000002f0: 26b0 3e40 3400 483d d6cd 133d 0000 0000
00000300: c497 d932 e8ba 5434 0000 0000 82a5 4e3d
00000310: 8f9b 4e3d 3605 333e 4a4e 9b2f 8c77 6c31
00000320: 0000 0000 d57a 943d 5604 e53c 0000 0000
00000330: 8b89 cd3b 4466 153d 0000 0000 d94f 503f
00000340: 759a 1a3e d12f bb3f d4ad 8a3a 06ad 2f3c
00000350: 0000 0000 9d43 2841 713d 963c 0000 0000
00000360: 263e b63c 59a8 053d 0000 0000 7df6 323f
00000370: 88bc 733f d217 093d ef8e 9540 257a 2a41
00000380: bc54 bb3d aa65 b13f 0353 5440 8415 0140
00000390: ed70 263c 4394 143d 0000 0000 667a 7d3d
000003a0: 9ab1 783d 0000 0000 426b 123e 0000 0000
000003b0: 7df6 323f fa65 9443 80ee f943 75cb ec43
000003c0: c4ec 0343 721c 8a43 01af ba40 4fef a23e
000003d0: 30d8 7f3e 0000 0000 7340 e73e b2e5 8a3e
000003e0: 5e54 6a3e 3762 b63f 58b0 5e40 3b10 5838
000003f0: 9ef3 5e3f 684f 983f 7ae1 c73e 84e6 ef3b
111.7292 8.672742 0.0 1.6821126 0.59533256 2.5464835 14.500975 148.0866
0.19465847 63.24912 5.4759955 2.4583461 6.746774e-05 2.0731617e-05 0.0 7.015366e-07
2.58068e-06 0.0 0.0008229866 0.00025476533 0.0 2.0413754 0.98738587 0.0
7.4053926 0.0 0.23980133 0.8637874 0.0030221131 0.0 1.3729041e-07 3.6758254e-07
0.0 3.6848433 0.035334323 0.65466225 2.9338233e-14 5.0505585e-13 0.0 6.5255985
0.025124146 0.0 4.731703e-05 1.7323491e-05 0.0 8.672742 12.929831 20.628382
0.0255348 0.05333983 0.0 400.2445 1.3363372 0.0 3.7980946e-05 0.00022594968
0.0 0.46120486 40.759144 2.5366278 47.784874 236.54375 2.036618 117.13276
10.102934 28.76845 0.14443594 0.47767913 0.0 0.4408929 1.1480011 0.0
0.63648117 0.0 0.46120486 10179.532 1702.9834 3463.467 4048.673 2935.6394
57.139465 0.102835126 0.15174493 0.0 0.4846396 0.35415685 0.24943574 4.534221
1.473295 1.9374028e-07 1.299719 2.7197933 0.052068207 0.10530491 0.054270074 0.0
0.00049023284 0.015691195 0.0 0.7661784 0.86156386 0.0 4.858722e-06 0.008636529
0.0 5.937455 0.0 10.096289 0.08780976 0.05754746 0.0 1.0581713e-11
1.6522623e-08 0.0 0.012990391 0.21839535 0.9392859 3.6227448e-09 4.1771897e-09 0.0
1.370732e-05 0.03918759 0.0 0.044419155 0.14830707 0.0 0.15174496 0.012017872
92.66722 2.7148124e-06 0.0031505188 0.0 14.437323 0.03971028 0.0 0.055586457
0.058660083 0.0 0.4491722 0.91383284 0.005395711 136.9576 96.91583 0.0058488646
10.091168 14.008818 26.122488 1.4183059e-05 0.03446725 0.0 0.23907843 0.08390286
0.0 0.45369554 0.0 0.44917217 8509.111 7509.6953 3705.1462 96.67427
279.7013 140.02376 5.962526 0.8137184 0.0 0.20092283 0.20173043 0.20760763
1.1671201 2.7895646 0.004740113 0.978901 0.6873359 0.12744635 0.012249229 0.026004402
0.0 0.000114443355 0.0037794383 0.0 0.15482706 0.23011447 0.0 0.029481873
0.050080463 0.0 2.0815563 0.0 2.9795012 0.04882832 0.036084972 0.0
2.533114e-08 1.9812035e-07 0.0 0.05045081 0.05044132 0.17482457 2.8249963e-10 3.4410474e-09
0.0 0.07249991 0.02795617 0.0 0.0062725 0.03647448 0.0 0.8137184
0.15097983 1.4623967 0.0010580369 0.010722404 0.0 10.516507 0.018339844 0.0
0.022246432 0.032631252 0.0 0.6990736 0.9520955 0.033469982 4.673698 10.65482
0.09147021 1.385915 3.3175666 2.0169382 0.01015876 0.036274206 0.0 0.061884306
0.06071625 0.0 0.14298728 0.0 0.6990736 296.7967 499.86328 473.5895
131.92487 276.22223 5.833863 0.31823203 0.24984813 0.0 0.45166358 0.2712837
0.22883746 1.4248723 3.4795132 5.151353e-05 0.8709048 1.1899233 0.39039212 0.007321181

exp_avg f4 [128]
00000000: c18d d9bf 66fd 1f40 fd37 3b3f bb36 b7bf
00000010: 9184 eabf 500e 0ac0 4757 4b40 daf3 23c1
00000020: 2fd0 053f d472 a63f 5ba5 70be c47e 67bf
00000030: b268 0140 f899 92bf c4b1 8b40 0a66 103f
00000040: ab74 00bd a882 8b3f 7320 59c0 a305 aebf
00000050: 4e87 71bf 275b f3bf 9014 93bf 4059 6ac0
00000060: ebc4 763f 8fac 4cbe d53d d43f 82ab 1040
00000070: aa49 83c1 6bd5 36c1 1baf 2dc0 1b75 02c0
00000080: 4a41 6a40 7815 f73f e9e8 583f 3dc0 0cbf
00000090: effc 1840 2cd9 563e cb74 0e3f 74cf acc0
000000a0: d697 b8bf e6b8 11be b3a5 f03f cc7a 5c40
000000b0: 7894 97bf bc5b 80c1 1260 4940 63fe 4ec0
000000c0: f516 1ac0 42d1 bcbf 2106 4340 8fc0 d540
000000d0: 9484 fdc0 fe57 e840 8b71 abc0 2069 1cc1
000000e0: 8715 3f40 4aa9 8c3c 9475 963f eae9 1940
000000f0: 21dd 20c0 509e 8e3f 896e df3f 8637 83c0
00000100: 9e31 213f e2f4 98c0 bac8 1bbf 8bd3 fc3e
00000110: 7728 f63f e2a3 5b40 def2 6d40 2b54 92c0
00000120: 579e 5ec0 39c2 47c1 460f 39c1 c137 d1c0
00000130: 9b62 de3f 20d6 65c0 c866 6940 1ea6 45bd
00000140: c525 0240 72a7 bb3f bf89 06c0 859f a0be
00000150: b9a4 a6c0 9665 de3f d5f7 39c1 b861 8d3f
00000160: 0e06 a63f 3d19 8ac0 e418 2d3e 87db 8e3f
00000170: 55a0 3540 406b 6fc0 7376 fc3f 1b3e 2d41
00000180: ddbe b83f 1941 d6c0 338c 193f 03a8 1441
00000190: fb13 c8bf 6e4b 30c1 d2be 13c0 ebed d9bf
000001a0: e345 923f 5199 e2bf a4ec 19c0 9bef 1240
000001b0: d86c 58c1 c482 7440 968d 80c0 0aa7 82c0
000001c0: 26bc 5cbf 931f 7f3f 666c 6a3e 923b 4bc0
000001d0: 1467 5340 3c22 7640 d736 8bc0 873e 5b40
000001e0: 056e d6bf 0062 4bbf f178 f7c0 342a 2c40
000001f0: 8b66 71c0 e401 05bf cb35 2bc1 4d30 94be
-1.6996385 2.4998412 0.73132306 -1.4313577 -1.8321706 -2.1571236 3.177202 -10.247034
0.5227079 1.3003793 -0.23500578 -0.90427804 2.022015 -1.1453238 4.36545 0.564057
-0.031361263 1.0899248 -3.3926055 -1.359547 -0.94347084 -1.9012192 -1.149065 -3.6616974
0.9639422 -0.19987701 1.658137 2.260468 -16.410969 -11.427104 -2.7138126 -2.0383976
3.660235 1.9303427 0.8473039 -0.5498083 2.3904378 0.20981282 0.5564696 -5.400324
-1.4421337 -0.1423069 1.8800567 3.444995 -1.1842184 -16.044792 3.1464887 -3.2342765
-2.4076512 -1.475136 3.047249 6.6797557 -7.922434 7.260741 -5.35761 -9.775665
2.985689 0.017170567 1.1754632 2.404902 -2.5134966 1.1142063 1.7455608 -4.100528
0.62966335 -4.779893 -0.6085316 0.49380144 1.9231099 3.4318776 3.7179484 -4.5727744
-3.4784143 -12.484918 -11.566229 -6.538056 1.7373842 -3.5911942 3.6468983 -0.048254125
2.0335553 1.4660475 -2.1021574 -0.31371704 -5.2076077 1.7374752 -11.623006 1.1045446
1.2970598 -4.315581 0.16904026 1.1160744 2.837911 -3.740921 1.9723648 10.827662
1.4433247 -6.6954465 0.5997955 9.2910185 -1.5631098 -11.018415 -2.3085217 -1.7025732
1.1427578 -1.7703038 -2.4050684 2.2958744 -13.526573 3.8204813 -4.0172834 -4.0828905
-0.8622459 0.99657553 0.22892913 -3.175511 3.3031664 3.8458395 -4.3504443 3.4256914
-1.6752325 -0.7944641 -7.7335134 2.6900759 -3.7718837 -0.5195601 -10.700633 -0.289431

exp_avg_sq f4 [128]
00000000: 67d2 3944 eedb e542 e6a3 b641 482c 0742
00000010: 46a9 1743 22a3 6f42 c38c b042 331e ab44
00000020: 987f 8541 e8f1 2042 62f2 5c43 82b5 8741
00000030: 21ae 7c43 9ce7 7443 8898 f242 6820 a244
00000040: e338 c641 5ff9 8943 055b 1943 f034 b642
00000050: 001b 9d42 6f3c 7f42 6e4e ef41 f64a 8c44
00000060: 33bf 7543 4bda 9d42 3d41 8944 7443 d942
00000070: bc8b d844 6161 c444 84f0 2743 6f58 5343
00000080: 38e6 2e43 c0af 7f42 be37 0443 8aa4 0642
00000090: f8c6 2242 f325 eb41 c60c 7543 3c59 7244
000000a0: f156 1143 dc6d 2043 b5e9 a842 3ef2 9c43
000000b0: 9be3 9841 e278 3f45 eac5 f143 c575 6f43
000000c0: 9471 0443 d508 2d43 79ab 0244 6b05 9f43
000000d0: 5ed1 e144 b2ac 8344 e897 ee43 f0ed ea44
000000e0: 1929 c043 b1c2 343c 7c5f 5542 3c03 cf43
000000f0: 5751 a342 a721 8f42 97bf 2941 d2c7 1644
00000100: 1103 3841 d2f7 b843 40f8 ba41 76d4 1343
00000110: e833 3343 95bb f442 4b09 9a43 53ab 2e44
00000120: 314f 8144 2b43 1145 f9fa d644 5152 cf44
00000130: b948 7843 7006 1744 14a8 6243 0932 8140
00000140: ca0a 2c43 4665 a743 a29b 1d43 eec5 2a43
00000150: dbb6 9d43 9966 dd42 5085 ed44 41a3 fa42
00000160: abb4 4543 ca7c 3544 f571 8543 0357 6443
00000170: 375e 9543 0f5d 1043 bf01 2642 dad0 1a45
00000180: 70d3 8343 5343 b944 bdc3 4942 75b8 8f44
00000190: 67b1 d343 883b 7145 8b32 5343 78e2 b543
000001a0: 075c 7943 75f7 2844 e157 e043 6aae 8143
000001b0: e9f9 2545 5dd5 d843 d65f ff44 7b0e cf43
000001c0: f3de 0141 c250 9042 3a69 b243 a541 5344
000001d0: 4b44 0e44 b9df bf43 f0fd 3043 a0aa 5543
000001e0: d759 bb43 8b37 4942 9774 2a44 5f38 c243
000001f0: f5e2 0644 3600 2f41 969b 0945 ef44 fe43
743.28754 114.92955 22.830029 33.793243 151.66122 59.90931 88.274925 1368.9437
16.687302 40.236237 220.94681 16.963627 252.68019 244.90472 121.29791 1297.0127
24.777777 275.9482 153.35555 91.10339 78.552734 63.809017 29.913296 1122.3425
245.74687 78.92635 1098.0387 108.631744 1732.3667 1571.0431 167.93951 211.34544
174.89929 63.92163 132.21774 33.660683 40.694305 29.39353 245.0499 969.3943
145.33961 160.42914 84.45646 313.89252 19.111135 3063.5552 483.5462 239.46004
132.44366 173.0345 522.67926 318.04233 1806.5427 1053.3967 477.18677 1879.4355
384.32108 0.011032746 53.343246 414.02527 81.65887 71.56573 10.609275 603.1222
11.500749 369.9361 23.371216 147.82993 179.20276 122.36637 308.0726 698.67694
1034.4747 2324.198 1719.8429 1658.5724 248.28407 604.1006 226.65656 4.037358
172.04214 334.7912 157.60794 170.77316 315.42856 110.700386 1900.166 125.318855
197.70573 725.9498 266.8903 228.33989 298.73605 144.36351 41.501705 2477.0532
263.65186 1482.1039 50.44115 1149.7643 423.38596 3859.7207 211.19743 363.7693
249.35948 675.8665 448.68655 259.3626 2655.6194 433.6669 2042.9949 414.11313
8.116931 72.15773 356.82208 845.0257 569.0671 383.74783 176.99194 213.6665
374.70187 50.30424 681.8217 388.4404 539.5462 10.9375515 2201.724 508.53854

exp_avg f4 [27, 128, 3]
00000000: 8e22 063b 34a0 cebe 88e9 e33d e403 bf3f
00000010: 4074 c73f 5da3 2b3e 7bf6 5940 85c5 7640
00000020: ad75 053f 880f 4840 5dce 1b40 bdd3 83be
00000030: d5cb 9440 b17f 3140 3ce7 b1bd b8c4 4f3f
00000040: b647 29bf 5ee3 163e 2071 8c3f fcfe 0540
00000050: 18dc ac3d 0df2 863e fb9d 3ebe 10b6 743f
00000060: b0fe 1140 e703 af3f 4f6a 11bf a05d 2440
00000070: 86b1 e53f f3cf b43e d425 3440 f234 1940
00000080: 2f7a edbe b551 6840 11ec 1e40 7cac 0dbd
00000090: f698 0e40 47f8 5f3f afe1 1abf 93dd ea3f
000000a0: 2db2 a83f 89c6 103e 7021 9d3f f0de c23f
000000b0: 51d6 753f 068a fc3c b3d6 ce3d b757 e33e
000000c0: f40a 7140 bee8 c63f 8024 c43d 901d bbbb
000000d0: e239 c03e 1f15 353e 8c70 c63e 768d a4bf
000000e0: 4b4b 50be 4f83 9740 e02a 4a40 3c6a 3a3e
000000f0: 4293 a03f 0100 c83f 3250 2f3f f5c2 c238
00000100: cbed 49bf f2a5 033f d910 3740 9963 2140
00000110: 0b6b 6a3f 1284 24bd dc11 83bf 42bb 443f
00000120: 279d 5a40 5cea e83f d646 f3be a2ce 0f3f
00000130: f406 813f 00d2 003d 92ee 573d 4f93 01bf
00000140: 79d2 87ba 2fac e7bf db31 8d3e 3f3b 9a3d
00000150: 4812 fabf e90f 183f ccef 33bd 21a5 333e
00000160: 2d11 873f 027d 353f 3c12 3740 8fde 1640
00000170: ae13 98be 50b5 4b40 a699 0a40 d677 a33e
00000180: 95c6 8d3f 9204 bb3e cf09 f4be 6e5b b03f
00000190: c879 493f 603e 323e fac5 ff3f 0b03 723f
000001a0: df3e e53e 34c4 f03f 1a96 473f 279e 24be
000001b0: 01f8 9e3f 410c d33f d2b1 11bf f777 7b40
000001c0: f1b6 4a40 5d79 293f 015b 8ebf c55c cdbe
000001d0: 6c23 a1bc a347 f83e a983 623f 9912 0fbf
000001e0: 0718 ff3f 40df 2740 df7b ed3e 2278 1040
000001f0: 0493 6e3f 4dac 853f d2ac 7340 9f17 3740
00000200: 79d1 88bf 3c60 2040 a036 0c40 147b e8be
00000210: 3a81 7440 ea9d 2f40 4a0e cc3e c526 e0be
00000220: a54f 123f fdc5 383e cb1d a03e bfdb 5f3f
00000230: 4528 7a3f 7b20 7e40 0a53 0f40 12d4 11be
00000240: 5d04 4cc0 0cd1 9f3e c478 533e 02d4 a1bf
00000250: 6ed1 29bf b53b ec3e 905b 453f 1ada f53f
00000260: 1006 f3bd 7159 ee3f 4760 ef3f 644f e43f
00000270: 2d75 653d 2b33 dc3e bf25 a03f dba6 e93f
00000280: d5a5 273f 903b ae3f cff6 3d3f 1069 c63f
00000290: e015 483d b311 1c3e d574 863e f096 803c
000002a0: 4170 1f40 5381 2140 60d6 23be 4053 38bd
000002b0: 9c33 1dbd d00b d53a a711 763f 9715 1340
000002c0: 127f 7d3f d7e5 4abe 042c dd3e c760 e73c
000002d0: 91b7 2440 068f b73f a74d f33d 6e7e a13f
000002e0: 4157 5b3f f6c5 5e3e be67 1e40 ea87 1840
000002f0: e1a5 cabe 9765 3e3d 17d2 f7bd 4f63 ae3c
00000300: 29f4 6a40 05a3 5340 6b5d 78be 5064 c7bf
00000310: 310d 343f 1125 fb3e ef94 793f ed18 933f
00000320: 7410 853e 038d ce3f 5129 2440 a58e 943d
00000330: 1437 a93f 3d7a 903f 1ca5 6e3f e1ab 0fbf
00000340: cddc c43f f283 063f 143f 2040 207b 5440
00000350: d657 91be a1cf 8cbf 0645 953e b50b 983d
00000360: 42f4 183e f856 223d 4a85 ee3c cf5c 14be
00000370: 6df0 f43d f16e a63b be5e 463d a70b 493e
00000380: cd3b 5f3b fe1f fa3f 4d74 e83e a928 313f
00000390: 05fe ba3f ed1b 0740 064c 043f 24cd b03c
000003a0: 5a90 8bbf 82f3 903e 6078 0b40 a644 4b40
000003b0: a335 8fbd 9069 9040 f757 6f40 91f8 a3bf
000003c0: d47f 1ebd b8ae 0a3f 8c9b 803d d1c3 e53f
000003d0: 2cc1 5e3f 3cce d63f 3e67 05c0 7a6e 2b3c
000003e0: 3d0a be3b 350e 6dbf e914 5d3e 97a8 683e
000003f0: adcc 6e3d 53e4 1abf 8880 193d 0874 5240
0.0020467374 -0.403566 0.11128527 1.4923062 1.5582352 0.16761537 3.405669 3.8558056
0.52132684 3.125948 2.4344704 -0.2574748 4.649882 2.7734187 -0.086866826 0.81159544
-0.6612505 0.14735171 1.0972023 2.093688 0.08440417 0.26356545 -0.18614952 0.95590305
2.28117 1.3673066 -0.5680284 2.5682144 1.7944801 0.35314903 2.8148088 2.3938565
-0.4638228 3.629987 2.4831583 -0.034588322 2.228086 0.87488216 -0.60500616 1.8348869
1.3179375 0.14138235 1.2275829 1.5224285 0.96030146 0.030827533 0.100995444 0.4440286
3.7662935 1.5539777 0.09577274 -0.0057103112 0.3754416 0.17683838 0.3875774 -1.285567
-0.20341222 4.734779 3.158867 0.18204588 1.254494 1.5625001 0.68481743 9.2869544e-05
-0.7887847 0.5142509 2.8604033 2.521704 0.91569585 -0.040165015 -1.0239825 0.7684823
3.4158418 1.8196521 -0.4751498 0.5617467 1.0080247 0.03145027 0.052717753 -0.506154
-0.0010362408 -1.8099421 0.275771 0.075308315 -1.9536829 0.59399277 -0.04392986 0.1754346
1.0552117 0.7089387 2.860488 2.357334 -0.29702514 3.1829414 2.165628 0.31927365
1.1076227 0.36526924 -0.47663733 1.3777902 0.7870145 0.17406607 1.9982293 0.94535893
0.4477453 1.8809876 0.7796341 -0.16075955 1.2419435 1.6488115 -0.5691196 3.929197
3.1674159 0.6620081 -1.1121522 -0.4010984 -0.01967021 0.48492154 0.8848215 -0.5588775
1.9929208 2.623001 0.4638357 2.2573323 0.9319308 1.0443207 3.807423 2.8608167
-1.0688926 2.5058737 2.190834 -0.454064 3.8203874 2.7440133 0.39854652 -0.4377958
0.5715278 0.18044277 0.3127273 0.8744468 0.97717696 3.9707325 2.2394433 -0.14241055
-3.1877663 0.31214178 0.20651537 -1.2642825 -0.6633519 0.46139303 0.7709284 1.9207184
-0.11866391 1.8621045 1.8701257 1.7836728 0.05601995 0.43007788 1.2511519 1.8254045
0.65487415 1.3611927 0.74204725 1.5500813 0.048848987 0.15241127 0.2626101 0.015696973
2.4912264 2.5235183 -0.15999746 -0.04500127 -0.038379297 0.0016254131 0.96120685 2.2981927
0.9902202 -0.1981424 0.43197644 0.02824439 2.573704 1.4340522 0.118800454 1.2616708
0.85680014 0.21755204 2.475082 2.3832955 -0.3957968 0.046483602 -0.12100618 0.021287588
3.6711524 3.306825 -0.24254386 -1.5577488 0.7033263 0.49051717 0.9749288 1.1491982
0.25989115 1.6136783 2.5650218 0.0725377 1.3219934 1.1287304 0.93220687 -0.5612164
1.5379883 0.5254508 2.50385 3.320015 -0.28387326 -1.1000863 0.29154223 0.07424108
0.14936927 0.03963372 0.029116292 -0.14488529 0.1195992 0.005079143 0.048430197 0.19633351
0.0034062744 1.9541013 0.4540123 0.6920267 1.4608771 2.1110795 0.516785 0.021582194
-1.0903428 0.28310782 2.179222 3.176065 -0.06992652 4.512886 3.739744 -1.2810231
-0.038696125 0.5417285 0.06279668 1.7950383 0.87013507 1.6781688 -2.0844264 0.010463351
0.0057995603 -0.92599803 0.21590008 0.22720562 0.058300663 -0.60504645 0.037476093 3.288332
