experiments/justification/models/MediumBTCNN_MediumFCNN_1.pth (torch, 847290 bytes, 33 tensors)

btcnn.layers.0.conv1d.weight f4 [128, 27, 3]
000000 67 78 b9 bc d2 8d bb 3c 64 80 42 3d 93 a4 f9 bb
       -0.02264042 0.022894774 0.047485724 -0.0076184957
000010 b9 6b 3f 3d 13 21 48 3e eb b9 67 3e 47 8a 78 bd
       0.04673359 0.19543867 0.22629516 -0.060678747
000020 f9 b8 1d bc ce 0e 62 3d 13 bf 25 be 2a a0 8f bd
       -0.00962662 0.0551899 -0.1618617 -0.07012971
000030 25 7a ef 3c a1 f4 26 be 60 db 52 3d 93 99 1f 3d
       0.029233048 -0.16304256 0.051478744 0.03896482
000040 4b 98 fa 3c 72 ab 7c bc c0 1e c4 3d bb 66 45 3d
       0.030590197 -0.015421735 0.095761776 0.048193675
000050 4b d2 1f bd e6 07 cf 3d c5 31 72 be 2b 42 d2 3d
       -0.03901891 0.101089284 -0.23651798 0.10266527
000060 98 48 e7 3d de ab 88 3d 96 6e fd bc 36 5a e9 3c
       0.11293143 0.06673406 -0.03093652 0.028485399
000070 56 89 0c bd e0 4f 3c bd 12 08 20 3c 5f 53 80 3d
       -0.03431066 -0.045974612 0.009767549 0.06265902
000080 95 56 52 3d e4 6f 24 be 50 1f 0b 3e 87 eb 8a 3d
       0.051352102 -0.16058308 0.13586164 0.067832045
000090 65 56 67 3c 06 b8 a8 3d 64 57 53 3c 0e e8 3b 3e
       0.014119719 0.08238225 0.0128992535 0.1835024
0000a0 82 4a 8e 3e 79 e5 af 3c 76 b7 4f 3e 77 d5 b2 3e
       0.2779122 0.021471726 0.20284829 0.34928486
0000b0 e4 df e6 bc de 91 0b 3e 8f f7 06 3e 28 87 6b 3e
       -0.028182931 0.13629863 0.13180374 0.23000777
0000c0 4d e6 17 be 11 a3 16 3e db 5a b2 3d f6 b7 24 3e
       -0.14833947 0.14710642 0.087087356 0.160858
0000d0 7e c7 69 bd 1d 32 80 bc bf 60 72 bd 35 d1 2b bd
       -0.057075016 -0.015648896 -0.059174296 -0.041947562
0000e0 39 0c 5e bd 2c e3 6a bb 49 f1 ce 3d 54 91 7f 3e
       -0.054210875 -0.0035840971 0.10104615 0.24957782
0000f0 0e 02 e5 3c 3d 34 51 3e 13 98 01 3e bc 19 69 3e
       0.027955081 0.20430084 0.12655668 0.22763723
000100 cd 63 44 3d da 24 08 3e 85 bd 06 bd 19 d3 9a 3a
       0.04794674 0.13295308 -0.032895584 0.001181218
000110 eb 4a 53 3d 09 21 9e bd 57 a2 d5 bd c7 9b 01 bc
       0.05158512 -0.07721145 -0.104313545 -0.007910675
000120 8b 77 7a be 72 5a 36 bc 9e 30 02 3e 3a cd 83 be
       -0.24459665 -0.011129962 0.12713858 -0.25742513
000130 4f 5a 19 3d 67 cc 00 bc ac 1d 19 3d 68 65 64 3c
       0.03743964 -0.007861233 0.037381813 0.013940193
000140 41 72 4f 3e b1 5b e0 3d 4b 11 c1 bd 9d fd 68 3c
       0.20258428 0.10954989 -0.094271265 0.014220622
000150 49 8e e8 3d 3e 54 f4 3d ed 7e 05 be 8a 87 a6 3d
       0.11355264 0.119301304 -0.130367 0.08131321
000160 2d 6b b4 bc f9 be 62 3d e3 7a fe 3c 4a d6 b2 3d
       -0.022023762 0.055357907 0.031064456 0.08732279
000170 9f b2 95 3e c2 f2 c4 3c 34 ad cf 3c 55 a0 65 bc
       0.2923784 0.024041537 0.025351144 -0.014015277
000180 c0 d6 56 3d bc b4 a5 3d 52 8f 6d bd 54 d6 7c 3d
       0.052450895 0.08091113 -0.05799801 0.061727837
000190 ed ea 18 bc 8e 4e 66 bc a2 3b 8f bb 91 c9 1b 3c
       -0.009333354 -0.014056815 -0.0043711225 0.009508506
0001a0 72 db b6 bc 29 e5 bb 3d 39 39 d7 3b 66 69 00 be
       -0.022321437 0.09174568 0.006568101 -0.12540206
0001b0 87 c8 0e 3e da 73 ed bd 95 3c 6c bd e1 89 6b ba
       0.13943683 -0.115943626 -0.057674963 -0.0008985084
0001c0 fe 58 b0 bd 50 e9 dd 3d 81 96 b6 3c 9f 28 dc 3d
       -0.08610724 0.108355165 0.022288563 0.10749935
0001d0 1e 3f cc bd 19 27 a0 bd c4 b3 eb bc bd 71 84 bd
       -0.09972976 -0.07819957 -0.028772242 -0.06467006
0001e0 e0 f3 0e 3e 98 f5 27 be 17 45 d4 3d 4a 98 91 3d
       0.13960218 -0.1640228 0.1036474 0.07109125
0001f0 ae e0 1d be e7 a0 32 bd 31 e4 fa 3c ec 96 18 3e
       -0.1541774 -0.04361048 0.030626388 0.14901322
000200 14 b6 9d 3c 7a 21 cf 3c 4d 7d 33 bd 0b a4 7a 3d
       0.01925186 0.025284518 -0.043820668 0.0611916
000210 e2 50 a4 3c 8b 55 55 3d c4 2b 4d 3d 6f 8f 3f be
       0.0200581 0.052083533 0.050090566 -0.1870706
000220 73 5b 5a 3e 50 d1 af 3d 8c 44 9d 3c 08 e7 d8 3d
       0.21323948 0.08584845 0.019197725 0.10590941
000230 d8 8d 63 bc 18 bd d4 bd 71 45 ac bd 50 db 39 be
       -0.013888799 -0.10387629 -0.084116824 -0.18150067
000240 86 15 bc bd f3 8d 98 3d 23 6e b6 3c 53 4f 57 3c
       -0.09183793 0.0744895 0.022269314 0.013141471
000250 19 e1 f6 3d 40 47 fa bc ef ec 5e 3c 3d d0 ad 3d
       0.12054653 -0.030551553 0.013606294 0.08486984
000260 64 7d 79 bc 6e 89 c1 3d 89 4b b5 3d 14 39 71 3c
       -0.015227649 0.09450041 0.08852298 0.014723081
000270 38 f0 8f 3c 81 cb 48 3d 8b 85 9e 3d 09 af 00 3e
       0.0175706 0.0490222 0.07740315 0.1256677
000280 c7 ea 86 bd 64 2a 98 3d 35 eb 8f be d9 44 38 bd
       -0.06587749 0.0742996 -0.28109136 -0.044987533
000290 94 74 d6 3d 9a e2 1a be 45 cb 52 3d 2d ed d7 3d
       0.10471454 -0.15125504 0.051463384 0.105432846
0002a0 da 01 0d 3e eb 64 1c 3e ea e9 f3 bd 97 19 2b 3d
       0.13770238 0.15272872 -0.1190985 0.04177245
0002b0 31 97 d4 3d 2c be a2 3e 1d 71 a4 be 08 c6 7e 3e
       0.103804 0.31785715 -0.3211755 0.2488023
0002c0 7d 6b e0 bd 46 6c 0f bb 79 0a 28 bd 69 d5 c0 3d
       -0.10958002 -0.0021884604 -0.041025613 0.09415705
0002d0 28 50 3d be 64 d4 4e be 00 a7 6f bc 00 60 22 be
       -0.18487608 -0.20198208 -0.014627218 -0.15856934
0002e0 fa 7f 60 bc b5 c0 90 bd 90 e4 00 3d a4 d6 56 3d
       -0.013702387 -0.07068006 0.031467974 0.05245079
0002f0 01 76 29 3e 0b 69 47 3e fe b1 bc bd 2b 2f 6a 3d
       0.16548921 0.19473664 -0.09213637 0.05717389
000300 32 ef f2 bd 06 a3 90 3c 14 2b b1 bd a9 ff 28 3d
       -0.11862029 0.01765586 -0.086507946 0.04125944
000310 88 6f 3d 3e 80 cc 03 be d8 ec 29 3c dc 1f 1d bc
       0.18499577 -0.1287098 0.010371409 -0.009590115
000320 cb f7 25 bd 79 56 1c 3c 25 b8 e1 3d f5 53 c6 bd
       -0.040519517 0.009542101 0.11021451 -0.09683982
000330 4e 36 06 3e 08 af 1c be 95 01 c7 bd 3d 70 98 bd
       0.13106653 -0.15301144 -0.097170986 -0.07443283
000340 32 d3 09 3d b5 d6 1c bd 17 3d 83 bd 29 2b 33 be
       0.033648677 -0.038290698 -0.06408136 -0.17496933
000350 b7 f0 88 3d 26 e0 60 3e 2b 48 32 b8 ce fa 42 bd
       0.06686538 0.21960506 -4.250572e-05 -0.047602467
000360 52 b4 a3 3d a1 34 18 3f 15 6c 67 3d b5 7c b6 bd
       0.07993378 0.59455305 0.05649956 -0.08910505
000370 90 a9 33 3d 1f 0b 00 be 70 e0 05 3e 64 e4 f9 3c
       0.04386288 -0.12504242 0.13073897 0.030504413
000380 3b c6 6f 3e 02 8a ac bd 32 8d 6a bd 7a 5a 3b 3d
       0.23415463 -0.084247604 -0.05726356 0.045740582
000390 70 31 92 bd 8a d5 af 3d a4 d2 cb bd 94 d1 f5 3d
       -0.07138336 0.08585651 -0.09952286 0.120028645
0003a0 11 9a 20 be f2 ee 64 3c 51 9d 24 bd 80 87 1c bd
       -0.15683772 0.013972985 -0.04018909 -0.03821516
0003b0 2a ae 5d be 14 57 12 3e 85 89 f0 bd cd bb 14 bd
       -0.2164847 0.1429103 -0.1174498 -0.036311913
0003c0 31 8a f1 3c 2f 4d 04 bd 7a 9c 1a 3e 2a 8f 2d be
       0.02948484 -0.03230017 0.15098754 -0.16949144
0003d0 96 cf 34 bd 39 13 b1 3d 5d 32 c6 bd c9 17 0c be
       -0.044143282 0.086462446 -0.09677575 -0.13680948
0003e0 c3 09 99 3d b9 11 09 3d 93 f5 bf bc c1 4c 74 3e
       0.07472565 0.033464167 -0.023432529 0.23857404
0003f0 12 a0 d3 bd da 2b 65 bd 69 1c a7 bd d2 00 6b bd
       -0.10333265 -0.055950023 -0.08159716 -0.05737383

btcnn.layers.0.conv1d.bias f4 [128]
000000 50 e4 10 3e ea b0 d3 bd 94 2d a9 3d e9 4a d0 bd
       0.14149594 -0.10336478 0.082606465 -0.10170538
000010 3e 27 4e bc ad 60 05 3e 12 6d d1 3c 48 cf 1f bd
       -0.012582598 0.1302516 0.025564704 -0.03901604
000020 a7 6e ff 3d 1e 77 03 bd de e0 e4 bd 1f b2 cd 3d
       0.12472277 -0.03209602 -0.111757025 0.100437395
000030 84 32 37 3c f9 a0 84 3a 9b 73 76 3d 9d 0c 1c bd
       0.011181477 0.0010118774 0.060168844 -0.038097966
000040 34 06 73 bc 7c f3 a0 bc cc 20 40 3e 7c a1 b9 3c
       -0.014833022 -0.019647352 0.18762511 0.02266001
000050 2f 78 90 bd 9e 16 0e 3c f2 f9 01 3d 4f 96 b1 ba
       -0.07054173 0.008672385 0.031732507 -0.0013548824
000060 47 47 92 3d ca 0d ec 3c 29 db 96 bd 2a db 1c 3d
       0.07142501 0.028815169 -0.0736602 0.03829495
000070 7a 5c 9b 3d db 11 2d bc 63 fb 98 bb bc 96 1f 3d
       0.07585998 -0.010563339 -0.0046686395 0.03896211
000080 55 ff ac 3d dd 67 7d 3d 1c 65 c5 3d ef bb 94 bd
       0.08447138 0.06186663 0.09638426 -0.07262408
000090 b2 02 88 3d f5 e9 d7 bd b8 26 39 3b 52 2c 81 bd
       0.06641139 -0.10542671 0.0028251838 -0.063072816
0000a0 16 5c a4 3b 47 ed de bc 43 a6 e2 bc ea b1 d6 bd
       0.0050158603 -0.027212752 -0.02766717 -0.10483153
0000b0 2b 2b 23 bd b2 99 44 3e 2a 55 e9 bd 89 c7 5f bc
       -0.03983609 0.19199255 -0.11393197 -0.013658413
0000c0 ec 4a cb 3d fa 41 4b 3d 60 d6 1c 3d 13 29 9e 3d
       0.099263996 0.049623467 0.03829038 0.07722678
0000d0 a0 bb a2 3d 99 ec 38 bc a4 b6 0a be 5e 3e 0a 3e
       0.07945943 -0.011286878 -0.13546234 0.13500354
0000e0 9a e8 38 bd 61 68 15 3e 91 4f 01 3e 37 9f 09 3d
       -0.0451437 0.14590599 0.12628008 0.033599105
0000f0 7b 6f 8b 3d 09 22 cf 3d be 4b 2b 3d 0c 42 de 3d
       0.068083726 0.101139136 0.04182028 0.10852441
000100 12 e7 c6 3c cd 55 e8 3d ac 31 36 3b 32 b5 bb 3d
       0.024280105 0.1134449 0.0027800603 0.0916542
000110 59 ab f8 3d 23 d2 75 bd 4c ae d1 bc b5 34 5e 3d
       0.12142057 -0.060014855 -0.025595807 0.054249484
000120 01 0e 3f bd 66 1a 27 bd 17 e4 74 3b fd 90 15 3e
       -0.046644215 -0.04079666 0.0037367397 0.1460609
000130 cc 34 0e bd c2 90 05 be 35 12 57 3d da fc 12 3e
       -0.03471832 -0.13043502 0.052507598 0.14354268
000140 01 6e 55 3d 1f 39 06 3e 95 26 d1 3c fa af 0b 3e
       0.05210686 0.13107727 0.025531093 0.13641348
000150 51 e3 bd 3d ae 21 90 bc 6c f0 f8 bd 85 eb b2 3d
       0.09271873 -0.017594185 -0.12155232 0.08736328
000160 64 d2 d7 bc fa d6 4a bd 05 63 dc 3d d6 59 70 3e
       -0.02634544 -0.049521424 0.10761074 0.2347177
000170 74 cf 14 bd 1e c3 4a 3e f3 8b 3d 3e 20 18 30 3e
       -0.036330655 0.19800994 0.18510418 0.17196703
000180 5a 76 55 bd ac 23 f0 3d f5 9c 02 3e 8c 55 2a bc
       -0.052114822 0.11725554 0.12755187 -0.0103963725
000190 3e 09 62 bd 1c af fb 3c 04 33 c7 bd 49 00 26 bc
       -0.055184595 0.030723147 -0.09726527 -0.010131904
0001a0 fc 2c a4 3d 4b 37 11 3e e4 4b 3d bd 62 95 1e 3e
       0.080163926 0.14181249 -0.046214953 0.15486673
0001b0 bd 41 b9 bd 30 2c b9 bc d5 f2 af bd c6 1f 00 3e
       -0.09045742 -0.022604078 -0.085912384 0.1251212
0001c0 7e 5a 58 3c e8 b3 97 39 b0 b0 af 3d ce c8 02 3d
       0.013205169 0.00028935005 0.08578622 0.031929784
0001d0 1b e0 1e 3e 07 01 82 3d 01 bc fd 3c 0c b8 82 3d
       0.15515177 0.06347852 0.030973436 0.063827604
0001e0 87 34 d0 3d a9 4d 61 bd 40 14 94 3d 47 38 17 3d
       0.10166269 -0.055005703 0.07230425 0.036918905
0001f0 15 12 34 bd 23 ea 6e 3a bf f1 97 bc 46 9c 61 3c
       -0.043962557 0.00091138686 -0.01854789 0.013770169

btcnn.layers.2.conv1d.weight f4 [27, 128, 3]
000000 ab f3 a4 be 18 6f 1c be e3 cb cc bd 62 f0 48 3c
       -0.32217154 -0.15276754 -0.09999826 0.012264343
000010 cf 0e 59 bc 11 48 db bd 2f 91 b6 3b 68 b4 2d bd
       -0.01324816 -0.10707105 0.0055715065 -0.042408377
000020 68 b0 86 bc 53 b1 b2 3d 73 b2 4b 3d 45 7a 61 bd
       -0.016441539 0.08725228 0.04973073 -0.055048246
000030 88 89 d8 bd be e8 15 3c c1 a0 ed 3c ad 0a 2d be
       -0.10573107 0.009149728 0.029007317 -0.16898604
000040 8a d2 67 be e1 1d dc 3b d2 49 56 3d b9 01 33 bd
       -0.22638908 0.006717429 0.052316494 -0.043702815
000050 ba 31 6e bd 4c 5c 06 bd 7b 7d 2a 3c 7c 68 12 bd
       -0.05815289 -0.032802865 0.010405893 -0.035744175
000060 82 d0 d9 3b 04 49 d2 3b 5b 9b a9 bd 48 d6 52 3d
       0.0066471705 0.0064173955 -0.08281585 0.051473886
000070 aa e1 a8 3d de 43 0f bd 4c 50 2d 3a eb 26 4e bd
       0.08246167 -0.034976833 0.00066113914 -0.050330084
000080 8a eb 40 bd 69 3a 19 3d 60 98 85 bc 79 8a 4b 3c
       -0.047099628 0.03740922 -0.01630801 0.012423151
000090 ca e7 02 bc f7 a8 cd 3c b1 0a d9 bc 38 ba c7 bb
       -0.007989833 0.025104983 -0.026494356 -0.006095197
0000a0 c7 82 a2 3c c9 06 10 bd cb b3 25 bc ae 21 49 bd
       0.01983775 -0.03516272 -0.010113667 -0.049104385
0000b0 60 cb 0b bc c1 bd 5b bc e0 2f 1f bd 8b 70 49 3b
       -0.008532375 -0.01341194 -0.038864017 0.0030737247
0000c0 dc 42 43 be 59 75 84 3d 1a 34 2e bd 69 27 5a 3b
       -0.19068474 0.06467695 -0.042530157 0.003328765
0000d0 77 b1 ba 3b 18 f3 9f bd b3 f2 8b 38 94 6b 20 be
       0.005697425 -0.07810038 6.673243e-05 -0.15666038
0000e0 4b 3f 20 be 16 2b 20 bd 0d a6 45 bc 53 ad 32 be
       -0.15649144 -0.03910359 -0.012063515 -0.1744893
0000f0 37 d3 bf bb d6 fa 9f 3c ed a1 99 bd 97 c8 9a 3c
       -0.005854036 0.019528788 -0.07501588 0.018894477
000100 d0 d5 2d 3c c5 94 2c 3d 57 67 fe 3c 56 6a 80 3c
       0.010610059 0.042134065 0.031055136 0.015675705
000110 d6 53 09 bd 69 df 9e 3c 05 c5 60 3d aa 2a 12 be
       -0.033527218 0.01939364 0.054875392 -0.14274088
000120 96 2c 58 be c5 63 2e be 06 8f 3d bd d4 30 85 bd
       -0.21110758 -0.17030247 -0.046278976 -0.06503454
000130 a4 cd df 3b 83 65 02 3d 54 7e 76 3c df 26 02 3d
       0.006829934 0.03183509 0.015044767 0.03177535
000140 c0 44 96 3c 15 f5 07 be c1 55 f9 bd f1 c3 df bd
       0.01834333 -0.13277085 -0.121745594 -0.10926045
000150 75 8a 52 bb 92 84 4c bd 5e 1e 96 bb 8a 28 1c bc
       -0.0032125984 -0.049931116 -0.004581257 -0.00953115
000160 c0 a7 a2 3b 09 4f a1 3d 0f 4f eb b9 da f6 06 bb
       0.004963845 0.07876403 -0.00044881596 -0.0020593912
000170 04 8f 98 3b 8d 77 b1 3c 48 6f 23 bc a1 c2 b1 3c
       0.0046557207 0.021663452 -0.009975262 0.021699252
000180 d0 a8 a4 3c a4 60 85 3d b1 19 94 3c c5 4c 76 be
       0.020100027 0.06512573 0.018078657 -0.24052723
000190 5a 9a 49 be 0d 28 82 bd f9 23 88 bd 92 72 16 be
       -0.19687787 -0.06355295 -0.06647486 -0.14692143
0001a0 14 b0 a8 bb 84 c1 0c 3d 89 a7 2c 3d 61 50 86 3b
       -0.0051479433 0.03436424 0.04215196 0.0040989374
0001b0 b5 52 a2 bd e1 29 39 bd cf e7 59 3d f4 1b 6f 3d
       -0.07925931 -0.045205954 0.053199586 0.058376268
0001c0 a6 85 ad bc 10 8d e1 bd 2a 16 75 3c 26 83 00 bc
       -0.021181893 -0.11013234 0.014958898 -0.007843768
0001d0 78 5b 8f bd ed 7e 2b 3d c4 cc 62 3d 75 5d ab bd
       -0.06999868 0.041869093 0.05537106 -0.08367435
0001e0 10 a4 82 bc a1 21 2b bd 99 62 21 bd 63 43 46 3d
       -0.015947372 -0.041780118 -0.03940067 0.04840411
0001f0 e2 df 98 3b 7e d9 97 bd 02 24 63 bc 9b 48 19 bd
       0.004665361 -0.0741453 -0.013863565 -0.037422758
000200 97 2d c5 bc fd 57 95 bc b3 15 5c 3d 4c 10 80 bd
       -0.02406959 -0.018230433 0.05373163 -0.062531084
000210 44 62 bb 3c e3 0a 92 bc 60 02 70 bd ed d3 46 bd
       0.022874005 -0.017827457 -0.058596015 -0.048541952
000220 66 2c a9 bd 3c 07 5d be 14 00 81 3c 7f e7 40 bd
       -0.082604215 -0.21584791 0.015747108 -0.047095772
000230 5e 70 ce ba a9 22 cd bd e2 b6 d4 3d 5c cb 76 bd
       -0.0015750041 -0.100163765 0.10386445 -0.060252532
000240 ae c0 63 be 64 98 7e be 28 dc 04 be bf 31 3a bd
       -0.2224147 -0.2486282 -0.12974608 -0.045457598
000250 0e 76 78 3c d1 0a 45 bc 74 5f c6 bd 71 4d e0 bc
       0.015164865 -0.012026505 -0.09686175 -0.027380677
000260 dd b2 1d be c3 13 8a bd 2c c7 e8 bb 33 5c 91 bc
       -0.15400262 -0.067420505 -0.0071038213 -0.01774416
000270 20 4c d8 3c 2c 00 09 38 33 86 93 3c 60 a3 77 bd
       0.026403487 3.2663505e-05 0.018008327 -0.06045854
000280 40 f1 0e 3d 79 02 98 bc 6e e7 8b 3d bf 42 52 3c
       0.034898043 -0.018555867 0.06831251 0.012833296
000290 39 f7 75 bd 51 0c 59 be 37 70 1d be 47 92 3b bc
       -0.060050223 -0.21196105 -0.15374838 -0.011448449
0002a0 84 23 24 3d 5c 91 9c 3c 58 c7 12 bd 1d c8 c1 3c
       0.040072933 0.019112282 -0.03583464 0.023654992
0002b0 98 6a c5 3d d0 1b a8 3c 6d d3 22 bd b3 8f f1 3c
       0.09639472 0.020521075 -0.039752413 0.029487466
0002c0 0e 6c 2b 3d 9b 19 2b 3d 00 2f 35 bb eb a2 a5 bd
       0.041851096 0.041772466 -0.0027646422 -0.08087715
0002d0 ba 56 1e bd 70 12 7e 3c 2a b5 fd 3c ea b4 2d 3d
       -0.038656928 0.0155073255 0.030970175 0.04240886
0002e0 bd 9e 2c 3d dc e2 56 bd e5 36 89 ba 7e 4c 63 3b
       0.042143572 -0.052462444 -0.001046863 0.0034683044
0002f0 e5 5b 74 3c 92 1a 65 3d e3 ba 05 be 74 a7 7b bd
       0.0149144875 0.055933543 -0.13059573 -0.061438993
000300 e1 66 ce bd 3b cd 2f bd 4f 25 ba 3c 58 16 5b 3d
       -0.10078216 -0.042920332 0.022722868 0.053488106
000310 fc 56 f3 3d 05 7b fc bc 44 e5 15 3b 86 2b 1d 3d
       0.11881825 -0.030820379 0.0022872249 0.038371585
000320 63 68 b9 3d c6 88 8c bd af e3 b6 be 73 da 7c bd
       0.09053113 -0.06862025 -0.35720584 -0.061731767
000330 8a 24 d0 bd 54 97 80 be e2 c0 19 bd 2c 46 35 bd
       -0.10163219 -0.25115454 -0.037537463 -0.044256374
000340 99 e3 a4 bd 56 2c a3 bd 97 af 03 3d ae da 10 3d
       -0.08051223 -0.07967441 0.032149877 0.0353648
000350 c6 02 ec bd 4d 1c 47 be 99 95 4a bd ab 9e 16 3d
       -0.115239665 -0.1944439 -0.049459074 0.03677241
000360 7e 8c f5 bc b9 17 23 be a9 13 68 bc 28 a8 c6 bd
       -0.029974218 -0.15927018 -0.014164844 -0.09700042
000370 91 15 73 3c 44 fd 03 bd b2 8f 59 3c ec 24 45 bd
       0.014836685 -0.032223955 0.013278889 -0.048130915
000380 9c 59 47 3d 23 dd 91 3d f8 a7 2d 3d 1b 53 8d 3d
       0.048669443 0.071222566 0.042396516 0.06900617
000390 30 26 4a bc 76 cd d8 bc df a7 5f 3c f8 a6 aa bc
       -0.012338206 -0.026465159 0.013650863 -0.02083157
0003a0 79 17 2f 3d e3 64 ac 3c f7 a0 0b bb c2 53 8d bc
       0.042746995 0.0210442 -0.002130566 -0.017251853
0003b0 43 f3 13 3d 28 8e 18 be 23 83 6a be 3b bb af bc
       0.036120664 -0.14897978 -0.22901587 -0.021451583
0003c0 ae 93 24 3c b7 fe 45 3d a6 b5 32 3d 18 5a a3 bd
       0.010044975 0.048338618 0.043630265 -0.079761684
0003d0 13 47 cb bc 2d 6f b3 3d 77 ac 10 bd 51 71 81 3c
       -0.024814164 0.087614395 -0.035320725 0.015801104
0003e0 6c 43 28 3d 1a a7 32 bd c5 c6 7f bd 64 37 2c 3d
       0.041079924 -0.04361639 -0.06244542 0.042045012
0003f0 15 17 5b 3d 5d 8e 89 bc 36 56 c1 3c cd 45 a8 bd
       0.05348881 -0.016791517 0.023600679 -0.082164384

btcnn.layers.2.conv1d.bias f4 [27]
000000 3f 68 93 3c cf 35 4f 3d 62 de 9e bb 83 4b 37 3a
       0.017994044 0.050588425 -0.0048482874 0.0006992148
000010 b8 a1 99 bd 30 e3 6f 3d 2e 1e 9f bd 3d d4 79 bb
       -0.075015485 0.058566272 -0.07769428 -0.0038120889
000020 a8 92 cc 3b e8 26 aa 3c 78 14 99 bd d6 e4 11 bd
       0.0062430687 0.020770505 -0.07474607 -0.035618626
000030 21 72 4f bd 6e f5 3e 3c 2b 3f 3d 3c b7 bb b2 3c
       -0.05064595 0.011655195 0.011550705 0.021818025
000040 e2 43 83 bd cf cc 04 bd c6 4e 4e bc 48 a5 9a 3d
       -0.06409432 -0.032421883 -0.012592023 0.07551056
000050 12 f1 21 3c 90 a6 12 bd 3a 8b 3b bd c5 e4 cb 3b
       0.009884136 -0.035803378 -0.045787074 0.00622234
000060 c1 a9 9c bc d2 d5 61 bd a6 15 cd bc
       -0.019123914 -0.055135556 -0.025034737

fcnn.0.weight f4 [256, 27]
000000 51 a7 2d 3e 0a 90 0d be f8 dd e4 bd a2 ba 95 bd
       0.16958357 -0.13824478 -0.1117515 -0.07310988
000010 06 5b b4 bd 70 df 38 3e 50 c6 ff bd 5d e3 d0 bd
       -0.08806424 0.18053985 -0.12488997 -0.10199616
000020 65 47 1f bd 41 04 85 3c 6e a6 c4 3d fc 6d 80 be
       -0.038886447 0.01623738 0.096020564 -0.2508391
000030 86 da bf 3d f6 1f c2 bc 45 15 1a be 0c 4c 0a bd
       0.09367852 -0.02369688 -0.15047176 -0.03376393
000040 58 1f de 3d 17 d3 4b 3d c7 1d 4e bd 15 ac 84 3e
       0.10845822 0.049761858 -0.050321367 0.25912538
000050 cf ad 43 be d9 a8 22 bd 7e ad db bc 08 7c e3 bd
       -0.19109271 -0.039711807 -0.026816126 -0.111076415
000060 2e a4 98 3d 45 fe 00 3c e4 3c 60 3e 61 94 0a bd
       0.0745319 0.007873123 0.21898228 -0.03383291
000070 64 09 7a 3d a3 be 90 3d ec b6 ad bd bc bc 18 be
       0.06104411 0.07067611 -0.08482155 -0.14915746
000080 1c 56 44 be be 8c 4f bd fd 43 d2 3d d3 b3 e9 bc
       -0.19173473 -0.05067133 0.10266874 -0.02852813
000090 17 9d 62 3d 14 4d bd bc cb 76 3b be a0 91 d1 bc
       0.055325594 -0.023108043 -0.18307035 -0.025582135
0000a0 d5 8c 85 3d 4d 30 2c 3e 04 6f b9 3d 57 1e a5 3d
       0.06521002 0.168153 0.09054378 0.080624275
0000b0 c5 a9 2a 3c a2 f9 65 3c 55 4a 3a be 83 3f b7 3d
       0.010416453 0.014036568 -0.18192418 0.08947661
0000c0 5a 6b 10 be eb 55 f3 3c 37 69 5e 3d 27 7f 36 3e
       -0.14103451 0.029704055 0.05429956 0.17821942
0000d0 bd ef f9 bd 48 0b be bd cf d7 e7 bd 3b 5e 94 3d
       -0.122039296 -0.092794955 -0.11320459 0.072445355
0000e0 3f d0 f2 bd 07 fb 24 be 63 fa 87 bd 4c e7 83 3e
       -0.11856126 -0.16111384 -0.06639554 0.25762403
0000f0 33 a8 13 be d0 c4 df 3d d6 95 42 be 1e 99 70 3b
       -0.14419632 0.10926211 -0.1900247 0.0036712359
000100 73 44 40 be 4d ee 1d bd 56 1c dd bc e5 8e b7 bd
       -0.18776111 -0.03855734 -0.02699105 -0.08962802
000110 6b 08 36 be a7 32 ed bd 15 0e 9c bc 22 96 52 be
       -0.17776649 -0.11581927 -0.019049684 -0.20565084
000120 6f db 07 3d ea 77 6c 3e be 0b 84 bc de 0d 29 be
       0.033168253 0.23092619 -0.01611888 -0.16509196
000130 a4 5c 0a 3e e3 59 a9 3c 96 36 47 bd 09 69 1f be
       0.13511902 0.020672744 -0.04863604 -0.15567411
000140 34 1e 9c bd ff 31 6d 3e eb 9f 53 be a3 3d 5f 3e
       -0.07622948 0.23163603 -0.20666473 0.21800856
000150 af 31 cb bd 57 ad a9 3b d7 63 ed 3d 83 77 85 3d
       -0.09921586 0.0051781344 0.115913086 0.06516936
000160 d3 aa 2a be 66 de e8 3d 47 d7 3c 3c 6f e0 ff bd
       -0.16666727 0.11370544 0.0115259355 -0.12493979
000170 2b 65 97 3c ab b1 42 3e e0 b5 1c 3e 72 ec a1 bd
       0.018480858 0.19013087 0.15303755 -0.079064265
000180 a3 43 9f be 53 52 50 3e da 11 99 bd 79 63 32 3e
       -0.3110629 0.20343904 -0.07474108 0.17420758
000190 d5 bc 9b bd da 70 21 be f8 d4 61 3e 7f a1 32 3e
       -0.07604376 -0.15765706 0.22053897 0.17444418
0001a0 cb f8 60 3e 14 da 84 3d f3 74 3b 3e 1d e1 13 be
       0.21969907 0.064869076 0.18306331 -0.14441343
0001b0 28 6a 2a 3e 7a b5 c9 bb 7a 08 bb 3d 0b 92 23 be
       0.16642058 -0.006155667 0.09132476 -0.1597368
0001c0 0a 9d 0a 3e 0e e0 51 be 04 4d 48 be 6b 5c 18 3d
       0.13536468 -0.20495626 -0.19560629 0.03719751
0001d0 49 64 f7 3c d1 47 4b be 91 e3 5f 3e f1 96 bb bd
       0.030199187 -0.19851615 0.21864153 -0.09159649
0001e0 06 ad 9e bd bc 72 4b 3e 1c e6 b5 bd 5a 52 4c bd
       -0.07747845 0.19867986 -0.088817805 -0.049883224
0001f0 a0 88 7b 3e 86 ee f0 3d a3 a5 48 3c b3 ee 52 3e
       0.24563837 0.11764245 0.012246522 0.20598869
000200 a6 ef f6 bd 8e 84 84 bc 8d 1c 0f 3e 04 c7 bc bd
       -0.12057428 -0.016176488 0.13975735 -0.09217647
000210 cb c5 0a 3c cc dc e7 bd b9 02 e0 3b d0 04 9b bd
       0.008470009 -0.113214105 0.006836262 -0.07569277
000220 43 af b2 bd 6d 69 24 3e 4b 9f 6e 3d 29 f7 53 be
       -0.08724835 0.16055842 0.058257382 -0.20699753
000230 cf 8e b6 bb aa ca f8 3d a0 f7 b0 bd e7 4e 38 be
       -0.0055712233 0.1214803 -0.08640981 -0.17998849
000240 b1 b7 d5 3d de af 03 3e 75 04 bd be 06 4b f5 3d
       0.10435427 0.12860057 -0.36917463 0.119772
000250 1f 46 ff bd 29 50 21 be 2c cd 53 bd c5 e7 c9 bb
       -0.124645464 -0.15753235 -0.05170934 -0.0061616623
000260 b4 ba 45 be 6d dd 51 3e 0d 59 2c 3e d9 d5 d4 3d
       -0.19309503 0.20494623 0.16830845 0.10392351
000270 7b 5a 03 3d 12 0f 87 3d 3a 79 66 3c 66 be 39 bc
       0.03206871 0.06594671 0.014066989 -0.011336898
000280 29 8f 41 3e 78 55 33 3c 67 10 17 be 7c 5d db bc
       0.18902268 0.01094567 -0.14752351 -0.026777975
000290 13 0e 19 3e c2 6f ad 3d 83 54 98 3d 71 b1 2d be
       0.14946775 0.08468582 0.07437994 -0.1696222
0002a0 92 19 e0 bd cc b9 27 be 7c e8 82 3e e5 cb 7f 3d
       -0.10942377 -0.1637947 0.25567997 0.06245031
0002b0 91 04 5b 3c 81 38 f2 bc 8a 62 cf 3d cb 36 9e 3b
       0.013367788 -0.029567959 0.10126217 0.004828309
0002c0 71 64 dd 3d fc 15 26 be 54 04 19 3e 9f b9 44 3e
       0.10810173 -0.16219324 0.14943057 0.19211434
0002d0 5a 48 2a be 30 ac 4b be 2d cb 9b 3d 2d 7a 54 3d
       -0.16629162 -0.19889903 0.07607112 0.05187433
0002e0 59 27 18 3e fe 13 8d be d8 4a d5 3d c1 ca e2 3d
       0.1485876 -0.27554315 0.10414666 0.110738285
0002f0 57 85 d5 bd 9f 69 38 3e 9a 53 a6 bd 28 ed 56 3e
       -0.10425823 0.18009041 -0.081214145 0.20988905
000300 db 6a d1 bd 6e 4e f2 bc bb d5 f6 bd 67 52 97 bc
       -0.10225459 -0.029578414 -0.120524846 -0.01847191
000310 a8 9d 2d 3e 84 1c 8e 3d ca 9e e6 3d 3c 29 fd bd
       0.16954672 0.06939033 0.11260755 -0.123613805
000320 2a ba 86 3e 39 7a 07 3e 6f 5a 01 3d 21 4e da bd
       0.26313907 0.13230218 0.031580385 -0.10659433
000330 14 70 11 be 03 fd 0b 3e 99 c7 8c 3e 85 fb 2c be
       -0.1420291 0.13670735 0.2749603 -0.16892822
000340 a0 f3 c5 3d aa 44 2a be ad 9a 77 3e e3 28 07 3e
       0.096656084 -0.16627756 0.24180098 0.13199191
000350 81 64 62 be 2e 2f b7 bd f7 92 c9 bb b4 4f 79 be
       -0.22108652 -0.08944546 -0.006151553 -0.2434681
000360 59 9e 4e be 4a f7 82 3a f2 87 d5 bd 49 46 40 3e
       -0.20177592 0.0009991911 -0.1042632 0.18776812
000370 07 22 4f bc 37 2f 07 3e 4c 49 84 bd 1b 49 94 bd
       -0.01264239 0.13201605 -0.06459293 -0.07240506
000380 34 66 e7 bd 54 3c 00 3e 08 99 cd bc 4e 5e be 3d
       -0.112987906 0.12523013 -0.025097385 0.09295331
000390 c4 d6 ff 3d a4 92 ef 3d 2b 55 5f 3c ac 8d 37 be
       0.12492135 0.11697891 0.0136311455 -0.17925137
0003a0 59 1c 13 3e 45 ae 37 3e 6b f0 6f bc 8d 71 d1 bc
       0.14366283 0.17937572 -0.014644722 -0.02556684
0003b0 72 fb 1f be 36 1f bc 3d 71 59 46 3e f0 dd 91 be
       -0.15623263 0.091856405 0.19370057 -0.28489637
0003c0 4c 53 87 bd ca 2f 79 bd 6d 7b 90 be 0a d3 0b 3e
       -0.066076845 -0.06083659 -0.28219166 0.13654724
0003d0 bc 03 60 3d 79 fb 06 3e 4f c7 fb bb 70 ac ad 3d
       0.05469106 0.13181867 -0.0076836715 0.084801555
0003e0 d5 4d 2c be fb b5 0d 3e 2c 3a 36 3e d5 5f 58 3d
       -0.16826566 0.13838951 0.17795628 0.052825768
0003f0 0e 83 48 3e 2a 5d 99 3d 29 66 18 3e 67 89 a1 bc
       0.19581243 0.07488473 0.14882721 -0.019718839

fcnn.0.bias f4 [256]
000000 23 cc 2b 3e 26 c1 11 3e c1 97 6a 3e c7 61 16 3a
       0.1677709 0.14233837 0.22909452 0.0005736616
000010 de c9 0b be ce 79 19 3e 10 e8 31 bd 1e fe 4e 3e
       -0.13651225 0.14987871 -0.043434203 0.20214126
000020 fa c3 cf 3d 89 85 15 be 5b 00 20 3e 7d e8 55 3e
       0.101448014 -0.14601721 0.15625136 0.20889468
000030 60 06 6b 3d 3d fe 7a 3d 22 b1 31 3e 61 d6 ce 3d
       0.057379127 0.061277617 0.17352727 0.10099483
000040 f8 af bf 3d c1 e6 0e be a1 a5 89 3d 45 1a 42 3e
       0.09359735 -0.13955213 0.06721044 0.18955334
000050 e0 e7 0e be 9c ac 5d 3d 79 b6 49 bd de ab 0e be
       -0.13955641 0.05411969 -0.049246285 -0.1393275
000060 b6 fc 19 be 33 42 bb bd 67 12 6a 3d e5 43 a8 bc
       -0.15037808 -0.09143486 0.057146456 -0.020540187
000070 d0 41 9d bc ae af 47 bd 7f 6d bf bd 99 7e a5 3d
       -0.01919642 -0.048751526 -0.093470566 0.08080787
000080 e1 10 19 3e 04 90 85 3e e6 6a f7 3d d0 eb 9a 3c
       0.14947845 0.26086438 0.12080936 0.018911272
000090 3b 94 84 bc 63 01 84 3d f8 76 af 3d ad 98 48 be
       -0.016183963 0.06445577 0.08567613 -0.19589491
0000a0 fb df d8 3d 21 74 03 bb 9b 94 19 3e 39 ca 0d 3e
       0.10589596 -0.0020058232 0.14998095 0.13846673
0000b0 1e c1 06 3e f4 dd 3e be 8f 12 aa bd c6 94 60 bd
       0.13159606 -0.18639356 -0.08304321 -0.05482938
0000c0 67 70 43 be c1 04 04 be 90 f4 94 3e 5e f6 d0 bd
       -0.19085847 -0.12892438 0.29092836 -0.10203241
0000d0 0c 28 a5 3d 60 71 0a 3d 08 be 66 3c 87 ed 2e 3d
       0.08064279 0.03379953 0.014083393 0.042706992
0000e0 72 61 1a 3e 7f 54 64 bc 96 a8 84 3d c5 2f 11 3e
       0.15076235 -0.013936161 0.06477468 0.14178379
0000f0 c6 e5 98 bd 38 32 5d 3e 98 f6 51 bc b0 c8 e5 3d
       -0.07465701 0.21601188 -0.01281514 0.11219919
000100 28 72 2e be 41 68 17 be 45 4d 4b be e1 d0 87 3c
       -0.17035735 -0.14785863 -0.19853695 0.016579093
000110 b7 40 29 be 84 4f 29 bd 2f d5 cd 3c f7 a4 9b 3d
       -0.16528593 -0.041335598 0.025126068 0.07599824
000120 e7 86 a6 3d 9b 58 b6 3d fd 41 84 3a 93 2b 56 3e
       0.08131199 0.08903619 0.0010090467 0.2091506
000130 1a b4 da 3d 81 3e fb bd 3d 37 8f 3d fa 9d 1f 3e
       0.10678883 -0.12267781 0.06992958 0.15587607
000140 19 fb 72 bd 74 be 94 bc 1a 41 bc 3d f3 4c b1 3c
       -0.059321497 -0.018157221 0.09192105 0.021643138
000150 38 ae 59 3e 7b 27 15 3e 05 45 25 3d 87 12 12 3e
       0.21257865 0.14565842 0.040349025 0.1426488
000160 ad 88 18 3e 26 3a 21 be 26 89 31 be a4 7a c9 3c
       0.14895888 -0.15744838 -0.17337474 0.024594612
000170 e2 12 89 3d 70 d1 0a be 5a 2c 37 be 66 21 fe bd
       0.06693055 -0.13556457 -0.17888013 -0.12408714
000180 2c f3 02 3e 8a 00 bf bd ab 94 8a bd d4 aa ae bd
       0.12788075 -0.09326275 -0.067666374 -0.08528677
000190 9b 47 5d be b9 e4 dd 3d e3 83 53 3c d0 83 00 3e
       -0.21609347 0.10834641 0.012909862 0.12550282
0001a0 f5 82 ee 3c d7 07 ff 3d b8 6a e7 bd 5a 8e d7 3d
       0.02911518 0.12452667 -0.11299652 0.10525198
0001b0 e0 6a c0 3a 3b db 8e bd 43 a7 e8 3d 3e f3 83 bc
       0.0014680289 -0.06975409 0.11360028 -0.016107198
0001c0 33 0e a2 bc e3 23 c2 bd 67 c6 08 be 78 26 79 bd
       -0.019782161 -0.09479501 -0.13356934 -0.060827702
0001d0 73 cd 75 3c 15 41 03 3e 09 6e 1f 3e b3 a4 77 3c
       0.015002596 0.12817796 0.15569319 0.015114951
0001e0 2a b2 cb 3c 53 83 d5 3d c1 67 37 be a3 d7 b2 3d
       0.024865229 0.10425439 -0.17910673 0.08732536
0001f0 76 fe 4c 3e 6c 8e c0 3d 1c cb ed 3d 3e b0 43 bd
       0.20018944 0.09402165 0.11611006 -0.0477755
000200 de 46 34 3d e7 95 1e 3e 27 32 f6 3d f3 01 e9 3d
       0.044012897 0.1548687 0.120212846 0.11377325
000210 5d 1c cf bd e4 33 7a bd ec e0 05 3e df d1 95 3c
       -0.10112832 -0.061084643 0.13074082 0.01828855
000220 10 b3 0c be e9 c3 53 3e 87 6b aa 3d 1e 6d c9 bd
       -0.13740182 0.20680203 0.083212905 -0.098352656
000230 43 a7 a4 3d 82 6e 2e be aa 67 04 3e 20 9c 43 bd
       0.08039715 -0.17034343 0.1293017 -0.047756314
000240 22 62 09 be 18 5d a4 3d 90 38 e4 3d a1 11 48 be
       -0.13416341 0.08025569 0.11143601 -0.19537975
000250 7b 28 a1 3d da 71 09 bd bf 8d 0f 3e 06 3b 20 3e
       0.07869049 -0.033555843 0.14018916 0.15647516
000260 58 bd c5 3d 17 3e 7c bd 71 42 74 3e 00 87 01 3e
       0.09655255 -0.06158265 0.2385347 0.12649155
000270 c3 a7 44 3e ce c0 75 bd 65 b4 12 be 47 29 9d 3d
       0.19204621 -0.059998326 -0.14326628 0.07673889
000280 18 8b 98 bd 6f e8 3a 3e 82 84 71 be 19 7c c9 bc
       -0.07448405 0.18252729 -0.23585704 -0.024595307
000290 22 36 21 be 04 8c 96 bd 00 ca 7d 3d 75 cc 86 bd
       -0.15743306 -0.073509246 0.06196022 -0.06581966
0002a0 ea 18 b0 bd 7b f5 fd 3d 4a 8a 3b 3e dd 12 15 be
       -0.08598502 0.12400337 0.18314472 -0.14557977
0002b0 77 05 dd 3c e6 33 33 3e a0 6f 01 be df c4 98 3d
       0.026980145 0.17500266 -0.12640238 0.07459425
0002c0 f6 c5 8f bd b1 62 43 bd e1 24 8d bd 5d dc 54 3e
       -0.0702018 -0.04770154 -0.068918 0.20787187
0002d0 31 33 14 be ab 8e 8c bd 2c 1d 26 3e 8c ef 23 3e
       -0.14472653 -0.06863149 0.16222066 0.16009349
0002e0 57 ba 95 3d 34 4e 47 be 8d 88 0a 3e 81 6c 40 be
       0.07310932 -0.19463426 0.13528652 -0.18791391
0002f0 ce 89 53 3e ff 4d e6 3d 9a 42 0c 3d 0c c2 a4 3d
       0.20658037 0.11245345 0.034243204 0.08044824
000300 17 8e 2f 3e 8b 90 fb bd 47 8d 24 be f1 64 59 be
       0.17144047 -0.12283429 -0.16069518 -0.21229912
000310 ab 85 8c bc fd d1 0a 3e d0 cf dc 3c 97 85 60 3d
       -0.017153582 0.13556667 0.026954561 0.0548149
000320 3e 6c 85 3e e2 28 5e 3e 7c a4 85 3d 1a 24 f3 3d
       0.26059145 0.21695283 0.065255135 0.1187212
000330 69 8c ae bd 62 c2 45 be 85 19 43 3e 61 ca 81 be
       -0.08522875 -0.19312432 0.19052704 -0.25349715
000340 01 08 d4 bb e4 c4 1b bc df 67 51 be 91 06 0b 3d
       -0.0064706807 -0.009507392 -0.2044978 0.03394181
000350 7e ee 3b bd 3e 9b ba 3d 18 81 f0 bd e7 cf cd bd
       -0.04588174 0.09111641 -0.11743373 -0.1004942
000360 f1 72 38 3e 44 3f ab 3d a0 3f 29 3e b7 36 41 be
       0.18012597 0.08361676 0.16528177 -0.18868528
000370 09 85 47 bd a7 7a 9f 3d 6a 01 c4 bd f3 bc 27 be
       -0.048710857 0.07787066 -0.09570582 -0.16380672
000380 25 90 9e 3c e3 51 0f be f8 d6 7a bd 00 bd 08 3e
       0.019355843 -0.13996081 -0.061240166 0.13353348
000390 2b 5a 0e bd cf 85 18 3e b3 16 15 3e 03 d6 2b 3e
       -0.03475396 0.14894794 0.1455944 0.16780858
0003a0 e1 65 0e bd 01 a0 55 3e ca 2c 89 3e b9 ad 50 be
       -0.034765128 0.20861818 0.26791984 -0.2037877
0003b0 fb b7 6c 3c 68 65 45 bd ce 4b 8b 3d 09 ff 7e 3c
       0.014448161 -0.04819241 0.06801568 0.015563735
0003c0 68 28 41 3e fa 0f 28 be b1 75 11 bd 95 57 7d 3b
       0.1886307 -0.16412345 -0.03551263 0.003865694
0003d0 00 92 e3 3d d0 c4 3c be 07 34 ce bd a5 77 01 bc
       0.11111832 -0.18434453 -0.10068517 -0.007902061
0003e0 62 e0 e4 bc eb f9 96 bd 4f 43 5a 3e 5f 6e dd 3d
       -0.027939025 -0.07371887 0.21314739 0.10812067
0003f0 6c 1f 9b 3c dd e6 bc bd c4 5b 37 be 0f b0 10 3e
       0.018935882 -0.09223721 -0.179061 0.14129661

fcnn.2.weight f4 [128, 256]
000000 1e 87 44 3c aa e3 84 bb 28 2c b8 bd 2f 1b 4c 3e
       0.011995105 -0.00405546 -0.08992797 0.19932245
000010 18 70 cc bd 20 53 5d be 67 83 b3 3d 1a 74 1f 3e
       -0.09982318 -0.21613741 0.087652974 0.15571633
000020 90 c5 8d 3d ce f2 37 bd 6d 54 ac 3d 72 ff c4 bd
       0.06922448 -0.04490929 0.084145404 -0.09619035
000030 c6 79 b6 3d c9 8d 87 3d 54 b8 0d 3e ed 16 13 bd
       0.08909945 0.0661884 0.13839847 -0.035910536
000040 5b 84 9b 3d 52 24 41 3e 41 ff f6 3d e9 eb 25 bd
       0.07593604 0.18861511 0.120604046 -0.040508185
000050 b2 67 a0 bb b1 e2 21 bd 10 ac 02 3e bd 96 4b bc
       -0.004895174 -0.03952283 0.12760949 -0.0124260755
000060 07 3e bf 3d 5c 9f c7 3c 74 5e 17 3c 90 19 a0 3d
       0.09338003 0.02436798 0.009238828 0.07817376
000070 0d 57 48 be 26 1a b2 3d 5a fe 41 3e 0f 02 b2 3d
       -0.19564457 0.08696394 0.18944684 0.08691799
000080 cb 84 db 3c 3b f4 a9 bc ca a9 0f 3d a6 ed cf bb
       0.026796719 -0.020746341 0.035074033 -0.0063454686
000090 51 cc f5 3d 02 cb 36 3e 0e 0e 81 bd 8d d4 14 bd
       0.12001861 0.17850879 -0.06301509 -0.036335517
0000a0 9c 2b 82 3d 3d a7 f0 3c 85 ff 6d be ca d7 8a 3d
       0.06355974 0.02937662 -0.23242004 0.0677944
0000b0 94 88 99 bd 8d 73 20 3e 3a ed 11 3d 69 70 20 3e
       -0.07496753 0.15669079 0.035626628 0.15667881
0000c0 19 98 a4 be 79 ad 50 bc 52 8d 08 be 12 ef 6c bc
       -0.3214729 -0.012736672 -0.1333516 -0.014461296
0000d0 4d 1c 44 3d d9 43 62 3d 5f 95 26 3d 9c 09 a5 3b
       0.047878552 0.055240486 0.040669795 0.005036546
0000e0 e5 84 a5 3d 19 ff 23 bd 2f ba 01 bd 54 3e 0d bc
       0.08081988 -0.040038202 -0.0316717 -0.008620817
0000f0 9d 62 e6 bb ac fd 98 bd ef 35 a1 bc 60 7a 09 bd
       -0.0070307986 -0.07470259 -0.019679038 -0.03356397
000100 b9 53 43 3d 0d bd 53 bc 44 f3 05 3e a7 5f 01 3e
       0.047687266 -0.012923491 0.1308108 0.12634145
000110 4a b4 10 3e ca 06 86 3d d1 5d 3c 3d 18 d6 44 3e
       0.14131275 0.06544264 0.045987908 0.19222295
000120 ea 50 06 bc 64 03 25 3d 6c fd 07 3e 78 8b dc bb
       -0.008198002 0.040286437 0.13280267 -0.006730493
000130 d1 78 6a be 8f c0 c9 3b 0f c7 d7 bd d5 d1 9f bd
       -0.2289765 0.006156988 -0.10536014 -0.07803694
000140 2e d7 5d 3c ad d3 65 3d ff 08 61 3d fc 0a 60 be
       0.013540072 0.056110073 0.05494022 -0.2187919
000150 a0 e3 8e be 79 4a 6a 3d 2d 75 04 3e 78 31 9f 3d
       -0.2790804 0.05719993 0.12935324 0.07773107
000160 d3 15 36 bd d2 02 dc bd c5 90 b4 3d 47 7a cb 3d
       -0.044454407 -0.107427254 0.08816675 0.09935432
000170 9a b4 38 3d 44 2c 1f be df 32 22 3d 49 9f ef bc
       0.04509411 -0.1554423 0.039599296 -0.029250758
000180 09 aa 1a bd 9b 2c a0 bd 98 12 23 bd 35 93 47 3d
       -0.037759814 -0.07821008 -0.039812654 0.048724372
000190 02 65 93 bc 8d 72 c5 3d 48 60 ee 3c 07 a3 87 3c
       -0.0179925 0.096409895 0.029098645 0.01655723
0001a0 ee f5 ba 3d e7 48 08 3e c2 6b 96 be 4a fb 19 3d
       0.091289386 0.1330906 -0.29379088 0.037593164
0001b0 d9 53 e8 bd c5 98 e9 3d 23 b5 21 be 39 a4 d6 bd
       -0.11344118 0.114060916 -0.15791754 -0.10480542
0001c0 c4 96 a0 3d af 7a a0 bc 11 db e3 bc 0f 6e 2d bd
       0.07841256 -0.01958975 -0.02781442 -0.04234129
0001d0 c7 53 8b 3c fe 21 bf 3d 89 b8 aa bd 0e 27 a5 be
       0.017007722 0.09332655 -0.083359785 -0.3225636
0001e0 c0 c6 cb bd 89 32 a1 3d cf ce dc 3c 03 0e 07 3e
       -0.09950018 0.07870967 0.026954083 0.13188939
0001f0 1a a8 a6 bd 5f cd 01 be 6b 5d ff bc c1 56 7e bd
       -0.081375316 -0.12675999 -0.031172475 -0.062094454
000200 6f 3e 8c 3d 9b af 6c 3d 87 fe 03 bd 91 df 31 be
       0.06847846 0.057784658 -0.032225158 -0.1737044
000210 20 bd 08 3e 22 9e 2a 3e a1 7c 19 3d 22 ab 11 3e
       0.13353395 0.16661885 0.03747237 0.14225438
000220 bb e5 9f 3c cb dc 53 bd 7d 77 0e bd 58 27 56 be
       0.019518724 -0.051724236 -0.03478192 -0.20913446
000230 d6 93 b4 3d bd 6d 02 3e 19 51 bd 3b eb 85 c9 3d
       0.0881726 0.12737174 0.00577749 0.09839996
000240 8a 3f 99 3b 03 f6 64 bd 6d 99 10 3e 0f 62 af 3d
       0.004676764 -0.055898678 0.14121027 0.08563625
000250 b9 69 87 bd a5 14 33 bd 86 07 23 bd 5a cd 54 3c
       -0.06611962 -0.04372086 -0.039802097 0.012988413
000260 0d 13 98 3d 08 fb d6 bc bf 4b 47 bd ce 83 4e 3d
       0.07425509 -0.026242748 -0.04865622 0.050418667
000270 6e 37 74 3d ee 97 4c bb e7 32 a4 3d 98 21 89 bd
       0.059623174 -0.0031218487 0.08017521 -0.066958606
000280 dc 2a 0b be 34 b6 4d ba 6e f9 6e 3d 29 a5 3d bd
       -0.13590568 -0.000784728 0.058343343 -0.046300087
000290 bf 9e d8 3d 6a c9 5d bd 9d c2 2a be 90 9c c3 3c
       0.105771534 -0.05414716 -0.16675802 0.023878366
0002a0 ad 49 ad bd cd 65 ba 3d 64 15 2d 3e 8c 56 86 bd
       -0.08461318 0.09101448 0.16902691 -0.06559476
0002b0 1c f6 ba 3d ff 66 3e bb 3f 02 89 bc 9f b3 05 bc
       0.09128973 -0.002905309 -0.016724704 -0.008160501
0002c0 ce 97 c9 bc b0 cd 26 3d 09 44 6e 3d fd 4c cc bb
       -0.024608519 0.040723503 0.058170352 -0.0062347637
0002d0 d8 bd fc 3b 8b 55 de 3d 2d 55 9d 3d 42 1c 99 bd
       0.007713061 0.1085616 0.076822616 -0.07476093
0002e0 82 9c de bb d8 b9 ac bc 4a 72 af 3d 8b 96 e3 3d
       -0.0067935595 -0.021084711 0.08566721 0.11112698
0002f0 46 24 d5 3c 7b e9 88 3d ed c4 4c 3d 95 5a 16 3e
       0.026018273 0.06685158 0.04999249 0.14682992
000300 91 40 9f bd 07 8e e1 3c b8 45 49 bc c7 00 6d 3c
       -0.07775987 0.027533544 -0.012284689 0.014465517
000310 a3 e1 03 bd 01 e0 ae 3d ac 7f 10 3e b9 63 1c 3e
       -0.032197606 0.08538819 0.14111203 0.15272416
000320 85 17 81 be 1f f5 9e 3b 3b a1 8c 3c 20 4d 2e be
       -0.25213256 0.004850998 0.017166724 -0.17021608
000330 86 f9 4b 3e f0 75 f5 3d 90 a8 0f 3d 4b 3e 54 3d
       0.19919404 0.119853854 0.035072863 0.05181722
000340 cf fb 96 bd f2 67 f3 3c e0 42 ff bc b7 90 3f bb
       -0.073722474 0.02971265 -0.031159818 -0.0029230544
000350 f4 66 04 bd 22 a1 e0 3c 6e 27 d3 3d ba ec d4 bd
       -0.032324746 0.027420584 0.10310255 -0.103967145
000360 76 90 b3 bd 66 4b ca 3d 0b 1e 13 be 16 4e 83 be
       -0.08767788 0.09877662 -0.14366929 -0.25645512
000370 ea fe 55 3e c9 b4 01 bd 54 26 67 3d f6 76 21 3e
       0.20898023 -0.03166655 0.056433037 0.15768036
000380 c3 1d 86 bd 5d 3d 74 3d ff c2 9c bc 94 36 28 3d
       -0.06548645 0.059628833 -0.01913595 0.041067675
000390 b0 74 f5 bc 1c f7 32 3d 7f 6a a4 bd 72 ae 1f bd
       -0.029962867 0.043692693 -0.08028125 -0.038984723
0003a0 7b 69 1a be f2 e8 e8 bd f0 77 a5 bd b5 eb ec 3d
       -0.150793 -0.11372556 -0.08079517 0.11568395
0003b0 6b da a8 bd 06 df d0 bd c7 6c ab 3d 19 8f 8d 3d
       -0.08244785 -0.10198788 0.08370357 0.06912059
0003c0 97 b0 f6 3b 68 87 09 bd a3 ba d3 3c 0a f5 23 bc
       0.0075283754 -0.0335764 0.025845831 -0.010007152
0003d0 16 c6 ff bb 9e d5 37 3e ca c2 c8 3d 9c 50 b6 3d
       -0.007805596 0.17952582 0.09802778 0.08902094
0003e0 2d ba c6 3d 90 cf 1d bd b7 20 c6 bd 95 a7 b9 3d
       0.09703479 -0.038528025 -0.096742086 0.09065167
0003f0 fc aa a5 3d 1c e7 96 bb 57 f2 4e 3e af 0f 3f be
       0.08089253 -0.004605187 0.20209633 -0.18658327

fcnn.2.bias f4 [128]
000000 99 81 35 bd 29 0b d0 bd 86 b7 12 3c 47 49 33 bd
       -0.044313047 -0.10158379 0.008954888 -0.043771055
000010 fc 75 82 3c 69 4c 65 bd 82 2c 2e 3c 29 2b 58 bc
       0.0159254 -0.055981074 0.010630729 -0.013193884
000020 47 08 f8 3b a1 bd 8d 3d 5f 66 22 3d 48 39 28 3c
       0.007569346 0.069209345 0.03964841 0.010267563
000030 6c ac c3 3d 95 40 52 3c 8b 64 c1 bb bc ce 3b 3c
       0.09554371 0.01283278 -0.0059018782 0.011462864
000040 c0 16 cf 3c c8 67 23 bd 1c 73 25 bd e7 e7 06 bd
       0.025279403 -0.039893895 -0.04039298 -0.032936003
000050 b1 c5 55 bd d4 3f 18 bd 76 46 1f bc 5a eb b3 3d
       -0.052190486 -0.037170246 -0.009721389 0.08785124
000060 73 1b ad bc 22 9f 11 3c 1d 05 ab bd 24 20 09 bd
       -0.021131253 0.008888038 -0.08350585 -0.033477917
000070 87 46 79 bd 7e f5 5a bd da 43 82 3d 9f 7d 2a 3d
       -0.060858276 -0.053456776 0.06360598 0.041623708
000080 79 f9 b5 3c 97 3e 53 3d 75 46 5d bd 94 2b fb bc
       0.022213684 0.051573362 -0.05402227 -0.030660428
000090 ef b1 88 3d e9 01 97 bd bc c5 84 bb 3e 37 26 bd
       0.06674563 -0.07373411 -0.004051892 -0.040580027
0000a0 34 68 7d bd 47 2a 88 bd ca f1 b6 bd fe 98 75 3b
       -0.061866954 -0.06648689 -0.08932836 0.0037475224
0000b0 70 c0 9a bc 54 57 69 bb 51 91 5d 3d 14 21 a1 bc
       -0.01889059 -0.003560503 0.054093663 -0.019669093
0000c0 7f 3c 1d bb 16 16 ad 3c 57 2b af ba 0d b7 90 bd
       -0.0023992357 0.021128695 -0.0013364357 -0.07066164
0000d0 ca 96 4f 3d b5 89 4d 3c 45 f2 89 bd 2d c4 4b bd
       0.050680913 0.012545039 -0.06735662 -0.049747635
0000e0 8d 75 63 3c 08 2d 2c 3b 53 81 4a 3d cb 15 6e bd
       0.013883007 0.0026271958 0.04943974 -0.058126252
0000f0 59 f4 df 3a b0 72 02 3d 4a f4 15 3d 35 f1 42 b9
       0.0017086371 0.031847656 0.036609925 -0.00018591138
000100 4f d7 8a bb c2 af 18 3d 35 a9 10 3d bd d3 36 bd
       -0.0042370926 0.03727699 0.03531762 -0.044635523
000110 32 22 1b bd 63 fb ba 3c 10 fe 38 bd 9c e6 3a bd
       -0.037874408 0.022824949 -0.045164168 -0.045630082
000120 6d 02 98 3d 02 f9 63 3d 71 e7 ad bd b5 92 40 3c
       0.07422338 0.055657394 -0.084914096 0.011753728
000130 8a ff 4f bd 62 11 8b bd 55 7e 80 3d f9 f4 3e bc
       -0.05078081 -0.06790425 0.06274096 -0.011655086
000140 a2 b6 38 3d 04 e7 e5 bc 66 f9 a7 bd 4a d1 a3 3c
       0.045096047 -0.028064258 -0.08201866 0.019997258
000150 00 b1 ea 3b 16 e7 33 3d 58 c5 04 bd 36 16 d6 bc
       0.0071622133 0.043921553 -0.032414764 -0.026133638
000160 43 a1 64 bc 96 93 61 3c 0a 34 8e 39 3f bb c0 bc
       -0.013954463 0.013768097 0.00027123123 -0.023526786
000170 96 36 31 3d be ef c2 bc e9 f8 95 bb b5 21 ae bd
       0.043264948 -0.023795959 -0.0045767915 -0.08502523
000180 04 e6 23 bc 00 e9 92 3c 11 bf 51 3d 5a 47 81 3d
       -0.0100035705 0.017933369 0.051207606 0.06312437
000190 10 14 b5 bb 6d 99 fb 3b 1a 4e bf 3c 7a 35 d1 bc
       -0.0055260733 0.007678202 0.023352671 -0.025538195
0001a0 07 4f 64 3b 54 3e 05 bd 9c de 77 bd 32 36 b7 bd
       0.0034837143 -0.032530144 -0.06051503 -0.08945884
0001b0 5a dd c2 3d 73 86 cc bd c6 c9 9a bd 50 6c 2d bd
       0.09514876 -0.09986582 -0.075580165 -0.042339623
0001c0 b2 b5 4c bb 7e 25 22 3d 5f 63 ed 3c 7f c8 36 3b
       -0.0031236229 0.039586537 0.028978048 0.00278905
0001d0 fd 94 98 bd 06 aa c7 bc 28 8b f5 bc 4d 2e 0b 3e
       -0.07450292 -0.024373066 -0.029973581 0.13591881
0001e0 c0 28 a1 3c 91 2f 64 3c 66 18 9d bb bb 0f bb bc
       0.019672751 0.013927356 -0.0047941683 -0.02283465
0001f0 7b f9 66 3c 1c b5 45 3d c2 74 9f bd 72 89 6e bd
       0.014097567 0.048268422 -0.07785942 -0.058236547

fcnn.4.weight f4 [64, 128]
000000 6f 6a 8b bc e4 9d 5c bd bd bd 0e be 69 61 e3 3d
       -0.017018525 -0.053861514 -0.13939567 0.11102564
000010 47 63 89 bd 77 4a 83 bd 38 56 97 bd e3 ce be bd
       -0.06708389 -0.064106874 -0.07389492 -0.09316804
000020 39 ae b6 3d 4c c8 14 be 59 45 a5 bd af 50 88 3d
       0.08919949 -0.14529532 -0.08069868 0.06656014
000030 fd 8b 1b 3d d9 b7 50 bd d2 90 e6 bd b6 5b c9 bd
       0.0379753 -0.05095658 -0.11258091 -0.098319456
000040 56 7f 29 be 6b 1c 0c be 94 1b 43 bc 3b 21 9c 3d
       -0.16552481 -0.13682716 -0.011908431 0.07623526
000050 5f db 3f bd e5 18 84 bd 1a 73 06 be b3 a9 ba 3d
       -0.046840068 -0.06450061 -0.13129845 0.09114399
000060 4e c6 8b bd f9 5d d5 bc 64 ed fb bd a0 10 20 bc
       -0.06824933 -0.026045786 -0.12301138 -0.009769589
000070 8e e0 9c 3c c0 23 7b 3d fd 0a 7a 3c 2c be 2d bd
       0.019150045 0.06131339 0.015261409 -0.04241769
000080 af b0 e5 bd 79 f9 d4 bd ad 1c 7e bd da 41 75 bd
       -0.1121534 -0.10399146 -0.062039066 -0.059877254
000090 7f c7 79 3d b7 9b c6 bd e5 b8 7c 3e 37 28 dc 3d
       0.06098127 -0.09697669 0.24679907 0.10749858
0000a0 33 26 b8 3c 96 f3 23 be f1 7b 00 be a4 07 aa bc
       0.022479152 -0.1601089 -0.1254728 -0.020755596
0000b0 ee b9 4c be 87 41 8f bd 9c c9 ca 3d 3a 49 37 3e
       -0.19992802 -0.0699492 0.09901735 0.17899027
0000c0 f7 91 b4 3d 0f d1 c5 3d 6c 6d e0 bd 84 25 37 be
       0.08816903 0.096590154 -0.109583706 -0.17885405
0000d0 60 50 09 3e 50 d1 32 3d bd 69 00 3e e7 9e 12 3e
       0.13409567 0.043656647 0.12540336 0.14318429
0000e0 aa a0 00 3e b7 e7 20 3e d3 d9 0d be e4 fc 0c be
       0.12561288 0.15713392 -0.13852625 -0.13768345
0000f0 1d 21 34 3d 0b 09 ec bd 5e 5a 9b 3d 53 b9 91 bd
       0.04397689 -0.11525162 0.075855955 -0.07115426
000100 6c 68 dc bd cc 8c ab bd 70 cc e3 3d f7 28 be 3d
       -0.107621044 -0.08376464 0.11122978 0.09285157
000110 de f7 20 3d 13 ec a7 3d a2 e3 0e 3d 29 80 19 bd
       0.039298885 0.081993245 0.034885056 -0.03747574
000120 8a e3 63 bd d0 45 62 3e 34 fc 04 bd fc 3e 1c 3e
       -0.05563692 0.22096944 -0.032467082 0.15258402
000130 4d 51 d2 bd 3f 61 c3 bd 3e 7c 83 be e0 e0 74 be
       -0.10269413 -0.095400326 -0.25680727 -0.23913908
000140 0f 2a 97 3d 38 3a d1 bd 85 81 bf bd 78 38 e0 3d
       0.07381069 -0.102161825 -0.09350876 0.109482706
000150 5e 63 92 bd 3c 3a 27 bd d0 24 61 3c 3d 6a b4 bc
       -0.07147859 -0.04082702 0.013741687 -0.022023315
000160 b2 a9 ea bd b9 45 3b 3d 6c 6e 24 be 6e ba d0 bd
       -0.11458148 0.04572079 -0.16057748 -0.10191809
000170 88 2f db bd b8 d3 2a 3e 03 bc e9 bd e2 f6 d9 bd
       -0.10702425 0.16682327 -0.114128135 -0.10642792
000180 60 ac d0 3d 0a db 85 bd 3c 2b 23 be 13 ae 44 3e
       0.10189128 -0.06535919 -0.15934461 0.19207029
000190 c6 a5 71 3d da 3c d1 bc 45 98 45 3e 1f 83 86 bd
       0.058995984 -0.025541712 0.19296367 -0.06567978
0001a0 d8 ca 5d bd 2d 94 99 ba 04 29 52 be 4c a0 85 be
       -0.054148525 -0.0011717133 -0.20523459 -0.2609886
0001b0 8a 3d 51 3e 7f 8a c4 bd 9e 13 02 3e 30 e9 95 3c
       0.20433632 -0.095967285 0.12702796 0.018299669
0001c0 36 72 86 be 1b 9f 1f be 51 17 11 be d5 ce 5e 3a
       -0.2625901 -0.15588038 -0.14169051 0.00084994483
0001d0 36 62 47 be 32 e5 56 be aa 6f 80 bc ea bd 01 be
       -0.19471058 -0.20985869 -0.015678246 -0.12670103
0001e0 7c 62 76 be 70 20 92 bd 5c 35 5e bd 29 3b 65 bd
       -0.24061006 -0.07135093 -0.054250106 -0.055964623
0001f0 ef 46 0a 3e f6 3d de 3c 23 2b 3e be 9f 75 b1 bd
       0.13503622 0.027129155 -0.18571143 -0.086650126
000200 4c 42 7b 3d b7 ab 1d 3e c1 e5 0f 3d bd bf 80 3c
       0.061342523 0.15397535 0.03513122 0.015716428
000210 78 42 d0 3d 19 e2 11 3e 75 bd b8 3d 95 83 41 3e
       0.10168928 0.14246406 0.09020511 0.18897851
000220 7d ff e8 be 40 b7 1d 3e 9b 23 22 3d fb 89 b8 bb
       -0.45507422 0.15401936 0.039584737 -0.005631683
000230 20 93 b5 bd f6 ec 13 3e e0 2b 90 3d 0f fb d6 bc
       -0.088659525 0.14445862 0.070396185 -0.026242761
000240 a6 5c 00 3e 2c eb 0f 3e 13 78 1e 3e 7c b5 ad bd
       0.12535343 0.14054555 0.15475492 -0.08481881
000250 8b c4 44 3d 98 62 24 3e 85 88 83 3d 6f 79 cb be
       0.048039 0.16053236 0.064225234 -0.39741084
000260 16 01 0b 3e 94 58 e1 bd 11 2b 75 3e 8c 5d 87 bd
       0.13574633 -0.11003223 0.2394221 -0.066096395
000270 65 b8 25 be 89 48 ac bd 1a 1b 3c 3d d0 96 5b 3b
       -0.16183622 -0.084122725 0.045924284 0.003350664
000280 bd 52 0b 3e 80 0d be 3d 8f 47 da 3d 2b 28 22 3e
       0.13605781 0.09279919 0.1065818 0.15835635
000290 68 95 b1 be bd c3 49 3e 63 c7 b3 be 72 72 6a bd
       -0.346843 0.19703574 -0.35113057 -0.05723805
0002a0 09 5c 53 bd a4 f6 d5 3d e2 b9 1b 3e 59 fc 28 3e
       -0.051601443 0.104474336 0.15207627 0.16502513
0002b0 fc 52 0b 3e 36 65 1d bb 1a 6e ec be aa 74 30 be
       0.13605875 -0.0024016625 -0.4617775 -0.17232004
0002c0 13 03 cd bb de ce c0 be 7c 10 2a 3e 8c 56 12 3e
       -0.00625647 -0.37657827 0.16607851 0.14290828
0002d0 ee 8b 52 be 71 3b 1f be 7e df a7 be 06 18 5d bd
       -0.20561191 -0.15550019 -0.32787699 -0.05397799
0002e0 08 a3 07 be cf 5d 51 be de a1 55 3d fe 37 dc 3c
       -0.13245785 -0.20445941 0.05215632 0.026882168
0002f0 bc cd c5 bd 75 fd e9 3d eb 54 ab be 63 27 0e 3e
       -0.09658381 0.11425296 -0.33463225 0.13882212
000300 af 1d 36 3e 88 a7 a2 be 7c f6 93 be 3e 34 95 bd
       0.17784761 -0.3176844 -0.2889899 -0.07285355
000310 0a 1b 0c be 10 eb 96 bd c9 40 94 bd 8d 4b b7 bd
       -0.1368219 -0.07369053 -0.07238919 -0.08949957
000320 e7 9c 2f be 50 f0 a0 be e7 67 42 3e ed 62 54 be
       -0.17149697 -0.31433344 0.18984948 -0.20740862
000330 20 1c 98 3d d2 b8 5d 3e 82 b6 b7 3e 79 b4 17 3e
       0.074272394 0.21652535 0.3588143 0.14814939
000340 db c5 ff bd d7 8c f1 3d 45 ae 2b 3e 56 03 78 bd
       -0.1248891 0.11794441 0.16765697 -0.060550056
000350 65 ce 1a 3d 5b 4d 9a bd 3f 70 cd bd c5 25 6b bd
       0.03779449 -0.07534286 -0.10031175 -0.057409067
000360 b2 4c 41 3d 47 2a a1 bd 66 18 11 3e 75 19 fc 3d
       0.047192283 -0.07869392 0.14169464 0.12309543
000370 10 b2 4b 3d e1 5e 08 bf 41 b2 83 3d 0b b7 7f 3e
       0.04973036 -0.53269774 0.064304836 0.24972169
000380 e7 9e e3 bd 78 75 75 3c 5a cd 56 3d 20 3a 99 be
       -0.111142926 0.01498162 0.052441932 -0.29927158
000390 9b 54 3e bc ec 06 10 3e 5d c3 bb be 46 16 ff bb
       -0.011616851 0.1406514 -0.36672488 -0.0077846376
0003a0 2c a4 ac 3c 86 5f 57 3d 67 54 24 3e c7 b0 60 3e
       0.021074377 0.052581333 0.16047822 0.21942435
0003b0 f7 17 99 be 6d be 6f 3d ea e6 8f be be 32 11 bc
       -0.29901096 0.058531214 -0.2810586 -0.008862196
0003c0 32 30 7f 3e cd 49 07 3e 0f c5 ab 3d 6e a1 e0 bd
       0.24920729 0.13211747 0.08387195 -0.1096829
0003d0 7b 24 57 3e ec 7c aa bd 8b bc 67 bc ff 8a dc bd
       0.2101001 -0.08324608 -0.014144073 -0.10768699
0003e0 88 86 81 3e c4 b9 21 3d 67 e4 de bd 4b 5b d3 3d
       0.25297952 0.0394838 -0.10883408 0.10320147
0003f0 f1 44 f2 bd 0a ad 4e 3d 1b 9d 0a 3e 7b 97 17 3e
       -0.11829556 0.05045799 0.13536493 0.14803879
