experiments/justification/models/MediumBTCNN_SmallFCNN_2.pth (torch, 284086 bytes, 21 tensors)

btcnn.layers.0.conv1d.weight f4 [128, 27, 3]
000000 7e 31 5d be c7 2d 6f 3c e0 61 91 bd df 69 0e 3d
       -0.21600911 0.0145983165 -0.07098746 0.034768935
000010 9b ae 0f 3f 31 7e 1a 3f 23 85 cc 3e b0 d7 38 3e
       0.561258 0.603488 0.39945325 0.18051028
000020 aa 70 1f 3e 54 74 89 be 0c 61 4f 3d 5e 09 3b be
       0.15570322 -0.26846564 0.05062966 -0.18265292
000030 0a 8b 8b 3c df b2 43 3d 67 c4 05 bd e4 4b 8e be
       0.017034072 0.047778007 -0.032658007 -0.27792275
000040 a0 cc 91 3e d9 2f bb 3d 7c b4 71 3e eb c8 9c 3c
       0.2847643 0.091399856 0.23604006 0.019138774
000050 c5 09 99 3d fe 62 a2 bd 5a a2 8e bd b9 72 4a bd
       0.074725665 -0.079290375 -0.0696456 -0.049425814
000060 3d dc 34 3e 20 15 a6 bd 0b cb 1d be e8 75 d8 3e
       0.17662139 -0.08109498 -0.15409486 0.42277455
000070 95 4e d7 3c 4e cb fc bc a3 b3 27 3d 22 93 f0 bc
       0.026282588 -0.030858662 0.0409428 -0.029367033
000080 d9 80 4f bd 31 f0 e3 3e 8b 1a b0 be 21 b7 43 bf
       -0.050659988 0.4451919 -0.3439525 -0.7645131
000090 3e c3 42 3d 90 c5 a2 bd 5d 64 76 3d 69 0a b2 be
       0.04754948 -0.07947838 0.060154308 -0.34773567
0000a0 ea 0e 83 3e a0 b1 aa bd 8c 96 21 be d0 d6 45 be
       0.25597316 -0.083346605 -0.15780085 -0.19320226
0000b0 ce c9 b0 bc f7 de 40 bc 2d e1 16 3d 5d c6 37 bd
       -0.021580603 -0.011771909 0.036835838 -0.04486691
0000c0 ba 8a ca 3d e6 8b 51 3e b0 bb 98 3d 62 36 8e 3e
       0.09889741 0.20463523 0.074576735 0.27775866
0000d0 7d 0f 22 3e 8e 02 64 3c 9d d8 be 3e 08 83 bb bc
       0.15826221 0.013916625 0.37274638 -0.022889629
0000e0 eb 71 17 3d 9a 10 13 bd 3a 31 27 3f 6c a3 3e be
       0.036973875 -0.035904504 0.6530949 -0.18617028
0000f0 33 a7 fa bb 8b e8 b3 3e ba fa 9a 3e 0b 8c 3d bd
       -0.007649326 0.35138354 0.30269414 -0.046276134
000100 92 93 f2 be c7 c2 a9 bd d4 b5 6e be 28 a9 25 be
       -0.47378212 -0.08289104 -0.2331155 -0.16177809
000110 f2 4d b8 3d 96 d9 5e 3e e7 cd b4 3e 47 7f 66 bd
       0.08999242 0.2176269 0.3531334 -0.056273725
000120 62 03 81 be bd 35 a5 bd 98 9d 5d 3d 18 2d 29 bd
       -0.25197893 -0.080668904 0.05410537 -0.04130277
000130 30 cb 8c be aa 6d 2b bd d3 fb 8b bc c7 57 62 3e
       -0.2749877 -0.04185263 -0.017087853 0.22103797
000140 b7 54 1d 3e f0 b1 b7 bd fb 67 02 be a7 3a 82 3d
       0.15364347 -0.08969486 -0.12734978 0.06358843
000150 f7 7c 00 be c6 ae dd be e0 b1 30 3e 43 65 86 be
       -0.1254767 -0.43297404 0.17255354 -0.26249132
000160 99 a7 43 bf a5 ac e3 bc da 79 17 3b b2 2f 97 3d
       -0.7642761 -0.027792284 0.00231134 0.07382144
000170 72 85 8b be f3 c5 bb 3d 00 76 e5 be 20 2f 1c bd
       -0.27250248 0.09168615 -0.4481659 -0.03813088
000180 a4 1f 0b bd 5f 07 61 3e 74 cb d3 3d b9 2f a6 3d
       -0.03396572 0.21975468 0.1034154 0.08114571
000190 bf 64 9c be c7 39 35 bd 42 58 e5 3d a9 d7 99 be
       -0.30545613 -0.044244554 0.111984745 -0.30047348
0001a0 dd 9b df bc fe 05 67 bd b2 36 98 3c c6 00 2d 3d
       -0.027296001 -0.0564022 0.018580768 0.042237066
0001b0 6a 30 d6 be 9e 52 ff bd 72 6e 67 bc 47 75 36 bd
       -0.41833812 -0.1246693 -0.014125453 -0.04454544
0001c0 13 62 fa 3d ab 8d f5 bb ac 4c 98 bd e3 d1 0e bc
       0.122257374 -0.007493695 -0.07436499 -0.008717033
0001d0 1d e8 db 3e 39 36 01 be 01 18 7d 3b 6b 49 33 3d
       0.42950526 -0.1261834 0.0038619044 0.04377119
0001e0 4f 7c 75 3e 6e bb d6 bd ab 2a f5 b8 67 6a 24 3e
       0.23973201 -0.10484968 -0.00011690458 0.16056214
0001f0 ef bc 10 3e fd 69 bd bd 3c eb 35 bd c4 2c 38 bf
       0.14134572 -0.09248731 -0.04441379 -0.71943307
000200 3d 27 34 bd 27 d6 55 3e 47 fc a0 bd ab dd 5f 3c
       -0.043982733 0.20882474 -0.07860618 0.01366369
000210 20 2e 48 bd 48 10 0c 3e 8e 1b 16 3c 64 3e ee bd
       -0.048872113 0.13678086 0.009161843 -0.11632994
000220 a2 e4 06 3f c5 51 d4 3d 95 80 96 be 53 6f d6 bd
       0.52692616 0.10367159 -0.29394975 -0.10470452
000230 d8 63 a2 3d 36 db 40 3e 4e 7b 82 3e 78 60 03 3e
       0.079292 0.18833622 0.254847 0.12829769
000240 92 fc 1a be 72 05 26 bd bb 7f 53 3e a4 5c 93 bd
       -0.1513541 -0.040532537 0.20654194 -0.07195404
000250 92 9a 02 3e 6d 00 ce bd a8 33 93 bd 11 0f 95 3e
       0.12754276 -0.10058675 -0.07187587 0.29113057
000260 c7 9b 6e 3c 97 85 b5 3e 8e 07 05 bc 78 25 b0 be
       0.014563507 0.35453483 -0.008119477 -0.34403586
000270 6f cc 8e 3d 28 2d 89 3c d9 0e bb bd 47 5f 31 be
       0.06972586 0.016745165 -0.09133691 -0.17321502
000280 7d 62 1a 3d 99 3c 27 3e 1d 02 86 be 4e 26 02 bd
       0.037691582 0.1633171 -0.26173487 -0.03177481
000290 57 7a b7 3d 4a 87 16 3f bf e1 b9 3c 98 a0 dc bc
       0.08958881 0.58800185 0.022690652 -0.026932046
0002a0 78 08 ac bc 7d ae 2e 3e 7a be 21 be 2e ec 9e bc
       -0.021000132 0.1705875 -0.15795317 -0.019399729
0002b0 9c 4e fd 3d 5a 4a 8d be ed 9a 21 3e 10 24 0f 3d
       0.12368509 -0.27595788 0.15781756 0.0349465
0002c0 59 6e 44 bd 21 3e a7 3e 7e 06 2f 3e fd 39 4c 3d
       -0.0479568 0.32664588 0.1709232 0.04985999
0002d0 53 db 01 3e c8 ea 7e bd 2b de a6 bc 43 72 a9 bd
       0.12681322 -0.062235624 -0.02036961 -0.08273747
0002e0 d7 09 85 3d 80 62 4a 3d 59 4c 23 3e 34 f8 cf 3d
       0.064960174 0.049410343 0.15947093 0.10154763
0002f0 5d fe 93 3d ab 67 37 be 88 c9 e5 bd 47 f7 89 bc
       0.0722625 -0.1791064 -0.1122008 -0.016841544
000300 0b 72 03 bd 75 17 87 bd cd 01 a6 bd 78 a8 3c bd
       -0.03209118 -0.06596271 -0.08105812 -0.0460591
000310 f0 cb 14 3e 3c a6 8e bd 08 b4 a5 bd 33 50 93 3c
       0.14530921 -0.069653004 -0.08090979 0.017982578
000320 0e 48 cf bd e5 0c 91 bb 31 54 07 bf e4 5f 78 bc
       -0.10121165 -0.004426586 -0.5286284 -0.015159581
000330 38 56 4f 3d 48 20 09 be c7 0c f1 3b ab c2 5a bd
       0.050619334 -0.1339122 0.0073562595 -0.053408306
000340 af cd 6a 3d b5 9e 5a 3e 39 5d 5e 3e 60 bd 06 be
       0.05732506 0.21349604 0.21715249 -0.13158178
000350 fd b9 23 bd e6 26 86 be 86 5a c0 3c 84 2c 7c 3d
       -0.039972294 -0.26201552 0.023480665 0.06156589
000360 8e 90 ba be d1 28 9d 3e d7 d1 b9 bd c6 32 9f be
       -0.3643841 0.30695203 -0.09073227 -0.31093425
000370 7a b1 70 3d e9 0c 86 3e 3a 05 85 3e ff 50 c6 3c
       0.058763005 0.26181725 0.2598055 0.024208544
000380 e7 14 db 3d 2c 0e 78 be 18 c8 0b 3d cf d4 10 3e
       0.10697346 -0.24224156 0.03412637 0.1414368
000390 d7 f7 c2 3c 6d d0 09 3e 80 12 d7 bd 05 88 58 3d
       0.02379982 0.13458414 -0.105015755 0.052864093
0003a0 26 e2 be 3d 8e ce cb bb 7e 69 96 3d 3e d7 bb bd
       0.09320478 -0.0062196916 0.0734434 -0.091719136
0003b0 0b ba e8 bd 98 a9 b8 3d fb 9b d2 3d 46 f2 05 3e
       -0.1136361 0.090167224 0.10283657 0.13080701
0003c0 63 03 aa 3d 0f 9c a3 3d cf 9b 34 3e ef a0 06 3e
       0.08301427 0.0798875 0.17637561 0.13147329
0003d0 2f ca 86 be 55 5c eb bb cd 70 c1 3e fa e6 ea bd
       -0.2632613 -0.0071826377 0.37781373 -0.114698365
0003e0 ff 6a fa 3d 35 f6 10 be 7f 57 13 3e e7 b7 78 3d
       0.12227439 -0.1415642 0.14388846 0.060722258
0003f0 91 42 98 3d 1a 37 6a 3e 86 a8 d2 bd 02 94 aa be
       0.074345715 0.22872582 -0.102860495 -0.33316046

btcnn.layers.0.conv1d.bias f4 [128]
000000 ab d3 36 3e 0c 47 71 bd 65 6f 4e 3d 24 cc 61 3e
       0.17854182 -0.058905646 0.050399203 0.2205053
000010 a8 0a 46 3e 4f 4e 0a 3e 16 37 98 bd 88 a2 ec bd
       0.19340003 0.13506435 -0.07432382 -0.11554438
000020 21 b5 80 3d e6 63 4c 3d 8c 29 bc 3c db 00 0d 3d
       0.062845476 0.049899958 0.02296903 0.034424644
000030 16 61 94 bd 98 e2 45 3e dc e5 18 3d f9 2c b2 3e
       -0.0724508 0.1932472 0.037328586 0.34799936
000040 ec a4 b7 3d 67 64 1a 3e 38 70 25 3e 11 0b 2b 3e
       0.08967003 0.15077363 0.1615609 0.1670344
000050 9e 6f c2 3d 64 25 2f 3e ab 0d fc 3d 9e 44 1c 3e
       0.094939455 0.17104107 0.123072945 0.1526055
000060 8c 36 8f bd a5 78 cf bc c6 48 35 3e a8 cf a6 3d
       -0.06992826 -0.025326082 0.17703542 0.08145076
000070 67 d3 0c 3e 9b ef 15 3e b0 28 98 3e 26 7d 70 3e
       0.13752519 0.14642183 0.29718542 0.2348524
000080 68 10 29 bb 70 f1 01 3e b1 f5 ab bc 41 cc 90 3e
       -0.0025797132 0.12689757 -0.020991178 0.28280833
000090 3c 12 2b bd 41 84 78 3d 93 9c 18 3e 00 3b c6 bd
       -0.041765437 0.060673002 0.14903478 -0.09679222
0000a0 40 f1 94 3e f1 30 eb bc 2e 42 66 bd 4e 0e e8 bd
       0.2909031 -0.02870986 -0.056215458 -0.113308534
0000b0 0f 6b 6a 3c 78 cd 12 3e 0e 2f 49 bd 93 6a 0a 3e
       0.014307751 0.14336193 -0.04911714 0.13517217
0000c0 96 fc ba 3e 93 35 00 3e c0 c6 04 3b 9e fb 0d 3e
       0.36520833 0.12520437 0.0020260066 0.13865516
0000d0 35 14 3e 3e 45 38 06 3e 0d de 45 3c bb ff 17 3d
       0.18562396 0.13107403 0.012076867 0.037109118
0000e0 f0 45 60 bd 76 eb 4c bd 66 96 fb 3d 73 7c f7 3d
       -0.054754198 -0.05002924 0.122845456 0.12084284
0000f0 65 3c 2f 3e e1 e0 00 3e d4 66 0e 3e 08 e5 89 3e
       0.17112882 0.12585784 0.13906413 0.2693255
000100 30 d3 21 3d a2 84 be 3e ab 87 3b 3d aa 5f 0d be
       0.039508045 0.37210566 0.04578368 -0.13806024
000110 a9 64 09 3e 07 48 98 3e 19 40 76 bc 2b a6 92 3d
       0.13417305 0.29742453 -0.0150299305 0.071606
000120 75 1e 16 3e 25 fe 7b 3e 12 4d 53 3e 3f 3a 1d 3e
       0.14660056 0.24608667 0.20634869 0.1535425
000130 21 a0 0a 3e 95 91 95 3d 67 40 0b be 7b 8b d2 3d
       0.13537647 0.07303158 -0.13598786 0.1028051
000140 a0 07 ce 3d 81 80 ad 3d 3c 5c 17 3e 8a a6 38 3e
       0.10060048 0.08471776 0.14781278 0.1803228
000150 c4 d7 8c 3e 24 5e 00 be 75 b0 6e 3d 36 ac 25 3e
       0.27508366 -0.12535912 0.05827375 0.16178975
000160 df 4e c0 bd c5 41 38 3e c6 00 3c 3e 36 e0 74 bc
       -0.093900435 0.17993839 0.1835967 -0.014946034
000170 04 c7 4f bd ad 5d cd 3d ab 42 61 bb e3 43 2c 3e
       -0.050726905 0.10027633 -0.0034372013 0.16822772
000180 62 23 df 3b a0 8d ec 3d 04 7e 45 3d c9 f1 dc 3d
       0.006809638 0.1155045 0.04821588 0.10788304
000190 15 83 b7 3e a0 16 99 3c f8 c3 6c 3e d2 b4 88 3e
       0.35842195 0.018687546 0.23121631 0.26700455
0001a0 a0 30 24 bd e6 e5 1d 3e fe eb 46 3e e6 f0 a0 3d
       -0.040085435 0.1541973 0.19425961 0.07858448
0001b0 23 cd c9 3d 81 de 84 bc b8 14 db 3d f3 6b af 3d
       0.0985358 -0.01621938 0.10697311 0.085655116
0001c0 de 0b a6 3d 19 e4 8b bd 88 c2 cf 3d 36 d3 4c 3e
       0.08107732 -0.068306156 0.10144526 0.20002446
0001d0 70 4a ba 3d da 18 6d 3d c4 da 26 3e 18 49 9f 3d
       0.09096229 0.05788503 0.1629439 0.077776134
0001e0 68 95 c8 3d 1f d9 c5 3d 4e 30 8f 3d 26 93 8a 3e
       0.09794122 0.09660553 0.06991635 0.2706539
0001f0 ed 80 5b 3e 73 4d 34 3e 6b e7 34 bd 4c d5 6f 3e
       0.214359 0.1760767 -0.04416601 0.2342121

btcnn.layers.2.conv1d.weight f4 [27, 128, 3]
000000 9d a9 d4 3e dd 61 0c 3f de 34 18 be ec 0f 0d 3e
       0.41535655 0.5483683 -0.14863917 0.13775605
000010 4b 0c 19 3d 87 1c 1d 3e 6b 80 75 bc 6f 4f 21 3b
       0.03736524 0.15342914 -0.0149842305 0.0024613997
000020 cd 23 30 3d 0e 41 59 3d a0 30 c4 bc 97 15 c9 3d
       0.043002892 0.053040557 -0.023948967 0.09818571
000030 62 c1 1e be 76 50 19 3d 62 f5 8f 3d 65 c0 80 3d
       -0.15503457 0.03743025 0.07029225 0.06286696
000040 3b aa 71 3d 91 c6 b2 3d 1b d0 f2 bc 7d ad 88 bd
       0.059000235 0.0872928 -0.029640248 -0.06673715
000050 e5 be 14 3e 6a e5 1b be a2 9f 16 be a7 c1 6a 3d
       0.14525945 -0.15224233 -0.14709333 0.057313588
000060 30 1d b6 bd 48 50 e0 ba 92 5b 7a 3d ae c9 36 3d
       -0.08892286 -0.001711377 0.061122485 0.04462593
000070 40 2b 4a 3d ba 3f 7e b9 a7 35 63 bd bc f4 08 be
       0.049357653 -0.00024247068 -0.05547109 -0.13374609
000080 f0 32 95 3d f0 eb 59 bd 90 ad b3 bc a2 f6 57 bc
       0.07285106 -0.053203523 -0.021933347 -0.01318136
000090 13 70 8c bd a8 b3 ce 3c 00 e6 03 3c a5 31 ad 3c
       -0.06857314 0.025232151 0.008050442 0.021141836
0000a0 c8 02 8c 3d ae 51 49 bc a8 b9 56 3b 24 b2 87 bd
       0.06836468 -0.01228754 0.0032764468 -0.066257745
0000b0 69 9e a1 3c f4 27 a5 3d d5 b4 ae be 80 a9 14 3e
       0.019728856 0.08064261 -0.3412234 0.14517784
0000c0 40 5e 5b be da e9 f1 3c b7 29 97 3d fd a8 6d 3b
       -0.21422672 0.029530454 0.07381003 0.0036264055
0000d0 d0 f6 ae be e6 c9 84 3d 78 eb f0 bd e6 c1 67 bc
       -0.34172678 0.064838216 -0.11763662 -0.01414535
0000e0 89 ba 82 3d e2 2b a6 bd 78 b5 d1 3c 5b 9d 50 3c
       0.06383235 -0.08113839 0.025599226 0.012732829
0000f0 a5 eb 40 3d 19 76 e0 3d 77 ac d2 3d 06 70 43 bc
       0.047099728 0.10960025 0.10286801 -0.011928564
000100 f4 71 45 3d 51 ce 3f 3e 36 68 04 bd fe 1a 9d bc
       0.048204377 0.18731047 -0.032325946 -0.01917791
000110 fa 7f 81 3d 27 4a 33 bd f7 24 1d be 1f 39 e1 3d
       0.06323238 -0.04377189 -0.15346132 0.10997223
000120 ce 41 0c bd 80 05 3c bd 02 40 37 3d 44 1d 95 3d
       -0.034242444 -0.045903683 0.044738777 0.072809726
000130 44 41 0d 3b f6 ed 98 3d fd be 30 3d 92 4a 18 bd
       0.0021553794 0.074672624 0.04315089 -0.03718049
000140 bd 81 1e be bc 35 3b 3d 85 37 d3 be ac 02 a9 bd
       -0.15479179 0.045705542 -0.41253296 -0.08252463
000150 1b 6b 37 3e 4b aa 8f 3c 37 f4 91 be 39 89 e9 bd
       0.17911951 0.017537257 -0.28506634 -0.11403126
000160 29 dc 1f 3d 12 4a 3a 3e 89 ef 4c 3d 31 44 09 3c
       0.03902832 0.18192318 0.050033126 0.0083780745
000170 ba bf 1b 3e 10 2d c2 bd a3 89 b3 3d a0 5c 9f 3c
       0.15209857 -0.09481251 0.087664865 0.019453347
000180 68 50 ef bb 0a 0c 84 3d 6c c3 80 3d 2b 98 28 bd
       -0.0073032863 0.06447609 0.06287274 -0.041160744
000190 a6 12 88 3d c5 47 19 3e b2 77 13 be 9e 1e ac bd
       0.06644182 0.14968784 -0.14401129 -0.08404277
0001a0 18 f2 a0 3d 37 03 a7 ba 83 23 b5 3c 08 47 4a 3d
       0.07858676 -0.0012742047 0.02211166 0.049384147
0001b0 10 18 48 3d 70 cb 22 bd e0 e3 69 3d 9e d4 5f bd
       0.048851073 -0.039744794 0.057102084 -0.054646127
0001c0 4a 4c a5 bc e6 14 c8 bb 2a 8a b9 3d e2 cc 38 3d
       -0.020177979 -0.006106007 0.09059556 0.045117266
0001d0 86 20 31 3d ad 74 1d be e9 a8 8a be 6c 6a d4 bd
       0.043243907 -0.1537654 -0.27081993 -0.10371861
0001e0 2c 66 c6 bc a6 0f f8 bc 16 e3 b3 3c c1 60 27 bd
       -0.024218641 -0.0302809 0.021958869 -0.040863756
0001f0 d7 10 3c 3e 80 65 0b 3a 89 01 f1 3b ae f9 a6 bd
       0.18365799 0.0005317554 0.0073549193 -0.08153091
000200 2f 9d d4 3d af dc a9 3d 3d 3c d9 bd e7 f7 bf 3b
       0.10381543 0.08294045 -0.10607193 0.0058584097
000210 fa f4 3d bd 4b 87 23 bd ad 29 01 3d 1d 89 68 3d
       -0.046376206 -0.039923947 0.031533886 0.056771386
000220 98 2d 9c bd 8e 69 7b bd a1 7c de 3c 58 81 ac 3d
       -0.07625884 -0.06137996 0.027159037 0.08423108
000230 20 4f 9f 3d 77 f8 c3 3c 3c 69 98 bc 5b a6 5a 3d
       0.07778764 0.023922188 -0.018604867 0.053381305
000240 12 b7 e2 3c 5c c0 8d be 5e 9a d0 3d 1f a2 cb bd
       0.027675185 -0.2768582 0.10185693 -0.099430315
000250 d6 ba 3a be a8 0d 18 3e 0d 1e 50 3d 23 43 85 bd
       -0.18235335 0.1484896 0.05080991 -0.06506946
000260 e6 8b 11 3d 01 07 d9 3d 29 7e 1f 3e 1a fb 32 3c
       0.03553381 0.10597039 0.1557547 0.010924125
000270 91 71 93 be 89 47 eb bc 9f 1b db 3d b1 cf fd 3d
       -0.28797582 -0.028720634 0.10698628 0.123931296
000280 ef 1a c5 3c f1 19 39 3d 9f 44 8e bd 9d 48 9c be
       0.024060695 0.045190755 -0.06946682 -0.3052415
000290 c1 d3 07 3d a3 fb 06 bf a3 af b3 bd 4d 0c 46 3d
       0.03316093 -0.5272772 -0.087737344 0.048351575
0002a0 b9 e6 c3 3a 37 07 cc bc 3f 90 42 3d 68 1d 53 3d
       0.001494608 -0.024905784 0.047500845 0.051541716
0002b0 04 3f ad bc 83 d9 9a bd 59 01 6a 3e 6e 80 6d 3e
       -0.021148212 -0.07561018 0.22852077 0.23193523
0002c0 8b 4e 57 3e 6a 2b 83 3d 9b fb 8b 3e 4c 8b 51 3e
       0.21026056 0.06404765 0.27340397 0.20463294
0002d0 c7 a9 24 be 3e d4 c4 bd 56 19 30 3d b9 5b 55 3e
       -0.1608039 -0.096107945 0.042992912 0.2083577
0002e0 2a d2 aa 3d a0 cc 46 3e 99 41 9d 3c 49 3b 98 3d
       0.08340867 0.19413996 0.019196318 0.07433183
0002f0 8f dc b7 3d dc 89 60 3d 63 85 75 be b5 85 68 be
       0.08977615 0.054818973 -0.23976664 -0.22707255
000300 58 d3 4d bb 02 5c 9c bd bd 47 9c 3c fa 4f 01 3f
       -0.0031406488 -0.076347366 0.019077176 0.5051266
000310 8d 92 08 3e d3 da fe bd d0 e7 d9 bb 96 b1 ce bc
       0.13337155 -0.12444081 -0.0066499487 -0.025231164
000320 a4 9c dd 3c 39 54 0d 3d 8e 05 8d 3c 97 5d cb 3c
       0.027052231 0.03450415 0.017214563 0.0248249
000330 0b ab 22 3e 10 a4 b7 3d 88 28 b7 3d 02 74 a9 3c
       0.1588556 0.08966839 0.089432776 0.0206852
000340 3d 65 c8 3d 16 74 22 bc a5 c7 03 bd c6 c8 5d bd
       0.09784935 -0.009915372 -0.032172818 -0.05414655
000350 64 46 b4 bc d0 ea 12 3d 03 6a fe be 2a 60 f3 3d
       -0.022006221 0.035868466 -0.49690256 0.11883576
000360 d9 db b8 3d 0f d6 d0 be ec fd 06 3e 0d ee 68 3d
       0.090263076 -0.40788314 0.13182801 0.056867648
000370 ed ce b2 be 5f 52 9d be 6a 44 5d 3d 02 40 99 be
       -0.34923497 -0.30726907 0.054020323 -0.29931647
000380 d2 a0 ba bd a9 b6 de 3a a0 5b 47 3e 70 e6 e1 bd
       -0.09112705 0.0016991693 0.19468546 -0.110302806
000390 c4 86 48 3d 52 b3 4d 3d 07 fd 9f 3c ed f6 0f be
       0.048956648 0.05021984 0.019529833 -0.14059038
0003a0 d6 36 12 3e 96 e0 fd bd 72 32 2d be 4b b0 8b bd
       0.14278731 -0.12396352 -0.16913775 -0.068207346
0003b0 e4 e4 07 39 80 1c 43 bc 0e c7 85 3b f3 61 3c 3d
       0.00012959872 -0.01190865 0.004082567 0.04599185
0003c0 62 53 d9 3d a4 02 8f bb f5 1c 36 bc 5b 57 49 bc
       0.10611607 -0.0043643285 -0.011115302 -0.012288894
0003d0 38 56 06 3d 6f 45 19 3d 78 36 8a 3d 57 2c 03 bf
       0.03279707 0.037419733 0.0674867 -0.5123953
0003e0 f8 27 03 bf c9 c4 d2 3d ec 17 18 3e 33 47 fa bc
       -0.5123286 0.1029144 0.14852875 -0.030551529
0003f0 85 8e c7 be 46 fd e1 bc c2 b0 48 be 6c 03 2a bc
       -0.3897592 -0.02758659 -0.19598678 -0.010376792

btcnn.layers.2.conv1d.bias f4 [27]
000000 8a d2 c3 bc 91 54 4b bb 6a 6e 81 bd d1 10 45 3b
       -0.023904104 -0.0031025747 -0.06319888 0.0030069838
000010 6a 8e 17 bd b7 f1 b7 bc e1 a0 a2 bc 59 8f 69 3d
       -0.03700105 -0.022454126 -0.019852104 0.057021473
000020 16 9b 20 bd c6 3a a5 3c 40 a4 31 be 9e d0 4e 3b
       -0.0392104 0.020169627 -0.17347813 0.003155745
000030 5a 28 da 3d 04 d8 de 3c 7f 8a b5 3c 4e 57 cb bc
       0.10652228 0.027202614 0.022160767 -0.024821904
000040 05 19 26 3e b6 36 c4 bd 54 83 87 bd b7 41 2e bd
       0.16220482 -0.09580748 -0.06616846 -0.04254314
000050 6b 61 34 bd 9c e2 08 3c 5d c4 24 bc 5a b1 f7 3c
       -0.044038218 0.008354809 -0.010056582 0.030235935
000060 0c dd 0a bd a0 1f 26 3d e3 93 c1 3b
       -0.033902213 0.040557504 0.005907522

fcnn.0.weight f4 [64, 27]
000000 bf 04 95 3e 7b fa 42 3e a1 38 8d 3e 55 a2 4f 3e
       0.29105183 0.19040863 0.27582267 0.20276769
000010 a4 9e 70 3e 24 48 a3 3e 43 1a 88 3e 45 60 77 be
       0.23498017 0.31890976 0.26582536 -0.24157818
000020 bd e4 32 3e f6 bb 14 bf b3 0f 25 bd ae 6c 97 3c
       0.17470069 -0.58099306 -0.040298175 0.01848444
000030 b8 3a 90 3d f0 8a a5 be b4 dc d6 be e2 f5 86 be
       0.0704245 -0.32332563 -0.41965258 -0.2635947
000040 f6 cc c6 3c a2 fa a8 3d 9c ad 0e 3e 4c 9d 03 3d
       0.024267655 0.082509294 0.13933414 0.032132432
000050 c7 af 18 3e 14 4d 7c bc 5f a3 65 3e 3c ff 23 3d
       0.14910804 -0.015399236 0.22425602 0.040038332
000060 19 69 08 3d 08 08 88 3e 73 09 e0 be 7a 8d bd bd
       0.033303354 0.26568627 -0.4375721 -0.092555
000070 92 27 78 be 59 20 be bd 76 ab 45 3c 3d b1 8a be
       -0.24233845 -0.092835136 0.012064805 -0.27088347
000080 0e c2 b8 bd 18 89 ce bd 2f 10 28 3e e4 09 9c bd
       -0.09021388 -0.10084742 0.16412424 -0.07619074
000090 4b 2b 88 3e 58 fa a9 3d ef a0 7e 3d 06 c5 5a 3b
       0.2659553 0.082997024 0.062165197 0.0033381595
0000a0 d7 1c 4c 3e 09 3c 93 3e 2d e9 78 3e 3e 6e 4a 3e
       0.19932877 0.2875674 0.243077 0.19768617
0000b0 2b 4b 0a 3e 0f 96 14 bd 70 68 ea bd a0 06 a6 3d
       0.13505237 -0.03627592 -0.11445701 0.08106732
0000c0 99 05 7d be 21 b9 7d be 62 0b 79 be 67 35 46 be
       -0.24709167 -0.24777652 -0.24320748 -0.19356309
0000d0 49 d7 53 be da 4e 70 3e ab ec 0a 3d 00 8a 6a 3d
       -0.20687594 0.2346758 0.03391711 0.057260513
0000e0 15 c5 0f be 41 a3 9d bc 56 b1 52 3c 9c fe 77 be
       -0.14040025 -0.019242885 0.012859663 -0.2421822
0000f0 c1 ec 42 be 43 8a af 3e b3 89 04 be ec 1b 9a 3e
       -0.19035627 0.34285173 -0.12943153 0.30099428
000100 bc 0a 24 bc 7c d0 bf bc ab 07 b9 3c 89 53 ea 3e
       -0.010012325 -0.023414843 0.022586664 0.45766857
000110 8d 32 e1 3d c7 90 cb 3d 36 7b 71 bd 06 cd 81 3d
       0.1099597 0.099397235 -0.058955394 0.06337933
000120 8d 46 62 be 0f 05 fb 3d b1 c6 0c 3e 05 48 01 be
       -0.22097225 0.12256824 0.1374767 -0.1262513
000130 b3 4f d2 bc f4 46 ac 3d 99 1a 26 3e 92 02 24 bd
       -0.02567277 0.08411971 0.16221084 -0.040041514
000140 8f 67 b5 3e 65 d9 98 be 05 be 53 be 24 f0 62 be
       0.3543057 -0.2985336 -0.20677955 -0.22161919
000150 0e 71 44 be 23 46 79 be 65 fb 40 be c2 57 a7 3c
       -0.19183752 -0.24343161 -0.188459 0.020427588
000160 33 a2 e2 3d 86 b6 72 be b2 38 94 3e a6 87 14 be
       0.11066093 -0.2370244 0.28949505 -0.14504871
000170 fb d3 8f be 6e c5 c6 bd a8 fa ca 3e 3d 3b 4f 3d
       -0.28091416 -0.097056255 0.3964436 0.050593603
000180 ba f1 ab 3e a5 be 71 3e fb f2 6a be b1 bf 5d be
       0.3358286 0.23607881 -0.22944252 -0.21655156
000190 09 4b 1c be 17 ac 0e 3d 5d 58 05 be cf 93 98 be
       -0.15262999 0.034832086 -0.13021989 -0.2980027
0001a0 15 98 99 3d eb 2f 8b bd c4 d8 46 be 3e b8 07 3f
       0.074997105 -0.06796249 -0.19418627 0.53015506
0001b0 9e db e1 3d 29 45 a1 3d fa 93 f6 3d f9 ab 81 3e
       0.11028217 0.078745194 0.12039943 0.25326517
0001c0 aa a1 30 3e 94 c7 f4 3d 07 ba 30 3e a2 4f 61 bf
       0.1724917 0.11952129 0.17258464 -0.88012135
0001d0 b3 09 c4 3d 36 67 51 bf ae 9b 90 3d fd 3d 2d 3e
       0.095721625 -0.8179811 0.070609435 0.16918178
0001e0 23 b6 94 bb ff 7a b5 be 3b 45 31 bf f9 85 ac bf
       -0.004538314 -0.354454 -0.6924626 -1.3478385
0001f0 72 21 85 bd 60 17 94 3c 55 cd 5d 3e 9a 43 48 3e
       -0.0650052 0.018077552 0.21660359 0.19557038
000200 7e e3 62 3e b2 0c ed bb 53 09 06 3f 54 c6 77 bb
       0.22157094 -0.0072341794 0.5235798 -0.0037807422
000210 19 94 ab 3e 6b 0f 85 bc d4 dc 5b bf 3b 79 90 bd
       0.33511427 -0.016242703 -0.8588383 -0.07054373
000220 84 28 e1 3d 13 5b 0d 3c 4b 06 64 3b ab 65 c0 bd
       0.10994056 0.008627671 0.003479379 -0.093943916
000230 50 70 33 3d 21 e1 66 be 0d 54 58 bc ba b1 4a 38
       0.04380828 -0.22546817 -0.013203633 4.8326074e-05
000240 85 0c 99 3e 5d 54 36 bc 25 bf 50 be 61 53 93 3e
       0.29892364 -0.011128512 -0.20385416 0.2877455
000250 82 eb bd 3e b9 57 12 3e a5 10 09 3e 68 77 45 3e
       0.3709374 0.14291276 0.13385256 0.19283831
000260 8a 57 87 bd 6a 58 5a be c3 9b b0 3d 04 67 7c be
       -0.066084936 -0.2132279 0.08623459 -0.24648672
000270 3f 31 53 bc c2 2a 85 be 96 e6 cf bd 07 c9 30 3d
       -0.012890159 -0.26009184 -0.10151403 0.043160465
000280 2f 13 8c bd 71 30 57 3e fd 82 08 be 5e 82 67 be
       -0.068395965 0.21014573 -0.13331218 -0.22608325
000290 f8 09 71 be d7 e4 a6 be 4a 2e 82 be bb 7d 05 bd
       -0.23538959 -0.32596466 -0.2542594 -0.03259061
0002a0 ab 34 65 be 34 19 e4 3c 29 d4 8a be ae c0 b6 3e
       -0.22383372 0.027844049 -0.2711499 0.35693878
0002b0 2d 25 39 3d 96 40 c8 bd da b1 9c bc d3 94 c6 3e
       0.04520147 -0.09777944 -0.019127775 0.3878542
0002c0 a5 ed 8d 3e bc 1d 6f 3e 10 68 56 3e 9d eb 5d bd
       0.2772037 0.23351187 0.20938134 -0.054179776
0002d0 65 6f b0 be 09 22 10 be 0c 75 71 be ab f8 50 be
       -0.34459987 -0.14075483 -0.23579806 -0.2040736
0002e0 ae 63 81 be 6a ec 2b bd 91 a1 90 3a 11 42 56 be
       -0.25271362 -0.04197351 0.0011034479 -0.2092364
0002f0 bf d8 c2 3e 51 b1 83 bd 8c 17 48 bc f1 1e 63 be
       0.3805599 -0.06430305 -0.012212645 -0.22179772
000300 a0 f8 40 be 2f 23 8a be 9b 2c 4d bc dd 30 b5 bd
       -0.18844843 -0.26979968 -0.012522842 -0.088472106
000310 78 c4 99 3e fa a8 05 bd 85 16 0b 3f 79 3d 36 be
       0.30032706 -0.03263185 0.5433124 -0.17796887
000320 7f 4d 0f be 46 21 dd bd 63 5d 77 3e 5e bb a6 3e
       -0.13994406 -0.10797362 0.24156718 0.32564825
000330 59 36 d9 3d b0 90 b3 3d d2 f5 73 be d2 e7 a4 be
       0.10606069 0.08767831 -0.23824242 -0.32208115
000340 e2 06 82 3c 99 64 fc 3b 76 d2 01 be 46 41 05 be
       0.015872423 0.007702422 -0.1267794 -0.13013181
000350 e0 df 90 be 70 68 89 be 6a f2 bd bd ff 3d 9f 3e
       -0.28295803 -0.26837492 -0.092747524 0.31101987
000360 c2 3c 4e bd 14 9c f0 bd a7 02 71 be 0e 54 af be
       -0.050350912 -0.117485195 -0.23536168 -0.34243816
000370 ed 95 a7 be 2f 01 99 be 16 d8 47 bd af 77 0d 3e
       -0.32731572 -0.29883716 -0.04879006 0.13815187
000380 dd bd 61 be 0b cc 15 3f dc 22 ba bd 57 75 69 bd
       -0.22045083 0.5851447 -0.0908868 -0.05699667
000390 19 a3 fe 3d 15 c4 eb 3e 05 5d 5a 3e fa d6 c2 3d
       0.12433452 0.46048036 0.21324547 0.0951366
0003a0 42 39 5e 3e 9d 6d 7d bb 6e 3b bf be e0 cb 8e bd
       0.2170153 -0.003867007 -0.3735003 -0.0697248
0003b0 6e 9a 6e be 24 b3 9f be bd 18 8d be 3c 7f 7a be
       -0.23301098 -0.3119136 -0.27557936 -0.24462599
0003c0 ea 84 1a bc 62 e4 b5 bd ff 83 d3 3e 50 77 01 bd
       -0.009431103 -0.08881451 0.41311643 -0.031607926
0003d0 ce c5 ac 3d 62 e8 22 be 0e 7a 8c 3d 1f 6a 16 be
       0.08436166 -0.1590896 0.068592176 -0.1468892
0003e0 a6 31 02 be dd 43 a4 3c 79 77 0f 3e 81 5a e5 bd
       -0.12714252 0.020051891 0.14010419 -0.11198903
0003f0 1a f6 20 3f 67 94 c0 bb eb 02 82 bd ea fb 42 3e
       0.6287552 -0.005877066 -0.06348213 0.1904141

fcnn.0.bias f4 [64]
000000 b8 2b 22 3e 94 16 f8 3d 1d 63 85 bd fe 37 81 3d
       0.1583699 0.121136814 -0.06513045 0.06309508
000010 ee 5b e9 bd 9b 36 cc 3d d8 56 8c bd 8c f3 c5 bd
       -0.11394487 0.09971353 -0.06852502 -0.096655935
000020 f3 23 bd bd 03 46 04 be 79 36 e4 bd 11 56 11 be
       -0.092353724 -0.12917332 -0.11143202 -0.14192988
000030 73 87 8f 3d ab 0d 2e be 75 d6 0c 3e d0 fb 6a 3b
       0.07008257 -0.16997401 0.13753684 0.0035855658
000040 ea 66 5c be a3 7b 1c 3e 78 7e d5 bd 6a d6 dc 3d
       -0.21523634 0.15281539 -0.104245126 0.10783084
000050 30 b1 44 be 6c ab 9f 3d b6 67 f2 3d c3 80 c2 bc
       -0.19208217 0.07796368 0.118361875 -0.023743039
000060 d8 4f 17 3d 68 ef 17 be 3f 65 26 3e 95 40 49 3e
       0.03694138 -0.1483742 0.1624956 0.19653542
000070 1e 13 1f 3d 30 af b2 bd 07 54 8c bd d8 80 13 be
       0.03883659 -0.087248206 -0.068519644 -0.14404619
000080 7f 43 1c be bf 69 e4 3d 62 08 31 bd a5 ea 2e be
       -0.15260123 0.11152982 -0.043220885 -0.17081697
000090 04 b4 27 3e 6e ef 82 bd ee 1b 44 be f9 a6 f0 3d
       0.16377264 -0.06393324 -0.1915128 0.117505975
0000a0 c0 8d 8e 3d 66 cf 32 be 8a 95 ec bd bd ee 33 3e
       0.069606304 -0.17461929 -0.1155196 0.1757154
0000b0 05 f7 b5 bd 92 6d 14 3d 93 b4 bf 3d ec 0a 29 be
       -0.08885006 0.036237307 0.09360614 -0.16508073
0000c0 ab de ad bd 56 78 b5 bd 1e f6 d3 3d b9 e6 0a be
       -0.08489736 -0.08860843 0.103496775 -0.13564576
0000d0 63 b1 1a be 75 d7 8c 3d c1 09 f1 bd 6c 45 36 3e
       -0.1510673 0.06877033 -0.117694385 0.1779992
0000e0 94 28 f9 bd 99 e0 00 bd 93 62 0e 3e 56 ed 10 3d
       -0.12165943 -0.031464193 0.1390479 0.03538259
0000f0 fa 75 8b 3d c4 15 4e bd eb 21 76 3d 8f 1c 7b bd
       0.068096116 -0.050313726 0.06009094 -0.061306532

fcnn.2.weight f4 [1, 64]
000000 41 15 82 3e 90 e8 7b be 87 0c 82 be da 2c 39 be
       0.2540684 -0.24600434 -0.25400183 -0.18083516
000010 50 91 6f 3f 39 b6 93 be d1 cf 1d be 77 ff 81 be
       0.93581104 -0.28849962 -0.15411307 -0.25390217
000020 0c 3e 72 be 00 84 e6 be bf 8a dd be d4 92 7b 3f
       -0.23656482 -0.45022583 -0.43269917 0.98270917
000030 67 4b 8a 3e 6d 2a 6a 3f 1f 9c f3 be 05 2c fa be
       0.27010652 0.91470987 -0.47580048 -0.4886171
000040 66 34 40 3f 8c 2f 81 3f a5 34 dc be 9e 55 63 3f
       0.75079954 1.0092635 -0.43008915 0.88802516
000050 a1 b3 85 3e 1d 60 9b 3e 2b 3b 6d 3f 1f f5 d7 be
       0.26113608 0.30346766 0.9266841 -0.421792
000060 df 7e 3a be 98 6f 69 3e bf e9 ab 3e a8 f2 5c be
       -0.1821246 0.22796476 0.33576772 -0.21576941
000070 6e e2 5b be b0 67 62 be 8d 47 73 bf b7 66 1b be
       -0.21473095 -0.22109866 -0.9503105 -0.15175901
000080 71 99 ad bc 2a 99 37 be 1c 20 7d 3e 72 95 b5 3e
       -0.02119133 -0.17929521 0.2471928 0.3546558
000090 f9 dd 6b 3e 7a bb 71 3e df 63 4b 3e 70 75 0a bf
       0.23033895 0.23606673 0.19862317 -0.54085445
0000a0 a4 ed 82 be e8 a0 6a be 84 c5 88 be b4 5d b3 be
       -0.2557193 -0.22912943 -0.26713192 -0.35032427
0000b0 85 0b 98 be a8 c5 1e be 46 ba 5a be bc 99 90 be
       -0.2969629 -0.15505087 -0.2136012 -0.2824229
0000c0 4e 78 8a 3e 5a f5 62 3e e4 8d 6a 3f dd 97 6b 3e
       0.2704491 0.22163907 0.9162276 0.2300715
0000d0 c1 cb c6 bd 5c 21 5a 3e 08 2d f6 be 96 f1 8c be
       -0.09706832 0.21301788 -0.4808123 -0.27528065
0000e0 f4 98 45 be f4 25 82 3f a1 58 fd be f5 63 96 be
       -0.19296628 1.0167832 -0.4948168 -0.29373136
0000f0 2f 60 0b be e2 9c c6 3e 00 86 41 be 9a e6 a3 be
       -0.1361091 0.38791567 -0.18898773 -0.32011873

exp_avg f4 [128, 27, 3]
000000 76 a0 98 3c 73 14 8f be 00 00 00 00 b9 08 42 3d
       0.018631201 -0.2794529 0.0 0.0473716
000010 bf 62 32 be 42 87 f8 bd 9f 16 92 3d 2a 8d 24 bf
       -0.17420481 -0.121351734 0.07133221 -0.642779
000020 d5 a4 cf 39 02 54 21 3c 89 cf c6 bb 46 a1 c4 3e
       0.00039604926 0.009846689 -0.0060672206 0.38404292
000030 53 6d ed 38 d5 3b ab b9 00 00 00 00 f6 4a 4c b9
       0.00011321404 -0.0003266024 0.0 -0.00019482881
000040 f8 52 89 ba 00 00 00 00 66 fe 77 3a bc 99 8f 3a
       -0.0010476997 0.0 0.00094602106 0.0010955851
000050 00 00 00 00 37 a5 30 3d 20 b2 04 3e 00 00 00 00
       0.0 0.04312631 0.12958574 0.0
000060 af 2a 3a bf 00 00 00 00 83 b5 6d bc cf b7 a1 bc
       -0.7272138 0.0 -0.014508608 -0.019740967
000070 a6 45 1c 3c 00 00 00 00 53 8c 55 34 07 ad 76 b4
       0.00953809 0.0 1.988822e-07 -2.2973482e-07
000080 00 00 00 00 80 b6 8c bd b4 05 d1 3a 46 fa 1a 3e
       0.0 -0.068707466 0.0015947134 0.15134534
000090 fb cf 70 29 f5 6f 9b a9 00 00 00 00 53 b4 45 3c
       5.34711e-14 -6.902804e-14 0.0 0.012066918
0000a0 b3 f9 90 bc 00 00 00 00 ea fd 9d ba be b4 42 3a
       -0.01769719 0.0 -0.0012053822 0.00074274454
0000b0 00 00 00 00 73 14 8f be a6 22 de 3e ff 45 29 3f
       0.0 -0.2794529 0.4338581 0.6612243
0000c0 ac d0 34 3a 74 d2 73 ba 00 00 00 00 ff c6 a9 bf
       0.00068975496 -0.00093010743 0.0 -1.3263854
0000d0 af e5 6e bd 00 00 00 00 65 80 4f be dd 0c ba b9
       -0.058324512 0.0 -0.20263822 -0.00035486268
0000e0 00 00 00 00 23 c2 30 3d 8b 7a d3 be 14 72 26 ba
       0.0 0.043153893 -0.4130443 -0.00063493964
0000f0 aa 33 97 3f e6 ff da 3c af 69 9a 3c 15 22 3d bd
       1.1812642 0.02673335 0.018849222 -0.04617508
000100 77 72 89 be 35 64 31 3e da 0b ca 3b 51 93 ab 3d
       -0.26845142 0.17323382 0.0061659636 0.08377708
000110 00 00 00 00 45 b1 fc 3c 6c 85 a2 bc 00 00 00 00
       0.0 0.030846247 -0.019839011 0.0
000120 2a 51 9b bd 00 00 00 00 1f c2 30 3d c1 76 90 c0
       -0.0758384 0.0 0.04315388 -4.5144963
000130 0e ae 53 bf 5a c8 15 41 e4 ef af be 50 a6 a8 40
       -0.8268746 9.361414 -0.3436271 5.270302
000140 e5 8a 9e 3f d9 07 c7 bd c8 f8 90 3e 00 00 00 00
       1.2386137 -0.09718294 0.28314805 0.0
000150 b0 12 a4 3c 6c cc b5 ba a6 aa 40 bc ec 25 8d 3e
       0.020028442 -0.0013870127 -0.011759436 0.27567995
000160 84 65 b5 bd 9d 3a 8c 39 28 db c0 3e a1 a4 30 be
       -0.08857253 0.0002674655 0.37667203 -0.17250301
000170 8d ef fc bc ce 0b 34 3c 0c 41 99 3c 00 00 00 00
       -0.030875945 0.010989143 0.018707775 0.0
000180 ea 42 28 3c 16 a4 e2 3c 00 00 00 00 fe de e6 bc
       0.01026986 0.027666133 0.0 -0.028182503
000190 82 51 0f 3e 00 00 00 00 2a 65 0a 3a 14 68 34 bc
       0.13995937 0.0 0.0005279357 -0.011011142
0001a0 00 00 00 00 36 c3 8e 3e 00 00 00 00 1a f9 9e be
       0.0 0.2788331 0.0 -0.31049424
0001b0 27 2d fc 3b ad 68 94 3d 00 00 00 00 f6 81 50 30
       0.0076958123 0.07246528 0.0 7.5854645e-10
0001c0 49 bf f4 af 00 00 00 00 be f1 92 3c b9 a0 d5 3b
       -4.4519258e-10 0.0 0.017937537 0.006519404
0001d0 8a 04 74 3e 4d 1d d3 2c 08 4b 30 ab 00 00 00 00
       0.23829857 6.0002337e-12 -6.263189e-13 0.0
0001e0 ca cc ec 38 a5 28 19 bc 00 00 00 00 77 9c ee bc
       0.00011291502 -0.009348069 0.0 -0.029127343
0001f0 ff af 29 3d 00 00 00 00 c8 f8 90 3e 44 c8 0a 3d
       0.04142761 0.0 0.28314805 0.033882394
000200 f8 3e ba 3e 76 85 03 b9 1a 8b de bb 00 00 00 00
       0.36376166 -0.00012542852 -0.0067914845 0.0
000210 a2 4c d3 3d 98 52 4d b9 00 00 00 00 22 29 50 3c
       0.10317351 -0.00019581092 0.0 0.012705119
000220 ee 6b 69 bd 00 00 00 00 ed 30 8c 3c 8a 51 5c be
       -0.056987695 0.0 0.017113173 -0.2151548
000230 84 e7 8e 3a 57 8f af 3e 84 ce 34 3f a6 e1 9d bd
       0.0010902737 0.34289047 0.7062762 -0.07709055
000240 14 5c cd bb 99 84 24 3f 09 08 e4 3e e5 10 c4 39
       -0.00626708 0.6426483 0.4453738 0.0003739662
000250 1b 77 c7 bc 00 00 00 00 fb 56 c2 3d 15 f8 43 bd
       -0.024348786 0.0 0.094892465 -0.04784401
000260 00 00 00 00 7a c4 7f bd 00 00 00 00 e9 30 8c 3c
       0.0 -0.062443234 0.0 0.017113166
000270 12 c0 8d 41 03 90 7b 41 c5 ec 24 41 dd a6 76 3f
       17.718784 15.722659 10.307805 0.96348363
000280 cc 85 e6 c0 0c d4 19 3f bf 80 2d be fb f9 48 3e
       -7.2038326 0.6008918 -0.16943644 0.1962661
000290 00 00 00 00 2f b8 38 3d e5 74 08 be b8 45 81 bd
       0.0 0.045097526 -0.13325842 -0.06312126
0002a0 dc a2 bb be d0 99 79 3d 8d 8f 1a bb e4 f5 08 3e
       -0.3664769 0.060937703 -0.0023584098 0.1337505
0002b0 08 3f 02 bf 20 87 22 be b8 83 0b b9 00 0c 59 3d
       -0.5087743 -0.15871859 -0.00013305142 0.05298996
0002c0 00 00 00 00 42 ad 09 bc be 54 27 bd 00 00 00 00
       0.0 -0.008403124 -0.0408523 0.0
0002d0 32 15 c3 bb a4 43 ce 3b 00 00 00 00 51 61 71 3b
       -0.0059534544 0.0062946845 0.0 0.0036831687
0002e0 35 e9 80 bd 00 00 00 00 eb 8d 9b 3e 00 00 00 00
       -0.06294481 0.0 0.30381712 0.0
0002f0 df cb 55 be 77 ed d4 bc 32 47 38 3b 00 00 00 00
       -0.20878552 -0.025992138 0.0028118608 0.0
000300 8d a7 02 b3 40 f5 84 2f 00 00 00 00 16 bd 23 3d
       -3.042037e-08 2.418492e-10 0.0 0.03997525
000310 ff 34 2e 3d cb 60 74 bc 1a c9 c7 2b 74 bd a0 2c
       0.04253101 -0.014915655 1.4195617e-12 4.568507e-12
000320 00 00 00 00 cb 9c ba 3d 81 32 4d bb 00 00 00 00
       0.0 0.09111937 -0.003131062 0.0
000330 ac c1 6d 3d 62 1d 0f bc 00 00 00 00 fb f9 48 3e
       0.058046028 -0.008735033 0.0 0.1962661
000340 80 bd f2 bd da aa 54 be df f7 68 39 a7 3a fb bb
       -0.118525505 -0.207683 0.00022217583 -0.007666904
000350 00 00 00 00 b7 f8 d1 3c 14 bc a4 37 00 00 00 00
       0.0 0.025631292 1.9637904e-05 0.0
000360 cf f2 b7 bc 03 e3 6f 3c 00 00 00 00 ef bd 08 be
       -0.022454647 0.014641526 0.0 -0.13353704
000370 34 28 7d 3e 79 f0 9f 3c ed 84 e6 be 8d 5b 37 3d
       0.24722368 0.019523846 -0.4502329 0.044765044
000380 db 15 5e bd 92 67 1c 3f 20 40 5b bb 22 77 01 be
       -0.05422006 0.61095536 -0.003345497 -0.12643102
000390 0f b0 6e 3d a9 ef 51 bd 00 00 00 00 20 be aa 3b
       0.05827337 -0.05125395 0.0 0.005210653
0003a0 06 ca 3e 3d 00 00 00 00 55 8e 1c 3b 00 00 00 00
       0.046579383 0.0 0.0023888547 0.0
0003b0 ef bd 08 be f9 1f 71 40 0e a5 9c c0 13 d4 22 c1
       -0.13353704 3.7675765 -4.8951483 -10.176776
0003c0 fc 3a fc 40 01 46 65 c0 fb cf 64 bf fe 28 82 be
       7.8822002 -3.5823977 -0.89379853 -0.254219
0003d0 d0 a3 80 be 00 00 00 00 a8 00 36 3c 5a bb 18 bc
       -0.2512498 0.0 0.011108555 -0.009322012
0003e0 b9 5c 42 bd f1 45 66 bc 3d eb 78 bc dc 18 65 bb
       -0.04745171 -0.014054761 -0.015192804 -0.0034957444
0003f0 8d 35 fd 3d c7 69 af 3d 7d b2 7e 3d 9a 10 37 ba
       0.123637296 0.08565097 0.06218194 -0.000698337

exp_avg_sq f4 [128, 27, 3]
000000 1c e5 24 3b 17 7a 32 42 00 00 00 00 d8 b8 4a 3f
       0.0025160974 44.61923 0.0 0.791883
000010 c4 e4 14 40 36 f4 16 40 9e 34 70 40 cb b4 91 41
       2.3264627 2.3586555 3.7532115 18.213278
000020 ad 0d f2 35 6d 19 f4 3a eb e6 18 40 a2 51 41 3f
       1.8034385e-06 0.00186233 2.389094 0.75515187
000030 41 b1 1d 38 e7 cd 86 39 00 00 00 00 ec cf 1a 37
       3.7596797e-05 0.0002571188 0.0 9.227526e-06
000040 bb 23 22 38 00 00 00 00 52 02 f5 3d a0 39 47 3a
       3.8657086e-05 0.0 0.11963333 0.00075998344
000050 00 00 00 00 dd 3b ac 3c b1 4d 3b 3f 00 00 00 00
       0.0 0.021024639 0.7316542 0.0
000060 db 4c b2 40 00 00 00 00 0f e1 6b 3d fd 96 3a 3e
       5.571882 0.0 0.05758768 0.1822166
000070 fa e0 9e 3e 00 00 00 00 03 a4 bb 2f a7 67 e8 31
       0.31031018 0.0 3.413164e-10 6.7638726e-09
000080 00 00 00 00 87 86 ff 3d 58 3a 49 38 ce 9d a2 3d
       0.0 0.12476831 4.797647e-05 0.07940255
000090 6e ca 59 2b 21 5a 83 2b 00 00 00 00 f6 bf 57 3a
       7.7374814e-13 9.333126e-13 0.0 0.00082302035
0000a0 3f 29 89 3d 00 00 00 00 1e dd e9 38 15 b9 93 38
       0.0669732 0.0 0.00011151492 7.0439804e-05
0000b0 00 00 00 00 17 7a 32 42 06 a2 a2 3f 28 29 2f 41
       0.0 44.61923 1.2705696 10.947548
0000c0 3a 69 00 3a 90 d0 3c 3c 00 00 00 00 62 9e 07 43
       0.00048984925 0.011524335 0.0 135.61868
0000d0 e0 d1 b8 3d 00 00 00 00 1f e8 bf 3d 8f 3d 43 37
       0.090244055 0.0 0.093704455 1.16372385e-05
0000e0 00 00 00 00 e8 98 0a 3f c1 70 7f 40 d3 36 f5 39
       0.0 0.54139566 3.991257 0.0004677089
0000f0 18 af 8c 41 b8 f4 f9 42 c9 20 a5 3f 37 b1 1f 42
       17.585495 124.97797 1.290063 39.92306
000100 a4 5a 05 40 b2 0e e8 40 a4 21 26 3a 46 6d a7 3d
       2.0836573 7.251794 0.00063374103 0.08175139
000110 00 00 00 00 60 f5 3e 3d ae 32 cf 3c 00 00 00 00
       0.0 0.046620727 0.02529272 0.0
000120 d4 65 06 3e 00 00 00 00 e8 98 0a 3f f1 c9 61 43
       0.13124782 0.0 0.54139566 225.78883
000130 6a fa 42 44 da db 82 44 aa 22 c2 42 14 c3 0e 44
       779.9127 1046.8704 97.0677 571.0481
000140 25 81 b7 41 d0 db 1d 3e b1 f2 9b 3f 00 00 00 00
       22.938059 0.15415883 1.2183439 0.0
000150 21 2b 96 3e b3 60 c2 3c a7 6e 98 3d d9 31 e1 3f
       0.2932978 0.02372775 0.0744298 1.7593337
000160 ba ab 96 3f 59 35 9f 36 af d8 4a 40 64 31 2b 40
       1.1771157 4.7447797e-06 3.1694753 2.6748896
000170 48 06 82 3c 96 4e a5 3e e5 c9 ed 3c 00 00 00 00
       0.015872136 0.3228652 0.029026935 0.0
000180 7e 39 87 3c e5 c4 32 3e 00 00 00 00 74 11 27 3f
       0.016506907 0.17457922 0.0 0.65261006
000190 3d 06 fe 3d 00 00 00 00 92 dc 96 36 bb d7 8c 3c
       0.124035336 0.0 4.496026e-06 0.017192712
0001a0 00 00 00 00 d7 e1 85 40 00 00 00 00 1a c4 ff 40
       0.0 4.1838183 0.0 7.992688
0001b0 75 65 8b 3c fb c8 43 3d 00 00 00 00 8b 25 8f 2d
       0.017016152 0.04779909 0.0 1.627389e-11
0001c0 e6 4c 80 32 00 00 00 00 c4 fc 29 3d 81 9f 06 3d
       1.493613e-08 0.0 0.04150082 0.03286696
0001d0 83 ba ff 3e 16 d1 8e 30 59 ca f7 2f 00 00 00 00
       0.49946985 1.0391286e-09 4.5072815e-10 0.0
0001e0 54 7c 25 36 d4 7a 81 3b 00 00 00 00 a7 e1 7a 3e
       2.4659284e-06 0.00395141 0.0 0.24500142
0001f0 f8 da 9d 3d 00 00 00 00 b1 f2 9b 3f 71 22 2c 3d
       0.077077806 0.0 1.2183439 0.042025033
000200 72 b5 a4 42 c4 36 48 35 4d 73 eb 3d 00 00 00 00
       82.354385 7.45855e-07 0.11496601 0.0
000210 b8 c7 11 40 f8 57 6d 36 00 00 00 00 6f 1d 91 3c
       2.2778149 3.5366957e-06 0.0 0.01771423
000220 04 21 9d 3d 00 00 00 00 89 9f 0f 3e 5a a0 10 3f
       0.07672313 0.0 0.14025702 0.5649468
000230 4c 25 32 3b 2d 75 3a 43 a7 b4 14 43 73 cd a0 3e
       0.0027182875 186.45772 148.70567 0.31406745
000240 2a c3 2b 40 ba 2d f7 40 75 2b 3e 42 ae 8f b9 37
       2.6837869 7.724332 47.54244 2.2120625e-05
000250 27 ca 42 3d 00 00 00 00 4e 19 a2 3d 43 39 4f 3d
       0.04755607 0.0 0.07914983 0.05059172
000260 00 00 00 00 ce b7 c0 3e 00 00 00 00 89 9f 0f 3e
       0.0 0.37640232 0.0 0.14025702
000270 aa b7 54 46 7f f0 02 46 96 ae 58 45 76 c2 c6 42
       13613.916 8380.124 3466.9116 99.37981
000280 3e 39 4d 44 2b 4b 3d 43 22 c2 42 3f 24 50 d4 3f
       820.8944 189.29362 0.76077473 1.6586957
000290 00 00 00 00 fd b9 49 3e ae 65 f1 3d d1 be a3 3e
       0.0 0.19699855 0.11786972 0.3198152
0002a0 07 72 a9 3f fc cf 68 3f 17 ad ce 39 88 58 2c 3f
       1.3237923 0.9094236 0.00039420344 0.6732259
0002b0 1f 9b 09 40 30 e8 31 3f d6 aa 08 3c eb 55 8f 3d
       2.1500928 0.69494915 0.008341512 0.069988094
0002c0 00 00 00 00 f4 1a 12 3b 69 dd ce 3d 00 00 00 00
       0.0 0.0022293897 0.101008244 0.0
0002d0 b4 c3 80 3c 44 59 0a 3d 00 00 00 00 f0 bd ca 3b
       0.015718319 0.033776537 0.0 0.006187193
0002e0 99 ce e2 3c 00 00 00 00 78 31 a9 3f 00 00 00 00
       0.027686404 0.0 1.3218222 0.0
0002f0 1f 47 ee 3f 1c aa 04 3d 07 ba 4d 3d 00 00 00 00
       1.8615454 0.03238879 0.050226238 0.0
000300 21 2c 10 33 f2 da 0a 34 00 00 00 00 2d 11 96 3d
       3.3567748e-08 1.2931903e-07 0.0 0.07327495
000310 86 d8 84 3c 5d 33 26 3e 39 84 ec 2f f1 a1 a1 31
       0.016216528 0.16230531 4.30221e-10 4.7041273e-09
000320 00 00 00 00 d5 59 a8 3d 33 f2 f8 3b 00 00 00 00
       0.0 0.08220259 0.007597232 0.0
000330 ae 02 c0 3d 28 b5 6e 3d 00 00 00 00 23 50 d4 3f
       0.09375511 0.058278233 0.0 1.6586956
000340 0c 8e 3f 3f 52 a3 a6 40 24 fd 9f 3c 98 f5 a6 3d
       0.7482612 5.2074366 0.019529887 0.08152312
000350 00 00 00 00 e0 df be 3f 14 f6 e8 39 00 00 00 00
       0.0 1.4912071 0.0004443383 0.0
000360 c1 8c 30 3b b2 33 40 3c 00 00 00 00 2e ab 26 3f
       0.0026939365 0.011731075 0.0 0.6510495
000370 c7 df 8d 3e b5 4d 4c 3b 71 30 50 41 a0 08 9e 40
       0.2770979 0.0031174247 13.0118265 4.938553
000380 7d 56 d2 3d 09 3b 74 40 35 43 fa 3f 1e ba 39 40
       0.102704026 3.8161032 1.955176 2.9019847
000390 53 48 c3 3d 5f 11 35 3d 00 00 00 00 e4 53 7a 3b
       0.09535279 0.04420602 0.0 0.0038196975
0003a0 88 dd a4 3d 00 00 00 00 db 43 2e 3e 00 00 00 00
       0.08050066 0.0 0.17018072 0.0
0003b0 2e ab 26 3f d2 76 36 44 9f 9c 20 44 7e fc bb 44
       0.6510495 729.85657 642.4472 1503.8904
0003c0 e2 d8 07 44 7d 37 19 44 1d d1 8f 41 0d 63 4d 3f
       543.3888 612.867 17.977106 0.80229264
0003d0 50 c9 75 3f 00 00 00 00 f4 99 26 3f 5f db 90 3e
       0.96010303 0.0 0.65078664 0.28292367
0003e0 70 54 ad 3e 11 43 c7 3f 82 64 ce 3f e4 84 0b 3a
       0.33853483 1.5567342 1.6124423 0.00053222314
0003f0 e4 6c 5b 3f 07 a1 11 40 8f 0e ac 3e 76 42 f3 3b
       0.8571303 2.2754533 0.33604857 0.0074236942

exp_avg f4 [128]
000000 8b 18 a4 bf 86 9a d0 3f 44 9c c8 3e a4 65 7b 3f
       -1.281999 1.6297157 0.3918172 0.98201966
000010 a9 9a dc bf 54 2f 8c 40 9d a4 bb 3f e9 fc 08 c0
       -1.7234699 4.3807774 1.4659611 -2.1404364
000020 d7 f0 f5 3f 5d 0f ff 3f 45 c9 c0 3f 71 fe 77 40
       1.9214123 1.9926564 1.5061423 3.8749049
000030 29 30 80 40 39 37 28 c0 31 e9 26 40 2c 4f bc c0
       4.005879 -2.6283705 2.6079829 -5.8846645
000040 fd ec aa 3f 69 04 1f 3f d9 a7 a4 3e 38 9b c7 bf
       1.3353573 0.62116104 0.32159308 -1.5594244
000050 cc d1 62 3f fe 69 6d 40 f2 b7 e1 bf 38 38 e4 c0
       0.88601375 3.7095942 -1.7634261 -7.1318626
000060 65 d1 7d 40 59 54 b6 40 ed 36 19 c1 2d 23 8e 3e
       3.9659054 5.6977963 -9.57591 0.27761212
000070 a4 38 6b c0 72 9a 9d 3f ac 43 04 c0 e6 4b 8b c0
       -3.675332 1.2312758 -2.0666304 -4.353015
000080 79 ec 28 3c 35 69 5a be 5d ef 4c bf fa a2 3e 3f
       0.010310286 -0.21329196 -0.8005274 0.7446743
000090 d5 00 8c 3f 91 fa fd 3e e9 b8 af 3f d5 20 97 c0
       1.0937754 0.4960523 1.3728305 -4.722758
0000a0 16 f3 8f bf 57 90 3b 40 fa 2e 4f 40 0b fc c2 40
       -1.1246059 2.9306848 3.2372422 6.093267
0000b0 67 ff 81 bf 11 19 cc c0 f5 57 a7 40 38 e8 18 c0
       -1.0156068 -6.37806 5.229487 -2.3891735
0000c0 24 f8 3b 3f 8e ee 95 c0 99 50 25 40 b7 d7 a4 40
       0.7342551 -4.6853704 2.5830443 5.1513324
0000d0 40 92 61 c0 54 18 3a 40 9b 11 b0 3f da 42 0b c1
       -3.5245514 2.9077349 1.3755373 -8.703821
0000e0 28 c4 42 40 7a 4a 05 be 47 d7 ab 40 fb 8c 93 be
       3.0432224 -0.13016692 5.370029 -0.28818497
0000f0 37 2c 4a c0 d8 b1 6d 40 25 69 20 3f 22 f3 90 c0
       -3.1589487 3.7139797 0.6266044 -4.5296793
000100 9e 57 0a 3f 8b 51 05 40 0f 6c 1a 40 e1 25 2d 40
       0.54039943 2.083102 2.4128454 2.705437
000110 b9 fe 6d 3f a4 58 34 3e ca 85 96 40 8d 94 5c c0
       0.929668 0.17611939 4.7038317 -3.4465668
000120 d1 60 2c c1 a9 3a 79 c1 fb 60 27 c1 72 99 50 c1
       -10.773637 -15.576821 -10.461177 -13.037462
000130 12 09 68 40 ce 98 61 c0 23 c6 76 40 a9 b7 fd 3d
       3.6255536 -3.5249515 3.8558433 0.12388546
000140 3d 21 85 40 5f 3d 35 40 8d 36 43 bf 3f 91 95 3c
       4.1603074 2.8318708 -0.7625511 0.018257735
000150 43 23 01 bf 51 91 62 40 6a 09 91 c0 c7 36 d8 3f
       -0.5044443 3.5401194 -4.532399 1.6891717
000160 bc 4b bb 40 36 27 5d c0 e9 60 93 be a4 bf b1 40
       5.852995 -3.4555182 -0.28784874 5.5546436
000170 51 01 22 40 04 8b 11 40 97 f3 eb 3f 97 5e 73 40
       2.5313303 2.2741098 1.8433713 3.8026483
000180 5f e0 3e 40 48 0b c3 c0 4d 59 c3 3e ea 7a c5 40
       2.9824445 -6.095127 0.3815407 6.171254
000190 88 0b df 3f a4 ab 3a c1 fe 92 84 40 3d 1b f8 c0
       1.7425394 -11.666904 4.1429434 -7.753325
0001a0 45 48 80 40 11 03 65 bd 8b 68 cd c0 b3 88 10 40
       4.008822 -0.055911127 -6.4190116 2.2583435
0001b0 a8 6d 34 c0 61 b4 c2 40 9d 65 d5 c0 4d 09 86 c0
       -2.819193 6.084519 -6.668654 -4.1886353
0001c0 88 30 82 3e c5 54 05 40 b7 39 23 40 95 06 bb c0
       0.2542765 2.083299 2.5503976 -5.8445535
0001d0 c6 95 a0 40 51 a9 01 40 0d ad 9e 3d d7 40 4d 40
       5.018283 2.0259593 0.077478506 3.2070825
0001e0 72 3e 0a c0 9b 45 88 bf 5a d7 e4 3f 5a df db 40
       -2.1600614 -1.0646242 1.787822 6.8710146
0001f0 53 a9 f5 40 68 d1 6c 3f e8 b8 bc c0 d3 d3 ae be
       7.6769195 0.9250703 -5.8975716 -0.34145984

exp_avg_sq f4 [128]
000000 c4 dc 04 43 b9 c6 45 43 18 07 ab 40 91 e2 89 41
       132.86237 197.77626 5.344616 17.235628
000010 7d e3 26 43 9f 52 28 43 92 70 a4 41 82 8d 05 43
       166.88863 168.32274 20.554966 133.55276
000020 bd 6d 4a 42 d8 b7 a0 42 c7 00 2c 43 81 d3 d8 42
       50.607166 80.35907 172.00304 108.41309
000030 cb 1c db 43 c3 20 6f 43 43 0b 7c 43 4d 77 80 44
       438.22495 239.12798 252.04399 1027.7281
000040 72 07 27 42 e7 32 71 43 56 0c a9 44 f3 1b 0e 43
       41.75727 241.19884 1352.3855 142.10918
000050 38 d8 03 43 91 2c cc 42 a4 6d 78 42 1a a5 3c 44
       131.8446 102.08704 62.10707 754.5797
000060 62 be da 43 6f 4f b9 43 2a 96 0c 45 ef d0 be 42
       437.48737 370.62057 2249.3853 95.40807
000070 a7 dd 2b 44 e0 a7 e9 44 e4 89 f0 42 0f 39 fd 43
       687.4633 1869.2461 120.26932 506.44577
000080 f6 a7 b6 42 90 0a b8 41 5e 81 63 42 80 df 28 42
       91.32805 23.005157 56.876335 42.21826
000090 ee 4b ab 41 0d be af 41 27 c8 91 42 0f 66 b0 44
       21.412075 21.967798 72.89092 1411.1893
0000a0 17 16 9e 42 c3 f2 d2 43 91 25 63 43 19 58 6d 44
       79.043144 421.89658 227.14674 949.3765
0000b0 3c 57 af 41 5f a9 8e 44 0b c1 0a 44 e8 8f 92 43
       21.917595 1141.2928 555.0163 293.12427
0000c0 5d 3a 54 42 2c 7e 37 43 3a eb 09 43 2c ee ac 44
       53.056995 183.49286 137.91885 1383.4429
0000d0 f3 9a 8a 45 d8 f6 c8 43 de cd bf 42 b6 53 ce 44
       4435.3687 401.92847 95.902084 1650.616
0000e0 f0 dd 29 43 39 2a 96 40 3e 41 1f 45 d2 a1 84 42
       169.86694 4.692654 2548.0776 66.316055
0000f0 68 99 b9 43 ee f0 98 43 72 e0 06 41 76 32 a5 44
       371.1985 305.88226 8.429796 1321.5769
000100 ab 19 d7 40 3b 15 f9 43 c5 a0 16 43 61 d2 35 43
       6.7218833 498.16586 150.628 181.8218
000110 f0 80 4e 43 00 9b bf 42 38 1b de 43 8a ad e5 42
       206.50366 95.802734 444.21265 114.83894
000120 47 ee cb 44 93 8c 17 45 4b e1 3b 45 9a 89 62 45
       1631.4462 2424.786 3006.0808 3624.6
000130 90 8f c2 43 d4 83 15 44 26 d1 bd 43 97 bf 5d 40
       389.12158 598.0598 379.63397 3.4648187
000140 b2 45 5c 44 1e 40 a0 43 8e 9f 0e 43 f4 10 85 43
       881.089 320.50092 142.62326 266.13245
000150 55 e2 4c 43 5a 96 80 43 6c 27 41 45 ab c4 a8 41
       204.88411 257.17462 3090.4639 21.09603
000160 be b0 14 44 d3 d6 93 43 84 f8 dc 42 c6 14 63 44
       594.7616 295.6783 110.48538 908.3246
000170 f7 52 5d 43 a0 6c c7 42 bd e3 21 42 2f 58 ba 44
       221.32408 99.71216 40.4724 1490.7557
000180 b6 63 3c 43 30 73 cc 44 0f f3 09 42 97 bf 00 45
       188.3895 1635.5996 34.487362 2059.9744
000190 04 6b 4f 43 38 2a 19 45 2e 30 68 43 17 0b 3f 44
       207.41803 2450.6387 232.1882 764.1733
0001a0 67 38 13 44 2c bd cd 42 c1 d5 92 44 c9 f2 8d 42
       588.8813 102.86948 1174.6798 70.97419
0001b0 65 44 4c 44 50 df ed 43 6a 70 9c 44 20 db c0 43
       817.06866 475.74463 1251.513 385.7119
0001c0 09 75 81 42 04 db c3 42 19 bd 1f 43 3a 70 8d 44
       64.728584 97.927765 159.73866 1131.5071
0001d0 b1 d6 fc 43 3c 62 22 43 0b a6 91 43 c9 76 68 43
       505.67728 162.38373 291.2972 232.464
0001e0 3d 23 ef 43 27 81 c1 42 7b 0a 6e 43 bd 96 88 44
       478.2753 96.75225 238.04094 1092.7106
0001f0 f7 3c 7f 44 ed 23 66 41 1a cf 4a 45 74 6a a0 43
       1020.9526 14.383771 3244.9438 320.83167
