experiments/justification/models/MediumBTCNN_SmallFCNN_4.pth (torch, 284086 bytes, 21 tensors)

btcnn.layers.0.conv1d.weight f4 [128, 27, 3]
00000000: 155b 19be 3139 a6bd e061 91bd ae30 363e
00000010: 2d23 123f ca50 fb3e bb02 223e 63f8 08bc
00000020: f3b9 0b3e 6beb 76be 1800 ef3c a197 f33d
00000030: 983d 17be 0242 b03c 67c4 05bd d443 f23d
00000040: e3d1 ba3d d92f bb3d 864b f63d 9887 c83d
00000050: c509 993d c764 8b3e 2f00 643d b972 4abd
00000060: f187 42be 2015 a6bd 93eb 863e fb22 6d3e
00000070: 0bdc b0bd 4ecb fcbc 51c0 ae3d 2969 30bd
00000080: d980 4fbd edcb 5f3f 8aeb 133e 416d b4bd
00000090: 27f0 22bd 0fb3 4b3d 5d64 763d 39dc ad3e
000000a0: 5927 6b3e a0b1 aabd e68c b0be ce65 c2be
000000b0: cec9 b0bc 9f3a dcbd 3932 793e 67b3 19be
000000c0: 15ed 573d 5884 91be b0bb 983d 8411 3c3c
000000d0: 83f6 673e 8e02 643c c544 ba3e 6554 343e
000000e0: eb71 173d 5893 9b3e 87dd 2f3e ebfe 823b
000000f0: e848 4e3e 6583 423e 76ac 6a3e 7277 9dbe
00000100: 4536 ef3d d635 ddbd 002c fbbd c961 ca3d
00000110: f24d b83d 3b8b 6b3e a153 353e 477f 66bd
00000120: 622b 7f3e bd35 a5bd 37a9 c93e 543e a3be
00000130: 4e12 e4be 6175 23bc 8e59 833d 92f4 183e
00000140: c1b1 9c3e 3820 e9be 9b9c 3bbe a73a 823d
00000150: f7af 92be 4af1 e2be b44f 693d b3ad 4cbe
00000160: 4a24 fdbe f56a 253e e2d1 803d 8849 52be
00000170: b041 24be 4029 1dbe 5798 9abe 202f 1cbd
00000180: ceed 40bd b5c6 cbbc 74cb d33d edeb c9bd
00000190: aaa3 77bc c739 35bd 4a6e 173e a2db 71bc
000001a0: dd9b dfbc 96bb 9abd b236 983c 69b7 ae3d
000001b0: 5ecf 8ebe fae3 d83d 726e 67bc 1b19 d8ba
000001c0: 3330 093e ab8d f5bb 9fe0 2dbe 90e3 d8bd
000001d0: cfc2 ff3e ad81 00be 4c0d b93c 6b49 333d
000001e0: d532 3c3d 366a 163e ab2a f5b8 1ea9 f83d
000001f0: 34ac 3f3e fd69 bdbd 215f cdbd f971 fdbd
00000200: e096 9f3a 1a1a 063e f90b 31be abdd 5f3c
00000210: 28b4 373d 10ef 103b 8e1b 163c d7ff 17be
00000220: cb72 9fbc c551 d43d a3c3 05bf 6e6a 243c
00000230: 51c1 06bf bf70 7c3e 923b aa3e 7909 f33e
00000240: 5eed 57bd c954 51bd 684d 1a3e 9b8a 3cbe
00000250: 02c5 1e3e 6d00 cebd ab8a 3b3e 85db 1a3f
00000260: c79b 6e3c df65 643e 8e07 05bc 1696 12bf
00000270: 0b83 713d 0cea a03b 3ea7 f8bc a13a bfbe
00000280: 55b7 973c b1e1 503e fb8e 18be da4e b1bd
00000290: 577a b73d 0e99 863e 756a 913d 2a08 bcbd
000002a0: 2987 323d 5569 343d 0c2b 2cbe b2ce 22be
000002b0: 7cdf c33c c9df 43be 7218 9d3d 4ded 953c
000002c0: 596e 44bd f0cf cb3d 4bf4 483e fd39 4c3d
000002d0: e7c3 6b3e fad9 d4bd 2bde a6bc 6dfe c4bd
000002e0: 70c4 35be 8062 4a3d 1465 333d 34f8 cf3d
000002f0: 017f 9ebd 5077 e1bd 8bdb 8c3e 47f7 89bc
00000300: 14ed 69bc 95a9 8dbd cd01 a6bd 04f8 483e
00000310: d1f8 e03e 44a1 793e 3d5d cfbd 59e1 89bd
00000320: 0e48 cfbd 9982 5b3e f059 c3bb e45f 78bc
00000330: 52c3 df3d 783b e6bc c70c f13b 099d ddbd
00000340: 6259 493d 15c0 703e a1fe 1e3e c79c 9fbd
00000350: fdb9 23bd 2e6a b3bd cbda 29bc 842c 7c3d
00000360: 3c29 ecbe 80a3 bfbe d7d1 b9bd 6d7e 06bf
00000370: 4ea8 91bc 3b2e ef3d a960 0a3e 156a cb3c
00000380: 7df4 51be 22a1 48be 8851 b9bd f78e 133e
00000390: a776 01bd 93aa c13c 8012 d7bd fffd 81be
000003a0: 45de b73d 8ece cbbb d84a 7d3e 3ed7 bbbd
000003b0: 8ef8 a7be 9e6e 783c b6cf 503d 9e5c b53d
000003c0: e8ee ea3d d266 ca3d 75f8 8e3c ebd2 813d
000003d0: 24ce 42be 555c ebbb 5907 443d 9336 41be
000003e0: d94c 10be 594f 99be 38b7 d9bc 955b 493e
000003f0: dc15 a43d 3da2 413e 1ea2 79bc b076 f0be
-0.14976151 -0.08116377 -0.07098746 0.17792007 0.57084924 0.49085075 0.15821354 -0.008360001
0.13645153 -0.24113242 0.02917485 0.11894155 -0.1476959 0.02151585 -0.032658007 0.118293434
0.09122064 0.091399856 0.12026124 0.097914875 0.074725665 0.27225325 0.055664238 -0.049425814
-0.1899717 -0.08109498 0.26351604 0.23157875 -0.0863572 -0.030858662 0.08532775 -0.04306904
-0.050659988 0.8742054 0.1444532 -0.08809901 -0.03977981 0.04973131 0.060154308 0.3395708
0.22964229 -0.083346605 -0.34482497 -0.37968296 -0.021580603 -0.107533686 0.24335565 -0.15009843
0.052716333 -0.28421283 0.074576735 0.011478785 0.2265263 0.013916625 0.36380592 0.17610319
0.036973875 0.30385852 0.1717435 0.0039976737 0.20144999 0.18995436 0.22917351 -0.30755192
0.11680273 -0.10801284 -0.12264252 0.09881932 0.08999242 0.23002331 0.17707683 -0.056273725
0.24918893 -0.080668904 0.39386913 -0.3188349 -0.44545215 -0.009976716 0.064135656 0.14937046
0.30604365 -0.45532393 -0.18321459 0.06358843 -0.28649876 -0.44324714 0.056960776 -0.19988136
-0.4944175 0.16154082 0.06290032 -0.20535862 -0.16040683 -0.15347767 -0.3019435 -0.03813088
-0.04710179 -0.024875024 0.1034154 -0.098594524 -0.015114704 -0.044244554 0.14788166 -0.014761837
-0.027296001 -0.075553104 0.018580768 0.085310765 -0.27892584 0.10590358 -0.014125453 -0.0016486974
0.13397293 -0.007493695 -0.16980217 -0.10590279 0.49953315 -0.12549467 0.022589348 0.04377119
0.045946915 0.14688954 -0.00011690458 0.121416315 0.18718034 -0.09248731 -0.1002791 -0.12375254
0.0012175702 0.13095894 -0.17289723 0.01366369 0.044849545 0.0022115149 0.009161843 -0.14843689
-0.019463917 0.10367159 -0.5225164 0.01003514 -0.5263873 0.24652384 0.33248574 0.47468165
-0.052716605 -0.051106248 0.1506859 -0.18412249 0.1550484 -0.10058675 0.18314616 0.6049121
0.014563507 0.22304486 -0.008119477 -0.5726026 0.058962863 0.004910713 -0.030353185 -0.37349418
0.018520037 0.20398594 -0.14898293 -0.08657618 0.08958881 0.26288646 0.07100383 -0.09181245
0.04358593 0.044045765 -0.16813296 -0.1589916 0.023910277 -0.19128336 0.07670678 0.01830163
-0.0479568 0.0995177 0.1962444 0.04985999 0.2302395 -0.10393138 -0.02036961 -0.0961884
-0.17750716 0.049410343 0.043797567 0.10154763 -0.07739068 -0.11009085 0.27511248 -0.016841544
-0.014277715 -0.06917111 -0.08105812 0.1962586 0.43939832 0.24377924 -0.10125206 -0.06732435
-0.10121165 0.21436538 -0.005961649 -0.015159581 0.10925926 -0.028104529 0.0073562595 -0.10820968
0.049157508 0.23510773 0.1552682 -0.07793575 -0.039972294 -0.087604865 -0.010367106 0.06156589
-0.4612521 -0.37429428 -0.09073227 -0.5253666 -0.01778045 0.1167874 0.13513435 0.024830857
-0.20503421 -0.19592717 -0.09048754 0.14410006 -0.031607296 0.023640906 -0.105015755 -0.25389096
0.089779414 -0.0062196916 0.24735582 -0.091719136 -0.3280682 0.015163092 0.05097934 0.08855556
0.11471349 0.09882893 0.017452458 0.063390575 -0.19023949 -0.0071826377 0.04785857 -0.18868475
-0.14091815 -0.2994335 -0.026576623 0.19663842 0.08011982 0.18909545 -0.015236406 -0.4696555

btcnn.layers.0.conv1d.bias f4 [128]
00000000: 88f8 163e cd16 e4bc fa7a 9f3b 4788 d33d
00000010: 319b ea3d 363b 8d3d 37ab 91bd d42e 5dbd
00000020: 56e0 233d 78bf 823d 80d2 dcbc 2022 1e3d
00000030: 1657 94bd 432a 403e 8a59 b53d 4c9a a33e
00000040: 39e0 4f3d fd86 a83d e282 253d 18b3 0c3e
00000050: cdce b23d 96c4 c73d ec49 c33d 90f8 e33d
00000060: a513 a8bd d11c 6bbc 7593 3a3e 5774 16bc
00000070: 61ed de3d dcac 813d a113 873e 0ce9 9b3e
00000080: e81e 2dbc cfc6 a23d 83c8 01be d3e9 1f3e
00000090: 0a8b 0bbb 50a1 e1bc 574a 273e d256 d2bd
000000a0: 474d 323e c7dd 5abc 2bbe 95bd 31fb d6bd
000000b0: 6abb c2bd 85e0 003e 427f 8dbd ea69 2d3e
000000c0: 8df6 833e da52 a33c 1769 e0bc ab9c 493e
000000d0: de96 1a3e 3b82 1f3e 9aca a1bc 40aa f13c
000000e0: 8c69 24bd 969a 383e 29ed ff3d e951 1b3e
000000f0: 6049 ab3c 4d77 a33d 306e d33d 7041 7f3e
00000100: 9632 8fbb b465 373e 64e6 aa3b 979d 0cbe
00000110: 4a96 2c3e 966e a53e d58f 5dbc 09b5 d1bb
00000120: f455 443e 2594 553e 1417 453e ea07 143e
00000130: 5526 fc3d cd0a 543d 78dd e1bd 6c5e 65bc
00000140: 6001 be3d 1186 843d 48ce 873d 7e80 493e
00000150: 683a 933e 7fdd e8bd 72ce 573d ead3 833d
00000160: da68 01be cf8d f63d 4f9a 023e 5e2e 8bb9
00000170: 1a3f 97bd 7b21 b73d f4b6 423c 4be1 393e
00000180: 9dd9 463b 6453 023e ff29 9b3c 8e32 013e
00000190: f4fd a63e 031f b4ba 98b4 243e deac 843e
000001a0: 9fa5 f3bd ea5e 8f3d 7ecf 5e3e 2183 b23d
000001b0: 2865 013e 28e2 fd39 7ead d63d acbf 113e
000001c0: 89ae f43c b8c2 28bd 8474 06bd 8913 193e
000001d0: 06a6 db3d 8412 d73b f79e 013e b321 7d3d
000001e0: f9a2 7f3c bb58 c33d b5ca 723d f0d4 f73d
000001f0: 533e 193e 6ff2 db3d 4d13 8bbd f23f 153e
0.14743245 -0.027842904 0.004866955 0.10328727 0.11455382 0.06896059 -0.07112735 -0.053999737
0.040008865 0.06384176 -0.026955843 0.038606763 -0.07243173 0.18766122 0.08854969 0.31953657
0.050750945 0.08228872 0.040408023 0.13740194 0.0873085 0.09754293 0.09535584 0.11131394
-0.08206872 -0.014350132 0.18220313 -0.009183011 0.1088512 0.063317984 0.26382163 0.30451238
-0.010566451 0.07948076 -0.12674145 0.1561654 -0.002129259 -0.02754274 0.16336952 -0.10270466
0.17412291 -0.01335854 -0.07311662 -0.1049713 -0.09508403 0.12585647 -0.06909038 0.16934934
0.2577404 0.019936968 -0.02739386 0.1968867 0.15096614 0.15577023 -0.019749928 0.029500127
-0.04013972 0.1802772 0.124964066 0.15167965 0.020909011 0.07981739 0.10323751 0.24927306
-0.004370044 0.1790989 0.005215453 -0.13731991 0.16854206 0.32310933 -0.013523062 -0.006399755
0.19173414 0.20857294 0.19247085 0.14456144 0.12311999 0.051768113 -0.1102857 -0.013999563
0.09277606 0.06470884 0.06631142 0.19677922 0.28755498 -0.11370372 0.052687116 0.06436904
-0.12637654 0.120387666 0.12754177 -0.00026546692 -0.073850825 0.08941933 0.01188444 0.18152349
0.003034211 0.12727123 0.018940924 0.12616941 0.32615626 -0.0013742152 0.16084516 0.25913137
-0.11896824 0.07000525 0.2175884 0.08716417 0.12636244 0.0004842442 0.1048231 0.14233273
0.029868381 -0.041201323 -0.03282596 0.14948858 0.10725026 0.0065634865 0.12658297 0.061799716
0.015602821 0.09538408 0.059275348 0.121011615 0.14965181 0.107396 -0.06790791 0.14575174

btcnn.layers.2.conv1d.weight f4 [27, 128, 3]
00000000: 2c0f f73e b44c 373e f9c3 8abc af92 9a3d
00000010: b0d0 a8bd 64b4 183e a84d a6bc aa5b 4c3a
00000020: bbaa 403d bfaf 483d f1f5 09bc 3c86 a83d
00000030: 0b86 23be a5f2 af3d b716 913d 92d5 1d3d
00000040: 0d06 ba3d 43e5 95bc 2607 29bd 0d60 a0bd
00000050: cb5a e43d bbc6 92be 1985 c3be 000c 06bd
00000060: c48e 12be 0b39 a03d c4ee 8bba dc1d d43c
00000070: a1a4 be3d 1053 5d3d a94b 0ebe ee3f 12bd
00000080: 3a5b 2a3d dd34 04bd a811 dbbc a95d 94ba
00000090: 301a bcbd 9a49 f73d 98fe 13bd b557 953d
000000a0: c87e 69bd 90e1 b13d 9ebb ab3d 65f3 7c3c
000000b0: 24d2 533c 8fcf e7be 64a3 663e bf22 8d3e
000000c0: cdbb 56be f712 a43d 1da7 713d e5ab 0fbb
000000d0: 5db4 7abd c99d 433c 3fe2 70be 3294 9e3c
000000e0: 5f4f 22bd 3627 a9bd e45a 103d 2687 7f3c
000000f0: ed91 663d 7796 0d3d 6c23 5b3e acea 3abd
00000100: 79ef be3d 940d 293d 595a 9fbc 4d6c 52bd
00000110: f407 9f3d bfc0 83bd 7496 96bd 6561 d53d
00000120: 101f b6bd 3bea 823d 9d3a e63c 4dda 7d3d
00000130: 3512 833d 1570 903d f277 c6be c640 13bf
00000140: 1bd2 edbc cbd6 b73d 2128 23bd a595 47bd
00000150: ac85 78bd dab4 91be a383 e9be c5e5 b7be
00000160: bf27 d53d d056 b13d af8a 883d f8a1 a7bc
00000170: e984 283e 0f7b cfbd d2d9 103e fcdd 0c3d
00000180: 8169 a8bc ce97 c03d 079b a13d d56e 36ba
00000190: b0a5 9b3d 9754 fe3d d224 30be e785 04bd
000001a0: d7e0 803d 3b1d d6bc 6254 c93d f8a4 fdbc
000001b0: 1c72 f23c f847 85bd 592f 3f3d e770 acbd
000001c0: 29f1 af3b 8708 d7bc 01dd b93d 4870 e43d
000001d0: 40b5 33bd 9b03 5fbe 96a7 b6be 9b3f dabd
000001e0: b94d 5d3c 78dc 5ebe c378 13bd 224e 85bd
000001f0: 59f3 4dbe b199 b3bd 5af5 46bd 939a 17bc
00000200: 0f84 8f3d 5c75 6f3c ef22 87bd 4393 36bd
00000210: 3dba 67bd 95ff 3f39 5c63 973c 429d 003c
00000220: 4ecd eabe 450f fdbe 9233 86bc 1cb4 823d
00000230: cef3 023e 4f40 eb3c 2127 fe3a 01b5 af3d
00000240: b9cf 153d a029 67be 30ae 243d ac8f afbc
00000250: ffd6 8cbc 79e7 6c3d b551 e43c b234 86bc
00000260: f495 98bb df29 453d ba26 313e 4282 cd39
00000270: 526f 1ebf 0514 b4bd 29b8 e83d bc59 ba3d
00000280: 0fc5 b43d 0022 e23d 4ebb bfbe ca2b 92be
00000290: ab3a 103c 737f 19bf d2fc e1bd a6fa 673d
000002a0: 3ee8 403d 5f02 093d 986e 683d 78e7 743e
000002b0: 165e af3c d929 ebbd 013f 033e 1b0b c93d
000002c0: cb10 943e ef3f aa3d 2cf0 163e ae5c 913e
000002d0: 7c07 70bd f07d 06bd 074f ed3b 5fa5 2c3e
000002e0: 89fb 123e 03eb 223e d915 02bc ddf8 9f3d
000002f0: 680d 073e 682d f7be 6ea1 8fbe 6ff2 12bf
00000300: 3df5 d1bb ee8f 44bd d451 1e3c ef2f bbbd
00000310: 4803 0abf 2c17 81be 2d01 2cbd 48d0 c4bd
00000320: d996 dc3c f382 f1bb 03be 7f3d fa50 233b
00000330: d47f 3ebb 173f 1b3e 949a 8a3d 77c7 b93c
00000340: 516d ccbb 6277 663e 5d98 d3bb 13da babb
00000350: 5804 58bc 5d18 bd3d 9588 96bd 1e94 bcbd
00000360: d6b2 89be 5cef 1cbe d5f3 9dbe 239a 5abd
00000370: 8087 07bf 9e73 f0be 84b5 01be 470b 8dbe
00000380: 6f30 b6be 4174 b33d b88e 90bc 2833 6cbd
00000390: 1685 d23d d0a8 cf3d 3e9e b43c 03c1 94be
000003a0: ab3a c8bd 4a50 8ebe eb43 1abd 01ac 14be
000003b0: b36f a2bc 9e91 98bc 9497 89ba 3155 c53c
000003c0: 8c67 dd3d 7a0c 993d 08eb f7bd 16a4 14bd
000003d0: 618b ba3d bad6 26bc cbbf 0c3e 041e e0be
000003e0: d8eb 8fbc 44ff ae3d 807a ed3d 9b89 1cbf
000003f0: 6de8 63be 5a20 6dbd d8c1 17bf 33fd 0bbd
0.48253763 0.17900354 -0.01693915 0.07547509 -0.08242929 0.14912564 -0.020300701 0.00077956414
0.04703782 0.04899573 -0.008420453 0.08228728 -0.15969102 0.08591203 0.07084411 0.038533755
0.09083185 -0.018297797 -0.041266583 -0.0783082 0.1115013 -0.28667244 -0.38187483 -0.032726288
-0.14312273 0.0782338 -0.0010676016 0.025893144 0.09308744 0.054034293 -0.1389605 -0.0357055
0.041590907 -0.032276977 -0.026741818 -0.0011319417 -0.09184682 0.12074585 -0.03613147 0.072921194
-0.057005674 0.08685601 0.083853945 0.015438889 0.012928519 -0.45275542 0.22523266 0.27565572
-0.20970078 0.0801143 0.058997262 -0.0021922525 -0.061207164 0.011939474 -0.23523806 0.019357774
-0.039626475 -0.08259432 0.03524293 0.015596187 0.05629151 0.034567323 0.21400231 -0.045633957
0.093230195 0.041272715 -0.01945226 -0.051372815 0.07765189 -0.06433248 -0.073529154 0.10418967
-0.088926435 0.06392332 0.02810412 0.061975766 0.06399957 0.07052628 -0.38763386 -0.5752071
-0.02903085 0.089765154 -0.03983319 -0.048726697 -0.060674354 -0.2845829 -0.45608243 -0.35917488
0.104079716 0.08659136 0.06667077 -0.020462975 0.16456951 -0.101308934 0.14145592 0.03439139
-0.02055812 0.094039544 0.07890897 -0.0006959264 0.07599962 0.12418478 -0.17201546 -0.03235426
0.06292885 -0.026136985 0.09830548 -0.030962452 0.029595427 -0.065078676 0.046676014 -0.08419972
0.0053693247 -0.026249183 0.09075356 0.111542284 -0.043874025 -0.21778719 -0.35674733 -0.10656663
0.0135073 -0.2176379 -0.03600384 -0.06509043 -0.20112361 -0.08769549 -0.04857383 -0.009253162
0.0700761 0.014615383 -0.0659846 -0.044574033 -0.056574095 0.00018310391 0.018479995 0.007849993
-0.4585976 -0.49425712 -0.016382013 0.063820094 0.12788317 0.028717188 0.0019390323 0.08579446
0.036575053 -0.22574472 0.04020518 -0.021430813 -0.017192362 0.057837937 0.027870992 -0.016382549
-0.0046565477 0.048135635 0.1729993 0.00039197697 -0.6188861 -0.08792881 0.11363251 0.09099147
0.088266484 0.11041641 -0.3744759 -0.28549033 0.00880305 -0.599601 -0.1103455 0.05663552
0.047096483 0.033449527 0.056746095 0.23916423 0.021407168 -0.11482591 0.12817003 0.09816571
0.28919062 0.083129756 0.14740056 0.2839102 -0.058600888 -0.032834947 0.007242087 0.16859959
0.14353766 0.15909962 -0.007939779 0.07811139 0.13188708 -0.4827683 -0.2805285 -0.57401174
-0.0064074085 -0.047988825 0.009663064 -0.09140002 -0.53911257 -0.2521299 -0.04199331 -0.09610039
0.026927399 -0.0073703467 0.06243707 0.0024920092 -0.002906789 0.15160786 0.06767765 0.02267812
-0.0062386175 0.22506478 -0.006457372 -0.005702266 -0.013184629 0.092331626 -0.0735027 -0.092079386
-0.26894253 -0.15325683 -0.30850092 -0.053369652 -0.5294113 -0.4696321 -0.12666899 -0.27547666
-0.35583827 0.08762408 -0.017646179 -0.057665974 0.102792904 0.1013962 0.022048112 -0.29053506
-0.09776815 -0.2779563 -0.037662428 -0.1451874 -0.019828653 -0.018624123 -0.0010497444 0.024088474
0.108107656 0.07473083 -0.121053755 -0.036289297 0.09108616 -0.010183031 0.13745038 -0.437729
-0.017568514 0.08544782 0.11595631 -0.6114747 -0.22256632 -0.05789218 -0.5928016 -0.034177016

btcnn.layers.2.conv1d.bias f4 [27]
00000000: f9a6 86bd f236 8ebd 8c28 a7bd 4bcb 40bd
00000010: b5d7 8bbd 1f06 33bd 730e 99bd 8153 063e
00000020: cf87 c9bd 3e06 3d3d 74ba 173d 151a 0ebd
00000030: 9ece cbbd ed1d 9f3d f2d1 a7bd 570c 123d
00000040: d439 a8bb 8f11 2cbe c580 d5bd 6305 dabd
00000050: 3e26 96bd c97c fbbc 20fd 843c 58c3 4bbc
00000060: 4e54 babd 7bf6 67bb 0cbd 5c3d
-0.06574816 -0.06944074 -0.081620306 -0.047068875 -0.06828252 -0.04370701 -0.07473459 0.13117792
-0.098403566 0.04614853 0.03704305 -0.034692843 -0.099515185 0.0776938 -0.08194341 0.0356563
-0.005133847 -0.16803573 -0.104249515 -0.10645559 -0.07331513 -0.03069915 0.01623398 -0.01243671
-0.09098111 -0.0035394717 0.053891227

fcnn.0.weight f4 [64, 27]
00000000: 7451 8b3e 7712 793e acdc 953e e79c 9b3e
00000010: 6260 9c3e ab3a bd3e 9723 b73e d436 78be
00000020: 670f 6e3e a690 22be 9b4f a9be 010d 3a3d
00000030: d350 a63e c3d9 fdbe c606 ecbd 4fae 89be
00000040: a405 523e 0b3d c23d 62d6 323e 013d b13d
00000050: 9d4b 373e a7db b73d 3773 d13d f68e bb3c
00000060: 8bec 753d a9d9 b43e e620 9cbe 6883 88bd
00000070: 1bea 99be a62e e5bd cd76 9bbd a84b b0be
00000080: 0306 20be f906 39be 077f 0f3e ccc1 08be
00000090: f01e 17be 2ab1 353e 0a79 c33c 626e 5cbe
000000a0: c62a 923e 468a 913d 27aa 013e c543 87bc
000000b0: 9405 133e 7189 b2bd 2a4a 28be 6f7f 333d
000000c0: f6d2 a7be abd5 1ebe 64f8 77be ef58 5dbe
000000d0: 001c 9dbe b716 51bb 5a6c f13d e0f5 3c3d
000000e0: 2770 02be c49b c6bd ad62 e6bc 358b 90be
000000f0: 4c6c 68be 0eea bc3e 91fa 0bbe 6e3a fabd
00000100: d6f9 aa3e 4240 63bc bcb3 e4bd d1bf 2a3f
00000110: 5d23 80be 6c3f 043e fb7f 51be b334 093d
00000120: be62 58be 35ea e13d 56cc 2d3e fa3b 57be
00000130: 1fcf 173e 8bf6 023e 12d9 513e 69ab b4bd
00000140: 54cb 7c3e e8f4 98be 8e72 96be acdf 8abe
00000150: ad04 9fbe c62e aabe eef9 8cbe a602 acbd
00000160: 1eef 6bbc 839f a1be c6ae 3abe af1c 833d
00000170: f95d abbe 637e bdbe 3bbb ed3e 6f84 43be
00000180: 15aa 1d3e 5869 39bd 983c 21be fd06 88be
00000190: b5d7 6fbe 62f4 19bc 7879 80be 28e0 52be
000001a0: 12f6 4e3d 46e5 ddbd d3f6 a0be 723f 7d3e
000001b0: 18f7 873d bc78 293e 4d99 043e ef2c 973e
000001c0: 9c32 bf3d b2a8 0e3e e96c 9c3e 9285 babe
000001d0: f828 333e dc2b 55be 119b 00bf b5ba 943e
000001e0: 2c22 b53e ce51 07bf e83f 97bd 87c1 82bf
000001f0: de7e f73d 0024 b73d 5445 0d3e 8fdc ac3e
00000200: a559 3f3e dbc8 823c 80f2 4b3e dba7 193d
00000210: f136 7f3e 3dba ae3d f75e 3bbf e233 463e
00000220: 60d8 683e 5020 2e3e 7a47 c73e 386f 263e
00000230: c5fa 9c3e 78a5 2b3c f589 5ebe 3f87 783e
00000240: a2b3 1ebe e986 72bd 2a9d 323b 4526 ab3e
00000250: 34a7 9fbe a6e3 f9bd ecac b73c 6ce4 613e
00000260: 8351 6b3d 3945 963d 9158 703e 259c d7bd
00000270: 1dec 9d3e 72d0 3bbe f885 15bd 6def 1f3e
00000280: fe39 933d 1417 01be 5792 01be 8f7c 9dbe
00000290: 09e3 8cbe b5e3 e2be 8238 afbe 201a e1bd
000002a0: eb53 afbe 8647 6abd 8eaf b5be fc72 0dbe
000002b0: 56c9 a53e c2cc 1bbe 8964 a3be 12e1 023f
000002c0: 0e01 afbc 0324 e33d eaa3 42bd c361 89bc
000002d0: 768a c8be e10d 65be b6e5 8ebe 4242 a8be
000002e0: 11a2 06be 85d4 5ebd b894 1abd 0c5e a8be
000002f0: aabe 0c3e e665 54bd 4f8f 92bd ecee 7bbe
00000300: 7f43 94be e4f9 aebe fd34 95bd 8a80 38be
00000310: 7f0b 803e e25c c2bd 2f9a c73d bbf0 d33d
00000320: c5f9 30be 757b b9be ccd1 c03e ab5c 3c3d
00000330: 1817 4e3d d79d 0ebe 01bd 5fbe 1f93 b8be
00000340: 6834 38bd cb7a c4bc 420e 6dbe e1b4 a8bc
00000350: 19f7 8cbe 742c 98be ba57 41be 6718 033e
00000360: f9ea fbbc faab 38be 8a78 84be 9247 e6be
00000370: 2cde cebe 130e b7be 882f 1dbe 129e b73d
00000380: bae4 92be b430 d43d ddc1 573e ab5b bcbd
00000390: 6601 21be 69a1 193f bf40 91bd c791 d83c
000003a0: 0d09 e4bc a587 a53c 2621 d0be 5447 0abe
000003b0: 0ca1 87be 0c4f dabe 8c29 14be 2ae2 71be
000003c0: 79da 1abd cc45 42be 167b 5f3e 1cb3 b13d
000003d0: fcef 8d3d 2a6a 12be 7113 1e3d fd12 21be
000003e0: c0a3 0fbe 4f47 943a 4b2e 203e a331 fdbd
000003f0: aef3 533e b851 b33e 9b6d 2ebd cc25 593d
0.2721058 0.2432345 0.29269922 0.30393144 0.30542284 0.36958823 0.3576934 -0.24239665
0.23248063 -0.15875491 -0.33068547 0.045422558 0.3248354 -0.49580202 -0.115247294 -0.268908
0.20509964 0.09484299 0.17464593 0.08654214 0.17899938 0.08977442 0.102270536 0.022895318
0.060040038 0.35322312 -0.3049385 -0.06665689 -0.3006142 -0.11190538 -0.07591019 -0.3443272
-0.15627293 -0.18069066 0.14013301 -0.13355178 -0.14757895 0.17743364 0.023861427 -0.21526483
0.2854826 0.07106452 0.12662564 -0.016511807 0.14357597 -0.08717621 -0.16434541 0.043822702
-0.32778138 -0.15511195 -0.24215847 -0.21615957 -0.30685425 -0.0031904408 0.117882445 0.046132922
-0.12738095 -0.09697679 -0.028123224 -0.28231207 -0.22697562 0.3689732 -0.13669802 -0.12218176
0.33393735 -0.013870301 -0.11167094 0.6669894 -0.2502698 0.12914819 -0.20458977 0.033497524
-0.21131417 0.110309996 0.16972479 -0.21018973 0.14825104 0.12789361 0.20492962 -0.088217564
0.24686939 -0.2987435 -0.29384273 -0.27123773 -0.31058255 -0.3323881 -0.2753443 -0.08398943
-0.014400272 -0.3156701 -0.18230733 0.06401955 -0.33470133 -0.37010488 0.46431908 -0.19093488
0.15396912 -0.04526648 -0.15745771 -0.26567832 -0.2342213 -0.009396644 -0.25092673 -0.20593321
0.05052764 -0.10834746 -0.31438312 0.24731234 0.06638926 0.16549963 0.12949105 0.2952647
0.09335825 0.1393154 0.30551842 -0.3643003 0.17496097 -0.20817512 -0.5023661 0.29048696
0.35377634 -0.528592 -0.07385236 -1.021531 0.12084745 0.08942413 0.13795978 0.33762023
0.1868654 0.015964916 0.19916725 0.037513595 0.24923302 0.08531616 -0.7319178 0.19355729
0.2273879 0.17004514 0.3892172 0.16253364 0.30660072 0.010476463 -0.21732314 0.24270342
-0.15498212 -0.05921069 0.0027254322 0.33427635 -0.31182253 -0.122016236 0.022421323 0.22059792
0.057450783 0.07337422 0.23471285 -0.10527829 0.30844203 -0.18341234 -0.036504716 0.15618677
0.071887955 -0.1260646 -0.1265348 -0.30759093 -0.27516964 -0.44314352 -0.342228 -0.10991311
-0.34243712 -0.057197116 -0.354855 -0.13813394 0.3238017 -0.15214828 -0.3191264 0.5112468
-0.021362808 0.11090853 -0.047519602 -0.01677025 -0.39168137 -0.22368576 -0.2790963 -0.3286305
-0.13147761 -0.054401893 -0.037739486 -0.32884252 0.13744608 -0.05185499 -0.0715624 -0.2460286
-0.28957745 -0.34175026 -0.07285497 -0.18017784 0.2500877 -0.09490372 0.09746205 0.1034865
-0.1728278 -0.36227003 0.37660062 0.045986813 0.050314993 -0.13927399 -0.21849443 -0.36049744
-0.044971853 -0.023984334 -0.2314997 -0.020594062 -0.2753227 -0.29721415 -0.18881121 0.12802278
-0.030751692 -0.18034354 -0.25873214 -0.4497648 -0.4040388 -0.35752925 -0.15350163 0.089656964
-0.2869013 0.10360852 0.21070047 -0.09197172 -0.1572319 0.6001192 -0.070924275 0.0264367
-0.027836347 0.020206282 -0.4065029 -0.13503772 -0.26490057 -0.42638433 -0.14468974 -0.23621431
-0.037806008 -0.18971938 0.21824297 0.086767405 0.06930539 -0.14298311 0.03859276 -0.157299
-0.1402731 0.0011312756 0.1564266 -0.12362983 0.20698425 0.35023284 -0.042584997 0.05301456

fcnn.0.bias f4 [64]
00000000: a991 1a3e f76c d63d b813 10bd e3fd e43b
00000010: 6f5b 30be 0b86 06bd de95 cfbd 2a39 edbd
00000020: 69bc e9bd e8f2 03be 249a e0bd ccb3 3cbe
00000030: 03b6 00bd 65e5 7abe 42de 533c c017 d33b
00000040: 1698 98be 9b4d 6f3d 20cc c9bd 691c 31bc
00000050: 1d39 4abe 7e72 983d dbee b33d befd d6bd
00000060: 1370 3439 ad85 1ebe c2e0 973d 861c 8a3e
00000070: 56dc 033d 1b31 a7bd f54c 1ebd 82b4 25be
00000080: d8aa 98bd dd32 f13d 091f 43bd 78d6 84be
00000090: bfed 233e 53e6 0bbe e97b 49be eb0a 923d
000000a0: da62 503d 7de0 31be bab1 11be cb54 683e
000000b0: 359b e0bd 7d13 b03c bfa8 9f3d 6e8c 36be
000000c0: c7bd 33be bcf1 23be 53da b73d 2af3 13be
000000d0: a6f2 d8bd 44f9 623d 263c 09be 72ef 2a3e
000000e0: 9993 0bbe 49a7 81bd ff85 0e3e c7a9 543c
000000f0: 572d 833d f29a 58bd c19f 0d3d 2c78 33bd
0.15094627 0.10470002 -0.035175055 0.0069882735 -0.17222379 -0.032842677 -0.10136007 -0.11583169
-0.114128895 -0.1288563 -0.109669 -0.18427962 -0.03142358 -0.2450157 0.012931408 0.00644204
-0.29803532 0.05842362 -0.09853387 -0.010809996 -0.1974835 0.07443713 0.087857924 -0.10497616
0.00017207889 -0.15480681 0.07415916 0.26974887 0.03219255 -0.08163663 -0.03864761 -0.1618214
-0.07454461 0.117772795 -0.04763702 -0.25944877 0.16008662 -0.1366208 -0.19676174 0.07130989
0.050875522 -0.17370792 -0.14227954 0.22688596 -0.109671034 0.021493668 0.07795858 -0.17827007
-0.17552863 -0.16010183 0.08977189 -0.14448228 -0.105931565 0.0554135 -0.13401851 0.16692904
-0.13630523 -0.06330735 0.13918303 0.012979931 0.06405132 -0.052882142 0.03457618 -0.043815777

fcnn.2.weight f4 [1, 64]
00000000: 89cb 993e 4880 89be cf20 0fbf a242 88be
00000010: f883 363f 017d 673e 38b5 5fbe 2900 99be
00000020: 7eec 6fbe ec53 d7be 1919 b2be 19d7 5f3f
00000030: 84ae 1a3f faf3 1d3f 41ea 82be 27e4 f8be
00000040: aaa3 f73e 748a 573f 60d0 88be 4bed d73e
00000050: e792 a03e 31ce 8c3e 1959 b73e 8141 76be
00000060: c429 81be afa7 973e 8195 aa3e dade f8be
00000070: ea93 71be c6c6 94be 8769 60bf 4595 5dbe
00000080: eb28 ddbe 81c2 f6be 869d 8f3e 066c 353f
00000090: 4185 a23e 68b7 543f caf1 863e dc79 bfbe
000000a0: b41a 3cbe 5baf 7fbe 2098 90be 9c66 42bf
000000b0: 9c41 a5be 36c9 57be 2cc2 88be a157 abbe
000000c0: 770e 4b3f f36c bd3e 24f7 923e c5b1 7a3e
000000d0: 1223 24bf 4d74 933e ac92 e9be fb1e 7cbe
000000e0: b6a6 92be 97da aabe 360e f8be 2104 9fbe
000000f0: dad5 6ebe ee2f ba3e a76f 6ebe e1d8 aabe
0.30038098 -0.26855683 -0.55909437 -0.26613337 0.7129512 0.22606279 -0.21846473 -0.29882935
-0.23430058 -0.42056215 -0.34784773 0.8743759 0.6042254 0.61700404 -0.25569347 -0.48611566
0.48367053 0.8419564 -0.26721478 0.42173228 0.31362078 0.27501062 0.35810164 -0.24048425
-0.25227177 0.2962012 0.33317187 -0.48607522 -0.23591581 -0.29057902 -0.8766102 -0.21638973
-0.4319528 -0.4819527 0.28049868 0.70867956 0.3174229 0.83092356 0.26356345 -0.3739766
-0.18369561 -0.24969237 -0.28241062 -0.7593782 -0.32276618 -0.2107285 -0.2671064 -0.33465293
0.79318947 0.36997184 0.28704178 0.24481876 -0.64116013 0.28799668 -0.45619714 -0.24621193
-0.28642815 -0.33369896 -0.48448342 -0.31057838 -0.23323765 0.36364692 -0.2328478 -0.3336859

exp_avg f4 [128, 27, 3]
00000000: 1195 01be 7e2a afbe 0000 0000 e92d 6a3d
00000010: af2b 75be 1f03 28be 878e 053e 82ed e1bd
00000020: 7815 083b e9ef 88ba 8edd fbbe da53 8f3e
00000030: 792e 0e3a 7216 b5ba 0000 0000 e1e1 bbba
00000040: 58f0 77bb 0000 0000 e9cc 723b c27c afba
00000050: 0000 0000 295b 69be 5781 953e 0000 0000
00000060: 920e a0bc 0000 0000 fe55 debc 06bb a1be
00000070: dd03 043d 0000 0000 82e9 25b1 30c8 89b1
00000080: 0000 0000 2d0e 593c e2b3 db3a 5642 babe
00000090: bd13 0080 6121 08a9 0000 0000 c1b5 8ab9
000000a0: b0ce 2c3d 0000 0000 8608 bc3b 2105 8c3b
000000b0: 0000 0000 7e2a afbe 8aad fcbe 8afd 573e
000000c0: 2037 b7bc ec74 15bd 0000 0000 da6d 84be
000000d0: 850e 57bf 0000 0000 32be 153a 68b7 8139
000000e0: 0000 0000 c021 d2be 37d7 62bd cb4a 10bb
000000f0: 124b eabf 7bad cdbf a89d 4bbf 5dab f1bb
00000100: 4b43 fcbd 4421 57bf 04ab 9bbd 55ba 3b3d
00000110: 0000 0000 a813 e9be 7266 fb3d 0000 0000
00000120: f321 2ebd 0000 0000 c021 d2be d03e 0abf
00000130: 0de0 d83e 9bf0 7940 ed61 66c1 b2d9 8940
00000140: b425 d6bf 44c0 ff3c 3e42 3cbe 0000 0000
00000150: 5c5e c63d 1fa4 6dbd 21f3 023e eaf7 05bf
00000160: bbac efbe f38d f5bc fb80 42be d1b5 3f3f
00000170: 5d55 20be f30b adbc 0968 bd3d 0000 0000
00000180: b1cd 3a3e e163 013e 0000 0000 db3e 21be
00000190: 1ab2 5bb9 0000 0000 f792 4e3a 4974 fbbd
000001a0: 0000 0000 41e3 e2be 0000 0000 8192 21bc
000001b0: 7141 0c3d ca67 513d 0000 0000 6217 5f2d
000001c0: 77a3 522d 0000 0000 acaf 803d e6ee 9cbd
000001d0: 2477 adbd 1c36 0500 bfbc 10ac 0000 0000
000001e0: 9197 3bb9 51d2 473c 0000 0000 05a9 b3be
000001f0: 5cea 97bd 0000 0000 3e42 3cbe 889b 863e
00000200: 8b6d 873e 9b1f 18b9 e89e 21bd 0000 0000
00000210: 54e9 133f be0b 683b 0000 0000 957d 1dbb
00000220: 233c 4ebc 0000 0000 02c1 dabc da99 253f
00000230: dce6 8039 6193 823f 858a a6bb 5207 043f
00000240: 7a54 a83e 04b3 fabe 5794 05be de8d 2338
00000250: 4dba 85bd 0000 0000 8f2d 9e3e 4626 c93c
00000260: 0000 0000 de3f 0ebe 0000 0000 01c1 dabc
00000270: 36f4 f9c0 5654 32c1 f82f 1e40 0300 c43f
00000280: ce14 0bc1 e36b 943d 5298 61bd 9976 673e
00000290: 0000 0000 d461 a4bb d3ea 843d 47e7 dc3c
000002a0: 1ef5 ff3c ccc7 243e d7f3 673b b330 af3b
000002b0: c6d9 72bd e53f 973d 037a 1c3c ec2c 313d
000002c0: 0000 0000 197c 43bc 328e 1cbd 0000 0000
000002d0: 49df 1f3d e456 6039 0000 0000 1d91 283d
000002e0: cfa5 063d 0000 0000 ca8a 893e 0000 0000
000002f0: 1a2e ffbe a8f2 863c 6788 f4bc 0000 0000
00000300: 8603 98ac f0c7 89af 0000 0000 dbe0 e3bc
00000310: 437e 5e3c c6ff 653d d528 0080 2d59 ae2b
00000320: 0000 0000 025c b2bc 052f 4eba 0000 0000
00000330: 8682 623d cc8e b53c 0000 0000 9976 673e
00000340: 9b85 89bd b395 4dbe 2810 2c3c c0de 80bd
00000350: 0000 0000 f002 a33d ab39 f23a 0000 0000
00000360: 97a0 a838 c668 c23b 0000 0000 ccc7 023e
00000370: 5659 4dbb fade 643b 4091 1cbf 2aad abbd
00000380: 55e2 433d 4f43 11be 3243 56bd 4f7a bebd
00000390: 194e 29bc 7df2 38bb 0000 0000 f4aa 4abd
000003a0: df94 09bd 0000 0000 3e04 6bbd 0000 0000
000003b0: ccc7 023e cfda 8d3e e371 1c3f 161b 93bf
000003c0: 5293 88be 1cb0 65c0 3a77 bebe db71 68be
000003d0: f2e4 82bd 0000 0000 93bd 2f3d 2b66 0abe
000003e0: 6f56 2a3e 21e1 d53e a840 8ebd ec73 43bc
000003f0: ba20 ae3c dfd1 f13d e1cd 533e 7e88 9138
-0.1265452 -0.34212106 0.0 0.05717269 -0.23942445 -0.1640744 0.13042651 -0.11031629
0.002076475 -0.0010447475 -0.4919247 0.2799366 0.0005423795 -0.0013815893 0.0 -0.0014334285
-0.0037832465 0.0 0.0037048406 -0.0013388621 0.0 -0.22788681 0.2920024 0.0
-0.019538198 0.0 -0.027140614 -0.31588 0.032230247 0.0 -2.4143394e-09 -4.0099835e-09
0.0 0.013248009 0.0016761983 -0.36378735 -7.081e-42 -3.0227018e-14 0.0 -0.00026456828
0.0421893 0.0 0.0057383208 0.0042730724 0.0 -0.34212106 -0.4935115 0.21092811
-0.022365153 -0.03648846 0.0 -0.2586506 -0.8400653 0.0 0.000571224 0.00024741446
0.0 -0.41041374 -0.055381026 -0.0022017236 -1.830416 -1.6068567 -0.7953744 -0.0073751644
-0.123175226 -0.84035134 -0.07600978 0.045831997 0.0 -0.4552281 0.12275399 0.0
-0.042512845 0.0 -0.41041374 -0.54002094 0.42358437 3.9053104 -14.398908 4.307824
-1.6730256 0.03121961 -0.18384644 0.0 0.09685966 -0.058017846 0.12788059 -0.5233141
-0.4681147 -0.029974913 -0.18994515 0.74886805 -0.15657564 -0.021123862 0.09248359 0.0
0.18242528 0.12635757 0.0 -0.15746634 -0.00020951816 0.0 0.0007880176 -0.12278039
0.0 -0.44314006 0.0 -0.009861589 0.034242097 0.05112437 0.0 1.2681274e-11
1.19734144e-11 0.0 0.06283507 -0.07662754 -0.0846999 4.78588e-40 -2.0568406e-12 0.0
-0.00017890173 0.012196139 0.0 -0.3508989 -0.074177474 0.0 -0.18384644 0.26290536
0.26450762 -0.00014507624 -0.039458185 0.0 0.57777905 0.003540739 0.0 -0.0024031152
-0.01258758 0.0 -0.026703361 0.64687884 0.00024586066 1.0201226 -0.005082431 0.5157367
0.3287695 -0.48964703 -0.13044868 3.8994353e-05 -0.06529675 0.0 0.30894133 0.024554383
0.0 -0.13891551 0.0 -0.02670336 -7.811061 -11.14559 2.4716778 1.5312504
-8.692579 0.0724714 -0.055076905 0.22603835 0.0 -0.005016545 0.06490102 0.02696575
0.03124481 0.16091841 0.0035393143 0.0053463816 -0.059289716 0.07385234 0.009550574 0.04325573
0.0 -0.011931443 -0.038221546 0.0 0.0390313 0.00021394674 0.0 0.041154016
0.03287297 0.0 0.268637 0.0 -0.4983986 0.01647313 -0.029850198 0.0
-4.320491e-12 -2.506222e-10 0.0 -0.02781718 0.013579908 0.056152128 -1.4648e-41 1.2388195e-12
0.0 -0.021772388 -0.0007865283 0.0 0.055300258 0.022162817 0.0 0.22603835
-0.06714936 -0.20076637 0.010501899 -0.06292486 0.0 0.07959545 0.0018480321 0.0
8.0407764e-05 0.0059329 0.0 0.12771529 -0.0031333766 0.0034922943 -0.61159134 -0.08382638
0.04782327 -0.14185832 -0.052310176 -0.09300672 -0.010333561 -0.0028220706 0.0 -0.04947944
-0.03358924 0.0 -0.057377093 0.0 0.12771529 0.27706 0.6111128 -1.1492641
-0.26674896 -3.5888739 -0.37200338 -0.22699682 -0.06391324 0.0 0.0429054 -0.13515536
0.16634534 0.41773322 -0.06945926 -0.011929493 0.02125584 0.11807608 0.20684005 6.9395624e-05

exp_avg_sq f4 [128, 27, 3]
00000000: d8d4 a141 d211 0f42 0000 0000 0597 413f
00000010: ca49 4740 2cad 5240 7dea cc40 c0a4 8c40
00000020: a201 0239 05ca 593c f9e8 6d41 2414 a440
00000030: a212 4437 bdc6 de39 0000 0000 6395 5b36
00000040: 7993 e237 0000 0000 1bd8 9c39 0e23 3339
00000050: 0000 0000 4989 8a40 33b3 0840 0000 0000
00000060: 0b93 003e 0000 0000 6fde e23f f2e4 ab40
00000070: 51d0 af3f 0000 0000 aeb4 282f 30e9 7832
00000080: 0000 0000 5f37 a23e 14fc 4c39 3ac8 c83f
00000090: 4641 0a28 d6f2 152a 0000 0000 c1ee f63d
000000a0: 5c53 963d 0000 0000 a9ca 863a 766c 3f3a
000000b0: 0000 0000 d211 0f42 e56a 0e41 f09f a341
000000c0: 4398 3e3f 7d0a 3a3d 0000 0000 e5e8 1a42
000000d0: 3693 1541 0000 0000 ed03 a638 1449 9338
000000e0: 0000 0000 edc0 2d40 1fb9 6740 e429 953b
000000f0: c412 1043 4926 5043 45f4 af41 7cf7 243d
00000100: 0f40 9940 74bc 5942 e8df 1940 0e83 9a3e
00000110: 0000 0000 6138 7e40 9d34 933d 0000 0000
00000120: 426a 8f3d 0000 0000 efc0 2d40 d02b ff43
00000130: bbfc ee42 87fb 7345 48ce a146 6234 1d45
00000140: af3d 2043 a3f8 623d 7ccd 513e 0000 0000
00000150: e1c0 ea3d f13c 553d f20f 3a3f 47a2 b341
00000160: ccee 2641 2b80 e83c 6afe 9240 4cc1 8140
00000170: ab47 343f 658c 973d e3b4 7b3e 0000 0000
00000180: 3e7d 853d 1d34 2e3d 0000 0000 6209 e53e
00000190: 65fa a53f 0000 0000 9c8a b038 9b65 a23e
000001a0: 0000 0000 43c5 9840 0000 0000 b92e b041
000001b0: e802 a13c 3348 103e 0000 0000 eb04 b72c
000001c0: e92e ad33 0000 0000 a627 b33d d9b6 8f3f
000001d0: d896 a440 0e2d 0130 7b4d c92f 0000 0000
000001e0: 00f9 4138 de31 c33c 0000 0000 be6a b83f
000001f0: d7ef c93f 0000 0000 7ccd 513e f51b 993f
00000200: d665 1443 faf9 f336 1cce ac3d 0000 0000
00000210: 00c9 7341 8110 2739 0000 0000 d9d8 c03b
00000220: 7e51 be3d 0000 0000 1c01 863d b576 1040
00000230: b602 8537 e31c 4243 1d53 3e43 6265 7840
00000240: dfc8 1142 6df3 8041 9e3b 3042 6a83 ed37
00000250: db3a ab3d 0000 0000 4852 883f c396 eb3d
00000260: 0000 0000 5377 d13e 0000 0000 1d01 863d
00000270: e1ea 3846 88da 6946 ca60 fa45 7df4 0b43
00000280: d6b1 7844 fc9f 4043 7fe9 ed40 515a 883f
00000290: 0000 0000 2921 c23d 3e05 a13d d324 bb3d
000002a0: bca8 f03e e127 ec3f 5df8 c53a 5985 713f
000002b0: 5d8b ec3e c6ac b83d 1581 323b e002 ca3d
000002c0: 0000 0000 8118 9d3b 5beb b63b 0000 0000
000002d0: 0e74 d83c 9b07 803c 0000 0000 ada1 da3c
000002e0: 47dd 213c 0000 0000 01b0 9e3f 0000 0000
000002f0: 81bf 0940 39aa 9b3d 115d e53c 0000 0000
00000300: 2e57 ab32 db99 7134 0000 0000 681b 4e3d
00000310: 686f bb3c 7d6e a73e 2cb4 842e 04fd e72e
00000320: 0000 0000 74d5 7e3d ca18 543b 0000 0000
00000330: aba6 743d 6283 033d 0000 0000 515a 883f
00000340: 787d 543e e9c3 a340 f86d b83b 1266 183d
00000350: 0000 0000 4cc8 0740 da1a 603d 0000 0000
00000360: 782c d538 8bdd c93b 0000 0000 ba77 153e
00000370: b868 8f3e e122 be3a 2919 0541 7a70 0141
00000380: 8038 d53d 05db 7140 1792 0040 e15f f83f
00000390: 27d7 c13b 342f 823c 0000 0000 5afb 2a3d
000003a0: e263 d13c 0000 0000 06e1 dc3d 0000 0000
000003b0: ba77 153e c284 1b44 cd62 3744 ed9e 9f43
000003c0: ceb6 eb42 5e9a 8d43 dc56 1941 0264 d13f
000003d0: 0a11 ed3d 0000 0000 3d86 393e 38dc 313e
000003e0: aabf 503e 0a4c 943f 64c8 313f 3226 223b
000003f0: 607b ec3f e936 8240 708e 1f3f 8e12 713a
20.228928 35.767403 0.0 0.7562106 3.1138787 3.2918196 6.403624 4.395111
0.00012398374 0.013292794 14.869378 5.1274586 1.1686849e-05 0.0004249121 0.0 3.2720498e-06
2.7009972e-05 0.0 0.0002991565 0.00017083829 0.0 4.3292584 2.1359375 0.0
0.12556092 0.0 1.7724131 5.3716974 1.3735448 0.0 1.5343701e-10 1.4488521e-08
0.0 0.3168287 0.00019548862 1.5686104 7.674693e-15 1.3318109e-13 0.0 0.120572574
0.07340118 0.0 0.0010283786 0.0007302234 0.0 35.767403 8.901097 20.453094
0.7445108 0.04542016 0.0 38.727436 9.34844 0.0 7.916228e-05 7.023118e-05
0.0 2.7149003 3.620674 0.004552113 144.0733 208.14955 21.994272 0.040275082
4.7890697 54.434036 2.4042912 0.30178112 0.0 3.972191 0.071877696 0.0
0.07002689 0.0 2.7149007 510.3423 119.493614 3903.7205 20711.14 2515.274
160.24095 0.0554129 0.20488542 0.0 0.1146257 0.05206007 0.7268058 22.454237
10.4333 0.028381428 4.5935564 4.054846 0.70421857 0.07399825 0.24580722 0.0
0.06518029 0.042530168 0.0 0.4473372 1.2967039 0.0 8.418152e-05 0.31718144
0.0 4.77408 0.0 22.022814 0.019654706 0.14090042 0.0 5.201719e-12
8.064473e-08 0.0 0.08747797 1.1227676 5.1434135 4.6993953e-10 3.661674e-10 0.0
4.6246685e-05 0.02382749 0.0 1.4407575 1.5776318 0.0 0.20488542 1.1961657
148.3978 7.2710654e-06 0.0843775 0.0 15.236572 0.00015932509 0.0 0.0058852253
0.09292887 0.0 0.0654318 2.2572453 1.5856098e-05 194.11284 190.32466 3.881188
36.446163 16.11886 44.05822 2.8313796e-05 0.08360835 0.0 1.065011 0.11503365
0.0 0.4091135 0.0 0.06543181 11834.72 14966.633 8012.0986 139.95503
994.7787 192.62494 7.434753 1.0652562 0.0 0.09478981 0.07862328 0.09137883
0.47003734 1.844967 0.0015103925 0.943441 0.46200076 0.09017329 0.0027237583 0.098638296
0.0 0.004794181 0.005582256 0.0 0.026422527 0.015628627 0.0 0.026688421
0.009879417 0.0 1.2397462 0.0 2.1523135 0.07600827 0.02799848 0.0
1.9946665e-08 2.2500846e-07 0.0 0.050319105 0.022880271 0.32701483 6.03467e-11 1.05496084e-10
0.0 0.062215284 0.0032363408 0.0 0.05972926 0.03210772 0.0 1.0652562
0.20750988 5.117665 0.0056283437 0.037206717 0.0 2.1216002 0.054713108 0.0
0.000101649144 0.006160443 0.0 0.14596453 0.28009582 0.0014506244 8.318643 8.08996
0.10411167 3.778993 2.0089166 1.940426 0.0059155407 0.015891649 0.0 0.041743614
0.025560323 0.0 0.10785107 0.0 0.14596453 622.07434 733.54376 319.2416
117.85704 283.206 9.583706 1.6358645 0.115755156 0.0 0.18117614 0.17369163
0.20385614 1.1585705 0.69446397 0.0024742004 1.8475151 4.069203 0.6232672 0.0009196185

exp_avg f4 [128]
00000000: 3248 7bc0 001f 1b3f 7916 a7bd 57a4 7a3d
00000010: 6715 7f3f c7d1 a23e f8db 3fbf 2184 8540
00000020: b5e2 01bf 618d cf3e 76ef bdbf 451d 88be
00000030: 4f3f 16c0 ed7e 48be b315 bfbe d23b b940
00000040: 3efa d8be 0bbf 6fbd f2be b33f 3198 6f3f
00000050: 4404 f5be 8ef0 23bf 8d5a bc3f 64bf 8d40
00000060: 5afb 07c0 233e e1bf 9f4a 0fc0 bc9e d73e
00000070: 9e63 8d40 8b6a 8140 d06f 1a3f d550 a23f
00000080: 5503 2fc0 20b9 16c0 924d f2be 00eb 3dc0
00000090: 1d42 edbe 4d69 353f bd5c 60c0 b208 a840
000000a0: 70ca 413e c50b 4641 8d06 0dc0 1d44 21c0
000000b0: bde2 7cbf fd36 993f 3f3c 0cc0 570b 2840
000000c0: eeb1 43be a5fd 993e 4f0c a3bf e680 3fc0
000000d0: be4c 1e41 64cb 59c0 0c3c 9f40 9c20 0541
000000e0: c91c 08c0 7809 98bf bbb8 66c0 4014 21bf
000000f0: 3b53 a43f 1bc4 1ec0 8362 afbe 949b 643f
00000100: 95d8 7abf dce9 f23f 2ee1 49bf b2f3 e6bf
00000110: a322 a240 b81a 023e a379 18c0 723c cd40
00000120: bf06 2840 027c 6340 51f3 58bf 18cc 2141
00000130: 5333 adc0 6924 9740 a932 72c0 993b 1abf
00000140: 3c13 5bc0 9c57 10c0 c108 c540 3fcb c43f
00000150: f0c7 a0c0 7b99 aabf 34c1 f740 3c25 c8bf
00000160: c043 32bf c456 b0c0 c2d1 abc0 e2b1 b8bf
00000170: 0b1b 15c0 284a 0240 a13f cbbf 41b1 b9c0
00000180: ecd2 3ac0 5b5f 0d41 736d a4bf 91ed e9c0
00000190: 28de 1740 1b4a 1441 bb46 313e d933 223e
000001a0: 2e91 a7bf 25d1 5c40 f25c 5440 11d3 cc3d
000001b0: 29f5 8640 e4f1 aabf cb42 2341 94f3 353f
000001c0: 92cc 81bf 8ce2 3ec0 639a 0fc0 159a 1ac0
000001d0: f30d 4cc0 6f81 243f 5637 0640 eec4 06bf
000001e0: c9ce 32bd 04a6 c33f 58b4 fcbf b518 0240
000001f0: a3ff d5be 1070 cabf e21f c540 824c 3ac0
-3.9262815 0.6059418 -0.08158583 0.061191883 0.9964203 0.31800672 -0.7494502 4.172379
-0.5073655 0.4053755 -1.4838703 -0.2658483 -2.347614 -0.19579668 -0.37321243 5.7885523
-0.4237842 -0.058531802 1.4042647 0.935916 -0.47854817 -0.6403893 1.4715134 4.429613
-2.1247163 -1.7597088 -2.2389295 0.42113292 4.4184103 4.0442557 0.6032686 1.2680918
-2.7345784 -2.3550491 -0.47324806 -2.9674683 -0.46339503 0.708638 -3.5056603 5.2510614
0.1892488 12.377873 -2.2035248 -2.5197823 -0.98783475 1.1969906 -2.1911771 2.6256921
-0.19110844 0.30076328 -1.2738131 -2.9922423 9.893736 -3.403039 4.97608 8.320461
-2.126757 -1.187789 -3.605025 -0.62921524 1.28379 -2.4807193 -0.34254846 0.89299893
-0.9798673 1.8977618 -0.7885922 -1.804312 5.066728 0.12705505 -2.382424 6.4136286
2.6254117 3.5544438 -0.8474627 10.112328 -5.412515 4.7231946 -3.784342 -0.6024719
-3.423049 -2.2553473 6.1573186 1.5374526 -5.0244064 -1.3328089 7.7423344 -1.5636363
-0.6963463 -5.5105915 -5.369355 -1.4429286 -2.3297756 2.0357761 -1.5878793 -5.8028874
-2.9191236 8.83578 -1.2845901 -7.31025 2.3729343 9.268092 0.17312138 0.15840091
-1.309118 3.4502652 3.318173 0.10001195 4.217427 -1.3355069 10.203807 0.71074796
-1.0140555 -2.9825773 -2.243798 -2.4156544 -3.1883514 0.6426 2.0971274 -0.5264424
-0.043654237 1.5285039 -1.9742537 2.032758 -0.41796598 -1.5815449 6.160142 -2.9109197

exp_avg_sq f4 [128]
00000000: 3e91 eb43 71f7 4543 8b63 db40 d64d 8541
00000010: b1f0 7042 9b80 7242 1e8f 4842 9c5e ac44
00000020: f36e d442 4928 e241 3d33 7a42 0a19 9842
00000030: 5bbb 1c44 6e12 9643 dde8 0442 1d3a 5c44
00000040: 0862 3942 cf08 5f43 6152 6344 d92f 5e42
00000050: 2452 fe43 1a7a 1e43 65d3 8042 05d2 0145
00000060: 1441 3944 84b2 2543 4ed5 9f44 bcf1 df42
00000070: 62cc f644 ddf2 b044 21d3 ea41 7435 6c42
00000080: f513 1744 df24 c243 9912 7743 8e8e c842
00000090: aaec 8143 13c3 bf40 ee67 0644 7745 3545
000000a0: 37d6 9b42 b29f 6e45 a750 0144 b87c a644
000000b0: 3cdb 1241 07f5 6b45 5b5c fa43 4e69 2e43
000000c0: 6a1e 9842 ec23 bc42 a9f2 fb43 e8ce 5e43
000000d0: a555 6245 936f 2044 10c0 ee43 e8b8 7445
000000e0: 1076 4543 690a 1d42 d506 d444 978a 9743
000000f0: 5e3c 8c43 30fc 5f44 a02c 2342 496b bf44
00000100: e59e d642 847f c244 8d99 af42 98d9 c543
00000110: cc8a 1a44 887d 6742 db26 d743 4e89 e843
00000120: 864c 5e44 d38f 1245 b17f 2b45 b63d fd45
00000130: 1884 8444 ef24 0545 b58e ba43 c211 9942
00000140: f8c0 5344 ec39 6243 4594 1444 d75f 6943
00000150: 29c2 d743 055f a643 0993 8245 99bf 2843
00000160: 9646 dc43 ea58 0745 5e8f 0844 3cd8 6243
00000170: dcf3 f643 d57f 6f43 56b0 0543 9862 f444
00000180: 4836 dc43 0d17 9245 3429 db42 f136 1845
00000190: 14c6 2244 652d b745 2203 5943 e6a4 1944
000001a0: 0c02 ed42 a87d af44 f30a 5e44 a9ed 8f41
000001b0: f536 0d45 3b33 2b43 0388 cf44 a338 d843
000001c0: 7877 4842 2aee 3644 ed36 1043 41ab 8944
000001d0: cf33 b043 3a44 ae41 b094 8343 f189 8a42
000001e0: 8a3d 5942 39af 8842 d76e 2743 ba94 0044
000001f0: 03a1 b445 c059 0d43 be6c a345 60cb 5f44
471.1347 197.96657 6.8559012 16.663006 60.23505 60.62559 50.139763 1378.9565
106.2167 28.26967 62.550037 76.048904 626.9274 300.14398 33.227406 880.908
46.345734 223.03441 909.2872 55.546726 508.64172 158.47696 64.41288 2077.1262
741.01685 165.69733 1278.6658 111.97214 1974.387 1415.5895 29.35309 59.0522
604.3118 388.28806 247.07265 100.27843 259.84894 5.992563 537.6239 2900.3416
77.91839 3817.981 517.2602 1331.8975 9.178524 3775.3142 500.72153 174.41135
76.0594 94.07016 503.89578 222.80823 3621.3528 641.74335 477.5005 3915.5566
197.46118 39.260166 1696.2135 303.08273 280.47162 895.9404 40.79358 1531.3527
107.31034 1555.9849 87.799904 395.69995 618.1687 57.87259 430.30356 465.0727
889.1957 2344.989 2743.9807 8103.714 1060.1279 2130.3083 373.1149 76.53468
847.01514 226.22626 594.3167 233.37437 431.51688 332.74234 4178.3794 168.74843
440.55145 2165.5571 546.2401 226.84467 493.90515 239.49934 133.68881 1955.081
440.42407 4674.8813 109.580475 2435.4338 651.095 5861.6743 217.01224 614.57654
118.504 1403.9268 888.1711 17.991045 2259.4348 171.20012 1660.2504 432.44247
50.11667 731.7213 144.21455 1101.3517 352.40475 21.783314 263.16162 69.26942
54.310097 68.34223 167.43297 514.32385 5780.1265 141.35059 5229.593 895.17773

exp_avg f4 [27, 128, 3]
00000000: 33df 453e f563 753e fdec 3e3d a299 303e
00000010: 625c 1d3f 5e90 19bf 802a d1bd f92b 47bd
00000020: 4f6a 7abf 321e 51bf ed29 0cbf 8ddd d9be
00000030: 12af 4ebf 03fe 56bf 861e a9bf 86ed 29bf
00000040: 851d abbf 8eb9 8d3e 3b91 503c c742 21be
00000050: 8da4 9fbe 1052 9bbf 5d5e 23be 9501 debe
00000060: 5dc8 af3e be97 e1be c364 ca3e 9eae 45be
00000070: 4fd5 10bf 27f4 13bf a502 c9be 380a 80bf
00000080: 399d 55bf f9af 00be 1577 37bf 6b82 d1bf
00000090: e756 90bd 01f6 01c0 5308 11bf 0d4c c1be
000000a0: 1056 943e 8772 3e3e 73ba 87bf c920 bcbf
000000b0: 6850 acbf e4ca 7bbd ac4c edbd b6a5 4cbf
000000c0: ec2f 61bd 6a41 46bf 5af2 a3bf 3fc1 933a
000000d0: 6b71 34bc e989 e8be eea2 a0bd b85c c6be
000000e0: 4c45 68be 04f6 3abf 7fd4 993e c38f 37bf
000000f0: f05e e73c fd1e d93d 0295 4fbe 4156 ee3e
00000100: a8cb 07bf 2acf cbbd 233b 803c 48ba a93e
00000110: 71a6 8ebf 0e90 cdbf 7f8d fbbe 737a 24bf
00000120: 031d 6ebf 293b d3bf 0a9f 4ebf 1485 dfbe
00000130: 267c 98be 4dfe d73e b07b 853d 5e58 f13d
00000140: ec39 153b 1140 b4bf 8ba2 1abf eba3 c53e
00000150: cdb9 2abd 8d19 d5be 798e d13b 1c4f 24bd
00000160: e334 aebf d04a 00bf 6bee 8bbf c1b9 e4be
00000170: c4c1 90bd 0bb8 f0be 875a 28bf b613 3cbf
00000180: bbf7 043f 909c 96bd 7543 6f3e 3797 053f
00000190: bb72 12be 0c9b 32bf bbe9 4ebf 8015 edbe
000001a0: dd4a 96bf 7e87 863e 641b e8bf 3da4 043f
000001b0: 2cf2 8cbd 594d 63bf d75f 1cbf 9f55 29bf
000001c0: 239b aabf dc0e 85bf a33a 613f e33e 1dbf
000001d0: abf6 cebc 26b5 8bbf 7f56 cebd ae19 a5be
000001e0: 82d6 a9bf dfe5 8bbf cfad 0ebe d9c4 4abe
000001f0: c7c1 343d ac06 ae3e 1b46 87bf 8de1 d7bf
00000200: 7e55 5bbf 7127 88bf 8ed5 b3bf e90f f9be
00000210: 136d 94bf b076 bebf 57d0 56bf 55c1 51be
00000220: bd27 b7bd 3c33 7438 7e9b a93e 19b6 06bf
00000230: 6321 a6bf 6a88 43bf 3ccd b03c 6308 73bf
00000240: da6a 7f3f 8f28 723e e764 31bd 1ebf 753d
00000250: 9902 973e a682 083e 72b9 04bf 22fa b8bf
00000260: 1a0e 26bf 65ee 04bf bc05 babe 8628 90be
00000270: 357a 703c 9da2 02bf df78 99bf fd12 eabd
00000280: 5ecb 423f 9e82 d0bd f137 18bc 8038 8cbe
00000290: 8c82 14bf d7e0 a8bc feba bb3e 772d c2bf
000002a0: c4e0 9fbe c36d fbbf d7ba 52bf 31ab f7bc
000002b0: 1978 bbbc 5797 c23d 0bec e13d 3a25 253d
000002c0: 5801 f63c 4cc8 1dbf 421e 15bf f475 1abe
000002d0: 8bdf 27bf 0f61 a0bf 575c 68bf 9530 46be
000002e0: dded 51bf 83d7 37bf c8f7 cc3e 94cb 45bf
000002f0: 64c1 82bf 2043 2b3d f435 84bf 0657 853b
00000300: ec38 7ebf 4d2e febf 967e 65bf 4539 093e
00000310: 191d 003b c7c9 18bb dabb d93d 081f a4be
00000320: fbd8 0bbf 35b2 0abf 0530 cfbf 7ba0 47bf
00000330: e11e a9bd affb 83bf e5aa 06bf 8dc1 46bf
00000340: ba90 33be faac a1be 2a33 bcbb 48ae 70bf
00000350: 5943 4cbf 89fa c8bf 0d5d 0abf 0144 b73e
00000360: edd9 583d fa8f 39bb 8e75 d93c eaeb 41be
00000370: 387c c03c c78b 433b 1f26 b6bc 9273 1dbc
00000380: 5e2e 723c af56 acbf 16c5 1d3f 13ed 23be
00000390: 37cb f0be c425 cfbf a1c1 a6bf a763 0cbf
000003a0: 34d9 e93e abba 143d 7802 79be 2e2c 1ebf
000003b0: 5e25 90bf 5f3b 2cbf 6133 3dbf 2b92 693e
000003c0: fb7b 02bf 8267 b4be 944d 893e 9bd1 63bf
000003d0: 51e7 b8be fee7 9a3e c16b f93e ed4b d6bc
000003e0: 86f9 8a3d 1be5 863f 18b5 74bf b41d 603d
000003f0: 161f 883b eaf7 72bd fea7 713c 7ab4 24bf
0.19323425 0.23963912 0.04661273 0.17246106 0.6146909 -0.5998591 -0.10213184 -0.04862592
-0.97818464 -0.816867 -0.54751474 -0.42551842 -0.80735886 -0.8398134 -1.321244 -0.66378057
-1.3368384 0.2768063 0.012729938 -0.1574813 -0.3118023 -1.2134418 -0.15953965 -0.43360582
0.34332553 -0.44061083 0.3953 -0.19304892 -0.56575483 -0.5779442 -0.3925983 -1.0003119
-0.8344303 -0.12567128 -0.7166608 -1.6367925 -0.07047825 -2.03064 -0.56653327 -0.37753335
0.2897191 0.18598376 -1.0603775 -1.4697505 -1.3462038 -0.06147279 -0.115868896 -0.79940355
-0.054977342 -0.77443564 -1.2808335 0.0011272802 -0.011013369 -0.45417717 -0.07843576 -0.38742614
-0.22682685 -0.7303164 0.30044934 -0.7170374 0.028243512 0.10601614 -0.20271686 0.46550182
-0.5304513 -0.09951623 0.015653199 0.33149934 -1.1144544 -1.6059587 -0.4913139 -0.6424934
-0.9301302 -1.6502429 -0.80711424 -0.43656218 -0.29782218 0.42186204 0.06517732 0.11784433
0.002277012 -1.4082052 -0.6040427 0.38601622 -0.0416811 -0.41621056 0.006395158 -0.040114507
-1.360989 -0.50114155 -1.0932134 -0.4467297 -0.07068208 -0.47015414 -0.65763134 -0.73467577
0.51940507 -0.07354081 0.23365577 0.5218386 -0.14301579 -0.6976783 -0.80825394 -0.46305466
-1.1741596 0.26275247 -1.8133359 0.5181311 -0.06882128 -0.887899 -0.6108374 -0.6614627
-1.3328594 -1.039516 0.879801 -0.6142408 -0.025264105 -1.0914657 -0.100750916 -0.32246155
-1.3268588 -1.0929526 -0.1393349 -0.19801654 0.044130113 0.33989465 -1.056827 -1.6865708
-0.85677326 -1.0637037 -1.4049547 -0.4864495 -1.1595787 -1.487997 -0.8391165 -0.20483907
-0.08943126 5.822185e-05 0.33126444 -0.5262161 -1.2978939 -0.76380026 0.021582238 -0.9493467
0.9977242 0.23648284 -0.04330912 0.059996717 0.2949417 0.13331088 -0.5184547 -1.4451334
-0.6486527 -0.5192626 -0.363325 -0.28155917 0.014677574 -0.5102938 -1.1990012 -0.11429403
0.76091564 -0.10181163 -0.009290681 -0.27386856 -0.580117 -0.020615024 0.366661 -1.5170125
-0.3122617 -1.9642872 -0.82316345 -0.030232998 -0.022884415 0.09501522 0.1103135 0.040318705
0.030029938 -0.61633754 -0.58249295 -0.15084058 -0.65575475 -1.252962 -0.907659 -0.1935447
-0.82003576 -0.7181322 0.40032792 -0.7726376 -1.0215268 0.041812062 -1.0328965 0.004069212
-0.99305606 -1.985788 -0.8964628 0.13400753 0.0019548594 -0.0023313628 0.10631533 -0.32054925
-0.5462796 -0.5417817 -1.6186529 -0.7797925 -0.08257843 -1.0311183 -0.52604514 -0.77639085
-0.17535678 -0.31577283 -0.005743404 -0.9401593 -0.79790264 -1.5701457 -0.54048234 0.3579407
0.052942205 -0.0028314576 0.026545312 -0.1893765 0.023496732 0.0029837952 -0.022234974 -0.009610074
0.014781563 -1.3463954 0.61628854 -0.16008405 -0.4703004 -1.61834 -1.3027841 -0.5483956
0.45673525 0.036310833 -0.24317348 -0.6178616 -1.1261404 -0.67278093 -0.73906523 0.22809665
-0.5097043 -0.3523522 0.26817 -0.8899171 -0.3611398 0.3025512 0.48715022 -0.026159251
0.06785874 1.0538667 -0.9558883 0.054715827 0.0041540964 -0.05931846 0.014749525 -0.64337885
