experiments/justification/models/NoBTCNN_MediumFCNN_5.pth (torch, 591498 bytes, 21 tensors)

fcnn.0.weight f4 [256, 27]
00000000: 4867 0e3d 4cdc c0bc cfe2 9d3d af9e a83c
00000010: 5243 673d bd0e 833e 9cd9 3f3e 42a4 d43d
00000020: 4419 97bd 127c 053e 30bc e2bd c7f1 70bc
00000030: baeb a93b 71a4 473e a872 6bbc 2355 2b3d
00000040: 06b8 483e e27b cfbd 468e adbe c04d 0bbd
00000050: 8de8 143e d027 083d af2d 29bd 86f8 d83c
00000060: 79c7 f2bb e907 813c b672 5dbe 2274 343d
00000070: 3564 13bd a52c 193e 20ea b3bd 9be6 f03c
00000080: e0a3 b83d a9af 913c 0694 46bd 3ff7 743d
00000090: 745b 1cbe 198a 3d3d c3fa da3d d60c 8d3e
000000a0: 36af 70be e1e4 b63d 1b6b d03d 95dc 14be
000000b0: 4d82 7a3d a2a8 a53c 96c7 84be a038 d43d
000000c0: 4ff0 493e a7be 17be 424e c9bd 88dd adbd
000000d0: d56e b93d fa3e 333d 9a0b 633e 0adf 523e
000000e0: 42e8 843d c662 eebb 8460 debb 3b1c 9fbe
000000f0: 806d 35be d15a c7bb a7cd 9d3d 7464 16be
00000100: d6db 3dbd 64cd 67bd 4fa6 833e 9d4a 3abd
00000110: edf1 99bc 052a 163e e901 b83e 07fe 223e
00000120: e91b 7cbe fd4e 2d3d c7bf 4bbd c772 fcbb
00000130: 460a 31be 52fe 473e 9d94 c83d fdda 16be
00000140: ae4c 063d 7125 873c b628 9bbe dc8c b5be
00000150: ac3b dc3d 4639 7d3c 04b0 b8bd c10e ce3e
00000160: 4e32 8abd ad10 e7bc ee83 b4bd ba31 c23b
00000170: 3ea8 fa3d 857c 993d 7c68 5cbd 9a3c 7abe
00000180: b714 8a3d f147 9abe 5ae8 9cbd e611 9e3d
00000190: 0c61 343e 2834 24bd 8a4c d33c beed 5abe
000001a0: 4c3f 173e 15cf 723e 5af4 0cbe e50b d23d
000001b0: 2f6d 4f3d 31fc 583e c73e 6b3e c4b1 7d3e
000001c0: edf1 953d 4e4f 94be ddf1 703e 16ec 23bc
000001d0: 48b3 323e 5001 1d3f 2cbc 303e 62cc d13c
000001e0: 9d62 cdbc 633c 5d3d 6757 383e 79f3 963d
000001f0: 79e7 b4bd 58a4 c23d 980a 063f 9181 05bd
00000200: e639 aebc 1783 adba 69c1 da3c 90d7 233f
00000210: 23b4 fdbb be75 d6bd e1c8 46bc c418 bb3d
00000220: a891 86be 9995 be3d 1123 24bb fa01 91bd
00000230: 266f 4a3e 3d98 643e 4fc8 603e 2367 93bd
00000240: 7e70 a23d 5e42 f2bd 69cb 353e 9b40 92be
00000250: 3fee 543e c51e 333e 7c8a 80be 3024 52bd
00000260: 45ac afbd bbdf 61be dc34 2abd d120 b0bd
00000270: 02fc 293e ac92 353e 2b10 17bd 0557 373e
00000280: 1949 093d 2275 d5bd 1afc 37be fad8 9ebd
00000290: 2db4 4fbd e961 adbd f527 54bb d86b 71be
000002a0: 13b2 8c3d 2b43 14be ddc7 e23d 0bdb 2abe
000002b0: 1679 bdbb 7ad6 473e bce5 70be 440d 94bd
000002c0: de7b 8ebb 2389 2e3e c131 273e 2353 c23d
000002d0: f3ef 753e 0058 223d d05f d6bc efcc 47bc
000002e0: d838 7c3d 6e43 ce3d dd76 5cbe f83a b33b
000002f0: a552 4f3b f3fd 82bd 30a1 72bb 868f 863d
00000300: be89 8bbc cec9 29be 0869 86be 1878 c53d
00000310: c38d b7bd b70f 283e fda0 f1bc 0ef0 69bd
00000320: 4f8e edbd 2aa5 943e d516 81be 6125 da3c
00000330: 5633 f83d bcb6 c13d e253 2e3d 2725 31be
00000340: 023d ec3d 5b51 093e 6ca1 8e3d 76db 253e
00000350: 7d18 173e 256e 3abd e693 903c 3274 10bc
00000360: 8351 89bd 7861 bcbd 0860 f03d a7fb 8d3a
00000370: 165b 2abd d073 f0bd 5ded 8cbd f534 5abd
00000380: 4682 943d 925a e1bb 1096 01be c676 29bd
00000390: abd7 333e 21a0 603e f4f5 b1be 5966 8d3d
000003a0: 6d3f 93bd 572e 543e 0271 d73d df72 93bc
000003b0: 532f 013e 60f6 053e 4bbb 3dbe 5570 85bd
000003c0: 6431 363e 95d4 1fbe fd87 093e f454 5e3e
000003d0: 44fe 1a3e bc98 8bbd 5375 b6bd d8a7 693d
000003e0: 6642 9ebd 78f5 2a3d 7aab 94bd 8445 bb3e
000003f0: ac20 133d 97f6 db3d 32ef 153e 5a21 0d3e
0.034766465 -0.023542546 0.07709276 0.020583479 0.056460686 0.25597182 0.18735355 0.10382892
-0.07377866 0.1303561 -0.1107105 -0.014706082 0.0051855715 0.19496323 -0.014370598 0.04182924
0.1960145 -0.10131051 -0.3389761 -0.034009695 0.14541836 0.033241093 -0.041303333 0.026485693
-0.007409033 0.015750842 -0.2162579 0.044056065 -0.035984237 0.14958437 -0.0878489 0.029406836
0.09015632 0.017783957 -0.04848101 0.059806105 -0.15269262 0.04627428 0.1069236 0.27548856
-0.23504338 0.08930374 0.10176679 -0.1453727 0.06115942 0.020222012 -0.25933522 0.10362363
0.19720577 -0.14818822 -0.098293796 -0.08489519 0.09054343 0.04376123 0.22172394 0.20592895
0.06489612 -0.0072749583 -0.006786408 -0.31076226 -0.17717552 -0.006083824 0.07705241 -0.14686757
-0.04635223 -0.05659236 0.2571282 -0.045481313 -0.018792117 0.14664467 0.35938957 0.15917216
-0.24620022 0.042311657 -0.04974344 -0.007704112 -0.17289075 0.19530609 0.09793971 -0.14731975
0.03278797 0.016497346 -0.30304497 -0.3545903 0.10753569 0.01545555 -0.09017947 0.4024563
-0.06747876 -0.028206194 -0.08814226 0.005926338 0.12239121 0.07494453 -0.05381058 -0.2443718
0.06742232 -0.30133012 -0.07661505 0.077182576 0.17615145 -0.040088803 0.025793333 -0.21379754
0.1477024 0.23711808 -0.13765088 0.10256175 0.050641235 0.21189953 0.22973166 0.24774843
0.07321534 -0.28966755 0.23529764 -0.010005018 0.17451203 0.6133013 0.17259282 0.025610153
-0.025071437 0.054012667 0.18002091 0.073706575 -0.088332124 0.09504002 0.52359915 -0.032594267
-0.021267843 -0.001323792 0.026703553 0.640008 -0.0077424212 -0.10471676 -0.012132854 0.09135583
-0.26283002 0.09305877 -0.0025045315 -0.07080455 0.19768962 0.223237 0.21951412 -0.07197406
0.079316124 -0.11829065 0.17753376 -0.28564915 0.20794009 0.17492206 -0.25105655 -0.051304042
-0.0857778 -0.22058003 -0.041554317 -0.08600009 0.1660004 0.17731732 -0.036880653 0.17904289
0.033516977 -0.10422732 -0.17967263 -0.07756229 -0.05070894 -0.084659405 -0.003237245 -0.23576295
0.068699025 -0.14478748 0.11073277 -0.16685121 -0.005782257 0.1951541 -0.23525137 -0.07229093
-0.004348262 0.17044501 0.16327573 0.09488513 0.24017315 0.039634705 -0.026168734 -0.012194856
0.061577648 0.10071455 -0.21529718 0.005469676 0.0031634953 -0.06396093 -0.0037022345 0.06570344
-0.017033454 -0.16580889 -0.26252007 0.09642047 -0.08962586 0.16412245 -0.02949571 -0.0571137
-0.11599409 0.2903226 -0.25212732 0.026629152 0.121191666 0.09458682 0.042560466 -0.17299329
0.11535074 0.13409941 0.069643825 0.16196999 0.14755435 -0.0455152 0.017648648 -0.008816766
-0.06705 -0.09198278 0.117370665 0.0010832445 -0.041590773 -0.117408395 -0.06881211 -0.05327316
0.0725141 -0.006877252 -0.126549 -0.041373037 0.1756274 0.21936084 -0.3475796 0.06904287
-0.07189832 0.20720802 0.105196014 -0.01799911 0.12615709 0.13082266 -0.18528478 -0.06515566
0.17792279 -0.15608437 0.13430782 0.21712095 0.15136057 -0.06816241 -0.089090966 0.057044834
-0.07727508 0.041738003 -0.07259269 0.36576474 0.03591983 0.10740393 0.14642027 0.13782254

fcnn.0.bias f4 [256]
00000000: 90cd df3d 6a34 8a3c 3917 163e ff85 ed3d
00000010: 6574 cc3c 827f 7fbd b210 c73d 86db fabb
00000020: a833 c23d 2659 12be 2464 f43c 20c8 b4bd
00000030: dd16 68bd 1d5c 283e a727 35be e7fd 31bc
00000040: 6e90 3a3e ea76 343e ce30 25be aa5f 8fbd
00000050: 665d 5c3e 87b0 6d3e 2dc0 8bbd 8ddd 883e
00000060: 1466 0539 2548 f9bd c46a e2bd 08c4 3f3e
00000070: 8626 403d a483 a9bc 401c 87bc 3502 fe3d
00000080: 9339 71be 4368 293d 07e1 7abe 8437 51be
00000090: 4d1c 403e 4e6a 73bd 818d c8bd f9ab a73e
000000a0: b4ea 193e cbc1 023e 1ecd de3d 0eb0 c03c
000000b0: 8d2a b73c 51c8 3cbe ada3 053e 2844 163d
000000c0: 9f6c 67bd 4a65 4b3d fb49 603d dfd8 96bd
000000d0: 040c e8bd 7aef c33d 95e1 97bc a333 90bc
000000e0: 8127 723e 74c0 59bd 80f6 75bd 8773 bdbd
000000f0: 8af9 22be c4ec eb3c d611 75bd 386d cfbc
00000100: d405 873d d32b 7c3d 3493 c63d 7d89 6a3c
00000110: 1bc3 a9be 7506 b73c ae6b 2bbd 9c08 9b3e
00000120: 620c 11be 2b61 1d3e 5090 193e bcda 2abe
00000130: d2d2 81bd 7f72 8e3e 4d86 133c 2d8d 5e3c
00000140: 6c45 723e 4738 873e d455 d3bd 097b 0c3e
00000150: bd9a 213c b15f d63d f757 df3d 2b29 dcbc
00000160: b1fa 02be f7d2 28be c703 03bd d5bb 173e
00000170: 3532 803c c042 053e 6e68 28be c55f 4f3e
00000180: e9dd ba3d 7c19 f0bd 6c3a 60bd 3085 2a3c
00000190: 6c0b 57be 3581 15be f66b 803b acc3 c13d
000001a0: b5ca 2a3e b420 e83d ecd4 8a3c 46a7 013e
000001b0: 63a6 09be aed0 98b9 e127 763e 06a5 08bd
000001c0: 5bc5 173e 5726 993d 465d d13d d554 c23d
000001d0: 5f7e f3bc 72b3 8dbd c615 65be f8fc 313e
000001e0: 56df 04be 9c40 c1bc 6af4 7dbd 6f76 603e
000001f0: 2e40 d7bc 321b 07be 6afd 1fbe c5ec 233e
00000200: 1eaf 3f3c ce4a fabd 439f 10be 8519 42be
00000210: f2b2 53be 1c08 243d 6340 59be 5ec6 e13d
00000220: a03c 103e 9826 8d3e 2552 493e 0d37 95bd
00000230: 1faa 3abe db40 733d 3720 783e acab 83be
00000240: f77d 9ebd 9942 2cbd 3226 513e 852d 693c
00000250: 0ca1 34be 2f42 acbd a3e9 64bc 80ad d23d
00000260: 32fc 363e 1aca 97bd efa7 403e 778f c9bd
00000270: 95d5 7c3e 8aaf e6bd 0462 f03b 8a0f 063e
00000280: ac30 3c3e c2dc e9bd f85b 2c3e 128d 4ebc
00000290: d7b1 203e 8eed 95bd b798 5e3d 3aa4 1a3e
000002a0: 37c3 43bd 67ba 073e 9447 24be 93ac 4d3e
000002b0: 0654 7b3d b65e 143d 65f9 903d 0f9c 9f3c
000002c0: 5d74 c43d 1d56 34be 7d2b a6bd b851 87bd
000002d0: 1c2a 28be d5be 99bd ea10 97ba 4ef9 f73d
000002e0: a18c c13c 40e4 163e 7498 263e 7932 0b3c
000002f0: 6447 85bc debd ecbd b639 08be 9167 903d
00000300: ec6e 87bd 900c b33d 98a7 e3bd 6a19 87bd
00000310: f608 c53d c3ab 0b3d cc88 3fba ffd0 4a3e
00000320: 3711 0abe 0ddc 33be 32e3 2bbe 10d9 ffbd
00000330: 0422 11be 6c55 67bd 3051 b3bd 47d4 1cbe
00000340: 3631 98bd 50e4 89be bbec aabd 72d6 36be
00000350: 856b 90bd 67e1 483e 6c8d 383e 304f e73c
00000360: e695 e7bd 2a3f 3c3d 521e 903d d3eb 4dbe
00000370: f1de cb3d 8225 50be 2db6 c1bc 1ffb 1dbe
00000380: 1660 0f3c 0e66 52be 17a1 35be 30f6 803b
00000390: 284f a2bc b175 71be aad9 8c3e e630 23be
000003a0: b71d 0f3e bc29 3b3e 777e c53b 919e 8bbd
000003b0: 8b62 e3bc b65b 1cbe f477 dc3d 5c8e 80ba
000003c0: 774d 84bc 5695 bfbd 6536 723e 7a5d 30be
000003d0: e6f3 483e b032 7abd 8df0 3cbe 474f 11be
000003e0: 271e 433e 6d2e 123e 6f1a 34bc 2d8e 91bd
000003f0: 310a 9e3d 1868 183e 44fb 283e 1b19 183e
0.1092788 0.016870696 0.14657296 0.11597823 0.024957845 -0.06237746 0.09719981 -0.0076555638
0.09482509 -0.1429182 0.029832907 -0.08827233 -0.05666243 0.16441388 -0.17690907 -0.010863758
0.18219158 0.17623487 -0.16131899 -0.07000668 0.21520004 0.23211871 -0.06823764 0.2673153
0.00012721895 -0.121719636 -0.1105552 0.18727124 0.04691174 -0.020692654 -0.016492963 0.12402765
-0.23557119 0.041359197 -0.24499904 -0.20431334 0.18760796 -0.059427552 -0.09792615 0.32748392
0.15030938 0.12769239 0.10878967 0.02352145 0.022359157 -0.1843579 0.13050719 0.036686093
-0.056500074 0.049657144 0.054758053 -0.07365584 -0.11330417 0.09567161 -0.018540183 -0.017602747
0.23647882 -0.053162053 -0.060049534 -0.09250551 -0.15915504 0.028799422 -0.059831463 -0.025320634
0.065929085 0.06156523 0.096960455 0.014315006 -0.33156666 0.022341946 -0.04185074 0.30280006
-0.1416488 0.15369098 0.14996457 -0.16685003 -0.06339039 0.2782173 0.009004188 0.013583464
0.23659295 0.26410124 -0.10319105 0.13718809 0.009863553 0.104674704 0.1090545 -0.0268751
-0.12790944 -0.16486727 -0.031986024 0.14817746 0.01564894 0.13013744 -0.16446087 0.20251377
0.09124357 -0.11723611 -0.054743215 0.010407731 -0.21000451 -0.1460007 0.00391912 0.094611496
0.16678889 0.113343626 0.016947232 0.12661466 -0.13442378 -0.00029147178 0.2403865 -0.033360504
0.14821379 0.07478016 0.102228686 0.09488837 -0.029723344 -0.06918992 -0.22371587 0.17381656
-0.12975821 -0.023590378 -0.06200067 0.21920179 -0.02627572 -0.13193968 -0.15624014 0.16008289
0.011699466 -0.12221299 -0.14123254 -0.18955047 -0.20673731 0.040046796 -0.21215968 0.11024164
0.14085627 0.27568507 0.19660242 -0.07285891 -0.18228959 0.059388023 0.24231039 -0.25716913
-0.0773887 -0.0420557 0.20424727 0.014232044 -0.1763956 -0.08411061 -0.013971719 0.10286999
0.17869642 -0.07411595 0.18814062 -0.09841817 0.2469085 -0.1126395 0.007335903 0.13091865
0.18377942 -0.11419059 0.16831958 -0.012606876 0.1569284 -0.073207006 0.05434486 0.1510171
-0.047793593 0.132547 -0.1604293 0.20085363 0.061359428 0.036223136 0.07078818 0.019483594
0.09592507 -0.17610975 -0.081137635 -0.066073835 -0.16422313 -0.075071014 -0.0011525427 0.12108098
0.023626627 0.14735508 0.16269094 0.00849592 -0.016269393 -0.11559652 -0.13303265 0.07051004
-0.066129535 0.087426305 -0.1111595 -0.06596644 0.0962085 0.03409935 -0.0007306456 0.19806288
-0.1348313 -0.17564411 -0.16785887 -0.12492573 -0.14173132 -0.05647795 -0.0875572 -0.15315352
-0.07431261 -0.26932 -0.08345934 -0.17855242 -0.07051758 0.19617234 0.18022698 0.028236002
-0.11307888 0.045958675 0.07037033 -0.20109491 0.09954632 -0.20326808 -0.023646438 -0.15427826
0.008750936 -0.20546743 -0.17737232 0.003935598 -0.019813135 -0.23580052 0.27509815 -0.15936622
0.13976179 0.18277639 0.0060270387 -0.068173535 -0.02775695 -0.1526936 0.10765067 -0.0009808051
-0.01615022 -0.093546554 0.23653562 -0.17223158 0.1962429 -0.061083496 -0.18451138 -0.14190398
0.19054471 0.14275523 -0.01099263 -0.07107196 0.077167876 0.14883459 0.165021 0.14853327

fcnn.2.weight f4 [128, 256]
00000000: d6c3 313d dd6e 9fbc 8062 8bbe e4bf 6cbd
00000010: 845c 02bf 2506 f83d 6329 94bd 021b 90bd
00000020: 9152 27bd 9a59 2dbd 2238 c2bd c17a 64b9
00000030: 23b8 12be 8727 ae3d 6086 c63c 904d 14bd
00000040: c77a 17bd 1491 b2bd 1e7c 43bd aea5 8c3c
00000050: 5296 a7bd aab5 34be 7814 2abc cddc 4b3c
00000060: e83a 58bd e304 a0bc bea2 9d3d cf63 a23e
00000070: b701 4c3c 64bd 03bd 96e9 20bc 9e3e a23e
00000080: 2344 353e c85a bbbe bbbe a33d 61dc 95bc
00000090: bcdd 84be b434 22bd 04a3 cb3d bf28 343e
000000a0: eae1 1f3e 4a7a a63d f031 813c 45fb 0d3d
000000b0: ca6a a33c c3ca 23bd 23e2 9fbe 56c0 cb3c
000000c0: 0a71 dd3e 409f 3c3c 39e0 dd3d 6baa 7e3e
000000d0: fdb5 c03c 10b2 c43d 1223 53bd a87d 6d3d
000000e0: 7850 07bd 2f29 8abc 93f1 18bd c4bb c73b
000000f0: 571a 21bc 1f29 41bd 9cb2 b13c 6fbb 8ebb
00000100: 507a 50be 4d40 bbbc 5863 fc3c ca25 c0be
00000110: fe8b 8a3d c1f8 6fbd c6fa c23d 2d39 6d3d
00000120: 6456 a5bc 4f2f 21bb 1b1b 3dbd d5e5 553d
00000130: f155 26bd d6df 07bf 7814 7abc 9be7 9e3d
00000140: af8b bb3b d616 973e 2a15 22bc 4a23 b8bc
00000150: e343 893d 4006 93bd 1890 e93b cb13 023d
00000160: 81f3 9fbd 4145 ee3c 8f6b 743a 9b06 abbd
00000170: 3bef 6dbd 52c9 bebd 0f60 1ebd 8b2c dd3b
00000180: de72 943a 4a4e 0f3d 1a2d 93bb d45d 74bd
00000190: 62de ee3d d9d4 9bbc e6df 093d efbe 693d
000001a0: c26d 493d 23f0 9cbe 2643 be3e 8efc a23d
000001b0: d27d 06bd 43d3 3b3e 2d0e a1bd 2499 423d
000001c0: 49f0 813c de6b ca3c 51e2 0c3d d56e 463c
000001d0: 3915 0f3c bb13 2e3d 42ba 633c 3ebf 23bd
000001e0: 0477 b73b ab43 16be 816e d93c d3aa 03bd
000001f0: 1e1e 2cbd 611e 793c 4df4 0abd 05ed 3fbe
00000200: 69b3 acbc c692 c03d cb08 413c 5185 96bc
00000210: 2a2d ffbc 6f95 b7bc a9d7 cb3d 2121 02bf
00000220: bcde 5d3d e8b4 43be 8151 723d fbb0 9f3d
00000230: b2ce 483e 5dda 65b8 e297 dfbe d68b 803c
00000240: e68a c73c fd65 ad3c 348e 4b3d 8150 e1bd
00000250: 417a 7b3e bcc6 91b9 7b3c cebc e86f 353d
00000260: dd76 f9bc 518d a5bd d0ab 3c3d 9782 fc3c
00000270: 5d59 c13b 6385 903c 9875 c3bb 0e1d bd3c
00000280: d93d ba3c 2eea 9dbe 3957 cb3c 1dda 19bc
00000290: 5c65 31be ca3f 1fbc 2251 863c 24c1 cfbc
000002a0: a254 85bc 56ab dd3d 7036 94bc 608d 303d
000002b0: f7d9 cbbc 26b6 34be 6ef4 cf3d bfcf 20bd
000002c0: ac06 75bd cd24 703c 1e6d 30bd 5d00 2a3c
000002d0: 005b 0bbd 49c0 053d 370c 533d 4b25 60be
000002e0: 26ae a43d 12df 0a3d f67b 01bd 3901 133a
000002f0: dcdd c8bd f2a6 0c3d 8e40 03bd cdc5 e6bb
00000300: 599a ffbc 83a5 3e3c 4491 3b3d bbd2 11be
00000310: 039f 74bd 0f9b 1b3d 8b35 053c 7414 283e
00000320: 07ad 06bd cf53 233d 471e ed3c 4c3a a5bc
00000330: 4acc e3bc 8865 f33c 8f2f e6bc 9e60 823d
00000340: f199 53bd 9fe9 953d 4ab3 cbbc d27c 2f3d
00000350: 9914 f5bc 2131 afbe abe9 303d 5ece a53b
00000360: b82b d6bc eeb4 82ba d8c0 a9bc b7de 50bd
00000370: 08fd 413d ce27 633d 88bd a7be f6de 573d
00000380: becd 983b 448e 9dbc 3879 0d3d 746d 7d3d
00000390: 962e fa3c a10a 50bd f5eb 1fbc 089a 543d
000003a0: 4f60 1ebd a98b 3fbd 4b81 62bd 4dcf 85bc
000003b0: 5c2d 5cbd 8f60 e43b 5ed9 01bd ff40 dfbc
000003c0: bda0 b73d 8c2c c03c 0a95 3d3d ac95 28bd
000003d0: b1b3 5bbe 2821 8cbd 4b09 853d 2a63 00be
000003e0: 548f 7ebe 13b2 d7bb 69b9 373d 0f50 8dbd
000003f0: 2dbc 0b3e d8c1 093d f2e9 53bb b7f7 063a
0.043399654 -0.019462043 -0.27223587 -0.05780019 -0.5092242 0.12110547 -0.072344564 -0.07036401
-0.040850226 -0.04232178 -0.09483363 -0.00021789504 -0.14328055 0.08503633 0.024233997 -0.036206782
-0.036982324 -0.08719078 -0.04772579 0.017168846 -0.08182968 -0.17647424 -0.010380857 0.01244278
-0.052790552 -0.01953358 0.07697056 0.31716773 0.012451581 -0.03216304 -0.009821316 0.31688398
0.17701773 -0.36592698 0.07995363 -0.018293561 -0.2595042 -0.039601043 0.09943202 0.17593668
0.15613523 0.081287935 0.015770882 0.034663457 0.019948382 -0.03998829 -0.31227216 0.024871986
0.43250304 0.0115125775 0.10833783 0.24869697 0.023524279 0.09604275 -0.051547118 0.057981163
-0.033035725 -0.016865341 -0.037339758 0.0060953815 -0.00983294 -0.047158357 0.021691613 -0.00435584
-0.20359159 -0.02285781 0.03080909 -0.3752883 0.06764983 -0.05858684 0.095204875 0.057915855
-0.020182796 -0.0024594849 -0.046168428 0.052221138 -0.040609304 -0.5307592 -0.015263669 0.07759019
0.0057234387 0.2950961 -0.009892741 -0.022477765 0.067024015 -0.071789265 0.007127773 0.031757157
-0.078101166 0.029085757 0.0009323889 -0.08350869 -0.058089476 -0.093157426 -0.038665827 0.0067496947
0.0011325737 0.03498677 -0.0044914605 -0.059659794 0.1166351 -0.019022392 0.03366079 0.057066854
0.04917694 -0.3065196 0.37160605 0.07958327 -0.032834835 0.18342309 -0.07864032 0.047509328
0.015861647 0.024709638 0.03439552 0.012111385 0.008733087 0.042499285 0.013899388 -0.039977305
0.0055989046 -0.14674251 0.02654195 -0.032145333 -0.04202091 0.015204997 -0.03392439 -0.1874276
-0.021081643 0.09402995 0.011781882 -0.018374117 -0.031149466 -0.022410123 0.09953243 -0.508318
0.054167494 -0.19111979 0.05915976 0.07797428 0.19610098 -5.480122e-05 -0.43670565 0.015691679
0.024358224 0.021166796 0.049696162 -0.11001683 0.24558355 -0.00027804624 -0.025175324 0.044296175
-0.030452186 -0.080835946 0.04606229 0.030823989 0.0059005455 0.017641729 -0.005964946 0.023085143
0.02273457 -0.30842727 0.024821864 -0.009390381 -0.17323822 -0.009719798 0.016396109 -0.025360651
-0.016275708 0.10823695 -0.018092364 0.043103576 -0.024884207 -0.17647609 0.10154043 -0.039260622
-0.059820816 0.0146572115 -0.043072812 0.010376063 -0.03402233 0.03265408 0.05152532 -0.21889226
0.08041029 0.033904143 -0.03161236 0.0005607787 -0.09807941 0.0343389 -0.032043986 -0.0070426227
-0.031201528 0.011636141 0.045792833 -0.14240544 -0.059721958 0.037989672 0.008130441 0.16414052
-0.032879855 0.039874848 0.028945101 -0.0201694 -0.027807374 0.0297115 -0.02809885 0.063660845
-0.05166048 0.0731995 -0.024865765 0.042843647 -0.029917048 -0.3421717 0.043191593 0.0050600013
-0.026143894 -0.0009972134 -0.020721838 -0.050993647 0.04736045 0.055457883 -0.32761788 0.052702866
0.0046631983 -0.019232877 0.03453943 0.06187196 0.030539792 -0.050791387 -0.009760846 0.05190471
-0.038666066 -0.04676405 -0.055299085 -0.0163342 -0.053754196 0.0069695185 -0.031701438 -0.027252672
0.08966205 0.023458742 0.046284713 -0.041158363 -0.21455266 -0.068422616 0.06495913 -0.12537828
-0.24859363 -0.0065825074 0.044854555 -0.069000356 0.13646002 0.03363213 -0.0032335487 0.0005148607

fcnn.2.bias f4 [128]
00000000: e33c aabb 14dd ab3c 54a6 90bd edd9 83bc
00000010: 12a2 99bd 6e1a 90bd f845 55bd 6e62 9ebd
00000020: 4df0 643d 265c 18bd 703a 3cbd c55a 6cbc
00000030: 530f ff3c a875 483d d4aa 9ebd f107 89bd
00000040: 8842 28bd 0b45 bd3b 1337 443d 6e99 19bd
00000050: e35c 7bbd 82aa 8cbc 6f3f 993c 83f5 013e
00000060: 5448 763d 4e45 8abc bdfd 38bd f916 46bd
00000070: 3356 b0bd 116d ea3b 34c4 743d 4806 843d
00000080: 01d4 eabc 46f1 8bbd 7603 4abc 7d8e a9bc
00000090: 86d8 5ebd 8475 85bc 7486 193e 1435 92bb
000000a0: b6a5 03bc 51dd 103e d6da bd3d 4c1b 27bd
000000b0: db0c 5f3b fdab 6b3c 0393 c63d 5ed0 b13a
000000c0: 220a 2a3d 7a60 243d fdf3 613d f9dc afbd
000000d0: d925 463d 09cb 6dbd f6fb 5abd 8d41 b83d
000000e0: ecff 2dbd fbee 7cbd 4f1c 58bc b42e f7bc
000000f0: 56bd aa3d 4f3a 373c 62c8 e3bb c674 3dbd
00000100: 86d5 7f3d c3f7 a63c c2c3 68bd 2f81 683c
00000110: e14d fb3d d059 9f3d 3870 64bb 3be0 69bd
00000120: 3013 abbc fbb6 713d d434 25bd 3751 c03d
00000130: 67bd 4a3d bd9e 97bc 7f1c f33d 16e7 6f3d
00000140: 50ce 533d 4aa7 9abc c5d5 103e 92e0 8c3d
00000150: 52e6 21bd 7e5d 993c ccc1 5c3d 63ef 1f3d
00000160: ca78 c03d c069 3d3d abdc 39bd 3f9e 9f3c
00000170: a03a 053d 92b1 5cbd 0c39 903d 1a57 593d
00000180: 3a59 353d 00fc 30bd f07a 8d3d 3576 6b3d
00000190: c781 bcbc db91 a73d 8577 813c 53d9 99bb
000001a0: e922 9e3d e180 b63d 5e39 c03d 789c 27bc
000001b0: e564 50bd 0a67 e63c cec9 213d 53d8 6bbd
000001c0: 9fb0 92bd 85e5 3f3c 2e28 023e ce05 193d
000001d0: 2042 e7bd 4715 55bd d0f9 6bbd 26a4 073c
000001e0: a71f 31bc bd60 3b3d ed40 293d 1ec5 923d
000001f0: 5955 5cbd 9f5f 6e3d 036a b03d ff63 f3bc
-0.0051952465 0.020979442 -0.070629746 -0.016095126 -0.075016156 -0.07036291 -0.05206868 -0.07733618
0.05589323 -0.037197255 -0.045954168 -0.014425938 0.031135237 0.04894033 -0.07747427 -0.06690968
-0.041079074 0.005776053 0.047904085 -0.037499838 -0.06136788 -0.017171148 0.018707005 0.12691312
0.06012757 -0.01687875 -0.04516386 -0.048361752 -0.08610191 0.007154115 0.059757426 0.064465106
-0.028665544 -0.06833129 -0.012329927 -0.020697827 -0.05440571 -0.016291387 0.14992696 -0.004461894
-0.008035114 0.14146926 0.09270255 -0.040797517 0.0034034762 0.014384267 0.09696009 0.0013566127
0.04151357 0.04013107 0.055164326 -0.08587069 0.048375938 -0.058054958 -0.053462945 0.08996878
-0.042480394 -0.061751347 -0.013190343 -0.030173637 0.08336894 0.011183335 -0.0069513777 -0.046253942
0.06245949 0.020381814 -0.056827314 0.014190956 0.122707136 0.07780802 -0.0034856927 -0.05709861
-0.020883173 0.059012394 -0.040333584 0.093904905 0.049497034 -0.01850831 0.118706696 0.05856999
0.051710427 -0.018878598 0.14144047 0.06878771 -0.03952629 0.018721338 0.053895757 0.039046656
0.09398039 0.04624343 -0.04537646 0.019484637 0.032526612 -0.05388028 0.07042131 0.053061582
0.044274546 -0.043209076 0.06908214 0.057485778 -0.023011101 0.081821166 0.015804062 -0.0046950965
0.07721502 0.089113005 0.09385942 -0.010230176 -0.05087747 0.028125305 0.039499097 -0.05757935
-0.07162594 0.011712437 0.1271064 0.03735905 -0.11291909 -0.052022245 -0.057611287 0.008278882
-0.010810769 0.045746554 0.041321684 0.07166503 -0.05379233 0.05819666 0.0861397 -0.029710768

fcnn.4.weight f4 [64, 128]
00000000: f10e 263e 4791 ae3d 34a9 023e 8825 f03d
00000010: e229 673d 417b 153e 29b3 ae3d bb3e 7dbc
00000020: 8749 2fbd d939 b33d 6148 d83d b03f 8cbc
00000030: 8717 353d 123f 0ebd a291 c83d 2099 983d
00000040: dac7 ab3c 3956 df3d 90a0 1a3b 9169 e0bd
00000050: cd6e 733d 5100 833b 48eb 80bc 162c 18bf
00000060: a471 0bbe 9ad7 e63d f8e6 023d 38d2 f7bc
00000070: 4392 d03d c87f 80bd 3412 adbd 8d7c 9cbd
00000080: f318 743e a3ca 06bd 33fb cd3e 593d 8dbc
00000090: e37c f73c 7880 95bd f14a bcbd ccd7 51bd
000000a0: 38bd 6ebe b74a a1be 8215 50be e58a d23c
000000b0: 770b 123e 6169 d3bc db35 28bf fa46 0abd
000000c0: f26f 80bd 05e7 f2bd bb6f 49bf ee1f 493c
000000d0: c748 823e e03e c03d f14e 063e 2440 44be
000000e0: f401 a5bc 04b8 eb3a 73bd ce3e a1c2 da3d
000000f0: b73a 25bf 7680 18bd a92f f0bd 06a0 443e
00000100: 4e8e 083d 3327 3fbd afea 363b df10 19be
00000110: c3a2 68be da64 96bd 5ed7 3bbd 5043 563c
00000120: b905 493d 5b36 f8bd 17c3 e63d e817 17bc
00000130: 9c62 8bbd 77e8 133e e5ae 38bd 59b0 913e
00000140: 98bb cebd 6ffe c8bb 3fed 0abe 5b75 16be
00000150: 069e 153d cadd 973c 5d4d fcbd cf53 1f3d
00000160: e46e 61be 8863 a93d 5be1 0e3e a357 863d
00000170: fc8c 923d 7d63 afbd 5710 19bd 3831 a53c
00000180: 7359 33bd 1df2 4bbc 51f7 47bf 81fe 2dbe
00000190: 0605 833d 5ad7 28be ec6f 28be 6e04 7a3d
000001a0: aa73 d1bd bfca 083f 6d58 69be 60b1 ba3d
000001b0: d38d 223c 58a4 fd3d d972 0c3e 19d7 21be
000001c0: 487d fdbc c4d4 f43d 20f7 1bbe f10f 303c
000001d0: 3200 4a3d 552e 033d b6d0 28bc 31da e2bd
000001e0: 3772 573e a764 b6bd 48f5 ac3d 43ec 8c3e
000001f0: 4508 193c 99f7 57bd 3c5c 0cbf 846f a13d
00000200: aa41 8cbd ff8d 9ebd 855f 8dbc c78d 823c
00000210: a790 b2bd 9a21 90bc d5df 86bb fdc8 993c
00000220: 2f2f 3bbe 320c dbbd c4a9 4bbd 661b 253d
00000230: a518 81bd 8b63 9bbc 8d5d 7d3d 4798 d3bc
00000240: 924d dbbd 7d60 90bd 9503 8c3d 7887 bdbb
00000250: 2f30 09be dfcf c1bd 1fa4 96bd 271e cabd
00000260: cb79 84bc 5489 5bbc fc21 a5bd 9cc9 f4bc
00000270: 8529 9cbd 9120 a33d e236 b1bd be9a 21bc
00000280: 83bd 82be 7633 1bbe c8f8 b6be 0ebd 15be
00000290: a420 2e3b 2cfa 2a3d b36c 8fbc a201 7e3c
000002a0: 7db2 2f3d 9227 2bbd 02fd a9bc 32df a53c
000002b0: 6846 30bc 7718 983e 20d4 f4bb a13e a2bd
000002c0: 1269 b43d 7f5c 3a3d b536 58bc b882 813d
000002d0: b654 a0bd bd2f 5d3c 2f60 a6bd 0dac fe3c
000002e0: 7bfc f6bd 1582 443d 782d 5bbd 366c edbc
000002f0: 5488 113c 93fc af3b 4a68 cbbc dda0 edbd
00000300: e931 90bb 15f3 673e 22a1 103d 37bb 223d
00000310: 126e 843c 4be5 36be 831c 18bd 42b9 cabc
00000320: 79a0 fcbd d5c8 8dbd 23a4 c23a 7467 523e
00000330: f160 b9bd 172b d6bd 703c 8b3d 5951 1ebd
00000340: 20d8 0e3e 73b5 88bd 504c fd3c 21f4 c13d
00000350: c4c4 10bd f9cf 57bc e465 123d c551 d4bc
00000360: 2904 46bd b8ad dcba a98b c7bd f419 5a3c
00000370: b07e b3bb ff43 c2bd 0df1 00bc bf6b 67bd
00000380: a140 d6bd 2875 73bd c9ad 213c 883e 013d
00000390: 6267 b0bd 8d37 d63b 4c29 c4bd 4da9 88bc
000003a0: bfca 7f3d 98c3 7bbd bc7d b8bd 3d7f 403c
000003b0: 1c88 d2bd 50ac 45bc dee8 99bd 1d62 fbbc
000003c0: 36c3 8cbc 0c9d 8c3c 1e9c 9ebd 2e92 cdbb
000003d0: f925 6cbc a759 d4bd 1a55 8f3d f6d5 13bd
000003e0: c713 12be b76b 493d 88e3 2d3a 8871 99be
000003f0: c39b b03c 7f6e eb3e bc75 dfbd 77c9 44bd
0.16216637 0.08523803 0.12759858 0.117259085 0.056436427 0.14597799 0.08530266 -0.015456851
-0.04279473 0.08751268 0.1056068 -0.017120212 0.04421189 -0.034728117 0.09793402 0.07451081
0.02096932 0.109051175 0.0023594238 -0.10957635 0.05943184 0.0039978405 -0.01573719 -0.5944227
-0.13617569 0.112715915 0.03195855 -0.030251607 0.10184147 -0.06274372 -0.084507376 -0.07640944
0.23837642 -0.032908093 0.40230712 -0.017241167 0.030210918 -0.07299894 -0.091939814 -0.05123119
-0.23314369 -0.31502315 -0.20320705 0.025700996 0.14262186 -0.025807085 -0.65707177 -0.033759095
-0.06271352 -0.1186047 -0.7868611 0.012275679 0.2544615 0.093869925 0.13116051 -0.19165093
-0.020142533 0.0017983918 0.40378913 0.10681654 -0.64542717 -0.037231885 -0.117278405 0.19201669
0.033338837 -0.046668243 0.0027910878 -0.14947842 -0.22718339 -0.07343455 -0.045859687 0.013077572
0.049077723 -0.121197425 0.11267679 -0.009222008 -0.068059176 0.14444147 -0.045088667 0.28454855
-0.100943744 -0.0061338465 -0.13567065 -0.14693205 0.036527656 0.018538374 -0.123194434 0.038898285
-0.22014958 0.08270937 0.13953154 0.06559684 0.07155797 -0.08563898 -0.0373691 0.02016507
-0.043786477 -0.012447861 -0.7811175 -0.16991617 0.063974425 -0.164884 -0.16448945 0.06103938
-0.10227139 0.53434366 -0.22787638 0.09115863 0.009921509 0.12384862 0.13715686 -0.1580471
-0.030943528 0.11954644 -0.1523099 0.010745988 0.049316593 0.032026608 -0.010303667 -0.11076773
0.21039663 -0.08905917 0.08445221 0.27524003 0.0093403505 -0.052726362 -0.5482824 0.07882598
-0.06848462 -0.07741927 -0.017257461 0.015936745 -0.087189965 -0.017594147 -0.0041160383 0.018772596
-0.18279718 -0.106956854 -0.049722448 0.040309332 -0.06303529 -0.018968364 0.061856795 -0.025829447
-0.10708155 -0.07049654 0.06836621 -0.0057839714 -0.13397287 -0.094634764 -0.07355522 -0.09869032
-0.016171357 -0.013399441 -0.08063123 -0.029881291 -0.07625107 0.07965196 -0.08653046 -0.009863554
-0.2553521 -0.1515635 -0.3573668 -0.146229 0.0026569748 0.04174249 -0.017507887 0.015503319
0.04289483 -0.041785784 -0.020750526 0.02024803 -0.010758974 0.29706165 -0.0074715763 -0.07922102
0.08809103 0.045498367 -0.013196637 0.06323761 -0.07828657 0.013500151 -0.08123814 0.0310879
-0.120598756 0.04797562 -0.05351016 -0.028982263 0.008882601 0.0053706854 -0.024830002 -0.11602948
-0.004400481 0.22651322 0.03530992 0.039729323 0.016165767 -0.17860906 -0.037136566 -0.024746541
-0.12335295 -0.06923071 0.0014849942 0.20547277 -0.09051693 -0.104574375 0.06798637 -0.038651798
0.13949633 -0.06675234 0.030920178 0.09470392 -0.0353439 -0.013172143 0.0357417 -0.025917897
-0.04834381 -0.001683644 -0.09743435 0.013311852 -0.005477749 -0.094856255 -0.007869971 -0.05649924
-0.10461546 -0.0594379 0.009868094 0.031553775 -0.08613469 0.006537384 -0.09578189 -0.016682291
0.062449213 -0.06146583 -0.09008357 0.011749086 -0.10279867 -0.012065008 -0.07515119 -0.030686432
-0.017182928 0.01716473 -0.07744621 -0.0062735295 -0.01441335 -0.10368662 0.06998654 -0.03609272
-0.14265357 0.04917499 0.0006633331 -0.2996943 0.021558648 0.4598274 -0.10911128 -0.048043694

fcnn.4.bias f4 [64]
00000000: 2c1c 97bc cbc1 643d 3a6e babd e0c8 d9bd
00000010: 9c8f 083e 460e 833d 06be 573d 2621 46bd
00000020: a103 da3c bbea 2cbb 8eef 93bd 9178 0a3c
00000030: c8a1 2d3d 707d 9bbd 8c05 993d 261f 24bd
00000040: 02d3 1f3d 3eab d5bd 2f10 e7ba b840 653d
00000050: 92b7 803d 18d2 823d 4f3d 443c 5f53 073e
00000060: 8dfb f43b dd6f 023d 4e0d 1bbd 711c 96bb
00000070: f455 0e3e c7f9 adbd 31b6 073c c443 1e3d
00000080: f319 4f3d 0ed9 f23c 2de1 2fbd 7330 dbbd
00000090: 967b 3a3b a8aa 7d3c 08e1 db3c 3fc7 afbd
000000a0: 27be 133d 67d8 0e3d b533 84bd 0656 123d
000000b0: acc7 faba 71e4 ecbd 4485 bc3a f8ca 86bd
000000c0: 2a42 8b3d 8d74 143c 3d64 7cbd 0ad1 74bd
000000d0: d1c4 13bd e978 9bbd 3ede b03b d37b 1ebc
000000e0: 3d6e 90bd 583c a6bd 2c40 d03c 5fd4 49bd
000000f0: 3368 23bd 3033 e43d 099f ed3d d42c 393d
-0.01844605 0.055848878 -0.09103055 -0.10634017 0.13336033 0.06399207 0.052671455 -0.048371457
0.026613059 -0.0026385027 -0.07223426 0.008451597 0.042390615 -0.07592285 0.07471761 -0.040068768
0.039019592 -0.104330525 -0.0017628724 0.055969924 0.06285013 0.063877285 0.011977508 0.13215397
0.0074762763 0.031844962 -0.037854485 -0.004581027 0.13899976 -0.08494907 0.008283184 0.038638845
0.050561856 0.029644515 -0.042939354 -0.107026 0.002845501 0.015482582 0.026840702 -0.08582925
0.036070015 0.034874346 -0.06455175 0.03572657 -0.0019132993 -0.11567009 0.0014382978 -0.06581682
0.06799729 0.009060991 -0.061619032 -0.059769668 -0.03607637 -0.07591421 0.005397587 -0.009673077
-0.07052276 -0.081169784 0.025421225 -0.0492748 -0.039894294 0.11142576 0.11602599 0.045208767

fcnn.6.weight f4 [1, 64]
00000000: b7ec be3e e9c3 18be 4e18 3ebe ab91 f3bd
00000010: 0ec8 3ebe 84ce 853e 174b 53be e474 083e
00000020: a3ec 14be 506b 813e 2413 753e dadc c4be
00000030: 190f 3d3e c680 0f3e c341 2c3e 4fd7 06be
00000040: 2aaa 833e d844 353e 78cc 03be 1f2e 113e
00000050: 9ea7 0e3e d7c9 e83d 6f4f 07be 5761 8abe
00000060: 58dc 253e 58c6 053e c2b0 143e a7ad 993e
00000070: 8848 31be a03c ee3d dadb 373e 4844 133e
00000080: 5d1b fcbd 23b7 453e 3475 15be 0132 c1bd
00000090: 96c1 fbbc daf6 d8bd db01 b5bd 3510 5d3e
000000a0: 497a 833e 5e9b abbe e2b7 793e 0eff 3abc
000000b0: 6d96 163e 8420 ce3e fd4f 703e 3dd1 8ebd
000000c0: ffe4 efbd 2a3f 883e cb9d 13be ce9a 853e
000000d0: e89f 25be 3fbd 603e 9f86 2b3e a3a5 98bd
000000e0: fb5f 23be 959a b43e 14eb 113e 328d 243e
000000f0: cb13 ae3e 3d17 39be eabf c93e b25d 073f
0.37289974 -0.14918484 -0.18563959 -0.11893018 -0.18631002 0.2613412 -0.20634113 0.1332584
-0.14543395 0.25277185 0.23933083 -0.38449746 0.1846279 0.14013967 0.16821961 -0.13168071
0.25715762 0.17702043 -0.12870967 0.1417775 0.13931128 0.11366623 -0.13213895 -0.2702739
0.16197336 0.13063943 0.14520553 0.300153 -0.17312825 0.11632657 0.1795496 0.14381516
-0.12309907 0.19308142 -0.1459549 -0.094333656 -0.030731957 -0.10593958 -0.088382445 0.21588214
0.25679234 -0.33516973 0.24386552 -0.011413349 0.1470582 0.40259182 0.23468013 -0.06973503
-0.117135994 0.2661069 -0.14415662 0.2609467 -0.1617428 0.21947192 0.16750573 -0.07453468
-0.15954582 0.35274187 0.14249831 0.16069487 0.33999476 -0.18075271 0.3940423 0.5287734

exp_avg f4 [256, 27]
00000000: c047 a5bf c5d2 803f 9acc 0e40 8bfe 06c0
00000010: 1abc e73d 7576 ab3a 86f9 103e 9e85 973a
00000020: 44d9 2740 93e9 85bd 25c2 e7ad e27b debf
00000030: 9dca 6033 a586 e13a d88d e93d c047 a5bf
00000040: b94e ca3a 39e3 dbbf 5bb5 2c3d 2083 2b3f
00000050: 4411 2dc0 437f d5bf 59b4 5b39 1ed7 2c3e
00000060: 2083 2b3f 60b5 2542 41d9 cfbf 62ee 283f
00000070: 745e f1be b4bb 80bf 8542 753f 9407 dabd
00000080: a186 2bbd d9e1 23be b7c8 59bd 6184 a1bf
00000090: 500c a2bc 128f f231 95b3 493f ed4b b535
000000a0: 6529 9ebd e027 d4bd 62ee 283f 45a7 48bd
000000b0: 72e0 443f 20f1 e7bd 0432 7cbe 7379 923f
000000c0: c34b 2d3f cab5 01bc a8a2 fcbd 0432 7cbe
000000d0: 98dd 98c1 73b1 5ac0 13df 01bf d42b 65be
000000e0: 2e4f a1be 45c5 c3bf 4fed 75be 0483 78bc
000000f0: 89f3 0fbd 3fba 4fbc 1916 ebbe 7d3a f9bd
00000100: 25c3 9cb4 5395 793e 1909 b6b5 2860 8dbc
00000110: 4ad8 70be 13df 01bf 25c5 82be 3793 3dbf
00000120: 1916 d4bc 200c 51bd b37a 32bf 4f68 c73f
00000130: 9d17 ed3d 5333 d2bc 200c 51bd 12cc ebc0
00000140: e20b f7c0 3b8a 3dbb 3672 a7bc ca24 f7bc
00000150: 8092 89bc 487e 89bd 491f 66bd d986 fbbc
00000160: c39c 973c 2670 a7bd a0e8 7abd ac8a 1333
00000170: d283 8a3d 6a4d 2136 ddf8 fc3a 6fa0 7bbd
00000180: 3b8a 3dbb f775 85bd 7f7e 56bd a1f6 1bbd
00000190: 7bea 95ba 9e03 20bd 4710 e33c e5d2 10bb
000001a0: 85ba 593c 7bea 95ba 3c31 a6bf ca98 73c0
000001b0: 0a4e 8f40 5227 2dc0 f4d0 35c0 1d17 883f
000001c0: 9ea8 d7bf a7de 91bc ca60 13c0 cf29 ebbe
000001d0: 6697 89c0 17e6 c0bf db1f d4b4 08cf 4740
000001e0: b0ab 46b9 88e9 90be 3fe6 dfbf 0a4e 8f40
000001f0: c166 aebc 4dcc 3d3f f7c7 90bf 71cc 99bd
00000200: 365c 593f 7a25 a040 cda0 bbbb 9a3e 26c0
00000210: 71cc 99bd 8b29 34c2 1a9e 1fc1 cbaa a83f
00000220: 2bd5 0140 f0d5 9240 c687 0bbb 3367 7d3e
00000230: bdb5 493b 4e0f a63e 0ebb 523b e535 b040
00000240: 070b 6ebe 5011 972d caf5 2ec0 a007 bd34
00000250: e6e2 983b 3f01 813e cbaa a83f af97 703b
00000260: bca1 7b40 0269 d93d 3053 ec3f 26c8 e03f
00000270: 6058 0440 150f 6a3a b735 bb3e 3053 ec3f
00000280: 785d ee42 2235 6340 9c20 e13e 83e3 17bf
00000290: fba8 97bf 1bb6 ab3e d8a2 6abe bd3a e8bd
000002a0: 25bd 66be 2bac 01be 37d5 d5bf 211a 8fbe
000002b0: 95a0 b4b3 f4aa 123f 63de 40b7 28cc 0cbe
000002c0: 9517 58be 9c20 e13e 46ca 0bbe 97c0 5ebe
000002d0: 33e1 28be 6449 cfbe 0c59 8a3e 2ad3 363e
000002e0: b84c 3bbd eb01 66be 6449 cfbe 3214 e5c1
000002f0: 5210 3ec1 5cd9 1f40 e872 2dc0 e0ba b9c0
00000300: 2bba 7840 99d1 cbbe 75e0 92bb 9489 93bf
00000310: 0947 cfbe a1a9 e7c0 5cdd 6e3e 6138 ac2e
00000320: edc3 6540 e7de 24b8 3a1e 0fbf 10a9 cdbe
00000330: 5cd9 1f40 237c a4bd 5335 473f 8b57 58bf
00000340: ef74 cdbf 4a78 4640 f773 b63f f278 47bb
00000350: 604a 57bf ef74 cdbf eddb fdc2 82fa 26c1
00000360: 3849 10bf f2eb acbd c48e f5bd 392b 87bf
00000370: ecec 17be b374 ebbd 159e 1cbf 2a02 1bbf
00000380: 55ec 45bf 5149 0fbe 1830 05b4 630b 443e
00000390: 5762 fbb6 3be7 45bf a6a4 09be 3849 10bf
000003a0: 2af0 0abe 965b cdbf 6aa4 1ebf 458c 71be
000003b0: bfc3 c3bf a6eb 35bf af1a 9abc 2cd9 1cbf
000003c0: 458c 71be 4ce8 8fc1 82b0 96c1 01d3 4f40
000003d0: c2ae 99bf 2c17 82bf 8497 5940 abd6 e9be
000003e0: c8c2 f3bd d885 bebe b20a 46be fee6 30c0
000003f0: aa6d b0be 33b8 842f 1717 4940 98f8 5ab7
-1.2912521 1.0064322 2.231238 -2.109286 0.113151744 0.0013081568 0.14157686 0.0011560207
2.6226358 -0.06538691 -2.6347877e-11 -1.7381556 5.233834e-08 0.0017206265 0.11404008 -1.2912521
0.0015434838 -1.7178718 0.04216514 0.66996956 -2.7041788 -1.6679462 0.00020952652 0.16878936
0.66996956 41.427124 -1.6238176 0.65988743 -0.47142375 -1.0057282 0.95804626 -0.10645977
-0.04187644 -0.16004123 -0.053169932 -1.2618524 -0.019781262 7.059392e-09 0.78789645 1.3507648e-06
-0.07722739 -0.10359168 0.65988743 -0.048987646 0.76904976 -0.11325288 -0.24628454 1.1443313
0.6769373 -0.007916877 -0.12335712 -0.24628454 -19.1082 -3.4170806 -0.5073101 -0.2238
-0.31505722 -1.5294577 -0.24016307 -0.015167955 -0.035144363 -0.012678682 -0.45915297 -0.12169359
-2.919925e-07 0.24373369 -1.3562704e-06 -0.017257765 -0.23520008 -0.5073101 -0.25541034 -0.7405276
-0.025889443 -0.051036954 -0.69718474 1.5578707 0.115767695 -0.025659239 -0.051036954 -7.368661
-7.7202005 -0.0028921503 -0.020440202 -0.03016891 -0.01679349 -0.06713539 -0.05618218 -0.030703949
0.018507367 -0.081756875 -0.061257005 3.4352226e-08 0.06763424 2.403593e-06 0.0019300241 -0.0614323
-0.0028921503 -0.06516641 -0.05236673 -0.038077 -0.0011437678 -0.03906595 0.027717723 -0.002209836
0.013289099 -0.0011437678 -1.2983775 -3.8062005 4.4782763 -2.705525 -2.8408785 1.0632054
-1.6848333 -0.017806364 -2.3027825 -0.45930335 -4.2997313 -1.5070218 -3.9511255e-07 3.1220112
-0.0001894671 -0.2830317 -1.749214 4.4782763 -0.021289231 0.74139863 -1.1311024 -0.07509697
0.8490633 5.004575 -0.005725956 -2.597571 -0.07509697 -45.04057 -9.976099 1.3177122
2.0286357 4.5886154 -0.0021290644 0.24746399 0.003077849 0.32433552 0.003215495 5.506579
-0.23246394 1.71744e-11 -2.7337518 3.520954e-07 0.0046657203 0.25196263 1.3177122 0.0036711504
3.9317465 0.10615732 1.8462887 1.756108 2.067894 0.0008928639 0.3656442 1.8462887
119.182556 3.550118 0.4397019 -0.5933153 -1.1848444 0.33537373 -0.22913682 -0.113393284
-0.2253309 -0.12663333 -1.6705693 -0.27949622 -8.411113e-08 0.57292104 -1.149587e-05 -0.13749754
-0.21102746 0.4397019 -0.1365138 -0.21753155 -0.16492157 -0.4048568 0.27021062 0.1785399
-0.04572746 -0.22461669 -0.4048568 -28.634861 -11.878984 2.4976416 -2.7101383 -5.804062
3.8863628 -0.39808348 -0.004482324 -1.152636 -0.40483883 -7.2394567 0.2332663 7.831669e-11
3.5900834 -3.930824e-05 -0.559055 -0.40168047 2.4976416 -0.0803149 0.7781574 -0.8450858
-1.605131 3.1010919 1.425414 -0.003043708 -0.8409786 -1.605131 -126.92954 -10.436159
-0.5636172 -0.084434405 -0.11990121 -1.0560066 -0.14836472 -0.11496868 -0.61178714 -0.6055018
-0.7731374 -0.13992812 -1.2404087e-07 0.19144969 -7.491831e-06 -0.77305955 -0.13441715 -0.5636172
-0.13568178 -1.6043575 -0.61969626 -0.23588665 -1.5294112 -0.71062696 -0.018811552 -0.6126888
-0.23588665 -17.988426 -18.836185 3.2472537 -1.2006457 -1.0163321 3.3998728 -0.4567159
-0.11902386 -0.3721149 -0.19340017 -2.7640986 -0.34458667 2.4141542e-10 3.1420343 -1.3051693e-05

exp_avg_sq f4 [256, 27]
00000000: 934f ec42 05e7 d140 1756 b941 9a2c d842
00000010: 73ab 203f 2d92 a838 5aa2 bd3e bfab a139
00000020: cb42 3842 abdc 553f 1725 ce2d a4d3 0e42
00000030: 464f 0b2d bfac 6f39 f9f6 1e3f 934f ec42
00000040: 46a6 ad38 19d9 7343 88b7 163d 22bc c540
00000050: 9697 6243 d2df 2143 ab79 8838 67a9 d43e
00000060: 22bc c540 e99d d346 5a2d 8143 ad1e a741
00000070: 9bab a23f 2b92 9840 dfbe a141 35dd 5e3e
00000080: d0a0 a83d b4df 053f 0db0 0a3f 875c 2541
00000090: 25f3 823e df4b c233 d81d f040 6374 a832
000000a0: e88e cc3e 11a6 5a3e ad1e a741 ea08 ad3d
000000b0: 1474 3842 fde4 d73e 3a7e a23f e0f5 2942
000000c0: f855 eb41 6fb5 873d f44d 263f 3a7e a23f
000000d0: 442e b345 cdce 0e44 172e 2645 8ca0 3541
000000e0: ba91 3741 b5d9 0345 6885 b93f 7668 2e3f
000000f0: 95b4 ce3c 0f7a ec3c ab18 e33f 6e60 d53f
00000100: 06d7 2e35 1840 1d40 962e 2031 9d1a ae3c
00000110: 1036 b93f 172e 2645 599d a63f 05cc 2645
00000120: 7b61 b03c 3b32 b440 06c1 2645 49b6 4544
00000130: 19ee c33e c635 053d 3b32 b440 0fac 4647
00000140: dbcd 2746 99a9 3d3d a0b6 2d3c a2bd 3d3c
00000150: 5d8f 9e3e aed2 1d3e 458e 163e 91df 7f3d
00000160: 5d9c cc3d 3bd4 603e f8f9 1d3e 3aa3 d031
00000170: f8a3 f13c b800 2732 0a54 2e3c 72eb 1a3e
00000180: 99a9 3d3d 9d3d 1b3e fdad a93e 3046 7b3d
00000190: 589b a33d 8afe 9d3e 072e a73d f4d5 f23d
000001a0: 4992 ce3d 589b a33d 6360 9f42 df28 2644
000001b0: db0c 0d45 187f 8b42 8884 8b42 1d66 1645
000001c0: 87a0 b641 9a12 353c 2f15 de42 03e1 8f42
000001d0: 9141 0943 2dfd b741 aea3 4a34 4de1 9543
000001e0: 4eed 0838 4b4b f241 bd51 b741 db0c 0d45
000001f0: 69dd 3a3c b0ba 1645 0204 9a42 a019 aa3d
00000200: f9a0 1645 c702 1c44 b318 143c 2918 df42
00000210: a019 aa3d fba0 a147 ce48 a746 502a b542
00000220: eb45 e341 92d3 d742 8e1c cc42 dac4 4b40
00000230: 543c e039 e4fd ee3f 042e 1b3b 16fe 6043
00000240: 5503 9940 b5bb cc2e 6230 0243 cb60 c92f
00000250: b2fb e53a 1dca 4840 502a b542 ee8b e739
00000260: 53b2 0444 6ec0 483e 83f6 f941 1e72 e843
00000270: 9c84 e543 35a8 b839 4774 0840 83f6 f941
00000280: 62e0 cd47 70a7 0b44 7b20 3e42 9897 ed3f
00000290: 459d dc40 662b 3f42 763f 453f ff94 1b3f
000002a0: 4b1f 9a3f 149b 933f c22d 8141 522f 543f
000002b0: de44 c734 ae87 0f41 bd84 2034 3cae 543f
000002c0: b3e9 403f 7b20 3e42 24cb 203f 0f22 c142
000002d0: 37e8 813f 5e01 d03f 53b1 b542 40a4 7942
000002e0: 0b92 033f 7697 ac3f 5e01 d03f 2598 1046
000002f0: 1443 4945 67bc 3544 b568 4342 a2e6 2643
00000300: 0bc8 3044 7e59 a640 b165 1d3e 716b f341
00000310: 20cd 0942 e9f6 b543 a338 ea40 5ee6 b82e
00000320: 484d 4a43 cb34 ab36 11bc ca41 263c a440
00000330: 67bc 3544 5043 6a3e 45cd c744 67d7 ce41
00000340: dc38 4b42 d5e0 b644 0d8d 7444 d297 cf3e
00000350: 3cff 1b42 dc38 4b42 2f78 4648 9853 4f46
00000360: cb8d d542 0a08 f03d d645 043e 05a1 1b43
00000370: c959 213f 091c 1a3f dc5b fe40 cd06 0e41
00000380: cacd 0d41 c6bb 213f 1635 1d34 d3a9 9140
00000390: f8bd ba33 5153 eb40 0948 1e3f cb8d d542
000003a0: 6b54 1e3f 0cb4 a043 12b9 f740 0e9d 6140
000003b0: bbd4 9f43 126f 9843 5135 f33e c9f2 0e41
000003c0: 0e9d 6140 68e8 0e46 974e a945 698d e343
000003d0: 0294 0841 ded8 6b42 b347 9d43 243b b73f
000003e0: 781a 1f3f 1d56 9b40 38f4 bf40 145c 2943
000003f0: 0521 ef3f 2b7a 252d ff98 0043 9e92 9334
118.15542 6.5594506 23.167036 108.08711 0.6276161 8.0380916e-05 0.37037927 0.00030836274
46.065228 0.8353984 2.343596e-11 35.70668 7.9188375e-12 0.00022857169 0.620956 118.15542
8.280254e-05 243.84804 0.036796123 6.1792154 226.59213 161.8743 6.507648e-05 0.41535494
6.1792154 27086.955 258.3543 20.889978 1.270862 4.767843 20.218199 0.21764071
0.082337976 0.5229447 0.5417488 10.33509 0.2557613 9.04763e-08 7.503643 1.96107e-08
0.3995278 0.21352412 20.889978 0.08448966 46.113358 0.42166892 1.2694771 42.490112
29.416977 0.066264026 0.649627 1.2694771 5733.783 571.23126 2658.8806 11.351696
11.473078 2109.6067 1.4493837 0.68128145 0.025232593 0.028866796 1.7741903 1.6670053
6.513295e-07 2.457037 2.3309545e-09 0.021252925 1.4469624 2658.8806 1.3016769 2668.7512
0.021530857 5.6311316 2668.064 790.8482 0.38267592 0.032521985 5.6311316 50860.06
10739.464 0.04630432 0.010602623 0.0115808565 0.30968753 0.15412399 0.14702709 0.06246907
0.099907614 0.2195596 0.15427387 6.0721534e-09 0.029497132 9.720843e-09 0.010640154 0.15128878
0.04630432 0.15160222 0.33140555 0.061346233 0.07988614 0.3085826 0.08163076 0.118572146
0.100864954 0.07988614 79.688255 664.6386 2256.8035 69.74823 69.75885 2406.382
22.828382 0.011051798 111.041374 71.939476 137.25612 22.998621 1.8872262e-07 299.76016
3.2645934e-05 30.286764 22.914911 2256.8035 0.011405327 2411.668 77.00783 0.08305669
2410.0608 624.0434 0.009039092 111.54719 0.08305669 82753.96 21412.402 90.58264
28.40914 107.91322 102.05577 3.1838899 0.00042769557 1.8671231 0.002367855 224.99252
4.7816567 9.3101894e-11 130.189 3.6630463e-10 0.0017546325 3.137336 90.58264 0.0004416401
530.7863 0.19604656 31.245367 464.89154 459.036 0.0003522054 2.132097 31.245367
105408.766 558.6162 47.53172 1.8561888 6.894198 47.79238 0.7704996 0.60774225
1.20408 1.1531701 16.147343 0.82884705 3.7116746e-07 8.970625 1.4949451e-07 0.8307836
0.75356597 47.53172 0.6280997 96.56652 1.0148991 1.6250417 90.84634 62.4104
0.5139472 1.3483722 1.6250417 9254.036 3220.1924 726.9438 48.852253 166.90091
707.1257 5.1984243 0.15370823 30.427462 34.450317 363.929 7.3194137 8.408273e-11
202.30188 5.102343e-06 25.34183 5.1323423 726.9438 0.2287724 1598.4147 25.855177
50.805527 1463.026 978.2039 0.40545517 38.999252 50.805527 203232.73 13268.898
106.77694 0.11720283 0.12917265 155.62898 0.63027626 0.6019903 7.9487133 8.87666
8.862741 0.63177145 1.4641077e-07 4.5519805 8.695855e-08 7.3539205 0.61828667 106.77694
0.6184756 321.40662 7.7413416 3.5252109 319.66196 304.86774 0.47501615 8.934274
3.5252109 9146.102 5417.8237 455.10477 8.536135 58.961784 314.56015 1.4314923
0.62149763 4.854262 5.998562 169.35968 1.8681952 9.406291e-12 128.59764 2.7487562e-07

exp_avg f4 [256]
00000000: 3ce3 dbbf 76e0 443f 3793 3dbf 7f7e 56bd
00000010: 53cc 3d3f bba1 7b40 a6c0 5ebe 7135 473f
00000020: 995b cdbf 3e97 bb40 dfa8 bc40 3cb5 d93f
00000030: b0ee 32bf ccaf 06c0 4deb 113f e693 543e
00000040: acd5 14bc abd7 dcc0 d264 a23e 1bd7 a93f
00000050: d4a0 f13e 1b45 8abf 0fca b33f f11c 22c0
00000060: 6a84 edbb b9cd a33f 0030 cd3b 1d4d 36c2
00000070: 1d8f a83e fbac d13f a62a 8dbc 2182 48c1
00000080: b16c 8741 f856 ad3f 900e 1d41 4f67 3dc0
00000090: 6577 6ebf 309d 8d3f ff2c 2341 10c6 31c1
000000a0: ad0d d03f 6672 88bf 7b1d bfbd ef66 193f
000000b0: a23a dd3e 2169 653f 2e14 45bf 8551 96be
000000c0: 27db 8e40 c820 8bbb 2d7d 0c3f 2946 c3c1
000000d0: 576a dfbb 2a97 31be d283 233e bf82 143d
000000e0: feb1 a0bf e4e3 3fbc 5def 343d fc7f 2340
000000f0: 37a8 f23b 1809 d33f e32f 3e3f c439 8b3f
00000100: e406 22c0 4d0a 7d3d 3024 1abb aafb 0e40
00000110: 40d5 3441 9696 723f c3ed aa3f 69af 4bbb
00000120: 2161 30bc e066 973d 3e83 d73e c755 973f
00000130: 0c7e 2640 fdee 71be d6b7 af3e 397d a5c1
00000140: 69ce 723f 3364 1dc2 2628 e2bf 457e bc3e
00000150: a17c 373f 0060 a03f 75e5 dabe 2a38 54c0
00000160: 2119 f1bc 5bb7 e03f d697 4640 5a42 55bf
00000170: 2e33 9940 9f7e 393f 99d2 cd3f 6ea6 c53e
00000180: 737d da3b cdd0 e2bc 1701 8e3f 8568 aabe
00000190: a53c 7741 6c33 7cbf 5760 02be 5530 a6bb
000001a0: 8c05 a6bf f6fa a1c0 4b44 26c2 4b1c 33c0
000001b0: 3721 2640 3a89 a7c1 de58 dcbe eba4 d63a
000001c0: 28e8 11bf fad9 a5c0 077a 793d 100e 4740
000001d0: 1b44 ffbf c943 703f 2c04 0541 89d2 3f3d
000001e0: d307 2bbf 6c48 6f3f f2ba 3c3f fd41 f73f
000001f0: 66e1 26c0 6c8e 7f3e dbfa 323f db33 f43f
00000200: 4916 8c3f debb 8e41 fdfc 613f b112 753f
00000210: 8a23 5f40 9e98 0dbc 2425 2440 0b46 0dc1
00000220: a89d 9a40 3471 f73f d6e2 d4bf c7c6 853f
00000230: d617 6f41 947a 3cbd 5118 8dc0 9bb4 c040
00000240: aca8 4240 cc21 38c0 feae 38be bac9 a7bd
00000250: 15e6 9040 cc44 363f 8813 d4bb c6b7 313f
00000260: b67a 2cbf e5ad 193f 0a6c 6ec0 1819 f83e
00000270: 7a78 01bd 03fa 913a ecc1 32bb 36fe 54bf
00000280: 4e7c e2c0 9ede febe 9049 4a3e cf35 9a3f
00000290: 8c9c f7bf ed6d e93a 1b37 903f 299c 57bc
000002a0: 9e4c f3bb e47f 1fc1 12b7 88bd 3fc2 123f
000002b0: 3e4e 91bd 7143 93bf f130 fbbd be72 2f3c
000002c0: a611 31bf 66a1 443f 415b cabb 3d15 4e3a
000002d0: 0cc5 763f 4fb7 b9bb f457 8abb 41d9 3040
000002e0: 9455 3dbc aec2 d1be c9c6 0e3e 062f 7d3f
000002f0: 1306 74bf 901c d13e b386 adbb 676f 2fbe
00000300: 81a2 c53b 60f4 373f 6cfd d13b c96f 9abf
00000310: 0e74 01bf bff8 b73f 50f2 aa3d 2833 eac1
00000320: 388b 8c3e 3959 ff3f a92b 5840 44b5 c93f
00000330: 2bbf 103f d47f 17bc a360 823d 4b4b 2340
00000340: b071 263f c442 7540 3097 b73f 55fb 8f3a
00000350: e7f1 873e 0a72 afbf 32cc 7fbb bb01 303d
00000360: 0826 503f 1009 a03e 748d 5f40 bb00 2e40
00000370: e554 903e 3259 0abc f6f9 88bf 45c5 06be
00000380: 5f09 553f a98a fc3a b5ad 833f f7e9 b9c0
00000390: 5704 e83e 8c2f ac3e 0b42 6bbc 7beb 78be
000003a0: 8f38 86bf d710 2f3e 56ac 133f 377c 72bd
000003b0: 80ad 0fbc e307 19bd fd85 d13e 75b2 153f
000003c0: 08ab 11c1 12de 2dbe c40d 993c 558f b63f
000003d0: cf38 7ebf 662d 66be b4d6 3840 525d 96bf
000003e0: 9719 f8c0 ecb5 e33e 0cc2 e540 8190 bb3f
000003f0: 74a9 d940 5c37 673f fc97 36bf bc4c fabe
-1.7178721 0.76905 -0.7405276 -0.05236673 0.741399 3.9317462 -0.21753177 0.7781592
-1.6043578 5.862212 5.895614 1.7008433 -0.6989546 -2.1044798 0.56999665 0.20759544
-0.0090841465 -6.9013267 0.31717545 1.326877 0.47193015 -1.0802339 1.4046038 -2.5330164
-0.007248451 1.2797157 0.0062618256 -45.575306 0.32921687 1.6380914 -0.01723225 -12.53177
16.928072 1.3542166 9.816055 -2.9594305 -0.9315093 1.1063595 10.198485 -11.110855
1.6254174 -1.0659912 -0.09331795 0.5992269 0.43208796 0.8961354 -0.76983917 -0.2935907
4.464252 -0.004245851 0.54878503 -24.409258 -0.0068180966 -0.17342821 0.15968254 0.0362575
-1.2554319 -0.011712048 0.044173587 2.5546865 0.0074053067 1.648715 0.7429182 1.0877004
-2.5316706 0.0617774 -0.0023520105 2.2341104 11.302063 0.94761026 1.3353809 -0.0031079894
-0.010765345 0.07392669 0.42092317 1.1823052 2.6014433 -0.23626323 0.34319943 -20.686144
0.94846207 -39.34785 -1.7668502 0.36815086 0.71674544 1.2529297 -0.42753187 -3.315928
-0.029430928 1.7555956 3.1030173 -0.8330437 4.7874975 0.72458833 1.6079894 0.38603538
0.0066677867 -0.027687455 1.1094083 -0.33282867 15.452306 -0.98515964 -0.12732063 -0.0050716796
-1.2970443 -5.061885 -41.566692 -2.7986019 2.5957773 -20.942005 -0.4303655 0.0016376054
-0.5699487 -5.1828585 0.06090739 3.1102333 -1.9942659 0.9385343 8.313519 0.04683164
-0.66808814 0.9346988 0.73722756 1.9317013 -2.6075072 0.24956673 0.69914025 1.9078325
1.0944301 17.841732 0.88276654 0.95731646 3.4865441 -0.008642344 2.564767 -8.8296
4.831745 1.9331422 -1.6631725 1.0451287 14.943319 -0.046015337 -4.4092183 6.0220466
3.041545 -2.8770628 -0.18035504 -0.08192773 4.528086 0.71198726 -0.006472055 0.6942104
-0.6737474 0.60030967 -3.7253442 0.48456645 -0.031609036 0.0011137131 -0.002727623 -0.83200395
-7.077674 -0.49779218 0.19754624 1.2047671 -1.9344649 0.001780925 1.1266817 -0.01315979
-0.007424905 -9.968723 -0.06675543 0.57327646 -0.07095002 -1.1504956 -0.12265194 0.010708509
-0.69167554 0.76808774 -0.006175429 0.0007861441 0.9639442 -0.005667604 -0.0042219106 2.7632601
-0.011556048 -0.4096884 0.13943018 0.9889988 -0.9532177 0.40842104 -0.0052955984 -0.1713234
0.006031335 0.7185726 0.006408384 -1.2065364 -0.5056771 1.4372786 0.08346999 -29.274979
0.27449965 1.9949104 3.3776648 1.5758443 0.565417 -0.009246785 0.06366088 2.5514705
0.65017223 3.8322 1.4343014 0.0010984937 0.26551744 -1.3706677 -0.0039031622 0.0429704
0.8130803 0.31256914 3.4930086 2.7187946 0.2818977 -0.008444117 -1.0701282 -0.1316119
0.83217424 0.0019267398 1.0287386 -5.80981 0.4531581 0.33630025 -0.014359008 -0.24308579
-1.048601 0.17096268 0.5768484 -0.05920049 -0.008769393 -0.037361037 0.40922537 0.5847543
-9.104256 -0.16979244 0.018683322 1.4262491 -0.99305433 -0.22478256 2.8881044 -1.1747229
-7.7531238 0.44474733 7.1799374 1.4653474 6.801935 0.90318847 -0.7132566 -0.4888667
