experiments/justification/models/NoBTCNN_SmallFCNN_1.pth (torch, 28502 bytes, 9 tensors)

fcnn.0.weight f4 [64, 27]
00000000: a7bd bcbd 5611 be3e 709f 463e 83ac 60bd
00000010: e691 a4be 9b2f 2bbf 0f8d 84be 7b72 9fbd
00000020: 9a33 b3be d994 89be 23a9 593e 3ac5 b43c
00000030: f777 673e fbb8 1b3e d2d0 56be ca8a eabc
00000040: b450 4ebe 51a2 943d 8fc2 85be 58b7 eabb
00000050: 5bdd 0d3e 60c7 07be d852 9e3e bd8d 5d3e
00000060: 6db9 21be 228e e43b e4aa 9a3d 3ef5 dc3d
00000070: c1cb 2bbe 2fde 5b3e 0248 9fbd 7933 023e
00000080: 781d d23e 540d 6a3e 8482 113e c5df 743c
00000090: c2ab 8fbd e643 fdbd c792 ca3e 110f f9be
000000a0: 4062 9ebc c21c 073f 9497 67be c00e b33e
000000b0: dc3d f33d f770 b23d f93f 0fbe f516 fd3c
000000c0: bdfc 333e f634 4fbd 2238 8dbc 8d95 adbe
000000d0: a958 233e c17a 453e 8cfa 053e ee8b f3bc
000000e0: 3294 45bd 0c5b 0f3e c541 963d c231 0a3f
000000f0: aeef 813e 54be d33b fa6c 50be 6b23 7dbd
00000100: af9c 023c 9035 923e e8f2 15bf d340 24be
00000110: 8b95 043f a67d c4bd c0ed 933d 31aa f139
00000120: 3500 393e a355 27bc d857 f1bd e5ac 8ebd
00000130: 2171 b6bd 8c3b 55be 5bbd 41be db56 503d
00000140: 5040 433e 3328 ed3d a3a5 33bf 3281 10be
00000150: c4ba 963e 213d a73e d60b 113f c843 b3bd
00000160: 6265 adbc 283f a1be 2116 a4be 1200 62bd
00000170: 0e13 053f caa1 dcbe 55b4 763d d674 d33e
00000180: 92b6 453e 2806 a63e 5eb3 0d3c 076d 533d
00000190: 718d 0fbf 4dbf 9d3e 48fd 18be babd 1abd
000001a0: 6b77 3cbf fd0b bbbe c25c 5c3d 4d84 a2be
000001b0: 13cb 32be 023d 77be e8b1 233e abd2 2d3e
000001c0: 9e90 bf3e 29d5 ab3e 77b1 793e 15a3 933e
000001d0: 578c 29be 79f2 67be 3c2a 00bd cc32 f43e
000001e0: ed14 f6be 5045 27be f385 9b3e 5335 2dbd
000001f0: 1808 c03e f238 04be 2328 8f3e 4ace 81bd
00000200: 1ef6 db3d aa9b 173e ca15 4dbd 4aa2 48be
00000210: edff 0dbe a6cb 423e e3ee 17bc 36b9 8e3d
00000220: 9fa5 13be 4e44 b6bd 8ca3 a6bd 01e2 2f3e
00000230: 1a44 9d3e 913f e23e d5cc 873d 457f 95bd
00000240: 6d0d c53d 3f75 3fbe 8d2c ff3e 6e67 0ebf
00000250: 4884 a3bd 26a5 ad3e b1d0 323d 4a88 8e3e
00000260: 8c41 413e 1f97 833d ea14 4ebe 90fa f93b
00000270: 5f7e e53d 7398 b2bd 88f2 28be 10e1 9bba
00000280: 2a7b 3a3b ce5f 233e 6c28 febd 60af 9b3e
00000290: 6fa6 de3d 901a 59be 009d 90bd e79c eebe
000002a0: d702 90be 19c8 8cbe 0376 f93d a70a 823e
000002b0: bc8c 393e 943a 06be 0937 003f 37ed fd3d
000002c0: fc16 f4be 313c 133e 15c8 bbbe dc5b d13c
000002d0: cbf6 92be d6df 903e 9bc6 273e 4bee 033e
000002e0: bd02 cc3d bb57 583c ad29 cd3b 73a0 893d
000002f0: fc4f f33d d484 2ebe 4de8 48be 1363 84bd
00000300: 50c6 adbd 262d b63e a401 2c3f 6766 b53e
00000310: 5c82 7c3e 8a1f 75bd b5b6 89be 18db 92be
00000320: 5ee1 863e e06e a4be f910 61be cbf8 9a3e
00000330: f46e b93d 1eb9 aa3e 6f5d 183d b9da a83d
00000340: c9f4 f2be 5ac1 44bd 3897 1fbe ad57 6cbe
00000350: 34c7 47be cd03 e6be ccb7 be3d 1e00 2f3c
00000360: cb62 cbbe 32ab eebd 4e45 9dbd d6cc 6cbc
00000370: dcae 3b3d c402 a3be fb6e 32be d5ec a93b
00000380: ec11 c73e a9a3 653c a182 f13d 442c 42be
00000390: f67a dc3e 8c13 823c 2966 febe 326d cabe
000003a0: 6e7a 9f3d a852 d33d 14ea cebe bf53 09be
000003b0: 08d4 b63e f43e 9c3d 6501 843e 878f 843e
000003c0: 694f 16be 9b10 a7be 58cc b03d b4f0 1e3d
000003d0: 287d 19be 5603 5f3e 86ce 9cbd aee2 913e
000003e0: d5f3 2a3f 580f 493e d7d7 4c3e 3851 03bb
000003f0: f02a 4abe 26f0 67bd 9b10 ee3e ea5b e2be
-0.09215861 0.371226 0.19396758 -0.05485202 -0.32142562 -0.66869515 -0.2588887 -0.07785507
-0.35000306 -0.26871374 0.21255927 0.022066701 0.22604357 0.15207283 -0.20978096 -0.028630633
-0.20147973 0.07257522 -0.26125 -0.0071629696 0.13853972 -0.1325965 0.3092258 0.216361
-0.1579339 0.0069749514 0.07552126 0.10788964 -0.16776945 0.21471475 -0.07777406 0.12714948
0.41038108 0.22856647 0.14209944 0.014945929 -0.07015182 -0.12366466 0.39565107 -0.48644307
-0.019333959 0.52778256 -0.22616416 0.3497219 0.11877033 0.087129526 -0.13989247 0.030894736
0.17576881 -0.050587617 -0.01723868 -0.3390316 0.1595179 0.19285108 0.13083857 -0.02972981
-0.048237033 0.13999575 0.07336763 0.53982174 0.25378174 0.006461898 -0.20354071 -0.061801355
0.007971927 0.2855649 -0.5857377 -0.16040353 0.51790684 -0.09594278 0.072230816 0.00046093905
0.18066485 -0.0102132885 -0.11784333 -0.06966571 -0.089082964 -0.20823497 -0.1891989 0.05086408
0.19067502 0.11579933 -0.70174617 -0.14111784 0.29439366 0.32663825 0.56658685 -0.087531626
-0.021166507 -0.31493497 -0.32048133 -0.05517585 0.519822 -0.43092185 0.06023057 0.41300076
0.19307926 0.32426572 0.0086487215 0.05161765 -0.560752 0.30810013 -0.14940369 -0.037778594
-0.7361972 -0.36532584 0.0537994 -0.31741562 -0.17460279 -0.24144366 0.15985835 0.16974895
0.37415022 0.33561066 0.24384104 0.2883536 -0.16557442 -0.2265109 -0.031290278 0.47695005
-0.4806284 -0.16335034 0.30375633 -0.042287182 0.37506175 -0.12912348 0.2796031 -0.06338175
0.107403025 0.14805475 -0.050069608 -0.19593158 -0.13867159 0.19022998 -0.009273264 0.0696892
-0.14418648 -0.08899747 -0.08136663 0.17176057 0.3071602 0.44189122 0.066308655 -0.07299665
0.096217014 -0.1869707 0.49838677 -0.5562657 -0.07984215 0.3391506 0.043656055 0.27838355
0.1887266 0.064253084 -0.20125166 0.0076287463 0.11205744 -0.08720484 -0.16498768 -0.0011892635
0.002845476 0.15954515 -0.124100536 0.30407238 0.108715884 -0.21201539 -0.070611954 -0.46604082
-0.28127167 -0.27496412 0.12180712 0.25398752 0.18120092 -0.13108283 0.50083977 0.12398761
-0.47673786 0.1437843 -0.36676088 0.025556497 -0.28703913 0.28295773 0.16384356 0.1288387
0.0996146 0.01320451 0.0062610717 0.067200564 0.1188049 -0.17042857 -0.19619866 -0.064642094
-0.08485091 0.3558132 0.67190003 0.3542969 0.24659103 -0.05984453 -0.26897207 -0.2868278
0.26343817 -0.3211584 -0.21979131 0.3026794 0.09054366 0.33344358 0.03719848 0.08244843
-0.4745238 -0.048035957 -0.15585029 -0.2308032 -0.19509584 -0.44924775 0.093124 0.01068118
-0.3972381 -0.11653747 -0.076792344 -0.014453134 0.045821056 -0.31838048 -0.17425148 0.0051857033
0.3888086 0.01401607 0.117924936 -0.18962198 0.43062562 0.015878461 -0.49687317 -0.39536434
0.077870235 0.103185 -0.40412962 -0.13410853 0.35708642 0.07629195 0.25782314 0.25890753
-0.1467873 -0.32629856 0.086327255 0.03880377 -0.1498915 0.21778616 -0.07656579 0.28493255
0.6677831 0.1963476 0.20004211 -0.0020037424 -0.19742942 -0.056625508 0.46497044 -0.4421075

fcnn.0.bias f4 [64]
00000000: b15a 16be 2523 a93c ea8d efbd f09a 993c
00000010: 1eaa c9bd 26b9 a13d 4f45 fa3d 59b2 1abe
00000020: 6ad1 893c 45f9 db3d acab 3f3e 1bd6 7e3e
00000030: 94dc 2bbe 64a3 02be 7dbb 763e e6b5 7fbd
00000040: 554e adbd 0f11 cf3d c3f6 9bbe 1107 2ebe
00000050: 01af 8d3e 82d3 a83d e52c 19bd a8ca 04bd
00000060: cf2b d6bd f276 94bd a265 99bd 7403 9e3d
00000070: 93a7 cebd 4673 313e cf88 173e 09ee 223e
00000080: 99a0 093d 58c4 f8ba c319 38be e5fb e9bd
00000090: 569e e0bd 1aea dcbc fe12 6a3d 2fe6 c43e
000000a0: 6235 9e3e 144a 67bd 45f4 10bd 1f62 a93e
000000b0: 7947 73be 30b2 0dbe ba1e 773d 55f0 133d
000000c0: 25ae f9bc 6d4c 483d 04f1 9a3d a5ce 0e3e
000000d0: 9f3d f6bd 794b 26be abf2 d2bd ff1a 8f3d
000000e0: 22b8 7b3e 84ad cd3e 57ac 013e 0f57 23be
000000f0: 0253 2a3e 4075 3f3a 0c11 82be f646 d33d
-0.14683034 0.020646641 -0.1169699 0.018750638 -0.098469004 0.078966424 0.12220251 -0.15107097
0.01682349 0.10740904 0.18717831 0.24886362 -0.16783363 -0.12757641 0.24094959 -0.06242933
-0.08462206 0.101106755 -0.30461702 -0.16994883 0.2767258 0.08243467 -0.03739633 -0.03241983
-0.104575746 -0.072492495 -0.07490088 0.077155024 -0.10090556 0.1732913 0.14798282 0.15911116
0.033600423 -0.0018979413 -0.17978577 -0.11424998 -0.109677 -0.026967097 0.05714702 0.38456866
0.30900103 -0.05646713 -0.035389204 0.33082673 -0.23757733 -0.13837504 0.060332038 0.03611787
-0.030478546 0.04890101 0.07565501 0.13946016 -0.12023472 -0.16239728 -0.103001915 0.06987571
0.2458196 0.40171444 0.12663399 -0.15951179 0.16633227 0.00073035434 -0.2540363 0.10316269

fcnn.2.weight f4 [1, 64]
00000000: 2f2f e4bd 7be7 f33d 6628 b03d f366 0b3f
00000010: 0636 e93d cf4c 103e deb5 67bd 818e 763e
00000020: 55c8 25bf 36b1 e63d 3a13 a83e f544 4fbe
00000030: 51a7 363e 010a 53be 8a1b 793e 109b 58be
00000040: ef5b edbd 9380 823e d3b7 bd3e 15b2 463e
00000050: 6e07 8dbf 6987 8c3e 7f0f 9a3e 2230 8f3d
00000060: fe46 b33d 982a 2d3e f9d9 3dbf 054a f43d
00000070: 8639 00be 5c95 ebbd 3d0e cd3d 7c8f 243e
00000080: 6d70 b1bd 195c 51bf 689f 933d 844c 053f
00000090: 67b2 85bd 5fa1 083e 32ff ffbd c33a e73e
000000a0: 9c6f 50be b974 c33d 4e21 313e 1114 80be
000000b0: 73c2 fb3e 4fde 5e3e eb22 b2bf 80c3 c73d
000000c0: 49ef 803d 78f3 80bf d269 b33d 3f86 25bd
000000d0: 7d0b 92bd 0f8c 2dbf 98bb 4f3e 16d5 4fbf
000000e0: 8db8 8f3e 3099 793f f396 073e 2eea d93d
000000f0: d236 87bd 8244 de3d 16e9 243e 038f b3be
-0.11141812 0.11909386 0.086014554 0.54453963 0.11387257 0.140918 -0.056569926 0.24077798
-0.6475881 0.11264269 0.3282717 -0.20241149 0.17837264 -0.20609285 0.24326912 -0.21152902
-0.115898006 0.2548872 0.3705431 0.1940387 -1.1017892 0.2744706 0.30089948 0.069916025
0.08753775 0.1691078 -0.74160725 0.119281806 -0.12521943 -0.115030974 0.10012481 0.1607036
-0.08664022 -0.81781155 0.07208139 0.5206988 -0.06528168 0.13342808 -0.124998465 0.4516202
-0.20355076 0.095437475 0.17297861 -0.2501531 0.4917179 0.21764491 -1.3916906 0.097540855
0.0629564 -1.0074301 0.08760418 -0.04041123 -0.071310975 -0.6779184 0.20286405 -0.8118452
0.2807049 0.9749937 0.13241176 0.10640369 -0.06602253 0.108529106 0.1610454 -0.35070047

exp_avg f4 [64, 27]
00000000: d0be cabd 2a6e 9ebd efdf d2bd 0596 f1bd
00000010: 5cee 01bc 990c 823c 8eaa 28bd ce1b 97bc
00000020: 2fa6 f9bc c616 dbba 6b0f 91b7 ce22 4d3d
00000030: 2e77 05b9 8351 bc3a ad13 01bb d0be cabd
00000040: 2ffc ee3b d655 29be 6f0a 08bd e388 83bb
00000050: 2c25 10be 8281 5ebd 51e6 8cbc 6012 8ebc
00000060: e388 83bb fa4f 05c0 f797 43bf 1077 253e
00000070: c73a 5c3d d282 ef3d bd5a 2d3e a7ec 633c
00000080: 781b 8bbc 45ee 513d cb1d a33c 0875 413e
00000090: 704c 0fbc f90f 9c37 5a8f f23c 4c82 0f39
000000a0: f8c6 bdba 2df4 c3b9 1077 253e f8b8 febb
000000b0: d9c2 c03e 96df 2e3d d4c5 603d b43f 9c3e
000000c0: 3047 933e 5beb 973c 6dbc bd3c d4c5 603d
000000d0: f49d 9740 fffa 8d3f d3aa ee3d 3804 1f3d
000000e0: ffed ac3d 2759 fa3d 849c 243c 44db 48bc
000000f0: 3499 173d aa6d 6b3c 7a47 0b3e 1ca0 cebb
00000100: dc7b 6137 c20c af3c ef4d cf38 32d0 89ba
00000110: be3a 8fb9 d3aa ee3d 97d2 b7bb 1c79 8d3e
00000120: a083 fc3c a49a 363d d830 663e 714b 593e
00000130: c6d4 5b3c 2dde 843c a49a 363d 5767 5c40
00000140: 3f9f 4e3f 0905 153f 94bf 01bc 016a 2f3e
00000150: 03d9 953e 3ad9 fabb b870 4bba aeae c13b
00000160: 1e2b 6d3a 3453 513f 3312 5cbd 3381 6335
00000170: 267e 063e 9940 d136 611c 90b8 18c6 41bc
00000180: 0905 153f 94a1 bab9 91f8 863f 07e5 b43b
00000190: e02e 343e c247 8b3f d75e bd3f 6d51 5d3a
000001a0: 7161 1a3c e02e 343e c463 4641 7a6c d53f
000001b0: 1f55 1e3e 37a4 523d 3d1b e53d 40de 253e
000001c0: b0ff 593c ed10 85bc 84c8 483d 6720 9c3c
000001d0: 3a18 393e 562c 09bc 6e08 3f34 cc1f e83c
000001e0: f441 0939 2ad5 b3ba 71d7 b9b9 1f55 1e3e
000001f0: 4db3 f3bb 5370 b83e 2148 273d dbf5 563d
00000200: 8288 953e 99e9 8c3e be1a 913c e68d b53c
00000210: dbf5 563d 0d12 9140 7ca3 873f 287e 433e
00000220: 8578 7c3d 6f83 0b3e 2dce 4a3e 8a6b 863c
00000230: 648d a4bc 9e14 783d 8260 c03c d276 623e
00000240: 6aca 33bc ed6a b837 1460 0f3d ec96 2939
00000250: 25e1 e4ba 50e8 fbb9 287e 433e edbf 16bc
00000260: 509e e23e eaa0 4e3d 758e 803d 9d7d b73e
00000270: 7fd3 ad3e c79d b33c 70ca de3c 758e 803d
00000280: 5602 b240 1046 a73f 51b1 9bbd fb96 cebc
00000290: 207e 60bd 3448 a3bd 687e d3bb a10b 043c
000002a0: f79a c5bc 549a 17bc f2d5 b4bd 69a1 8d3b
000002b0: 88ad 12b7 323f 65bc 9003 87b8 4e61 4a3a
000002c0: 6f42 9339 51b1 9bbd 5d43 733b 75d6 34be
000002d0: 3f93 a4bc 5fef d0bc 2da2 12be a47e 0abe
000002e0: 747d 0ebc 854d 30bc 5fef d0bc 12bb 0dc0
000002f0: 5630 03bf 76f4 cc3d 1905 003e a3e6 793e
00000300: 90f7 2c3e 0078 e53c ef97 0cbd 3cdd d33d
00000310: 333e 253d 56d3 c03e bb68 0eba 8f7e c934
00000320: 4239 fa3c b6c7 9039 8c66 a2bb 00b1 57ba
00000330: 76f4 cc3d 06df 80bc f8e0 1b3f 007d b03d
00000340: 743d 423e c7e3 eb3e c9fb 023f d921 193d
00000350: 977c 393d 743d 423e d670 1341 b9b0 0240
00000360: 55a7 d13c 2ddd 2cbc 24ea 64bc 24f4 033e
00000370: a274 093d db1e 843d da25 36bb 2807 8dba
00000380: caae 7f3d 2dbc 093e de4f d3b8 2f88 d4ba
00000390: 33c8 f8b6 b711 ac38 29c7 8b3d 55a7 d13c
000003a0: 1e6e 163d 8f71 e23d 56b9 17bb 7363 a13d
000003b0: 1a2f ce3d 2854 83bc 84ec 1c3d 3cfc a3ba
000003c0: 7363 a13d 2f50 0e40 83e1 0541 979a 1c3e
000003d0: 7e60 503d bca4 e23d 800d 243e b3b6 573c
000003e0: 429a 83bc 51a0 463d 9d70 9a3c 6a17 373e
000003f0: 4e80 07bc 09a9 9337 c28b e53c 4bc9 0739
-0.09899676 -0.07735856 -0.10296618 -0.11796192 -0.007930364 0.015875148 -0.04117828 -0.018445875
-0.03047475 -0.0016715161 -1.7292527e-05 0.05008202 -0.00012728266 0.0014367554 -0.0019695566 -0.09899676
0.007293246 -0.1653665 -0.033213075 -0.004014121 -0.1407668 -0.054322727 -0.017199667 -0.017342746
-0.004014121 -2.0830064 -0.76403755 0.161587 0.053766992 0.11694874 0.16929145 0.013911403
-0.016980872 0.051252622 0.019911667 0.188923 -0.008746251 1.8604087e-05 0.029609371 0.00013686082
-0.0014478853 -0.00037375223 0.161587 -0.007773515 0.37648657 0.042693697 0.054876164 0.30517352
0.2876525 0.018544843 0.023161137 0.054876164 4.7380314 1.1092223 0.11653676 0.038822383
0.08443832 0.12224036 0.010047082 -0.012259308 0.03701134 0.014369408 0.13601485 -0.0063057076
1.3439883e-05 0.021368388 9.8850454e-05 -0.0010514318 -0.00027318852 0.11653676 -0.005609821 0.27631462
0.030824482 0.04458107 0.2247957 0.21220185 0.013417428 0.016219223 0.04458107 3.4438074
0.8071174 0.5821081 -0.007919211 0.17130281 0.2926713 -0.00765529 -0.0007760632 0.005910716
0.00090472575 0.8176758 -0.053728294 8.47521e-07 0.1313406 6.2362055e-06 -6.871741e-05 -0.011827014
0.5821081 -0.0003559707 1.0544606 0.0055204662 0.17596006 1.0881274 1.4794568 0.00084426143
0.009422646 0.17596006 12.399357 1.667373 0.15462159 0.05142614 0.11186836 0.16198063
0.01330559 -0.016243422 0.04901935 0.01905842 0.18075648 -0.008372387 1.7791328e-07 0.028335474
0.00013089908 -0.0013720144 -0.00035446466 0.15462159 -0.007437146 0.36023197 0.04084027 0.05248056
0.2920571 0.2752197 0.017712947 0.022162389 0.05248056 4.5334535 1.0596766 0.19091094
0.061638374 0.13624357 0.19805212 0.0164087 -0.020086952 0.060566537 0.023483519 0.22115639
-0.010973552 2.19843e-05 0.035003737 0.00016173319 -0.0017462118 -0.00048047537 0.19091094 -0.009201032
0.44261408 0.05044643 0.062771715 0.35838023 0.3395042 0.02192582 0.02719614 0.062771715
5.562785 1.3068256 -0.0760218 -0.025218477 -0.054807782 -0.07972756 -0.006454278 0.008059413
-0.024121745 -0.009253103 -0.08829869 0.00432222 -8.7426815e-06 -0.013992118 -6.437965e-05 0.0007720188
0.00028087522 -0.0760218 0.003711901 -0.17659934 -0.020089744 -0.025504766 -0.14319678 -0.13524872
-0.008696903 -0.01076067 -0.025504766 -2.2145429 -0.5124563 0.10007565 0.12501945 0.24404387
0.16891313 0.028011322 -0.034324583 0.103449315 0.04034252 0.37661237 -0.0005432476 3.753125e-07
0.03054488 0.00027614617 -0.004956072 -0.0008227974 0.10007565 -0.015731346 0.6089015 0.08617592
0.18968755 0.46072218 0.51165444 0.037385795 0.045284834 0.18968755 9.215048 2.0420363
0.025592485 -0.010550779 -0.013971839 0.12886101 0.033558495 0.06451198 -0.0027793557 -0.0010759579
0.06242255 0.1345069 -0.000100761405 -0.0016214902 -7.414282e-06 8.204899e-05 0.06825096 0.025592485
0.03672611 0.11056816 -0.002315124 0.078802966 0.10067578 -0.01603134 0.038311496 -0.0012511085
0.078802966 2.223644 8.367557 0.15293346 0.050873272 0.11066577 0.16020775 0.0131661175
-0.016064767 0.048492733 0.018852526 0.17880026 -0.008270336 1.7602479e-05 0.028020743 0.00012949591

exp_avg_sq f4 [64, 27]
00000000: 4523 9b3e 745c 343d 3b8b 5e3d 3287 653e
00000010: 0542 f73b 5665 483b 3847 f23c b445 113d
00000020: 88ae 8f3d e7b7 9a3c fa97 f236 59a5 783d
00000030: e142 a534 7de8 aa3c d4d0 f43b 4523 9b3e
00000040: bab2 7e3b cbb1 113f 1b21 ce3c 7a52 1b3d
00000050: a228 0a3f 759d 853e 4906 743c 0abf 1e3d
00000060: 7a52 1b3d 1aa3 9342 fed2 a842 a5c2 5a3f
00000070: b07a 863d 7049 4b3e 482b 153f 9063 803c
00000080: 5388 8c3b dbd7 2b3d 5f81 4a3d a415 c53e
00000090: dc73 193d 375b 6f37 50af 583e 600a ff34
000000a0: 985f ee3c 5543 703c a5c2 5a3f be78 b33b
000000b0: dd05 c73f cb7e 123d 8d9c f93d 793f bf3f
000000c0: 8b72 773f 161f ab3c a462 623d 8d9c f93d
000000d0: 9f0a 5d43 2aee ed42 9205 e13e 2623 0a3d
000000e0: aef3 d03d c553 993e efe5 033c 95fb 0f3b
000000f0: 7f7f b03c b70f d03c 8c68 4a3e a86f 9d3c
00000100: d5c4 9836 8557 de3d f4e0 7f34 a2c7 743c
00000110: 6aaa f63b 9205 e13e b2e1 373b 2998 4c3f
00000120: 296b 963c 997e 7f3d f29f 443f bd5b fe3e
00000130: 7fb9 2f3c 2ab3 e83c 997e 7f3d 650b e342
00000140: e727 7442 e065 7441 4745 a73e f5d4 2740
00000150: 3c45 0941 9422 b63d 7415 0037 6934 463c
00000160: 9600 ba38 41a5 ae40 071e 253e eca2 c631
00000170: 0ea2 6040 6dc1 5230 f7b2 5a38 2820 ae3d
00000180: e065 7441 9802 2337 9b9d cc41 f73b 453c
00000190: 955e 0f3f 69e1 cc41 2b65 8441 5c5f 1c38
000001a0: 1482 863c 955e 0f3f ac75 5045 8643 f341
000001b0: b635 4f3f 853b 7f3d 50d5 403e ed69 0d3f
000001c0: 2fd9 733c 0b91 853b 4124 233d 7e33 403d
000001d0: d92b bb3e c9e0 113d 8985 a930 16e9 4d3e
000001e0: 10f0 f534 e34a e23c 8037 643c b635 4f3f
000001f0: a0ad aa3b 4391 bc3f ad18 0b3d b6d3 ec3d
00000200: ae2e b53f 63ac 6a3f a49c a23c 74d6 563d
00000210: b6d3 ec3d 46b9 5143 d808 e242 ea3c 993f
00000220: a172 bc3d 0a91 8e3e 9cfc 503f 2cd2 b33c
00000230: 84b5 c43b 6da9 703d 54d4 8d3d 3f2b 0a3f
00000240: 9610 573d a475 9d37 a9aa 973e 62b0 3135
00000250: 08f5 263d 0d3d a83c ea3c 993f 7935 fb3b
00000260: bd65 0b40 be2b 4d3d 2bde 2e3e 58f3 0540
00000270: 7245 ad3f 4b9e ef3c 528b 9e3d 2bde 2e3e
00000280: 6ed2 9a43 9e90 2643 f82a 3b3e 1379 653c
00000290: 5485 2d3d 0dff fe3d 32f7 5a3b 8125 6f3a
000002a0: 14c7 123c eb28 2d3c 21d4 a73d e191 023c
000002b0: 6f67 6d35 c0f1 373d 7e92 ca33 71c8 cb3b
000002c0: 35b3 4c3b f82a 3b3e e057 983a 6323 aa3e
000002d0: 2b3c fa3b e623 d53c 6396 a33e 9f29 533e
000002e0: e4e4 913b c743 413c e623 d53c 8989 3c42
000002f0: a4ea ca41 3ff9 4540 79b9 763e b813 3f3f
00000300: c43c 0240 6f81 753d c835 863c 8183 243e
00000310: 4cf6 413e d294 bb3f 48df 0d3e 2bbb 7f31
00000320: dac6 4e3f e281 ea35 fc4d e43d 019b 653d
00000330: 3ff9 4540 7024 ab3c 7e49 b740 5538 0c3e
00000340: a395 d13e 4a21 b040 23f3 6040 5195 a33d
00000350: a864 573e a395 d13e e71e 5144 4214 e343
00000360: 4670 123d 46e6 883c b830 8b3c e184 993e
00000370: 900f 023e 3e6a 2e3d 7c6c cf38 4ac7 f438
00000380: c9b5 123e 588f 983e 0a55 5938 73c1 9b3a
00000390: 31e7 8630 8ae1 8f38 7f03 fd3d 4670 123d
000003a0: 314f 8a3d 4561 9c3e 8ebc b038 c62d 343e
000003b0: b1a4 203e 8487 913b 51ad 863e dfaa 0839
000003c0: c62d 343e 64bf aa42 b19f 9a44 627c 463f
000003d0: 073c 743d 5990 383e 7764 073f 9e3a 693c
000003e0: ae68 7f3b 1e0f 1c3d 18e2 373d d406 b33e
000003f0: 6570 0b3d 88bf 6437 98e5 443e 057b e934
0.30300346 0.044033483 0.054332 0.22414854 0.007545712 0.003057798 0.029574975 0.035466865
0.07015711 0.01888652 7.2298544e-06 0.060704563 3.0782306e-07 0.020862812 0.0074711833 0.30300346
0.0038863854 0.56911916 0.02516227 0.037920453 0.5396825 0.26096693 0.014894077 0.038756408
0.037920453 73.81856 84.412094 0.85453254 0.065663695 0.19852233 0.58269167 0.015672475
0.004288712 0.041953903 0.049439784 0.38493073 0.037464008 1.4266748e-05 0.21160626 4.7505e-07
0.029098317 0.014664491 0.85453254 0.00547704 1.5548664 0.03576545 0.12188063 1.4941245
0.96659154 0.020888846 0.055269852 0.12188063 221.04149 118.965164 0.43949562 0.033724926
0.10202728 0.29946724 0.008050426 0.0021970023 0.02154517 0.025398118 0.19766444 0.01921828
4.5528673e-06 0.10856537 2.3830563e-07 0.014940174 0.007527639 0.43949562 0.002805811 0.7991968
0.018361645 0.062376592 0.7680656 0.49679366 0.010725378 0.028405745 0.062376592 113.522255
61.038967 15.274872 0.32670042 2.6223729 8.579403 0.08893314 7.6343895e-06 0.0120974565
8.86928e-05 5.4576726 0.16124736 5.7810805e-09 3.509891 7.667243e-10 5.2141924e-05 0.08502227
15.274872 9.716161e-06 25.576956 0.0120382225 0.56003696 25.610064 16.549398 3.728211e-05
0.016419448 0.56003696 3335.3545 30.40797 0.8094133 0.06231262 0.18831372 0.55239755
0.014883324 0.0040761284 0.039829496 0.046924107 0.3655689 0.035614762 1.2334321e-09 0.20108446
4.5809475e-07 0.0276236 0.013929248 0.8094133 0.005208686 1.473183 0.03395908 0.11563818
1.415487 0.9166929 0.019850083 0.052450612 0.11563818 209.72372 113.01727 1.1971714
0.09201551 0.2784503 0.8163545 0.021950804 0.0060030837 0.058755327 0.06925264 0.5397224
0.052506052 1.877064e-05 0.2962239 6.619431e-07 0.040761024 0.020536924 1.1971714 0.0076662865
2.1780846 0.050090544 0.17076938 2.0929775 1.3536818 0.029250285 0.07741417 0.17076938
309.64398 166.56491 0.1827811 0.014005917 0.04236348 0.12450991 0.00334115 0.0009122715
0.008958597 0.010568838 0.08194757 0.007969351 8.8439896e-07 0.044908285 9.433005e-08 0.006218963
0.0031234745 0.1827811 0.0011622868 0.33230123 0.007636567 0.026018094 0.31950673 0.20621346
0.0044523347 0.0117959445 0.026018094 47.13431 25.36457 3.0933378 0.2409419 0.74639463
2.0349588 0.05993789 0.016383067 0.1606579 0.18941611 1.4654791 0.13854706 3.7213777e-09
0.80772173 1.747216e-06 0.11147687 0.056056026 3.0933378 0.020891398 5.727721 0.13693364
0.40934476 5.5040636 3.51484 0.07987464 0.21034491 0.40934476 836.48285 454.15826
0.035751604 0.016711365 0.016991004 0.2998419 0.12701249 0.04258179 9.890736e-05 0.00011671947
0.14327158 0.29796863 5.181603e-05 0.0011883214 9.815492e-10 6.860781e-05 0.123541825 0.035751604
0.06753386 0.3054296 8.427455e-05 0.17595586 0.15687825 0.0044412035 0.26304105 0.00013033625
0.17595586 85.37381 1236.9904 0.77533543 0.05962756 0.18023814 0.5288767 0.014235167
0.0038972306 0.038100354 0.044893354 0.34966147 0.034042735 1.3634453e-05 0.19228208 4.348914e-07

exp_avg f4 [64]
00000000: d555 29be d7c2 c03e 1b79 8d3e 93f8 863f
00000010: 5270 b83e 509e e23e 75d6 34be fae0 1b3f
00000020: 9071 e23d da6f b63e 63eb 4c3f d39e 58be
00000030: 8bec 0d3f f390 d5bb 70eb 2b3f 4445 d1bb
00000040: 8360 2bbb 3ff5 3b3f 3c32 923f 3fd3 1c3f
00000050: dd9b 18bf 7d97 493f 2351 3c3f 1f21 633e
00000060: 5abe 6e3e 96a6 133d 20a2 03c0 87e8 be3e
00000070: 3c1a 82bb 0f04 cabe a22f 963e 5eeb 013f
00000080: d9c9 8abe 56bc 06be 8793 133b 0b84 a63f
00000090: addb 50be 934f ce3e 97e3 89be dd1f 1a3e
000000a0: ff3a 53be 087c 8e3e 19dc 0b3f fdb6 8abe
000000b0: e1f4 9f3f 50de 293f a4f7 acc0 7c19 9e3e
000000c0: 06cd 523e b58e ddbd 7d0c 8e3e ca99 00be
000000d0: abe7 14bb 8ea4 9e3d 07f3 183f ad30 21c0
000000e0: 1c20 633f 0a7e c0be c714 883b b600 be3e
000000f0: 743e 53be 392f a03e 02d9 b23c 3d21 8dbf
-0.16536649 0.3764865 0.2763146 1.0544609 0.36023194 0.44261408 -0.17659934 0.6089016
0.110568166 0.3563221 0.8004667 -0.21154337 0.5543906 -0.0065175234 0.67156124 -0.006386431
-0.0026150055 0.7342109 1.142158 0.61259836 -0.5961283 0.7874678 0.73561305 0.22180603
0.23314801 0.03604754 -2.0567703 0.3728678 -0.0039704125 -0.3945622 0.29333216 0.50749767
-0.27107123 -0.13157782 0.0022518353 1.3009046 -0.203963 0.40295085 -0.2693145 0.15051217
-0.20627974 0.27829003 0.5463272 -0.27092734 1.2496606 0.66354847 -5.4052296 0.30878818
0.20586023 -0.10818235 0.27743903 -0.12558666 -0.0022721093 0.0774623 0.5974583 -2.518596
0.8872087 -0.3759616 0.0041528675 0.37109917 -0.20629293 0.31286028 0.021831993 -1.1025769

exp_avg_sq f4 [64]
00000000: cbb1 113f dc05 c73f 2a98 4c3f 9c9d cc41
00000010: 4391 bc3f bc65 0b40 6423 aa3e 7f49 b740
00000020: 4461 9c3e ad9e b43f 210c 2241 72c4 d73e
00000030: 056b 5e40 4714 f839 9181 a540 8917 ae3b
00000040: 963b e03a 0b40 dd40 7ed4 e440 c59f 8540
00000050: b031 e340 4ee8 f840 229f 0c41 ae8f 0f3f
00000060: 10fd 4b3f 2ce5 423d 2921 fb41 b75a ca3f
00000070: 32fa f739 7d87 af3f 78e1 743f db77 3540
00000080: bbe1 463f 0f4e 4e40 c2a5 6538 7e65 5e41
00000090: 3f06 de3e 8c33 ec3f 9114 9f3f fda5 2741
000000a0: 277b e93e 1195 763f e2f8 5240 bcb4 e43e
000000b0: c8e5 4541 64dd 9940 c4ba 6742 9e38 843f
000000c0: 0718 da3e bce2 b740 bf41 593f 174f 1b3e
000000d0: 6917 6b38 08eb 863e 64a7 8c40 bc1f 1d42
000000e0: c5ac f640 9ce3 1042 ae9a 4039 c9ea 923f
000000f0: 864d e93e a812 9b3f 12a5 343d c64a 5441
0.56911916 1.5548663 0.79919684 25.576958 1.473183 2.1780844 0.33230126 5.7277217
0.30542958 1.4110924 10.127961 0.42142063 3.475282 0.00047317354 5.172066 0.005312864
0.0017107602 6.9140677 7.150939 4.175753 7.0998154 7.7783575 8.788851 0.5607861
0.7968302 0.047581837 31.391191 1.5808934 0.0004729792 1.3713223 0.9565654 2.8354404
0.7768819 3.2235143 5.475223e-05 13.899778 0.4336414 1.8453231 1.2428151 10.4780245
0.4560177 0.9632121 3.2964406 0.4466914 12.368599 4.808275 57.93239 1.0329778
0.42596456 5.7464275 0.84865946 0.15166889 5.605017e-05 0.2635119 4.3954334 39.28099
7.70859 36.222275 0.0001836817 1.1477901 0.45566958 1.2115068 0.044102736 13.268255

exp_avg f4 [1, 64]
00000000: 8847 403f c6cc 0e41 9626 3840 a60c b43e
00000010: c066 eb40 b961 2c40 4253 9f40 74f3 0040
00000020: e367 543b 1bee 1741 8373 df3f 07a6 553f
00000030: de78 e340 99ac 0dbd 2ce3 0740 95fc 09bd
00000040: 2046 71bd 1a13 8940 e949 e93f fb69 ca40
00000050: c9ea cd3e 8365 3040 e09a 3a40 bfe1 2141
00000060: 29b6 8040 e518 e4bd d1f9 763f a9b2 e240
00000070: 6c7f 32bc d988 6340 ea0a 5d40 b524 0d41
00000080: 07b0 b440 45e3 c83e a703 57bd 4883 613f
00000090: 339c 8a40 2d5c 3540 b975 ca3f 071a 6cbe
000000a0: 8851 403f 8e9a 0241 cab1 e940 1e2c 483f
000000b0: a935 5f3f 5c48 0a40 459a ae3f ce67 9a40
000000c0: b105 cc40 e455 c13e f9f2 3041 773e aa40
000000d0: 3fc5 cbbd 04a3 04bc 81ee d840 6651 6e3f
000000e0: d07e 223f 095a c3bf 747f 5fbd 1b46 6640
000000f0: 2f42 dc40 491f 9e40 2095 07be 1d22 6540
0.7510915 8.9249935 2.877355 0.351659 7.3562927 2.6934645 4.9789133 2.0148592
0.0032410554 9.495631 1.7457126 0.8345646 7.1085043 -0.03458843 2.1232405 -0.033688147
-0.058904767 4.2835817 1.822568 6.325437 0.4021819 2.7561958 2.9157028 10.117614
4.0222363 -0.11137561 0.9647494 7.084309 -0.010894638 3.5552275 3.4537911 8.821462
5.6464877 0.39235893 -0.052493718 0.88090944 4.3315673 2.833751 1.5817176 -0.23056804
0.75124407 8.162733 7.302953 0.7819232 0.87191254 2.1606665 1.3640829 4.8251715
6.3756948 0.37760842 11.0593195 5.320125 -0.09949731 -0.008095507 6.7791142 0.93092954
0.6347475 -1.5261852 -0.05456491 3.598029 6.883079 4.941319 -0.1324048 3.580207

exp_avg_sq f4 [1, 64]
00000000: b511 3142 ad3c 8a44 8f8f c143 96d3 5142
00000010: b7e1 0744 aad3 8a43 1968 ab43 78d3 9f42
00000020: 3999 013f 8171 7c44 fc79 9f42 3ecb d742
00000030: 6125 0844 56cc 6e3c 52ee f042 8065 b33c
00000040: 921e 9b3d 7abf 4043 f7ce 3c43 1dc2 dc43
00000050: faa7 7f3f 52c7 d342 1e63 fb42 d2ef 8544
00000060: 486b 4d43 9d34 0e43 b249 4341 4947 1d44
00000070: 0856 643b 54cd 5d43 072f 2543 54eb 8744
00000080: f985 a643 0772 753f 3581 e73c 88fd ec42
00000090: b398 7243 1a34 bd42 6d99 2343 45e6 4e43
000000a0: 822a ed42 a5ad 3b44 3521 0d44 0ffa e841
000000b0: 5642 1343 b160 8d42 5a76 4140 b44b 7643
000000c0: 08a1 fb43 01f4 163f 4e0d be44 4b84 9a43
000000d0: acc8 ff3d 0633 963e 5c8e 0d44 1a7e dc40
000000e0: 525f f741 03e4 c442 8143 0a3d d95f f943
000000f0: 6f3c 1f44 0cf7 9d43 e886 8642 7026 d642
44.267292 1105.8961 387.12155 52.456627 543.5268 277.65363 342.81326 79.913025
0.50624424 1009.7735 79.73825 107.89696 544.58405 0.014575085 120.46547 0.021898985
0.0757419 192.74796 188.80846 441.5165 0.99865687 105.8893 125.69359 1071.4944
205.41907 142.20552 12.205492 629.11383 0.0034841318 221.80206 165.1837 1087.354
333.04666 0.95877117 0.028259853 118.49518 242.59648 94.60176 163.59932 206.89949
118.58302 750.7132 564.51886 29.122099 147.25912 70.68885 3.0228486 246.29572
503.25806 0.5896607 1520.4158 309.03354 0.12489447 0.29335803 566.22437 6.8903933
30.921543 98.445335 0.033755783 498.7488 636.9443 315.93005 67.26349 107.07507
