experiments/justification/models/SmallBTCNN_SmallFCNN_4.pth (torch, 57266 bytes, 15 tensors)

btcnn.layers.0.conv1d.weight f4 [27, 27, 3]
0	0xbddb7087	-0.10714822
1	0x3c7c86d5	0.015413006
2	0x3cd555d5	0.026041904
3	0xbc1e0d47	-0.00964672
4	0xbf1058ae	-0.56385314
5	0x3e0a5ca5	0.13511904
6	0xbe81aa64	-0.2532531
7	0x3d5b9002	0.053604133
8	0xbe8e342a	-0.27774173
9	0xbdb31992	-0.087451115
10	0x3dd20d32	0.10256423
11	0xbf1f1ae2	-0.62150395
12	0x3b77f58e	0.003783557
13	0xbf3d6fc6	-0.7399868
14	0xbcf92c95	-0.030416766
15	0x3bca7272	0.0061781937
16	0xbdb40a44	-0.087910205
17	0xbaab838e	-0.0013085471
18	0x3d244832	0.040107913
19	0x3e8d3f7b	0.27587494
20	0xbd5f3c55	-0.054500896
21	0x3e82af83	0.2552453
22	0x3d5d1646	0.05397632
23	0x3d77cfce	0.060500912
24	0x3e07b55d	0.13252778
25	0xbdbddeae	-0.092709884
26	0xbdd86f19	-0.10568065
27	0xbd40167d	-0.046896446
28	0xbdb05dae	-0.08611618
29	0x3c6abe64	0.014327619
30	0xbd5d2df5	-0.053998906
31	0x3db7e14b	0.08978518
32	0xbcd0bc80	-0.025480509
33	0xbda53a9d	-0.0806782
34	0xbe280ad9	-0.16410388
35	0xbead3431	-0.3382888
36	0xbd95262e	-0.07282673
37	0xbdcbd3f4	-0.09952536
38	0xbdb24f3d	-0.0870652
39	0xbd75d6e5	-0.060019393
40	0xbe877bb9	-0.2646158
41	0xb9704aab	-0.00022916
42	0x3d5899ae	0.052880935
43	0x3f2454b5	0.6419175
44	0xbd5d877d	-0.05408429
45	0xbb1def1d	-0.0024098821
46	0x3df14989	0.11781604
47	0x3eb8f56d	0.36124745
48	0xbeb1863c	-0.34672725
49	0x3c0e9ee4	0.008704875
50	0xbdde263b	-0.10847136
51	0xbd00bb84	-0.03142883
52	0x3c4e820e	0.01260425
53	0x3c72820e	0.014801515
54	0x3d3442dd	0.04400908
55	0xbf189b7e	-0.5961226
56	0x3c940295	0.018067637
57	0x3dd0c936	0.10194628
58	0x3e71e505	0.2362252
59	0xbe719bcb	-0.23594587
60	0x3e17f622	0.14839986
61	0xbe877ac1	-0.2646084
62	0xbf213c4d	-0.62982637
63	0x3c4e9caf	0.0126105985
64	0x3bbd7596	0.0057818396
65	0x3e6e58e9	0.23276104
66	0xbeee54ae	-0.4654898
67	0x3c8ae907	0.01695682
68	0x3c1adbe4	0.00945184
69	0xbc21e2ab	-0.009880702
70	0x3dd9eb1f	0.10640549
71	0x3d27f0bd	0.04100107
72	0x3dc5242a	0.09626038
73	0xbd868159	-0.0656764
74	0x3e3aef98	0.1825546
75	0x3cba3998	0.022732541
76	0xbc2c3b04	-0.010512117
77	0x3e1a56a4	0.15072113
78	0x3d047fa8	0.032348305
79	0xbe9359db	-0.28779492
80	0x3e203419	0.15644874
81	0x3b98c81d	0.0046625272
82	0xbe3730d2	-0.17889717
83	0xbd476352	-0.048678704
84	0xbe820fd3	-0.25402698
85	0xbf1464e7	-0.57966465
86	0xbe830b6d	-0.25594655
87	0xbe92e840	-0.28692818
88	0x3c9789bf	0.0184983
89	0x3c6a7bb9	0.014311724
90	0x3d974147	0.073854975
91	0xbdcc4bb9	-0.099753805
92	0xbd972917	-0.07380884
93	0x3d877bb2	0.0661539
94	0xbe841431	-0.25796655
95	0xbca011ce	-0.01953974
96	0x3dbddd82	0.09270765
97	0xbd9fa7e7	-0.07795697
98	0x3d35e952	0.044411965
99	0x3c4cde9d	0.012504247
100	0x3d47bcdb	0.04876409
101	0x3d72da80	0.05929041
102	0xbe8640b6	-0.26221246
103	0xbe350a05	-0.17679603
104	0x3dd532c9	0.10410077
105	0x3ce05598	0.027384564
106	0x3d2b8ab5	0.04188033
107	0xbdfad1c4	-0.12247041
108	0xbe542922	-0.20718816
109	0xbea980ae	-0.33105987
110	0xbd299d3d	-0.04140972
111	0xbd5781bf	-0.05261397
112	0x3d82911c	0.06375334
113	0x3dd23cb7	0.10265487
114	0x3d844365	0.06458167
115	0xbeda4ac9	-0.42635182
116	0x3d211fd5	0.039336998
117	0xbd00364b	-0.031301778
118	0xbd00ac15	-0.03141411
119	0x3dc5718b	0.09640797
120	0xbf06005f	-0.52344316
121	0xbeb5db4c	-0.35518873
122	0xbddf4637	-0.10902064
123	0x3d0a49b9	0.033761714
124	0xbe19b9b7	-0.15012251
125	0x3dc236b7	0.09483092
126	0xbe126dd3	-0.14299707
127	0xbf2e7e09	-0.68161064
128	0x3e840cea	0.25791103
129	0x3e80796f	0.25092646
130	0xbd8788fd	-0.06617925
131	0xbda2d4b5	-0.07950727
132	0xbdba36bd	-0.09092472
133	0x3d82a087	0.063782744
134	0x3dd340e2	0.1031511
135	0xbdb538d4	-0.0884873
136	0xbe73641c	-0.23768657
137	0x3d1085d9	0.035283897
138	0xbe72d35b	-0.23713438
139	0xbe3a6107	-0.18201075
140	0xbe461098	-0.19342268
141	0x3e716e61	0.23577262
142	0x3e954884	0.29156888
143	0xbe03254b	-0.12807195
144	0x3d4ba80b	0.049720805
145	0xbcea5556	-0.028605144
146	0x3e2dd338	0.16975105
147	0xbe8b9fe4	-0.27270424
148	0xbc64ce2b	-0.01396517
149	0x3db7b7fe	0.089706406
150	0xbd8305d6	-0.063975975
151	0x3ec1157a	0.37711698
152	0xbdc558c9	-0.09636075
153	0xbe5a5c25	-0.21324213
154	0x3d1902cb	0.03735618
155	0xbe2d5d46	-0.16930112
156	0x3d0306f9	0.03198907
157	0x3df74586	0.120738074
158	0x3e0fd45b	0.14045851
159	0x3d9bcb83	0.07607176
160	0xbd234de7	-0.039869215
161	0x3e07c1f0	0.13257575
162	0xbd8ce559	-0.06879682
163	0xbe03e65b	-0.12880842
164	0x3daeee80	0.08541584
165	0x3dc03a5b	0.093861304
166	0x3dfd76e8	0.12376195
167	0x3dfa945a	0.12235327
168	0xbed34494	-0.41263258
169	0xbe9ecc00	-0.31015015
170	0x3dd1fd08	0.1025334
171	0xbd0fc3b2	-0.03509874
172	0x3db4a823	0.08821132
173	0xbf164927	-0.5870537
174	0xbd24f767	-0.040275004
175	0x3e684fe0	0.2268672
176	0xbdcf9297	-0.10135382
177	0xbd5aa6ce	-0.053381734
178	0x3f1a3ee0	0.6025219
179	0x3d7e50f9	0.06208894
180	0x3d6577f9	0.056022618
181	0x3e4ebd57	0.20189415
182	0xbdde1060	-0.10842967
183	0xbdc6c9b1	-0.09706438
184	0xbf3de5a7	-0.74178547
185	0xbd742747	-0.05960777
186	0xbdf98d93	-0.12185206
187	0xbd4c0b3d	-0.049815405
188	0xbdb3e0d5	-0.08783118
189	0xbe07cbb1	-0.13261296
190	0xbf0005dc	-0.5000894
191	0x3b7ed8ab	0.0038886468
192	0xbc75451e	-0.014970092
193	0xbd8a6087	-0.067566924
194	0xbddbcb0d	-0.10732088
195	0xbd60defd	-0.05490016
196	0xbeaa3ed8	-0.3325107
197	0x3ec72dbe	0.38902086
198	0x3db297d0	0.08720362
199	0xbdb297e4	-0.08720377
200	0x3d355b60	0.044276595
201	0xbdd1048a	-0.10205944
202	0xbf2b4fe2	-0.66918766
203	0x3c10c1e4	0.00883529
204	0x3d200b6b	0.03907339
205	0xbee8e0c1	-0.45483974
206	0x3d949d05	0.072565116
207	0xbc88343c	-0.01662647
208	0xbe11494e	-0.1418812
209	0xbee3f6e6	-0.44524306
210	0xbc2880c7	-0.010284609
211	0x3e776c22	0.24162343
212	0x3d1051b9	0.035234187
213	0xbd5d504c	-0.054031655
214	0xbd842217	-0.064518146
215	0xbc951f1d	-0.018203313
216	0x3dc3bebb	0.09557863
217	0xbc67dc11	-0.014151589
218	0xbd18b307	-0.03728011
219	0x3d2654c7	0.040608194
220	0xbf56c3d3	-0.83892554
221	0xbe49a22e	-0.19690773
222	0xbc13c2aa	-0.0090185795
223	0xbd839eeb	-0.064267956
224	0x3ef459b6	0.47724694
225	0xbdc40b27	-0.0957244
226	0x3e61a3f0	0.22035193
227	0xbe9ce9af	-0.30647036
228	0xbe7e5a14	-0.2483905
229	0xbeef61e7	-0.4675438
230	0xbdd28f1e	-0.10281204
231	0xbe98a644	-0.2981435
232	0xbeb4f777	-0.3534505
233	0x3ba6491d	0.0050746338
234	0x3f383b81	0.71965796
235	0xbd544ce0	-0.051831126
236	0x3d7a2c2c	0.06107728
237	0xbd1bb611	-0.03801543
238	0x3d889318	0.06668681
239	0x3dc4fa4f	0.09618055
240	0xbdecb459	-0.11557836
241	0xbb31a700	-0.0027107596
242	0xbd708edf	-0.058730002
243	0x3d4ba92f	0.049721893
244	0xbeac1caa	-0.3361562
245	0x3ddb42ab	0.10706075
246	0xbdcd13e0	-0.100135565
247	0x3ddf49a6	0.10902719
248	0xbeaf9dd8	-0.34300113
249	0x3caeaaa9	0.021321611
250	0xbcd00a86	-0.025395643
251	0x3dcf22c7	0.10114055
252	0x3c5c6214	0.013451118
253	0xbe011548	-0.12605774
254	0x3e2feb9b	0.1717972
255	0xbd81931e	-0.063268885

btcnn.layers.0.conv1d.bias f4 [27]
0	0xbd347b2f	-0.04406279
1	0x3c38f04d	0.011287761
2	0xbddd887c	-0.10817048
3	0x3ccac058	0.02474992
4	0x3d66f930	0.056389987
5	0x3a33f9d3	0.0006865535
6	0xbe1d8771	-0.15383698
7	0x3cad7190	0.021172315
8	0xbe32a3df	-0.17445324
9	0x3dbfd0cc	0.09365997
10	0xbe3e0166	-0.18555221
11	0x3c867f69	0.016418176
12	0xbcbba5fb	-0.022906294
13	0xbe025cb0	-0.1273067
14	0xbc06b939	-0.008222871
15	0xbcd42d3c	-0.025900476
16	0xbc5142c2	-0.012772264
17	0x3d6101c4	0.054933324
18	0xbdb58f82	-0.088652626
19	0xbdd8cc0e	-0.10585795
20	0x3d1fb064	0.03898658
21	0xbdf12d67	-0.11776238
22	0x3d934b2a	0.07192071
23	0xbc9c17b0	-0.019054264
24	0x3d7dea87	0.06199124
25	0x3e25ee10	0.16204095
26	0x3e3d2128	0.1846968

fcnn.0.weight f4 [64, 27]
0	0xbe0dc99f	-0.13846444
1	0x3d491b92	0.04909856
2	0x3e8c840d	0.27444497
3	0x3d5f92e2	0.054583438
4	0x3c93d9cb	0.018048188
5	0xbe938346	-0.2881109
6	0xbe669879	-0.22519101
7	0x3dd86d0c	0.10567674
8	0x3bb247a3	0.0054406687
9	0xbe5c9576	-0.2154139
10	0xbd3c73f4	-0.04600902
11	0xbe21188f	-0.15732025
12	0x3d0da5df	0.034582015
13	0x3d3f71df	0.046739455
14	0x3e1f588d	0.15561123
15	0x3e0d4e35	0.13799365
16	0x3e2d1567	0.16902696
17	0x3d3196ea	0.043356813
18	0xbe960aa2	-0.29304987
19	0x3e51f5d1	0.20503928
20	0x3e03bd6a	0.12865224
21	0x3d9862eb	0.07440742
22	0xbdf266c1	-0.11836005
23	0x3dcd39bb	0.10020777
24	0x3ca2bea6	0.019866299
25	0x3d20e635	0.039282043
26	0xbd83ac15	-0.064293064
27	0xbeb032a2	-0.3441363
28	0x3da9b7bb	0.08286997
29	0xbd26a51c	-0.040684804
30	0x3e2a24ef	0.16615652
31	0xbdfe0775	-0.12403766
32	0x3d914dc4	0.07094911
33	0x3c5beada	0.013422692
34	0xbe12de70	-0.14342666
35	0xbd6ccac5	-0.057810564
36	0x3e49ee5f	0.19719838
37	0xbe001378	-0.12507427
38	0xbe5b5eaf	-0.21422838
39	0xbe0fb5f2	-0.1403425
40	0x3d055cdc	0.03255926
41	0xbe766b8a	-0.2406446
42	0x3dbdeefc	0.09274098
43	0xbddc3dac	-0.107539505
44	0x3be9ef66	0.007139134
45	0x3db62c02	0.088951126
46	0x3d93f2fb	0.07224079
47	0xbe834a83	-0.25642785
48	0x3dfb1b7e	0.12261103
49	0xbe150eb6	-0.14556393
50	0xbe4f6bc9	-0.2025596
51	0x3d8944e1	0.06702591
52	0x3d02347c	0.031788334
53	0x3e1a9528	0.15095961
54	0xbe546a61	-0.20743705
55	0xbcd5cdb5	-0.026099065
56	0xbe98650e	-0.297646
57	0x3bf6ef04	0.007535817
58	0x3cb4bffb	0.0220642
59	0xbd9fcd3e	-0.07802819
60	0xbeaa004b	-0.3320335
61	0xbe9a7b48	-0.3017218
62	0xbed6baec	-0.41939485
63	0x3dc3af0a	0.095548704
64	0xbe879639	-0.26481798
65	0x3dcbd49e	0.09952663
66	0xbe8fb117	-0.28064796
67	0xbe880a82	-0.26570517
68	0xbe9955b4	-0.299482
69	0xbe7733d0	-0.24140859
70	0x3d388a4e	0.045053773
71	0x3dfc0353	0.123053215
72	0xbebf84e0	-0.37406063
73	0xbdd4440a	-0.1036454
74	0xbd78cbab	-0.060741108
75	0xbe80b85b	-0.25140652
76	0x3ba68219	0.005081427
77	0xbecca3af	-0.3996863
78	0x3e175d21	0.1478162
79	0x3ecb03ed	0.39651433
80	0x3ee2518b	0.44202837
81	0x3c840c55	0.016119162
82	0x3e2ffbcd	0.17185898
83	0x3d0c118d	0.034196425
84	0x3db1bc53	0.08678498
85	0xbba6537e	-0.005075871
86	0xbe67bfea	-0.22631803
87	0xbc96804a	-0.01837172
88	0xbdca0d3f	-0.09865808
89	0xbe5f85b8	-0.21828353
90	0x3c4f9aab	0.012671153
91	0xbef041f9	-0.46925333
92	0xbe337c11	-0.17527796
93	0x3d9e299e	0.077227816
94	0xbcd18ca8	-0.025579765
95	0xbebec2e5	-0.37258068
96	0x3c2e85ae	0.010651989
97	0x3e4fcdb3	0.20293312
98	0x3e0d0fe6	0.13775596
99	0xbe8a7dc9	-0.2704909
100	0xbea9f08d	-0.33191338
101	0xbe1adf64	-0.1512428
102	0xbe6d8401	-0.23194887
103	0x3ea32483	0.31863794
104	0xbf367ded	-0.712859
105	0x3dca1247	0.098667674
106	0x3f0a7702	0.5408784
107	0x3f2f59e4	0.6849654
108	0x3e01ecf1	0.12688042
109	0xbce05472	-0.027384017
110	0x3e09d119	0.1345867
111	0x3df3975f	0.11894106
112	0x3d72b62b	0.05925576
113	0x3e5649b7	0.20926557
114	0x3c9591d4	0.018258013
115	0x3e472b92	0.19450215
116	0x3e1adcab	0.1512324
117	0x3e39cab6	0.18143734
118	0x3f3a7824	0.7283957
119	0x3e3fa67e	0.18715855
120	0xbddac4c2	-0.1068206
121	0x3e7e4f8b	0.2483503
122	0x3eb951f0	0.36195326
123	0x3e1a52e9	0.1507069
124	0xbf791c73	-0.97309035
125	0xbe9ce807	-0.30645773
126	0x3e4c7c14	0.19969207
127	0x3e8e6900	0.27814484
128	0xbd1adfab	-0.037810963
129	0x3e8b8953	0.27253208
130	0x3d686a4b	0.056741994
131	0x3f063954	0.52431226
132	0xbe189959	-0.14902247
133	0xbf79b7cc	-0.97546077
134	0xbfbfac75	-1.4974505
135	0xbd8ff53c	-0.070291966
136	0xbd2d69ff	-0.042337414
137	0x3d80bc1a	0.062858775
138	0xbc391af0	-0.011297926
139	0xbd4702e1	-0.04858673
140	0x3e80a0ea	0.25122768
141	0x3d87e8ac	0.066361755
142	0x3c5ecd59	0.013598763
143	0x3e4e2e5b	0.2013487
144	0x3d1eaae1	0.03873718
145	0x3dbcdddb	0.09222003
146	0xbcf5c207	-0.029999746
147	0x3e1b7e34	0.15184861
148	0xbdf684d8	-0.12037057
149	0x3e8b6ea7	0.2723286
150	0x3db6304d	0.088959314
151	0xbde1b894	-0.110215336
152	0xbe4e358a	-0.20137611
153	0x3e594a6d	0.21219797
154	0x3eaa37e5	0.3324577
155	0x3dd6bd50	0.10485327
156	0x3d2353e2	0.03987492
157	0xbdab31a7	-0.0835908
158	0x3e8abb8e	0.27096218
159	0x3d6ea942	0.058266886
160	0xbe261d7e	-0.16222188
161	0xbe7fda4a	-0.24985614
162	0xbe0c595e	-0.13705966
163	0xbe405346	-0.18781766
164	0xbecf4369	-0.40481117
165	0x3d8a9f28	0.06768638
166	0xbe01626f	-0.12635206
167	0x3d35f546	0.044423364
168	0xbe7c189c	-0.24618763
169	0xbdcb2d62	-0.099207655
170	0xbe885794	-0.26629317
171	0xbe4dfc83	-0.20115857
172	0xbeaa3be7	-0.33248827
173	0xbd847ed7	-0.06469505
174	0xbdbc36b4	-0.09190121
175	0xbd5f10c8	-0.054459363
176	0xbf027263	-0.5095579
177	0xbe3a6ba6	-0.18205127
178	0x3e5600f9	0.20898809
179	0x3b4ea80a	0.0031533265
180	0xbec09954	-0.3761698
181	0xbea2207a	-0.31665403
182	0xbddc15c9	-0.10746343
183	0xbde6963b	-0.11259123
184	0x3e4764e9	0.19472088
185	0xbf0a9dd7	-0.54147094
186	0x3d0c17c1	0.03420234
187	0x3e3d88b2	0.18509176
188	0x3ee8fa70	0.4550357
189	0x3d495db2	0.04916162
190	0xbdf321fc	-0.118717164
191	0xbe089f17	-0.13341938
192	0x3ded8eb1	0.11599482
193	0xbd4a0364	-0.04931964
194	0x3d2839c1	0.041070703
195	0x3d2c3d8f	0.042050894
196	0xbe81eb1a	-0.2537468
197	0xbde9c011	-0.11413587
198	0xbdc0fdf2	-0.09423436
199	0xbe8dd4c5	-0.27701393
200	0xbe4a42c8	-0.19752038
201	0x3db6c9ba	0.08925195
202	0xbd227c14	-0.03966911
203	0xbeab18b5	-0.33417287
204	0xbdb24485	-0.08704475
205	0x3e9302cc	0.2871307
206	0x3eb8b551	0.36075833
207	0xbda8ef07	-0.08248716
208	0xbe827f64	-0.25487816
209	0xbd5da57e	-0.054112904
210	0xbe4b347f	-0.19844244
211	0x3e3c4291	0.18384768
212	0xbed24c03	-0.41073617
213	0x3e5f2183	0.21790127
214	0x3eddfe59	0.43358114
215	0x3edeb2e0	0.43495846
216	0xbc11ed7b	-0.008906717
217	0xbd962cfd	-0.073327996
218	0x3e9c0562	0.30472857
219	0x3e7fada1	0.24968578
220	0x3e80cbc9	0.25155476
221	0x3e470e2b	0.19438998
222	0x3d8ecefc	0.06973073
223	0x3e7fa8eb	0.24966781
224	0x3ec7b2f4	0.39003718
225	0x3e978bcd	0.29598847
226	0x3e6edc88	0.23326313
227	0x3e54dd1f	0.20787476
228	0xbcd5fd85	-0.026121864
229	0x3e8756ea	0.26433498
230	0x3e98bcc1	0.29831508
231	0x3e83eb45	0.25765434
232	0xbec7c963	-0.39020833
233	0xbeb9e11a	-0.3630455
234	0x3ec08d22	0.37607676
235	0x3ddecb3b	0.10878607
236	0x3e771226	0.24128017
237	0x3cb7b69f	0.022425948
238	0x3c9cda65	0.019147107
239	0x3f259a0f	0.646882
240	0xbe8feb86	-0.28109378
241	0xbf01950f	-0.5061807
242	0xbf2249a9	-0.63393646
243	0x3e478085	0.1948262
244	0xbd3b07e5	-0.045661826
245	0xbe8af494	-0.27139723
246	0xbd91db0f	-0.0712186
247	0xbcf7ba51	-0.03024021
248	0xbd7d712f	-0.06187552
249	0xbe48355d	-0.19551606
250	0xbc3549d8	-0.011064969
251	0xbec3b62b	-0.3822492
252	0xbbb522a8	-0.005527813
253	0xbe76248a	-0.24037376
254	0x3e609de9	0.21935238
255	0xbde10ab0	-0.109883666

fcnn.0.bias f4 [64]
0	0xbd060e6c	-0.032728598
1	0xbdc850bc	-0.09781024
2	0x3dacbe17	0.08434694
3	0x3e5cccc6	0.2156249
4	0xbc71aec2	-0.014751138
5	0xbc2087e8	-0.009798028
6	0xbdecb928	-0.11558753
7	0x3e31483f	0.17312716
8	0xbb0f92d9	-0.0021907596
9	0x3e3b763d	0.18306823
10	0xbd323179	-0.043504212
11	0x3d897438	0.0671162
12	0x3d0121a2	0.031526215
13	0x3e24e631	0.16103436
14	0x3d9e533d	0.0773072
15	0xbd881b27	-0.06645804
16	0xbdf21581	-0.11820508
17	0x3d18906a	0.0372471
18	0x3e3ca25f	0.18421315
19	0x3d813789	0.063094206
20	0xbd4618ee	-0.04836362
21	0x3d17df1d	0.03707801
22	0x3cfdf398	0.030999944
23	0xbe06c858	-0.13162363
24	0xbd951a93	-0.07280459
25	0x3ebc9e41	0.36839488
26	0x3e3eb476	0.18623528
27	0xbb60277e	-0.0034203227
28	0x3e4a98e0	0.1978488
29	0xbdfe4cf9	-0.12417025
30	0xbe2c2166	-0.16809615
31	0x3e7a20bf	0.24426554
32	0xbd75b632	-0.059988208
33	0x3e863643	0.26213273
34	0x3e07230d	0.13196965
35	0x3d4a77f4	0.049430802
36	0x3e216481	0.15760995
37	0x3e496bf5	0.19670089
38	0x3dacca1b	0.08436986
39	0x3e042a01	0.12906648
40	0xbe154138	-0.1457566
41	0xbe64cc5a	-0.22343579
42	0x3ad64b44	0.0016349335
43	0x3e2105b1	0.15724827
44	0x3dbd58dc	0.09245464
45	0x3db55327	0.08853751
46	0x3e0709f3	0.13187389
47	0xbd92dded	-0.07171235
48	0xbd9c4c50	-0.07631743
49	0x3ee36e99	0.44420317
50	0x3e49c078	0.19702327
51	0xbda340fc	-0.07971379
52	0x3e6ff693	0.23433904
53	0x3d810292	0.062993184
54	0x3e5ad092	0.21368626
55	0xbdb8e010	-0.090271115
56	0xbd808f05	-0.06277279
57	0x3d2533c1	0.04033256
58	0x3dd8bf7e	0.10583399
59	0x3e130a64	0.14359432
60	0xbe0450f0	-0.129215
61	0xbe36e305	-0.17860039
62	0x3e23ae5c	0.15984482
63	0x3d1f65d7	0.03891548

fcnn.2.weight f4 [1, 64]
0	0xbf09d623	-0.5384237
1	0xbef6c406	-0.4819643
2	0xbea7dc52	-0.3278528
3	0xbf516684	-0.8179705
4	0x3f8fbe9a	1.1230042
5	0x3e9a334e	0.30117267
6	0xbea943b2	-0.3305946
7	0xbf0ccf04	-0.5500338
8	0x3ec46e50	0.38365412
9	0xbf628820	-0.8848896
10	0x3e9fd573	0.31217536
11	0x3ea639e7	0.3246605
12	0x3eb98644	0.3623525
13	0xbf3cec6c	-0.7379825
14	0xbf36f92f	-0.71473974
15	0xbe97a054	-0.29614508
16	0x3e7b9329	0.24567856
17	0x3ebcc686	0.3687021
18	0x3ea5a4b9	0.32352236
19	0xbf0cacdd	-0.5495127
20	0x3e8f96c5	0.28044716
21	0xbf4acc26	-0.79217756
22	0x3ee9abd2	0.456389
23	0xbe1b4682	-0.15163615
24	0xbe751840	-0.23935032
25	0xbf62e6e9	-0.8863359
26	0x3ea3a979	0.31965235
27	0x3ed383c9	0.41311482
28	0xbec232e6	-0.37929457
29	0xbea4b3b7	-0.32168362
30	0xbe9147f6	-0.28375214
31	0xbf2d63ae	-0.67730224
32	0xbe9bdcd2	-0.3044191
33	0xbe9c8f02	-0.30577856
34	0xbf771fa5	-0.9653266
35	0x3e83fdae	0.2577948
36	0x3e9c6629	0.30546692
37	0xbf31d1c0	-0.6946068
38	0xbf23d4d0	-0.639966
39	0xbf1a5819	-0.60290676
40	0xbeb561cc	-0.35426176
41	0x3eac54e9	0.3365853
42	0x3ed6e2d7	0.4196994
43	0x3e894bcc	0.2681564
44	0x3eb5ae95	0.35484758
45	0x3ed8a458	0.42312884
46	0x3e9ef6e9	0.31047752
47	0x3ef7651c	0.48319328
48	0x3eba7834	0.36419833
49	0xbf985be7	-1.1903046
50	0xbf07c47a	-0.53034174
51	0x3ec74c0a	0.389252
52	0xbf5929c5	-0.8482936
53	0xbf18812f	-0.5957212
54	0xbeacf2f2	-0.33779103
55	0x3ee1175e	0.4396314
56	0x3ebef9ee	0.37300056
57	0x3f8537ba	1.0407631
58	0xbf12770d	-0.5721291
59	0x3f061983	0.5238268
60	0xbe6fbd5b	-0.23412077
61	0xbe760835	-0.24026568
62	0xbe7116fb	-0.23543923
63	0x3ebb41e7	0.36573717

exp_avg f4 [27, 27, 3]
0	0x00000000	0.0
1	0x00000000	0.0
2	0x00000000	0.0
3	0x00000000	0.0
4	0xbd341ef4	-0.04397483
5	0xbe111562	-0.14168313
6	0x3c1c6d65	0.009547566
7	0xbeb9d456	-0.36294812
8	0xba83ed2c	-0.001006519
9	0x00000000	0.0
10	0x3fd442b5	1.6582857
11	0x3f060b9c	0.52361465
12	0x00000000	0.0
13	0xb8cfa7d0	-9.901787e-05
14	0x00000000	0.0
15	0x00000000	0.0
16	0x00000000	0.0
17	0x00000000	0.0
18	0x00000000	0.0
19	0x3be1f25d	0.006895347
20	0x00000000	0.0
21	0xbcc4e4a9	-0.024034815
22	0x80000004	-6e-45
23	0x00000000	0.0
24	0xb896c445	-7.1891154e-05
25	0x00000000	0.0
26	0xbd20dc93	-0.039272856
27	0x00000000	0.0
28	0x3d444237	0.04791471
29	0x00000000	0.0
30	0x00000000	0.0
31	0x00000004	6e-45
32	0x00000000	0.0
33	0x00000000	0.0
34	0xb886ae19	-6.422046e-05
35	0xb6b11ce2	-5.2783735e-06
36	0x00000000	0.0
37	0x00000000	0.0
38	0x00000000	0.0
39	0xb40e1177	-1.3231134e-07
40	0x00000004	6e-45
41	0x00000000	0.0
42	0x00000000	0.0
43	0xbe3bfa4b	-0.18357198
44	0x00000000	0.0
45	0x00000000	0.0
46	0xbf375c2b	-0.7162501
47	0xbe85a67d	-0.26103583
48	0x3c06aae5	0.008219455
49	0x00000000	0.0
50	0x00000000	0.0
51	0x00000004	6e-45
52	0x00000000	0.0
53	0x00000000	0.0
54	0x00000000	0.0
55	0x3c123834	0.008924533
56	0x00000000	0.0
57	0xbf5e11aa	-0.86745703
58	0xbf24c793	-0.64367026
59	0x3a4919b7	0.00076713733
60	0xbd5f062f	-0.054449257
61	0x3f02d3f4	0.51104665
62	0x3cc41fff	0.023941038
63	0x3d104e27	0.035230782
64	0xbf8fd303	-1.1236271
65	0xbe19d37a	-0.15022078
66	0x3b964d59	0.0045868573
67	0x00000000	0.0
68	0x00000000	0.0
69	0x00000000	0.0
70	0xbda9008b	-0.08252057
71	0x00000000	0.0
72	0x80000004	-6e-45
73	0x00000000	0.0
74	0xbf5e11aa	-0.86745703
75	0xc18dd1cf	-17.727446
76	0xc14c59f8	-12.771965
77	0xc15307a7	-13.189368
78	0xc01579df	-2.3355634
79	0x3f29d21f	0.66336244
80	0xbf812c25	-1.0091597
81	0x00000000	0.0
82	0xb9e32f4b	-0.0004333205
83	0x00000000	0.0
84	0x3b243721	0.0025057273
85	0x3cb32050	0.021865994
86	0xbce31c22	-0.027723376
87	0x3e7cc1d7	0.24683319
88	0xbeac5c5c	-0.33664215
89	0x00000000	0.0
90	0x00000000	0.0
91	0xbdb4dbc9	-0.08830983
92	0xbd46972a	-0.048484005
93	0x00000000	0.0
94	0x3dc2a40b	0.09503945
95	0x00000000	0.0
96	0x00000000	0.0
97	0x00000000	0.0
98	0x00000000	0.0
99	0x00000000	0.0
100	0x3d4fb889	0.050713096
101	0x00000000	0.0
102	0x00000004	6e-45
103	0xb9ebc420	-0.00044968817
104	0x00000000	0.0
105	0xb9881383	-0.0002595448
106	0x00000000	0.0
107	0x3ee96efe	0.45592493
108	0xb6553e54	-3.1775753e-06
109	0xba0d2601	-0.0005384386
110	0x00000000	0.0
111	0xacb54140	-5.1515736e-12
112	0x00000004	6e-45
113	0x00000000	0.0
114	0x00000000	0.0
115	0x3d3b57bb	0.045737963
116	0xbc07ac70	-0.008280858
117	0x00000000	0.0
118	0x00000000	0.0
119	0x00000000	0.0
120	0xb0cb3a82	-1.4786823e-09
121	0xba1b1de5	-0.00059172354
122	0x00000000	0.0
123	0x00000000	0.0
124	0xbc4912b4	-0.012272526
125	0x00000000	0.0
126	0xb9e32f4b	-0.0004333205
127	0x3c9a313e	0.018822309
128	0xbef1e23a	-0.4724291
129	0xbd4a5cf1	-0.049405042
130	0x00000000	0.0
131	0x00000000	0.0
132	0x00000004	6e-45
133	0x00000000	0.0
134	0x00000000	0.0
135	0x00000000	0.0
136	0xbaf337c9	-0.0018556054
137	0x00000000	0.0
138	0xbf4adff5	-0.7924798
139	0xbe28fe52	-0.16503266
140	0x00000004	6e-45
141	0xbdf8f031	-0.12155188
142	0x3e0a0b67	0.13480912
143	0xa5c5b348	-3.4295538e-16
144	0x00000000	0.0
145	0xbf075681	-0.5286637
146	0x3e67b463	0.22627406
147	0xbd9874a4	-0.074441224
148	0x00000000	0.0
149	0x00000000	0.0
150	0x00000004	6e-45
151	0xbcafb844	-0.02145017
152	0x00000000	0.0
153	0xb78beaaa	-1.6679365e-05
154	0x00000000	0.0
155	0xbf4adff4	-0.79247975
156	0xc1824d8f	-16.28787
157	0xc18a9759	-17.3239
158	0xc0b4db86	-5.6517973
159	0xc113bcd6	-9.233603
160	0xbf99ab90	-1.2005482
161	0xbf35e9cb	-0.71059865
162	0x00000000	0.0
163	0xbfc71899	-1.5554382
164	0x00000000	0.0
165	0xaf5a8cb2	-1.987697e-10
166	0xbf30fad1	-0.69132715
167	0xbf4b6695	-0.794534
168	0xbfff3c81	-1.9940339
169	0xba03d943	-0.0005029628
170	0xbb4ba5e7	-0.0031074227
171	0x00000000	0.0
172	0xbd84b7c3	-0.06480362
173	0xb98befeb	-0.000266909
174	0x00000000	0.0
175	0x3e3b8821	0.18313648
176	0x00000000	0.0
177	0x00000000	0.0
178	0xbeb72be2	-0.35775667
179	0x00000000	0.0
180	0x00000000	0.0
181	0x3dd093a8	0.10184413
182	0x00000000	0.0
183	0x00000004	6e-45
184	0x3c1c48d7	0.009538851
185	0x00000000	0.0
186	0xad514ed0	-1.1897774e-11
187	0x00000000	0.0
188	0x403b1fe6	2.923822
189	0x2f1b7ae8	1.4140833e-10
190	0x3b0dd108	0.0021639485
191	0x00000000	0.0
192	0x00000004	6e-45
193	0x00000000	0.0
194	0x00000000	0.0
195	0x00000000	0.0
196	0x00000004	6e-45
197	0x3e096ad4	0.13419658
198	0x00000000	0.0
199	0x00000000	0.0
200	0x00000000	0.0
201	0x00000004	6e-45
202	0xbadf3256	-0.0017028551
203	0x00000000	0.0
204	0x00000000	0.0
205	0x3d364641	0.044500593
206	0x00000000	0.0
207	0xbfc7189b	-1.5554384
208	0xbdc771eb	-0.09738525
209	0xbf5a310c	-0.8523109
210	0x00000004	6e-45
211	0xbc4b9a0e	-0.012426866
212	0x00000000	0.0
213	0x40386ad8	2.8815212
214	0x00000000	0.0
215	0x00000000	0.0
216	0x00000000	0.0
217	0xbae158af	-0.0017192567
218	0x00000000	0.0
219	0xc044ba92	-3.0738873
220	0x3e0a6434	0.13514787
221	0x00000004	6e-45
222	0x3faf80a3	1.3711132
223	0x40094231	2.144665
224	0xbf38bae1	-0.72160155
225	0x00000000	0.0
226	0xc03df5ee	-2.9681354
227	0xbfa7913c	-1.3091197
228	0x00000004	6e-45
229	0xbd8a357d	-0.06748483
230	0x00000000	0.0
231	0xafd37c70	-3.8469095e-10
232	0xbd51c83c	-0.05121635
233	0x00000000	0.0
234	0xbf60d041	-0.8781777
235	0x00000000	0.0
236	0xc044ba92	-3.0738873
237	0xc24ea748	-51.66336
238	0xc25bd628	-54.959137
239	0xc24aca2b	-50.69743
240	0x3ef3e2d6	0.47634
241	0xc11856b9	-9.521173
242	0xc04ffe4b	-3.2498958
243	0xbee0b832	-0.4389053
244	0x390dfa2b	0.00013540003
245	0x00000000	0.0
246	0xbd220ad3	-0.039561104
247	0xbe1429ac	-0.14469022
248	0xba697511	-0.0008905689
249	0xbe374977	-0.17899118
250	0xbdc15855	-0.09440676
251	0x00000000	0.0
252	0x3e2498df	0.1607394
253	0x3d9c9397	0.07645338
254	0xbd43f34e	-0.047839455
255	0xbc56d093	-0.013111251

exp_avg_sq f4 [27, 27, 3]
0	0x00000000	0.0
1	0x00000000	0.0
2	0x00000000	0.0
3	0x00000000	0.0
4	0x3d134145	0.035950918
5	0x3e9872c7	0.29775068
6	0x40e77703	7.233278
7	0x406655ce	3.598987
8	0x398da8e7	0.00027019458
9	0x00000000	0.0
10	0x414895cf	12.536574
11	0x3fa1e974	1.2649369
12	0x00000000	0.0
13	0x3bb265e9	0.0054442775
14	0x00000000	0.0
15	0x00000000	0.0
16	0x00000000	0.0
17	0x00000000	0.0
18	0x00000000	0.0
19	0x3fa87cce	1.3163087
20	0x00000000	0.0
21	0x3d343fe1	0.044006232
22	0x36e28597	6.7508768e-06
23	0x00000000	0.0
24	0x34385724	1.7168037e-07
25	0x00000000	0.0
26	0x41363cc0	11.389832
27	0x00000000	0.0
28	0x3d7b5759	0.061362598
29	0x00000000	0.0
30	0x00000000	0.0
31	0x3255a7bb	1.2436369e-08
32	0x00000000	0.0
33	0x00000000	0.0
34	0x360da088	2.1104079e-06
35	0x3782c5e9	1.5589367e-05
36	0x00000000	0.0
37	0x00000000	0.0
38	0x00000000	0.0
39	0x32059b0c	7.7768725e-09
40	0x3515b65a	5.577218e-07
41	0x00000000	0.0
42	0x00000000	0.0
43	0x3fed9c5c	1.8563342
44	0x00000000	0.0
45	0x00000000	0.0
46	0x41017325	8.090611
47	0x41c50828	24.628983
48	0x3c352033	0.01105504
49	0x00000000	0.0
50	0x00000000	0.0
51	0x3255a7bb	1.2436369e-08
52	0x00000000	0.0
53	0x00000000	0.0
54	0x00000000	0.0
55	0x3d5e6adb	0.054301124
56	0x00000000	0.0
57	0x400f3e61	2.2381823
58	0x3fdeee7f	1.7416533
59	0x38085519	3.250418e-05
60	0x42475faf	49.84344
61	0x416d7f7d	14.843625
62	0x3e1fe123	0.15613227
63	0x3d46385b	0.04839359
64	0x411c7c23	9.780307
65	0x417431fe	15.262205
66	0x3cc62560	0.024187744
67	0x00000000	0.0
68	0x00000000	0.0
69	0x00000000	0.0
70	0x3eb052e5	0.34438244
71	0x00000000	0.0
72	0x306d9e64	8.6445184e-10
73	0x00000000	0.0
74	0x400f3e61	2.2381823
75	0x457024a2	3842.2896
76	0x4500d010	2061.004
77	0x45d70c69	6881.5513
78	0x437eee65	254.93123
79	0x41f3e1d1	30.485262
80	0x427fcc7d	63.949696
81	0x00000000	0.0
82	0x3a946a65	0.0011323212
83	0x00000000	0.0
84	0x3caf2fd5	0.021385113
85	0x3cac33a9	0.021020727
86	0x3e9fd5b5	0.31217733
87	0x40f01ff0	7.5038986
88	0x402c2f4a	2.6903863
89	0x00000000	0.0
90	0x00000000	0.0
91	0x400a16cf	2.1576421
92	0x3e73b733	0.23800354
93	0x00000000	0.0
94	0x3e2390d4	0.15973216
95	0x00000000	0.0
96	0x00000000	0.0
97	0x00000000	0.0
98	0x00000000	0.0
99	0x00000000	0.0
100	0x3fb1d07f	1.3891753
101	0x00000000	0.0
102	0x3984db96	0.00025340606
103	0x39e8122a	0.00044264022
104	0x00000000	0.0
105	0x36918af3	4.3375126e-06
106	0x00000000	0.0
107	0x41221b32	10.1316395
108	0x371156a5	8.662847e-06
109	0x3909d7fd	0.000131458
110	0x00000000	0.0
111	0x38137d02	3.5163954e-05
112	0x3693e924	4.4080825e-06
113	0x00000000	0.0
114	0x00000000	0.0
115	0x3c58f7c8	0.013242669
116	0x3d945be3	0.072440885
117	0x00000000	0.0
118	0x00000000	0.0
119	0x00000000	0.0
120	0x38b5fcf8	8.677872e-05
121	0x39d63647	0.000408577
122	0x00000000	0.0
123	0x00000000	0.0
124	0x3e3014e6	0.17195472
125	0x00000000	0.0
126	0x3a946a65	0.0011323212
127	0x3bd4b783	0.006491603
128	0x417efc30	15.936569
129	0x3ecb209b	0.39673313
130	0x00000000	0.0
131	0x00000000	0.0
132	0x3693e924	4.4080825e-06
133	0x00000000	0.0
134	0x00000000	0.0
135	0x00000000	0.0
136	0x39e42898	0.00043517794
137	0x00000000	0.0
138	0x4011f645	2.280656
139	0x3e502290	0.20325685
140	0x367e425e	3.788758e-06
141	0x422bb679	42.928196
142	0x422178a1	40.3678
143	0x37f0523c	2.8648523e-05
144	0x00000000	0.0
145	0x408bdf7e	4.3710318
146	0x41aab35c	21.337578
147	0x3e9f6a75	0.31135908
148	0x00000000	0.0
149	0x00000000	0.0
150	0x360227cb	1.9394672e-06
151	0x3e249625	0.160729
152	0x00000000	0.0
153	0x353f1b21	7.119252e-07
154	0x00000000	0.0
155	0x4011f644	2.2806559
156	0x45804ee0	4105.8594
157	0x45941f27	4739.894
158	0x458e6bf5	4557.4946
159	0x4542de83	3117.907
160	0x421f0223	39.752087
161	0x4261daab	56.463543
162	0x00000000	0.0
163	0x429a0415	77.00797
164	0x00000000	0.0
165	0x3a21dc55	0.00061744946
166	0x4104697e	8.275755
167	0x4133d4eb	11.239482
168	0x42090c42	34.26197
169	0x3bda07da	0.006653768
170	0x3ad785ea	0.0016443108
171	0x00000000	0.0
172	0x424180c3	48.375744
173	0x3ad3fabb	0.0016172746
174	0x00000000	0.0
175	0x4083185b	4.096723
176	0x00000000	0.0
177	0x00000000	0.0
178	0x40ba15e1	5.815171
179	0x00000000	0.0
180	0x00000000	0.0
181	0x416ccc63	14.799899
182	0x00000000	0.0
183	0x342b9ab4	1.5981897e-07
184	0x3bf1d043	0.007379563
185	0x00000000	0.0
186	0x38c49a12	9.374706e-05
187	0x00000000	0.0
188	0x43333691	179.21315
189	0x3a0e48b5	0.00054277043
190	0x3d026b8d	0.03184085
191	0x00000000	0.0
192	0x3648a298	2.9896964e-06
193	0x00000000	0.0
194	0x00000000	0.0
195	0x00000000	0.0
196	0x37f4f9b0	2.9203336e-05
197	0x424feacf	51.979305
198	0x00000000	0.0
199	0x00000000	0.0
200	0x00000000	0.0
201	0x355f6c52	8.32316e-07
202	0x3be65801	0.007029534
203	0x00000000	0.0
204	0x00000000	0.0
205	0x3fd5af96	1.669421
206	0x00000000	0.0
207	0x429a0415	77.00797
208	0x40f71c9f	7.722244
209	0x41d0c61e	26.096737
210	0x36625fb4	3.373233e-06
211	0x3d152f00	0.036421776
212	0x00000000	0.0
213	0x42ed9b17	118.80291
214	0x00000000	0.0
215	0x00000000	0.0
216	0x00000000	0.0
217	0x39bc1910	0.00035876827
218	0x00000000	0.0
219	0x41ebab9a	29.45879
220	0x3d99cab0	0.07509363
221	0x37056e7d	7.953143e-06
222	0x439e707b	316.87875
223	0x43859f14	267.2428
224	0x423260f4	44.59468
225	0x00000000	0.0
226	0x430d9585	141.58406
227	0x4203d4cc	32.95781
228	0x37eb5fd3	2.8058805e-05
229	0x3dea0c58	0.11428136
230	0x00000000	0.0
231	0x34cb0346	3.7814078e-07
232	0x3ed6e6bc	0.4197291
233	0x00000000	0.0
234	0x40fa2910	7.8175125
235	0x00000000	0.0
236	0x41ebab9b	29.458792
237	0x46b72f29	23447.58
238	0x4785708d	68321.1
239	0x471e6791	40551.566
240	0x4225d7b4	41.460648
241	0x44b194cf	1420.6503
242	0x43ce5faa	412.74738
243	0x409ff94d	4.999182
244	0x39ff0300	0.00048639625
245	0x00000000	0.0
246	0x3e8700d8	0.2636783
247	0x3e596702	0.212307
248	0x3dd41250	0.10355055
249	0x408dec97	4.4351306
250	0x3fea8693	1.8322319
251	0x00000000	0.0
252	0x3f41fa82	0.7577287
253	0x3ff7af17	1.9350308
254	0x3f14a4d6	0.5806402
255	0x3c06b7af	0.0082225045

exp_avg f4 [27]
0	0xbf63700f	-0.8884286
1	0xbf4a0c64	-0.78925157
2	0xc007295c	-2.1118994
3	0xbe2174de	-0.15767238
4	0xbf56dd9f	-0.83931917
5	0xbfd52fe4	-1.665524
6	0xbf85419d	-1.0410649
7	0xbfe7c64d	-1.8107392
8	0xc0317e67	-2.77334
9	0xbf4d9ca4	-0.8031714
10	0xc07287cc	-3.7895384
11	0xbf4a5c37	-0.7904696
12	0xbe826f58	-0.25475574
13	0xbf81e26f	-1.0147227
14	0xc0858623	-4.172624
15	0xbf9baf06	-1.2162788
16	0x4024259f	2.5647962
17	0x4050dcfa	3.2634873
18	0xc021b0e7	-2.5264223
19	0xc03741fd	-2.8634026
20	0xbf216b72	-0.63054574
21	0xbf9bd686	-1.2174842
22	0x3f8dbaa3	1.1072582
23	0xc0be8694	-5.953928
24	0x401b6556	2.42806
25	0x409424c5	4.6294885
26	0x40c19b5f	6.050216

exp_avg_sq f4 [27]
0	0x42842b5f	66.08471
1	0x426dcfc8	59.45291
2	0x44307d1f	705.955
3	0x42398710	46.381897
4	0x43a796a4	335.17688
5	0x4380c6ed	257.5541
6	0x43a6284f	332.3149
7	0x441587ce	598.12195
8	0x44db2542	1753.1643
9	0x41a1b23d	20.21203
10	0x453f0751	3056.4573
11	0x42ecf754	118.48306
12	0x42305b30	44.08905
13	0x433ec660	190.7749
14	0x454fb753	3323.4578
15	0x4341cb08	193.79309
16	0x44f9bcfd	1997.9059
17	0x44ea8a75	1876.3268
18	0x4441b098	774.7593
19	0x449782fb	1212.0931
20	0x433bc7ac	187.77997
21	0x43d7c892	431.56696
22	0x432f9be6	175.60898
23	0x45cfec23	6653.517
24	0x4497edfd	1215.4371
25	0x458bb442	4470.532
26	0x46039f54	8423.832

exp_avg f4 [64, 27]
0	0x3e67ffc1	0.22656156
1	0x3f065629	0.5247522
2	0x3e7f207d	0.24914737
3	0x3f1fa724	0.6236441
4	0x3f2b511a	0.66920626
5	0x3db011fa	0.08597179
6	0x3f5295e4	0.82259965
7	0x3d306c66	0.043072127
8	0x3db18d0c	0.08669481
9	0x3f15856b	0.58406705
10	0xbd30d5d5	-0.043172676
11	0x3e386edd	0.18011041
12	0x3f71954f	0.9436845
13	0x3eb64e94	0.35606825
14	0x3deebed3	0.116574906
15	0x3e0bde3b	0.13658993
16	0xbde6eda2	-0.112757936
17	0x3f6d1f2f	0.9262571
18	0x3d581df7	0.05276295
19	0x3e6970cf	0.2279694
20	0x3eed75c0	0.463789
21	0xb8d07914	-9.9407654e-05
22	0x3e2aee53	0.16692476
23	0x3e1f8b87	0.15580569
24	0x3f494a7a	0.7862927
25	0xbdd2c12c	-0.10290751
26	0x3d90845c	0.070564955
27	0xbc2d1bb5	-0.010565688
28	0xbe6af9a6	-0.22946796
29	0xbd6abbc8	-0.05730799
30	0xbe89db7a	-0.2692526
31	0xbdd01de9	-0.10161955
32	0xbe24eb10	-0.16105294
33	0xbe03dd4d	-0.12877388
34	0xbd997c99	-0.07494468
35	0xbd9203a2	-0.07129599
36	0xbeadcbbb	-0.33944497
37	0xbd50610e	-0.05087381
38	0xbc4bb99a	-0.012434388
39	0xbdba4d8e	-0.09096824
40	0xbe5238cf	-0.20529483
41	0xbd57788a	-0.05260519
42	0xbdfc88d7	-0.12330788
43	0xbd72feb5	-0.05932494
44	0xbe5de7fa	-0.21670523
45	0xbdb5a36e	-0.08869062
46	0xbdcef763	-0.10105779
47	0xbdbfcd4b	-0.093653284
48	0xbe5a6b9b	-0.2133011
49	0xbe54b295	-0.20771249
50	0x3d0c7330	0.03428954
51	0xbdc4a14c	-0.096010774
52	0xbde856a8	-0.11344653
53	0xbd147c5a	-0.036251403
54	0x3c0dc1e7	0.008652187
55	0x3c413416	0.011792203
56	0x3bc9966e	0.006151966
57	0x3c9505ab	0.01819118
58	0x3c73c507	0.014878518
59	0x3b7f1dc4	0.0038927654
60	0x3c71e32c	0.014763635
61	0x3b0b9d8b	0.002130362
62	0x3b9a783d	0.0047140406
63	0x3c1d4c90	0.009600773
64	0x39ac12a6	0.0003282029
65	0x3be6f132	0.0070477957
66	0x3c922cb0	0.017843574
67	0x3c189bb2	0.009314464
68	0x3b26c3ff	0.0025446413
69	0x3be46578	0.006970104
70	0x3aa53898	0.0012605367
71	0x3c829bdd	0.015943462
72	0x3b6d6a39	0.0036226644
73	0x3ba87324	0.005140679
74	0x3c5f4d58	0.01362928
75	0x3c09d918	0.008413576
76	0x3c333601	0.0109381685
77	0x3b7dcd17	0.003872698
78	0x3c8f037d	0.017457718
79	0xbaafd44a	-0.0013414708
80	0x3a62bbdd	0.00086492096
81	0x400ae220	2.1700516
82	0x403d6f85	2.9599316
83	0x3fc51673	1.5397476
84	0x4091ea66	4.559863
85	0x406ea70d	3.728946
86	0x3f7a67a5	0.978144
87	0x406ccfb7	3.700178
88	0x3f095c93	0.5365688
89	0x3f9708b9	1.1799537
90	0x401a4bfb	2.4108875
91	0x3da9d313	0.08292212
92	0x3fe21fef	1.7665995
93	0x408f2c8a	4.474187
94	0x40157307	2.3351457
95	0x3f23591a	0.63807833
96	0x3fdfe19d	1.7490727
97	0x3ea1e8da	0.31622964
98	0x408000a9	4.0000806
99	0x3f688f7d	0.90843946
100	0x3fa4e888	1.2883463
101	0x405a9c8c	3.4158049
102	0x4006acaa	2.1042886
103	0x4030262f	2.7523305
104	0x3f79409a	0.973642
105	0x408c1d57	4.3785815
106	0xbeaa6a66	-0.332843
107	0x3e604e45	0.21904857
108	0xc038cb6b	-2.8874156
109	0xc04acc6d	-3.1687272
110	0xc01a96e3	-2.4154594
111	0xc0abb562	-5.3658915
112	0xc0880f9e	-4.2519064
113	0xbfe65fff	-1.7998046
114	0xc08413c5	-4.1274133
115	0xbf6cdaef	-0.92521566
116	0xbfdc61db	-1.7217363
117	0xc00a73b3	-2.1633117
118	0xbf3caf3b	-0.7370488
119	0xc015668f	-2.3343847
120	0xc09e20a3	-4.941484
121	0xc03a7395	-2.9133046
122	0xbe524624	-0.20534569
123	0xc0167727	-2.3510225
124	0x3ecd3603	0.4008027
125	0xc0b8134c	-5.7523556
126	0xbfda42b5	-1.7051607
127	0xbf8e0a33	-1.1096863
128	0xc088bec8	-4.2732887
129	0xc0461549	-3.0950491
130	0xc07e91ac	-3.977641
131	0xbfcc1420	-1.5943642
132	0xc0b2dac3	-5.5892043
133	0xbeb74dba	-0.35801488
134	0x3f5fa535	0.8736146
135	0xbf4b5aec	-0.7943561
136	0xbf8a9a6c	-1.0828376
137	0xbf109f32	-0.5649291
138	0xbfd5d419	-1.6705352
139	0xbfaee3aa	-1.3663228
140	0xbeb6f703	-0.3573533
141	0xbfad85aa	-1.3556416
142	0xbe481ac2	-0.19541457
143	0xbedd9cc2	-0.4328366
144	0xbf61a460	-0.8814144
145	0xbcf70ee6	-0.030158471
146	0xbf25a7ef	-0.6470937
147	0xbfd1b6b0	-1.6383877
148	0xbf5afafd	-0.8553923
149	0xbe6f28af	-0.23355363
150	0xbf23d5b3	-0.63997954
151	0xbded037c	-0.1157293
152	0xbfbb74f5	-1.4645067
153	0xbeaa3e99	-0.33250883
154	0xbef19c1d	-0.47189417
155	0xbfa03562	-1.2516291
156	0xbf45fae8	-0.7733598
157	0xbf809e62	-1.0048335
158	0xbeb615ca	-0.355635
159	0xbfcd3a33	-1.6033386
160	0x3dfb6e65	0.122769155
161	0xbda2ee4a	-0.07955606
162	0x3c0eef95	0.008724113
163	0x3c42cd71	0.011889801
164	0x3bcb4378	0.0062031113
165	0x3c96427b	0.018342247
166	0x3c75cbab	0.0150021715
167	0x3b80a11e	0.0039254567
168	0x3c73e49c	0.014886048
169	0x3b0ccab5	0.0021483127
170	0x3b9bc2df	0.004753455
171	0x3c1e9a90	0.009680405
172	0x39ad822e	0.00033094123
173	0x3be8dcbd	0.007106392
174	0x3c9362e1	0.017991485
175	0x3c19dffb	0.00939178
176	0x3b28295e	0.0025659422
177	0x3be64c42	0.0070281336
178	0x3aa69736	0.0012709859
179	0x3c83ae9a	0.016074467
180	0x3b6f6e66	0.0036534308
181	0x3ba9dab6	0.005183543
182	0x3c61270f	0.013742222
183	0x3c0b01fd	0.008484361
184	0x3c34ad81	0.011027695
185	0x3b7fe957	0.0039048993
186	0x3c9030df	0.017601429
187	0xbab15cca	-0.0013531682
188	0x3a647fe5	0.00087165675
189	0x3fb72ea2	1.4311106
190	0x3ff8d2b0	1.9439297
191	0x3f8471df	1.0347251
192	0x40419391	3.0246317
193	0x401df305	2.4679577
194	0x3f218592	0.6309444
195	0x401d384b	2.4565609
196	0x3eae6414	0.3406073
197	0x3f49756e	0.7869481
198	0x3fc97c32	1.5741026
199	0x3d618ef4	0.05506797
200	0x3f95d246	1.1704795
201	0x403dccc2	2.9656224
202	0x3fc6bc98	1.5526304
203	0x3ed2bf0b	0.4116138
204	0x3f9304a3	1.148579
205	0x3e5a4873	0.213167
206	0x402a9d98	2.6658688
207	0x3f170753	0.5899555
208	0x3f59f8d0	0.8514528
209	0x4011531b	2.2706974
210	0x3fb4388b	1.4079756
211	0x3fe5bbcb	1.7947935
212	0x3f226ac4	0.6344416
213	0x403a5a01	2.9117434
214	0xbe6968e7	-0.22793923
215	0x3e1210c3	0.14264207
216	0xbf81a934	-1.0129762
217	0xbfb0bbba	-1.380729
218	0xbf385f06	-0.72019994
219	0xc0084dbd	-2.1297448
220	0xbfdef427	-1.7418259
221	0xbee95620	-0.4557352
222	0xbfdd3e2b	-1.7284597
223	0xbe7f650f	-0.24940895
224	0xbf0d44b6	-0.5518297
225	0xbf8fe209	-1.1240855
226	0xbd1d7bdb	-0.038448196
227	0xbf533b43	-0.825123
228	0xc005b34e	-2.089069
229	0xbf8b9576	-1.0904987
230	0xbe98887f	-0.29791638
231	0xbf50e98f	-0.8160638
232	0xbe172b7f	-0.14762686
233	0xbfeef83f	-1.8669509
234	0xbed9166c	-0.4239992
235	0xbf1a1138	-0.60182524
236	0xbfcc3eb4	-1.5956635
237	0xbf7c1542	-0.98469937
238	0xbfa3fc3e	-1.2811353
239	0xbee82028	-0.45337033
240	0xc002d4f4	-2.0442476
241	0x3e208f83	0.15679745
242	0xbdcfb86f	-0.101426
243	0x4015f37f	2.3429868
244	0x404c74ef	3.194637
245	0x3fd50fd4	1.6645455
246	0x409d995f	4.924972
247	0x4080df45	4.0272546
248	0x3f86ec4a	1.054086
249	0x407fcd40	3.9969025
250	0x3f13d318	0.5774398
251	0x3fa3416d	1.2754341
252	0x40267109	2.600649
253	0x3db662b0	0.08905542
254	0x3ff44082	1.9082186
255	0x409a979b	4.8310065

exp_avg_sq f4 [64, 27]
0	0x40482a91	3.127598
1	0x41556efe	13.339598
2	0x3f98a9ae	1.1926782
3	0x419254d1	18.291414
4	0x4147ecf7	12.495353
5	0x3ebf6f91	0.37389806
6	0x41477bfc	12.46777
7	0x3f5783fd	0.84185773
8	0x3fb80622	1.4376872
9	0x41040665	8.251561
10	0x3e86349e	0.2621202
11	0x3ffb8f0b	1.9653028
12	0x41884e92	17.038364
13	0x40c98685	6.297671
14	0x3fb3112c	1.3989615
15	0x4057469c	3.3636847
16	0x3f4e8741	0.8067513
17	0x41d8a6d1	27.081453
18	0x3e93aa57	0.28840896
19	0x402bba56	2.683248
20	0x413c576a	11.771341
21	0x3f1d3b23	0.6141836
22	0x41a451be	20.539913
23	0x3faa5054	1.3305764
24	0x41cbfb0e	25.497585
25	0x3ec9e794	0.39434493
26	0x3f05acc0	0.5221672
27	0x3f89bd69	1.0760928
28	0x409a8f7b	4.8300147
29	0x3eab774f	0.33489463
30	0x411a6ff5	9.652333
31	0x4015ce3b	2.3407123
32	0x40d7fa23	6.7492843
33	0x40121258	2.2823696
34	0x3e84820d	0.2588047
35	0x3f26b818	0.65124655
36	0x40694473	3.6448028
37	0x3f0908cd	0.53529054
38	0x3f378bcd	0.71697694
39	0x403bf22a	2.9366555
40	0x40416ba0	3.022194
41	0x3daa7d76	0.08324711
42	0x403abd9f	2.9178236
43	0x3dfe0fc2	0.12405349
44	0x41083785	8.513555
45	0x40a7d06d	5.2441926
46	0x3e8c87ee	0.27447456
47	0x4000eff4	2.0146456
48	0x4123c708	10.236092
49	0x4124cfee	10.300764
50	0x3da94ab2	0.082662
51	0x405f2b29	3.4870093
52	0x40bcd718	5.9012566
53	0x3cb1a9be	0.021687385
54	0x3b06219b	0.0020466808
55	0x3bad6b41	0.0052923267
56	0x3a0b8637	0.0005322429
57	0x3c055756	0.008138498
58	0x3b9d4438	0.004799392
59	0x3a8f72b7	0.0010944222
60	0x3b9d52f7	0.00480115
61	0x39f799cb	0.00047226096
62	0x3a4c74b1	0.0007799371
63	0x3b6bef8c	0.0036000935
64	0x3971f263	0.00023073847
65	0x3a9762fc	0.0011549885
66	0x3bd70901	0.0065623526
67	0x3b178c6a	0.0023124465
68	0x39c71cc2	0.00037977664
69	0x3aeee875	0.0018227237
70	0x39521fb4	0.00020038971
71	0x3c180bed	0.009280187
72	0x3a28da90	0.000644126
73	0x3a4c86bf	0.0007802061
74	0x3b93fb39	0.004516032
75	0x3a91e379	0.0011130414
76	0x3c23d267	0.009998894
77	0x39d0206c	0.00039697008
78	0x3c259d61	0.010108323
79	0x3a31022c	0.0006752338
80	0x3955060f	0.0002031552
81	0x42fa3d18	125.11932
82	0x43a1dec9	323.7405
83	0x4202991b	32.649517
84	0x43f90b15	498.08658
85	0x4392e268	293.7688
86	0x42859c8c	66.805756
87	0x43931f4d	294.24454
88	0x41e55a03	28.668951
89	0x423ebc45	47.683857
90	0x435c441e	220.26608
91	0x4160d6b5	14.052419
92	0x428d6c98	70.7121
93	0x43c90cd5	402.10025
94	0x430d92c3	141.57329
95	0x41b97b19	23.185106
96	0x42deb2fe	111.349594
97	0x41430b36	12.190237
98	0x440e716e	569.77234
99	0x421d6cdc	39.356308
100	0x423e2eec	47.545822
101	0x4389e2da	275.77228
102	0x42881886	68.0479
103	0x4419abb5	614.6829
104	0x41c1acc9	24.209368
105	0x441b3c8e	620.94617
106	0x4224e5d4	41.22444
107	0x4145ced0	12.362991
108	0x43317c42	177.48538
109	0x43e386a0	455.05176
110	0x423c245f	47.03552
111	0x442d9dbd	694.46466
112	0x43c9f147	403.88498
113	0x42c3bdd9	97.8708
114	0x43ca5119	404.63358
115	0x421e9231	39.642765
116	0x4280369b	64.10665
117	0x4394b2e6	297.39764
118	0x4195ff00	18.749512
119	0x42cb1d27	101.55694
120	0x440a1b6a	552.42834
121	0x434d50e7	205.31602
122	0x41e67fda	28.812428
123	0x431b63cc	155.38983
124	0x40f829b4	7.7550907
125	0x4446096f	792.1474
126	0x426d5cbf	59.340572
127	0x4280c9db	64.39425
128	0x43c12da3	386.35654
129	0x42cfdfce	103.93712
130	0x445cafad	882.74493
131	0x420c402c	35.062668
132	0x445eba95	890.91534
133	0x426503ec	57.25383
134	0x40e89765	7.268481
135	0x41528ebc	13.159847
136	0x420863ed	34.097584
137	0x40606cea	3.5066476
138	0x42526d28	52.606598
139	0x41f96033	31.171972
140	0x40dd7256	6.920207
141	0x41fcbbff	31.591795
142	0x403a6813	2.9126022
143	0x409e473b	4.946195
144	0x41b9bdb3	23.217627
145	0x3fb4da63	1.4129146
146	0x40f18fda	7.54881
147	0x422bbbd9	42.933445
148	0x4170dd1d	15.053983
149	0x401c58d2	2.4429212
150	0x413aa39e	11.664946
151	0x3f9ed1cb	1.2407774
152	0x42750657	61.25619
153	0x4084c43a	4.1489534
154	0x409fff77	4.9999347
155	0x41e52a57	28.645674
156	0x40e4d28e	7.1507025
157	0x4285307c	66.594696
158	0x401fe2e4	2.4982233
159	0x4285fc7a	66.99312
160	0x408a17bb	4.315397
161	0x3fa32117	1.2744473
162	0x3b0da7af	0.002161484
163	0x3bb7072a	0.005585571
164	0x3a12c594	0.00055988994
165	0x3c0ca9af	0.008585378
166	0x3ba5d6a1	0.005060986
167	0x3a97cc31	0.001158124
168	0x3ba59f43	0.005054386
169	0x3a03b809	0.0005024677
170	0x3a581485	0.0008242804
171	0x3b78e782	0.0037979786
172	0x39805617	0.00024478204
173	0x3a9f9398	0.0012174724
174	0x3be27766	0.006911206
175	0x3b1fc9fe	0.0024381871
176	0x39d263a8	0.0004012857
177	0x3afc75d8	0.0019261194
178	0x395ef1be	0.00021261626
179	0x3c1fcc1b	0.009753252
180	0x3a325754	0.0006803174
181	0x3a58880b	0.0008260018
182	0x3b9c894b	0.004777109
183	0x3a9a0adf	0.0011752507
184	0x3c2bf81e	0.0104961675
185	0x39dc29f9	0.00041992942
186	0x3c2df8b8	0.010618381
187	0x3a3b29f3	0.0007139735
188	0x3960ff72	0.00021457465
189	0x425fd472	55.957466
190	0x4310b521	144.70753
191	0x4169bd86	14.60877
192	0x435eb1f4	222.69513
193	0x430361e3	131.38237
194	0x41ee8d9e	29.819149
195	0x4303a969	131.66176
196	0x414c79c7	12.779731
197	0x41aa863a	21.31554
198	0x42c4dd2b	98.43197
199	0x40c8d219	6.2756467
200	0x41fd1c5e	31.638851
201	0x4333d032	179.81326
202	0x427d3183	63.29835
203	0x41257f27	10.343543
204	0x42471109	49.766636
205	0x40ae61ca	5.449437
206	0x437f054f	255.02074
207	0x418c7eb7	17.561872
208	0x41a9e0b9	21.234728
209	0x42f68d29	123.2757
210	0x41f38ae8	30.442825
211	0x438985a8	275.0442
212	0x412cc8ff	10.799071
213	0x438af944	277.9474
214	0x41937cd6	18.435955
215	0x40b0ec1f	5.5288234
216	0x41d5d692	26.72977
217	0x428a54ee	69.16588
218	0x40df8845	6.9853845
219	0x42d4dc51	106.430305
220	0x427b3560	62.802124
221	0x41641814	14.255878
222	0x427bd99a	62.9625
223	0x40c3a30a	6.113652
224	0x4122c8cc	10.174023
225	0x423c4673	47.068798
226	0x403f7826	2.9917083
227	0x4171fae6	15.1237545
228	0x42abff3e	85.99852
229	0x41f2258c	30.268333
230	0x409ea623	4.9577804
231	0x41be455e	23.78387
232	0x40265074	2.5986605
233	0x42f3cd57	121.901054
234	0x41069afd	8.412839
235	0x4122a41c	10.165066
236	0x426b6c69	58.85587
237	0x41689c01	14.538087
238	0x43038d48	131.55188
239	0x40a57ae7	5.1712527
240	0x4304de75	132.86897
241	0x410ce005	8.804692
242	0x4028bd43	2.6365516
243	0x431a85a4	154.52203
244	0x43c7e85e	399.81537
245	0x42203054	40.047195
246	0x44199df5	614.4681
247	0x43b50cf0	362.10107
248	0x42a5b36c	82.85043
249	0x43b4d59e	361.66888
250	0x420eba69	35.68204
251	0x426b83fd	58.878895
252	0x4388128f	272.145
253	0x418bdab8	17.481796
254	0x42ae1034	87.03165
255	0x43f78b92	495.0904

exp_avg f4 [64]
0	0x3e384e47	0.1799861
1	0xbc829d6f	-0.01594421
2	0x3b08f73e	0.002089932
3	0x3f077e2f	0.52926916
4	0xbda0e289	-0.07855708
5	0xbe447196	-0.19183955
6	0x3b0a13e8	0.0021068994
7	0x3ea8c23d	0.32960692
8	0xbe7abba8	-0.24485648
9	0x3f117b90	0.56829166
10	0xbe4ba502	-0.19887164
11	0xbe53eaee	-0.20695087
12	0xbe6ca7dc	-0.23110908
13	0x3ed887be	0.42291063
14	0x3ece9b8c	0.40353048
15	0x3af7446a	0.0018864993
16	0xbe200ce3	-0.15629916
17	0xbe70d0c4	-0.23517138
18	0xbe531d33	-0.20616607
19	0x3ea11dec	0.3146814
20	0xbe36d4c4	-0.17854601
21	0x3f0251c0	0.5090599
22	0xbe952617	-0.29130623
23	0x3a806eec	0.0009798682
24	0x3ac792b3	0.0015226215
25	0x3da2f7cd	0.079574205
26	0xbe509ed7	-0.20373093
27	0xbe870582	-0.2637139
28	0x3b1e96b3	0.002419871
29	0x3b065ad9	0.0020500927
30	0x3aecd53f	0.0018068923
31	0x3edef959	0.43549612
32	0x3afe31f5	0.001939355
33	0x3aff6ee0	0.0019487999
34	0x3d5f8efe	0.054579727
35	0xbe281aa7	-0.16416417
36	0xbe473e6c	-0.19457406
37	0x3deb59c0	0.11491728
38	0x3ed2957f	0.4112968
39	0x3ec676a8	0.38762403
40	0x3b140b70	0.0022589825
41	0xbe5bc092	-0.21460178
42	0xbe892ebb	-0.26793465
43	0xbe2ed9f6	-0.17075333
44	0xbe67a72a	-0.22622362
45	0xbe8a4bfd	-0.270111
46	0xbe4a86c4	-0.19777972
47	0xbe9e0a93	-0.30867442
48	0xbe6dded6	-0.23229536
49	0xbfa94cc3	-1.3226551
50	0x3ea1b97c	0.31586826
51	0xbe7e48da	-0.24832478
52	0x3f0853ee	0.53253067
53	0x3ebffb0b	0.37496218
54	0x3b0d13b7	0.0021526644
55	0xbe8fb40f	-0.2806706
56	0xbe739af2	-0.23789576
57	0x3e009af4	0.1255911
58	0x3eb38fca	0.3507064
59	0xbeab6646	-0.33476466
60	0x3ac32464	0.0014888165
61	0x3ac866bb	0.0015289405
62	0x3ac438b6	0.0014970514
63	0xbe6ee21f	-0.23328446

exp_avg_sq f4 [64]
0	0x3f9c8fec	1.2231421
1	0x3e0fb1c1	0.14032651
2	0x3a2b50b6	0.0006535159
3	0x421e9407	39.644558
4	0x424cfae5	51.245014
5	0x408507d4	4.1572056
6	0x3a339e3d	0.00068518874
7	0x418db762	17.714542
8	0x41077d23	8.468051
9	0x42444812	49.07038
10	0x40b8685c	5.762739
11	0x40c9008b	6.2813163
12	0x40f705d8	7.7194633
13	0x4206b490	33.67633
14	0x41f3b187	30.461683
15	0x3a1130cc	0.00055385823
16	0x406f02bc	3.734542
17	0x4100820e	8.031752
18	0x40d25fbc	6.5741863
19	0x418afaa7	17.372389
20	0x409a76a8	4.8269844
21	0x421b7864	38.86757
22	0x41471417	12.442405
23	0x3983e0a4	0.00025153637
24	0x39b0d97f	0.00033731383
25	0x41060063	8.375094
26	0x40bd2365	5.9105706
27	0x41257b04	10.342533
28	0x3a67534f	0.00088243646
29	0x3a2553ed	0.00063067564
30	0x3a0377f1	0.0005015126
31	0x41e2c2d0	28.345123
32	0x3a14d399	0.00056772825
33	0x3a114fa3	0.0005543178
34	0x3f2dfcc5	0.6796382
35	0x40742994	3.8150377
36	0x40ba9249	5.830357
37	0x3ebdfcd5	0.37106958
38	0x41c43632	24.526463
39	0x41abd616	21.479534
40	0x3a4647f8	0.0007563825
41	0x40d16adf	6.544296
42	0x41282054	10.507893
43	0x4087d129	4.2442822
44	0x40f6ed9e	7.716506
45	0x412be62a	10.743692
46	0x40bfb6a1	5.9910436
47	0x4157bacd	13.483106
48	0x40febd5f	7.9606166
49	0x4196ade3	18.834906
50	0x41853c3f	16.654417
51	0x4110dab0	9.0533905
52	0x422ff25d	43.986683
53	0x41a7645e	20.924007
54	0x3a3f4676	0.0007296571
55	0x413ed275	11.926381
56	0x4107b347	8.481269
57	0x4235e5f0	45.47455
58	0x419a694d	19.301416
59	0x4180d1a7	16.10237
60	0x39aa7e34	0.00032518955
61	0x39afc088	0.00033522048
62	0x39a73269	0.0003189028
63	0x4104455d	8.266934

exp_avg f4 [1, 64]
0	0x3d471fc9	0.048614297
1	0x3e45c01f	0.1931157
2	0x3d847fb5	0.06469671
3	0x3e6fbfd1	0.23413016
4	0xc09c3221	-4.8811193
5	0xbff0f0ba	-1.8823464
6	0x3d901926	0.07036047
7	0xbf83da23	-1.0300945
8	0xc0bb2a82	-5.848939
9	0xbf4432cf	-0.7664003
10	0xc0d8a696	-6.770335
11	0xc09fbe73	-4.991998
12	0xc0b72ce1	-5.7242284
13	0xbfab2d5c	-1.3373218
14	0x3eb5cdd1	0.35508588
15	0x3d95a0b2	0.07306041
16	0xc0e11d14	-7.0347996
17	0xc0ae6b38	-5.450588
18	0xc100b4d5	-8.044148
19	0xbe75bed7	-0.23998581
20	0xc100d930	-8.053024
21	0xbf3c7469	-0.7361513
22	0xc0c6a9ad	-6.2082124
23	0x3c5879a7	0.013212598
24	0x3da6bd98	0.08141631
25	0x3f071b4d	0.5277603
26	0xc0c2f165	-6.091967
27	0xc0a5f338	-5.18594
28	0x3d7427b4	0.059608176
29	0x3d70365c	0.05864559
30	0x3d9c0ef2	0.07620038
31	0xbfc9eca0	-1.5775337
32	0x3d98e878	0.07466215
33	0x3d9c1a5a	0.07622214
34	0x3e67b827	0.22628842
35	0xc09f9ab0	-4.9876328
36	0xc0e0b4ac	-7.0220547
37	0x3e59b25e	0.21259448
38	0xbe4ff8d6	-0.20309767
39	0xbea87bc6	-0.32906932
40	0x3d82d206	0.06387715
41	0xc0dbeadc	-6.8724194
42	0xc0a1a0cc	-5.0508785
43	0xc0d1551f	-6.5416408
44	0xc0bc6c4c	-5.88822
45	0xc0a9163b	-5.2839637
46	0xc0bba9a0	-5.864456
47	0xc0a5f89e	-5.186599
48	0xc0c908cc	-6.282324
49	0x3f9e5235	1.2368838
50	0xbfa668ab	-1.3000692
51	0xc0adf731	-5.4364247
52	0xbf1aa9ec	-0.6041553
53	0xbf8132c6	-1.009362
54	0x3d8ae89d	0.06782649
55	0xc0c042ea	-6.008168
56	0xc0c87ffd	-6.2656236
57	0xc0b39237	-5.6115985
58	0xbfa0be7f	-1.2558135
59	0xc07b86cc	-3.9301023
60	0x3da7cdf3	0.081935786
61	0x3d8cb58c	0.06870565
62	0x3d8dd30e	0.06925021
63	0xc0c03817	-6.006847

exp_avg_sq f4 [1, 64]
0	0x3df46a5c	0.11934349
1	0x3ebf862a	0.37407047
2	0x3da7a07b	0.08184906
3	0x430c753b	140.45793
4	0x4300248f	128.1428
5	0x423403eb	45.003826
6	0x3deef2a2	0.11667372
7	0x436681e9	230.50746
8	0x4426536e	665.3036
9	0x437b905a	251.56387
10	0x446df1ba	951.777
11	0x4423c022	655.0021
12	0x442dbca2	694.9474
13	0x435c6852	220.4075
14	0x4285d5d0	66.9176
15	0x3e10f888	0.14157307
16	0x449f0afe	1272.3435
17	0x4413eabc	591.6677
18	0x44cca85c	1637.2612
19	0x433daf65	189.68513
20	0x44ba1ba6	1488.864
21	0x43726640	242.39941
22	0x441edad4	635.4192
23	0x3c34672f	0.011010929
24	0x3e121eb3	0.14269523
25	0x410c6a19	8.775903
26	0x44419978	774.39795
27	0x442687ec	666.1238
28	0x3d94ce7e	0.07265948
29	0x3dabf416	0.08396165
30	0x3e152dba	0.14568225
31	0x43425b19	194.35585
32	0x3e12d6cc	0.14339751
33	0x3df6bf00	0.12048149
34	0x3ed23bb9	0.4106119
35	0x44551f4e	852.48914
36	0x4494a005	1189.0006
37	0x3f6f03fb	0.9336545
38	0x43c2ce1f	389.61032
39	0x430d7ba3	141.48296
40	0x3d9f3c92	0.07775225
41	0x4444a738	786.6128
42	0x440bd74c	559.364
43	0x4481bdba	1037.929
44	0x44476027	797.5024
45	0x440b8529	558.0806
46	0x446336a7	908.85394
47	0x43d8a11b	433.25864
48	0x4444adca	786.71545
49	0x403f3701	2.9877322
50	0x4396ffed	301.99942
51	0x44219021	646.252
52	0x4356b4f1	214.7068
53	0x43903001	288.37503
54	0x3dc7e7aa	0.09760983
55	0x444e9290	826.29004
56	0x444ca7b1	818.6202
57	0x43279f01	167.62111
58	0x438bdb8e	279.71527
59	0x439696fe	301.17963
60	0x3e1eaf66	0.15496597
61	0x3de26ea4	0.11056259
62	0x3dcbf3f9	0.099586435
63	0x44520e3a	840.2223
