src/hero/experiments/justification/models/[all] MediumBTCNN_SmallFCNN_1.pth (torch, 284494 bytes, 21 tensors)

btcnn.layers.0.conv1d.weight f4 [128, 27, 3]
00000000: 820e 44bd ce96 923c 4dd7 8fbd c099 d93d
00000010: 6d69 113e db61 343d 3015 af3d 4b14 233d
00000020: cad4 853d 3638 a1bd c31c 253e d46b 4abd
00000030: df0f 633c 3435 903d 83e0 1fbd 1996 1b3e
00000040: cb40 653e e4c6 a9bd 93a3 973c 4a5e 913d
00000050: a547 ecbd 7ca2 24bd da2e 17bb 9254 a4bd
00000060: d3ac 863d 93f4 a4bc 39fe 3c3d beac 64bb
00000070: b412 bf3d 1b4f f43c 03e0 193e 5735 473d
00000080: d157 953d 5ad5 fc3d 356a 22bd fc61 6ebd
00000090: 26c1 f23d 60ca a83d e0c6 af3c 1751 f6bd
000000a0: 8c92 343c d185 d5bd ac57 97bd baf9 adbd
000000b0: 21ab d93b 5082 0a3e 0cff 2abd 0af1 34bd
000000c0: 2809 10be 28c2 873d bf86 423c ecc4 b83c
000000d0: a1ed f63d 70cd a93c 1f77 cdbc 831f 85bb
000000e0: 8a0c 8c3d 631b f73d d233 2dbd 9b82 ca3d
000000f0: 9bff a73d f3e8 1d3d c5cf 81bc ca15 babd
00000100: 0cef 68bd e273 433d 91ab 173e b8d4 5ebd
00000110: 417a b43c b8bc 6dbd bfb5 ca3c 8038 1abc
00000120: 02c3 cabd eb69 03bd 3d29 54bc adba 1e3e
00000130: f79b fe3d 64fd 7c3d 5f37 b93d 8470 b83d
00000140: 2676 503d 38bc 7abc c619 16bd 4494 d8bc
00000150: 674c aa3d b2d1 12bb db74 b1bd 2b68 e73d
00000160: e032 063e 356c 47bd 923a cebd 2d62 d73d
00000170: db25 d93d 4fcf 913c d6de 8abd bb74 983d
00000180: cae6 6c3c e2c3 273e 7981 92bb 4e44 1f3d
00000190: 5413 763d c59e b3bd 50f2 dd3d e4ae c4bd
000001a0: b33a bf3d 2bc2 ad3d cc45 c93d cb8e 3b3c
000001b0: dd41 59bd 93a3 a83d cfbd 0f3e 8707 303e
000001c0: 194d f73d e08d 263d 1237 283e fb58 a43c
000001d0: 249f 033e 05e2 0bbd 243a 0e3c 9de3 b3bc
000001e0: 8d7b aabd ef65 f43c c272 0fbd 6c28 cbbd
000001f0: bd8d a9bd c5f6 563d d730 a2bb 302e 8d3d
00000200: 8031 c4bd 926a 82bc 256f ae3d 8c77 a23b
00000210: df9b e43d 3a0e 133d 58fb 8ebd e9ca 87bc
00000220: ac1c 8abd eb4d 873c c775 b33c 2eca 48bc
00000230: 63e8 053e 7786 4cbd d411 953c 7549 373d
00000240: 4118 853c 12c9 7ebd beac e33d 8623 ab3c
00000250: 4ef8 69bd 96bd 753c 8035 ff3c 20d6 713b
00000260: 0911 29bd cb9a 92bd 1e5a 1fbc d4e0 bc3d
00000270: 4f72 113e ca24 a63d 9cd4 5ebd 0ba1 ba3d
00000280: 7790 bb3c 6ca3 153e 9431 373c ebdf d53d
00000290: 492e ff3d 97cb d23d 3573 d53d 3f46 7c3c
000002a0: ac49 30bc ff1e dcbc 41e7 8ebd 1ff3 ef3d
000002b0: 84a4 cb3b f208 9bbd 94f0 7abd 5f50 6a3d
000002c0: 1352 dd3d 65b3 103d bb00 383e fb5b a5bd
000002d0: d473 f93d 9680 cfbd 1dea ffbc 043c ff3b
000002e0: 7224 c4bd 31ba 083b 86ab 16bd 0938 633d
000002f0: e1df 733d 7612 40bd 75f7 01be 8cbb ae3d
00000300: f4b6 623b 4387 4c3d 7ca2 023d d1e3 a13d
00000310: cb41 a2bd 8eeb 913d 1507 e0bd b215 18bc
00000320: 1ee8 06be ece3 d63d 651d bc3d 32bd cb3b
00000330: fcd1 a9bb ea09 8c3d b07b 5abd b362 373d
00000340: 94a7 70bd fdde dbbd ad05 e5bd 329e 023e
00000350: c693 87bd e041 20bc a669 b2bd b55a 303d
00000360: 7173 68bd 5f85 d63d 20f8 143e a9d7 14bd
00000370: e585 39bd 5bc5 aebc b55b fa3c 16af 02be
00000380: 85f9 03be 9568 cf3d ea05 933d 7e7a 89bd
00000390: 2dd7 ac3c 2b56 68bd 6a54 aabd 04ec fe3d
000003a0: 5ea2 45bd cafb a63d 06a5 26bd 7d2c 8ebd
000003b0: 3171 0cbe 8ce4 69bd efbb 28bd d4da d6bd
000003c0: fafa e33d 4505 543d 2637 ae3c 7b2b bbbc
000003d0: 1d15 a2bc 6042 3abe dbc7 20be 5f7b cdbc
000003e0: df2b fdbc 9112 35be da22 5a3d eb1d 0bbe
000003f0: c04f 113e b940 b53c 2db4 12bc 37dd cc3d
-0.0478654 0.017894175 -0.07023487 0.106250286 0.14200373 0.044038635 0.08548963 0.039814275
0.06534727 -0.078720495 0.16124253 -0.04941924 0.013858764 0.07041398 -0.03903247 0.15193976
0.22387998 -0.082898885 0.018510615 0.07098062 -0.115371026 -0.04019402 -0.0023068697 -0.08023943
0.06575932 -0.020136153 0.046140883 -0.0034893001 0.09329739 0.029822877 0.1502686 0.048634853
0.0729214 0.12345381 -0.03965207 -0.058198914 0.118532464 0.08241725 0.021457136 -0.120271854
0.011021268 -0.10425914 -0.07389769 -0.08494897 0.0066427146 0.13526273 -0.041747138 -0.044175185
-0.14065993 0.06628829 0.011872946 0.022554837 0.12057043 0.020727843 -0.025081215 -0.0040625944
0.06838329 0.120657705 -0.042285748 0.09888192 0.0820305 0.038552236 -0.015846143 -0.09086187
-0.056868598 0.047717936 0.14811541 -0.054402083 0.022030951 -0.058041304 0.024744866 -0.009412885
-0.09900476 -0.032083433 -0.012949285 0.15500899 0.12432092 0.06176509 0.09043764 0.09005836
0.050893925 -0.015303664 -0.036645673 -0.026437886 0.08315354 -0.002240282 -0.086648665 0.11299165
0.13105345 -0.04868718 -0.10069765 0.105167724 0.106029235 0.017799048 -0.06780784 0.074441396
0.014459321 0.16383317 -0.0044710007 0.0388835 0.060077026 -0.08770517 0.10837233 -0.0960367
0.09337368 0.084843 0.09827766 0.011447619 -0.053041328 0.08234324 0.1403725 0.17190371
0.12075252 0.040662646 0.16427258 0.02006196 0.12853676 -0.034151096 0.008680854 -0.02195912
-0.08324347 0.029833762 -0.03502155 -0.09919819 -0.082789876 0.05248143 -0.00494967 0.06893575
-0.09579754 -0.015919957 0.08517293 0.0049580988 0.111625426 0.03590224 -0.06981534 -0.016576247
-0.0674375 0.016516646 0.021906747 -0.012255235 0.1307693 -0.049932923 0.018196978 0.04474779
0.016246917 -0.062203474 0.11116932 0.020890962 -0.057121567 0.014998814 0.03115344 0.003690131
-0.04127601 -0.07158431 -0.009726075 0.0922257 0.14203762 0.08112486 -0.05440198 0.09112748
0.022896035 0.14613122 0.011181254 0.104430996 0.1246 0.10292738 0.104223646 0.015397607
-0.010759752 -0.026870249 -0.06977702 0.117162935 0.00621468 -0.075700656 -0.06126459 0.057205554
0.1080667 0.035327334 0.17969029 -0.080741845 0.121802956 -0.10131948 -0.031239564 0.007789137
-0.09577264 0.0020862932 -0.03678467 0.05547336 0.05953968 -0.046892606 -0.12692054 0.085318655
0.0034593912 0.049933683 0.03189324 0.07904781 -0.07922705 0.071250066 -0.10938851 -0.009282516
-0.13174483 0.104926914 0.09185294 0.006217622 -0.005182503 0.068378285 -0.053340614 0.04477186
-0.058753565 -0.10735891 -0.11182723 0.12755659 -0.066199824 -0.009781331 -0.08711557 0.043055255
-0.05675072 0.10474657 0.14547777 -0.036338482 -0.045293707 -0.02133434 0.030561307 -0.12762102
-0.12888153 0.10127369 0.071788624 -0.06712817 0.021098698 -0.0567228 -0.08316882 0.1244736
-0.04825055 0.08153494 -0.040684722 -0.06942079 -0.13715054 -0.057102725 -0.041194852 -0.10490957
0.11131854 0.051762838 0.021266531 -0.022847882 -0.019785458 -0.18189383 -0.15701239 -0.025083242
-0.030904708 -0.17682864 0.053255893 -0.13585632 0.14190578 0.022125589 -0.00895409 0.10003131

btcnn.layers.0.conv1d.bias f4 [128]
00000000: 6c6c e1bc e3a4 83bd 8872 8d3d 1cb3 a3bc
00000010: 9169 85bd 30f5 b2bd 54e3 a2bd f441 c6bc
00000020: 265d 5b3c 2ed5 8f3d 960a 103c c0b5 973d
00000030: 004d c6bd 0abf 0b3c b8ea 7c3c 6a42 fb3d
00000040: 2e8c 2abd fa19 bf3a a760 b73d 25ff d1bd
00000050: 7b72 2cbc 0247 973d 2e2a 8a3d dace 5cbd
00000060: 49c5 99bd 1cce 843d 1874 31bd 5a61 41bc
00000070: 0c60 353d b56a 4d3d 9326 b1bc 0c27 c7bd
00000080: 4f86 a9bd 3a57 8dbd 45bd 8a3c 3efb 7cbd
00000090: b6a4 8e3d 9c40 733d 3692 a53d f0e8 153d
000000a0: 459b bcbd 03b0 c3bd e3f5 133d e071 bbbb
000000b0: d39e 8ebd 56a0 3abd 2845 e1bc 09ff d5bc
000000c0: ff61 96bc 3f59 603d 6a32 c9bd 842b 85bd
000000d0: 31a1 2dbd f7a3 d3bd 7758 923d bb4e 003e
000000e0: 6c35 bdbc 6408 8bbd 0c13 7e3b bc41 8fbd
000000f0: 89fd 893d 56e5 a53d c7d0 c93d d8a8 c6bd
00000100: 1b59 043c c0c8 33bd 0b2a 893c 72a7 dabc
00000110: 5451 a2bc 39de 413d 6fd8 563d f66e bcbd
00000120: 8b16 53bc af95 e63d 14c7 89bd 5d18 1bbd
00000130: 05dd 043e 04d4 fbbd 7579 863c 59c5 be3b
00000140: a3f3 b13d 4bdb 88bd ad5a 4fbc b896 00bd
00000150: 50e4 a23d 587f b73d 8bee 903c 58d7 74bd
00000160: a444 4a3d 1279 ae3c b941 9a3d 50ec 803d
00000170: 9eec 0d3d c2cf 89bd 21e4 64bd 64a4 623d
00000180: 0ae1 b3bc 6602 c63c 1c9d 993d 76fe 633d
00000190: abdd ae3c 62c3 933d 61d3 c83d 0006 b0bd
000001a0: 5f6b ab3d 41a4 c93d cbf7 8ebc 8b76 e63d
000001b0: 9986 cf3c 75cb 723c 0c42 a3bd 873f b6bd
000001c0: bd11 95bd bb29 d1bd a921 a53d f068 c0bd
000001d0: 7a11 46bd 3669 ae3d 2cf7 96bd 033d 97bd
000001e0: f04a 8fbd cdd2 f7bb 55c6 b23d 3ddb 84bd
000001f0: d306 2f3d 6f09 9b3d 75b4 c3bd f8e4 99bd
-0.02751752 -0.06427934 0.06906611 -0.019982867 -0.06514276 -0.08738172 -0.07953516 -0.02420137
0.013388908 0.07023083 0.008791586 0.07407713 -0.09682655 0.008529434 0.015436821 0.12268527
-0.041637592 0.0014579885 0.08953982 -0.10253743 -0.010525341 0.073865905 0.067463264 -0.053908207
-0.07508332 0.06484625 -0.043323606 -0.011802996 0.04428105 0.050150592 -0.021624839 -0.097242445
-0.082775705 -0.06901403 0.016935954 -0.06176304 0.0696501 0.05938779 0.08084528 0.0365991
-0.09209303 -0.09555056 0.036123168 -0.005720362 -0.06963887 -0.045563065 -0.027498797 -0.026122587
-0.018357275 0.05477261 -0.09824069 -0.065024406 -0.042390052 -0.10334008 0.071457796 0.12530033
-0.023096763 -0.0678871 0.0038768677 -0.0699496 0.06737811 0.08100383 0.09854274 -0.09700173
0.008077885 -0.043892622 0.01674368 -0.026691172 -0.01981417 0.04733107 0.0524525 -0.092008516
-0.012883793 0.11259019 -0.06727424 -0.03786503 0.12974937 -0.12296298 0.016415337 0.0058218655
0.08689048 -0.06682452 -0.012655896 -0.031393737 0.079537034 0.08959836 0.017691871 -0.05977568
0.049381867 0.021297965 0.07532067 0.06295073 0.034649484 -0.0672908 -0.055881623 0.055332556
-0.021957893 0.024171066 0.07500669 0.055662595 0.021345934 0.07215001 0.09805942 -0.085948944
0.08370089 0.09845782 -0.017452141 0.11253079 0.025332736 0.014819016 -0.07971582 -0.08898836
-0.07278774 -0.102130376 0.08063061 -0.09395015 -0.04835651 0.08516161 -0.07371363 -0.07384684
-0.06996715 -0.007562971 0.08729235 -0.06487129 0.042731117 0.07570159 -0.09555904 -0.075143754

btcnn.layers.2.conv1d.weight f4 [27, 128, 3]
00000000: b3d5 dbbc a5a1 39bd 858f a33c 0984 6d3c
00000010: 12d3 65bd 4726 2b3d 1ccd 87bd a8e4 62bd
00000020: 9b9d 11bd 495b 25bd 551a 37bd bf77 21bc
00000030: f701 16bd 5692 00bb 7cab 6c3c 75cd 16bd
00000040: f867 acbc 267a 353d cf3a 1bbd 98cc 503c
00000050: 2c39 22bd 3ab1 d13b dbce 133c 54d0 403d
00000060: bcea 1cbd 55b2 4bbc 3ae7 063d f53d 8c3b
00000070: e7f0 0d3d a065 0c3d 0b7a 15bd fab1 603c
00000080: 62e6 9dbb 0e21 843b 079f 563c 5386 20bc
00000090: d2be bb3c a561 003c ec0e fc3c 5750 0a3d
000000a0: 830d 9c3c 90dd 4cbb a057 24b9 5d5b 4c3c
000000b0: e047 2abd 68bb b7bb a686 00bc 5e71 08bd
000000c0: b5b7 73bc cdca 11bd 3ac0 fd3c 1e5a a5bc
000000d0: 883a 013d 70b4 4ebd 56cc 2bbb 7941 c6bc
000000e0: 70f8 cfbb 87e3 973c 4d67 1f3d 4a53 f43b
000000f0: 5483 29bd b906 67bc 3036 6dbc 9a6b e43c
00000100: 00d5 233d 198c 4e3c b9be ee3b feac f43c
00000110: 46f1 95bc 1001 e7bc 16ac a8bb 5c13 eb3c
00000120: 60e7 07bd 9381 2e3d f91e 53bb 0aa9 a1bb
00000130: 2a27 963c f707 cdba af67 59bd 6632 29bb
00000140: 48eb 123d 38e6 09bd 83db 0b3d 7b58 d4bc
00000150: 1bf7 7cbc 6466 84bc bfd7 0fbc ecf9 f83c
00000160: 4810 4abd 0e89 9e3c ce4d 46bd 3352 e73c
00000170: 68c3 18bd 6975 2e3c a5b0 3abd 6ef4 cabc
00000180: 8cee c5bc 1f55 d2bc 829a 2cbc 469d fb3c
00000190: 70b5 d2bc db6d 38ba af6c 7abd 823f dfbc
000001a0: e35c b2bc f732 c6bc 3ed4 663a 6340 01bd
000001b0: 5751 923b 13e4 30bd 71ea cfb7 1b37 c0bc
000001c0: dd87 333d f30c 2abd b017 e33c cb18 32bd
000001d0: 68c9 223d 99c2 91bc d01f fb3c d892 a4bc
000001e0: fb0a 773c 9184 57bd 9b71 0a3c 6099 313d
000001f0: 8417 ed3c edda b53c 4339 d73c 0481 f33c
00000200: 0cfe 853c 8f40 50bb 58e3 383d 2da0 d7bc
00000210: 0957 bf3c d16e 0c3c b3f8 7b3c 5273 17bd
00000220: 5bf0 0ebd 8b5e 133d 7dd7 22bd a927 02bd
00000230: ffb8 1b3d 72c0 27bc 9377 363c 2fb3 82bb
00000240: a98d 353d adbd e73c 3d1b eebc 2313 863c
00000250: 078a 123d e9fd 1bbd ef87 153d fd69 4ebd
00000260: 7e46 af3b fc8b 783c a505 2c3d ea53 64bd
00000270: 5d26 0dbd 6886 4ebd 1871 f93b 3958 1abd
00000280: 8137 1dbd 2688 583c 3b73 2cbd 3502 24bd
00000290: 0676 3cbd 1690 233d 0c62 aebc e4df 00bd
000002a0: 145e 933c db45 4cbd 7880 29bc 9b82 fb3c
000002b0: 86d6 11bd 6167 3b3d 75fc 853c 7e26 673c
000002c0: 8383 28bd a9d8 bfbc c9bf 15bc be42 2abd
000002d0: 7add 2cbd 5453 363c fa85 0d3d 6741 5dbd
000002e0: 6e13 87bc 6238 023d e073 a93c d390 ba3c
000002f0: 8c14 6b3c dc2f 13bd 2d22 6c3c 369f 08bd
00000300: 0b8d 75bd 3a9c 0fbd 8233 373c 337e a33b
00000310: 778a 2c3d 79af 743c e4db 79bc 75a8 f0bc
00000320: 12b9 0f3d d39d 9bbb 28a9 e5bb 243c 9cbc
00000330: 062b 0a3d 690b 173d 7000 813c fffa 54bd
00000340: 1b60 e93c 0518 bb3c 0052 773b 79d0 adbc
00000350: b497 c0bc c54d 81b8 5c55 2cbd 115f 5cbd
00000360: 91fe a23c 9006 dfbc c5bd b43c a036 a6bc
00000370: 54ad 63bd e9ac 03bd 3eea 96bc 1954 0ebd
00000380: 8260 3fbd 944e dfbc dd61 9f3c e9a6 02bd
00000390: b62f 9f3c dbc4 1bbc f9e4 47bc 90e1 de3c
000003a0: 88ca aa3c c5be f9bc 68a0 723c b92f 41bd
000003b0: 16a1 293d fa6a a3bc 5631 f6bc b8e5 07bd
000003c0: c2d0 533c f845 323d aad7 35bd 8083 13bd
000003d0: b72b 05bd 94f0 e13c ad1d 26bb d832 c13c
000003e0: 2328 dcbc b7c0 37bd 4ce2 2b3d c0de 9b3b
000003f0: 3256 0c3d b080 01bd d3b6 35bd 91f8 723c
-0.026835298 -0.045320172 0.019965896 0.014496812 -0.056109495 0.04178455 -0.066309184 -0.055393845
-0.035550695 -0.04037026 -0.044702847 -0.00985521 -0.036622968 -0.0019618473 0.014445182 -0.036817033
-0.02104567 0.044305943 -0.03789788 0.012744091 -0.039605305 0.006399301 0.009021486 0.047073677
-0.038309798 -0.012432654 0.03293536 0.004279847 0.03465357 0.034276605 -0.036493342 0.013714308
-0.0048187235 0.0040322607 0.0130994385 -0.00979765 0.022918139 0.00783578 0.030768834 0.033768024
0.019049412 -0.0031259991 -0.00015672902 0.012472955 -0.04157245 -0.0056070574 -0.007844603 -0.03331124
-0.014875342 -0.035593797 0.03097545 -0.020184573 0.03154996 -0.050465047 -0.0026214323 -0.024201142
-0.0063467547 0.01854111 0.038916875 0.007456218 -0.04138501 -0.014100724 -0.014478251 0.02788334
0.039998055 0.012606644 0.0072859195 0.029867645 -0.018303525 -0.028198749 -0.0051474674 0.028695755
-0.03317964 0.04260404 -0.0032214506 -0.004933481 0.018329222 -0.0015642632 -0.053077396 -0.0025817393
0.035868913 -0.03366682 0.03414489 -0.025921097 -0.015439774 -0.016162105 -0.008779465 0.03039261
-0.049331933 0.019352462 -0.048414044 0.028237438 -0.03729573 0.01064811 -0.045578618 -0.024774756
-0.0241616 -0.025675355 -0.010534884 0.030714642 -0.025721282 -0.0007035413 -0.061138805 -0.027251963
-0.021772807 -0.024194224 0.000880543 -0.031555545 0.004465263 -0.04318626 -2.4785493e-05 -0.023463776
0.04383074 -0.041516256 0.027721256 -0.043480676 0.039742857 -0.017792987 0.030654818 -0.020089552
0.015078302 -0.05261666 0.008449937 0.04335916 0.028941877 0.022199119 0.026272422 0.029724605
0.01635649 -0.0031776761 0.045138687 -0.026321495 0.023356931 0.008571343 0.015379119 -0.036975212
-0.03489719 0.035978835 -0.039756287 -0.031776104 0.038018223 -0.010238754 0.011136907 -0.0039886455
0.04432455 0.028288687 -0.029065723 0.016366547 0.035776164 -0.038083944 0.03650659 -0.050394047
0.0053489795 0.015170094 0.04199757 -0.05574409 -0.034460414 -0.05042115 0.007612359 -0.037681792
-0.03838301 0.013216054 -0.04210208 -0.040041167 -0.046010993 0.039932333 -0.021286987 -0.03146352
0.017989196 -0.049871307 -0.010345571 0.030701926 -0.035604976 0.045752887 0.016355732 0.014108298
-0.041141044 -0.023418741 -0.009139963 -0.041567557 -0.042203404 0.011128265 0.034551598 -0.05401745
-0.016488757 0.031792052 0.020685136 0.022774136 0.0143481605 -0.035934314 0.014412445 -0.03335496
-0.059948962 -0.0350611 0.011181714 0.0049894094 0.042124238 0.014934414 -0.01525018 -0.029377202
0.035088606 -0.0047490387 -0.0070086904 -0.019071646 0.033732437 0.036876116 0.015747279 -0.05199718
0.02848821 0.022838602 0.0037738085 -0.021217572 -0.023509838 -6.165685e-05 -0.042073593 -0.0538016
0.019896777 -0.027224809 0.022063145 -0.02028972 -0.05558522 -0.03214732 -0.018422242 -0.03474817
-0.046722896 -0.027259149 0.019455845 -0.03189746 0.01943193 -0.009507383 -0.012200587 0.027207166
0.020848528 -0.030486474 0.014808752 -0.047164652 0.04141339 -0.019948471 -0.030052822 -0.03317806
0.01292819 0.04352376 -0.044395126 -0.03601408 -0.032512393 0.027580537 -0.0025347278 0.023583815
-0.026874607 -0.04486152 0.04196386 0.0047567785 0.03426189 -0.031616867 -0.044363808 0.014829771

btcnn.layers.2.conv1d.bias f4 [27]
00000000: acc4 6abd f83f ec3c 7c4f 0c3d b35c f23c
00000010: 48fc bd3c e55e 49bc bc6b 7e3d e7cc 10bd
00000020: 8d14 d5b9 6c30 3ebd c378 283c 68bc 6bbd
00000030: 8619 3dbb 4675 39bc d759 4b3d 2de1 bebc
00000040: 6a4f 7a3b 510b 14bb ee84 b83c fc59 793c
00000050: 5e93 d0ba af88 103d 65f7 4d3c 67d3 363d
00000060: 5c4e bb3c 733b 3a3c 9cfb 87bc
-0.057316467 0.028839096 0.03425549 0.029585218 0.023191586 -0.012290691 0.062114462 -0.03535166
-0.00040641837 -0.046432897 0.010282698 -0.057552725 -0.0028854324 -0.011319464 0.049646225 -0.023300732
0.0038194307 -0.0022589753 0.022524323 0.015219208 -0.001591306 0.0352866 0.0125711905 0.044635203
0.022864513 0.011366713 -0.016599469

fcnn.0.weight f4 [64, 27]
00000000: 8761 4bbd 475b d3bb e37e 463d e228 debc
00000010: 27a2 e53d b89d c1bb 648a 0b3e 15f6 b1be
00000020: ace1 233e 8a6a ebbd dba1 ba3c 8409 b4be
00000030: 334f fdbc 1052 0dbe f2a5 8dbe 0e1a d1bd
00000040: e525 a7be 2ad9 7f3e 50a3 203e ae1c 753e
00000050: e435 b93e 7163 94be 4431 74be 7859 193d
00000060: f491 553e bda8 293d af81 ce3d 4b06 9e3d
00000070: 48f6 473d 0bf2 1e3e b08d f33d c696 123d
00000080: 08af 1b3e d09b d33d 5981 9dbe d637 1a3d
00000090: dff9 29bd 9403 873e 574c a3be 41fd e63d
000000a0: 8e5c 4dbd 5cb0 5fbe 1e87 e3bd 90a6 4cbe
000000b0: 3013 bd3c 22ef 2d3d daa6 acbc 7f16 7f3e
000000c0: d6d5 5dbd aa16 44be fe55 743e 45d0 bc3d
000000d0: c7c2 783e aec3 923d 22e7 13bd faca d9bd
000000e0: cc3b 553c b5b9 f3bc d7e8 993d 9d54 c43d
000000f0: 433d 543d 89b3 94be d8c0 063e ee78 a13d
00000100: 21f4 b73d 8222 7cbe 25d7 253e 2244 4dbe
00000110: b1c1 14be 2fa4 fabd 179e 9abe b049 8f3e
00000120: 78ab 303e 8cfe 253d 7ea2 853d 0054 82be
00000130: 54a6 3abe bb96 1d3e fafa 433e b14e e63c
00000140: ea54 82bd 4b9e a13d fa7d be3d fd3e f3bb
00000150: 905d 73be abc1 3ebc a463 313a d8f0 e9bb
00000160: c19e bb3d db3c 49be 05c8 87bc d02c 98bc
00000170: d8a5 df3c 1d10 e7bd a9e5 ac3e b954 873e
00000180: 2ea3 56be 4feb 8d3e edeb 20be 9cd7 17be
00000190: 952e 343c 03b7 c3bd 1e92 723e c314 af3e
000001a0: 4c92 fdbc 8114 173e 52ab 5cbe e62c 2cbd
000001b0: b595 873c 04ea 503e 334d 2f3e 4a69 7f3e
000001c0: 36ac d7bd 5f34 703e c0f5 9c3a f5ae 93be
000001d0: a5c1 fbbc 7477 24be 2846 a63d df3a a1be
000001e0: b10f 0e3d efa3 27be bac9 03bd 4cb9 29be
000001f0: e758 b9be 5da7 9c3e 6cc6 2e3e b55b be3d
00000200: 4278 833d a9d4 85be e93c 03be d450 763e
00000210: e70f 5f3e 6db7 4c3e ab83 783d 3a27 bb3d
00000220: 5563 643d e585 963d 6c66 9fbd 4350 ab3d
00000230: 7a61 753b b4e2 a2bd cef8 e6bd e237 f83a
00000240: 90f9 3fbe 31db 8fbd f1ec f5bd 55c3 9b3c
00000250: 4add 64be 2174 14be aa56 a33d 3b89 4a3d
00000260: 042d f43d 5266 2f3e e605 4f3e 4292 ae3e
00000270: df88 4a3d 6600 20bc 7156 783e b524 fa3d
00000280: 1692 773e 0c38 35bd e642 1b3e eb54 833e
00000290: 4372 743e dd86 543e f644 52bd c05e 543e
000002a0: cdcc a3bb baba a1be 7da5 4dbd 7ef4 d03d
000002b0: b6ed 8e3e f415 16be fc8a a0bd ed7d 7cbe
000002c0: cb3a 1cbe 95c8 36be 21e5 1abd 7684 0f3e
000002d0: afb6 4f3e c8eb 993d efa7 333d 04a0 d6bd
000002e0: e122 cfbd f6eb 6e3d 5a5c 8fbd 0845 0a3e
000002f0: b8e9 0d3e dd04 293d 33d2 073d dc38 b83d
00000300: 9872 8c3e cb05 473c 972d bc3d 64ac acbc
00000310: 5a3d 1ebe 8d0e a73d e66b 623c 6305 de3c
00000320: d0b0 a5be c1a1 543c 9ac5 d2bd 0084 6b3d
00000330: 2ddf 36be 25e0 a5be 9b4a 903e feb9 99bd
00000340: 7c7a f93d b8bc 703e 44df 55be c499 2bbd
00000350: fac8 123e f74f 803e dba3 153e 954b dfbd
00000360: b59b 5f3d f7a8 a8bc e972 fbbc 9976 83bd
00000370: 9634 a53c aecc 82be caaa 67bd 34a3 f23d
00000380: 8e37 0fbe 93f2 6dbc a2f6 57be a538 b13e
00000390: 7a19 dfbd 41dc aa3e a83f 2d3e b2a8 5dbd
000003a0: 4e83 be3c 98b7 b83b d9ce 583d 795c 4b3d
000003b0: 8145 0b3d d52e 853d dd45 963e 1ecc 2cbe
000003c0: fd46 123e c597 7d3d 2be4 a53d 8845 c7bd
000003d0: 5c6b 14be 59c8 36be 9a56 0dbe 7564 0f3e
000003e0: 31e0 13bc 2f07 323e a6f7 043d cd84 b93c
000003f0: 2b1e 2cbe 8306 3b3c f592 173e d2c8 93bd
-0.049653556 -0.00645009 0.048460852 -0.027119104 0.11212569 -0.005908694 0.1362701 -0.34758058
0.16004056 -0.1149493 0.022782257 -0.3516351 -0.030921554 -0.13800836 -0.2766567 -0.10210048
-0.326461 0.24985185 0.15687299 0.23936722 0.36173928 -0.28982118 -0.23846918 0.03743884
0.20856458 0.041420687 0.10083329 0.07716044 0.048818856 0.1552202 0.11892259 0.03578832
0.15203488 0.10332453 -0.30762747 0.037650906 -0.04149806 0.26369917 -0.3189418 0.11278773
-0.050137095 -0.2184462 -0.11109756 -0.19985414 0.023080438 0.042464383 -0.021075655 0.24910925
-0.054159008 -0.1914927 0.23860928 0.09219412 0.24293052 0.07166229 -0.036109097 -0.10634418
0.013014745 -0.029751638 0.07515114 0.09586451 0.051816236 -0.29043224 0.13159502 0.07884394
0.08982111 -0.24622539 0.16195352 -0.20045522 -0.14527012 -0.12238347 -0.30198738 0.27985907
0.1725291 0.040525958 0.065251336 -0.25454712 -0.18227512 0.1538953 0.19138709 0.028113695
-0.06363852 0.0789152 0.09301372 -0.0074232803 -0.2376616 -0.011642854 0.0006766862 -0.0071393065
0.09161139 -0.19652121 -0.016574869 -0.018576056 0.02730076 -0.1128237 0.33768967 0.26431826
-0.20960686 0.2771859 -0.15714999 -0.14828342 0.010997434 -0.09556391 0.23688552 0.34195527
-0.030953549 0.14753915 -0.21549729 -0.042035006 0.016550878 0.2040177 0.17119293 0.24942508
-0.105308935 0.23457478 0.0011975095 -0.2884442 -0.030731985 -0.16061193 0.0811885 -0.31490228
0.034682933 -0.1637113 -0.032174803 -0.16574591 -0.3620064 0.30596438 0.1706788 0.092948355
0.06419422 -0.2613881 -0.12816204 0.24054271 0.2178341 0.19991846 0.060672443 0.09138341
0.055758793 0.07349757 -0.07783207 0.08364918 0.0037442134 -0.079533964 -0.112779245 0.0018937553
-0.18747544 -0.07024229 -0.120080836 0.01901404 -0.2235004 -0.14497425 0.07975514 0.04944728
0.119226485 0.17128876 0.20217094 0.3409596 0.049446937 -0.00976572 0.24251725 0.122140326
0.24176821 -0.044242904 0.15162238 0.25650725 0.23871712 0.20754571 -0.051335298 0.2073927
-0.0049987794 -0.31587774 -0.05020665 0.10202883 0.27915734 -0.14656812 -0.07839009 -0.24657412
-0.15256803 -0.17849953 -0.03781617 0.14015374 0.20284532 0.07515675 0.043861326 -0.10479739
-0.101140745 0.0583305 -0.070000365 0.13502896 0.13858688 0.041264404 0.033159446 0.0899522
0.27431178 0.012147377 0.09188383 -0.021078296 -0.15453091 0.08157072 0.01381967 0.027102178
-0.3236146 0.012978018 -0.10291596 0.057498932 -0.17858572 -0.3239757 0.2818192 -0.07506178
0.12181565 0.2350949 -0.2088595 -0.04189469 0.14334479 0.25061008 0.14613287 -0.10903088
0.054591853 -0.020588381 -0.030694442 -0.06419105 0.020166676 -0.25546783 -0.05655936 0.11847535
-0.13986036 -0.014523166 -0.21090177 0.3461353 -0.10893531 0.33371165 0.16918814 -0.05411596
0.02325597 0.0056371205 0.05293164 0.049648736 0.03400183 0.06503073 0.29350176 -0.1687474
0.14284892 0.061912317 0.0810016 -0.09730059 -0.1449408 -0.17849864 -0.13802567 0.14003165
-0.009025619 0.17385553 0.03246274 0.022646332 -0.16808383 0.011415127 0.14802153 -0.07216038

fcnn.0.bias f4 [64]
00000000: 2d33 b83c 4dc6 243e a65d 30be d096 d5bd
00000010: bd39 28bd 19eb f4bd fe89 44be 0aa1 233e
00000020: 8737 2c3e ac5b 143e deb5 833d 1542 893d
00000030: f277 50bd 84f3 d5bd 48cc 39bd 01eb 0d3e
00000040: 29e3 bb3b 3381 06be 9637 173e 3afd 333e
00000050: 91df 1a3d 9745 82bc 05d3 47be 53ce 21be
00000060: 087d fdbd 3cf7 893d 7783 2e3d c95a 85bd
00000070: db06 cf3d 543b 42bd 3bf7 a53d 3c24 3dbd
00000080: 67d8 45be 6e8a c73d 955d 243e 9f6f 2ebe
00000090: 6791 b9bd f42c 5a3d d178 923d ddc2 87bd
000000a0: 7896 a23d 4eb7 d4bd 1654 c83d 5aa2 423e
000000b0: 963c 9bbd da38 07be d12c dcbc 525a 39be
000000c0: 920a 39bd e52c 603e 9a26 52be 0eae 233e
000000d0: 8f3d 35bc ca42 8cbd fa75 03be 4075 873d
000000e0: c029 433e a84a f13c a7e2 d63d 8ef7 19be
000000f0: 08d5 323d 1f08 ef3c ca77 8e3d ecb9 693d
0.02248534 0.1609127 -0.17223224 -0.10429156 -0.04107069 -0.11958904 -0.19193265 0.159794
0.16818057 0.14488095 0.06431173 0.06702057 -0.05089564 -0.104468375 -0.045360833 0.13859178
0.0057338667 -0.13135223 0.14767298 0.17577067 0.037810866 -0.015902324 -0.19514091 -0.15801363
-0.123773634 0.06736609 0.042605843 -0.065114565 0.101087295 -0.04741986 0.08103796 -0.046177134
-0.19320832 0.097432 0.16051324 -0.17034768 -0.090609364 0.053265527 0.0715195 -0.06628964
0.07938856 -0.10386525 0.09781663 0.19007245 -0.07579915 -0.13205281 -0.026876839 -0.1810086
-0.045176096 0.21892126 -0.20522538 0.15984365 -0.01106204 -0.068486765 -0.12837973 0.066141605
0.19058895 0.029454544 0.10492449 -0.15035841 0.043660194 0.029178677 0.06956442 0.057062075

fcnn.2.weight f4 [1, 64]
00000000: e7ad 573e 7bc7 1e3e f1bf a13e 8726 b9be
00000010: 7ab7 393e 60d7 5f3e d1b4 1d3e c425 ed3d
00000020: fae9 a2be 9e76 a5be 3feb 9e3e 87dd 81be
00000030: 195b 4d3e d309 b4bd e26d 483e 5b44 1e3e
00000040: 8d05 01be 7371 aa3e 9316 db3d a0d6 183e
00000050: 97c0 19be 307d ccbd 1d49 40be ae4f 21be
00000060: 1e69 fd3d 32ab 1b3e 0b58 1c3e e1ec 553e
00000070: 0f08 4dbe 3172 293e c526 89be 0081 963e
00000080: de41 d2bd d4f2 98be 8685 ba3b c364 373e
00000090: 0423 49be 9307 10be a731 91be 85d3 67be
000000a0: af98 e3bd b279 aabd 3042 173e c17d 333e
000000b0: 8419 d33d 6845 f63d 6eb4 153e c4cf 0d3e
000000c0: 73e2 22be 737b 88be 4a4e cfbd a2d8 f53d
000000d0: a3b9 71be 1d8d 2e3e 6577 ccbd 133b df3d
000000e0: a023 463c 344a 543e a331 343e da96 34be
000000f0: 0550 c0bd 231d 2b3e 5ec3 4a3e 7a3c 4dbe
0.21062432 0.15505783 0.31591752 -0.36162207 0.18136397 0.21859503 0.15401007 0.11579469
-0.31819135 -0.3231706 0.31038854 -0.25364324 0.20054282 -0.08790936 0.19573167 0.15455763
-0.12599774 0.3328968 0.10697665 0.14925623 -0.15014873 -0.09984815 -0.1877789 -0.15753052
0.12373565 0.15202025 0.1526796 0.20891143 -0.20022605 0.16547467 -0.2678739 0.29395294
-0.102664694 -0.29872763 0.0056921868 0.17909531 -0.19642264 -0.1406539 -0.28358194 -0.22639282
-0.111131065 -0.08323993 0.14771342 0.1752844 0.10307601 0.12024957 0.1461961 0.13848788
-0.15906696 -0.26656684 -0.10122354 0.1200421 -0.23605971 0.17046018 -0.0998371 0.108999394
0.012093455 0.20731431 0.1759706 -0.1763567 -0.093902625 0.16710334 0.19801089 -0.20042601

exp_avg f4 [128, 27, 3]
00000000: bc0a de3e dd33 743e 2bec c33e cd82 083f
00000010: 579d 253d fef5 b33e 6c32 a53e 6db2 133d
00000020: dab8 543e 2da4 4c3f 5f64 d5bd d816 c63e
00000030: fe2a aa3e 130c 2d3e 7c2f 3d3e 94c3 ad3e
00000040: 17a0 4abd e460 c53e 340b 9b3e 60bd 19bd
00000050: a5bc ff3e 872b 093f 9219 c63d 5b70 913e
00000060: 344e 6ebb 3673 323e ef1f 983e 6f0e 7a3f
00000070: 8d6f 8d3d 1ee0 af3e 481b 9e3e c8a1 0b3e
00000080: 1c99 533e 7cdd 9b3e 04ac 3a3e d0e0 e63e
00000090: ec92 473d 09ab f2bc 7a9f a93e 3130 5b3e
000000a0: ca2c 09bd 2bc9 d53e 5c46 423f c29b 083d
000000b0: a062 be3e a8ed 9f3e 3fbd 19be fb20 ba3e
000000c0: a1d5 023f 0098 58be c11a 9d3e f7dc dd3e
000000d0: 414d 61bd c192 923e 0b90 253f c338 213d
000000e0: d54d dd3e b576 453e f3b1 9cbb 2b7e 033f
000000f0: a19c 0a3f 75c9 6c3c 8aef f83e 971c 2c3f
00000100: 7c01 3ebd 7266 143f eb83 db3e 1c17 6f3d
00000110: cfd0 d53e a93c 323f d905 a73d 62af e63e
00000120: cef1 c53e 1981 103e e81f a63e 9cef a53e
00000130: e60f 963d e453 763e 00cc 3c3f 7db6 663e
00000140: 1b4c ed3e 6dff 253f 2811 d93e 07c9 283f
00000150: 232d 5c3f 2a24 e13d c748 4a3f 7d2a 953e
00000160: 1144 723e 7a93 1d3f 5528 a43f 3b0c 3b3e
00000170: 69f4 633f 7a0c 113f a0a8 ec3e e0d9 743f
00000180: 5ec0 683f 2172 a23e 9b3b 463f d59e cd3e
00000190: 47fb ca3e fc46 913f 1a80 5e3f a6d8 033f
000001a0: d215 2c3f 5a52 62be 6bba 0a3f d81b 383f
000001b0: 96e6 823f f884 873d 5386 143f d03d 423f
000001c0: e114 2b3f 277f 3b3f 6262 c73e 547b d63e
000001d0: 3a40 7a3f 91c8 a53e 2868 003f 2e17 633f
000001e0: e519 983e 8f89 7d3e 6506 683f 8257 6b3f
000001f0: 458d 953e aaa0 613f b812 123f 6fae b63d
00000200: f4e1 8f3f bdef 503f e5bd b7bd 0484 d13e
00000210: 943b f03e dc06 f53e a98f 5e3f eb89 423f
00000220: bcb2 173f c474 803f 4de1 e43e 4fe5 693e
00000230: 8bca 633f 25b8 3d3f af7b f93e 23d4 3a3f
00000240: 4286 0f3f a3e2 673e 2f33 973f ae30 a23f
00000250: 5d3e e33e 1eac 573f 444f 843f a1d2 e53e
00000260: 4dbe 723f 600f e53e 34f6 d63e 88ef 633f
00000270: c023 2a3f 1e21 ac3e e789 103f 8daf 6f3f
00000280: 7738 143f a4c2 7b3f c175 af3f 749e dd3f
00000290: d33b 763f 36dc 523f facb da3f 7fe7 8c3f
000002a0: a8c1 8e3f 4eae 173f 0a51 3a3f 7bac 9c3f
000002b0: 9fdf b13f 12c7 7d3f b7f9 ba3f 36c2 b83f
000002c0: b467 923f f858 bd3f 5e0b c73f 32f4 823f
000002d0: 2086 9c3f b814 ac3f d1ec a93f b51c c13f
000002e0: 0c11 9b3f 1f67 493f 1dc7 2b3f 8ed8 5c3f
000002f0: d3f5 573f 7de9 953f e7da a53f 3f75 4e3f
00000300: 03c7 cd3f 0b1d d23f 927f 443f 9b42 7a3f
00000310: 0e93 a93f 4473 6d3f dcb0 a13f dcda 8b3f
00000320: 1e24 953f 3330 843f 15e0 873f 6ae2 603f
00000330: 1188 a23f 8fc1 c93f 3ce2 8d3f 047e ca3f
00000340: 7df4 743f 1f91 543f e3db 343f 4c4a 893f
00000350: 7852 7e3f a92a ca3f 12ef 9a3f 644d 863f
00000360: 6e8f f53f 7abf 9f3f cc1c 913f e29c 473f
00000370: b1b8 a03f 8160 843f 1c3b 9f3f e5ee 4e3f
00000380: 8460 5e3f 72da 983f 7662 6b3f 309b a33f
00000390: ee6e f63f 1460 b83f ee58 3a3f 7d0d 853f
000003a0: 88ea d13f 9738 803f 239a b63f 1331 963f
000003b0: 79f0 933f 4fd5 aa3f 9726 dc3f dbb3 563f
000003c0: ca7c c93f 17aa c43f 3079 893f 4235 0cbf
000003d0: d1f3 82be 6476 9b3e 14dd eebd dea5 23be
000003e0: a922 34be 2fad 443d 7e5d 8e3e 69eb 42be
000003f0: 75c3 73bf b593 d4bd ee8f 793e d999 f3be
0.43367565 0.2384791 0.3826612 0.53324586 0.040433254 0.35148615 0.3226503 0.036058832
0.2077364 0.7993801 -0.10419535 0.38689303 0.33235925 0.16899137 0.18475145 0.33938277
-0.04946908 0.38550484 0.30281985 -0.037534118 0.49948612 0.5358204 0.09672846 0.28406033
-0.003636253 0.17426762 0.29711863 0.97678274 0.06906042 0.34350675 0.3088019 0.13635933
0.20663875 0.30442417 0.18229681 0.45093393 0.0487241 -0.029622572 0.33129483 0.21405102
-0.03348998 0.4175504 0.7588861 0.033351667 0.3718462 0.31236005 -0.15013598 0.36353287
0.5110722 -0.21151733 0.30684474 0.43332645 -0.055005316 0.2862759 0.6467292 0.039360773
0.43223444 0.19283564 -0.0047819554 0.5136439 0.54145247 0.014452328 0.48620254 0.67231125
-0.046388134 0.5796882 0.42874083 0.05837165 0.4176087 0.6962381 0.08155412 0.4505568
0.38661045 0.14111747 0.32446218 0.3240937 0.07327251 0.24055439 0.7374878 0.22530551
0.46347126 0.64842874 0.42395902 0.65931743 0.86006373 0.10993226 0.790173 0.29133978
0.23658778 0.61553156 1.2824808 0.18266384 0.89044815 0.5665966 0.462224 0.9564495
0.9091853 0.31727698 0.774347 0.40160242 0.39644834 1.1349788 0.8691422 0.51502454
0.67220795 -0.22101727 0.541907 0.71917486 1.0226619 0.06617159 0.5801746 0.7587557
0.66828734 0.73240894 0.38942248 0.41890967 0.9775425 0.32379583 0.5015893 0.88707244
0.29707256 0.24759506 0.9063476 0.919304 0.29209343 0.8813578 0.5705981 0.08919989
1.124083 0.8161581 -0.089717664 0.40921032 0.46920455 0.47856796 0.8693796 0.75991696
0.592571 1.0035634 0.4470314 0.2284138 0.8898093 0.7410911 0.48727176 0.72979945
0.56064236 0.22645049 1.1812495 1.2671106 0.44383517 0.84247005 1.033669 0.4488726
0.94821626 0.44738293 0.41984713 0.8903737 0.664608 0.33619016 0.5646042 0.93627244
0.5789866 0.98343873 1.3707811 1.7313981 0.96185035 0.82367265 1.7093499 1.1008147
1.1152849 0.5925034 0.72779906 1.2240137 1.3896369 0.9913188 1.4607457 1.4434268
1.1437898 1.4792776 1.5550344 1.0230772 1.2228432 1.3443823 1.3275396 1.5086886
1.2114577 0.78672975 0.671007 0.86267936 0.84359473 1.171188 1.2957429 0.80647653
1.6076359 1.6415113 0.76757157 0.9775788 1.3248003 0.92754006 1.2632098 1.0926166
1.1651647 1.0327209 1.061526 0.8784548 1.2697774 1.5762194 1.1084666 1.5819707
0.9568556 0.8303394 0.7064802 1.0725799 0.9934459 1.5794269 1.2104208 1.0492368
1.9184396 1.2480309 1.1336913 0.7797376 1.2556363 1.0341951 1.2439914 0.80833274
0.8686602 1.1941664 0.91947114 1.2781734 1.9252603 1.4404321 0.72791946 1.0394741
1.6399698 1.001727 1.4265789 1.1733726 1.1557761 1.3346347 1.7199277 0.8386819
1.5741208 1.5364407 1.0740108 -0.54768765 -0.25576642 0.30363762 -0.11663261 -0.15981242
-0.17591347 0.048016723 0.27805704 -0.19035114 -0.9522012 -0.103797354 0.24371311 -0.47578314

exp_avg_sq f4 [128, 27, 3]
00000000: 7d63 ff3f e4b3 b63e a4bd 7f3f b144 dd3f
00000010: c81e 073f e05c 933f 9f29 fc3f 72d2 bc3e
00000020: 356a 7b3f 68ae 3240 fa5f b53e 846f a93f
00000030: 4912 1840 d542 883e b5d6 b93f fa78 0440
00000040: 538d 003f e9e7 973f c8fe f73f d32f 9b3e
00000050: a6ee 9e3f c9ce 4440 cc6b d73e db7c 603f
00000060: d372 e63f bfe3 e03e 5f4f a93f 88d5 2d40
00000070: b117 a23e 838e a13f 113c de3f 6230 e43e
00000080: 628e 7b3f d24d e73f 7aae ae3e 2140 883f
00000090: 0a4e ed3f 1f44 9a3e 58a5 923f 74ff 0940
000000a0: 26b7 b03e 8160 883f ddd1 2d40 f0bd af3e
000000b0: 5551 943f 9d68 fd3f 8622 c83e a84c 883f
000000c0: 4e78 0140 88da a63e dfe3 913f 80d8 0840
000000d0: cb55 d83e 0f37 963f 3cce 1c40 3294 b33e
000000e0: 6575 9c3f 37f9 0540 759f b63e d58d 8f3f
000000f0: ab3e 0f40 bda2 c63e 6c43 803f 25f5 1c40
00000100: 2264 b23e 3daf a53f c3cc 2240 75e9 b93e
00000110: ac7f 973f 5c46 2940 7a3c c13e 86b7 9d3f
00000120: 02cf 2440 2b72 9d3e d19f 993f a708 f43f
00000130: 0031 d43e 64a8 8f3f e210 1240 af4d de3e
00000140: 2278 8e3f 6445 9e40 e159 1240 bbac a340
00000150: 73c3 8e40 5503 2c40 9d5d ba40 ab10 8340
00000160: 221c 3140 05c8 9140 249e bc40 40a3 2640
00000170: e190 d640 3856 7140 1bc7 0d40 9eb4 e340
00000180: 1e66 ae40 b53f 3740 2cf1 b140 c149 9040
00000190: 85d8 1140 6a40 be40 9be8 c440 13ff 2e40
000001a0: 9511 9540 233e 6140 65df 2f40 84b0 c440
000001b0: aa04 9c40 1e37 2740 53a3 c540 d6f4 9740
000001c0: 7d8a 5c40 4f3f 9440 02ca 9a40 94e0 0f40
000001d0: fcec a940 7166 6540 b704 2140 8d3f b440
000001e0: 0e71 8c40 e426 3240 4dda ab40 3435 9b40
000001f0: 0bc1 2040 2381 bf40 f6e5 9640 d9ad 1940
00000200: 4881 ae40 2c8a 9440 1f27 0e40 2e04 ba40
00000210: 42e2 8840 fbbd 3040 95fe b840 ef92 9a40
00000220: 18bc 2340 7b0a ca40 04d1 9c40 e914 2c40
00000230: 8b76 aa40 a5cb a440 2316 3140 b253 9e40
00000240: 07a6 9240 1219 0740 1375 c440 59ab c140
00000250: 808c 2540 3537 c140 a86b ac40 f087 1640
00000260: 44fb c740 c7ad 9e40 b1a5 1740 d4a1 be40
00000270: 9af8 8b40 b8d6 3540 078c aa40 b2b4 9a40
00000280: 7487 1b40 4f3b c440 e7a2 8841 f7cd 8441
00000290: 1ec7 f840 2ca7 9f41 5bf8 9841 ad17 f740
000002a0: 50da 8c41 3ab2 8041 633e d940 f398 9941
000002b0: 815b 8941 6b91 1241 e51a 8641 ec23 6f41
000002c0: 9833 1e41 03b8 9341 68ef a141 e3fc fd40
000002d0: 891d 9d41 a697 6241 fb79 0941 4219 8c41
000002e0: 176a 7041 3023 cf40 afe6 8941 2882 8a41
000002f0: 0df5 0e41 a045 9341 14b1 7841 1a6a 0f41
00000300: 8dc4 9341 b1ae 9341 7671 c640 2bdc 8f41
00000310: 8912 7341 f433 0141 b5ad 7f41 f3a0 8141
00000320: a75c ef40 a28f 8d41 44dc 8641 13ea 0141
00000330: 2bfb 9c41 ff55 8141 4754 fe40 bfa1 9341
00000340: 2931 8841 ae72 e540 b9b8 8041 4e4e 9541
00000350: a74e 0741 9079 8e41 22a2 8141 0860 0641
00000360: a1fb 9441 ecfd 9541 cf1c 1641 123c 8441
00000370: 33f6 8241 2c62 f240 14ba 8641 58ae 5d41
00000380: 16d7 d440 aac1 9b41 468d 7141 dbca 0f41
00000390: 9cb8 aa41 47db 7841 fc2a 0741 36d9 a241
000003a0: 8a63 6841 fbed 0941 6751 9041 ddc7 7441
000003b0: e237 e340 c5a0 8a41 de64 8c41 7c38 ed40
000003c0: 3950 a941 7f08 8041 be29 fe40 4386 bf40
000003d0: 8d10 b93f fbef ae3f 2098 8f40 3f10 ee3f
000003e0: c621 973f aa2d 8b40 ee58 f03f 9d42 933f
000003f0: f940 0141 7968 c03f 6f65 973f 871f ec40
1.9952236 0.3568412 0.99898744 1.7286588 0.52781343 1.1512718 1.9700202 0.36879307
0.98208934 2.791895 0.35424787 1.3237157 2.376116 0.2661349 1.4518648 2.0698838
0.50215644 1.1867648 1.9374628 0.30309924 1.241658 3.0751212 0.4207443 0.87690514
1.8003792 0.43923756 1.3227347 2.716158 0.316587 1.2621616 1.7362081 0.44568163
0.98264134 1.8070624 0.3411749 1.064457 1.8539441 0.30130097 1.1456709 2.1562166
0.3451473 1.0654451 2.715934 0.34324598 1.158732 1.979755 0.3908884 1.0648394
2.0229678 0.325886 1.1397666 2.138214 0.42252955 1.1735553 2.4500875 0.35074002
1.2223326 2.0933359 0.3566853 1.1215159 2.2382 0.38796034 1.0020576 2.4524624
0.3484202 1.2944103 2.5437477 0.36310926 1.1835837 2.6449194 0.37741452 1.2321632
2.5751348 0.30751166 1.2001897 1.906514 0.41443634 1.1223264 2.2822804 0.43418643
1.1130412 4.9459705 2.2867358 5.1148353 4.4613585 2.6877034 5.8239274 4.0957847
2.767342 4.5556664 5.8943043 2.603714 6.7051854 3.7708874 2.2152774 7.115798
5.4499655 2.8632634 5.56069 4.509003 2.2788403 5.945363 6.153394 2.7343185
4.6583962 3.5194175 2.74801 6.1465473 4.8755693 2.612739 6.176187 4.748637
3.4459527 4.632728 4.837159 2.2480822 5.3101788 3.5843775 2.5159128 5.6327577
4.3888006 2.7836237 5.370398 4.8502445 2.5117824 5.9845138 4.7155714 2.4012358
5.4532814 4.6418667 2.2211378 5.81301 4.2776194 2.7615955 5.781077 4.830436
2.5583553 6.3137794 4.9005146 2.6887763 5.3269706 5.149859 2.766976 4.9477167
4.582767 2.1109052 6.1392913 6.0521665 2.5867004 6.037989 5.3881416 2.352047
6.249422 4.958713 2.369488 5.9572544 4.374097 2.8412304 5.329593 4.8345575
2.4301424 6.13224 17.079542 16.600569 7.7743063 19.956627 19.121267 7.72164
17.606598 16.087025 6.7888656 19.199682 17.16968 9.160502 16.763132 14.94627
9.887596 18.46485 20.241898 7.93712 19.639421 14.162024 8.59228 17.512333
15.025901 6.4730453 17.237638 17.313553 8.934827 18.408997 15.543232 8.963404
18.470972 18.460299 6.20135 17.982504 15.192025 8.075184 15.979909 16.203588
7.48006 17.695133 16.857552 8.119647 19.62264 16.16699 7.947788 18.453978
17.024004 7.170249 16.090197 18.663235 8.456702 17.809357 16.204166 8.398445
18.622866 18.748985 9.382033 16.529331 16.370214 7.574484 16.840858 13.855064
6.6512556 19.469563 15.096991 8.987025 21.340141 15.5535345 8.447994 20.35606
14.524302 8.620601 18.039747 15.298795 7.1005716 17.3285 17.549252 7.413145
21.164171 16.004148 7.9425955 5.9851394 1.4458176 1.3666986 4.48732 1.8598708
1.1807182 4.349324 1.8777139 1.1504704 8.078362 1.5031883 1.182783 7.3788486

exp_avg f4 [128]
00000000: c912 693f 1bb9 b53f cbeb 1b40 3b15 7dbf
00000010: dd7e 71c0 20b1 90bb 35ef 3a3d 762c 04c1
00000020: 23c3 a43f 2966 a9bf 9cb6 603f 7c18 d53e
00000030: 9dde 3b3f e167 b33f 8a80 b4c0 3b91 3bbf
00000040: 078a ebbf 3c29 45c0 d583 9b3f 0d24 2bbf
00000050: 1f94 7abf 21bd a83e 4cba be3f d90b 863f
00000060: 4072 9abf 8fac 8a3e 1e59 ccbc 90e3 b43f
00000070: 02ed 03be c7c4 903f 748d 06bf 3e4b ab3f
00000080: aed6 533f 6ec5 f33f c822 8e3f ba00 a6be
00000090: 2cc1 14c0 c180 4bbf 6cd7 163e f509 27bf
000000a0: b8a1 46be e999 b53a 1a1a 90c0 3d34 f03e
000000b0: 33d8 4a40 2f99 623f 0f5d 06c0 ce4e 58bf
000000c0: 9c43 a4c0 d730 833f 6499 2b3f 4151 a13f
000000d0: ecf9 3a3f c3cb c73d f790 8b3f 5940 6dc0
000000e0: dd6b d03f b3ce 87bf 22e2 fa3e 6a2a b9bf
000000f0: 0ab5 35be 93ec f83e eb65 983f 3a6e 52be
00000100: 6cc5 a3bf 186a c3bf ab60 2440 e2b0 97bf
00000110: 5d92 29c0 ab75 f63d 1fdc 2ac0 6565 2e3f
00000120: 8237 293f 71c7 da3e febe 8e3f 5df7 b03e
00000130: ca64 aac0 5f06 83bf 8b2a bd3f ffb3 f8c0
00000140: eebf 05be bb88 dfbf cb35 ab3d 865a 88be
00000150: 9e31 a93e aba0 cc3f cce7 6e3f 05f3 8cbf
00000160: 4efe 613f 9789 5a3e 2e7a 103f d679 8cc0
00000170: 064a e33e 95e0 363f 938c bdbf 09f1 77be
00000180: beec 4ac0 d260 03c1 a734 053e d134 1b3f
00000190: 70b6 18bf 4644 1040 46ca ea3e aa9d 1dc0
000001a0: 88d3 e53e d7ae b43f 8523 853f 941c d2bf
000001b0: fa31 1abf 65d0 123f 86a6 853e e61f e8be
000001c0: 9b63 20bc 9b6c 65be 5822 62bf cf9f af3f
000001d0: b32f 413f be4a b43f dbce d43e 6b37 3c40
000001e0: 6435 4c3f 7de8 f63f c02b 363f 3539 aa3f
000001f0: 6f61 ed3f 3c00 90bd fc1e 453f e934 4a3f
0.9104429 1.4197115 2.4362667 -0.9886052 -3.7733681 -0.004415646 0.04563828 -8.260855
1.2872051 -1.3234302 0.8777864 0.41620243 0.73386556 1.4016076 -5.640691 -0.7326848
-1.8401498 -3.0806417 1.2149607 -0.66851884 -0.97882265 0.32956794 1.4900603 1.0472366
-1.2066116 0.27084777 -0.024944838 1.4131947 -0.1288338 1.1310052 -0.5255959 1.3382337
0.8274945 1.9044626 1.1104364 -0.3242243 -2.3242903 -0.7949334 0.14730614 -0.6524957
-0.19397628 0.0013855073 -4.503186 0.46914855 3.1694458 0.8851499 -2.0994298 -0.84495246
-5.133253 1.024928 0.6703093 1.2602922 0.730376 0.09755661 1.0903615 -3.7070525
1.6282917 -1.0609955 0.4900065 -1.4466069 -0.17744842 0.48617992 1.1906103 -0.2054986
-1.2794623 -1.5266752 2.5684001 -1.1850855 -2.6495583 0.12034162 -2.6696851 0.68123466
0.66100323 0.42730287 1.1152036 0.34563723 -5.3248034 -1.0236319 1.4778608 -7.771972
-0.13061497 -1.7463602 0.083598696 -0.26631564 0.33045667 1.5986532 0.93322444 -1.1011664
0.88278663 0.21341549 0.5643643 -4.3898726 0.44392413 0.71436435 -1.4808525 -0.24213041
-3.1706996 -8.211138 0.13008367 0.60627466 -0.5965338 2.254167 0.45857447 -2.462748
0.44887948 1.4115857 1.0401465 -1.6414971 -0.6023251 0.57349235 0.2610361 -0.45336837
-0.009789373 -0.22404711 -0.88333654 1.3720645 0.7546341 1.408531 0.41564068 2.9408824
0.7976897 1.92897 0.7116051 1.3298708 1.8545359 -0.07031295 0.77000403 0.78986984

exp_avg_sq f4 [128]
00000000: 0b75 d740 a6c2 6941 7968 8242 9a69 8141
00000010: e2c2 b442 ba37 4a39 3c09 1140 a9db fa43
00000020: abc8 a641 7d9f 4541 4895 5541 ac69 5a40
00000030: 3c92 1e41 66f7 9941 c7f7 8243 7b80 3240
00000040: c702 5141 c92f 9743 6f66 9c41 ddcf 2c41
00000050: 62a1 e342 2d6f 0440 7b37 a541 e08a 5441
00000060: a34b 9441 2a34 b73f d20a fd3f e62d ad41
00000070: be64 bb40 d488 4841 0133 e742 d080 1042
00000080: 1521 3c41 98e1 6042 0e1a 8e41 c55c 1241
00000090: d71f d142 53d0 2740 82b8 a43f 6bbc 3e40
000000a0: 80b2 433f 1c3f 3a39 9209 b243 b5d7 0841
000000b0: 8fa5 9341 d73b 1141 28be 9642 e89e a640
000000c0: 6fe8 9443 b67e 3041 9bd3 b440 f0cf 6a41
000000d0: 1cf9 9640 78fc ca3f 43af 7d41 ecf3 4d43
000000e0: a6bc 9c41 5c82 b740 05c7 d740 d209 8d41
000000f0: 36c4 893f e51c 3040 6c30 8d41 4dd0 843f
00000100: 8ca8 bc41 5a55 9c41 8345 3f42 bb43 be40
00000110: 0cc0 1b42 57d0 a33e bfb2 8f42 6ff9 8540
00000120: 3fab 1b41 56e4 1840 5332 ea41 50b1 0040
00000130: db8b 9f42 2c62 de40 02eb 9941 1343 dc42
00000140: 01c8 913f a38d 9f43 55d3 273f 96a2 2b3f
00000150: 77fd 9e3f 789c 7841 b82b 3541 c22a c642
00000160: ac01 cb40 dfc1 2a40 0cf4 2041 d397 0643
00000170: f40d 1840 db4f 0141 4979 b142 9bde 223f
00000180: 79c7 5643 7d63 3444 729c cf3f 8761 9c40
00000190: 3abb 2b40 53a2 8242 88aa 5840 9308 a242
000001a0: e245 7e40 3b26 cc41 67d5 2041 0b69 1141
000001b0: 13f6 3840 4b44 a440 7ae6 1e40 ac3c c53f
000001c0: 6dd7 7c3f a7c6 4f3f e639 6540 dd28 0742
000001d0: ebe6 6741 8275 8741 f9c1 6240 282a e841
000001e0: 58b7 c541 311a 8642 7f8a f040 bbb1 e941
000001f0: 170c 0e42 7328 8f40 9df6 2d41 b41e cd40
6.7330375 14.610022 65.20405 16.176563 90.38063 0.00019284981 2.2661886 501.7161
20.847982 12.351438 13.348946 3.4126997 9.910702 19.2458 261.93576 2.7890918
13.063178 302.37332 19.550016 10.800748 113.8152 2.0692856 20.65209 13.283905
18.536932 1.4312794 1.9768927 21.647411 5.8560476 12.533405 115.59962 36.125793
11.758077 56.220306 17.762722 9.147649 104.56219 2.62209 1.2868807 2.9802501
0.76444244 0.00017761852 356.07477 8.552663 18.45584 9.077109 75.3714 5.2068977
297.8159 11.030935 5.6508307 14.675766 4.717909 1.5858297 15.8552885 205.95282
19.592113 5.734663 6.7430444 17.629795 1.0763004 2.7517636 17.648643 1.0376068
23.582298 19.541676 47.817883 5.945768 38.937546 0.31994888 71.84911 4.1866984
9.729308 2.3889365 29.274572 2.0108223 79.773155 6.949484 19.23975 110.131004
1.1389161 319.10654 0.6555684 0.6704496 1.2421101 15.5382 11.3231735 99.08351
6.343954 2.668083 10.059582 134.59306 2.3758516 8.081996 88.736885 0.6362092
214.77919 721.5545 1.6219618 4.886905 2.6833024 65.31704 3.3854084 81.01675
3.9730153 25.518667 10.0521 9.088145 2.8900192 5.1333365 2.4828172 1.540914
0.98766214 0.81162494 3.5816588 33.789906 14.493876 16.932377 3.5430892 29.020584
24.714523 67.051155 7.5169063 29.211782 35.511806 4.4736876 10.872708 6.409998

exp_avg f4 [27, 128, 3]
00000000: 59a1 1e39 0400 0000 0400 0000 706d 3939
00000010: 0400 0000 0400 0000 f710 9538 0400 0000
00000020: 0400 0000 8ce9 9f38 0400 0000 0400 0000
00000030: 44fe 4538 0400 0000 0400 0000 c278 92b6
00000040: 0400 0080 0400 0080 52fb 1939 0400 0000
00000050: 0400 0000 bd89 0839 0400 0000 0400 0000
00000060: 249f c039 0400 0000 0400 0000 1ae5 5f39
00000070: 0400 0000 0400 0000 4176 6c39 0400 0000
00000080: 0400 0000 ee62 2139 0400 0000 0400 0000
00000090: 1cfe fe38 0400 0000 0400 0000 ada5 b938
000000a0: 0400 0000 0400 0000 251c 9439 0400 0000
000000b0: 0400 0000 f8ee 8339 0400 0000 0400 0000
000000c0: 726d df37 0400 0000 0400 0000 bc5b a238
000000d0: 0400 0000 0400 0000 8152 cc38 0400 0000
000000e0: 0400 0000 af29 8338 0400 0000 0400 0000
000000f0: c801 47b3 0400 0000 0400 0000 561e 0d39
00000100: 0400 0000 0400 0000 bf5e 3e39 0400 0000
00000110: 0400 0000 7ed2 e538 0400 0000 0400 0000
00000120: 63fd ac38 0400 0080 0400 0000 5d71 e738
00000130: 0400 0000 0400 0000 0179 9638 0400 0000
00000140: 0400 0000 0380 2537 0400 0000 0400 0000
00000150: 39b2 9539 0400 0000 0400 0000 44bd 2439
00000160: 0400 0000 0400 0000 3263 9638 0400 0000
00000170: 0400 0000 d1d7 9135 0400 0000 0400 0000
00000180: a52a d2b4 0400 0000 0400 0000 bc5b f938
00000190: 0400 0000 0400 0000 e892 3c39 0400 0000
000001a0: 0400 0000 de98 d538 0400 0000 0400 0000
000001b0: 9edf 073a 0400 0000 0400 0000 ada7 b1b4
000001c0: 0400 0000 0400 0000 7737 3539 0400 0000
000001d0: 0400 0000 f051 8a39 0400 0000 0400 0000
000001e0: bea1 3c39 0400 0000 0400 0000 a71b e7b5
000001f0: 0400 0080 0400 0080 c420 6c38 0400 0080
00000200: 0400 0080 bd27 dc36 0400 0000 0400 0000
00000210: 5f16 e6b5 0400 0080 0400 0080 c0b0 f937
00000220: 0400 0000 0400 0000 a4a5 6338 0400 0080
00000230: 0400 0080 0626 1539 0400 0000 0400 0000
00000240: f01b f636 0400 0000 0400 0080 f085 7039
00000250: 0400 0000 0400 0000 59cd 1239 0400 0000
00000260: 0400 0000 043f bd38 0400 0000 0400 0000
00000270: e55a 6439 0400 0000 0400 0000 ebdc 5a39
00000280: 0400 0000 0400 0000 18c3 8239 0400 0000
00000290: 0400 0000 0023 c9b2 0400 0080 0400 0080
000002a0: 2257 b835 0400 0000 0400 0000 2bd6 0d36
000002b0: 0400 0000 0400 0000 4935 9e38 0400 0000
000002c0: 0400 0000 bc3f 7939 0400 0000 0400 0000
000002d0: fb86 c438 0400 0000 0400 0000 d7e4 fbb4
000002e0: 0400 0000 0400 0000 6440 6339 0400 0000
000002f0: 0400 0000 8ce9 1439 0400 0000 0400 0000
00000300: 019a 4b38 0400 0000 0400 0000 0fd8 ffb4
00000310: 0400 0000 0400 0000 f8e6 9338 0400 0000
00000320: 0400 0000 6734 cc37 0400 0000 0400 0000
00000330: 0f6a 4439 0400 0080 0400 0080 6d29 0d39
00000340: 0400 0000 0400 0000 18c6 6b39 0400 0080
00000350: 0400 0000 06b0 7838 0400 0000 0400 0000
00000360: 808f ca38 0400 0000 0400 0000 0747 8239
00000370: 0400 0000 0400 0000 1dc8 7838 0400 0000
00000380: 0400 0000 8c1c db38 0400 0000 0400 0000
00000390: 5a9d 2839 0400 0000 0400 0000 04b8 f238
000003a0: 0400 0000 0400 0000 4d2d e637 0400 0000
000003b0: 0400 0000 4c34 7336 0400 0000 0400 0000
000003c0: 0a2b 0c36 0400 0000 0400 0000 362b bab5
000003d0: 0400 0000 0400 0000 5c78 6839 0400 0000
000003e0: 0400 0000 73d0 5739 0400 0000 0400 0000
000003f0: 043b 8e39 0400 0000 0400 0000 a39e a439
0.00015128161 6e-45 6e-45 0.00017683743 6e-45 6e-45 7.1080336e-05 6e-45
6e-45 7.625212e-05 6e-45 6e-45 4.7205263e-05 6e-45 6e-45 -4.365197e-06
-6e-45 -6e-45 0.00014684841 6e-45 6e-45 0.00013021282 6e-45 6e-45
0.00036739663 6e-45 6e-45 0.00021352284 6e-45 6e-45 0.00022550767 6e-45
6e-45 0.0001539101 6e-45 6e-45 0.000121589954 6e-45 6e-45 8.852347e-05
6e-45 6e-45 0.0002824973 6e-45 6e-45 0.00025164313 6e-45 6e-45
2.6634636e-05 6e-45 6e-45 7.741849e-05 6e-45 6e-45 9.7428456e-05 6e-45
6e-45 6.254331e-05 6e-45 6e-45 -4.6334918e-08 6e-45 6e-45 0.00013458109
6e-45 6e-45 0.00018155108 6e-45 6e-45 0.00010958778 6e-45 6e-45
8.248796e-05 -6e-45 6e-45 0.00011036054 6e-45 6e-45 7.175096e-05 6e-45
6e-45 9.864571e-06 6e-45 6e-45 0.0002855228 6e-45 6e-45 0.00015710766
6e-45 6e-45 7.171034e-05 6e-45 6e-45 1.0866153e-06 6e-45 6e-45
-3.9146576e-07 6e-45 6e-45 0.00011890332 6e-45 6e-45 0.00017983804 6e-45
6e-45 0.00010185105 6e-45 6e-45 0.0005183163 6e-45 6e-45 -3.309082e-07
6e-45 6e-45 0.00017282167 6e-45 6e-45 0.0002638246 6e-45 6e-45
0.00017989331 6e-45 6e-45 -1.7218889e-06 -6e-45 -6e-45 5.62973e-05 -6e-45
-6e-45 6.561137e-06 6e-45 6e-45 -1.7142846e-06 -6e-45 -6e-45 2.9765419e-05
6e-45 6e-45 5.4275282e-05 -6e-45 -6e-45 0.00014223912 6e-45 6e-45
7.3346237e-06 6e-45 -6e-45 0.00022938079 6e-45 6e-45 0.00014000143 6e-45
6e-45 9.02396e-05 6e-45 6e-45 0.00021777635 6e-45 6e-45 0.00020872398
6e-45 6e-45 0.00024940888 6e-45 6e-45 -2.3415396e-08 -6e-45 -6e-45
1.3734427e-06 6e-45 6e-45 2.11353e-06 6e-45 6e-45 7.543952e-05 6e-45
6e-45 0.00023770233 6e-45 6e-45 9.3711504e-05 6e-45 6e-45 -4.6918896e-07
6e-45 6e-45 0.00021672394 6e-45 6e-45 0.00014201383 6e-45 6e-45
4.85424e-05 6e-45 6e-45 -4.7654655e-07 6e-45 6e-45 7.0525275e-05 6e-45
6e-45 2.4343097e-05 6e-45 6e-45 0.00018731527 -6e-45 -6e-45 0.0001346224
6e-45 6e-45 0.00022485142 -6e-45 6e-45 5.9291742e-05 6e-45 6e-45
9.6588396e-05 6e-45 6e-45 0.00024848452 6e-45 6e-45 5.9314178e-05 6e-45
6e-45 0.00010448051 6e-45 6e-45 0.00016080347 6e-45 6e-45 0.00011573735
6e-45 6e-45 2.7439231e-05 6e-45 6e-45 3.6240262e-06 6e-45 6e-45
2.0886678e-06 6e-45 6e-45 -1.3870656e-06 6e-45 6e-45 0.00022170082 6e-45
6e-45 0.00020581651 6e-45 6e-45 0.0002712832 6e-45 6e-45 0.0003139871
