src/hero/experiments/justification/models/[all] SmallBTCNN_SmallFCNN_1.pth (torch, 57818 bytes, 15 tensors)

btcnn.layers.0.conv1d.weight f4 [27, 27, 3]
000000 67 e8 05 3e 97 ff dd bd 54 85 ff 3d 6f 36 2a 3d
       0.13076936 -0.108397655 0.12476602 0.04155582
000010 6c 5e 3f bd c9 0b 21 3e ee 84 7e 3d 40 e4 ba 3c
       -0.046720907 0.15727152 0.06213849 0.022813916
000020 5c 90 76 3d 1e af a9 3c 2f 16 27 bc 65 9c 20 be
       0.060196266 0.020713385 -0.01019816 -0.1568466
000030 76 84 cf 3d 5d 3b 0a 3d 63 d2 96 bd 8a 4f 16 be
       0.10132687 0.03374802 -0.07364347 -0.14678779
000040 2f c7 c9 bd bb d8 af 3d 7e 7f 25 be 18 15 e3 bc
       -0.098524444 0.0858626 -0.16161916 -0.02772002
000050 bf 7e 2a 3e 5b a0 71 3d 93 77 00 be 45 9d 21 3d
       0.16649912 0.058990818 -0.12545614 0.039456625
000060 14 bb 12 3e 68 74 e1 bc da 70 1d 3e ad 80 36 bd
       0.14329177 -0.027521327 0.1537508 -0.04455631
000070 d4 d9 c9 3d 8a 16 45 3e 82 e0 91 3d 97 af eb 3d
       0.098560005 0.19246879 0.071228996 0.115081005
000080 36 46 8e 3d ac 4a ac bd bf 99 70 3d c7 eb 24 3e
       0.069469854 -0.0841268 0.058740374 0.16105567
000090 16 2b c7 3d 9c 5f 2d bc 1d ef 16 be 09 9a cb 3d
       0.09725015 -0.010581877 -0.14739652 0.09941489
0000a0 17 a1 21 be 7c bd 79 be 30 cc 0f 3e 63 0f 45 bc
       -0.15784107 -0.24388689 0.14042735 -0.012027594
0000b0 59 07 1d 3e 46 81 c0 bd 74 f7 0d 3b ae 98 75 3d
       0.15334834 -0.09399657 0.0021662386 0.05996006
0000c0 f0 37 08 bd fc 02 4f 3c d1 dc c1 3d e9 b4 fb bd
       -0.03325647 0.012634989 0.094659455 -0.12290365
0000d0 af a0 91 3b 98 ff f8 bd 51 e9 d0 3d 91 76 ec bc
       0.004444204 -0.12158126 0.102007516 -0.02886513
0000e0 96 6c 33 bd 75 38 99 bd fa 3e b0 bc 62 de 95 3c
       -0.043804727 -0.074814714 -0.021514405 0.018294517
0000f0 47 55 05 bd e4 d4 a1 bd 89 0c c3 3d 24 d5 8d bd
       -0.03255203 -0.07901934 0.09523875 -0.06925419
000100 fd 94 8a 3d 4b 07 09 3d 40 d4 d0 bb 4b e0 8f bd
       0.067666985 0.03345422 -0.0063729584 -0.07025202
000110 cc ac fb bd d1 16 09 3e 68 b6 0d be 28 82 f2 bd
       -0.12288818 0.1338761 -0.13839114 -0.118412316
000120 4c 02 8c 3d 8e 57 9f bd d2 74 47 3c 9a 91 32 3d
       0.068363756 -0.077803716 0.012173848 0.043595888
000130 e6 e6 f2 bd 00 4d 50 3e 4a 36 5b be f9 85 1b 3e
       -0.11860447 0.20341873 -0.21407428 0.15187825
000140 9f 60 4a 3d 48 1c e6 bd 38 7e 24 3e 75 51 2e bc
       0.04940855 -0.11235863 0.16063774 -0.010639538
000150 09 ff bc bd 44 67 8d 3c 46 9c 3c bc 46 58 b4 bd
       -0.092283316 0.017261155 -0.011511868 -0.08805899
000160 95 d5 18 bb 69 8f 1b 3d 69 8f 48 3d 92 e9 35 bd
       -0.0023320664 0.037978563 0.04896489 -0.044412203
000170 e8 e8 cc 3d 76 61 5b 3e 39 db 31 3e 4e 43 df 3c
       0.10005361 0.21423897 0.17368783 0.027253773
000180 df 04 4d 3e ef 7e b0 3d ba 2c 8f ba 20 96 cf bd
       0.2002139 0.08617961 -0.0010923364 -0.10136056
000190 9c 26 66 3d 9d 62 fa 3c 25 af 17 3d fa f3 a7 3d
       0.056189165 0.0305646 0.037032265 0.08200832
0001a0 9b d3 35 3d b6 94 56 bd b2 67 d2 3d 7c 5e f2 bc
       0.044391256 -0.052387916 0.102736846 -0.02958607
0001b0 33 9b 18 bd a1 e5 03 be e2 2c 89 bd 44 f3 0c 3e
       -0.037257385 -0.12880565 -0.06698014 0.13764673
0001c0 0d cf f2 bc 99 3d 37 3e eb 2e 0b 3c 53 8a b8 bd
       -0.029639745 0.17894591 0.008495073 -0.09010758
0001d0 a7 8e 87 3d fd f2 dd bd b4 01 03 3e 8d e6 aa bc
       0.06619006 -0.10837362 0.12793618 -0.020861888
0001e0 3b fa 55 3d 32 f3 c0 bd a2 11 f8 3d 63 b6 96 3d
       0.05224059 -0.09421386 0.12112738 0.07359006
0001f0 f1 17 56 bd 47 20 69 3b fb 72 da 3d 68 1b 23 3e
       -0.052268926 0.0035572217 0.10666462 0.15928423
000200 be c1 b7 bc c4 7c de 3b 58 64 6e 3d ee a9 e6 3b
       -0.02243125 0.0067897756 0.058201164 0.0070393
000210 b1 63 ea 3d 87 c2 55 3d 30 80 11 b9 cd 75 e5 3d
       0.11444796 0.05218747 -0.00013876031 0.11204109
000220 b8 a9 fc 3d db cd 45 bd ad c7 bc bd 06 ff 9a 3d
       0.12337059 -0.048292022 -0.09217773 0.07568173
000230 68 01 1c 3e f1 59 11 be f1 8e c2 bd 0d eb 07 bd
       0.15234911 -0.14194466 -0.0949992 -0.033183146
000240 5a d1 99 bb 52 a6 d7 bd 8f 72 64 3d 3b 8f 37 3e
       -0.004694146 -0.1052977 0.055773314 0.17925732
000250 53 10 8c bd 00 35 85 bc f6 75 f7 bc 6a 2f 1b 3d
       -0.06839051 -0.016260624 -0.030207615 0.037887014
000260 93 9a 52 3e 68 ca 4e 3d 0e af 44 3c c4 37 42 3e
       0.20566778 0.050486 0.012004627 0.18966585
000270 88 9d 32 3e 2d 49 28 bd 65 ef 97 bd bc 6d d5 3d
       0.17442906 -0.04108541 -0.07418708 0.10421321
000280 64 e0 c8 3c 1c 4a 06 3e 07 7f c4 bb 4c 16 00 3c
       0.02452106 0.13114208 -0.005996588 0.007817816
000290 b5 70 da 3c 4d b1 70 3d 9f 7f 93 3d 46 34 20 3c
       0.026665071 0.058762837 0.07202076 0.009778088
0002a0 79 2c 3b be b3 3c ac 3d aa bd 0d be 78 46 1c 3d
       -0.18278684 0.08410015 -0.13841882 0.03815314
0002b0 a5 13 bb ba a9 fe b5 bd 9c 0b 30 3d 0d e0 cd 3d
       -0.0014272822 -0.08886463 0.04297982 0.100525
0002c0 df ae e8 3d 70 90 8f bd 8e d1 fa 3d 7f 0a a2 3b
       0.11361479 -0.07009971 0.12247001 0.004945099
0002d0 4c ba b4 3d c9 e1 aa 3d bc 6a 64 bd 1a 22 d3 bd
       0.08824596 0.08343846 -0.055765852 -0.10309239
0002e0 e6 f9 33 bd 57 1a 3b 3d 16 2c 2b 3d 29 a9 d5 bc
       -0.043939494 0.045679417 0.04179009 -0.026081638
0002f0 cb 60 52 3d 2e 69 d7 bd 31 a8 e2 3c a4 e0 40 3e
       0.05136184 -0.10518108 0.02766809 0.18835694
000300 96 47 79 bd ca 9c fb bc c2 b9 62 3c 9e 7b 2e bd
       -0.060859285 -0.030714411 0.013838233 -0.04259836
000310 ab 11 da bd 16 0d 87 3b d6 55 50 be 52 96 a1 bd
       -0.10647901 0.004121433 -0.20345244 -0.078899994
000320 92 36 17 3e d5 4c 66 be 3d 28 38 bd 16 4e 1e 3e
       0.1476691 -0.22490247 -0.04496025 0.15459475
000330 22 98 80 3d a9 29 95 3d d9 4d ea bc 11 7a 46 3e
       0.06279017 0.07283337 -0.028601574 0.19382502
000340 c3 16 36 3d a4 c3 64 3e c9 6c 86 3d 7a 7c 6f bd
       0.0444553 0.22340256 0.06563718 -0.05846832
000350 47 65 aa 3d fb 7f fd 3d b3 aa 41 3e d0 14 77 39
       0.08320098 0.12377926 0.18912773 0.00023563509
000360 f7 44 38 3d 30 46 39 bd 24 7f 02 3d 62 60 14 3e
       0.044987645 -0.04523295 0.031859532 0.14489892
000370 1f bc b4 bd 84 9e 36 3e 81 64 a1 bd e7 a6 13 3d
       -0.08824944 0.17833906 -0.07880498 0.036047842
000380 e4 9b f2 bd 6f dd 8c bd d6 78 24 3e 6c cc f8 3d
       -0.1184614 -0.068781726 0.1606172 0.121483654
000390 8b 74 a8 ba 3a f7 da bc c6 69 33 3d 53 68 ec 3c
       -0.0012852115 -0.026729215 0.043802045 0.02885834
0003a0 33 cf 29 bd 20 2c 46 3b 47 01 a8 bd c6 89 70 3c
       -0.041457366 0.0030238703 -0.08203369 0.014681285
0003b0 5c 0a dd 3d d7 f1 cd bd f7 36 84 bd 9a 77 03 3d
       0.107929915 -0.10055893 -0.06455796 0.032096483
0003c0 31 95 19 3d 5f ae 9c 3d 52 1a 8f 3d 92 fe 8a bd
       0.037495796 0.07650446 0.06987442 -0.06786837
0003d0 19 52 f4 bc e4 75 03 3d f9 b2 09 3e 64 08 fc 3d
       -0.029824303 0.03209485 0.13447179 0.12306288
0003e0 4d d8 08 bd ff 9b 07 be 79 cb 0d bc 7f ab 22 3b
       -0.033409405 -0.13243102 -0.008654469 0.0024821458
0003f0 19 b3 67 bc fe 93 e3 3d 19 b4 5a 3c 9c b6 c1 3d
       -0.014141821 0.11112212 0.013348603 0.09458658

btcnn.layers.0.conv1d.bias f4 [27]
000000 07 96 96 bd 00 67 6b bc b1 56 84 3d 99 46 cb bd
       -0.07352834 -0.014367819 0.064618476 -0.09925575
000010 e0 92 51 3c 4f 2d a3 bb a5 25 c4 3d 23 1f 9b 3d
       0.012791365 -0.0049797664 0.095774926 0.07574298
000020 59 9c 21 3d ad ef 82 bc d1 88 ca 3c 16 c1 01 3e
       0.039455745 -0.015983427 0.024723442 0.12671313
000030 c9 ab f9 bc 16 64 98 3b 4a 84 17 3d 8a 07 29 3d
       -0.030477421 0.004650603 0.036991395 0.041266955
000040 b7 a2 d1 bd d8 c1 c9 bc 6b 46 ff bd e0 c4 5a 3d
       -0.102361135 -0.024628565 -0.12464603 0.05341041
000050 65 c5 0e bd f7 06 05 be fc b1 0f 3e 8b 44 8c 3c
       -0.03485622 -0.12990938 0.1403274 0.017122528
000060 e2 95 de bb c6 8e 0b bd bb 57 9b 3c
       -0.00679277 -0.034071706 0.018962732

fcnn.0.weight f4 [64, 27]
000000 03 ab 07 bf a9 b6 98 3d 09 04 62 3e 7c 05 9c be
       -0.5299532 0.07456715 0.22071852 -0.30472934
000010 b7 9f 62 3d f5 09 cf be 85 06 10 3d 23 15 34 bd
       0.055328097 -0.40437284 0.035162468 -0.04396547
000020 02 07 b0 3c 90 57 f9 be 4d 6f 08 bc 88 22 70 3e
       0.021487717 -0.48699617 -0.008327317 0.23450673
000030 6c 57 64 3e 57 9a d7 be 76 fb 2f 3d ee 08 1f 3e
       0.22298974 -0.4210994 0.04296442 0.1553075
000040 8c 4b 24 3e a9 25 a6 3e 33 1a 89 3e 1f cf dc be
       0.16044444 0.32450607 0.267778 -0.4312677
000050 0d 14 3f be d2 53 88 3e 3b 81 42 3e 0f da 59 bd
       -0.18659993 0.2662645 0.1899461 -0.053186473
000060 49 62 8e 3e 5b 35 c1 3d 5c fb 7d bd 09 b0 f3 3d
       0.2780936 0.09434005 -0.062007293 0.118988104
000070 aa 3d 43 be 35 74 25 be 17 aa 1c 3e 04 bf 64 be
       -0.19066492 -0.1615761 0.15299259 -0.22338492
000080 6c 88 27 3e fc 53 16 be 09 eb 0e 3e 54 0c 7e bd
       0.16360635 -0.14680475 0.13956846 -0.062023476
000090 a9 87 9d 3e b0 31 07 be d9 ac f3 3d 6e ec 84 bd
       0.30767563 -0.13202548 0.118982024 -0.06490408
0000a0 0a 08 9f 3e c7 28 84 bd db 24 2c be 12 86 85 be
       0.3106082 -0.0645309 -0.16810934 -0.2607885
0000b0 26 51 e1 bd c3 18 43 3d e3 41 63 3c d7 39 79 3e
       -0.11001806 0.047631036 0.013870689 0.2433847
0000c0 1a f2 bc bd ee d2 31 be 45 09 26 3d ee d2 06 be
       -0.09225865 -0.1736562 0.040536184 -0.13166401
0000d0 ed 93 c9 bd 58 3d be bd c6 5c 82 3d ba e0 58 bc
       -0.09842668 -0.09289044 0.063653514 -0.013237173
0000e0 76 84 6a be d8 f4 2d 3e cc 9d 01 3e 45 81 68 3d
       -0.22902092 0.16987932 0.12657851 0.056763906
0000f0 cb 42 8f bd dd d4 2f be a9 87 ef bd 37 c7 46 3e
       -0.069951616 -0.17171045 -0.11695797 0.19411932
000100 a0 77 fb 3c 64 d5 05 3e 1a 0e 0c bd ed 82 07 3e
       0.03069669 0.13069683 -0.034193136 0.13233538
000110 d0 1e 89 bc 95 67 07 bb a3 49 1d 3e 09 26 a4 be
       -0.016738325 -0.0020661105 0.15360121 -0.3206027
000120 bf b6 84 3d 86 e2 80 bb a3 75 19 bd 93 f8 42 be
       0.064801686 -0.0039332537 -0.037465703 -0.19040136
000130 7a 79 2b 3e 62 c1 e0 3d f5 6f c0 bc 59 fb 42 be
       0.16745558 0.10974385 -0.023490885 -0.19041194
000140 5d 25 ed 3d 0a ec f3 be df ae 81 3e b4 58 5c 3c
       0.11579392 -0.4764102 0.2532873 0.013448883
000150 ee a0 c6 be cd 1d 3a 3e e6 92 59 be 92 eb 23 3e
       -0.38794655 0.1817543 -0.21247444 0.16007832
000160 9f b9 47 3e 26 3b 52 3d 63 d0 95 be 5b d0 a9 bd
       0.19504403 0.05132594 -0.2926055 -0.08291694
000170 c9 13 7a 3e 10 a4 4c bd b6 c1 90 be a5 52 e2 bd
       0.2442161 -0.04996115 -0.2827279 -0.110509194
000180 75 57 9a bd 65 dd 70 3e 28 6e 6b 3d 66 f0 96 3d
       -0.07536212 0.23521955 0.0574781 0.07370071
000190 bf b5 81 be 02 f1 c0 be 7b e8 ed 3d 55 d7 0d 3e
       -0.25333974 -0.37683874 0.11616608 0.13851674
0001a0 6e a0 2e 3e 3e 6d b9 3d 9c 80 3b 3e 1a 51 8a 3e
       0.17053387 0.090540394 0.1831078 0.27015
0001b0 8a 7e 0e bf 2d ee 4a 3e 12 64 46 3e eb 3a 88 be
       -0.55661833 0.1981742 0.19374111 -0.2660745
0001c0 01 b6 85 3e 82 23 8b be 8b 94 a0 bd 0f 2c 2a bd
       0.2611542 -0.27175528 -0.07840832 -0.041545924
0001d0 ce 0c f4 3b 4b 82 f9 be fc 9d 45 bc 91 90 7b 3d
       0.0074478155 -0.48732218 -0.012061592 0.061417166
0001e0 3b f3 0f bd 3e f3 1e bf de 19 61 3e 38 79 84 3e
       -0.035144072 -0.6208991 0.21982524 0.25873733
0001f0 5d b1 79 3e 23 63 9d 3e 90 5f 86 bd ac 6c 21 be
       0.24384065 0.30739698 -0.06561196 -0.15764111
000200 70 60 36 be f8 6c 05 3e 02 47 fd bd 78 09 41 3e
       -0.17810225 0.1302985 -0.12367059 0.18851268
000210 98 d2 28 bd 24 dc d0 3d 8f 65 5b bd 0d 51 eb be
       -0.041216463 0.101982385 -0.05356365 -0.45960274
000220 d1 3d 30 3c 5d 32 88 3e b9 6a cc bd f2 6f ab 3c
       0.010756926 0.26600924 -0.09981293 0.020927403
000230 40 22 b9 be ce c2 d4 bd f1 bf 2c bd 78 87 15 3e
       -0.36158943 -0.103887185 -0.042175237 0.14602458
000240 c4 09 c6 be 38 fc 63 3e 7f 92 ab 3d c9 3f e8 3d
       -0.38679326 0.22264183 0.08377551 0.11340291
000250 ab 31 a6 be da 3c 53 3e b8 b4 2d 3e 45 b4 22 3e
       -0.3245977 0.20628682 0.1696347 0.1588908
000260 ff 03 32 3e 2b 69 bd bd e4 70 d8 be 8f 7a bb be
       0.17384337 -0.09248575 -0.4227363 -0.36616942
000270 37 5d 85 3e 8e 33 45 3e d8 63 fa bd ee 5d 0a 3e
       0.2604768 0.19257948 -0.12226075 0.13512394
000280 25 c9 43 3e 3e e5 4d 3c 0b fe 8e 3e bc e4 d5 bd
       0.191197 0.012566863 0.27928194 -0.10444018
000290 ea 07 95 bc 55 70 bd 3e 84 7e 0b bd 66 f6 dd 3e
       -0.01819225 0.36999765 -0.0340562 0.4335205
0002a0 d3 4e 30 be 81 d6 63 be 8b 5a 16 bd 21 2b fd 3e
       -0.17217569 -0.22249795 -0.036707442 0.49446967
0002b0 13 03 ed bd 62 2f 84 3d dd 84 4e 3c 05 aa 8a 3e
       -0.11572852 0.0645435 0.012604919 0.2708284
0002c0 e0 7b 29 3d 1c ca 70 be f7 49 70 bd b3 67 6d be
       0.041377902 -0.23514599 -0.05866429 -0.2318409
0002d0 d6 43 21 be 91 a9 bc 3d 5e 65 3c 3e 72 51 11 be
       -0.15748534 0.0921203 0.18398044 -0.14191225
0002e0 fc 02 f6 3c 7d b8 4e be 4f db 3f be fb 78 bc 3d
       0.03003072 -0.20187564 -0.18736003 0.09202763
0002f0 9e d1 c8 bd b7 e4 c7 3c 6e 2d 07 be f6 df 26 3e
       -0.09805606 0.024401052 -0.13200924 0.16296372
000300 e9 66 bf 3c ea bf 40 3d 78 e9 be bc f9 76 11 3e
       0.023364501 0.047058024 -0.023304686 0.1420554
000310 81 b9 d1 3c f8 50 0a bd cb e1 27 3e de 7d 2e be
       0.02560115 -0.033768624 0.16394727 -0.17040202
000320 b6 ce 25 be 67 62 10 3e 55 2d ab bd 10 5f 50 be
       -0.16192135 0.14100038 -0.08358256 -0.20348763
000330 44 88 99 3d d7 85 1d be 16 58 c9 bd 3e c0 44 be
       0.07496694 -0.15383087 -0.09831254 -0.1921396
000340 7d 47 0a 3e f6 d9 c2 bd a1 34 0b 3e a6 a6 1a 3e
       0.13503833 -0.09514229 0.13594295 0.15102634
000350 82 2b 98 3d 90 99 a2 bb 7a 6a 3b be f8 40 17 be
       0.074301735 -0.0049621537 -0.18302336 -0.14770877
000360 20 83 a4 3e 1b c4 0e be 76 c9 e9 3d 3f ad cc 3e
       0.3213129 -0.13941996 0.11415379 0.39975926
000370 f9 5e 48 be e7 7e ed 3e f2 8d 2e 3e 1e 1b 2b be
       -0.19567479 0.4638588 0.17046335 -0.16709563
000380 b1 98 ac bd 79 05 0d 3f fe b3 7e bd 5b 28 10 3e
       -0.08427561 0.55086476 -0.062183373 0.14077894
000390 27 67 66 bd f2 68 21 3f 4b 61 90 bd 1a 70 21 bd
       -0.056250717 0.6305076 -0.07049807 -0.03941355
0003a0 b4 3e 1c 3d a6 d0 9a be 10 29 58 be 2a 67 ff 3e
       0.038145736 -0.3023731 -0.21109414 0.49883395
0003b0 28 b6 eb 3e e7 7d 92 be 53 e2 01 3e 89 57 ff 3d
       0.46037412 -0.2861168 0.12683992 0.12467868
0003c0 75 22 86 3d fa d8 9e bd 48 e1 e5 bd 4b 45 ea be
       0.06549541 -0.07756229 -0.112246096 -0.4575599
0003d0 44 ac c8 bd 0a bd 14 3d 1f 66 6a be a1 5b 7c bd
       -0.09798482 0.036313094 -0.22890519 -0.06161082
0003e0 71 7e 0f bf c0 c1 06 3e 7e 96 6e 3d 55 52 f9 bd
       -0.5605231 0.13159847 0.05824899 -0.12173907
0003f0 e9 92 ff be 17 12 de 3d 0c f0 7b bd b8 b7 9c 3e
       -0.4991677 0.10843294 -0.061508223 0.30608916

fcnn.0.bias f4 [64]
000000 8d 9d cd 3d bb 4f 0b 3d 56 c1 5d bd 5a a0 f6 3d
       0.10039816 0.034011584 -0.054139458 0.120423034
000010 9b aa 89 bd 19 9f 08 3e ca c5 7b 3d 9a 5d 1d 3e
       -0.067219935 0.13341941 0.061467923 0.15367737
000020 82 1a ce 3d 50 66 8a 3d 83 d5 07 be fb 4d 25 3e
       0.1006365 0.06757796 -0.13265042 0.16143028
000030 42 e3 26 bd 43 4e f0 bd 5e 72 13 3e 4a a2 9c 3c
       -0.040744074 -0.11733677 0.14399096 0.019120354
000040 fb a9 3d be eb 47 f4 bd b1 34 cd 3c e5 04 a9 bd
       -0.18521874 -0.1192778 0.02504954 -0.08252887
000050 47 89 04 be 7d 14 1f 3e a1 a5 0c 3e 70 fc c8 bb
       -0.12942992 0.1553516 0.13735057 -0.0061336085
000060 9d a5 d2 bd 1f 4b 27 3e da 92 17 3c 1d 4b 00 be
       -0.102854945 0.1633725 0.009251321 -0.12528653
000070 6e 9e fb 3b 7e 84 2a be 14 99 3c 3c 72 2b f2 3d
       0.0076787984 -0.16652104 0.011511106 0.11824693
000080 2c 52 43 3e 2d 2e 1c be 90 ad 22 3e 19 07 41 bd
       0.19074315 -0.1525199 0.15886521 -0.04712591
000090 67 f7 31 be 59 7b 1c be cb bb 69 bd 36 bc ed bd
       -0.17379533 -0.15281428 -0.05706386 -0.11608164
0000a0 9c 86 33 bd 6b ec 58 be f8 bc 2c 3e a2 3e 63 bd
       -0.043829545 -0.21183936 0.16868961 -0.055479653
0000b0 4d 5a 05 be 0f e4 92 bd b9 ef cb bc 4f a9 f3 bd
       -0.13022728 -0.07172405 -0.024894582 -0.118975274
0000c0 50 a8 8d bd 06 5e 9b 3d b3 c6 d2 3d 13 41 aa bd
       -0.06916869 0.07586293 0.10291805 -0.08313193
0000d0 ef 58 7a 3d 42 39 65 bc b6 e5 a5 bd 91 34 26 3d
       0.06111997 -0.013990702 -0.081004545 0.040577475
0000e0 a8 83 ae bd 1c d5 e4 3d 67 fd 89 bd 5e 4d 7a 3d
       -0.08521205 0.1117346 -0.06737786 0.06110894
0000f0 50 42 87 3d b6 3e 83 3c d2 d4 27 be fb 1d 27 be
       0.06604445 0.016021114 -0.16389778 -0.1632003

fcnn.2.weight f4 [1, 64]
000000 ae 36 22 3e b5 43 5a be ac cc 0a be 63 e5 44 3e
       0.15841171 -0.2131489 -0.13554639 0.19228129
000010 08 de 93 3e 2a 74 71 3e 4a fb 1b be fc fe ac bd
       0.28880334 0.2357947 -0.15232578 -0.08447072
000020 6f e7 d6 be 52 2c 23 3e 49 fd 29 be 91 a1 0b 3e
       -0.41973445 0.15934876 -0.16600527 0.13635851
000030 78 ca 0f bf 2a 4d 66 3e fd 0b 0d be 90 aa 4f 3e
       -0.5616832 0.22490373 -0.13774104 0.20279908
000040 8c 8d 39 be 18 5c 45 be 4f 63 04 3e c0 69 e3 bd
       -0.18120402 -0.19273412 0.12928508 -0.111041546
000050 ed 53 35 3e 31 02 16 3e ea 88 ed 3d ed 19 87 3e
       0.17707796 0.14649273 0.1159838 0.26386967
000060 2a d1 6a bc e6 cc 9f bd 3f 74 88 bd 45 23 0d bf
       -0.014332095 -0.07802753 -0.06662797 -0.5513194
000070 a4 44 42 3e af 43 51 be f3 b2 25 3e 43 1e 68 bd
       0.18971497 -0.20435975 0.16181545 -0.056669485
000080 c0 69 7c 3e 34 2b 5f be 6d 55 da be 82 70 7a be
       0.24649715 -0.21793824 -0.426433 -0.24456981
000090 31 52 09 be 94 d6 e3 bd af 1e 97 3e 0c d8 5e be
       -0.1341026 -0.11124912 0.29515597 -0.21762103
0000a0 cb 5a 47 3e 6a b0 b8 bc 55 1a d3 be ae 7b 61 be
       0.19468229 -0.022545058 -0.41231027 -0.22019836
0000b0 ff 15 1c be 4a 69 c6 3e b2 7f 1d 3e 07 0a 67 3e
       -0.15242766 0.38752204 0.15380743 0.22562419
0000c0 0f 14 33 3e a5 52 59 3e 7c c9 db be 09 6f 54 3e
       0.1748812 0.21222933 -0.42927158 0.20745482
0000d0 6d e0 23 3e dc 39 0f be e3 9e 9b be 13 b8 38 be
       0.1600358 -0.13986915 -0.30394658 -0.18038969
0000e0 9c 05 0d bf e4 28 c1 be 81 f4 8a bd a3 ba 3d 3e
       -0.55086684 -0.3772651 -0.06784917 0.18528228
0000f0 21 49 49 3e c5 de 88 be d6 7b 50 3e f6 92 2f be
       0.19656803 -0.2673246 0.2035974 -0.17145905

exp_avg f4 [27, 27, 3]
000000 00 24 6b c1 19 79 da c0 e8 07 26 c1 ff 19 46 c1
       -14.696289 -6.8272824 -10.37693 -12.381347
000010 76 c5 b2 c0 ed 49 3a c1 b9 3b 47 c1 22 01 1c c1
       -5.586604 -11.643048 -12.452081 -9.750277
000020 c1 30 b0 c0 c7 e3 1b c1 18 a2 d4 c0 6d f6 ad c0
       -5.5059514 -9.74311 -6.644787 -5.4363313
000030 f1 62 34 c1 3b e4 d2 c0 4a db e3 c0 4b fb f1 c0
       -11.274156 -6.59036 -7.1205187 -7.5619254
000040 c2 8a e6 c0 67 4c 3a c1 b6 06 c5 c0 3c 0c 05 c1
       -7.204438 -11.643653 -6.157069 -8.315487
000050 9c 3b 4b c1 90 c3 e9 c0 41 da ec c0 9c b0 d7 c0
       -12.702053 -7.3051224 -7.4016423 -6.740309
000060 7c a1 2a c1 e5 40 14 c1 82 94 24 c1 d8 75 eb c0
       -10.664425 -9.265843 -10.286257 -7.358135
000070 12 9c 5e c1 7f 7a 2b c1 f9 32 3e c1 fd 0c 21 c1
       -13.913103 -10.717406 -11.8874445 -10.065671
000080 96 98 a3 c0 a6 c5 98 c0 75 02 03 c1 a9 44 24 c1
       -5.112376 -4.774127 -8.1881 -10.266763
000090 02 40 06 c1 1a 0a e1 c0 28 c8 be c0 d7 a8 14 c1
       -8.390627 -7.032483 -5.961933 -9.291221
0000a0 98 63 b5 c0 b0 98 a3 c0 db 76 1c c1 ce e5 02 c1
       -5.6684074 -5.1123886 -9.779017 -8.181105
0000b0 55 ea 0e c1 31 12 a3 c0 d3 cd 01 c1 83 bb d4 c0
       -8.93221 -5.0959706 -8.11275 -6.6478896
0000c0 23 b6 00 c1 49 85 e1 c0 2b 43 fc c0 af 68 c3 c0
       -8.044467 -7.04752 -7.883199 -6.1065288
0000d0 a2 02 12 c1 d4 1b c0 c0 8b 52 2e c1 f5 6c 80 c0
       -9.125643 -6.003397 -10.895152 -4.0133004
0000e0 89 a1 f3 c0 ac 83 ed c0 53 6c fb c0 82 d1 0c c1
       -7.6134686 -7.422323 -7.856973 -8.801149
0000f0 44 41 ca c0 89 6b a9 c0 76 ec 38 c1 b1 bd 1c c1
       -6.320467 -5.294377 -11.55773 -9.796311
000100 80 26 ce c0 8b d6 f9 c0 95 c6 e9 c0 9f 57 11 c1
       -6.4421997 -7.8074393 -7.305491 -9.083892
000110 e2 84 cb c0 dd 3f 31 c1 42 6f e5 c0 b4 21 12 c1
       -6.359971 -11.078092 -7.1698313 -9.133228
000120 10 bc 0b c1 19 46 f9 c0 03 bc b1 c0 b7 9d 06 c1
       -8.733414 -7.789807 -5.5542006 -8.413505
000130 d8 9e 09 c1 ce 5f f6 c0 09 f7 ae c0 12 13 21 c1
       -8.60128 -7.699195 -5.4676557 -10.067156
000140 62 db 43 c1 b7 b0 bd 3f 3b 8f 7d 3f 5a 32 9f 3f
       -12.24106 1.4819554 0.9904668 1.2437241
000150 70 73 9b 3f 4e 1b ac 3f 85 1e 75 3f 69 25 8d 3f
       1.2144604 1.3445833 0.95749694 1.1027042
000160 73 4c 90 3f a9 da 80 3f 90 ee cf 3f a4 eb 5e 3f
       1.127333 1.006673 1.6244678 0.8707831
000170 26 00 98 3f a8 82 8b 3f bb fd 72 3f b7 4e 86 3f
       1.1875045 1.0899248 0.9491841 1.0492772
000180 e9 da a2 3f 77 b7 94 3f 16 39 79 3f 33 9a a0 3f
       1.2723056 1.1618489 0.9735273 1.2547058
000190 0c 6b ae 3f e7 12 76 3f 85 59 d0 3f e4 58 98 3f
       1.3626418 0.9612259 1.6277319 1.1902127
0001a0 22 db 94 3f 88 d5 6a 3f 73 b2 90 3f 5e a5 d8 3f
       1.1629374 0.9173207 1.1304458 1.6925466
0001b0 d6 06 fb 3f fc e3 a3 3f ba 16 a2 3f 63 6b 8e 3f
       1.9611461 1.280395 1.2663186 1.1126522
0001c0 9b 65 93 3f 8f e5 46 3f ca c5 99 3f 09 67 a4 3f
       1.1515383 0.7769403 1.2013485 1.2843944
0001d0 94 7c 92 3f e3 43 bd 3f 9e 98 89 3f 6a fc 6e 3f
       1.1444268 1.4786342 1.07497 0.93353903
0001e0 46 53 75 3f de 31 60 3f 38 91 a9 3f 78 21 d5 3f
       0.9583019 0.8757609 1.3247442 1.6650839
0001f0 71 d0 d0 3f 29 1c 5d 3f 0e f5 b9 3f ff e7 1d 3f
       1.6313611 0.86371094 1.452791 0.6168212
000200 2e 0b b8 3f 1f aa 51 3f a4 42 8c 3f de fa 4f 3f
       1.4378412 0.8190021 1.0957837 0.8124217
000210 84 99 6d 3f 69 53 91 3f 86 1a 5e 3f f6 25 cb 3f
       0.9281237 1.135358 0.8675922 1.587096
000220 ee ff 97 3f a5 a9 73 3f 9b a5 9b 3f d4 e8 a2 3f
       1.1874979 0.9518073 1.2159914 1.2727304
000230 47 ab d3 3f 5e ca c1 3f 98 8d 4e 3f 64 0a ae 3f
       1.6536645 1.5139883 0.80684805 1.3596921
000240 29 a1 8e 3f 93 f0 65 3f 12 23 4e 3f b4 a3 64 3f
       1.1142932 0.8982021 0.80522263 0.8931229
000250 9b af 79 3f fa e0 b2 3f 13 10 af 3f e2 40 9a 3f
       0.9753358 1.3974907 1.367678 1.2051051
000260 27 0d 82 3f b0 e5 3a 3f 64 ca 8c 3f 89 a9 8a 3f
       1.0160264 0.73006725 1.0999265 1.0832988
000270 7d 8b a6 3f 07 2a 5b 3f 0e e4 54 3f b2 68 e3 3f
       1.3011318 0.85611004 0.83160484 1.7766325
000280 0a 49 78 3f ab 8e e9 3f 79 e7 c0 3f 36 83 8e 3f
       0.9698645 1.8246664 1.507064 1.1133792
000290 42 88 93 3f 07 e3 89 3f 7e 6f db 3f 7e 5f 82 3f
       1.1525958 1.0772408 1.71434 1.0185392
0002a0 47 7a 00 40 2a e9 ad 3f 1d dd a2 3f 36 c5 b4 3f
       2.0074632 1.3586781 1.2723728 1.4122684
0002b0 a5 cb 79 3f 1d 8a b6 3f 71 43 01 40 18 e1 8f 3f
       0.9757636 1.4260899 2.0197413 1.1240568
0002c0 d0 1b d4 3f 3e 1c e1 3f 97 f6 a6 3f 86 27 cf 3f
       1.6570988 1.7586744 1.3044003 1.6183937
0002d0 83 d8 d2 3f ef a5 c2 3f cc 78 c2 3f 0c 2c b3 3f
       1.6472324 1.5206889 1.5193114 1.3997817
0002e0 4e a3 d8 3f 79 6b 5b 3f 35 c7 80 3f 31 dd ad 3f
       1.6924837 0.85710865 1.0060793 1.3583127
0002f0 0d 05 09 40 c6 de 02 40 f3 97 eb 3f 61 60 9e 3f
       2.1409333 2.044847 1.8405746 1.2373163
000300 db 74 e8 3f d8 1f ce 3f ab 6b 97 3f 92 08 8c 3f
       1.8160661 1.6103468 1.1829733 1.0940115
000310 96 76 e3 3f f7 f6 92 3f 28 12 a9 3f f3 85 d0 3f
       1.7770565 1.1481618 1.3208666 1.6290878
000320 65 6c ab 3f 80 4e e5 3f ba 0b ad 3f 0e c0 db 3f
       1.3392454 1.7914581 1.3519204 1.7167985
000330 85 7b a1 3f ff 63 e3 3f 2c 17 9b 3f 3f b0 8d 3f
       1.261582 1.7764891 1.2116446 1.1069411
000340 9f 9f ba 3f 1f 67 bb 3f 88 7a 6f 3f 0b c1 c2 3f
       1.4579962 1.4640845 0.9354634 1.5215162
000350 e2 e6 a5 3f 60 98 5b 3f fd 38 c6 3f 32 8e df 3f
       1.2961085 0.8577938 1.5486141 1.746527
000360 f9 a1 77 3f 5b ed e3 3f 63 6e a3 3f 37 c8 9a 3f
       0.96731526 1.780681 1.2768062 1.2092351
000370 61 c5 ae 3f c6 b1 bc 3f a6 75 a5 3f bf 6e d1 3f
       1.3653985 1.4741752 1.2926528 1.6361922
000380 2e d4 0f 40 4b 51 e0 3f 8b fb 2d 3f 11 19 bf 3f
       2.2473254 1.7524809 0.6796195 1.4929525
000390 d2 09 9a 3f 37 43 80 3f 16 b5 ea 3f f0 71 14 40
       1.2034247 1.0020512 1.8336513 2.3194542
0003a0 f6 ad 0b 40 11 fa c2 3f a2 77 85 3f 18 8a c1 3f
       2.1824927 1.5232564 1.0427134 1.5120268
0003b0 47 ae 89 3f da a0 a9 3f 8a 22 ca 3f 2d 05 a9 3f
       1.075631 1.3252213 1.579179 1.3204705
0003c0 1e 74 4d 3f 6c 32 ae 3f 53 d5 a8 3f 1e 28 6e c0
       0.80255306 1.3609138 1.3190101 -3.7211986
0003d0 12 cd 97 c0 24 4d 5c c0 0a 8a bd c0 38 6a 9c c0
       -4.743783 -3.4422083 -5.9231005 -4.887966
0003e0 69 66 2e c0 8b b3 0a c0 c0 a7 87 c0 9f dd 2b c0
       -2.7250006 -2.1672084 -4.2392273 -2.6854017
0003f0 c5 68 55 c0 08 10 8a c0 ac 84 57 c0 e0 c3 43 c0
       -3.3345196 -4.314457 -3.3674726 -3.0588303

exp_avg_sq f4 [27, 27, 3]
000000 19 d9 a1 43 c0 9c 60 43 58 22 8e 43 8b ca 8d 43
       323.69608 224.6123 284.2683 283.58237
000010 3d 01 5c 43 fb 2f 90 43 40 3c 9f 43 12 73 7a 43
       220.00484 288.37485 318.4707 250.4495
000020 33 20 8b 43 05 ca 86 43 3e 2c 75 43 5d e7 53 43
       278.25156 269.57828 245.17282 211.90376
000030 6e f0 8a 43 99 c2 6e 43 49 09 59 43 04 20 60 43
       277.87836 238.76015 217.03627 224.12506
000040 b1 b8 62 43 78 86 85 43 e2 9e 67 43 2f cf 76 43
       226.72145 267.05054 231.62064 246.80931
000050 14 b1 aa 43 2d 97 8d 43 e7 d3 52 43 21 9c 80 43
       341.38342 283.18106 210.82774 257.21976
000060 b2 f9 93 43 ca 1d 68 43 64 47 92 43 be ef 66 43
       295.95074 232.11636 292.55774 230.9365
000070 e1 f0 8c 43 08 8e a0 43 65 3b 96 43 30 62 94 43
       281.88187 321.10962 300.46402 296.7671
000080 f5 72 85 43 9f 91 62 43 cc cd 8a 43 fd 9a 93 43
       266.8981 226.56883 277.6078 295.21085
000090 8a 98 a0 43 52 d1 54 43 01 6a 60 43 d4 60 a1 43
       321.1917 212.81766 224.41408 322.75647
0000a0 ce bf 42 43 e4 05 5a 43 5c 22 a7 43 19 bd 66 43
       194.74924 218.02301 334.26843 230.73866
0000b0 aa 74 8a 43 d9 88 6a 43 39 7f 81 43 6a 34 8a 43
       276.91144 234.53456 258.99393 276.4095
0000c0 64 6d 65 43 a9 81 77 43 36 ea 8b 43 5f 42 66 43
       229.4273 247.50648 279.82977 230.25926
0000d0 7f 96 7e 43 6a e3 5a 43 d7 8d 92 43 1f af 88 43
       254.58788 218.88834 293.10812 273.36813
0000e0 c8 37 64 43 42 e2 7c 43 78 05 84 43 d4 5c 64 43
       228.2179 252.88382 264.04272 228.36261
0000f0 3c 76 79 43 40 52 60 43 0d e0 80 43 1a 6b 68 43
       249.46185 224.32129 257.7504 232.41837
000100 94 73 88 43 7e e6 7e 43 5b a9 83 43 87 f1 6c 43
       272.90295 254.90036 263.3231 236.94347
000110 54 c5 54 43 24 03 96 43 22 59 55 43 00 40 41 43
       212.77081 300.02454 213.34818 193.25
000120 05 6d a2 43 6e ed 55 43 84 fe 81 43 81 31 89 43
       324.8517 213.92746 259.9884 274.38675
000130 aa 8d 68 43 3f 0d 96 43 20 5b 53 43 34 2e 99 43
       232.55338 300.1035 211.35596 306.36096
000140 05 3f 85 43 c5 06 ae 40 de c5 03 41 2f 14 ad 40
       266.49234 5.4383264 8.235807 5.408714
000150 4c 7d b1 40 53 45 cf 40 a3 8a ac 40 cd 4d c5 40
       5.546545 6.4772124 5.3919234 6.165747
000160 d1 b1 bd 40 5d 52 d3 40 9d 78 e5 40 d4 b1 c3 40
       5.927956 6.603804 7.1709733 6.1154575
000170 ea 6f d7 40 34 27 0c 41 7e fa ed 40 69 22 dd 40
       6.7324114 8.759571 7.4368277 6.9104505
000180 b7 cd 10 41 86 5e e0 40 1a c1 ca 40 0f 57 ba 40
       9.050223 7.0115385 6.336072 5.8231273
000190 d7 74 f0 40 63 23 e8 40 be 5c d2 40 3f bc d7 40
       7.5142627 7.2543197 6.573821 6.7417293
0001a0 81 a0 c7 40 b7 0c bd 40 05 72 fd 40 af 40 ca 40
       6.238343 5.907802 7.9201684 6.320396
0001b0 c8 6a c9 40 af 77 ae 40 aa 1a b0 40 40 5e ec 40
       6.294285 5.45211 5.503255 7.386505
0001c0 63 25 c0 40 11 a5 f1 40 52 e7 ce 40 e6 13 b0 40
       6.004564 7.5513997 6.4657373 5.502429
0001d0 66 51 db 40 ed f1 b8 40 bf 5b 0a 41 66 ed ce 40
       6.8536863 5.779532 8.647399 6.4664793
0001e0 8d c7 e4 40 41 10 c6 40 41 35 e2 40 7f 8d d4 40
       7.149359 6.189484 7.0690007 6.6422725
0001f0 87 16 ba 40 46 82 cc 40 9c ce ef 40 66 bd 05 41
       5.81525 6.3909025 7.493971 8.35874
000200 36 b1 b9 40 e1 10 c4 40 0e f5 bc 40 75 4e c3 40
       5.802882 6.1270604 5.904914 6.1033273
000210 d9 a5 f7 40 47 18 ce 40 d3 d3 c6 40 a1 98 f6 40
       7.738995 6.4404635 6.2133574 7.7061315
000220 2d fb dd 40 10 07 ab 40 14 e2 b8 40 46 e9 d3 40
       6.936911 5.344612 5.7775974 6.6222258
000230 99 48 e9 40 02 77 ac 40 a3 78 a7 40 0b 43 bd 40
       7.290112 5.3895273 5.233476 5.914434
000240 6f cd d5 40 7a bd 9b 40 c4 47 d8 40 86 b8 01 41
       6.6813273 4.8668795 6.7587605 8.10755
000250 2a 11 b2 40 91 45 c4 40 ee f8 d4 40 79 86 bc 40
       5.564595 6.133492 6.655387 5.891415
000260 16 e5 f8 40 d1 8d d2 40 ea 5c cb 40 5c 4c fa 40
       7.7779646 6.5798116 6.355092 7.821821
000270 1e 4f 06 41 fc 9a c5 40 69 56 b1 40 a6 a5 f5 40
       8.394316 6.175169 5.541798 7.6764708
000280 c6 7f bf 40 ae ec f7 40 55 15 a1 40 f1 5d d0 40
       5.9843473 7.7476416 5.033854 6.5114675
000290 eb b0 b6 40 ad d9 c9 40 d9 8b e2 40 ad f5 aa 40
       5.7090964 6.3078218 7.0795712 5.3424897
0002a0 2a 00 a0 40 98 d3 dc 40 42 1e 86 40 1c ae bf 40
       5.00002 6.9008293 4.1911936 5.9900036
0002b0 af 6f b0 40 48 74 8e 40 24 5d b0 40 f4 66 d7 40
       5.5136333 4.4516945 5.5113697 6.7313175
0002c0 d9 66 d5 40 28 82 90 40 50 42 eb 40 81 c6 c3 40
       6.6688046 4.515888 7.351845 6.1179814
0002d0 1d 2b d5 40 5f 0f e1 40 81 4f 9d 40 59 66 a5 40
       6.661513 7.0331264 4.915955 5.1687436
0002e0 5d b5 b8 40 6a 8c bb 40 6a 61 bb 40 df b7 cc 40
       5.772139 5.8608904 5.8556414 6.397445
0002f0 e2 28 cd 40 e9 a1 9a 40 a6 ef e5 40 53 a1 e5 40
       6.4112406 4.8322644 7.185504 7.175943
000300 db 04 aa 40 9d d3 ad 40 25 65 97 40 9f 3f a4 40
       5.3130927 5.4320817 4.7310967 5.1327662
000310 f8 95 9f 40 a3 48 a6 40 90 04 8f 40 a1 69 99 40
       4.9870567 5.196367 4.469307 4.794144
000320 05 3d e7 40 b3 92 80 40 42 2e b2 40 69 f1 f2 40
       7.2261987 4.0179076 5.5681467 7.591969
000330 bb 50 d7 40 47 80 c0 40 32 c8 90 40 01 bd e9 40
       6.728605 6.015659 4.524438 7.304322
000340 e4 ca da 40 06 52 fc 40 3f a7 bb 40 c3 2b 98 40
       6.837267 7.8850126 5.864166 4.755342
000350 f3 56 cc 40 43 a6 fa 40 fa a0 f0 40 9c f5 ab 40
       6.385614 7.8327956 7.5196505 5.3737316
000360 0f 2a e2 40 ff e1 9a 40 ab 3b b2 40 e6 23 f4 40
       7.067634 4.8400874 5.5697837 7.629382
000370 b9 03 90 40 e1 6b f2 40 dd 09 90 40 d7 1b b9 40
       4.5004544 7.575669 4.501204 5.7846484
000380 76 32 9e 40 ee 6b bc 40 19 40 ea 40 b4 90 cb 40
       4.94366 5.888175 7.3203244 6.361414
000390 55 8e c8 40 7c 28 bb 40 a5 c8 c5 40 dc bb ce 40
       6.2673745 5.848692 6.1807427 6.460432
0003a0 b7 36 a5 40 9d 5d a9 40 bc 8f a3 40 27 2b bf 40
       5.162929 5.2926774 5.1112957 5.9740176
0003b0 cc 92 d7 40 50 5d 91 40 cd 38 bf 40 b0 6c b2 40
       6.7366695 4.5426407 5.9756837 5.5757675
0003c0 b3 c5 c3 40 b6 8b e6 40 ea f5 ba 40 62 1e 45 42
       6.117883 7.2045546 5.842519 49.27967
0003d0 73 3e aa 41 ba 2b 89 41 e1 e0 9a 42 b1 b7 08 42
       21.280493 17.14635 77.43922 34.179386
0003e0 dd ba 6f 41 04 eb 06 42 c1 92 b4 41 64 6a 8b 41
       14.983121 33.729507 22.571657 17.426949
0003f0 39 0a 4f 42 fe 7d 17 42 c6 9c 94 41 c5 dc 91 42
       51.759983 37.87304 18.57655 72.93119

exp_avg f4 [27]
000000 40 57 91 c1 42 eb 1b 40 07 72 3f 40 af 0e 2c c1
       -18.167603 2.436234 2.9913347 -10.753585
000010 ef ca 91 40 43 dc 80 c1 36 f0 53 3f a7 8d 0f 40
       4.556022 -16.10755 0.8278841 2.2430208
000020 5a 14 03 40 b0 d6 93 c1 50 81 40 40 9f 80 ae 3e
       2.0481172 -18.479828 3.0078926 0.34082505
000030 ce c8 70 40 67 59 90 c1 12 a6 14 40 69 34 94 40
       3.7622561 -18.043653 2.3226361 4.6313977
000040 8d 65 5b 40 b7 d5 19 41 78 c9 4f 40 21 38 5c c1
       3.4280732 9.614676 3.2466717 -13.763703
000050 29 86 4c c1 a7 18 f4 40 ec 5b d2 be 06 28 66 bf
       -12.782754 7.6280093 -0.41085756 -0.8990482
000060 a6 65 51 40 64 c9 4e 40 7e 9f 68 40
       3.2718291 3.231042 3.6347346

exp_avg_sq f4 [27]
000000 a1 85 61 44 6c 02 a2 41 d0 5e 93 41 2b 6d 4a 43
       902.08795 20.251183 18.421295 202.42644
000010 97 72 78 42 b1 41 18 44 85 61 c4 3f ba 92 6a 41
       62.111904 609.0264 1.5342261 14.660822
000020 a9 99 6a 41 1e ec 67 44 da dc e2 41 a7 ef fc 3f
       14.662515 927.68933 28.357838 1.9760636
000030 df 59 10 42 72 bc 4e 44 40 f3 8b 41 c6 fe 76 42
       36.087765 826.94446 17.493774 61.748802
000040 83 d7 2a 42 0d 3a 39 43 9d 02 a3 41 e7 20 e8 43
       42.71046 185.22676 20.376276 464.25705
000050 3f 2a cc 43 dc 5a ef 42 8d 81 78 3f 85 7e ac 3f
       408.33005 119.67746 0.9707268 1.3476111
000060 b5 90 e4 41 59 40 02 42 d3 bf 09 42
       28.570658 32.56284 34.43733

exp_avg f4 [64, 27]
000000 7a 8e fa 3e 9a 41 28 3f a6 30 89 3e e6 e0 2f 3e
       0.48936826 0.657251 0.26794928 0.17175636
000010 65 68 9c 3e 4f be 5b 3e f8 c3 34 3f f2 05 5d 3f
       0.30548397 0.21459316 0.70611525 0.86337197
000020 d6 61 4d 3f f5 4b 9f 3e 1e 35 2c 3f bb f2 95 3f
       0.8022741 0.31112638 0.6726855 1.17147
000030 4f 8c b7 3e 69 fe cb 3e 39 f6 08 3f 42 24 c8 3e
       0.35849234 0.39842537 0.53500706 0.39090163
000040 e3 bc 02 3f b2 53 41 bd bd 92 05 3e 0b 3e af 3e
       0.5106947 -0.04719896 0.13044257 0.34227023
000050 14 7c 8f 3e 6c 66 a6 bd ed 16 b5 3f f9 18 cf 3f
       0.28024352 -0.08125004 1.4147621 1.6179496
000060 e2 af c6 3e b2 ca 4a 3f 4f 40 15 3f 4b 0d d8 bb
       0.38806063 0.7921554 0.5830125 -0.0065933815
000070 27 d2 10 bc 1a b4 6b bb d9 c8 17 bb a3 79 86 bb
       -0.008839167 -0.0035965503 -0.0023160486 -0.0041038557
000080 25 93 3d bb 5b 9c 1b bc 27 42 3e bc 35 d5 30 bc
       -0.0028926816 -0.009497727 -0.011612452 -0.01079302
000090 c3 63 89 bb 43 36 14 bc c7 23 81 bc 3d d0 9d bb
       -0.0041928007 -0.00904614 -0.01576413 -0.0048160837
0000a0 6c f2 af bb b8 c3 eb bb cd 26 ac bb ff fc e0 bb
       -0.005369475 -0.0071949624 -0.005253649 -0.006866097
0000b0 e8 f1 26 3a b8 2a e5 ba 5b 27 97 bb 63 75 77 bb
       0.00063684443 -0.0017484045 -0.004612846 -0.0037759177
0000c0 10 43 90 3a ea fe 9b bc cb 6b b2 bc 7e e2 aa bb
       0.0011006314 -0.019042451 -0.021779915 -0.0052149883
0000d0 fc 8c 2e bc 24 6d 00 bc b6 47 df be d8 6e 29 bf
       -0.0106537305 -0.007838521 -0.436094 -0.6618476
0000e0 64 70 a7 be 05 90 11 be c8 71 a4 be 23 26 38 be
       -0.32702935 -0.14215095 -0.32118058 -0.17983298
0000f0 09 a1 33 bf 19 0e 5d bf 89 bb 49 bf 45 10 8a be
       -0.70167595 -0.86349636 -0.7880178 -0.26965538
000100 69 72 2d bf 3c 37 92 bf 86 c1 c1 be 3b 10 b0 be
       -0.677527 -1.1423106 -0.3784296 -0.34387383
000110 2d 7f 08 bf 6e cc ce be da 79 05 bf eb dc 1c 3d
       -0.53319055 -0.40390342 -0.52139056 0.03829662
000120 f7 3b 1d be ef 4c 98 be 42 ba 80 be ea a1 0c 3d
       -0.15354906 -0.29746196 -0.25142103 0.0343341
000130 67 e6 ac bf d0 50 c4 bf b5 36 d1 be e1 3a 4e bf
       -1.3507813 -1.5337162 -0.4086205 -0.8055859
000140 67 29 16 bf dd 5a 18 3f 8d 29 4c 3f 2f 13 a6 3e
       -0.58656925 0.59513646 0.797509 0.3243651
000150 8c 1c 56 3e a9 87 bd 3e 15 b3 85 3e 1a 62 5b 3f
       0.20909327 0.37017563 0.2611319 0.85696566
000160 46 1d 86 3f 68 50 79 3f 5d c8 c1 3e 9d f1 50 3f
       1.0477684 0.97388315 0.37848178 0.8161867
000170 38 15 b6 3f ca 6c de 3e dd 2a f8 3e e0 2f 26 3f
       1.4225225 0.43442374 0.48470202 0.649168
000180 56 a9 f2 3e 68 94 1e 3f af 88 6b bd 71 68 21 3e
       0.47394818 0.619452 -0.0575034 0.15762497
000190 a6 31 d5 3e 5c 80 ae 3e 49 b4 cb bd fe f5 db 3f
       0.4163944 0.34082305 -0.09946496 1.7184446
0001a0 be 96 fb 3f 9d de f0 3e 20 14 76 3f da 0a 35 3f
       1.9655378 0.4704484 0.9612446 0.70719683
0001b0 13 d7 64 3f 73 89 99 3f 1d 7e fa 3e f9 47 a0 3e
       0.8939068 1.1995071 0.48924342 0.3130491
0001c0 e8 d8 0e 3f e0 6c c8 3e aa f3 a4 3f 6d c2 c9 3f
       0.5579972 0.39145565 1.288686 1.5762459
0001d0 67 79 bb 3f e4 78 11 3f 32 3b 9d 3f 25 dc 08 40
       1.4646424 0.5682509 1.228369 2.1384366
0001e0 51 8e 27 3f c8 60 3a 3f 7f f4 79 3f 0b ab 36 3f
       0.6545153 0.72803926 0.97638696 0.7135474
0001f0 1f a5 6e 3f 36 65 b0 bd dc 3c 74 3e a0 ec 1f 3f
       0.93220705 -0.086130545 0.23851341 0.62470436
000200 de f8 02 3f 86 15 18 be 2b 4e 25 40 e6 01 3d 40
       0.5116099 -0.1485196 2.582896 2.9532409
000210 c2 62 35 3f c1 0f b9 3f b6 34 88 3f d9 9e 3a 3f
       0.7085382 1.4457933 1.0641086 0.7289863
000220 cd 3f 7a 3f 99 b0 cb 3e f0 17 83 3e 08 68 e8 3e
       0.977536 0.3978317 0.256042 0.4539187
000230 1b bd a3 3e 5c 71 86 3f ad 60 a4 3f 0c c6 98 3f
       0.31980214 1.0503345 1.2842003 1.1935439
000240 82 55 ed 3e 69 0d 80 3f c4 21 df 3f 61 5e 08 3f
       0.463543 1.0004092 1.743218 0.5326901
000250 78 f8 17 3f 6a b2 4b 3f fb be 14 3f 00 65 42 3f
       0.5936351 0.79569113 0.58103913 0.75935364
000260 ed 2b 90 bd e7 17 46 3e ed 8e 02 3f 4e c0 d5 3e
       -0.07039628 0.19345056 0.5099934 0.4174828
000270 f1 0c f9 bd 4c c3 06 40 14 22 1a 40 a6 a7 13 3f
       -0.121606715 2.10567 2.40833 0.57677686
000280 e8 ce 96 3f b5 eb 5d 3f 70 3e 9a bb 1f 2b cf bb
       1.1781893 0.86687785 -0.00470715 -0.006322279
000290 e2 ef 28 bb b7 89 d8 ba 34 96 40 bb 0a 46 07 bb
       -0.0025777747 -0.0016520534 -0.0029386403 -0.0020641112
0002a0 d9 92 de bb 5e 12 08 bc 0b e2 fc bb e3 21 44 bb
       -0.006792408 -0.00830516 -0.007717376 -0.0029927425
0002b0 63 0a d4 bb 21 a0 38 bc b4 01 62 bb 9e 29 7b bb
       -0.0064709648 -0.011268646 -0.0034485878 -0.0038324366
0002c0 f0 a3 a8 bb 85 71 76 bb 31 fa a0 bb 5d 05 ee 39
       -0.005146496 -0.0037604284 -0.0049126376 0.00045398893
0002d0 be 7a a4 ba ff c1 57 bb f3 a7 30 bb 6f d4 4c 3a
       -0.0012548787 -0.0032922027 -0.0026955574 0.00078136375
0002e0 ab f7 5e bc 52 fd 7e bc 98 a6 74 bb 0e b2 f9 bb
       -0.013608853 -0.015563326 -0.0037330743 -0.0076201027
0002f0 f8 c6 b7 bb 2d 4c 2b bb 38 60 65 bb 91 68 ba ba
       -0.0056084357 -0.0026137934 -0.0034999978 -0.0014221837
000300 52 d1 70 ba 69 d6 d4 ba 12 5a 96 ba 39 7c 76 bb
       -0.00091864646 -0.0016238216 -0.0011470935 -0.0037610664
000310 a3 ad 96 bb 98 10 8c bb 7c e1 d9 ba 5a ba 6a bb
       -0.004598336 -0.004274439 -0.0016622986 -0.003581664
000320 45 9d cc bb 19 c7 f9 ba 0a 85 0b bb a6 b3 3a bb
       -0.006244334 -0.0019056528 -0.0021289014 -0.0028488426
000330 19 44 08 bb 17 23 32 bb 69 7b 84 39 3d 19 35 ba
       -0.0020792542 -0.002718156 0.0002526895 -0.0006908363
000340 8e bb ef ba 21 35 c4 ba 1a 93 e5 39 c8 33 f7 bb
       -0.0018290149 -0.0014969447 0.00043787883 -0.0075440146
000350 48 61 0d bc 12 42 07 bb 39 3b 8a bb 7e 5c 4b bb
       -0.008629151 -0.0020638746 -0.0042184857 -0.0031030471
000360 39 aa a5 bf 33 4f df bf 92 76 36 bf 34 2f e8 be
       -1.2942573 -1.7446045 -0.71274674 -0.45348513
000370 b6 39 50 bf 71 24 11 bf 30 9a ef bf 75 9f 12 c0
       -0.8133806 -0.5669623 -1.8718929 -2.2909825
000380 a7 31 08 c0 84 70 52 bf ae 73 e4 bf 68 d3 46 c0
       -2.1280305 -0.82202935 -1.7847803 -3.1066532
000390 95 20 74 bf 53 cc 86 bf 37 97 b5 bf 8b c7 84 bf
       -0.95362216 -1.0531105 -1.4186772 -1.0373396
0003a0 47 73 ad bf 9d 47 ff 3d 07 8b b2 be cd c9 67 bf
       -1.3550805 0.12464831 -0.34871694 -0.905423
0003b0 f1 aa 3d bf a5 3f 59 3e 02 13 70 c0 23 34 89 c0
       -0.7408896 0.21215685 -3.7511601 -4.2876143
0003c0 7a d1 83 bf bb 86 06 c0 28 28 c6 bf 0a 36 fc 3e
       -1.0298302 -2.1019733 -1.5481005 0.4925998
0003d0 75 50 29 3f 0d 05 8a 3e 5b 10 31 3e 0a 5d 9d 3e
       0.6613839 0.26956978 0.17291395 0.30735046
0003e0 81 36 5d 3e 3c e9 35 3f 6d 6c 5e 3f de b0 4e 3f
       0.21602823 0.7105901 0.86884195 0.8073863
0003f0 52 5c a0 3e b9 4b 2d 3f aa e8 96 3f 8e ac b8 3e
       0.31320435 0.6769367 1.1789753 0.3606915

exp_avg_sq f4 [64, 27]
000000 e0 56 7a 3e 25 a8 72 40 24 27 0b 40 51 01 a2 3c
       0.24447203 3.7915127 2.174264 0.019776018
000010 6b 07 c7 3f 1e 45 3e 3d d5 30 62 40 41 06 ba 40
       1.5549139 0.046452634 3.5342305 5.8132634
000020 c7 98 a4 40 03 5c 2e 3e 78 49 81 40 90 1e c5 40
       5.1436496 0.17027287 4.0402184 6.159981
000030 69 f6 da 3f 5d 40 14 3e 4b b8 1c 40 35 b4 15 40
       1.7106448 0.14477678 2.4487484 2.339124
000040 93 95 2d 40 bb 5c 9f 3b ab 6f 6c 3f 68 78 eb 3d
       2.7122543 0.0048633493 0.9235789 0.11497575
000050 02 e2 d1 3d 39 f6 72 3e 83 03 d8 40 db 92 ff 40
       0.10248186 0.23726739 6.7504287 7.9866767
000060 6b 14 f0 3f f0 3f a4 40 e7 1b 45 40 b7 30 67 38
       1.8756231 5.132805 3.079828 5.512006e-05
000070 50 fd 88 3a 78 8a 19 3a ca fc d6 36 70 f0 df 39
       0.001045147 0.000585712 6.4071255e-06 0.00042713014
000080 4e d2 37 37 bd de 70 3a 98 64 ca 3a fb 67 bd 3a
       1.0956615e-05 0.0009188464 0.0015441356 0.0014450544
000090 b3 bb 28 38 e3 6f 8b 3a 51 d5 ca 3a 4f 42 e8 39
       4.022913e-05 0.0010638203 0.001547495 0.00044299892
0000a0 51 5a 45 38 fe 77 30 3a fc 1e 24 3a 54 f2 3a 3a
       4.7052574e-05 0.00067317474 0.00062607205 0.00071314466
0000b0 d2 dd b1 35 3b ef aa 39 51 d7 12 38 89 f3 c1 37
       1.3252086e-06 0.00032603167 3.500964e-05 2.3120798e-05
0000c0 58 a2 b3 38 8b 90 d7 3a e9 dd 00 3b b5 b0 05 3a
       8.565624e-05 0.0016446275 0.0019663519 0.0005099879
0000d0 cb ad b5 3a 10 c4 47 3a 82 52 79 3d 8a bd 12 3f
       0.0013860998 0.0007620463 0.0608697 0.57320464
0000e0 8c 94 98 3e a2 8a 5e 3b 2a 83 75 3e b5 93 14 3c
       0.29800832 0.0033957143 0.23975816 0.009068419
0000f0 fa 56 15 3f 4a 05 6a 3f 44 e5 40 3f 19 32 14 3d
       0.5833584 0.9141432 0.7534983 0.03618059
000100 94 93 22 3f 8a e1 99 3f 1d f2 94 3e 49 4a 00 3d
       0.63506436 1.2021954 0.29090968 0.031320844
000110 02 80 bd 3e 06 ad b5 3e d7 ba d6 3e 1c 06 70 3a
       0.37011725 0.3548357 0.41939422 0.0009156184
000120 38 e7 b1 3d e8 2c d2 3c 51 1f be 3c 37 9c f5 3c
       0.086866796 0.025656179 0.023208292 0.029981716
000130 18 cd b3 3f d1 6c dc 3f 89 82 90 3e e5 ed 4d 3f
       1.4046965 1.7220708 0.2822459 0.80441123
000140 5c 69 11 3f 4f ba e8 3e e2 2a 0c 41 70 29 a0 40
       0.5680139 0.45454642 8.760469 5.0050583
000150 12 e0 3d 3d 17 e5 66 40 5f 4e b9 3d 47 38 f9 40
       0.04635627 3.6077325 0.09048151 7.78812
000160 2b d2 4f 41 2a 6f 40 41 c0 4f ab 3e 49 19 11 41
       12.988811 12.02714 0.33459282 9.068673
000170 fe 18 50 41 c4 9d 70 40 5b 66 8f 3e 80 ec b4 40
       13.006102 3.7596292 0.2800778 5.6538696
000180 bc 49 ab 40 a2 d5 c3 40 87 b0 0f 3c a4 e4 21 40
       5.352751 6.119828 0.008770115 2.52958
000190 a6 22 67 3e 22 1c 46 3e 9d 33 11 3f 17 81 5f 41
       0.22571811 0.1934667 0.5671938 13.969016
0001a0 dc 19 84 41 aa 89 8c 40 10 3e 3a 41 9c 01 d0 40
       16.512627 4.3918047 11.640152 6.5001965
0001b0 06 20 60 3f c9 ff 68 41 f8 6e 05 41 fa 2d 9c 3d
       0.87548864 14.562448 8.339592 0.07625957
0001c0 bc 57 bf 40 d4 15 2d 3e da a8 55 41 b4 a7 b0 41
       5.97946 0.16902858 13.353724 22.081886
0001d0 cb b0 9e 41 0d de 1e 3f 0d e0 75 41 c6 97 b7 41
       19.836325 0.6205757 15.3672 22.949108
0001e0 c2 92 ce 40 fb fa 05 3f 83 67 16 41 4c 44 0f 41
       6.455415 0.5233609 9.400271 8.954174
0001f0 0d 64 25 41 1a 19 8d 3c 4c fe 70 40 26 91 d5 3e
       10.336926 0.017223883 3.765521 0.41712302
000200 17 04 bd 3e 95 26 6b 3f 21 e2 c7 41 bf 5a ec 41
       0.36917183 0.91855747 24.985415 29.54431
000210 ae 6b e7 40 ba b8 9c 41 1a 9c 37 41 03 7a 22 3f
       7.2318945 19.590199 11.475611 0.63467425
000220 5b 64 37 41 de b9 d1 40 81 67 77 3d 48 d3 96 40
       11.462001 6.553939 0.060401443 4.713291
000230 6f 4b ff 3d 32 2f 25 41 41 42 89 41 0f f0 7a 41
       0.1246556 10.324022 17.15735 15.683608
000240 a6 24 eb 3e ab 5f 3f 41 04 a4 8b 41 72 8d 9f 40
       0.45926398 11.960856 17.455086 4.9860163
000250 4f f2 c5 3e 42 b4 ec 40 28 a6 e0 40 88 f5 00 41
       0.3866143 7.397004 7.0202827 8.059944
000260 57 c1 4a 3c 29 82 4a 40 e5 c8 9e 3e 65 b0 89 3e
       0.012375197 3.1641943 0.31012645 0.2689239
000270 b0 63 3c 3f 8b de 96 41 42 5d b2 41 cd 0e b7 40
       0.7358961 18.858664 22.295536 5.7205567
000280 0b ef 74 41 44 9e 0b 41 cd a1 c0 37 24 5e bc 39
       15.30836 8.726139 2.2963528e-05 0.00035928295
000290 05 ea 57 39 f3 4e fd 35 23 b6 1a 39 e7 7f 94 36
       0.00020591177 1.8872946e-06 0.00014754436 4.4256335e-06
0002a0 b0 f7 ae 39 bf 9a 0f 3a 9d 10 00 3a fe 2c 88 37
       0.00033372408 0.0005478076 0.0004885288 1.6233414e-05
0002b0 a3 c5 c7 39 2a bf 17 3a c6 54 29 39 d5 86 6e 37
       0.0003810349 0.00057886785 0.00016148677 1.42172985e-05
0002c0 6b 69 73 39 0d d6 67 39 76 0e 86 39 fc 3c 07 35
       0.00023213557 0.00022109617 0.00025569246 5.0380163e-07
0002d0 ec 57 bc 38 b6 e4 3a 37 62 b2 1f 37 6a f7 c8 37
       8.980915e-05 1.1139715e-05 9.5186715e-06 2.3957069e-05
0002e0 bb b8 25 3a 1e 72 44 3a 69 69 3a 39 4e 7d fe 39
       0.00063217775 0.00074938114 0.0001777761 0.00048540015
0002f0 dc 56 97 39 67 13 dd 39 c1 75 2b 3b 78 91 81 3a
       0.0002886568 0.0004216686 0.0026162716 0.0009885272
000300 9d e0 db 37 a2 18 6a 3a 6c 6d e9 38 46 59 05 3b
       2.6211428e-05 0.0008930062 0.00011130687 0.00203474
000310 c1 4f e1 3a 05 01 7d 3b 7c 57 6e 39 3f c7 5f 3a
       0.0017189906 0.0038605344 0.00022730039 0.0008536465
000320 9e 84 c4 3a f8 5b 0f 3a ab dc 94 3a 3a 12 a5 3a
       0.0014993136 0.00054687215 0.0011357268 0.0012593933
000330 69 46 10 3a 9d 96 32 39 21 d5 33 38 de df 00 3b
       0.0005503656 0.0001703151 4.2875417e-05 0.0019664685
000340 24 c3 97 3a 9c 51 a4 37 28 a0 2f 3b e2 9b 1c 3a
       0.0011578542 1.9588326e-05 0.0026798341 0.0005974156
000350 0c 97 36 3b ff 51 3d 39 77 90 ff 3a 0e 20 28 39
       0.0027861027 0.0001805499 0.001949801 0.0001603367
000360 6e 21 cd 3f 94 9f 9f 41 80 21 36 41 f0 98 c6 3d
       1.6025827 19.952919 11.383179 0.09697139
000370 96 91 02 41 49 bc 91 3e 98 f5 9c 41 e6 2e fe 41
       8.160543 0.28463963 19.619919 31.7729
000380 64 41 d6 41 79 87 84 3f c8 fa ae 41 cc a8 0f 42
       26.781929 1.0353843 21.872452 35.91484
000390 01 d5 16 41 f1 a5 6b 3f 59 b4 4d 41 bb 9e 46 41
       9.427003 0.9205008 12.85653 12.413753
0003a0 62 4e 69 41 97 0a d7 3c ab 25 71 40 ff 2b 3b 3f
       14.581636 0.026250167 3.767924 0.7311401
0003b0 e0 e6 26 3f a2 83 94 3f 3e 8a 20 42 c9 6c 3e 42
       0.6519604 1.1602671 40.135002 47.606236
0003c0 46 33 1a 41 14 b4 dc 41 a3 0f 8e 41 ee 02 80 3e
       9.637518 27.587929 17.757635 0.25002235
0003d0 5a ee 77 40 88 31 0e 40 7a 82 a5 3c ed 67 cb 3f
       3.8739228 2.2217731 0.020203818 1.5891091
0003e0 09 bd 42 3d 4c 33 67 40 d2 1f be 40 c1 2f a8 40
       0.04754356 3.612506 5.9413843 5.2558293
0003f0 3c 54 32 3e 96 1f 84 40 16 7a c9 40 2a c9 df 3f
       0.17414945 4.1288557 6.296153 1.7483265

exp_avg f4 [64]
000000 be b0 16 3f e2 d6 01 bc d3 88 0e bf fb 16 37 3f
       0.5886344 -0.007924767 -0.5567753 0.7151944
000010 b3 86 89 3f 5e 53 60 3f 9c 89 b9 bb 67 c8 4d bb
       1.0744232 0.8762721 -0.0056621563 -0.0031399967
000020 25 a4 c7 bf 14 ab 17 3f 78 01 ca bb ae dc 01 3f
       -1.5596968 0.5924542 -0.006164726 0.50727355
000030 39 e0 0b c0 d8 e5 55 3f 87 ce a7 bb 6f dd 40 3f
       -2.1855605 0.8355384 -0.0051210555 0.7533788
000040 56 75 dc bb 3f da ea bb 14 2a f6 3e c7 51 87 bb
       -0.0067278547 -0.0071671302 0.48078978 -0.0041296217
000050 33 83 28 3f c9 49 0b 3f 4d 9f dc 3e 0e d7 7a 3f
       0.65825194 0.5440946 0.43090287 0.979844
000060 d0 1f 0e ba 22 b0 3e bb 02 cf 22 bb 05 82 02 c0
       -0.00054216105 -0.0029096683 -0.0024842625 -2.0391858
000070 e6 75 34 3f 7d de f8 bb 73 ea 19 3f d3 2a 0a bb
       0.704924 -0.007594882 0.60123366 -0.0021082654
000080 ae 83 6a 3f d8 a9 04 bc 91 c6 dd bf 6a d6 14 bc
       0.9160718 -0.0080971345 -1.7326223 -0.009084323
000090 56 9e a3 bb 29 75 87 bb f0 3e 8c 3f 07 85 04 bc
       -0.0049932403 -0.0041338396 1.0956707 -0.008088357
0000a0 cc 4b 39 3f c1 87 5d ba aa 33 cd bf 25 20 06 bc
       0.7238128 -0.000845071 -1.6031392 -0.008186375
0000b0 2a 4f b9 bb e4 51 b4 3f 1f 48 12 3f af 8a 56 3f
       -0.005655189 1.4087491 0.571413 0.83805364
0000c0 35 53 26 3f 97 04 4a 3f 63 92 cc bf f2 58 45 3f
       0.64970714 0.78913254 -1.5982174 0.77088845
0000d0 8d 4d 18 3f bb 7a aa bb 2c 15 91 bf 13 a5 db bb
       0.59493333 -0.005202619 -1.1334586 -0.006703028
0000e0 56 cd 02 c0 8f fd bf bf 1e 90 25 bb 2a 06 30 3f
       -2.0437827 -1.4999255 -0.0025262902 0.68759406
0000f0 98 f6 3a 3f f9 43 91 bf 35 ce 41 3f 19 16 d1 bb
       0.7303252 -1.1348869 0.7570527 -0.006380808

exp_avg_sq f4 [64]
000000 8f a5 c0 3f 2e 40 06 3a 3c e4 80 3e c2 09 5a 40
       1.5050524 0.0005121258 0.2517413 3.4068456
000010 68 4e b7 40 4a a3 8f 40 81 f7 19 39 9c e5 19 3c
       5.728321 4.4886827 0.0001468342 0.009393122
000020 b9 62 05 41 c2 f6 c4 3f ab 91 ea 38 a3 fd b5 3f
       8.336602 1.5387805 0.00011185122 1.4218029
000030 ad f7 8f 41 bc 12 6e 40 d4 80 fe 38 7f 75 0d 40
       17.995935 3.7198935 0.0001213566 2.2102964
000040 dc 09 32 39 d9 b0 a4 39 53 bb 89 3f 30 8b 89 38
       0.00016979076 0.0003141228 1.0760292 6.558595e-05
000050 bd c3 17 40 da 23 97 3f 51 f5 24 3f d3 d9 87 40
       2.371322 1.1807816 0.64436823 4.24534
000060 c3 db 45 39 60 ee f7 3b 0f d6 61 3b d9 d3 7a 41
       0.00018869252 0.0075662583 0.0034459864 15.676721
000070 98 5f 0f 40 a6 c5 9e 39 4c 4c b9 3f dc c0 25 3c
       2.2402096 0.00030283368 1.4476409 0.010116782
000080 a1 0b 8b 40 ed d6 a8 39 ff 26 0e 41 d4 74 dc 39
       4.3451695 0.0003220359 8.884521 0.00042048714
000090 89 da dc 3a ab c2 80 3d e1 ce ab 40 9e e4 c6 39
       0.0016849797 0.0628713 5.369004 0.00037935836
0000a0 d4 e0 3f 40 33 96 46 3b a2 e9 f3 40 4f 56 e6 39
       2.9980974 0.0030301928 7.6222696 0.00043933323
0000b0 e9 e1 a1 38 80 c4 e9 40 b3 3c a4 3f ae 01 4b 40
       7.719157e-05 7.305237 1.2831024 3.1719775
0000c0 49 e7 e2 3f 04 0e 80 40 0b f0 ff 40 09 42 51 40
       1.7726833 4.001711 7.998052 3.2696555
0000d0 91 aa f2 3f c7 7b 9d 3c 1f dc 4e 40 96 ab 69 39
       1.8958303 0.01922406 3.2321851 0.00022284532
0000e0 ce 30 83 41 e3 94 c3 40 87 b4 54 37 76 43 be 3f
       16.39883 6.1119246 1.2678217e-05 1.4864337
0000f0 c7 09 2b 40 8d f0 04 3f aa 5b 65 40 46 2a f0 3a
       2.6724718 0.5192955 3.5837197 0.0018323145
