src/hero/experiments/justification/models/MediumBTCNN_SmallFCNN_1.pth (torch, 284086 bytes, 21 tensors)

btcnn.layers.0.conv1d.weight f4 [128, 27, 3]
0	0x3e38ef72	0.18060091
1	0xbdb14db1	-0.086573966
2	0xba375aab	-0.00069944066
3	0x3ebec057	0.3725612
4	0xbdfc35a0	-0.12314916
5	0x3e0dd501	0.13850786
6	0xbe443b94	-0.19163352
7	0x3dfda8f5	0.123857416
8	0xbccdbc3f	-0.025114177
9	0x3d3bca8f	0.04584747
10	0xbd81c8d7	-0.06337135
11	0x3ebfe9fd	0.37483206
12	0xbd108937	-0.03528711
13	0x3db798dc	0.089647025
14	0xbdac0677	-0.083996706
15	0x3e9cf261	0.3065367
16	0x3d75e9c8	0.060037404
17	0x3dc23b00	0.094839096
18	0xbd004d6d	-0.03132384
19	0xbc1aa3a6	-0.009438431
20	0x3c0820d5	0.008308609
21	0x3e08ab76	0.13346657
22	0xbe002f81	-0.12518121
23	0x3d89b1a9	0.06723339
24	0x3e15da76	0.14634117
25	0x3db73efb	0.089475594
26	0x3f08d626	0.53451765
27	0x3db665e8	0.08906156
28	0x3e267ce6	0.16258582
29	0xbd0f1b84	-0.03493835
30	0xbe346824	-0.17617851
31	0xbdceb1de	-0.10092519
32	0x3daa6045	0.08319143
33	0xbd058e0b	-0.032606166
34	0x3ec84b38	0.39119887
35	0xbe28e648	-0.16494095
36	0xbdc0071f	-0.09376358
37	0x3d83e11d	0.06439421
38	0x3d3fbea0	0.046812654
39	0xbe7ad804	-0.24496466
40	0x3e50761a	0.20357552
41	0xbc8348b2	-0.016025875
42	0xbc8cacdf	-0.017172275
43	0xbd697c36	-0.057003222
44	0x3dd36a9b	0.10323068
45	0xbe150c5d	-0.14555497
46	0x3ebd8b3f	0.370203
47	0xbdc3d677	-0.0956239
48	0xbd84411e	-0.064577326
49	0xbe7ed75f	-0.24886845
50	0x3a935072	0.0011239185
51	0xbeae8c36	-0.34091347
52	0x3e32462e	0.17409584
53	0xbdabbb85	-0.08385376
54	0xbce950aa	-0.028480846
55	0xbe0dc599	-0.13844909
56	0xbd418980	-0.04725027
57	0xbebd7e93	-0.3701063
58	0x3e91b24e	0.28456348
59	0xbd07d2ff	-0.033160206
60	0xbcf18452	-0.02948204
61	0x3d30d7b0	0.043174446
62	0x3e8c25bb	0.27372536
63	0xbd0243d7	-0.03180298
64	0xbe0be093	-0.13659887
65	0xbde43d1c	-0.11144468
66	0x3e1850e0	0.14874601
67	0x3eadb6ba	0.33928472
68	0xbd001bce	-0.031276517
69	0x3d7f3f4e	0.06231623
70	0x3e81ca91	0.25349858
71	0x3dd3da05	0.10344318
72	0xbe3915ac	-0.18074673
73	0xbdbf9f9d	-0.09356616
74	0xbe5a7f14	-0.21337539
75	0x3d350919	0.04419813
76	0xbc8f20e5	-0.01747174
77	0x3e1fced8	0.15606248
78	0x3e7f6a82	0.24942973
79	0xbdcbe342	-0.09955455
80	0xbd749b79	-0.059718583
81	0x3d861b19	0.06548137
82	0x3e0e7d8b	0.13915078
83	0x3de0ab40	0.10970163
84	0xbe5df461	-0.21675254
85	0xbebf83db	-0.37405285
86	0xbec5648b	-0.3855327
87	0xbb23c8ba	-0.0024991469
88	0xbe1cb3d9	-0.15302981
89	0xbdc1a45c	-0.09455177
90	0xbe72328a	-0.23652092
91	0x3ddc9f38	0.10772556
92	0xbe963e88	-0.29344583
93	0x3e91a2a9	0.28444412
94	0xbe0a6fd4	-0.13519222
95	0x3cabfc55	0.020994345
96	0xbe43c20b	-0.1911699
97	0x3ea09a97	0.31367943
98	0xbd8c2915	-0.06843773
99	0xbd18fd3d	-0.03735088
100	0x3ebd5446	0.36978358
101	0xbdd8734b	-0.105688654
102	0xbe8114d8	-0.25211215
103	0x3e0a5cca	0.13511959
104	0xbdc83929	-0.097765274
105	0xbeb0b3c6	-0.34512156
106	0xbd67ca80	-0.056589603
107	0xbe78082f	-0.24221872
108	0xbed8fdfc	-0.42381275
109	0xbc3610ae	-0.011112375
110	0x3da83cc9	0.08214719
111	0x3c908fc2	0.017646674
112	0xbe1bdd7a	-0.15221205
113	0x3d990860	0.074723005
114	0xbdf20918	-0.11818141
115	0xbe761ba8	-0.24033988
116	0xbe0b030c	-0.13575381
117	0x3d57fcbc	0.05273126
118	0x3d1c0cdb	0.038098197
119	0x3ba06f55	0.0048960843
120	0xbc3f3360	-0.011669964
121	0xbe661c5d	-0.22471757
122	0xbd340ed5	-0.043959457
123	0xbe0cd324	-0.13752419
124	0xbdf6a613	-0.12043395
125	0x3b5c92e4	0.003365689
126	0x3d1ca43a	0.038242556
127	0x3a9a4884	0.0011770879
128	0x3e4d6ab7	0.2006024
129	0x3ddefdcd	0.108882524
130	0x3e715c61	0.23570396
131	0xbda781a5	-0.081790246
132	0x3d2347b2	0.039863296
133	0x3e31665d	0.17324205
134	0xbdd073c0	-0.101783276
135	0x3e3dca38	0.18534172
136	0xbe61b6de	-0.22042415
137	0xbd594b15	-0.05305012
138	0xbe9147cc	-0.2837509
139	0xbea4ca74	-0.3218571
140	0x3e11b42f	0.14228891
141	0x3d6655a1	0.056234006
142	0xbd01811f	-0.03161728
143	0xbea1eb61	-0.31624892
144	0x3a145abf	0.0005659274
145	0xbe13872b	-0.14407031
146	0x3dc9aa8a	0.09846981
147	0xbc84165c	-0.016123943
148	0xbe0e179f	-0.13876198
149	0x3da00124	0.078127176
150	0xbe70ba31	-0.23508526
151	0xbe630047	-0.22168075
152	0xbb12218e	-0.0022297832
153	0x3e002672	0.12514666
154	0x3d29ff80	0.04150343
155	0xbecc14a0	-0.39859486
156	0x3dec242b	0.11530336
157	0x3d8f548a	0.069985464
158	0xbdbe2bfe	-0.092857346
159	0xbde0c861	-0.10975719
160	0x3d0e6210	0.03476149
161	0xbd8011ce	-0.06253396
162	0xbd8965bd	-0.06708858
163	0xbe36fc76	-0.17869744
164	0x3d861fd2	0.06549038
165	0xbd9a9fae	-0.07549988
166	0x3e1922f6	0.14954743
167	0x3e419293	0.1890357
168	0x3e47f857	0.19528328
169	0x3baa0f64	0.005189823
170	0x3ea0c767	0.31402132
171	0x3d6c09b5	0.057626445
172	0x3b7026a2	0.003664412
173	0xbe2fcd53	-0.17168169
174	0xbd551685	-0.05202343
175	0xbdbbb370	-0.09165084
176	0xbd8186c9	-0.06324536
177	0xbd1f2408	-0.03885272
178	0xbe927aa4	-0.28609192
179	0xbd3b6bc4	-0.04575707
180	0xbdd963f4	-0.10614768
181	0xbd48f944	-0.049065843
182	0xbd5d6f59	-0.054061268
183	0xbdb39496	-0.08768575
184	0x3dc36d1d	0.09542296
185	0x3d64f10e	0.05589395
186	0x3e41a28e	0.18909666
187	0x3d9b8412	0.0759355
188	0x3f14c188	0.58107805
189	0xbdbf7362	-0.093481794
190	0x3e6dfcbe	0.23240945
191	0xbd0a6d12	-0.033795424
192	0xbd7367d1	-0.05942518
193	0x3d0f1e70	0.034941137
194	0x3d94f892	0.072739735
195	0xbd0e5c37	-0.03475591
196	0x3ebe7981	0.37202075
197	0x3ebbc2e2	0.3667212
198	0x3d0bb1e2	0.03410519
199	0x3e569e76	0.20958886
200	0x3dac28bd	0.08406208
201	0x3e7be4ed	0.24599047
202	0x3e9db553	0.30802402
203	0xbdcc8449	-0.09986169
204	0x3d2632e8	0.04057589
205	0x3ee64bd5	0.4497973
206	0x3d7f70f9	0.0623636
207	0xbe48d286	-0.19611558
208	0x3cc612b5	0.024178842
209	0xbd5dcd96	-0.05415114
210	0xbdb2d5a1	-0.08732153
211	0xbcf37ab5	-0.029721597
212	0x3d991aad	0.07475791
213	0x3e6087e5	0.2192684
214	0xbe4fba11	-0.20285822
215	0xbdd4886e	-0.103775844
216	0x3f296453	0.6616871
217	0xbeea11b0	-0.4571662
218	0xbdb9b0b5	-0.09066907
219	0x3b12bca6	0.0022390275
220	0x3d71e75f	0.059058543
221	0xbe065b38	-0.13120735
222	0x3c982748	0.018573418
223	0x3e0b4a03	0.13602452
224	0x3e948063	0.290042
225	0x3e112d0e	0.14177343
226	0x3dfa1c92	0.122124806
227	0xbda37fcf	-0.07983362
228	0x3d0e783c	0.034782633
229	0xbe1f8817	-0.15579258
230	0xbd6a63a0	-0.057223916
231	0xbda98497	-0.08277243
232	0xbe0cdea8	-0.13756812
233	0x3d1a4a72	0.037668653
234	0x3d2f2cc8	0.042767316
235	0x3d1ffc0b	0.039058726
236	0x3e0920c9	0.13391413
237	0xbb43fe59	-0.0029906242
238	0xbe2b71e9	-0.16742672
239	0x3db6e015	0.08929459
240	0x3db523db	0.088447295
241	0x3dbf58b9	0.093430944
242	0x3e6faa3f	0.23404787
243	0xbe9bd1ff	-0.30433652
244	0xbec0c208	-0.37648034
245	0xbd0fd887	-0.035118606
246	0x3d97cadf	0.074117415
247	0xbe32b7c6	-0.17452917
248	0x3d9fee46	0.07809119
249	0x3cf22c6a	0.029562194
250	0x3dcd3715	0.10020272
251	0xbeb7b17b	-0.35877594
252	0xbcf8a879	-0.030353772
253	0x3c417c4a	0.011809418
254	0xbe33f1a4	-0.17572647
255	0x3de44209	0.11145408

btcnn.layers.0.conv1d.bias f4 [128]
0	0xbd5a87e2	-0.053352244
1	0xbdc7f206	-0.09762959
2	0x3e472307	0.19446956
3	0xbd5b7c8f	-0.053585585
4	0x3e79eb37	0.24406134
5	0x3e470d2a	0.19438615
6	0x3ccd790b	0.025082132
7	0x3dfb6cae	0.122765884
8	0xbddbdf43	-0.10735943
9	0x3dba991b	0.09111234
10	0xbd94449a	-0.07239647
11	0x3e83aef8	0.25719428
12	0x3c25a70a	0.010110626
13	0x3da83861	0.082138784
14	0xbd945736	-0.07243197
15	0x3d2b6380	0.041842937
16	0xbd4bfd17	-0.049801912
17	0xbcda813e	-0.026672956
18	0x3e44e9b8	0.19229782
19	0x3e0b3fdb	0.13598578
20	0x3d350039	0.044189665
21	0x3e459d2e	0.1929824
22	0xbca6356a	-0.020289142
23	0x3dc65729	0.09684593
24	0x3d2703ea	0.040775217
25	0x3d9857f4	0.07438651
26	0x3d110412	0.035404272
27	0xbdecbc9d	-0.11559413
28	0x3df1a03c	0.117981404
29	0x3e5659cf	0.20932697
30	0x3d1cc834	0.038276866
31	0xbd55aad7	-0.05216488
32	0x3cfd4d78	0.030920729
33	0x3e3b097d	0.18265338
34	0x3d2e25ac	0.042516395
35	0x3d15f9c3	0.036615144
36	0x3ca7f6ce	0.020503428
37	0x3e04ec58	0.12980783
38	0x3e016e34	0.12639695
39	0x3e66b729	0.22530808
40	0x3da4bf9e	0.080443606
41	0x3d90311e	0.07040618
42	0x3d46fa12	0.04857833
43	0x3db6f03c	0.0893254
44	0x3e0ec0a3	0.13940673
45	0x3b3a3f94	0.0028419243
46	0x3de06ad5	0.109578766
47	0xbc9adea4	-0.018904991
48	0x3d84ea65	0.0649002
49	0x3e5991df	0.21247052
50	0x3dd25bc0	0.10271406
51	0xbdd2ebf3	-0.1029891
52	0xbdb853ac	-0.09000334
53	0x3e21930d	0.15778752
54	0x3eb22555	0.34794107
55	0x3ea642a1	0.3247271
56	0x3d3db6f1	0.046317045
57	0x3e90ec7f	0.28305432
58	0x3bcecab8	0.006310787
59	0x3ccde3b8	0.025132999
60	0x3e22bdf1	0.1589277
61	0x3e3d4f7b	0.1848735
62	0x3e80fde6	0.2519371
63	0x3df1f82a	0.11814912
64	0x3e43eeae	0.19134018
65	0xbda7e5cc	-0.08198127
66	0x3cada21f	0.02119547
67	0x3e40043b	0.18751614
68	0x3d57fc21	0.052730683
69	0xbcfe3412	-0.031030688
70	0xbe189956	-0.14902243
71	0x3e7e2b8c	0.248213
72	0x3e003833	0.12521438
73	0x3db3d5ce	0.087810144
74	0x3dcef830	0.10105932
75	0x3d634e3e	0.05549454
76	0x3dfcf4d4	0.12351385
77	0x3e5020c9	0.20325007
78	0x3e348fd9	0.17632999
79	0x3d63b848	0.055595666
80	0x3eb5ade1	0.35484222
81	0x3da32dc8	0.079677165
82	0x3e91bd84	0.284649
83	0x3d9dbe98	0.077023685
84	0x3e50545a	0.20344678
85	0x3e73782e	0.23776314
86	0x3e4cc98f	0.19998764
87	0x3e286353	0.16444139
88	0x3df8fb9e	0.12157367
89	0x3db11c5b	0.086479865
90	0x3e30570a	0.17220703
91	0x3eb52c9c	0.35385597
92	0x3e4bd70b	0.19906251
93	0x3dc64a79	0.09682173
94	0x3d70a463	0.05875052
95	0x3d76d6dd	0.060263503
96	0x3e161b8a	0.14658943
97	0x3cc168c1	0.02360952
98	0x3e64e628	0.22353423
99	0x3d91c6bf	0.07117986
100	0xbdc30c50	-0.09523833
101	0x3c54a331	0.012978361
102	0xbda8c3ac	-0.082404464
103	0xbd5f1ab5	-0.05446883
104	0xbdc24338	-0.09485477
105	0x3d81d638	0.06339687
106	0x3d9905d8	0.07471818
107	0x3df528c7	0.11970668
108	0x3e4da66c	0.20083016
109	0x3e2cbd21	0.16869022
110	0x3e13d2e6	0.1443592
111	0x3e8e94b0	0.27847815
112	0x3e6d57e4	0.23178059
113	0x3dfe7d71	0.1242627
114	0x3dc4970f	0.09599125
115	0x3e05da8f	0.13071655
116	0xbdcea9b2	-0.100909606
117	0x3c99aed0	0.018760115
118	0xbdb4f90b	-0.08836564
119	0x3de25f2a	0.11053307
120	0x3e703764	0.2345863
121	0x3cb84a1a	0.022496272
122	0x3deb265d	0.114819266
123	0x3e0c804c	0.13720816
124	0xbd88abc0	-0.06673384
125	0x3d0bc51a	0.034123518
126	0x3c451742	0.012029471
127	0x3ea4f5ca	0.32218772

btcnn.layers.2.conv1d.weight f4 [27, 128, 3]
0	0xbe0adba0	-0.13560343
1	0xbdc6c234	-0.0970501
2	0x3d825005	0.06362919
3	0x3dff2ed3	0.12460103
4	0x3d943b43	0.07237866
5	0x3cd583fe	0.026063915
6	0x3dbacb36	0.09120791
7	0xbe4ae323	-0.19813208
8	0x3d6b832b	0.05749814
9	0x3dc9ef4f	0.098600976
10	0xbdb48f98	-0.08816451
11	0xbe9407df	-0.28912255
12	0xbce3392a	-0.027737219
13	0x3d07afd3	0.033126663
14	0x3e582d52	0.21111038
15	0x3db8c7dd	0.09022496
16	0x3e5f38a8	0.21798956
17	0x3db39fb2	0.08770694
18	0x3db40058	0.08789128
19	0x3d73f657	0.0595611
20	0xbcec4b86	-0.028844606
21	0x3cd41ec3	0.025893575
22	0xbebafe6f	-0.36522242
23	0xbec85bbb	-0.39132485
24	0x3c2807ec	0.010255795
25	0xbcb84dca	-0.02249803
26	0xbd95189d	-0.07280085
27	0xbed8c63f	-0.4233875
28	0x3d39c722	0.045355923
29	0x3e22d3f8	0.15901172
30	0x3d851e97	0.06499975
31	0xbbb9ed16	-0.005674015
32	0xbcbd3bcb	-0.0230998
33	0xbed76aec	-0.42073762
34	0xbcdf085b	-0.027225664
35	0xbe789213	-0.24274473
36	0xbbf9023d	-0.007599144
37	0x3d4dc316	0.050234877
38	0x3d0110e8	0.031510264
39	0x3e1d6554	0.15370685
40	0x3e0a3c90	0.13499665
41	0x3cd04252	0.025422249
42	0x3d20bf17	0.039244737
43	0x3e0e3ce4	0.13890415
44	0xbcb4bbf6	-0.022062283
45	0x3da69654	0.081341416
46	0x3d5404dd	0.05176245
47	0xbd80aacc	-0.06282577
48	0x3bd9e603	0.006649734
49	0xbda5e288	-0.08099848
50	0xbd80405f	-0.06262278
51	0x3d7d3f56	0.06182798
52	0x3c3fb7ec	0.011701565
53	0xbdb3de10	-0.087825894
54	0xbe87d05c	-0.26526153
55	0xbe1617c4	-0.14657503
56	0x3d01a2f1	0.031649534
57	0xbe8d655f	-0.27616403
58	0xbe9b478e	-0.3032803
59	0xbf39a10e	-0.72511375
60	0xbea218dc	-0.3165959
61	0xbc37cef7	-0.011218778
62	0x3da40951	0.080095895
63	0xbcf1e601	-0.02952862
64	0x3e05aae5	0.13053472
65	0x3d9fa9f1	0.077960856
66	0x3db8e24e	0.09027539
67	0xbd352f6f	-0.04423469
68	0x3f43ce94	0.7648709
69	0x3d90d0cd	0.070710756
70	0x3c87d750	0.016582161
71	0x3b23f91d	0.002502031
72	0xba81f5c5	-0.0009915164
73	0x3d525931	0.05135459
74	0xbe5790bd	-0.21051307
75	0x3c72008f	0.014770641
76	0x3d00e05d	0.03146397
77	0x3da45a42	0.08025028
78	0xbdf99665	-0.121868886
79	0xbec5c425	-0.3862621
80	0xbcbb9814	-0.022899665
81	0x3c8876be	0.016658183
82	0xbc0c7a9e	-0.008574156
83	0xbd4cef7b	-0.050033074
84	0x3d6d632f	0.057955917
85	0xbd3a8ee0	-0.045546412
86	0x3d0a74b6	0.03380271
87	0x3aa36caf	0.0012468303
88	0x3c8f2a9b	0.01747637
89	0x3dbb915c	0.091585845
90	0xbb0dd9d0	-0.002164472
91	0xbcf823b1	-0.030290456
92	0xbd87727d	-0.06613634
93	0x3d1b3730	0.037894428
94	0x3de09843	0.109665416
95	0x3dd32de5	0.10311488
96	0x3c9b1188	0.018929258
97	0x3caf1810	0.021373779
98	0xbd61db00	-0.055140495
99	0xbcbc8950	-0.023014694
100	0xbd57b70a	-0.052664794
101	0x3eaf1da5	0.34202304
102	0x3c3f1696	0.0116631
103	0x3d8f5e00	0.07000351
104	0x3d53d402	0.05171586
105	0x3c489a14	0.012243766
106	0xbe7ea520	-0.24867678
107	0xbeb4ab4f	-0.35286948
108	0xbcbf2c04	-0.023336418
109	0x3cddcbdf	0.027074752
110	0xbdfb6949	-0.12275941
111	0xbce0efe1	-0.027458133
112	0x3d1f06ea	0.038824953
113	0x3e32a583	0.1744595
114	0x3ce303b3	0.027711725
115	0xbc83f6d5	-0.01610891
116	0x3c9c9645	0.019114623
117	0xbd6c8fa1	-0.057754163
118	0xbe95f172	-0.2928577
119	0xbf205230	-0.6262541
120	0x3d778ce3	0.060437094
121	0xbd309c3c	-0.043117747
122	0x3cffd487	0.03122927
123	0xbb544e98	-0.0032395478
124	0x3df3efba	0.119109586
125	0x3d80dc92	0.062920704
126	0x3d83799d	0.0641968
127	0xbd32aa1d	-0.043619264
128	0x3e2ddec0	0.16979504
129	0xbdb8fa97	-0.09032171
130	0xbe8bc274	-0.27296793
131	0xbdb75342	-0.08951427
132	0xbeb73b99	-0.35787657
133	0xbc899b19	-0.01679759
134	0x3e13687f	0.14395331
135	0x3d409669	0.047018442
136	0x3cecb8da	0.028896738
137	0xbe11255b	-0.14174406
138	0xbd0bef44	-0.03416373
139	0x3d756590	0.05991131
140	0x3e0a718e	0.1351988
141	0xbea5e0bd	-0.32398024
142	0x3e222b48	0.15836823
143	0x3d3119d0	0.043237507
144	0x3c35c214	0.011093635
145	0xbd86d7e7	-0.06584149
146	0x3c954816	0.01822285
147	0x3c80b3a9	0.015710669
148	0xbe4a23f8	-0.19740283
149	0xbe35405b	-0.17700331
150	0x3c9e4c60	0.019323528
151	0xbc9ea8de	-0.019367632
152	0xbd560951	-0.05225498
153	0x3c5cce77	0.013476959
154	0xbd754bf7	-0.0598869
155	0xbccc3871	-0.024929257
156	0x3ce16751	0.027515085
157	0x3dbc9fb4	0.092101485
158	0xbd104fdf	-0.03523242
159	0xbe5e824f	-0.21729396
160	0x3df2db8b	0.11858281
161	0x3d9f5f78	0.07781881
162	0xbdaff581	-0.08591748
163	0xbe535911	-0.20639445
164	0xbee41048	-0.44543672
165	0x3ddf3e67	0.10900574
166	0x3e1e01c0	0.15430355
167	0x3e5345dc	0.20632118
168	0x3dab256e	0.083567485
169	0x3d53b949	0.051690374
170	0xbca43207	-0.020043386
171	0xbe4bb3e1	-0.19892837
172	0xbe6f8a91	-0.23392703
173	0xbefd65c6	-0.4949171
174	0x3d864866	0.06556778
175	0x3d83d9d8	0.06438035
176	0xbd7e0dbc	-0.062024817
177	0x3d08e1b1	0.03341836
178	0x3d83930c	0.06424531
179	0xbb1fc1b8	-0.002437694
180	0xbeb80eb1	-0.3594871
181	0xbeea633d	-0.45778838
182	0xbee9172d	-0.45525494
183	0xbe487247	-0.19574843
184	0xbdf56f69	-0.119841404
185	0xbdcee32f	-0.101019256
186	0x3dc66001	0.0968628
187	0x3e42e21d	0.19031568
188	0xbee19f11	-0.4406667
189	0x3cddd486	0.027078878
190	0x3cef93bc	0.02924525
191	0x3e68e602	0.22743991
192	0xbaa8d36a	-0.0012880389
193	0xbc1d062b	-0.00958399
194	0xbc10d5ff	-0.008840083
195	0x3d04df4f	0.032439526
196	0x3d888c4a	0.06667383
197	0x3d9fe8b6	0.07808058
198	0xbde65551	-0.112467416
199	0x3c0af690	0.008481637
200	0x3dc31c82	0.09526922
201	0x3e28d447	0.16487227
202	0xbe7cc74a	-0.24685398
203	0xbcff61b0	-0.03117451
204	0x3dd55cad	0.10418067
205	0xbb242034	-0.0025043609
206	0xbceee3fc	-0.029161446
207	0xbbb0be51	-0.0053937812
208	0x3d03b4f1	0.03215498
209	0xbcded1c2	-0.02719963
210	0xbbc340e6	-0.005958664
211	0x3d7a605c	0.06112705
212	0xbe0d8239	-0.13819207
213	0xbd2abb3f	-0.041682478
214	0x3ce7a235	0.028275589
215	0x3dd93b9c	0.10607073
216	0xbdf3bba6	-0.119010255
217	0xbe548c24	-0.20756584
218	0x3ce714a8	0.028208092
219	0xbe50f562	-0.20406106
220	0xbe33dba0	-0.17564249
221	0xbe2d60f3	-0.16931514
222	0x3ddc95e5	0.107707776
223	0x3e3b3191	0.18280627
224	0x3dc1dfc9	0.09466512
225	0x3c5a78c3	0.013334456
226	0x3d6b5ef5	0.057463605
227	0x3c9f2854	0.01942841
228	0xbb294f63	-0.0025834672
229	0xbe1da834	-0.15396196
230	0xbe28e392	-0.16493061
231	0xbce4fd28	-0.027952746
232	0xbe756663	-0.23964839
233	0x3cca0619	0.02466111
234	0xbdbb3770	-0.09141433
235	0xbe1d0a12	-0.15335873
236	0x3d304b74	0.043040708
237	0xbd75e0d5	-0.06002887
238	0x3d8e238d	0.069403745
239	0x3e0fcfc0	0.14044094
240	0xbdf48b48	-0.11940628
241	0x3e8f7564	0.2801925
242	0xbd18b075	-0.037277658
243	0x3d97f43f	0.07419633
244	0x3cba5818	0.022747084
245	0x3dfd9ebd	0.123837925
246	0xbe6d3f3d	-0.23168655
247	0xbece195d	-0.40253726
248	0xbf26397a	-0.6493145
249	0xbbecc4de	-0.007225617
250	0x3d09fb7b	0.033687096
251	0x3cac56be	0.021037456
252	0xbebb9af1	-0.36641648
253	0xbee47f12	-0.44628197
254	0xbf568298	-0.8379302
255	0xbf49f85f	-0.7889461

btcnn.layers.2.conv1d.bias f4 [27]
0	0xbd0c7823	-0.03429426
1	0x3c6a3b5c	0.014296379
2	0x3da66737	0.081251554
3	0xbc4cad5a	-0.012492502
4	0x3dbf55d6	0.09342544
5	0xbd22d10a	-0.039750136
6	0xbc9ff218	-0.019524619
7	0xbc4e906f	-0.012607678
8	0x3dc3f00e	0.09567271
9	0xbd50d6a6	-0.050985955
10	0xbd1c5243	-0.03816439
11	0xbcf63258	-0.030053303
12	0x3ca3b8f4	0.019985653
13	0xbcf8f55e	-0.030390438
14	0x3cccc9b3	0.024998521
15	0xbc5986f0	-0.0132768005
16	0x3d86a0a5	0.06573609
17	0x3cc098ce	0.023510363
18	0x3d0a8f65	0.033828158
19	0x3bf17154	0.007368246
20	0x3d9f6f76	0.07784931
21	0xbd6c6d2d	-0.057721306
22	0x3c9cf921	0.019161763
23	0x3d516853	0.051124882
24	0xbd3c2c55	-0.045940716
25	0x3c590265	0.0132452
26	0xbd370bb9	-0.044688914

fcnn.0.weight f4 [64, 27]
0	0x3e573298	0.21015394
1	0x3dec2c59	0.11531896
2	0xbd927590	-0.071513295
3	0x3e8c243a	0.2737139
4	0xbdc8be8b	-0.09801968
5	0x3e9a80c5	0.30176368
6	0x3e9103a7	0.283231
7	0x3e5bc4a6	0.21461734
8	0x3e25fed6	0.16210493
9	0x3e8b14ef	0.2716441
10	0x3da015e0	0.07816672
11	0xbe96cd46	-0.29453486
12	0x3e280758	0.16409051
13	0x3e9434b0	0.28946447
14	0x3edc831e	0.43068784
15	0xbc307bec	-0.010771733
16	0x3d93e0c7	0.07220607
17	0xbdad9514	-0.084757
18	0xbe152e09	-0.14568342
19	0x3e0cd23b	0.13752072
20	0xbd383d2c	-0.044980213
21	0x3d9cd067	0.07656937
22	0x3dbf00cc	0.09326324
23	0xbf0f0cb2	-0.55878747
24	0x3e015d7d	0.12633319
25	0xbdd1a087	-0.10235696
26	0xbe039486	-0.12849626
27	0x3dddc9ea	0.10829528
28	0x3e5de821	0.21670581
29	0xbdefab9e	-0.11702655
30	0x3e9b2673	0.30302772
31	0xbef4b36e	-0.47793144
32	0x3dbcb6fd	0.0921459
33	0xbd23f006	-0.040023826
34	0x3dd4cdac	0.10390791
35	0x3b810cb7	0.0039382833
36	0x3e23ad3b	0.15984051
37	0xbcb858ff	-0.022503374
38	0xbdf287c4	-0.118423015
39	0x3da752f3	0.08170118
40	0x3e148de7	0.14507256
41	0x3e703965	0.23459394
42	0x3e7a2c03	0.24430852
43	0x3bdce9bc	0.0067417305
44	0xbc8695c5	-0.016428838
45	0xbdb87c79	-0.09008116
46	0x3e82fe35	0.2558457
47	0xbcf3bb23	-0.02975232
48	0xbdf74e86	-0.12075524
49	0x3c14e850	0.009088591
50	0xbe9b5407	-0.30337545
51	0x3e7ec6d8	0.2488054
52	0x3e113f73	0.1418436
53	0xbe1c61e7	-0.15271722
54	0xbdd2d917	-0.10295313
55	0x3ddcd87e	0.1078348
56	0x3ec7b9d1	0.39008954
57	0xbe8755c4	-0.2643262
58	0x3eaeeed0	0.34166574
59	0x3d1d5721	0.03841317
60	0xbd1d929f	-0.038469907
61	0xbe1cc0ba	-0.15307894
62	0x3e3bc2d5	0.18336041
63	0xbe031aff	-0.12803267
64	0x3dcbedd3	0.09957471
65	0x3e5e9757	0.21737419
66	0xbe5045ed	-0.20339175
67	0xbeab2350	-0.3342538
68	0xbebc2b3c	-0.36751735
69	0x3e270455	0.16310246
70	0x3da2d5ed	0.07950959
71	0x3e9d3dde	0.30711263
72	0x3de32a9d	0.11092112
73	0xbd1c417b	-0.038148385
74	0x3dd140df	0.10217451
75	0x3e0c50b9	0.13702668
76	0xbd1a6189	-0.037690673
77	0x3ee97ba8	0.45602155
78	0xbe2d0176	-0.16895089
79	0x3d451166	0.048112296
80	0xbdadb6b9	-0.08482117
81	0xbeb09b3a	-0.34493428
82	0xbe6bfba5	-0.23045214
83	0x3e72d13a	0.23712626
84	0x3d7559d7	0.05990013
85	0x3df38f6e	0.118925914
86	0xbe1a1c0c	-0.15049762
87	0xbdfd7074	-0.12374964
88	0xbd1b9710	-0.03798586
89	0xbe0dadd3	-0.1383584
90	0xbe42ecf1	-0.19035698
91	0x3d21217a	0.039338566
92	0x3e3d898f	0.18509506
93	0xbc1febb9	-0.0097607905
94	0xbee18969	-0.44050148
95	0xbedadc8d	-0.42746392
96	0xbe68b10e	-0.22723791
97	0x3d0e918d	0.034806777
98	0xbcdae7d2	-0.026721869
99	0x3e3b0712	0.18264416
100	0xbe533c07	-0.20628367
101	0x3bd29bbd	0.006427257
102	0xbe0df60b	-0.13863389
103	0xbe9c4abb	-0.30525765
104	0x3ee3df8c	0.4450649
105	0xbdf1c344	-0.11804822
106	0xbe188932	-0.14896086
107	0xbdbb6b82	-0.09151365
108	0xbe44dfe8	-0.19226038
109	0x3de632f3	0.112401865
110	0x3f01248c	0.5044639
111	0xbe828cab	-0.25497946
112	0x3e4206dd	0.1894793
113	0xbd650daa	-0.055921234
114	0xba66663d	-0.00087890384
115	0x3c4b0929	0.012392321
116	0x3e7b1eed	0.24523516
117	0xbe07c38b	-0.13258187
118	0xbe39afa5	-0.1813341
119	0x3e91981f	0.28436372
120	0xbdc30dcd	-0.09524117
121	0xbeae1b18	-0.34005046
122	0xbed579a2	-0.4169436
123	0x3e30a3af	0.1724994
124	0xbdde103c	-0.1084294
125	0xbd002236	-0.031282626
126	0x3e200d9f	0.15630196
127	0xbcee1f27	-0.029067589
128	0x3dcc1568	0.099650204
129	0xbe2ee3e8	-0.17079127
130	0xbe44d54f	-0.19221996
131	0x3ed6c769	0.41949013
132	0xbd9f6c55	-0.077843346
133	0xbd6c1e55	-0.057646114
134	0xbc0611dd	-0.00818297
135	0x3e395e20	0.18102312
136	0x3d8af40a	0.06784828
137	0xbe457f52	-0.1928685
138	0x3ea0568e	0.31316036
139	0xbe9203de	-0.28518575
140	0x3e02d5ff	0.12776946
141	0x3e3caad6	0.18424544
142	0x3d8d1054	0.0688788
143	0xbe3b5a7c	-0.18296236
144	0x3ea168cd	0.3152527
145	0xbd9c50a9	-0.07632572
146	0xbe8254a0	-0.2545519
147	0x3ea00922	0.31256968
148	0x3eb66188	0.35621285
149	0x3ed0141e	0.40640348
150	0x3e1e965b	0.15487044
151	0x3d4337c9	0.047660623
152	0xbe80266f	-0.25029323
153	0xbc90820c	-0.017640136
154	0x3cb44039	0.02200328
155	0x3ad11954	0.0015952983
156	0xbdeca773	-0.11555376
157	0x3eb302a4	0.34962952
158	0xbf010c52	-0.50409424
159	0x3e47bebf	0.19506358
160	0x3d529900	0.051415443
161	0x3dd79371	0.10526169
162	0x3eb2ecf6	0.34946412
163	0x3c082377	0.008309237
164	0xbe72d6b7	-0.2371472
165	0x3e99ed0e	0.3006367
166	0xbdba29ab	-0.09089979
167	0x3e92be7e	0.2866096
168	0x3e90cc9d	0.28281108
169	0xbcff530a	-0.031167526
170	0x3cd0fa0b	0.025509855
171	0x3ebca0c6	0.3684141
172	0x3de5b2d6	0.11215751
173	0xbe2d4092	-0.16919163
174	0x3e3d4a8c	0.18485469
175	0x3e77b2af	0.24189256
176	0x3e42cac0	0.19022655
177	0x3d6ed626	0.058309697
178	0xbd171bc9	-0.036891732
179	0xbd87c86f	-0.066300265
180	0xbdf6cd44	-0.1205087
181	0x3e244c4c	0.1604473
182	0xbe5cd97f	-0.21567343
183	0xbda6c973	-0.08143892
184	0x3e7c60b1	0.2464626
185	0xbea94b8f	-0.3306546
186	0x3e17e727	0.14834271
187	0x3adfda61	0.0017078632
188	0xbdf83d1f	-0.12121033
189	0x3e0af723	0.13570838
190	0x3e4ba2b3	0.19886284
191	0xbec3eaaf	-0.38264987
192	0xbd0a3868	-0.0337452
193	0xbedeb483	-0.43497095
194	0x3e7fc76a	0.24978414
195	0x3e008bf7	0.12553392
196	0x3def4d35	0.11684648
197	0x3dd08c12	0.10182966
198	0x3d84f087	0.064911895
199	0x3db3f618	0.08787173
200	0xbea81696	-0.32829732
201	0x3e715ba7	0.23570119
202	0x3e56ac64	0.209642
203	0x3ea99028	0.33117795
204	0x3e73ecb2	0.23820761
205	0xbcbca45b	-0.02302759
206	0xbe5d5018	-0.21612585
207	0xbe536afe	-0.20646283
208	0x3e4ec726	0.20193157
209	0xbd85109d	-0.06497309
210	0xbd2f99aa	-0.042871155
211	0x3eb988f3	0.36237296
212	0xbf0e9938	-0.55702543
213	0x3e1882d6	0.1489366
214	0x3da39de2	0.07989098
215	0x3ba9431d	0.005165471
216	0x3e2fd56b	0.17171256
217	0xbd828bc8	-0.063743174
218	0xbde0d612	-0.10978331
219	0x3ea779ef	0.32710215
220	0xbe8043f8	-0.25051856
221	0x3ca96bec	0.020681344
222	0x3cfb2a45	0.030659804
223	0x3d6c10aa	0.05763308
224	0xbd3b9ffb	-0.045806866
225	0x3ebd3d80	0.36960983
226	0x3e8b5b61	0.27218154
227	0xbe4a982a	-0.19784608
228	0x3e219766	0.1578041
229	0x3ef603e3	0.4804984
230	0x3e4b8293	0.19874029
231	0x3d992537	0.07477801
232	0xbe65e85a	-0.22451916
233	0xbd94004b	-0.072266184
234	0xbc750e65	-0.014957045
235	0x3e1cacbb	0.15300266
236	0xbe6487f1	-0.22317483
237	0x3db548b9	0.08851761
238	0x3ec09c1a	0.37619096
239	0xbebd092b	-0.36921057
240	0x3d6ab645	0.057302732
241	0x3e21c84b	0.15799062
242	0xbdb846e7	-0.089978985
243	0x3e8277e3	0.2548209
244	0xbcc42856	-0.023945015
245	0xbe9c4027	-0.30517694
246	0x3e861370	0.26186705
247	0xbf6de37e	-0.9292525
248	0x3e0a7044	0.13519388
249	0x3e586c6c	0.2113511
250	0x3e500c9d	0.20317312
251	0xbd4c6e2e	-0.049909763
252	0x3dc89d44	0.09795621
253	0x3e1220e3	0.14270358
254	0xbed40b35	-0.414148
255	0xbc95d158	-0.0182883

fcnn.0.bias f4 [64]
0	0x3d05ce77	0.032667603
1	0x393cb437	0.00017996212
2	0x3e4ee07c	0.20202821
3	0x3e5866ed	0.21133013
4	0xbda4ed7c	-0.08053109
5	0xbe3d39e2	-0.18479112
6	0x3e27cedc	0.16387504
7	0x3d31e5cd	0.043432046
8	0x3d242037	0.040069785
9	0x3d247f40	0.040160418
10	0x3e2b18b5	0.16708644
11	0x3e1ac4d8	0.15114152
12	0x3c471671	0.012151347
13	0xbd20b32f	-0.039233383
14	0x3e44b9d8	0.19211519
15	0xbcb9c794	-0.022678174
16	0xbda8aee9	-0.082364865
17	0xbe286bb7	-0.1644734
18	0x3e111abe	0.14170358
19	0x3d4e1d31	0.050320808
20	0x3dc5de06	0.09661488
21	0xbc3bc293	-0.011459964
22	0xbb96bb6a	-0.004599978
23	0xbd6bd49c	-0.057575807
24	0x3ba989db	0.0051739044
25	0xbd5e0a20	-0.054208875
26	0x3dce8734	0.10084382
27	0x3dbba8b0	0.09163034
28	0xbdc01526	-0.09379034
29	0x3e845f31	0.25853875
30	0x3dadfc37	0.08495372
31	0xbdc25575	-0.09488956
32	0x3dce0713	0.10059943
33	0xbde1ce22	-0.11025645
34	0xbe0d4af6	-0.13798127
35	0x3ce52ec4	0.027976401
36	0xbe19b9e5	-0.1501232
37	0xbd7a5050	-0.06111175
38	0x3e0d2fed	0.13787813
39	0x3df0d733	0.11759796
40	0x3e4744a5	0.1945978
41	0xbca87117	-0.020561738
42	0x3dde7971	0.10863007
43	0xbdc7550b	-0.097330175
44	0x3ae2dc38	0.0017308062
45	0x3db44355	0.08801905
46	0x3d2aff2d	0.04174726
47	0x3d9dcfe0	0.07705665
48	0xbd549e7e	-0.051908962
49	0xbe20bd10	-0.15697122
50	0xbe2ee7f9	-0.17080678
51	0x3d888990	0.06666863
52	0x3df3db5d	0.119070746
53	0xbb8984fa	-0.0041967602
54	0x3debff08	0.11523253
55	0xbe585eaf	-0.21129869
56	0x3e071547	0.1319171
57	0xbce5e1e8	-0.028061822
58	0xbe41e221	-0.18933918
59	0x3ddc609b	0.107606135
60	0x3e235058	0.15948617
61	0x3ca14e83	0.019690758
62	0x3cfa206a	0.030533034
63	0xbd1cb2b7	-0.038256373

fcnn.2.weight f4 [1, 64]
0	0x3e379d5e	0.17931125
1	0x3df9b56e	0.12192808
2	0xbeeae19c	-0.4587525
3	0xbe705f5d	-0.23473878
4	0xbf0ba35e	-0.54546154
5	0x3ee23bd4	0.4418627
6	0x3e7f9e3b	0.24962704
7	0x3e903e9d	0.2817277
8	0x3eafdc70	0.34347868
9	0x3f641011	0.89087015
10	0x3e2a7006	0.16644296
11	0xbf0a69ea	-0.5406786
12	0x3e4a86f4	0.19778043
13	0x3e975ee8	0.29564595
14	0x3e68851b	0.22707026
15	0xbe3a4d13	-0.18193464
16	0x3f60f3fa	0.8787228
17	0x3f735b2b	0.95060986
18	0xbdea6fd6	-0.11447112
19	0x3ea98eda	0.331168
20	0xbea3628f	-0.31911132
21	0xbd26e880	-0.040749073
22	0xbebfa501	-0.37430575
23	0xbcf2d7d2	-0.029643927
24	0xbf007b5a	-0.5018822
25	0xbecbb644	-0.39787495
26	0x3f5c9522	0.8616506
27	0x3e6a9631	0.22908856
28	0xbf021c7e	-0.50824726
29	0xbf0d6aa9	-0.55240875
30	0x3f67f842	0.90613186
31	0xbe4132f6	-0.18867096
32	0xbe3bb0cd	-0.18329163
33	0x3f30dff7	0.69091743
34	0x3e8c7173	0.27430305
35	0xbea63630	-0.32463217
36	0x3f1d7e01	0.6152039
37	0xbe9d6b7b	-0.30746064
38	0x3f3618ba	0.7113148
39	0xbe284c4b	-0.16435353
40	0x3e254656	0.16140112
41	0xbf0d3c4c	-0.5517013
42	0x3e721c47	0.236436
43	0x3e7f857f	0.24953268
44	0xbf05d73f	-0.52281564
45	0xbef3fb47	-0.47652647
46	0xbf125008	-0.5715337
47	0xbe9710af	-0.29504916
48	0x3f5cc5f9	0.8623958
49	0xbf11520c	-0.5676582
50	0x3eb1a08a	0.34692794
51	0xbf1a404c	-0.6025436
52	0x3e649049	0.22320665
53	0x3f38b4e8	0.7215104
54	0xbdb4d769	-0.08830149
55	0x3f7c31be	0.985134
56	0xbf44782f	-0.76745886
57	0xbe920aeb	-0.28523955
58	0x3f3ef418	0.7459121
59	0xbe2c20ed	-0.16809435
60	0xbea4e44a	-0.3220542
61	0xbf1ce3d6	-0.6128515
62	0x3edbc453	0.4292322
63	0x3dff2240	0.124577045

exp_avg f4 [128, 27, 3]
0	0xbe72b064	-0.237001
1	0x3eaa4fb1	0.33263925
2	0x00000000	0.0
3	0xbe8d6a9e	-0.27620405
4	0xbcc07c6f	-0.023496835
5	0xbc94d897	-0.018169684
6	0xbe3aee16	-0.18254885
7	0x3e290cb6	0.16508755
8	0x3ab1bb22	0.0013559798
9	0xbc883cbe	-0.016630527
10	0xbfb26fe8	-1.3940401
11	0x3d02f0c3	0.03196789
12	0xbe0b3c8a	-0.13597313
13	0xbe8561aa	-0.26051074
14	0x00000000	0.0
15	0xbb74aa84	-0.003733308
16	0xbcd88bf4	-0.026433922
17	0x00000000	0.0
18	0xbeb88561	-0.3603926
19	0xbdb79e67	-0.0896576
20	0x00000000	0.0
21	0xbca3b8fb	-0.019985666
22	0x3c9a5282	0.01883817
23	0x00000000	0.0
24	0xbc1c4b77	-0.009539477
25	0x00000000	0.0
26	0xbf1c1a8b	-0.60978
27	0x3da84984	0.08217147
28	0x3e96e22d	0.29469433
29	0x00000000	0.0
30	0xafd94f38	-3.9528358e-10
31	0x2ab5c81c	3.2290913e-13
32	0x00000000	0.0
33	0xbce163a8	-0.02751334
34	0x3d5ccab8	0.053904265
35	0xbd9ef963	-0.077624105
36	0x00000004	6e-45
37	0x80000004	-6e-45
38	0x00000000	0.0
39	0xbc87dbf7	-0.01658438
40	0xbd7e6b1e	-0.062113874
41	0x00000000	0.0
42	0x3da3f25b	0.0800521
43	0xbd8de82c	-0.06929049
44	0x00000000	0.0
45	0x3eaa4fb1	0.33263925
46	0xbde1b461	-0.11020733
47	0x3f273c6d	0.6532658
48	0xba7ffb42	-0.00097649184
49	0x3a2dd094	0.0006630507
50	0x00000000	0.0
51	0x3b410068	0.0029449705
52	0x3e17709b	0.1478905
53	0x00000000	0.0
54	0x3d19478a	0.03742174
55	0xbc0c5af8	-0.0085666105
56	0x00000000	0.0
57	0xbe6e1efa	-0.23254004
58	0xbe197a0e	-0.14987966
59	0xbb121761	-0.0022291767
60	0x3e9df4ad	0.30850735
61	0x3f3f1df2	0.7465507
62	0xbdd4fc8c	-0.10399732
63	0xbe2e414e	-0.170171
64	0xbdd0f988	-0.10203844
65	0x3e809958	0.25116992
66	0x3da85c65	0.08220748
67	0xbba8c7ae	-0.005150757
68	0x00000000	0.0
69	0x3caf166c	0.021372996
70	0xbe85179c	-0.25994575
71	0x00000000	0.0
72	0xbf028917	-0.5099043
73	0x00000000	0.0
74	0xbe6e1efa	-0.23254004
75	0xc197d3a4	-18.97834
76	0xc1ad3657	-21.651533
77	0xc0ef463d	-7.477324
78	0x403fc806	2.9965835
79	0xbff69ba8	-1.9266253
80	0xbed760fb	-0.42066178
81	0xbf2733d2	-0.65313447
82	0xbfa1b429	-1.2633106
83	0x00000000	0.0
84	0x3d7da263	0.061922442
85	0x3daa16bd	0.08305118
86	0xbd28f195	-0.041246016
87	0xbe3006e1	-0.17190124
88	0xbe1f3d5b	-0.15550749
89	0x388e857d	6.795952e-05
90	0xbe1aa546	-0.1510211
91	0xbe467edd	-0.19384332
92	0xbc95bc22	-0.018278185
93	0x3de29964	0.11064413
94	0x3d11e3ee	0.03561776
95	0x00000000	0.0
96	0x3cd0e01f	0.025497494
97	0xbce975e1	-0.028498592
98	0x00000000	0.0
99	0x3e0070b1	0.12542988
100	0xbe09cf9d	-0.13458104
101	0x00000000	0.0
102	0x3adbeaa2	0.00167783
103	0xbce02eb3	-0.027366018
104	0x00000000	0.0
105	0xbdd5bab4	-0.104360014
106	0x00000000	0.0
107	0xbdf1b1a8	-0.11801463
108	0xbd0f1986	-0.03493645
109	0xbe62c632	-0.22145918
110	0x00000000	0.0
111	0x2d06eb55	7.669272e-12
112	0xac5e37d5	-3.157909e-12
113	0x00000000	0.0
114	0x3d0bbc05	0.034114856
115	0x3d8f63f0	0.070014834
116	0xbe0381d3	-0.12842493
117	0x80000004	-6e-45
118	0x00000004	6e-45
119	0x00000000	0.0
120	0xbacfdf85	-0.0015859461
121	0xbc949d9c	-0.01814156
122	0x00000000	0.0
123	0xbe6da4e8	-0.23207438
124	0x3c4117f6	0.011785498
125	0x00000000	0.0
126	0xbfa1b429	-1.2633106
127	0xbd42bea3	-0.047545087
128	0xbe0f50c8	-0.1399566
129	0x381601ed	3.576458e-05
130	0x3ac5d397	0.0015092966
131	0x00000000	0.0
132	0xbdaa04b7	-0.083016805
133	0x3b3d35a5	0.0028871086
134	0x00000000	0.0
135	0x3c1860c9	0.009300419
136	0x3a910a29	0.001106565
137	0x00000000	0.0
138	0x3dee3656	0.116314575
139	0x3e5d1e55	0.21593602
140	0x3c154e4a	0.009112904
141	0xbf390628	-0.7227502
142	0xbf7561ed	-0.9585255
143	0x3a9015b7	0.00109928
144	0xbde12792	-0.109938756
145	0x3e6ce821	0.23135425
146	0xbeeb0380	-0.45901108
147	0x3b293e9f	0.0025824679
148	0x3e0b3a9d	0.13596578
149	0x00000000	0.0
150	0xbe0128a4	-0.1261316
151	0x3d74a756	0.059729896
152	0x00000000	0.0
153	0x3db1da75	0.086842455
154	0x00000000	0.0
155	0x3dee3656	0.116314575
156	0xc1426d6d	-12.151715
157	0x3e34c7d9	0.17654361
158	0xc0aa9037	-5.3301044
159	0xc06c84bf	-3.6956022
160	0x40cc2282	6.3792124
161	0xbf29c0fb	-0.6631009
162	0x3f6b74ca	0.9197508
163	0xbef25b6c	-0.47335374
164	0x00000000	0.0
165	0xbd68cc44	-0.056835428
166	0xbe975167	-0.29554293
167	0xbe4a8294	-0.19776374
168	0xbf1fd50c	-0.6243446
169	0xbead49c9	-0.33845356
170	0xbbb77a35	-0.005599285
171	0xc035778d	-2.8354218
172	0x3dcfa43f	0.10138749
173	0x3cfa5489	0.030557888
174	0xba89c0e3	-0.0010509755
175	0xbb21435a	-0.0024606795
176	0x00000000	0.0
177	0x382ad4d8	4.0729385e-05
178	0xb9a08d66	-0.00030622928
179	0x00000000	0.0
180	0xba16d25d	-0.00057533925
181	0x3b9e4f1d	0.0048312084
182	0x00000000	0.0
183	0x3d4cbb8e	0.049983554
184	0x3cd8cc51	0.026464613
185	0x00000000	0.0
186	0x3d9f4206	0.07776265
187	0x00000000	0.0
188	0xbee52d64	-0.44761193
189	0x3b8754ae	0.0041299677
190	0x3dbc5a87	0.09196954
191	0x00000000	0.0
192	0xaf8f999b	-2.6120692e-10
193	0x2ff8f5bb	4.528554e-10
194	0x00000000	0.0
195	0x3dc6b01a	0.097015575
196	0xbc987324	-0.01860959
197	0xbe74dc12	-0.23912075
198	0x80000004	-6e-45
199	0x00000004	6e-45
200	0x00000000	0.0
201	0x3d9779de	0.07396291
202	0x3de02c86	0.10945992
203	0x00000000	0.0
204	0xbb321cae	-0.002717774
205	0xbd7a9446	-0.06117656
206	0x00000000	0.0
207	0xbef25b6c	-0.47335374
208	0x3e84da01	0.25947574
209	0x3f8dfc58	1.1092634
210	0x3b6241b8	0.0034524035
211	0x3c21d19c	0.009876635
212	0x00000000	0.0
213	0xbfa84e31	-1.3148862
214	0xbc5b8f5f	-0.013400882
215	0x00000000	0.0
216	0x3c7022d8	0.014656745
217	0xbc9f233a	-0.019425977
218	0x00000000	0.0
219	0xbd757338	-0.059924334
220	0xbf1cc10f	-0.61232084
221	0x396d755a	0.00022645798
222	0x3f00e803	0.5035402
223	0xbeb03824	-0.34417832
224	0x3ca6a1e7	0.020340873
225	0x3d5e3291	0.054247443
226	0xbe074672	-0.13210467
227	0xbec83dd5	-0.39109674
228	0x3dae5575	0.085123934
229	0x3d21b6ba	0.039480902
230	0x00000000	0.0
231	0xbd00f7a2	-0.03148616
232	0xbd1fa311	-0.03897387
233	0x00000000	0.0
234	0x3d38f8d2	0.04515917
235	0x00000000	0.0
236	0xbd75733b	-0.059924345
237	0xc1330465	-11.188573
238	0xc0b6596a	-5.698415
239	0xc122c943	-10.174136
240	0x40c19815	6.0498147
241	0x40285091	2.6299174
242	0xbeb19552	-0.34684235
243	0x3dce662a	0.1007808
244	0x3e28677d	0.16445728
245	0x00000000	0.0
246	0x3e0cdba1	0.13755657
247	0x3e19c293	0.1501563
248	0x3df163b0	0.11786592
249	0x3e5203b8	0.20509231
250	0x3ebc1912	0.36737877
251	0x393e9635	0.00018175768
252	0x3f15bd9d	0.5849245
253	0x3f09aa28	0.5377526
254	0xbaa14b77	-0.0012305815
255	0x3e2ccb44	0.16874415

exp_avg_sq f4 [128, 27, 3]
0	0x402d57e7	2.7084901
1	0x408ea72a	4.457906
2	0x00000000	0.0
3	0x40a63e8a	5.195134
4	0x3eca7a62	0.39546496
5	0x3ef52181	0.47877124
6	0x400b7cc4	2.17949
7	0x41120cd0	9.128128
8	0x3a8823de	0.0010386666
9	0x40891a27	4.2844424
10	0x41581eca	13.507517
11	0x3d2915b8	0.04128048
12	0x3f362b01	0.7115937
13	0x3e134062	0.14380029
14	0x00000000	0.0
15	0x3d9db98a	0.077014044
16	0x3c97b8cf	0.01852074
17	0x00000000	0.0
18	0x3fcf4dd0	1.6195621
19	0x3e66958a	0.22517982
20	0x00000000	0.0
21	0x3cb3ddd6	0.021956366
22	0x3cd12c86	0.025533926
23	0x00000000	0.0
24	0x425fafb6	55.921593
25	0x00000000	0.0
26	0x40d430f6	6.6309767
27	0x3e4b27b6	0.19839367
28	0x3f4a223e	0.789585
29	0x00000000	0.0
30	0x2ee6241e	1.0465605e-10
31	0x2c74a257	3.4764602e-12
32	0x00000000	0.0
33	0x3f95c90b	1.1701978
34	0x3fff7597	1.995776
35	0x3e331a68	0.17490542
36	0x2a25bad5	1.4719764e-13
37	0x2d9a5153	1.7543888e-11
38	0x00000000	0.0
39	0x3c18d20e	0.009327425
40	0x3b3fd76a	0.0029272684
41	0x00000000	0.0
42	0x3d03797d	0.032098282
43	0x3ce41655	0.02784268
44	0x00000000	0.0
45	0x408ea72a	4.457906
46	0x3fda51a0	1.705616
47	0x421320f6	36.78219
48	0x3c2c2018	0.010505699
49	0x38d2d17e	0.00010052601
50	0x00000000	0.0
51	0x3cbadc3a	0.02281009
52	0x3eb56baf	0.3543372
53	0x00000000	0.0
54	0x3d9b9368	0.07596475
55	0x3d1cf032	0.038315006
56	0x00000000	0.0
57	0x3f452076	0.77002656
58	0x3fdd5c9e	1.729389
59	0x3c1901bb	0.0093387915
60	0x42d58d26	106.77568
61	0x42ea9190	117.2843
62	0x3e957bff	0.29196164
63	0x426b6983	58.85304
64	0x42331661	44.771854
65	0x423c9e54	47.154617
66	0x3dff6188	0.124697745
67	0x3887ec0f	6.481271e-05
68	0x00000000	0.0
69	0x3eb57d82	0.35447317
70	0x3ffd7f42	1.9804461
71	0x00000000	0.0
72	0x40fb10e9	7.845814
73	0x00000000	0.0
74	0x3f452076	0.77002656
75	0x47508745	53383.27
76	0x470fd5c2	36821.758
77	0x44699bc4	934.43384
78	0x44378318	734.04834
79	0x43860320	268.0244
80	0x42d07b53	104.24087
81	0x414851e3	12.519992
82	0x427c5fb2	63.093452
83	0x00000000	0.0
84	0x3f8bd313	1.092379
85	0x3ea49c68	0.32150578
86	0x3e8e5e98	0.27806544
87	0x3f72f4af	0.9490461
88	0x40326ee3	2.788018
89	0x365135f5	3.1174834e-06
90	0x4006a3bf	2.1037443
91	0x41038475	8.219838
92	0x3ce16c10	0.027517349
93	0x3e670406	0.22560129
94	0x3d0952ca	0.03352622
95	0x00000000	0.0
96	0x3e1b9312	0.15192822
97	0x3c6ba3fe	0.0143823605
98	0x00000000	0.0
99	0x3e6112b3	0.2197979
100	0x3e0de95e	0.13858554
101	0x00000000	0.0
102	0x3a0d6620	0.0005393941
103	0x3cbcfc9f	0.023069678
104	0x00000000	0.0
105	0x4106a174	8.414417
106	0x00000000	0.0
107	0x4138716f	11.527694
108	0x3debe854	0.115189224
109	0x3e0ea411	0.13929774
110	0x00000000	0.0
111	0x2c8b2b92	3.955455e-12
112	0x2d21b0ed	9.191076e-12
113	0x00000000	0.0
114	0x3d844fde	0.06460546
115	0x3f5ba384	0.8579638
116	0x3eed5bdd	0.4635915
117	0x2a899b63	2.444391e-13
118	0x2d6d7cd7	1.349961e-11
119	0x00000000	0.0
120	0x391138a1	0.00013849373
121	0x3a98565a	0.0011622414
122	0x00000000	0.0
123	0x3e0adb15	0.13560136
124	0x3cf23d0c	0.029570125
125	0x00000000	0.0
126	0x427c5fb2	63.093452
127	0x40f033fd	7.506346
128	0x41845f99	16.546679
129	0x35e5ccf9	1.7121484e-06
130	0x3dc3f7a7	0.0956872
131	0x00000000	0.0
132	0x4163da25	14.240758
133	0x38e3cdd0	0.00010862539
134	0x00000000	0.0
135	0x3dc68ffe	0.09695433
136	0x3d7e0dcb	0.062024873
137	0x00000000	0.0
138	0x3f6cda1f	0.92520326
139	0x3fad45a1	1.3536874
140	0x3c0ea6f4	0.008706797
141	0x4209fbde	34.495964
142	0x42199edd	38.40514
143	0x3a8d8cd0	0.0010799412
144	0x41603053	14.011798
145	0x40dcc7d4	6.899393
146	0x40d62880	6.692444
147	0x37d27c31	2.5091782e-05
148	0x3f07d55c	0.53059936
149	0x00000000	0.0
150	0x3dfa596d	0.12224088
151	0x3e9aeec6	0.30260295
152	0x00000000	0.0
153	0x407f154c	3.9856749
154	0x00000000	0.0
155	0x3f6cda1f	0.92520326
156	0x4640b1bf	12332.437
157	0x45a23ff5	5191.9946
158	0x4427b706	670.85974
159	0x43db3065	438.37808
160	0x45221134	2593.0752
161	0x420ce183	35.220226
162	0x418f4d85	17.912851
163	0x4115f340	9.371887
164	0x00000000	0.0
165	0x3ee7cd38	0.45273757
166	0x40015f33	2.0214355
167	0x3ff49a9f	1.9109687
168	0x4105e510	8.368423
169	0x4102598a	8.14686
170	0x3cb740d4	0.02236978
171	0x4276808e	61.62554
172	0x4104d223	8.301303
173	0x3eed5e08	0.46360803
174	0x36c32622	5.815892e-06
175	0x3889063e	6.533832e-05
176	0x00000000	0.0
177	0x347a3628	2.3302766e-07
178	0x38ca85a9	9.657007e-05
179	0x00000000	0.0
180	0x38a3c561	7.8092104e-05
181	0x3c3badd8	0.011455022
182	0x00000000	0.0
183	0x3da7a083	0.08184912
184	0x3dbcc6da	0.092176154
185	0x00000000	0.0
186	0x40c34531	6.102196
187	0x00000000	0.0
188	0x419764a3	18.924139
189	0x3bb81fa3	0.0056190058
190	0x3e69ca9a	0.22831193
191	0x00000000	0.0
192	0x3414c561	1.385538e-07
193	0x346d322a	2.2090595e-07
194	0x00000000	0.0
195	0x3e67f95e	0.2265372
196	0x3bc47e4c	0.005996501
197	0x3f0fe621	0.56210524
198	0x2398e8d0	1.6578473e-17
199	0x29551acb	4.731874e-14
200	0x00000000	0.0
201	0x3dabb8da	0.08384867
202	0x3d60456c	0.054753706
203	0x00000000	0.0
204	0x378c3cdd	1.6717642e-05
205	0x3d575ff0	0.052581728
206	0x00000000	0.0
207	0x4115f340	9.371887
208	0x417454f9	15.270745
209	0x4328f062	168.939
210	0x3cd4a769	0.025958734
211	0x3c51abd0	0.012797311
212	0x00000000	0.0
213	0x42ddc699	110.887886
214	0x3ef53aff	0.47896573
215	0x00000000	0.0
216	0x3e93ce74	0.2886845
217	0x3c2cbb7a	0.010542745
218	0x00000000	0.0
219	0x40b774dd	5.7330155
220	0x40bfff13	5.999887
221	0x3c873f12	0.016509566
222	0x438e0beb	284.0931
223	0x430881aa	136.5065
224	0x3fb2c143	1.3965229
225	0x42a21f50	81.06116
226	0x41409671	12.036729
227	0x421b12a1	38.768192
228	0x3d483557	0.048878994
229	0x3e0e24e1	0.13881256
230	0x00000000	0.0
231	0x3ef782a5	0.4834186
232	0x3e40b997	0.18820797
233	0x00000000	0.0
234	0x3ec09cf9	0.3761976
235	0x00000000	0.0
236	0x40b774dc	5.733015
237	0x47042713	33831.074
238	0x4541d423	3101.2585
239	0x4637fbff	11774.999
240	0x445ca156	882.5209
241	0x44697841	933.87897
242	0x43a80626	336.04803
243	0x3e261d4b	0.16222112
244	0x4069e60a	3.6546655
245	0x00000000	0.0
246	0x3f353413	0.70782584
247	0x3f368929	0.7130304
248	0x3ea3aa0a	0.31965667
249	0x4087ff61	4.249924
250	0x40fd944b	7.924352
251	0x37981b71	1.813259e-05
252	0x40b48603	5.641359
253	0x40b65b87	5.698673
254	0x392e4515	0.00016619668
255	0x3e5726ee	0.21010944

exp_avg f4 [128]
0	0xbfa04dfc	-1.2523799
1	0xc0451b70	-3.0797997
2	0xc05e3176	-3.4717689
3	0x3f2b850e	0.669999
4	0x3f4ec1a1	0.80764204
5	0xbcd456a3	-0.025920218
6	0xbdb248d7	-0.08705299
7	0xbfbc2607	-1.4699105
8	0xbe21c72b	-0.15798633
9	0x3e78736c	0.2426278
10	0x3f3f7a60	0.74796104
11	0x3e8d9380	0.27651596
12	0xbfba96ed	-1.4577309
13	0xbf46e0b1	-0.776866
14	0xbd9de4d4	-0.07709661
15	0xbe89f461	-0.2694426
16	0x40a7e249	5.2463727
17	0x3e325de9	0.17418636
18	0x3fa5ad55	1.2943522
19	0x3f847729	1.0348865
20	0xc018e624	-2.3890467
21	0xbf1ae221	-0.60501295
22	0x4080d129	4.0255322
23	0xbede8890	-0.43463564
24	0x3f801cf8	1.000884
25	0x3f708e60	0.93967247
26	0xc044fd8c	-3.0779753
27	0xbfd9e337	-1.7022465
28	0xbe86994a	-0.26288825
29	0x3d5d2363	0.053988826
30	0x3f876447	1.0577477
31	0xbdbcc07d	-0.09216402
32	0xbe11b868	-0.14230502
33	0xbf64f633	-0.8943817
34	0x3f804420	1.002079
35	0xc010910d	-2.2588532
36	0xbf2c8306	-0.67387426
37	0xbf5490df	-0.83033556
38	0xbd5fc5e4	-0.054632083
39	0x3f560bbc	0.83611655
40	0xbe949888	-0.29022622
41	0x3e7585f6	0.23976883
42	0xbe6ee14f	-0.23328136
43	0xbfe5a40d	-1.7940689
44	0xc00dfee3	-2.218682
45	0xbf3ba2e4	-0.73295426
46	0xbeed1437	-0.46304485
47	0x3f1776d1	0.59165674
48	0xbf38cc82	-0.72187054
49	0xbd918935	-0.07106248
50	0x40545260	3.3175278
51	0x3f0ff0aa	0.562266
52	0xc018f9ac	-2.3902388
53	0xbfd04ac1	-1.6272813
54	0xbfe7e9ab	-1.8118185
55	0xc0374624	-2.863656
56	0x3f595c47	0.8490643
57	0xc030f77b	-2.765105
58	0xbf2bf929	-0.67177063
59	0x3d97ad9c	0.0740616
60	0xbf94d8ba	-1.162864
61	0xbe4bc43e	-0.19899079
62	0xbfc812cc	-1.5630736
63	0x3f849950	1.0359287
64	0xbe3fea92	-0.18741825
65	0x3f6ffd74	0.93746114
66	0xbfad86fc	-1.3556819
67	0xc0212c58	-2.5183315
68	0x3e874faf	0.2642798
69	0xbf9e2f36	-1.2358158
70	0x3ebfebd0	0.37484598
71	0x3f484426	0.78228986
72	0xbfc3f2ec	-1.5308509
73	0x3f35b56b	0.70979947
74	0x3fe024da	1.7511246
75	0x3fc94dc9	1.5726863
76	0x3ee447ee	0.44586128
77	0xc01507f3	-2.3286102
78	0xc067f7c0	-3.6244965
79	0xbf0a1752	-0.53941834
80	0xc062ec8d	-3.545688
81	0xbf813e60	-1.009716
82	0xc0b003c8	-5.5004616
83	0x3f391e83	0.7231218
84	0xc0d36ac3	-6.6067824
85	0xc07c7f02	-3.945252
86	0x3ff3d2c0	1.9048691
87	0xbf48114f	-0.7815141
88	0xbed2b8e4	-0.41156685
89	0xbf1d2037	-0.6137728
90	0x3f390df6	0.7228693
91	0xbf904781	-1.1271821
92	0x3f3a6b2b	0.72819775
93	0xbed76275	-0.42067304
94	0x4078f107	3.8897111
95	0x3f9455b7	1.1588658
96	0xbf12597e	-0.57167804
97	0xbf133783	-0.5750658
98	0xbf121d6a	-0.5707613
99	0x3ecff110	0.40613604
100	0xbfa7685f	-1.3078727
101	0xbf9e093d	-1.2346569
102	0xbf8e0c3d	-1.1097485
103	0x3e0e7933	0.13913421
104	0xbeecc6f1	-0.4624553
105	0x403c0365	2.9377072
106	0x3fe656cb	1.7995237
107	0xbd57f665	-0.052725215
108	0xbe0d5f15	-0.13805802
109	0xbe5785ba	-0.21047106
110	0x3fea8db3	1.8324493
111	0x3fee2b7a	1.8607018
112	0x3f5fdc63	0.8744566
113	0xc0853a73	-4.163385
114	0xbec5655a	-0.38553888
115	0x3f296fb8	0.66186094
116	0x3eec910f	0.4620442
117	0xbdd73fc7	-0.105102114
118	0x3f05f1ed	0.52322274
119	0xbfb657da	-1.424556
120	0x3efbf96f	0.4921374
121	0xbec7c0bb	-0.3901423
122	0xbfb88ed1	-1.4418584
123	0x3fa5ebf6	1.2962635
124	0xc007c084	-2.1211252
125	0x3f193665	0.59848624
126	0x3e566a75	0.20939048
127	0xc0e196d3	-7.049661

exp_avg_sq f4 [128]
0	0x43f143f7	482.53098
1	0x43a53b42	330.46295
2	0x44418cdc	774.2009
3	0x43bc915f	377.1357
4	0x4239b727	46.42886
5	0x447a6259	1001.5367
6	0x42537ca4	52.87172
7	0x44489bf5	802.4368
8	0x43c9c65c	403.54968
9	0x4406f9bf	539.9023
10	0x422ae6d4	42.725418
11	0x4496bfcd	1205.9938
12	0x43461b22	198.10599
13	0x4541678b	3094.4714
14	0x443bcb55	751.17706
15	0x424fd467	51.957424
16	0x45094661	2196.3987
17	0x42c7c06a	99.87581
18	0x4399985c	307.1903
19	0x43b9e6f3	371.8043
20	0x448082d3	1028.0883
21	0x429f47f3	79.640526
22	0x43c6c14c	397.51013
23	0x418c4ba7	17.53694
24	0x4407f0de	543.76355
25	0x4320d230	160.82104
26	0x4538093c	2944.5771
27	0x440deef1	567.73346
28	0x413447fe	11.267576
29	0x40d8bf30	6.7733383
30	0x44afc3d1	1406.1193
31	0x44fe0784	2032.2349
32	0x42b397eb	89.796715
33	0x43286658	168.39978
34	0x4346b040	198.68848
35	0x467b2910	16074.266
36	0x42081959	34.024754
37	0x4355e7df	213.90575
38	0x427705b8	61.755585
39	0x4304d075	132.81429
40	0x41cf422a	25.907307
41	0x42d27e31	105.24647
42	0x4432473c	713.11304
43	0x43028a23	130.5396
44	0x43e0e8bc	449.81824
45	0x423234aa	44.55143
46	0x432622e7	166.13634
47	0x4619e458	9849.086
48	0x42f467e0	122.20288
49	0x431728d1	151.15944
50	0x44e5fccb	1839.8998
51	0x42f6de6e	123.43443
52	0x4424654d	657.5828
53	0x45e02349	7172.4106
54	0x43497bc7	201.4835
55	0x43a049b9	320.57596
56	0x428bf0c0	69.970215
57	0x4415c03e	599.0038
58	0x43606b34	224.41876
59	0x43799886	249.5958
60	0x42bef777	95.48333
61	0x43034c23	131.29741
62	0x44087e6c	545.97534
63	0x4417a3f8	606.562
64	0x411fbaee	9.983137
65	0x44db863c	1756.1948
66	0x4405c1d5	535.0286
67	0x4354eebf	212.9326
68	0x42938093	73.75112
69	0x436100f4	225.00372
70	0x44c5b5ce	1581.6814
71	0x42df4c47	111.64898
72	0x43e9403f	466.50192
73	0x4454b0f8	850.76514
74	0x42df3166	111.59648
75	0x433b9b72	187.60721
76	0x4344bc42	196.73538
77	0x43e87444	464.90833
78	0x4520de0b	2573.8777
79	0x4473f44a	975.817
80	0x43675b94	231.35773
81	0x43d31fe4	422.24915
82	0x44ae9d19	1396.9093
83	0x441b1c3e	620.4413
84	0x44aed1fe	1398.5623
85	0x4509d6e2	2205.4302
86	0x4435634d	725.5516
87	0x44703239	960.7847
88	0x44d4184d	1696.7594
89	0x410840cd	8.5158205
90	0x443e03bf	760.05853
91	0x43a5e0de	331.75677
92	0x44741b15	976.42316
93	0x41919d37	18.201765
94	0x44edf809	1903.7511
95	0x4401c952	519.1456
96	0x4493b988	1181.7979
97	0x4329df57	169.87242
98	0x42eb6a38	117.70746
99	0x449809cd	1216.3063
100	0x43e3843a	455.03302
101	0x43a0d0b7	321.63058
102	0x43717504	241.45709
103	0x41329555	11.161458
104	0x44161ad2	600.41907
105	0x4498f352	1223.6038
106	0x4397d173	303.63632
107	0x42971870	75.54773
108	0x43d30da8	422.1067
109	0x44c8b3f5	1605.6237
110	0x43fbfd9a	503.98126
111	0x444e911a	826.2672
112	0x4490e718	1159.2217
113	0x43c02ec7	384.36545
114	0x42bc46a2	94.137955
115	0x40f249a8	7.5714912
116	0x43e867e7	464.81174
117	0x441a538c	617.3054
118	0x445c45a9	881.08844
119	0x440895df	546.34174
120	0x41ff0eb5	31.882181
121	0x437b5ae0	251.35498
122	0x452c7a8e	2759.6597
123	0x438942fb	274.5233
124	0x446f775c	957.865
125	0x448680c4	1076.0239
126	0x41053122	8.324495
127	0x44b1f42e	1423.6306
