src/hero/experiments/justification/models/MediumBTCNN_MediumFCNN_3.pth (torch, 847290 bytes, 33 tensors)

btcnn.layers.0.conv1d.weight f4 [128, 27, 3]
00000000: 7362 c63d 1843 fcbc 39be 763c 14bc 97bd
00000010: 13c8 fdbd 7105 b53d b436 d4bd bad0 40bd
00000020: feec 383d 3a9f 96bd c013 23bc 82e8 003e
00000030: 3cdf 173e 7ab8 6b3e 8e13 eeb9 0eb2 753e
00000040: 7030 c83d c77b 8f3d 8202 59bd 22ea e03b
00000050: 8e67 23bb 1d00 2f3d 39e7 1a3d d58a f5bc
00000060: 4658 5bbc 377e 863d 76b3 163d e462 db3c
00000070: 1a1e 85be 89aa bd3d b4fb a2bd edc3 70bd
00000080: 6083 dfbd 7a02 a8bc 7929 c63c 7a2a 0f3e
00000090: d8e1 41be 3b71 62be 126f e03d dae6 0abd
000000a0: 6ef7 34be 1524 9a3c 9e77 773d 900d 84be
000000b0: 7244 cabb eb0e 80be 4f36 70bc 58c0 383e
000000c0: ab8d 073c 9a7f ffbc 3938 afbd abc9 9bbc
000000d0: 6ba1 01bd ab86 e9bb eee1 15be 24f8 243e
000000e0: 77cf a83d 22a5 58bd fcf2 86bc 5394 813c
000000f0: ede2 c83d be32 803d 2ddc 4cbe ee5d ad3d
00000100: 0e69 48bd 7311 023d f9ce 96bc 2057 053e
00000110: c79d 283c ad58 fdbb 4231 f13c 002a 2e3b
00000120: 06e1 313e c764 7dbd cb49 b4bd f2fe 48bd
00000130: 56ae c53d aa83 b63d 32fb e0bb 9caf 66bb
00000140: 51db 7cbd 0b0e 253d 2db3 95bd 44f9 ac3d
00000150: cbe2 3c3e c585 323d 1926 913c 2179 d33c
00000160: c7db 1bbe 58b4 533d 47dd 9a3d a497 0ebe
00000170: 6b48 643d 0279 183e 1203 1a3d decf 81bd
00000180: 6ab7 e8bd c201 22be ce91 3b3d 03c9 1bbe
00000190: 3abb 02be 5753 bd3d ff6d fdbd 357d b33d
000001a0: 8b91 233d 5a9a 34be 5b34 b8bd 0947 293c
000001b0: af03 363d 555f 7e3e b04d dabd 61ec 1a3e
000001c0: fc14 dc3d 4763 d43c 23d3 b5bc 6180 9f3e
000001d0: 77b3 97bd cc3c 04be f062 23be 39c6 fb3b
000001e0: 53f5 93bd d0ea 3bbe 12b6 a03d f977 4ebe
000001f0: 6dd5 313d fdc9 c93d e451 a4bd 7c55 443e
00000200: 3e42 3abd 99eb 78bd 818e fe3c ade0 cdbd
00000210: bac0 933d 4437 01be 7d37 bdbd 6caf 7c3e
00000220: d1e1 91bc 302a ba3d 62ff a7bc e160 033e
00000230: 7328 60be c157 aebd 973b 353b 0ef5 7e3e
00000240: 24f8 1ebd 106b 5f3e 5693 843d f351 68bd
00000250: fdc4 c3bd 1db8 f73c f3d2 3b3d 6e19 be3d
00000260: a0be 633d 9e4c 8c3e b5dc a7bd 5f43 f5bd
00000270: 5eb8 5cbe 02fc f7bd e8a1 a63d ad5b 07bc
00000280: 1a31 85bd aa02 4a3e a3e3 40be f5f2 943d
00000290: e066 923d c8b6 7abd 4b4b 253e 3557 8abc
000002a0: dc7e 173e c0ea 123d 8459 a63d 7125 a73d
000002b0: 98c6 e63c c02a d63e d580 293e 1769 df3d
000002c0: 8462 79bd ca06 14be e517 84bd e49a 983b
000002d0: 4dea b4bc d8a5 cf3e c711 1cba 8248 87bd
000002e0: 1aa2 c2be b54a bcbd fc23 a8bd 4ea4 cb3d
000002f0: 9975 493d b9f2 963e ac04 fcbd 4e71 cc3d
00000300: ab42 b43d f6f8 c4bd 528c 93bd 90eb 1b3b
00000310: 16c5 613e 1d05 1c3d daf8 81bd a190 5c3e
00000320: 7734 d6bd 88a9 ccbd 6d2e 103e 70fc a7bd
00000330: 6d19 29bd b6bf 8c3d 95ce f43c 6f64 f73b
00000340: d416 61bd 3f1a 683d 359f 54bc c394 303e
00000350: eba1 8b3d fbdc 883d 4718 ebbd d54f 253c
00000360: a479 2c3e ae28 4fbe f243 ebbc 148f 0b3e
00000370: 3aec bc3d 5b54 a73c 34ad cdbd 1ae9 1abe
00000380: d769 d1bd 6523 3a3e b67a 283e e086 493d
00000390: d855 f93d 8850 00bc 99d3 4fbd 2bc1 773d
000003a0: c3f9 83be f06d 963d 2002 abbe ab48 f6bc
000003b0: b477 e03c bd37 d33d 6e20 25bd 0146 94bd
000003c0: 1bc6 873a ee62 8c3c d0a9 4b3d 95f6 053c
000003d0: b964 7a3d a9ac a1bd c31b 453d 0114 2c3e
000003e0: 86a3 e63d ea55 3f3e 280c c43d db4f 80bc
000003f0: 65c0 d33d 4088 9c3d 8fd6 453e ff09 ba3e
0.096867464 -0.030793712 0.015060001 -0.0740892 -0.12391677 0.088389285 -0.10361996 -0.047074057
0.04514789 -0.07354589 -0.009953439 0.12588695 0.14831251 0.23019591 -0.00045409467 0.23993704
0.09774864 0.070060305 -0.052980907 0.0068638483 -0.002493355 0.042724717 0.037818167 -0.029973427
-0.013387745 0.06567042 0.03679224 0.026780553 -0.25999528 0.092610426 -0.07958165 -0.0587806
-0.1091373 -0.020508993 0.024189698 0.13981047 -0.18933809 -0.22113506 0.10958685 -0.033911563
-0.17672512 0.018816033 0.06041681 -0.25791597 -0.00617271 -0.25011382 -0.014661386 0.18042123
0.008273522 -0.031188775 -0.085556455 -0.019017061 -0.03164808 -0.0071266494 -0.14636967 0.16110283
0.08242696 -0.052891858 -0.016473286 0.015817797 0.09808908 0.06259678 -0.20005865 0.08465181
-0.048928313 0.031754922 -0.01840924 0.13021517 0.010291523 -0.0077315182 0.029442433 0.0026575327
0.17370996 -0.061863687 -0.088031374 -0.04907126 0.096523926 0.08911832 -0.0068658823 -0.0035199886
-0.061732594 0.040296596 -0.07309566 0.08445981 0.1844589 0.043584604 0.017718362 0.025814595
-0.15220557 0.05168566 0.075617366 -0.13925034 0.055733126 0.14889911 0.037600584 -0.06338476
-0.113631085 -0.15820983 0.045793347 -0.15213399 -0.12766734 0.092444114 -0.12374496 0.08764116
0.039933722 -0.17637005 -0.08994361 0.0103318775 0.044437107 0.24841054 -0.10659349 0.15129234
0.1074619 0.025926245 -0.022195404 0.31152633 -0.07407277 -0.12913817 -0.1595571 0.007683542
-0.07224526 -0.18351293 0.07847227 -0.20162953 0.04341643 0.09852979 -0.08023432 0.19173235
-0.04547333 -0.06077156 0.03107381 -0.10052619 0.07214494 -0.12618738 -0.09239099 0.24676293
-0.017807873 0.09090078 -0.020507518 0.12829925 -0.2189043 -0.085128315 0.0027653927 0.24898168
-0.038810864 0.21818185 0.064734146 -0.056718778 -0.09559057 0.03023916 0.045855474 0.09282194
0.055601716 0.27402204 -0.081963934 -0.11975741 -0.21554706 -0.121086136 0.0813635 -0.008261603
-0.06503506 0.19727579 -0.18836837 0.07272903 0.07148528 -0.06120947 0.16142003 -0.016887287
0.14794487 0.035868406 0.081225425 0.08161438 0.028170869 0.4182949 0.16553052 0.10908716
-0.060884967 -0.14455715 -0.0644987 0.0046571363 -0.02208438 0.40556216 -0.0005953577 -0.06605627
-0.380143 -0.09193937 -0.082099885 0.09943448 0.049184415 0.29482058 -0.123055786 0.09982549
0.088017784 -0.09617798 -0.07204498 0.002379153 0.22047839 0.038090814 -0.06346293 0.21539547
-0.104592256 -0.09993273 0.1408021 -0.082024455 -0.041284014 0.068725035 0.029883662 0.0075498144
-0.05495341 0.056665655 -0.012977411 0.17244248 0.06817993 0.06682774 -0.1147924 0.010089834
0.16843277 -0.20230362 -0.028718922 0.13628799 0.09224744 0.020425966 -0.100428015 -0.15127984
-0.102252655 0.18177564 0.1645306 0.049200892 0.121745765 -0.0078317 -0.050738905 0.060486954
-0.2577649 0.07345188 -0.3340006 -0.030063948 0.027400829 0.103133656 -0.04031413 -0.07239915
0.0010358723 0.017137017 0.049722493 0.0081764655 0.061131213 -0.078942604 0.04812218 0.16804506
0.11261658 0.18685117 0.09572631 -0.015663078 0.10339431 0.07643175 0.19320129 0.3633575

btcnn.layers.0.conv1d.bias f4 [128]
00000000: 5a85 4fbd 1825 db3c 25b6 683c a535 f63d
00000010: e439 eb3d b2fe 103d fab3 05be e766 c6ba
00000020: d903 28bb 354f 0dbd 873c 15bd 728c ff3d
00000030: a067 d13d 01fc 813d 1be6 443d 2d99 573e
00000040: e3b2 813d 4bc3 89bd a493 4a3e 9d66 87bc
00000050: 5fd2 9abd 8508 143e fe2e 6e3d 98e6 a53d
00000060: 398b 513d 9911 5e3d 1a58 45bd ae0f 913c
00000070: 047d 8fbd 3a38 b73d a848 9cbd 3050 753d
00000080: cac5 333e 4546 dabd 0775 f0bd 19ff 1d3d
00000090: ccc2 e6ba b42f 103e 576d 0fbd dea7 bc3c
000000a0: ef5b 8c3d bb78 713d 4601 afbc 6838 b83d
000000b0: 7aed 1abe 3263 1fbd d29f 223e 6bc5 25bd
000000c0: 5729 693d ca0f 2f3d 4890 903c 02c8 81bc
000000d0: 5ff5 e13d 43f6 a03d 54ad e23d 474b b9bd
000000e0: ed9c 903d 6302 a43d 1e3c 373d 0ec6 83ba
000000f0: ae84 2d3d d0bb 9ebc 7213 f23d b45e abbd
00000100: 66ee a93d 1df5 28bd e60d f33d 3e7d d8bc
00000110: d306 f6bd 9daf 923d db23 4bbd 3907 373d
00000120: 5099 c23d 32ee 843d acae 0c3d bebb b1bc
00000130: 0b2c 503c 8dff 4bbd 16d1 b13d becb d63d
00000140: 6990 c03d f1cf 4cbd 2302 dc3d 1a00 933d
00000150: 76cb a33d 54eb 6abe 4990 03be 2542 55bc
00000160: e538 0dbd e1d7 b2bd 9660 f93d dfee 123e
00000170: ed5c 00be 8eb2 4f3c 382f 0c3b 4629 bdbd
00000180: bed5 773d 2a18 183d 1a0f 483d 3196 46bd
00000190: 5ca6 9d3d 40d3 e1ba a487 8cbd 8dbd 903d
000001a0: 28ff bb39 fa73 d0bd 7934 cbbb 88da b33a
000001b0: a453 88bc 00ca 893d 738e 54bd 87db 40bd
000001c0: 1585 2a3d 037e 51bb 8d6e 033e bfde 1b3c
000001d0: 4407 cebd 838c e93d 8327 723d fbf2 a13d
000001e0: 6ff4 d5bb d014 c6bc 3ce0 4fbd 1f92 fe3d
000001f0: 6c09 003e 14ca fdbc d624 8dbc ee28 bdbc
-0.050664283 0.026751086 0.014203583 0.12021951 0.11485651 0.035399146 -0.13056937 -0.0015136868
-0.002563706 -0.034499366 -0.036434676 0.1247796 0.10224843 0.06346894 0.04807101 0.21054526
0.06332948 -0.06726702 0.19782883 -0.016528422 -0.07559656 0.14456375 0.058150284 0.08100623
0.051158164 0.054216 -0.048179723 0.017707672 -0.07006267 0.08946271 -0.076310456 0.059890926
0.1755592 -0.10657934 -0.11741071 0.03857336 -0.0017605661 0.14080697 -0.035016384 0.023029264
0.068534724 0.05895303 -0.021362912 0.08995134 -0.15129653 -0.03891296 0.15881279 -0.040471476
0.05692419 0.042739667 0.017646924 -0.015842441 0.11033129 0.07859471 0.11068216 -0.09047561
0.07061181 0.08008268 0.044735067 -0.0010053532 0.04236286 -0.019376665 0.11820115 -0.083676726
0.08297424 -0.041249383 0.11867885 -0.026426908 -0.1201302 0.07162402 -0.04959474 0.044684622
0.09501898 0.06490745 0.034346268 -0.021695968 0.012705813 -0.04980426 0.08682458 0.104880795
0.09402544 -0.050002996 0.10742595 0.07177754 0.079977915 -0.22941333 -0.12848009 -0.013016258
-0.034478087 -0.08732582 0.121766254 0.14348935 -0.12535448 0.012676848 0.002139045 -0.09236388
0.060506575 0.03713242 0.048842527 -0.048483077 0.07697746 -0.0017229095 -0.06861809 0.07067404
0.00035857526 -0.10178371 -0.0062013236 0.0013721744 -0.016641445 0.067279816 -0.051893663 -0.047084358
0.041630823 -0.0031965978 0.1283514 0.009513556 -0.100599796 0.114037536 0.059119713 0.07907673
-0.006529383 -0.024179846 -0.050750956 0.12430214 0.12503594 -0.030980147 -0.017229479 -0.023090806

btcnn.layers.2.conv1d.weight f4 [27, 128, 3]
00000000: 6271 4ebd a98b 64bc 856a 053e a4fb 263e
00000010: 7cb9 2c3e 23c0 5c3e fcb0 c83d e523 8d3d
00000020: 02cb cebd 4735 883c f42c 2cbd dc92 213d
00000030: 4597 0c3c 9005 68bc 7d56 95bc e60e 5e3d
00000040: aa16 e1bc 1315 9a3d 620b 6d3d c82b 9fbd
00000050: a254 7abb b3a7 92bd fa53 ecbd ea9c acbc
00000060: 8bd7 8ebc 6c14 e6bc 2d8f 0c3e 6ac1 a1bd
00000070: 769d b33b f7f9 3c3d a3f7 28bd 49a7 9fbc
00000080: 4206 613d f946 0bbd 5a32 11bc c5a8 f63b
00000090: daa1 d83d 946c 973c aade fb3d e52a ebbd
000000a0: 82f2 873d 6e55 be3c 1bce 97bd d2b9 c13c
000000b0: 0ef6 963d 6880 fa3d 1e6d 14bc 1fbd 943d
000000c0: 9a0f 8cbd 1dfd 4f3d 6f4a 713c 357a 10bd
000000d0: ada2 7f3c 0da3 9a3d 4f9a 203e ea2d a03d
000000e0: 83ab b83d 3c86 bdbd 6e8f 56bd 0da6 733c
000000f0: bb14 92bd 56e8 93bc 0825 1c3e 2e35 843d
00000100: 51a1 7c3d 2b6f 5d3e e9aa 433d 34ec 02bd
00000110: 7b24 333e 9da9 74bc 4127 b93c d465 0e3d
00000120: 8a92 5cbd 5901 1d3d cd74 e6bd eea6 203c
00000130: 18ff 06be f5da c1bd 4d87 903a 0a0a 003c
00000140: f8c0 9e3d f842 8abd 56a0 91bd fb1f e53b
00000150: 19f6 7bbe eb47 d73c c4e8 0b3a ceb6 da3d
00000160: 5c9d 003e 27c5 17be d7b1 0dbd fa1d 8ebc
00000170: 08d4 9abd b596 2e3e a4a9 87bc 871b 943e
00000180: a3cb 21bd c8b3 553c c074 b63d 4041 483d
00000190: 1381 9f3c 8a30 10bd d6cb ffbd 8177 673d
000001a0: 2c11 12bd 8216 b83d 03e4 153d aa9f 9f3d
000001b0: 3af9 1dbd f6b5 cdbc 25df 713d 1b8d 00bd
000001c0: ee72 353d e70b 033e b555 20be f2d6 4cbc
000001d0: 552c 5fbc d733 c03c 6bd6 c4bd ffdc c53d
000001e0: bb67 debb 8806 9dbc 348b cc3d f7c1 56bd
000001f0: 3dc8 3f3c 926d 0f3e d62d f83c c16e 08be
00000200: 9840 dfbc 0c32 69bd 1f54 473c ebec 353b
00000210: ef3c babd 5208 e9bd c298 b03d 72b1 e8bc
00000220: 6e2e 9bbd 240d 783c 85c2 db3d 0b42 3a3d
00000230: fb69 e63c 5a08 87bd 8cdb d23c 3041 5bbd
00000240: a069 06bd 6190 58bd af05 fd3c cb5b 0bbe
00000250: b9cd 0ebd 2819 43bd e308 e2bc cc4d 1cbd
00000260: 9242 103d 13f5 13bd a4ed a6bd 63b7 bd3c
00000270: 95b4 713d 80fd 923d a10d 613d d25a 6a3d
00000280: 5740 f13c 6e79 de3d 3175 8b3d 2c8e 6a3d
00000290: 0cb5 fd3c bfb2 c3be 51d6 5e3d ff66 ea3a
000002a0: e4b9 fbbd 7fa9 a13c 536a 8bbc c8e5 c83d
000002b0: daed 4a3e 36e1 453d 2271 b23d 6fbb d03d
000002c0: 32c4 013e fe55 c4bd bc96 813c e7f5 49ba
000002d0: cfa6 f1bd e3f9 aa3d 7b32 8e3d 2912 213d
000002e0: c900 5a3d d220 623e 1929 3e3d e62d 023c
000002f0: 844a c73c af1c 88bd 8a44 eebd 35ec 01bd
00000300: 1196 e23d d2ce 543e fa32 653c 911c 38be
00000310: 1175 efbb 7186 8d3d 4945 143e 97e7 323e
00000320: 720f ce3d 8a44 7c3c 864e 3cbe 36e3 98bc
00000330: 74d7 1d3d a013 e93b e49c c73d f244 163b
00000340: dcb3 bcbb 85fd f43d 84a2 aebd 913e 993c
00000350: 7463 643d a10b 6a3d 0935 d33c 82a2 233d
00000360: b5f4 de3c 0b0d 873c 54a1 f63d e7c8 e33c
00000370: f9ed 48bd 5eb0 40bc 7d7f aabd b72c bfbc
00000380: f6aa 1b3d 995e 06be 50d6 57bd 3a5c 6fbd
00000390: 82b7 91bd 322f 9f3d 0bdc bdbc 0a49 5abe
000003a0: 4071 dabc 86e0 953b 4d65 0b3e c4c2 273e
000003b0: 3dcb 24bb 559b eebc 6f93 6b3d ae2c ac3d
000003c0: cca0 dc3c 84c0 9cbc 2ff1 6e3d 6297 743d
000003d0: 76cc 99bd 1bb5 48bc 758c 743c 8235 bf3d
000003e0: 0c43 35bd a8ef 79bd 25e6 473d eddb c63c
000003f0: e4e0 a0bd 898e 7e3d 2adf 4d3c ad4b f4bc
-0.0504011 -0.013949313 0.13028915 0.16306931 0.16867632 0.2155767 0.09799382 0.06891612
-0.100973144 0.016626967 -0.04203506 0.039446697 0.008580987 -0.014161482 -0.018229717 0.054213427
-0.027476627 0.07523551 0.057872184 -0.077720225 -0.0038197418 -0.07160892 -0.11539455 -0.021070916
-0.017436763 -0.02808591 0.13726492 -0.07898219 0.0054814173 0.046136823 -0.04125179 -0.019488947
0.05493761 -0.03400323 -0.008862102 0.007527443 0.10577746 0.018484391 0.12298329 -0.11482791
0.066380516 0.023234095 -0.074123584 0.023648176 0.0737115 0.12231523 -0.009059219 0.072626345
-0.06838913 0.050778497 0.014727219 -0.035272796 0.01560275 0.07550631 0.15683864 0.078212574
0.09017088 -0.09254119 -0.05238288 0.014871133 -0.0713286 -0.018055122 0.15248501 0.06455456
0.06167728 0.21624438 0.047770415 -0.031963542 0.17494385 -0.014933017 0.022601726 0.03476508
-0.053850688 0.038331363 -0.11252747 0.009805424 -0.13183248 -0.09465591 0.0011026651 0.0078148935
0.077516496 -0.067510545 -0.0711066 0.0069923378 -0.24605598 0.02627941 0.0005337114 0.106793985
0.12560028 -0.14821301 -0.03459343 -0.017348278 -0.07559973 0.17049678 -0.016560383 0.28927252
-0.039500844 0.0130433515 0.08908987 0.048890352 0.019470727 -0.03520254 -0.124900505 0.056510452
-0.035660908 0.08988668 0.036594402 0.077941254 -0.03856776 -0.02511118 0.059050698 -0.03138457
0.04429906 0.12797509 -0.15657695 -0.012502419 -0.013621409 0.02346222 -0.096112095 0.09661292
-0.006787268 -0.019168153 0.099874884 -0.052431073 0.011705455 0.14006642 0.030295294 -0.133235
-0.02725248 -0.056932494 0.012166052 0.0027759622 -0.090936534 -0.1137854 0.08622886 -0.028404925
-0.07577215 0.015139852 0.10730461 0.04547314 0.028126707 -0.0659339 0.025739454 -0.053528965
-0.032815576 -0.052872065 0.0308865 -0.13609235 -0.03486416 -0.047631413 -0.027592128 -0.03816013
0.035219736 -0.036122393 -0.08150795 0.023158735 0.059010107 0.071772575 0.05494464 0.05721552
0.029449625 0.108630046 0.06809462 0.057264492 0.030970119 -0.3822231 0.054403607 0.0017883478
-0.12291315 0.019734142 -0.017018473 0.09809452 0.19817296 0.04831048 0.087129846 0.10192
0.12672499 -0.09586714 0.015818946 -0.0007704184 -0.11799394 0.08348443 0.06943222 0.03932396
0.053223405 0.22082832 0.046425913 0.007945513 0.024327524 -0.06646096 -0.116341665 -0.031719405
0.11063779 0.2078202 0.013989205 -0.17979647 -0.0073076566 0.06910408 0.14479555 0.17471157
0.1006154 0.0153972 -0.1838933 -0.01866303 0.03853555 0.007112935 0.097467214 0.0022929278
-0.0057587456 0.119624175 -0.08527091 0.018706592 0.05575891 0.057139996 0.025782125 0.0399499
0.027216295 0.016485712 0.1204249 0.027805759 -0.049055073 -0.011760799 -0.08325098 -0.023336751
0.038004838 -0.13122024 -0.05269462 -0.058437563 -0.071150795 0.07772674 -0.023176214 -0.21316925
-0.02666533 0.0045738844 0.13612862 0.16382891 -0.0025145554 -0.029126802 0.05751365 0.084069595
0.026932143 -0.019134767 0.05833548 0.059714682 -0.07509701 -0.01225021 0.014926066 0.09336378
-0.044253394 -0.06101957 0.048803467 0.02427479 -0.078553945 0.06214765 0.0125654135 -0.029821241

btcnn.layers.2.conv1d.bias f4 [27]
00000000: 2ed9 8d3d e6f2 0dbd 3f89 063d 8294 903a
00000010: c06b 223d 6f3c 6d3c 37c8 163c 710e cebc
00000020: 15a1 133d a52f 8cbc e736 37bd c7ce 60bd
00000030: 49b8 a33c 3dd0 03bd 9c58 c43c 1852 32bc
00000040: 8c16 113d 5ffe 5abd 87cd fa3b 6d5b 0ebc
00000050: 1c0a a4bc 7906 09bd 963a 973c 3e99 9dbd
00000060: f12b 29bd 6169 903c 7b46 1cbd
0.06926189 -0.034655474 0.03284573 0.0011030587 0.03965354 0.0144797405 0.009203008 -0.02515337
0.03604229 -0.017112562 -0.044730093 -0.0548847 0.019985335 -0.032181013 0.023968033 -0.0108838305
0.035421893 -0.053465243 0.0076538953 -0.00868879 -0.020024352 -0.03345344 0.018460553 -0.07695244
-0.04130167 0.017628374 -0.038153153

fcnn.0.weight f4 [256, 27]
00000000: b7be c1bd 3c18 2fbd 7254 b1bb 64b2 1e3e
00000010: 15a9 afbe 3d3d 09be 2ed1 22bd 6d48 96bd
00000020: d171 f4bc ea90 f2bd 6914 2fbb ac22 b83d
00000030: 01f4 b93d bbb4 cc3d 4311 073e 908e 843c
00000040: 4604 033e 864f 2e3d 7110 66be 5320 0cbe
00000050: b185 ad3d 5513 0c3e 4848 d03d 4fe2 78bd
00000060: 6d1f e23d e460 ddb8 ca03 e73d e2bd 77be
00000070: 4345 c33d 9c0b 083e 55af 28bc 6128 afbd
00000080: 9b9e 13be 42c9 dbbc 5141 763c 724b 83bd
00000090: 49bf f83d 2c54 a43d 799a 4c3e 600b f03d
000000a0: 670d 293e 51cd 92bc 465a 91bd b0ae cbbd
000000b0: a038 373e e33b e43d 7617 b0bc fecd edbc
000000c0: 8bad 393e 41e3 2dbd f5cf 0b3e 93d7 14be
000000d0: dd5b d1bd 4b4e f83d d19c b7be c8cb 903d
000000e0: 41f1 56bd e708 a73d aac2 2fbb 8d9d 11be
000000f0: eb8f d2bb e778 c53d a1f4 343d 6741 183e
00000100: eb36 e7bd 3dfb dabc f43c 2f3e b818 b33c
00000110: 485b 4c3e 330a 01be 8e11 3f3e bd78 2c3e
00000120: b9a3 c43d 9296 0f3d 604f bcbc a045 9bbc
00000130: 130a fbbc 3c50 60bc 53fe 8bbe a20b bd3c
00000140: 5dde 85be 1a75 563d efc6 7a3d 553c 7a3d
00000150: fddf 273e 29c3 133e 2a3f 22be d142 3b3e
00000160: 3c4c c9bd 39cb 0cbe ec04 f2bd 7934 043e
00000170: 0c82 28be 66ba c03d 2b97 40be dda7 9fbe
00000180: 52c9 99be cf4a a8be 7db4 a93b a202 153e
00000190: dcbd 04bd 8684 06be ca70 b33c 4668 973d
000001a0: 82d3 df3d aac0 8d3d 327e b9bd 2b8c 4f3d
000001b0: b7fa c03d 7d8c 4d3e 1e4f 2abe adde 463e
000001c0: 9037 d7bd 0e3f 8bbd d970 ff3d 389c 103d
000001d0: 5dc6 78bd 6b59 13be 4b32 f93d b6ce 49bc
000001e0: f573 9bbd 6a3e b63d fd3f 053e 3970 353e
000001f0: 8f19 31be e636 d2bd d716 69be ec3a 2abe
00000200: 0495 82bc ce53 b6bd 510a 03be 9c00 51bd
00000210: 2695 073e 437f 5a3e 9dbd 433d 91a4 0cbb
00000220: f59b dd3d 5344 11bd 6361 1b3d 7d83 9abe
00000230: 24fd a1bc dd82 aa3d 99ae dbbc 0c9d 20be
00000240: 26e3 acbc 3836 873d 41be c7bd 9ee0 3cbd
00000250: 8130 0b3e ae08 bcbd 09ab fb3d 62bd 2a3e
00000260: 76fe 07be a1b4 5fbe 1205 d13d f05a 423e
00000270: 4d8f 05bd 8552 cf3c 0305 a9bd 70b2 833d
00000280: 7681 d83d e33a 9bbd 6456 af3c 00d2 403d
00000290: 48d7 b2bd 61c0 ecbd 4f52 dd3d f41e f4bd
000002a0: 7687 f5bd e9bb 163e 4568 173e eb5d 33be
000002b0: 7049 1f3e 9bb6 753d e19d c7bc c81c 63be
000002c0: 2e7b 1bbe cd66 21be 015b 44bc 484a 1cbe
000002d0: 695e a53c 8395 da3c 3fc0 693d 49b8 e9bd
000002e0: 406c d83d be91 e4bd 51d8 8d3d 970a c9bc
000002f0: 28eb 8bbd f1da 97be d55d 473e 1be4 f4bb
00000300: 9313 e7bd 9841 26be db49 02be 2ee7 6a3c
00000310: 0d1b 9fba c791 3f3e 48e6 a33c b80e 633c
00000320: c877 a9bd b59a 963d f1a4 9b3d 30bc c5bd
00000330: 4969 cbbc 9661 3abd b874 88bd 179b 2ebe
00000340: e3f4 b63d 6a69 173e 671a 22be 42b1 4ebe
00000350: cf9a 39be 03a0 8c3c dae7 15bc b70f 77be
00000360: cfd9 abbd f4f4 9c3d b39e a5bd 2cae 0e3e
00000370: 40fc 17bc a64d b6bd 6e2d 02be 41da 30bd
00000380: 4581 4d3d 4c97 88bc 9ecf 163e 249b 3c3e
00000390: 7894 3a3e 34cd 373e 3d17 2c3d 0b90 22be
000003a0: f128 3f3d 9a0d 293e 4325 213c 33c5 21be
000003b0: 1bec 323e e290 a43a abd4 97bd d316 863c
000003c0: 9d05 083e ae2b c63d 6079 5e3d a6b4 353e
000003d0: d136 e0bc ab22 bb3d 73a7 b13d 3ff6 42be
000003e0: 0dce 2e3e 5d70 f1bd 2315 4b3e 8790 17be
000003f0: a44d 8c3d 4550 38be 31a1 c83d 04d7 0abe
-0.09460204 -0.04274772 -0.005411678 0.15497738 -0.34308687 -0.13402267 -0.03975027 -0.07338033
-0.029839428 -0.118440464 -0.0026715046 0.08990988 0.09079743 0.09995409 0.13190179 0.01618126
0.12794599 0.04255631 -0.2246721 -0.13684206 0.08472765 0.1367925 0.101700366 -0.0607627
0.1104115 -0.000105561485 0.112800196 -0.24193528 0.09534695 0.13285679 -0.010295709 -0.085526235
-0.14415972 -0.026829366 0.015030221 -0.064108744 0.1214586 0.08023867 0.19980802 0.117209196
0.16509019 -0.017920168 -0.070972964 -0.09945428 0.17892694 0.11144235 -0.021495562 -0.029028889
0.18132608 -0.042453054 0.13653548 -0.1453536 -0.102226 0.12124308 -0.3586183 0.07070118
-0.05247617 0.08155995 -0.002681891 -0.14220257 -0.0064258478 0.09642201 0.04417861 0.14868699
-0.11289772 -0.026731128 0.17113096 0.021862373 0.19956696 -0.12601547 0.1865904 0.16842933
0.0960154 0.035055704 -0.022987068 -0.018954098 -0.030644452 -0.013691004 -0.2734247 0.023076836
-0.26146212 0.05235777 0.061224874 0.061092693 0.16394038 0.14429916 -0.15844408 0.18287207
-0.09828994 -0.13749398 -0.11817345 0.12910642 -0.16455859 0.09410553 -0.18807666 -0.31182757
-0.30036408 -0.32869574 0.0051789866 0.14551786 -0.032407627 -0.13136491 0.021904368 0.073929355
0.10929014 0.069215134 -0.09057273 0.050670784 0.0942282 0.20073123 -0.16631743 0.19420882
-0.105086446 -0.06799136 0.12472696 0.03530523 -0.06073605 -0.14389579 0.12167796 -0.01231735
-0.075904764 0.08898623 0.13012691 0.17718591 -0.17294906 -0.10264377 -0.22762619 -0.1662404
-0.015940197 -0.08902703 -0.12796904 -0.05102597 0.1324049 0.21337609 0.04778825 -0.0021460394
0.10820762 -0.03546555 0.037934672 -0.30178443 -0.019774027 0.083257414 -0.026816653 -0.15684909
-0.021104407 0.06602138 -0.09753085 -0.04611265 0.13592722 -0.09181343 0.12288482 0.16673806
-0.13280663 -0.21846248 0.10206045 0.18980002 -0.032607365 0.025307903 -0.08252909 0.064305186
0.10571568 -0.07579591 0.021403499 0.04707527 -0.08732468 -0.11560131 0.10806715 -0.11919966
-0.11988728 0.1472012 0.1478587 -0.17516296 0.15555358 0.0599886 -0.024367275 -0.22178948
-0.15183708 -0.15761872 -0.011984588 -0.15262711 0.02018662 0.02668262 0.057068106 -0.11412103
0.10567522 -0.111606106 0.06926025 -0.024541182 -0.06831962 -0.29659227 0.19469388 -0.0074734814
-0.1128303 -0.1623596 -0.12723486 0.014337344 -0.0012138799 0.18707953 0.020007268 0.01385849
-0.082747996 0.07353727 0.075998195 -0.096550345 -0.024830477 -0.04550322 -0.06662887 -0.1705135
0.08933427 0.14786306 -0.15830384 -0.20184806 -0.18125461 0.017166143 -0.009149516 -0.24127088
-0.08391153 0.076639086 -0.0808691 0.13933629 -0.00927645 -0.08901529 -0.12712643 -0.043176893
0.05017211 -0.016673706 0.14727637 0.18418556 0.18220699 0.17949373 0.04201435 -0.1587526
0.046669904 0.16509095 0.009835544 -0.15797882 0.1747288 0.0012555385 -0.0741361 0.016368305
0.13283391 0.096763 0.05431497 0.17744693 -0.027369888 0.09137472 0.086745165 -0.19039248
0.1707079 -0.1178901 0.19832282 -0.14801227 0.06850746 -0.1799937 0.0979637 -0.13558584

fcnn.0.bias f4 [256]
00000000: a53c 0a3d 125b 3cbd 18fd 173e e611 dbbd
00000010: f6ad 273e 7acb 073e fe66 b5bd 18c6 2d3e
00000020: be9e 8cbd b5b8 1d3e c19f f2bd 0459 413e
00000030: a8e5 023e 9de4 003d ddcc ba3d d5fd 293e
00000040: 572e 173e aa61 73be 82eb c6bc f3d0 ecbd
00000050: 2dd0 7d3e e310 513d c7f9 633e 1371 f6bd
00000060: aad5 61be 777d 1a3d 6aed d63d bfc2 4a3d
00000070: df49 95bd a0cf 30be 0e0d 38bd 6839 883d
00000080: 7a72 1ebb 6c70 8a3d 02a6 8fbd 4e65 d3bd
00000090: c499 a23d a44b 56bd ed41 053e 41a4 fabd
000000a0: 6d13 a4bd ed6d 25be 4aed c5bd 2918 06be
000000b0: 671d 10be 89b0 08be 891e 27be 7d48 303e
000000c0: 1d52 113e 7f69 b6bd a315 233e fdc9 2bbd
000000d0: 4fbd 66bd 53e1 21be c184 19be 56db c0bc
000000e0: cf56 b73d d166 f7bd f0ff 05bd 99dd eebd
000000f0: 91de 32be bc4b 233e 51ca 23be 7ad0 633e
00000100: b72d 053e eb99 07bc 28bb 3dbe ecc4 8a3d
00000110: 69e7 fbbd dc02 19be 8a97 063d b1a1 21be
00000120: dcfd 2d3e ee57 0ebd af70 bf3c e4a1 5e3e
00000130: 3a1a 56bd 6b82 8abc b3b7 10be a0d7 063e
00000140: 4296 813e 74d4 8cbd 800b 1a3e 12be 1fbd
00000150: 9ef8 503e 217d 4abe 6957 21be cde5 273e
00000160: d561 1cbe 1b40 ffbd 818c fabd 8a68 963d
00000170: 6205 633e 2dd5 90bd 609d 0fbe 7d1b 983d
00000180: 2442 2b3c 6ea9 5a3e 2daf 7c3d c869 4abe
00000190: ce8f d5bb 4678 05bd eeb9 3c3e d773 d53d
000001a0: 1ce9 babd 0482 3abe 23e6 cb3d e39b 65bd
000001b0: ea64 45be bff5 81bd e231 1d3e 0a67 5a3c
000001c0: a3aa 303e 4682 7d3d e83f b9bd 3635 bdbd
000001d0: adb9 353e 1942 2dbc 6fb0 9ebd 68f5 223d
000001e0: aec9 25be 36b5 c9bd e6bf e63d 227d 85bd
000001f0: 7478 43be b592 313e 09b4 a2bb 0d84 4dbd
00000200: c143 38be fcfe 233d d9bd 1d3e e276 fa3a
00000210: fcb1 c4ba 321c d03c 3eea 7ebd e4c8 20be
00000220: 642a b5bd 250b 203e 9a7b 98bd d9d6 6ebd
00000230: 3bd3 683e 26ae 0abd 8ab7 d63d b0f5 8e3d
00000240: 40cd 0dbe 5d12 c83d 1191 c13d 414a 89bd
00000250: 0164 393e a564 13be 9a23 b23c 2c55 233e
00000260: 4029 65bd 9051 233e 8286 6ebc 7534 e93d
00000270: a04e c03d ed28 0a3b bc66 4d3e 30a0 393d
00000280: 059c 38be 86d6 5b3e efea 443e 9946 153e
00000290: 8d86 2c3e 1641 233e 72aa 35be 1fae 113e
000002a0: 9daa 45bd a8b0 13be a6dc 443e cdd6 96bd
000002b0: 8349 ea3d abc9 b1bd fed2 183e acb1 da3d
000002c0: 72a8 46bc de26 9d3c ddd9 963d 44f2 5ebe
000002d0: 1a00 673d 8878 4e3b 1160 1d3e 6ff4 863c
000002e0: 6b98 0fbe 6c8c 44be 12ed b6bc 0d32 713d
000002f0: 7603 c5bd f92d 0c3e dfc7 f9bd d5f5 2f3e
00000300: b2e0 4f3e c4c1 223d 8adb cd3d 43bf edbc
00000310: fbca fc3d 6db7 4c3c 133b 05be a854 0cba
00000320: 81e8 e13d 0387 403e 51fe 5d3e 3159 2a3d
00000330: 5a50 12be adbc c73b be17 21be d0a1 95bd
00000340: a7cb 90bd f728 03bd 2918 593b a8ea 2bbe
00000350: 7be3 e83d ae3b 143e e178 15be 01de 013e
00000360: 39d2 133e acca 673d 0f7a 123e c825 273e
00000370: 33bb a73b 2ffc ba3d 7f26 68bd 42d1 9a3d
00000380: dfa5 e63c 8f1b a4bc 9964 eb3d abb1 c53d
00000390: e860 19be 9b8d 4d3e 6821 6c3d 284f 9cbd
000003a0: 07cd 133e 8425 323d 8595 bd3d 21fb 4dbe
000003b0: 824d 183e 8b51 03be 802b 953d 5b6a 58ba
000003c0: abb5 30be b592 0cbc 12c2 0dbb 60ad 583d
000003d0: dfe6 b1bd 1113 1dbe 0c1a 433e 003c 143e
000003e0: 7acc 2bbd 3253 f93d 6a40 353e b188 403e
000003f0: cec5 d43d 7406 6dbd 24f0 df3d da53 d5bd
0.03374924 -0.04598529 0.14842641 -0.10696773 0.16374955 0.13261214 -0.08857535 0.16970098
-0.06866215 0.15402491 -0.11846877 0.18881613 0.1278292 0.031468023 0.09121106 0.16600735
0.14763771 -0.23767725 -0.02428222 -0.115632914 0.24786444 0.051041495 0.22263251 -0.12033286
-0.22054163 0.03771731 0.10494502 0.04950213 -0.072894804 -0.17266703 -0.044934325 0.066515744
-0.002417712 0.06759724 -0.07014085 -0.10322057 0.07939485 -0.05231823 0.1301343 -0.1223836
-0.08011518 -0.16155215 -0.096644 -0.13095154 -0.14073716 -0.13348593 -0.16320242 0.17215152
0.1419148 -0.089068405 0.15926223 -0.041940678 -0.056332882 -0.1580861 -0.14992048 -0.023542088
0.08952104 -0.120801575 -0.032714784 -0.1166336 -0.17467715 0.15946859 -0.15995146 0.22247496
0.1300572 -0.008276443 -0.18528426 0.06775841 -0.12299997 -0.14942497 0.032859363 -0.15784337
0.16991371 -0.034751825 0.023369161 0.21741444 -0.052271105 -0.016907891 -0.14132576 0.13168192
0.2530995 -0.0687646 0.1504345 -0.038999625 0.2040734 -0.19774295 -0.15756 0.16396256
-0.15271695 -0.12463399 -0.1223383 0.07344158 0.22170022 -0.0707191 -0.14024878 0.07427118
0.010452781 0.21353695 0.0616905 -0.19766915 -0.006517387 -0.032585405 0.18430302 0.10422485
-0.09126493 -0.1821366 0.099560045 -0.05605687 -0.19276777 -0.063457005 0.1535106 0.0133302305
0.17252593 0.061891817 -0.09045392 -0.09238665 0.17746611 -0.010574841 -0.07748496 0.03978482
-0.16190216 -0.09849016 0.112670705 -0.06518008 -0.19088918 0.1734112 -0.0049653095 -0.05017476
-0.17994596 0.040038094 0.15404452 0.0019108916 -0.0015006657 0.02540407 -0.06223511 -0.15701634
-0.08845976 0.15629251 -0.0744545 -0.058310363 0.22736828 -0.033857487 0.10484226 0.06980455
-0.13847828 0.097691275 0.09451497 -0.06703616 0.18104555 -0.14393862 0.021745492 0.15950459
-0.055947542 0.15949082 -0.014558436 0.113869585 0.093899965 0.0021081523 0.20058721 0.045318782
-0.18028267 0.21468553 0.19230245 0.14577712 0.16848202 0.15942797 -0.17740801 0.14226578
-0.048258413 -0.14422858 0.19224796 -0.07365189 0.114398025 -0.08681043 0.14924237 0.106784195
-0.012125121 0.019183572 0.07365773 -0.21772105 0.05639658 0.0031504948 0.15368678 0.016473977
-0.14022987 -0.19194192 -0.02232984 0.058885623 -0.09619801 0.13689412 -0.121963255 0.17183621
0.20300558 0.03973557 0.100516394 -0.029021865 0.12343403 0.012494904 -0.13010816 -0.0005353191
0.11030675 0.18801503 0.21679045 0.041588966 -0.14288464 0.00609549 -0.15731713 -0.07306254
-0.070700936 -0.03202149 0.0033125973 -0.16788733 0.113715135 0.14475891 -0.14596893 0.12682344
0.14435662 0.056589767 0.14304374 0.16323006 0.0051187514 0.091301315 -0.056677338 0.07559444
0.028155265 -0.020032672 0.11493797 0.09653028 -0.14978373 0.2007355 0.057649046 -0.07632285
0.1443368 0.04349281 0.09257034 -0.2011533 0.14873317 -0.12824075 0.072836876 -0.00082555943
-0.17256801 -0.0085799 -0.0021630567 0.05289972 -0.08686613 -0.15339305 0.19052905 0.14476013
-0.04194305 0.12174071 0.17700353 0.18802144 0.10389291 -0.057867482 0.10934475 -0.10416384

fcnn.2.weight f4 [128, 256]
00000000: 6444 013d 2c26 a5bc 21a8 963c cb45 6dbe
00000010: 94e1 e73d 3aed 1abd b081 5cbc 9894 d23d
00000020: 73a9 003d 3a53 c7bc c9bc 1bbd c6fc 9dbd
00000030: 32f5 9aba 70ad 02be 3aca 0f3e 9073 443d
00000040: b951 84bd 47d7 4f3e 073a fabc 4132 503e
00000050: e94f b1bd c356 143d 1bfe 6fbd 09ca f93d
00000060: 1768 18bd 0b42 ad3c adb5 2c3d f497 4c3d
00000070: 7b2e d4bc fca2 bc3d c29b 023e 40ca 293e
00000080: 0508 dabc 3cd9 ee3c 7d84 483c 6a1f 993d
00000090: c5f7 83bd b39c a93d f4ed 013e 45d7 f5bd
000000a0: d378 263d d85d 0a3d 7b55 bb3c 1138 f4bd
000000b0: 0595 043e 6b08 3dbd 30d4 463d 0bf4 3b3d
000000c0: 673f 433e 6e47 1e3d 16ea 8e3c 1d04 17bf
000000d0: 082f a1bc 6e69 ffbb 37e3 1f3d 98e7 a0bd
000000e0: 138c 62bd 3df5 ee3d ff7a 32bc b552 17bd
000000f0: 8a4a ab3d 3c76 53bd 3ea5 52be 9510 3cbe
00000100: 69e6 803b df01 f63c 3397 d13c 96a3 47be
00000110: 68b3 2a3d 3826 163b 2b9d a2bd 39a4 b63d
00000120: e1bf 5bbd 39cb 08be 5ef5 fd3b 1af0 ad3d
00000130: 7e72 d33c 2679 003e 97e6 85be 756c e73d
00000140: 6c91 9e3c ef2b 6f3c a0c4 3fbd 27c1 9dbe
00000150: a8fd 73bd c322 1cbd 5b25 b83e c6ff 843c
00000160: 9904 0abd 7953 68be 0a19 cd3d 5569 583c
00000170: 5079 aabd 09fa bc3d b036 873d 4dad 55bd
00000180: a3c5 b73d 9e1e a5bd 2716 2abe bcb4 2ebc
00000190: bdfb a7bc 50ef 0e3e ce70 553d 7f81 e9bd
000001a0: 9c15 03bd b5b2 903d e6b4 493e 3404 9bbd
000001b0: 8a9c 3d3d ff26 f83c 37ba 393e b46d b63d
000001c0: d196 77bd 9746 ca3c 1f78 d93a c969 993c
000001d0: bfdd 173e 106c 923d 28d3 97bb e3e1 9f3d
000001e0: 82a3 f43c 56ec 693e 6606 f6bc fcdc de3c
000001f0: 1d77 a8be 413f 83bd 6893 a1be a3de 973c
00000200: 36af ad3c 0419 af3d 2c13 31be 5048 b43d
00000210: 731e 51be a1c0 b33d 0436 0b3c 40bc e43c
00000220: b34a 033e 2259 c9bd f2ce 99bd 02de 61bd
00000230: 512e 1a3c 094e 81bc 55d1 fd3d d974 3abd
00000240: a3a1 99be e108 b23c 72de 32bc 8ba9 1d3d
00000250: f188 f0bc f8c5 4f3e de5f 9c3d 32aa 293e
00000260: 8be0 1e3d 8220 1fbc 42d3 003e 60d3 e23d
00000270: cb67 a03d 1ad5 08bd 4cbe 3dbe f3a6 c93c
00000280: 1cc6 073c d285 42bd bc36 163e db07 35bc
00000290: 4a2f a93d 6dd3 e3bc 2eda a63b e572 34bd
000002a0: 5844 12be ab5a 043e 9c95 09bc d7f1 b83d
000002b0: 47be 79bd ed1c 5cbe e68d 1e3d 9617 a43c
000002c0: a7ad 4dbd 7958 00be 1792 a43d 322a a13c
000002d0: d5ce 44bd 5c35 4bbd b7fe 5b3d 59bd b03c
000002e0: 5d5d c03d 741d 183e 611e 073e a716 8a3d
000002f0: 70a8 11bd 5fb8 52be 07f1 473d db6e e93b
00000300: e482 8fbd a9c6 73bd 598e 4cbe 8bac 45bd
00000310: a54c 383e 38db 56bd c93b dcbb be3d 0dbe
00000320: 791d 17bd 018f 69be 6248 4d3d 702d 153e
00000330: cdbb 1f3d 024c 68bb 1f94 073e 9a37 89bd
00000340: 57a6 72be 48de df3c 1bfb a73d 82d3 38bd
00000350: 8f29 01bd 877a b93c 476f 323d 8464 e43c
00000360: 3116 793c 931b 2b3e c183 5b3e aa6a 873c
00000370: 695c 9bbd a24f 9fbd 643c 9c3c 64a5 98bb
00000380: 1373 95bd cfb1 b5be c994 f83b e54b 7fbd
00000390: 1467 9d3d 46a6 b4b9 e7f3 8b3d 4b8c e53d
000003a0: b220 d73b 1b11 653d 0d64 f53d 29c8 ee3b
000003b0: 53a6 153e 89aa be3d c617 ff3c 55a2 423c
000003c0: 79b0 ecbe fb8b 50bc e143 8bbc 0480 b13d
000003d0: a578 9a3d 17a9 383d a12c 3ebe 7127 913d
000003e0: 1f12 97be 2751 113e 67ff 4ebd 6c20 843b
000003f0: 4480 17be c51b 86be 6ea9 59bd c080 363d
0.031559363 -0.020159803 0.018390717 -0.23171155 0.113223225 -0.037823893 -0.013458654 0.10282248
0.0314116 -0.024331678 -0.038021836 -0.07714228 -0.0011822341 -0.12761474 0.14041987 0.04796177
-0.064609 0.20296966 -0.030545248 0.2033167 -0.0865782 0.036215555 -0.058591943 0.12196738
-0.037208643 0.021149656 0.042165447 0.0499496 -0.02590107 0.09210774 0.1275473 0.16581059
-0.026615152 0.02915632 0.012238619 0.07476695 -0.06443743 0.08281841 0.12688428 -0.1200395
0.04064257 0.033780903 0.022867909 -0.11924756 0.12947471 -0.046150606 0.0485422 0.045887034
0.19067155 0.03864234 0.017445605 -0.5899065 -0.019675747 -0.0077945506 0.03903505 -0.07856673
-0.055309366 0.11667869 -0.010893582 -0.03694411 0.083638266 -0.05162643 -0.20570847 -0.183657
0.003933717 0.03003019 0.025584793 -0.19495997 0.041675 0.0022910964 -0.07940134 0.08918042
-0.053649787 -0.13358773 0.0077501973 0.08493061 0.02581143 0.12546214 -0.2615249 0.112999834
0.019356452 0.014597877 -0.046818376 -0.30811426 -0.059568077 -0.03811909 0.35966 0.016235244
-0.03369579 -0.22688092 0.100145414 0.013208707 -0.0832392 0.09227378 0.06602228 -0.052167226
0.08973243 -0.080624804 -0.16610013 -0.010663208 -0.02050578 0.13958478 0.052109532 -0.114016525
-0.03200303 0.07065336 0.19697914 -0.07569161 0.046291865 0.030292032 0.18137442 0.08907643
-0.060446564 0.024691863 0.0016591585 0.0187272 0.14830683 0.071495175 -0.004633326 0.07806756
0.029863123 0.22844061 -0.030032348 0.027204983 -0.32903376 -0.06408549 -0.31557775 0.018538779
0.021201711 0.08549693 -0.1729247 0.08802855 -0.20421772 0.087769754 0.008496765 0.027921796
0.12821464 -0.09831454 -0.07510175 -0.055143364 0.009410457 -0.01578428 0.123934425 -0.04552159
-0.30006132 0.02173275 -0.010917293 0.038491767 -0.029362174 0.20290363 0.07635473 0.1656883
0.03878836 -0.00971234 0.12580588 0.11075473 0.07832297 -0.033406354 -0.18529624 0.02461574
0.008286979 -0.047490902 0.14669317 -0.011049236 0.08260973 -0.027810777 0.005091927 -0.044054884
-0.14283884 0.12925212 -0.008397486 0.09030502 -0.06097248 -0.2149541 0.038709544 0.020030778
-0.050214436 -0.1253375 0.08035677 0.01967344 -0.048048813 -0.049611434 0.053709712 0.021574663
0.09392808 0.14854985 0.13195182 0.06742602 -0.035561025 -0.20578144 0.048813846 0.0071238107
-0.07007387 -0.05951563 -0.19976176 -0.048260253 0.17997988 -0.052455157 -0.006720994 -0.13793084
-0.03689334 -0.22808458 0.050117858 0.14568114 0.03899746 -0.0035445695 0.13240097 -0.06700058
-0.23696266 0.027327672 0.082021914 -0.045123585 -0.031533774 0.022641433 0.043563154 0.02787996
0.015203045 0.16709737 0.21436979 0.016530354 -0.07585985 -0.07778861 0.019071765 -0.004658388
-0.07297339 -0.3548722 0.007586096 -0.062328238 0.07685676 -0.0003445616 0.0683363 0.112083994
0.006565177 0.055924516 0.11981974 0.0072870445 0.14614229 0.09309871 0.031139266 0.011879523
-0.46228388 -0.012728686 -0.01700014 0.08666995 0.07542542 0.04508313 -0.18571712 0.07087601
-0.29506013 0.14191113 -0.05053654 0.0040321853 -0.14795023 -0.2619306 -0.053140096 0.04455638

fcnn.2.bias f4 [128]
00000000: d9fd c4bc a751 4abd a394 303d 8198 f6bc
00000010: 9159 de3c 8903 2fbc 7ee1 8c3c 137d 893c
00000020: 7d6a c23c fc54 aa3c 6994 c53a b675 843d
00000030: 2283 473d a8a9 083b 8c92 203c 89e0 4dbd
00000040: 43d3 033c 6d11 083d 70ca 93bc eedd 033d
00000050: 455d 82bd 3e2f 8bbd fbf8 3abd 5d92 12bd
00000060: b559 3f3c 5b87 ec3d ed18 723d 73ac 803d
00000070: 1e76 393d 5248 d73c 62e7 66bd ba4c 68bd
00000080: 5734 733c be30 1338 d76a 793d 4cd8 04bc
00000090: f824 2abd 0781 1abc 7990 8cbd 0af2 91bc
000000a0: e8d2 b83d 447a e93b c078 1cbd 3436 54bd
000000b0: b00a 733d 3dfc 05bc 9b0f 6ebd 7f0f 4e3d
000000c0: 411e e23c a187 8d3c a626 373d 4675 cdbc
000000d0: 8027 303d 7eb4 49bd 84c8 10bc 3bc7 f83c
000000e0: e11a 9a3d 55b4 473d b224 5cba f8a2 723c
000000f0: 08e3 a5bc 7a0f 99bd c179 acbb 5b54 4f3d
00000100: c3e2 36bd 1a2d a63c 329d e23a cfe6 2ebd
00000110: 5d73 9b3c 1937 763d ff07 4c3b dc94 853c
00000120: 0268 18bc 408c 093d 3a1a e53c d80b 5b3d
00000130: 121c ed3b 03a9 cdbc 7530 84bd 13cd 8f3d
00000140: 048d 9f3c c981 973c f9fc a93d e696 eb3c
00000150: e55c 79b8 3f1a 0c3d a03b 80bd 12d7 9fbd
00000160: e0be bfbc e553 91bd 0da3 f5bc 1845 0bbc
00000170: 0568 d33c f3c4 293d 8077 4dbd 6870 99bd
00000180: ebb0 4a3d 9660 11bd 8310 283c 3db6 37bc
00000190: f7ba 58bc 53bb 49bd cee5 05bd 7253 fa3c
000001a0: 52fa f6bc 3099 01bd 8520 84bd 2ab8 2dbc
000001b0: 1841 0bbc ca78 6cbd 7eb2 03bc c090 87bc
000001c0: cfb6 5dbd 7345 14bd fb81 96bc 6cf7 0ebd
000001d0: 063f 6b3d 78c2 c13d fb34 de3c 6115 e7bc
000001e0: 647f 003d 1b13 ae3c 280d 40bc d3ee 19bd
000001f0: 5c9a 913d ae31 a33d 35ec 23bd e69e ec3c
-0.024046825 -0.049394276 0.0431105 -0.030102016 0.027142318 -0.010681995 0.017197367 0.016783273
0.023732418 0.020792477 0.0015074137 0.06467764 0.048709042 0.0020853076 0.0098005645 -0.05026296
0.008045974 0.033219744 -0.018040866 0.03219407 -0.06365446 -0.0679612 -0.045647603 -0.035784114
0.011679103 0.115492545 0.059105802 0.06282892 0.04527866 0.026279602 -0.056373008 -0.056713797
0.014844022 3.5092926e-05 0.060892906 -0.00810821 -0.041539162 -0.009430177 -0.068634935 -0.017815609
0.09024602 0.007125171 -0.038201094 -0.051809505 0.059336364 -0.008177814 -0.05812035 0.050307747
0.027602317 0.017276587 0.044714592 -0.025080334 0.04300642 -0.049244396 -0.008836869 0.030368438
0.07524658 0.048755962 -0.0008397802 0.014809363 -0.020249858 -0.07473655 -0.0052635376 0.050617557
-0.04464985 0.020285178 0.001728928 -0.042700585 0.018975908 0.06011114 0.0031132696 0.016306333
-0.009302141 0.03358102 0.027966607 0.053478092 0.0072360123 -0.025105005 -0.06454555 0.07021537
0.019476421 0.018494504 0.08300204 0.028758477 -5.945274e-05 0.034204718 -0.062613726 -0.07804693
-0.023406446 -0.0709608 -0.029984975 -0.00850036 0.025806436 0.04144759 -0.050162792 -0.07492143
0.04948513 -0.035492502 0.010257843 -0.011212883 -0.01322817 -0.049250912 -0.032689862 0.030557368
-0.030148659 -0.03164023 -0.06451515 -0.01060299 -0.008499406 -0.05773238 -0.008038161 -0.016548514
-0.054129418 -0.036199044 -0.018372526 -0.03490393 0.05743315 0.0946092 0.027124872 -0.028208436
0.03137149 0.021249345 -0.011721887 -0.037581276 0.0710952 0.0796846 -0.040020186 0.028884362

fcnn.4.weight f4 [64, 128]
00000000: fd8b bc3b 2842 8cbe 7d86 0dbd c8c1 64be
00000010: a9dd aabd d081 6fbe 3a56 a0be 1a70 93be
00000020: 10fe 00be 35c8 9dbb 4aea cfbd 478e 123e
00000030: c4e1 453d dfe4 43be df7b 393e 97ae 52bd
00000040: 296e 793b a945 ff3d a95b afbd aa50 fabd
00000050: 1188 983d 9cbc ea3c 4d0c c6bd 9baf 973d
00000060: b705 61bd 3aec 77be 743a 20bd cd09 47bd
00000070: b58e 48be 34c3 10be c136 033e 656c 44be
00000080: 8cc1 f5bd 5a8d c1bc 7923 34bd ceae 01be
00000090: 7ede 70be 06e8 0fbe d82f 4ebe ef3a e4bd
000000a0: 1025 393e feb8 9cbd bf23 c83d db32 273e
000000b0: d00f 133e 452a d8bd 2e5b ccbd 0b5a bebd
000000c0: 0ff0 6c3d a7aa 6a3e 3475 f73d 2c4e f53d
000000d0: 6682 5c3d 9caf 50be f229 f8bd 1143 663e
000000e0: a165 bcbd 41d0 a03a 4676 3ebe e14d c1bd
000000f0: d660 35be 8abd c53d 93d8 37bd 3703 ad3c
00000100: 4e07 dcbd dfc8 44be f3de 97bd e5e7 01be
00000110: 46bc 18be 8e2b c5bd 4c99 76bc 035c 5abe
00000120: 0949 96bd 4615 4c3d aec6 2cbd e504 d0bd
00000130: 847a 48bd fa49 08be d564 56be cd85 a1bd
00000140: 9159 d1bd 37a5 b13c 3a25 b9be 58af 67be
00000150: bbab 083c 5cb1 01be 58f2 57be f4c2 87be
00000160: 08ae d43b 1c01 cebd 2f55 873d c0a5 09be
00000170: 2156 f3bd 17fb 753c 4dea e03d 354f 81be
00000180: efdc 44bc fdc1 4c3d 1bf7 1dbe 15fd 0b3e
00000190: 0b27 2e3d 9bc9 883d f900 43be 5c3c 42be
000001a0: 29ad 12bd 6acf 1dbe abc8 6bbd bc8e a3bd
000001b0: 5cb2 61be 3ed8 17be 7b22 1cbe 969d 12be
000001c0: 0f49 42be 36ed 25bd 76b9 273e aee3 8f3d
000001d0: 9ebf 09be 88cc 89be 3d59 89bd 6fe6 2fbe
000001e0: 6f58 8dbd 540f 523d 2f60 5abd 43db 3dbe
000001f0: 3f25 0a3e cad5 51bd 83b0 65be c0a6 94bc
00000200: 65c4 44bd 021b 03be b091 d33d 3f8d a03c
00000210: b310 58be e92e 5cbe bd8d 99bd de86 c5be
00000220: c79d 123d 8453 00bc f8d9 29bd 7611 5e3e
00000230: a0ac 7d3d 7bc7 85be a810 8f3e edcb 81bd
00000240: bed5 91be 8cbd 513d 240f 183d cd22 b5bd
00000250: 9d5b 753d 39bf 85be 5758 acbe b987 1e3c
00000260: 1e5b f13d 8fb9 f2be e589 29be b286 ec3c
00000270: 082e 70bd a3b2 6b3e 5de0 d13d a314 0ebe
00000280: a830 57be 4c2a 18bd 27c5 41bd 8190 5dbe
00000290: 4b4e ccbd c002 e0bd 0b2c 8d39 1fcd db3c
000002a0: 9132 cc3e 29e5 27bd 197b 7b3d 8640 d8bd
000002b0: 2689 173e 076e 06be d8c3 15be cdf0 b6bc
000002c0: e3ba d83e 5d1a bc3c c58d d23e 672c e53e
000002d0: 1e21 03bd bc65 54be bfc6 c1bd 974d c23d
000002e0: e33b 8f3d 4c92 1cbe a6b7 063c 947e adbb
000002f0: 88b6 0bbc 3705 383d c1a0 ae3c 1471 a23e
00000300: f537 0bbd db15 80bd c305 d53d 9b7c 7bba
00000310: d243 1ebd c17b 77bd 6c06 c6bc d187 21bd
00000320: 2eb2 d9bc 468f 4d3e 5880 963d 47fe a63d
00000330: 5876 8abd 3e03 c0bd 8879 fabc 0575 b0bc
00000340: 3279 11be 2887 4f3d a14a f5bd 6bdc c5bc
00000350: 091a c73b b1ec 56bd e48d b43c 22fc 403b
00000360: 29be c03d 78b6 e6bc 4962 143d cdfe 9f3c
00000370: 8cbd b9bb 7a6e 643d 143c 21be cbca c4bd
00000380: d528 a63c fb98 a53d 0969 46bd 5886 303e
00000390: cec0 493e 2a3e 1cbe 0722 0dbe a2eb e5bd
000003a0: 8816 e5bd 9428 a2bc ad96 3dbe 1070 31be
000003b0: 4cef 0abe 91f1 d3be 478c debc 24f9 9abd
000003c0: 706c afbe 2f0f 293d 1baf 0cbd d2a0 5c3d
000003d0: 918b 253d 73e8 f0bd d903 92bd 92cb 86be
000003e0: eac0 253e 8b3a d63d 8023 8dbd da73 95bd
000003f0: 7e8c ae3e 8234 4f3e d3c1 85bd fa62 24be
0.0057539926 -0.27394223 -0.034552086 -0.22339547 -0.083430596 -0.23389363 -0.31315786 -0.28796464
-0.12596917 -0.0048151263 -0.10152109 0.14312087 0.04831101 -0.19130276 0.1811366 -0.051436033
0.0038060045 0.124644585 -0.08562405 -0.12222417 0.074478276 0.02865439 -0.09670315 0.07406541
-0.05493709 -0.24211207 -0.039118245 -0.04859333 -0.19585688 -0.14136964 0.12813856 -0.19181974
-0.11999807 -0.023626972 -0.04397914 -0.12664339 -0.23522374 -0.14053354 -0.20135438 -0.11144053
0.18080544 -0.07652472 0.09772443 0.16327994 0.143615 -0.10554937 -0.09978329 -0.09294518
0.057846125 0.22916661 0.120829016 0.11977801 0.053835295 -0.2037949 -0.121173754 0.22486521
-0.09199072 0.0012269096 -0.18599805 -0.09438682 -0.17712721 0.09655292 -0.044884276 0.021119697
-0.10743581 -0.19217251 -0.07415571 -0.12686117 -0.1491557 -0.09627448 -0.015051197 -0.21324162
-0.07338149 0.049824975 -0.042181663 -0.101571836 -0.048944965 -0.1330947 -0.20936902 -0.078868486
-0.102221616 0.021685226 -0.36161214 -0.22625482 0.008341725 -0.12665313 -0.2108854 -0.26515925
0.0064904727 -0.10058805 0.06608044 -0.13442135 -0.11881662 0.015013478 0.10982189 -0.25255743
-0.012015565 0.04998969 -0.15426295 0.13670762 0.042517703 0.06679078 -0.1904334 -0.18968338
-0.03580967 -0.15411153 -0.05756442 -0.07986209 -0.22040695 -0.14828584 -0.15247528 -0.14317927
-0.18973182 -0.040509425 0.16379341 0.07025848 -0.13452002 -0.26913857 -0.06706474 -0.17177747
-0.06901633 0.05128415 -0.053314384 -0.18540673 0.13490771 -0.051229276 -0.22430615 -0.018145919
-0.04803886 -0.12803271 0.10330522 0.019598601 -0.2110012 -0.2150227 -0.074977376 -0.38579458
0.035795 -0.007832412 -0.041467637 0.21686348 0.061932206 -0.26128754 0.27942395 -0.06337724
-0.28483385 0.051206157 0.037123814 -0.08844528 0.059901822 -0.26122454 -0.33661148 0.0096759135
0.11784957 -0.47407195 -0.16556509 0.028872821 -0.05863765 0.23017363 0.10247872 -0.1387506
-0.21014655 -0.037149712 -0.04730716 -0.21637155 -0.09975871 -0.109380245 0.0002692643 0.026831208
0.3988233 -0.04099003 0.061396692 -0.10559182 0.14798412 -0.1312791 -0.1462549 -0.02233162
0.42330083 0.02296179 0.41123787 0.4476044 -0.032014005 -0.20741934 -0.09461736 0.09487455
0.06993844 -0.15290183 0.008222496 -0.0052946303 -0.008527406 0.04492685 0.021316888 0.31726897
-0.03398891 -0.062541686 0.104014896 -0.0009593458 -0.038638897 -0.060420755 -0.024172984 -0.039436165
-0.02657422 0.20074186 0.073486984 0.08153968 -0.067608535 -0.093756184 -0.030575529 -0.021540174
-0.14206389 0.050666004 -0.11977125 -0.024152955 0.0060761017 -0.05247182 0.022040315 0.0029447158
0.0941127 -0.02816318 0.036226545 0.019530678 -0.0056683477 0.05576942 -0.15745574 -0.09608992
0.020283142 0.08085819 -0.048440013 0.17238748 0.19702455 -0.15258089 -0.13782512 -0.11226584
-0.11185938 -0.01979474 -0.1851451 -0.17327905 -0.13567847 -0.41395238 -0.027166499 -0.07567051
-0.3426242 0.041274246 -0.03434668 0.053864308 0.040416304 -0.11763086 -0.0712964 -0.26327187
0.16186872 0.10460385 -0.06891537 -0.072974876 0.34091562 0.20234874 -0.0653111 -0.16053382

fcnn.4.bias f4 [64]
00000000: df4a 1fbe 1f8b 8b3d 66f3 54bc 36e4 d3bd
00000010: 9b7f 27bd dfb2 4c3d 66e9 e1bc 943b e5bd
00000020: 2169 933a 3456 433c da94 8e3b 38f4 1b3d
00000030: 4a58 85bd c567 d93c e57d fabc 01f2 f3bd
00000040: ba5f 853d cc44 613d 7c9a fd3a 4b33 843d
00000050: bf0f bd3d 207b 73bd 4052 3a3c e3d9 21bd
00000060: 447d 61bd 77ff 393d d346 b03d 956e 77bd
00000070: 005f 44bd f27c a23c 361e 79bc e1bc 593d
00000080: 6c68 08be ab0b f83c 80ed b2bd f5a4 86bc
00000090: 8b61 f0bc 8c00 a03d 46f0 26bd b4b9 fc3d
000000a0: 7edc fabb 8a78 16bd b942 c93d 8ab6 96bc
000000b0: 0a53 f2bd ac85 4dbd 7ff3 1a3c 6a7a 7f3a
000000c0: e980 84bd 10e0 333d f8ce c7bd 13b1 d5bb
000000d0: 2b4a b03b d7f8 a7bd 04ab ecbd 3e6a 2ebc
000000e0: 2eb8 d53d 7f37 963c fa83 d7bb ab93 03be
000000f0: efd3 c93d 1ed4 06bd 97b7 5abd 9319 803b
-0.15555905 0.068136446 -0.012997484 -0.10346262 -0.04089318 0.049975272 -0.027577113 -0.11193004
0.0011246541 0.011922408 0.0043512406 0.038074702 -0.065109804 0.026538739 -0.03057761 -0.11911393
0.06512399 0.05499725 0.0019348408 0.06455096 0.09231519 -0.059443593 0.011372149 -0.039514434
-0.055051103 0.045409646 0.08607259 -0.060408194 -0.04794216 0.01983497 -0.015204957 0.053158645
-0.13321084 0.030279001 -0.08736706 -0.01643608 -0.029343387 0.07812604 -0.040756486 0.123401076
-0.0076556792 -0.03673605 0.098271795 -0.018397588 -0.11832245 -0.050176308 0.009457468 0.0009745719
-0.064699 0.043914855 -0.09756273 -0.006521353 0.0053799353 -0.08201759 -0.11556056 -0.010645447
0.1043552 0.01833701 -0.006577012 -0.128493 0.09854876 -0.032917134 -0.05339774 0.0039092987

fcnn.6.weight f4 [1, 64]
00000000: 1170 4ebe 056c b0be db93 73be 5ef4 65be
00000010: 9c26 60be d8ab 903e cac2 6d3e 80c3 30be
00000020: f430 08be 012b 81be cef1 83be 4e9c 713e
00000030: 587a 2bbe 6096 853e e1ac 823e e498 79be
00000040: 5df2 f1be 3f7b 9e3e 1fc3 82be b508 653e
00000050: a498 953e 2379 86be f2c3 f9be a2b1 5fbe
00000060: 1fa6 873e 8041 703e f50d 893e f49a 6dbe
00000070: 4f52 8d3e 27e1 2fbe c523 773e e232 cdbe
00000080: 41b8 67be b195 813e ce9b 5cbe 8328 39be
00000090: 88b1 893e d73f 5d3e bec5 763e 10da 323e
000000a0: 182c 733e 5156 59be d60d 653e 9f6d 79be
000000b0: 5493 91be f841 5d3e 5e7f 7f3e 9be6 18bf
000000c0: db44 633e bd1a 7f3e daf6 6abe 424e 52be
000000d0: d70e 57be b020 28be 182b 67be 5b9d 1fbe
000000e0: aaa7 a63e 80b1 74be 0251 6e3e 6112 81be
000000f0: 2d89 8d3e 5230 37be 637f 63be cd34 783e
-0.20159937 -0.34457412 -0.23786871 -0.224565 -0.21889728 0.28256106 0.23218837 -0.17262077
-0.13299924 -0.25228122 -0.2577042 0.23594782 -0.16745889 0.2609129 0.2552252 -0.2437473
-0.4725522 0.30953404 -0.2553949 0.22366603 0.29218018 -0.26264295 -0.48782307 -0.21845105
0.26493928 0.23462486 0.2676846 -0.23203641 0.2760186 -0.17175733 0.24134739 -0.40077883
-0.22628881 0.25309518 -0.2154381 -0.1808186 0.26893258 0.21606384 0.2409887 0.17465997
0.23747289 -0.21224333 0.22368559 -0.24358223 -0.28432715 0.21607196 0.2495093 -0.59726876
0.22194235 0.24912544 -0.22945729 -0.20537665 -0.21001755 -0.1641872 -0.22575033 -0.1558737
0.32549793 -0.23895836 0.2327309 -0.25209334 0.2764372 -0.17889526 -0.22216563 0.24238892
