src/hero/experiments/justification/models/NoBTCNN_SmallFCNN_4.pth (torch, 28502 bytes, 9 tensors)

fcnn.0.weight f4 [64, 27]
-0.072027065 -0.259558 -0.06941926 -0.1607881 0.28118083 0.7298331 0.1048553 0.059425503
0.159141 -0.20642318 -0.026726602 0.5847459 -0.6945482 -0.1398263 0.7486311 0.015062757
0.12986007 0.061318163 0.3777441 -0.49367183 -0.15549904 -0.19196267 -0.35414192 -0.25601977
-0.4545683 0.090378724 0.16607805 0.09671239 0.23137186 0.08543022 0.14928108 -0.1708844
-0.513689 -0.033038322 -0.15725532 -0.16197373 -0.006673723 -0.030321116 -0.5811188 0.599913
0.077272914 -0.5479911 0.13375512 -0.42836508 0.088555485 -0.34291992 0.11990103 -0.042058438
-0.17001417 0.34006867 0.09883264 0.29921493 -0.24883962 -0.053493995 0.1719558 0.2691572
0.00870604 -0.18389072 0.46002686 0.82097083 -0.5671314 -0.18792027 -0.12110758 0.28945974
0.039143812 -0.09845069 -0.23095217 -0.62060857 0.73255455 0.48607194 0.13395521 -0.31771964
-0.36398834 -0.2725138 -0.11286501 -0.29585764 -0.30645052 -0.2387664 -0.0044596535 -0.118680194
0.23468626 0.052575327 0.0212342 -0.026375653 0.0079525905 -0.5713057 -0.6372437 -0.3151916
-0.100656934 0.4865998 0.12288295 0.03679459 0.0013400253 0.5127456 0.5024617 -0.7157716
-0.049038723 -0.09698034 0.44374803 -0.5727034 0.08092107 0.37448275 0.2389711 0.37830266
1.0434829 0.18046214 -0.29769987 0.087895386 0.040783577 0.1759629 -0.16830109 0.061671965
-0.40971658 -0.5683516 -0.050294105 -0.2754359 -0.121383786 -0.04607721 0.15343744 -0.5620021
0.69399285 0.012982661 -0.44418877 0.04600963 -0.21455963 -0.17714314 -0.5333474 -0.020397134
0.18472384 -0.12941913 0.30181083 0.31342512 0.16552056 -0.07572878 -0.15331344 -0.15672973
-0.3134672 0.20063601 0.07711594 0.20317346 0.7789607 0.30613977 0.43762836 0.049284637
-0.26756722 -0.13696995 0.6279878 -0.6193772 0.39165986 0.41052875 -0.20457256 0.26199412
0.07133277 0.3114711 -0.10251549 0.07921194 0.08086463 -0.0585531 -0.09738036 -0.12325353
0.10912839 -0.15101075 0.24461824 0.598337 0.02623332 -0.102777444 -0.53020954 -0.50299686
-0.0401085 -0.21226971 0.030865671 -0.04433214 0.1425982 -0.40027377 0.39776522 0.041941416
-0.77274317 0.047355436 -0.26285264 0.12739593 -0.30152246 0.008030417 0.25029367 0.1663877
0.127878 0.3529458 0.10205073 -0.0011124479 0.07571095 -0.38469818 0.2065774 0.005204562
0.29831508 -0.36604905 -0.88500494 0.118115485 -0.028273627 0.32896072 0.2938181 0.20863824
0.0316726 0.74708176 -0.068128765 -0.32612273 -0.36908677 -0.14330566 0.09335719 -0.156619
-0.019404367 0.25188938 0.11901156 0.07073718 0.69035584 -0.022236805 -0.05761426 -0.05098598
0.009173918 0.43345726 0.07963285 0.024802744 -0.54466105 -0.87024605 -0.016337847 -0.04069638
0.29339263 0.21374798 0.18528566 -0.49413446 0.44467396 -0.067701675 -0.7760371 0.33169264
-0.22998041 -0.0555096 -0.27405083 0.2734166 0.33033192 0.040755007 0.21892014 0.2418985
0.12841353 -0.01751329 0.19979666 0.010940474 0.1623975 0.15183787 -0.00919587 0.3526169
0.5214599 -0.592211 0.04923097 -0.16290729 0.119227275 0.08633753 0.03701189 -0.6033745
00000000: ed82 93bd c9e4 84be af2b 8ebd a3a5 24be
00000010: eff6 8f3e 58d6 3a3f 60be d63d 2868 733d
00000020: dcf5 223e 9960 53be bff1 dabc e8b1 153f
00000030: e9cd 31bf a02e 0fbe 4aa6 3f3f c8c9 763c
00000040: 0afa 043e c128 7b3d ad67 c13e 8ec2 fcbe
00000050: 243b 1fbe dd91 44be 1752 b5be 0615 83be
00000060: 2dbd e8be 7b18 b93d 5d10 2a3e 2511 c63d
00000070: bfec 6c3e 0af6 ae3d 24dd 183e 52fc 2ebe
00000080: 1f81 03bf 3153 07bd 8a07 21be 71dc 25be
00000090: 3faf dabb fd63 f8bc 34c4 14bf e693 193f
000000a0: 4341 9e3d 2549 0cbf 1af7 083e ab52 dbbe
000000b0: 945c b53d 3393 afbe ac8e f53d 7845 2cbd
000000c0: 3218 2ebe 7b1d ae3e c468 ca3d b332 993e
000000d0: d0cf 7ebe 851c 5bbd 2e15 303e f9ce 893e
000000e0: c7a3 0e3c d94d 3cbe a488 eb3e 252b 523f
000000f0: 862f 11bf 2c6e 40be 4007 f8bd 1134 943e
00000100: 4355 203d 84a0 c9bd ba7e 6cbe 34e0 1ebf
00000110: b288 3b3f 6cde f83e 8e2b 093e 26ac a2be
00000120: ae5c babe ee86 8bbe c525 e7bd a77a 97be
00000130: 15e7 9cbe 2e7f 74be 4922 92bb 9a0e f3bd
00000140: 9851 703e 3a59 573d 58f3 ad3c c111 d8bc
00000150: 954b 023c 1741 12bf 6722 23bf cb60 a1be
00000160: 3925 cebd 9c23 f93e 0eaa fb3d edb5 163d
00000170: caa3 af3a 4c43 033f 54a1 003f cf3c 37bf
00000180: d4dc 48bd a19d c6bd f132 e33e b19c 12bf
00000190: f2b9 a53d 34bc bf3e d7b4 743e e3b0 c13e
000001a0: d990 853f 11cb 383e 1e6c 98be 7f02 b43d
000001b0: ae0c 273d 9e2f 343e 1f57 2cbe be9b 7c3d
000001c0: 5fc6 d1be 7e7f 11bf 3101 4ebd ef05 8dbe
000001d0: 1098 f8bd 75bb 3cbd b41e 1d3e 5fdf 0fbf
000001e0: 84a9 313f 3ab5 543c b66c e3be 9874 3c3d
000001f0: 85b5 5bbe 0365 35be 7589 08bf e417 a7bc
00000200: 3f28 3d3e 7386 04be f386 9a3e 4279 a03e
00000210: 397e 293e b117 9bbd 33fe 1cbe c27d 20be
00000220: c67e a0be 8773 4d3e f6ee 9d3d b40c 503e
00000230: f869 473f 5abe 9c3e d310 e03e b0de 493d
00000240: 92fe 88be da41 0cbe cfc3 203f 818f 1ebf
00000250: a487 c83e d330 d23e 787b 51be 1824 863e
00000260: ea16 923d 2479 9f3e a4f3 d1bd df39 a23d
00000270: 5b9c a53d 60d5 6fbd 5b6f c7bd 596c fcbd
00000280: b57e df3d 90a2 1abe 347d 7a3e 9d2c 193f
00000290: 42e7 d63c fb7c d2bd d0bb 07bf 67c4 00bf
000002a0: cf48 24bd 3b5d 59be 01da fc3c 9e95 35bd
000002b0: 4305 123e aff0 ccbe e2a7 cb3e c3ca 2b3d
000002c0: 7fd2 45bf c6f7 413d 9f94 86be 1474 023e
000002d0: 2761 9abe 0392 033c 7e26 803e 8a61 2a3e
000002e0: 73f2 023e 50b5 b43e f9ff d03d 8fcf 91ba
000002f0: 580e 9b3d 29f7 c4be 0789 533e 088b aa3b
00000300: c1bc 983e c86a bbbe af8f 62bf 88e6 f13d
00000310: 189e e7bc 8a6d a83e 536f 963e 43a5 553e
00000320: 21bb 013d c040 3f3f 1887 8bbd 8ff9 a6be
00000330: f1f8 bcbe b8be 12be 0e32 bf3d bb60 20be
00000340: e8f5 9ebc a5f7 803e 55bc f33d a8de 903d
00000350: 29bb 303f f629 b6bc eefc 6bbd add6 50bd
00000360: 334e 163c 1cee dd3e 8c16 a33d 202f cb3c
00000370: e86e 0bbf 72c8 5ebf f3d6 85bc 3fb1 26bd
00000380: 8f37 963e c0e0 5a3e 86bb 3d3e 31ff fcbe
00000390: 4eac e33e 2da7 8abd 5eaa 46bf 9ed3 a93e
000003a0: fc7f 6bbe 095e 63bd 6450 8cbe 43fd 8b3e
000003b0: 4421 a93e b9ee 263d 9a2c 603e 3eb4 773e
000003c0: d67e 033e 0878 8fbc 7f97 4c3e ad3f 333c
000003d0: 884b 263e 637b 1b3e 46aa 16bc 348a b43e
000003e0: 657e 053f 249b 17bf 6aa6 493d 2bd1 26be
000003f0: 6e2d f43d bbd1 b03d c899 173d c076 1abf

fcnn.0.bias f4 [64]
-0.19733335 -0.12951061 -0.4021378 0.1768491 -0.1265353 0.12251043 -0.098683946 0.2746171
0.24339883 -0.3161894 -0.0023635002 0.09438734 0.011459191 0.2614441 -0.09914201 0.29055554
-0.10358208 -0.11806247 -0.14287145 0.4101838 0.1897234 -0.0035972504 0.22971544 0.6238608
-0.13278997 -0.054596636 0.16234027 -0.14251864 -0.045675382 0.076388724 -0.030380389 0.14804298
0.13883929 0.038344868 0.012193449 0.41734356 -0.06846176 0.064288795 0.19409192 0.00083312846
-0.0015881989 0.3366008 -0.09167717 -0.20869926 -0.17188191 -0.03326291 -0.102198504 0.20392014
-0.3019457 -0.07203131 0.113189526 0.33265907 -0.036489993 -0.15135574 0.10460519 0.13135956
0.16500418 0.120530255 0.09476225 0.12620628 -0.12642588 0.36054727 -0.19906288 0.23014824
00000000: c111 4abe 6e9e 04be 01e5 cdbe ee17 353e
00000010: 7892 01be c0e6 fa3d cf1a cabd 9d9a 8c3e
00000020: 8b3d 793e 94e3 a1be f4e4 1abb 264e c13d
00000030: 55bf 3b3c 00dc 853e f70a cbbd b2c3 943e
00000040: d722 d4bd bcca f1bd e54c 12be 9c03 d23e
00000050: da46 423e d9bf 6bbb 863a 6b3e 57b5 1f3f
00000060: 18fa 07be b9a0 5fbd 873c 263e 68f0 11be
00000070: 1c16 3bbd b171 9c3d 4be0 f8bc 9498 173e
00000080: e32b 0e3e 820f 1d3d 08c7 473c 0eae d53e
00000090: ae35 8cbd d8a9 833d 08c0 463e 4e66 5a3a
000000a0: 1d2b d0ba f156 ac3e 3dc1 bbbd 42b5 55be
000000b0: d001 30be b03e 08bd 734d d1bd 71d0 503e
000000c0: a098 9abe 2785 93bd e9cf e73d 4a52 aa3e
000000d0: 8876 15bd 00fd 1abe 3f3b d63d 1f83 063e
000000e0: dbf6 283e 91d8 f63d b612 c23d 383c 013e
000000f0: c975 01be a799 b83e 24d7 4bbe fbab 6b3e

fcnn.2.weight f4 [1, 64]
0.16644014 -0.21196365 0.13615832 -0.85919416 -0.111105 0.21015973 -0.25189278 -0.93588233
-0.121161714 0.22357377 0.20785892 -0.22165029 0.21469267 -0.48124784 0.14350763 -1.1161104
-0.13406576 0.28245032 0.12733768 0.51482534 -0.6030786 0.17177223 0.27213967 1.1123387
-0.21579306 0.26434752 0.16374506 0.21346697 -0.07613907 0.21099728 0.07732146 0.30083016
0.09933151 -0.6248727 -0.16587558 -0.6180507 0.069227174 -0.17278501 -0.8356392 0.19633621
0.12660277 -1.1963245 -0.11779725 0.4253309 0.17585796 -0.111022696 0.1788622 -0.78537357
0.16854167 0.23179175 0.19316457 -0.35533628 0.13526063 0.24606372 -0.075620376 -0.121962674
-0.32469153 0.21487425 0.19455747 0.31743196 0.19810185 -0.28029698 0.1346003 -0.21126615
00000000: 496f 2a3e 000d 59be 166d 0b3e 26f4 5bbf
00000010: 058b e3bd 1d34 573e 17f8 80be fc95 6fbf
00000020: a223 f8bd 86f0 643e f8d8 543e 4bf8 62be
00000030: 65d8 5b3e 1e66 f6be aaf3 123e b5dc 8ebf
00000040: 8948 09be 549d 903e cf64 023e 98cb 033f
00000050: 5c63 1abf 0fe5 2f3e e455 8b3e 1d61 8e3f
00000060: dbf8 5cbe 8f58 873e c9ac 273e 1697 5a3e
00000070: cdee 9bbd ac0f 583e b75a 9e3d 6906 9a3e
00000080: 526e cb3d a8f7 1fbf 4adb 29be 9238 1ebf
00000090: fac6 8d3d 8eee 30be 73ec 55bf 5c0c 493e
000000a0: 28a4 013e 2921 99bf af3f f1bd f9c4 d93e
000000b0: 1c14 343e de5f e3bd a727 373e 3e0e 49bf
000000c0: 3096 2c3e d15a 6d3e efcc 453e a3ee b5be
000000d0: c381 0a3e 21f8 7b3e dbde 9abd 91c7 f9bd
000000e0: f83d a6be ff07 5c3e 133a 473e 7186 a23e
000000f0: 36db 4a3e 1683 8fbe a9d4 093e 2756 58be

exp_avg f4 [64, 27]
0.061919335 0.02582197 0.1051942 0.2963917 0.019050824 -0.05341828 0.056011345 0.04925074
0.16806771 0.0059178793 1.6416537e-06 0.08042736 5.3957778e-05 0.034831528 -0.0142628765 0.061919335
-0.0093043 0.30622396 0.031587884 -0.06332392 0.4014911 0.22821733 -0.0037604722 0.06553621
-0.06332392 2.5710478 1.1435912 -0.0027013875 -5.658028e-05 -0.0011837491 -0.005208263 -0.00024206749
0.00068065507 -0.00071331544 -0.0006272539 -0.0021944698 6.187066e-05 -2.0904583e-08 -0.0012847976 -6.873058e-07
-0.00044356758 0.0001822621 -0.0027013875 0.00011877636 -0.0053737676 -0.00040221843 0.0012683339 -0.006592525
-0.0039229942 4.837903e-05 -0.0007142914 0.0012683339 -0.041464828 -0.015970908 -0.013341954 0.004967114
0.0056908126 0.017832037 -0.005493112 -0.043668866 0.002724881 0.0141174 0.01772286 -0.009657543
1.3441988e-08 0.004319907 4.4234199e-07 0.0038386888 -0.019461833 -0.013341954 -0.0075809197 0.025871592
0.0016100403 -0.004398661 -0.0013519188 0.0075811455 -0.0030375866 0.014788837 -0.004398661 0.06981214
-0.23491232 -0.22996967 -0.029509952 -0.034068424 -0.4132708 0.033373553 0.2738182 -0.0028869903
0.056736406 -0.045399234 0.057591204 -8.45413e-06 -0.07094337 -2.783254e-06 0.0052740276 0.1213518
-0.22996967 0.046432856 -0.6069747 -0.0016286579 0.047078326 -0.50978744 -0.57256323 0.0199423
0.047825873 0.047078326 0.21390648 2.8028135 -0.0014175763 -3.003718e-05 -0.0006218855 -0.0027334364
-0.00012742855 0.00035680828 -0.00037430882 -0.00032888653 -0.0011522484 3.2067597e-05 -1.0974494e-08 -0.00067361543
-3.6023448e-07 -0.00023268796 9.514187e-05 -0.0014175763 6.2019004e-05 -0.0028205328 -0.00021104404 0.0006649469
-0.0034597218 -0.0020585705 2.4825764e-05 -0.00037450437 0.0006649469 -0.02176899 -0.008413566 0.29517475
-0.00053045416 0.11120211 0.49951386 0.0328201 -0.00067487836 0.06351845 0.046888914 0.19650787
0.008778358 2.0713605e-08 0.12736125 6.808956e-05 0.028843863 0.011886664 0.29517475 -0.00011795613
0.5051317 0.033772234 -0.12415934 0.679048 0.38339084 -4.8294605e-05 0.050105453 -0.12415934
4.112442 2.0091605 -0.31270525 -0.010342121 -0.14415854 -0.60501736 0.0076629026 0.080807894
-0.084573716 -0.07445164 -0.2695867 0.034932155 -2.4789902e-06 -0.17804919 -8.1843646e-05 -0.05260874
0.036124315 -0.31270525 0.014146926 -0.62563485 -0.04768342 0.18235712 -0.8019567 -0.49413893
0.0058749747 -0.08478894 0.18235712 -4.847536 -1.8768108 0.0114717325 -0.45073408 -1.036898
-1.458442 -0.060513478 0.0030025982 -0.17662048 -0.14390503 -1.4465847 0.068119645 -9.217235e-06
-0.49410665 -0.00030356596 -0.04444804 -0.041965205 0.0114717325 0.0005247373 -2.2888348 -0.10152151
0.1393092 -2.3918598 -1.4539707 0.00021555737 -0.165615 0.1393092 -22.38097 -5.8732243
-0.15367755 -0.003129559 -0.06724616 -0.29044977 -0.0075050136 0.038866203 -0.040641174 -0.035804186
-0.12319179 0.0098159835 -1.1905984e-06 -0.077494055 -3.9353665e-05 -0.025288368 0.016703615 -0.15367755
0.006830127 -0.3036974 -0.022917205 0.07705017 -0.37782142 -0.22748585 0.0028809619 -0.04077575
0.07705017 -2.3392813 -0.9009855 -0.0012446005 0.004580961 0.005768788 0.024852937 -0.007429198
-0.07172311 0.012390448 0.0027563998 0.03241037 -0.014271193 2.2057034e-08 -0.0009627556 7.2616666e-07
00000000: 219f 7d3d 9988 d33c 0f70 d73d a7c0 973e
00000010: 7910 9c3c 20cd 5abd 276c 653d 25bb 493d
00000020: f119 2c3e c5ea c13b cb56 dc35 1ab7 a43d
00000030: b950 6238 81ab 0e3d d7ae 69bc 219f 7d3d
00000040: 1071 18bc 63c9 9c3e 4c62 013d f9af 81bd
00000050: 3e90 cd3e ceb1 693e 4172 76bb d937 863d
00000060: f9af 81bd 0c8c 2440 3261 923f c309 31bb
00000070: 9d50 6db8 0728 9bba 14aa aabb 7fd3 7db9
00000080: fd6d 323a cafd 3aba 4c6e 24ba 18d1 0fbb
00000090: 8fc0 8138 aa91 b3b2 a766 a8ba 4c7f 38b5
000000a0: a28e e8b9 9c1d 3f39 c309 31bb 9317 f938
000000b0: 6e16 b0bb d8e0 d2b9 393e a63a 1c06 d8bb
000000c0: 768c 80bb 97ea 4a38 493f 3bba 393e a63a
000000d0: 06d7 29bd 6cd5 82bc 3698 5abc 2cc3 a23b
000000e0: ff79 ba3b 7e14 923c 90ff b3bb 20de 32bd
000000f0: eb93 323b ab4c 673c 882f 913c ac3a 1ebc
00000100: 7dee 6632 028e 8d3b 057b ed34 8392 7b3b
00000110: 6c6e 9fbc 3698 5abc 5d69 f8bb a9f0 d33c
00000120: fd07 d33a a522 90bb de32 b1ba 426b f83b
00000130: 3f12 47bb e14c 723c a522 90bb abf9 8e3d
00000140: db8c 70be 2b7d 6bbe dbbe f1bc 558b 0bbd
00000150: 3b98 d3be b5b2 083d e631 8c3e a933 3dbb
00000160: 6f64 683d 8cf4 39bd c1e4 6b3d 36d6 0db7
00000170: c24a 91bd f1c7 3ab6 c0d1 ac3b 4b87 f83d
00000180: 2b7d 6bbe 6130 3e3d b262 1bbf b178 d5ba
00000190: 34d5 403d 6e81 02bf 8193 12bf 095e a33c
000001a0: 10e5 433d 34d5 403d 4d0a 5b3e 4c61 3340
000001b0: f8cd b9ba 5af8 fbb7 0806 23ba 7423 33bb
000001c0: 579e 05b9 ff11 bb39 e13e c4b9 676e acb9
000001d0: 0a07 97ba 5280 0638 568a 3cb2 9195 30ba
000001e0: 4066 c1b4 b3fd 73b9 e786 c738 f8cd b9ba
000001f0: 3310 8238 b0d8 38bb b44b 5db9 d54f 2e3a
00000200: 80bc 62bb 15e9 06bb ec40 d037 2059 c4b9
00000210: d54f 2e3a e254 b2bc 0ed9 09bc 2521 973e
00000220: 2d0e 0bba efbd e33d 48c0 ff3e 5f6e 063d
00000230: 52ea 30ba f615 823d 970e 403d 5c39 493e
00000240: 1ad3 0f3c b3ed b132 fd6a 023e 4ecb 8e38
00000250: f749 ec3c 48c0 423c 2521 973e 375f f7b8
00000260: 5050 013f c154 0a3d 4147 febd 17d6 2d3f
00000270: ce4b c43e f08f 4ab8 603b 4d3d 4147 febd
00000280: 2099 8340 1696 0040 e71a a0be 0072 29bc
00000290: 4c9e 13be 6be2 1abf 1619 fb3b 9c7e a53d
000002a0: fc34 adbd 1a7a 98bd 4507 8abe 0515 0f3d
000002b0: ba5c 26b6 8752 36be 79a3 abb8 437c 57bd
000002c0: 17f7 133d e71a a0be 82c8 673c 9b29 20bf
000002d0: b14f 43bd d3bb 3a3e 094d 4dbf c7ff fcbe
000002e0: dc82 c03b d3a5 adbd d3bb 3a3e 041f 9bc0
000002f0: 563b f0bf eff3 3b3c 9ec6 e6be 13b9 84bf
00000300: 3aae babf fbdc 77bd 3dc7 443b 00dc 34be
00000310: d75b 13be b029 b9bf 5082 8b3d b9a3 1ab7
00000320: 8cfb fcbe ef27 9fb9 260f 36bd b5e3 2bbd
00000330: eff3 3b3c 868e 093a 457c 12c0 82ea cfbd
00000340: 12a7 0e3e 3b14 19c0 b61b babf 3e07 6239
00000350: fb96 29be 12a7 0e3e 3a0c b3c1 74f1 bbc0
00000360: a65d 1dbe 4a19 4dbb 5bb8 89bd d5b5 94be
00000370: 9eec f5bb 2b32 1f3d 5c77 26bd 69a7 12bd
00000380: fa4b fcbd 38d3 203c a6cc 9fb5 34b5 9ebd
00000390: ad0f 25b8 8d29 cfbc 05d6 883c a65d 1dbe
000003a0: 42cf df3b 3a7e 9bbe ddbc bbbc 7bcc 9d3d
000003b0: cf71 c1be 0df2 68be 85ce 3c3b 7904 27bd
000003c0: 7bcc 9d3d c9b6 15c0 fca6 66bf dd21 a3ba
000003d0: e31b 963b 1a08 bd3b 6398 cb3c a170 f3bb
000003e0: 91e3 92bd 4e01 4b3c b7a4 343b bcc0 043d
000003f0: b9d1 69bc ee77 bd32 6f61 7cba cbed 4235

exp_avg_sq f4 [64, 27]
1.0297604 0.0793431 0.30778354 0.6090837 0.03715084 0.020501692 0.055164937 0.08107359
0.77538013 0.058878142 6.3814973e-06 0.33988866 1.3001994e-06 0.054146644 0.03563614 1.0297604
0.021948317 2.1922781 0.051917072 0.14088698 2.0902443 1.3601619 0.0331896 0.08310083
0.14088698 351.38287 184.84514 0.00020528614 1.518006e-05 5.65007e-05 0.00013658848 6.663417e-06
3.6883564e-06 9.885749e-06 1.4499354e-05 0.00013876501 1.0973548e-05 2.9901102e-09 6.0964856e-05 2.6975602e-10
9.6785925e-06 6.3993302e-06 0.00020528614 3.9424913e-06 0.0004242126 9.31169e-06 3.2827444e-05 0.00040675545
0.00027296276 5.9389913e-06 1.51020295e-05 3.2827444e-05 0.06439725 0.03309262 0.0068305596 0.0028586725
0.0028734724 0.029460493 0.016762543 0.012469611 7.0544476e-05 0.0053031635 0.021197317 0.024001328
5.4444502e-08 0.0006072458 2.703014e-10 5.680535e-05 0.016716404 0.0068305596 0.013365565 0.03002552
5.961683e-05 0.007836142 0.025937887 0.0018767833 0.020278435 0.005314541 0.007836142 7.988917
100.06662 2.1502326 0.08370882 0.08426903 3.5064723 0.61674494 0.44430766 0.00012756197
0.07567834 0.7629676 0.8950631 1.9321269e-05 1.382447 2.4501154e-09 0.021578757 0.61182946
2.1502326 0.49148357 5.0162015 0.00011992607 0.26515552 4.8496723 3.82496 0.76899475
0.07572221 0.26515552 357.3483 3723.982 5.5303386e-05 4.079923e-06 1.5213065e-05 3.6779027e-05
1.7899059e-06 9.886066e-07 2.6574978e-06 3.9003858e-06 3.7333502e-05 2.951914e-06 4.1282197e-10 1.6383146e-05
6.80781e-11 2.6033822e-06 1.717554e-06 5.5303386e-05 1.0580148e-06 0.00011422743 2.5018921e-06 8.845379e-06
0.000109512875 7.346264e-05 1.597306e-06 4.0586697e-06 8.845379e-06 0.017325217 0.00889539 1.8951784
0.13375477 0.51816016 1.201932 0.01677668 3.422983e-06 0.09153941 0.118196286 1.23422
0.037355572 4.7408157e-06 0.5658663 2.2947786e-06 0.08833663 0.01461254 1.8951784 3.6605948e-06
3.858279 0.08653018 0.28669798 3.7037969 2.5347488 5.524347e-06 0.124372795 0.28669798
576.86584 34.84476 2.6650827 0.18692583 0.71820945 1.7578439 0.064796716 0.047555834
0.12783648 0.18788023 1.7696009 0.12261029 3.472516e-06 0.7870512 2.946555e-06 0.12549733
0.0636423 2.6650827 0.05087958 5.4955745 0.12032017 0.4268343 5.265841 3.545771
0.07691215 0.19534428 0.4268343 827.9277 428.4597 1.2746701 1.1133697 7.3445344
8.842516 0.16346455 6.158675e-05 0.7003007 0.89167076 19.25243 0.5580691 2.6150643e-05
7.5491176 3.5293288e-05 0.43319315 0.15254238 1.2746701 6.593016e-05 31.622852 0.61692804
0.8272996 31.421366 28.510246 9.98331e-05 1.0180423 0.8272996 5665.447 267.0155
0.62223446 0.04585892 0.17094877 0.41417876 0.018263578 0.011125919 0.029871967 0.043894693
0.41794282 0.031864222 1.5211959e-06 0.18489775 6.954625e-07 0.029319832 0.01767804 0.62223446
0.011896881 1.2881356 0.028119333 0.09991373 1.234467 0.8295026 0.017971294 0.045637827
0.09991373 194.80711 100.098724 0.019921312 0.00877499 0.00881404 0.08985089 0.04798968
0.035712976 0.0015338839 0.02079838 0.06190879 0.06855111 5.991325e-06 0.004907909 2.1565019e-10
00000000: 30cf 833f a37e a23d ce95 9d3e e9ec 1b3f
00000010: 7b2b 183d 2af3 a73c a1f4 613d e909 a63d
00000020: 507f 463f 352a 713d a520 d636 e305 ae3e
00000030: 8382 ae35 dfc8 5d3d 33f7 113d 30cf 833f
00000040: f5cc b33c 494e 0c40 ffa6 543d ad44 103e
00000050: 90c6 0540 c919 ae3f d1f1 073d c530 aa3d
00000060: ad44 103e 02b1 af43 5bd8 3843 1442 5739
00000070: dcad 7e37 2afb 6c38 3139 0f39 5196 df36
00000080: 7b85 7736 f8da 2537 4042 7337 7381 1139
00000090: 081b 3837 937a 4d31 84b4 7f38 c94c 942f
000000a0: 3d61 2237 d4b9 d636 1442 5739 be49 8436
000000b0: da68 de39 6739 1c37 33b0 0938 cb41 d539
000000c0: 711c 8f39 8c47 c736 b95e 7d37 33b0 0938
000000d0: b5e2 833d 218c 073d e3d2 df3b 9158 3b3b
000000e0: de50 3c3b 2257 f13c 9a51 893c 574d 4c3c
000000f0: 47f1 9338 29c6 ad3b ffa5 ad3c 6f9e c43c
00000100: 5dd6 6933 932f 1f3a 8a99 942f 4842 6e38
00000110: d7f0 883c e3d2 df3b 3efb 5a3c 14f8 f53c
00000120: 150d 7a38 2963 003c b17b d43c 66fe f53a
00000130: f61e a63c 9a25 ae3b 2963 003c 35a5 ff40
00000140: 1c22 c842 699d 0940 886f ab3d 3e95 ac3d
00000150: 0b6a 6040 ffe2 1d3f 4b7c e33e 28c2 0539
00000160: 3ffd 9a3d d851 433f db22 653f 1c14 a237
00000170: 06f4 b03f e35e 2831 efc5 b03c dba0 1c3f
00000180: 699d 0940 bca3 fb3e b984 a040 d280 fb38
00000190: 77c2 873e 8430 9b40 25cc 7440 d7dc 443f
000001a0: 3f14 9b3d 77c2 873e 95ac b243 b6bf 6845
000001b0: 8ff5 6738 46e6 8836 9e3b 7f37 2e43 1a38
000001c0: b33c f035 44b0 8435 7757 3236 0fe0 8236
000001d0: 8b96 1c38 7f19 4636 87f3 e22f 8a6e 8937
000001e0: 90b4 952e c4b5 2e36 b586 e635 8ff5 6738
000001f0: 1d01 8e35 628d ef38 2ee6 2736 9d66 1437
00000200: 47aa e538 f40f 9a38 0463 d635 b52f 8836
00000210: 9d66 1437 9ded 8d3c f8bd 113c 3595 f23f
00000220: 03f7 083e 25a6 043f e8d8 993f 3f6f 893c
00000230: 66b6 6536 0479 bb3d e510 f23d ecfa 9d3f
00000240: 2802 193d 4c13 9f36 9ddc 103f ffff 1936
00000250: d6e9 b43d 6f69 6f3c 3595 f23f 8aa8 7536
00000260: 0bee 7640 bc36 b13d 14ca 923e 020b 6d40
00000270: 5339 2240 c85d b936 2ab7 fe3d 14ca 923e
00000280: 6a37 1044 0961 0b42 b790 2a40 7c69 3f3e
00000290: 93dc 373f 0701 e13f 24b4 843d e8c9 423d
000002a0: 91e7 023e ad63 403e 4882 e23f 1b1b fb3d
000002b0: 5f09 6936 307c 493f 6ebd 4536 5f82 003e
000002c0: e556 823d b790 2a40 1b67 503d bfdb af40
000002d0: 6c6a f63d 068a da3e c581 a840 e9ed 6240
000002e0: 1e84 9d3d 5508 483e 068a da3e 5ffb 4e44
000002f0: d73a d643 6428 a33f e682 8e3f 6d06 eb40
00000300: f27a 0d41 4063 273e 2228 8138 e846 333f
00000310: 8944 643f fa04 9a41 9edd 0e3f 145e db37
00000320: 5f92 f140 e107 1438 7ecb dd3e 1234 1c3e
00000330: 6428 a33f fc43 8a38 9afb fc41 ffee 1d3f
00000340: e8c9 533f f55e fb41 fc14 e441 7d5d d138
00000350: 364f 823f e8c9 533f 930b b145 fc81 8543
00000360: c24a 1f3f 90d6 3b3d 320d 2f3e 3d0f d43e
00000370: 809d 953c 7d49 363c 0eb6 f43c ecca 333d
00000380: 9afc d53e 0f84 023d e52b cc35 d655 3d3e
00000390: d2af 3a35 2530 f03c 89d1 903c c24a 1f3f
000003a0: 23eb 423c a1e1 a43f 845a e63c 929f cc3d
000003b0: 0403 9e3f 485a 543f 8938 933c bbee 3a3d
000003c0: 929f cc3d 9fce 4243 8c32 c842 0532 a33c
000003d0: fac4 0f3c c368 103c be03 b83d d490 443d
000003e0: c547 123d 9a0c c93a 5d61 aa3c 1294 7d3d
000003f0: 8664 8c3d 1709 c936 86d2 a03b 221c 6d2f

exp_avg f4 [64]
0.30622387 -0.0053737685 0.025871592 -0.6069746 -0.0028205328 0.50513154 -0.6256348 -2.2888346
-0.30369738 0.042193253 0.52635574 0.015638221 0.5163624 -1.1945125 0.00362061 -0.898832
-0.003402333 0.022230143 0.08101686 0.803483 -0.22838043 0.51894546 0.64246225 1.4612514
-0.08050493 0.7803887 0.38390788 0.5396586 -0.21631928 0.49319106 0.0019473176 0.735469
0.2523701 0.024965338 -0.004219299 -0.47921586 0.001742022 -0.0049850033 -0.9200451 0.49783978
0.29788354 -0.3789216 -0.24861485 0.5442085 0.4460169 -0.2719727 0.45842153 -0.98742145
0.032682333 0.5854006 0.48767892 -0.42626223 0.32534024 0.6151661 -0.18611982 -0.33160377
0.01386486 0.52731967 0.4933971 0.8845109 0.024821144 -0.32900158 0.003394328 -0.53239816
00000000: 60c9 9c3e 7016 b0bb a9f0 d33c b062 1bbf
00000010: b0d8 38bb 4d50 013f 9a29 20bf 447c 12c0
00000020: 397e 9bbe d5d2 2c3d 40bf 063f ba1b 803c
00000030: 5430 043f c9e5 98bf c247 6d3b db19 66bf
00000040: adf9 5ebb fd1b b63c 2bec a53d 10b1 4d3f
00000050: 8fdc 69be 9cd9 043f 6878 243f 490a bb3f
00000060: c5df a4bd 8ec7 473f 938f c43e 1127 0a3f
00000070: cd82 5dbe 8a83 fc3e 233d ff3a b247 3c3f
00000080: a736 813e 1c84 cc3c 0c42 8abb c85b f5be
00000090: 8f54 e43a 3d59 a3bb 1388 6bbf dbe4 fe3e
000000a0: 3184 983e 0302 c2be e494 7ebe 4051 0b3f
000000b0: 545c e43e 0140 8bbe 3ab6 ea3e a7c7 7cbf
000000c0: e9dd 053d d0dc 153f 0db1 f93e 0b3f dabe
000000d0: ff92 a63e 877b 1d3f 3296 3ebe f8c7 a9be
000000e0: 7029 633c 6cfe 063f 8b9e fc3e 4e6f 623f
000000f0: b655 cb3c e572 a8be 6073 5e3b 3f4b 08bf

exp_avg_sq f4 [64]
2.1922781 0.00042421263 0.03002552 5.016202 0.00011422741 3.8582792 5.4955745 31.62285
1.2881355 0.091780365 4.024338 0.005506003 3.9766366 21.066769 0.00018454461 8.246306
0.00016782439 0.111652926 0.06516473 7.751044 0.64656657 2.6184232 6.4824038 35.86575
0.037502464 5.8511043 2.3486657 4.2793417 0.44148776 3.9825416 5.108756e-05 7.9324965
0.9302656 0.47985744 0.00025975335 2.2612436 4.2762967e-05 0.00027954867 27.794008 3.63409
1.3415153 29.846977 1.1242359 7.4485393 2.9022233 1.019738 2.926105 20.730497
0.04698895 4.9290557 3.4865522 1.2908666 1.553905 5.561061 0.5045986 1.261802
0.10533476 4.25581 3.6237795 9.190065 0.064202376 0.81424814 0.00016111099 4.0568504
00000000: 494e 0c40 db68 de39 14f8 f53c ba84 a040
00000010: 608d ef38 0cee 7640 bfdb af40 99fb fc41
00000020: a0e1 a43f 58f7 bb3d 60c7 8040 b36b b43b
00000030: 3781 7e40 be88 a841 5182 4139 dff0 0341
00000040: 04fa 2f39 4aaa e43d 1675 853d 8d08 f840
00000050: 6385 253f 3f94 2740 da6f cf40 8776 0f42
00000060: 2f9c 193d 3f3c bb40 8a50 1640 5ef0 8840
00000070: af0a e23e f6e1 7e40 da46 5638 03d7 fd40
00000080: e325 6e3f e0af f53e 812f 8839 37b8 1040
00000090: 635c 3338 6390 9239 215a de41 ee94 6840
000000a0: c6b6 ab3f 9cc6 ee41 f6e6 8f3f 6f5a ee40
000000b0: 07be 3940 c686 823f 4e45 3b40 0fd8 a541
000000c0: 7c77 403d d3ba 9d40 ac23 5f40 1e3b a53f
000000d0: 5ce6 c63f 36f4 b140 602d 013f ba82 a13f
000000e0: c0b9 d73d 982f 8840 01ec 6740 820a 1341
000000f0: 897c 833d 9172 503f e7ef 2839 b8d1 8140

exp_avg f4 [1, 64]
1.8008845 -0.057546515 -1.1905472 0.8685802 -0.033821877 2.2345347 1.8394157 1.1904103
3.3295224 -0.752834 4.8352733 -0.031734444 1.9761608 1.9009118 -0.025405945 0.91504776
-0.058840342 -0.7134279 -0.23077272 -0.022180391 0.058887403 1.960653 1.5189216 0.19914919
0.032563105 1.1514467 2.7973733 5.15193 1.0085394 2.3916957 -0.02989837 1.5316098
6.517554 0.55146825 -0.050669115 0.9121927 -0.025314612 -0.038603425 0.2646471 5.2613645
1.9004334 0.9708156 1.6352232 -1.0402452 5.3578296 1.9066473 2.5237334 0.29026923
-0.8140298 3.274442 3.290874 0.89890695 2.5290654 1.6349167 2.5045316 1.7212449
0.6468479 3.030549 6.462459 0.936922 -1.0469049 0.76540595 -0.04017903 1.8336443
00000000: 6283 e63f e5b5 6bbd da63 98bf 465b 5e3f
00000010: cf88 0abd 9e02 0f40 f971 eb3f 5d5f 983f
00000020: e516 5540 bbb9 40bf 8fba 9a40 fafb 01bd
00000030: d6f2 fc3f 1451 f33f 2120 d0bc 9240 6a3f
00000040: 9202 71bd 36a3 36bf af4f 6cbe a7b3 b5bc
00000050: eb33 713d adf6 fa3f 066c c23f c4ed 4b3e
00000060: e460 053d 9b62 933f 2a08 3340 9cdc a440
00000070: d217 813f 8b11 1940 6ded f4bc ca0b c43f
00000080: cd8f d040 062d 0d3f 6b8a 4fbd 7685 693f
00000090: 9760 cfbc a01e 1ebd d37f 873e 195d a840
000000a0: 6741 f33f 5f87 783f fe4e d13f c126 85bf
000000b0: 5773 ab40 050d f43f d984 2140 2b9e 943e
000000c0: 4264 50bf 7590 5140 ae9d 5240 c41e 663f
000000d0: 35dc 2140 f344 d13f 3f4a 2040 c151 dc3f
000000e0: d397 253f 84f4 4140 77cc ce40 1fda 6f3f
000000f0: fb00 86bf a5f1 433f c492 24bd dbb4 ea3f

exp_avg_sq f4 [1, 64]
359.5242 0.11466915 269.23404 3.943245 0.046712346 202.4428 67.69667 3.9379916
363.44113 89.57327 853.28076 0.078421324 173.20883 73.80242 0.02372127 2.9744463
0.1310262 30.226368 332.29855 161.8641 0.060027633 114.967766 125.28914 84.38494
0.059245355 238.74965 619.46454 1026.5302 136.82935 605.82043 0.039235488 61.960575
1548.0205 2.130772 0.07363963 3.7621644 0.024802221 0.059792716 3.7047312 974.6056
388.0508 1.5975764 195.48816 68.57277 955.2997 147.73619 322.73404 1.6053424
115.36921 341.56497 368.1792 27.946701 354.1033 102.40416 386.46042 94.87016
2.5620396 377.09705 1166.33 60.75889 174.70192 59.64743 0.035681836 229.19563
00000000: 19c3 b343 a9d7 ea3d f59d 8643 205e 7c40
00000010: 7255 3f3d 5b71 4a43 b264 8742 0e08 7c40
00000020: 77b8 b543 8425 b342 f851 5544 5c9b a03d
00000030: 7635 2d43 d79a 9342 1c53 c23c 545d 3e40
00000040: bb2b 063e 9acf f141 3726 a643 36dd 2143
00000050: 89df 753d 7fef e542 0a94 fa42 17c5 a842
00000060: 42ab 723d e9bf 6e43 bbdd 1a44 f750 8044
00000070: 50d4 0843 8274 1744 64b5 203d a1d7 7742
00000080: a880 c144 925e 0840 60d0 963d 4dc7 7040
00000090: 072e cb3c 35e9 743d 511a 6d40 c2a6 7344
000000a0: 8106 c243 627d cc3f f87c 4343 4225 8942
000000b0: 2ed3 6e44 77bc 1343 f55d a143 dc7b cd3f
000000c0: 09bd e642 51c8 aa43 f016 b843 d892 df41
000000d0: 390d b143 eece cc42 ef3a c143 86bd bd42
000000e0: 75f8 2340 6c8c bc43 8fca 9144 1a09 7342
000000f0: b1b3 2e43 f896 6e42 1e27 123d 1532 6543
