src/hero/experiments/justification/models/NoBTCNN_MediumFCNN_3.pth (torch, 591498 bytes, 21 tensors)

fcnn.0.weight f4 [256, 27]
0	0x3d67bddd	0.056577552
1	0xbcf8b2a4	-0.03035862
2	0x3dc2b9c4	0.09508088
3	0x3d260ddb	0.040540557
4	0xbd93a0a9	-0.07208378
5	0x3e81ee9a	0.2537735
6	0x3e2c817c	0.1684627
7	0x3e0d747d	0.13813968
8	0xbde22767	-0.11042672
9	0x3e1c4fd8	0.15264833
10	0xbdeb779e	-0.114974245
11	0xbdcb67d2	-0.099319115
12	0x3d329cc9	0.043606553
13	0x3e26ecc0	0.1630125
14	0xbe2a275f	-0.16616581
15	0x3d82561a	0.06364079
16	0x3e26451b	0.16237299
17	0xbda61264	-0.081089765
18	0xbec98678	-0.39360404
19	0xbcf304de	-0.029665407
20	0x3e16c9c3	0.14725403
21	0x3c438553	0.011933642
22	0xbd63399d	-0.055474866
23	0x3dcfbaaa	0.10143025
24	0xbb48dc1e	-0.0030648778
25	0x3c2a4394	0.010392088
26	0xbe2d7572	-0.16939333
27	0xb9d4fa2e	-0.0004062219
28	0xbd982cbf	-0.0743041
29	0x3e36d8fd	0.17856212
30	0xbdae67d0	-0.085158944
31	0x3d6156b8	0.055014342
32	0x3dfcf5ab	0.12351545
33	0xbdcfa03f	-0.101379864
34	0xbd0cad9c	-0.034345254
35	0x3d1eccb0	0.038769424
36	0xbdcbbe42	-0.09948398
37	0x3d35d01e	0.04438793
38	0x3db522d6	0.08844535
39	0x3e3df2e8	0.18549693
40	0xbe8597aa	-0.26092273
41	0x3e39f3f8	0.18159473
42	0x3d6ab825	0.05730452
43	0xbe3af20d	-0.18256398
44	0x3bbf30d1	0.005834677
45	0xbc976cb2	-0.018484447
46	0xbe9973d5	-0.29971185
47	0x3da0a2e8	0.07843572
48	0x3e24d011	0.16094996
49	0xbe218baf	-0.15775941
50	0xbe2c906e	-0.1685197
51	0xbe00471e	-0.12527129
52	0x3d865c21	0.06560541
53	0x3cf2948d	0.02961185
54	0x3e4ab111	0.19794108
55	0x3e0f603f	0.14001559
56	0xbb4ac691	-0.0030941109
57	0xbb2cc731	-0.0026363845
58	0xbe55f5e8	-0.20894587
59	0xbe9d034b	-0.30666575
60	0xbe2cab29	-0.16862167
61	0x3e6693e4	0.22517353
62	0xbc6b7fcb	-0.01437373
63	0xbdde74c5	-0.10862116
64	0xbd4a6996	-0.0494171
65	0xbdc385f7	-0.09547036
66	0x3e733751	0.2375157
67	0x3ee9a049	0.456301
68	0xbe5db615	-0.2165149
69	0x3dfb9f02	0.12286188
70	0x3de1753f	0.11008691
71	0x3e211237	0.15729605
72	0xbe60484a	-0.21902576
73	0x3d14214b	0.036164563
74	0xbd50ab65	-0.050944705
75	0xbbe51634	-0.006991172
76	0x3dd3b00c	0.10336313
77	0x3ec22b27	0.37923548
78	0x3dbbfdf9	0.09179301
79	0xbe0d3641	-0.13790227
80	0x3d35bf25	0.044371743
81	0xbcfd031e	-0.030885275
82	0xbe68216e	-0.22669002
83	0xbe8f160c	-0.27946508
84	0x3dd1a751	0.10236991
85	0xbcec1a93	-0.028821265
86	0xbdcfef59	-0.10153074
87	0x3ea8834d	0.32912675
88	0xbdab0888	-0.083512366
89	0xbdac2c27	-0.08406859
90	0xbdbcab56	-0.09212367
91	0xbb5bc083	-0.0033531494
92	0x3d4ff860	0.05077398
93	0x3b949410	0.004534252
94	0xbda79e0c	-0.08184442
95	0xbe8de34f	-0.27712485
96	0x3ca428d7	0.020039005
97	0xbe8a0f88	-0.26964974
98	0xbdc7e991	-0.09761346
99	0x3d9e2e88	0.07723719
100	0x3e2cb5bf	0.16866206
101	0xbdf668e1	-0.12031723
102	0xbdeebb3d	-0.116568066
103	0xbe4885aa	-0.19582239
104	0x3e0f66dc	0.14004081
105	0x3e6b23a3	0.22962813
106	0xbe075d3c	-0.1321916
107	0x3de4032a	0.11133416
108	0x3d9a7315	0.075414814
109	0x3e0f6fa2	0.14007428
110	0x3e2103d6	0.1572412
111	0x3e725868	0.23666537
112	0xbdb9be29	-0.09069473
113	0xbe9394d8	-0.28824496
114	0x3d9cb1b6	0.07651083
115	0xbe0fb341	-0.14033224
116	0xbe48b4bd	-0.19600196
117	0x3f8ce069	1.1005985
118	0x3e2171ec	0.15766114
119	0xbcae8a9a	-0.021306325
120	0x3de1205c	0.109925
121	0xbd98d727	-0.07462912
122	0xbd830143	-0.06396725
123	0x3dc9aff3	0.09848013
124	0xbd5c6726	-0.053809308
125	0x3dc19cf5	0.09453765
126	0x3d3938a2	0.045220025
127	0xbd74c26f	-0.05975574
128	0xbccc638c	-0.024949811
129	0xbc025f32	-0.007957267
130	0x3d776d03	0.060406696
131	0x3f39345a	0.7234551
132	0xbd0ef73f	-0.03490376
133	0xbddffc1e	-0.109367594
134	0xbc754d39	-0.014972025
135	0x3de5a0aa	0.11212285
136	0xbe923944	-0.28559315
137	0x3daf4cff	0.08559608
138	0xbc46af01	-0.012126685
139	0xbe2b902d	-0.16754217
140	0x3e543fd1	0.20727469
141	0x3e643de1	0.2228923
142	0x3e56ffd8	0.20996034
143	0xbdd4edc0	-0.1039691
144	0x3d32d875	0.04366346
145	0xbdebdb34	-0.11516419
146	0x3ddfa9d9	0.10921068
147	0xbe8a1e39	-0.26976183
148	0x3e3ab19d	0.18231817
149	0x3da6595f	0.08122515
150	0xbe6bd0f2	-0.23028925
151	0xbd8a5f5d	-0.0675647
152	0xbd45c14e	-0.048280053
153	0xbe97acd2	-0.2962404
154	0xbd0f34ef	-0.03496259
155	0xbd85ffb5	-0.06542913
156	0x3e6896ab	0.22713725
157	0x3e0b3889	0.13595785
158	0x3d9c7548	0.07639557
159	0x3e3e172e	0.1856353
160	0x3cbc1cc7	0.02296294
161	0xbd9eeb3c	-0.07759711
162	0xbe4782ed	-0.19483538
163	0xbd8b13df	-0.067908995
164	0xbc4e09af	-0.012575551
165	0xbdcfb361	-0.10141636
166	0xbda0ee18	-0.07857913
167	0xbe8ca878	-0.2747228
168	0x3d4b95dd	0.049703468
169	0xbe1f6bdc	-0.15568489
170	0x3e1ad8d0	0.1512177
171	0xbe6ca497	-0.23109661
172	0xbb7136f6	-0.003680644
173	0x3e645143	0.22296624
174	0xbe1cd78e	-0.15316603
175	0xbdd39b06	-0.10332303
176	0xbd8a2d3c	-0.06746909
177	0x3e1f0250	0.15528226
178	0x3e477a2e	0.19480202
179	0x3dbb872e	0.09156643
180	0x3e456867	0.19278108
181	0xbd2f6756	-0.04282316
182	0xbcaba4c2	-0.020952586
183	0xbc83c04b	-0.016082903
184	0x3dd4fff8	0.10400385
185	0x3db99024	0.09060696
186	0xbe98736c	-0.2977556
187	0x3c4e63cf	0.012597038
188	0x3c083cc2	0.008315267
189	0xbe076fa5	-0.13226183
190	0xbe2800af	-0.16406511
191	0xbd64220d	-0.055696536
192	0x3dc6e742	0.09712078
193	0xbcf057da	-0.029338766
194	0xbe7da7a9	-0.24770989
195	0x3dfd117c	0.123568505
196	0xbda8d5f1	-0.08243931
197	0x3e7d5638	0.24739921
198	0xbe3c4b37	-0.18388067
199	0xbd3f79f8	-0.046747178
200	0xbcec094b	-0.028813025
201	0x3e71b5ba	0.2360448
202	0xbe0e6fee	-0.13909885
203	0x3e85f70c	0.26165044
204	0x3d58a3d7	0.052890625
205	0x3dcbc47f	0.09949588
206	0x3ba3b782	0.004996241
207	0xbe2e4f43	-0.17022423
208	0x3df981c5	0.12182955
209	0x3e053e14	0.13011962
210	0x3d6d18e0	0.05788505
211	0x3e1a8f79	0.15093793
212	0x3df877b4	0.121322066
213	0xbd1fe4a7	-0.03903642
214	0xbba90fe0	-0.005159363
215	0xbcc2f394	-0.023797788
216	0x3bb485e4	0.005509125
217	0xbdf5e488	-0.120064795
218	0x3dbb7096	0.091523334
219	0x3b621297	0.0034495944
220	0xbdd0f3a1	-0.102027185
221	0xbe09a5fe	-0.13442227
222	0xbdba7e52	-0.09106125
223	0xbdf2a9b3	-0.11848774
224	0x3d39e8fe	0.045388214
225	0x3c46c2d2	0.01213141
226	0xbdfc8b9d	-0.123313166
227	0xbcecaa6d	-0.02888986
228	0x3e2bf6e8	0.16793406
229	0x3e92c55e	0.28666204
230	0xbec51d48	-0.38498902
231	0x3e110005	0.14160164
232	0xbd6a0077	-0.05712935
233	0x3e34b6c3	0.17647843
234	0x3dcf3569	0.10117609
235	0xbde748e3	-0.11293199
236	0x3dc2cd93	0.095118664
237	0x3e181806	0.14852914
238	0xbe1add04	-0.15123373
239	0xbdb35e34	-0.08758202
240	0x3da9f6a1	0.08298994
241	0xbe0dc6a6	-0.1384531
242	0x3e05cb79	0.130659
243	0x3e48db0b	0.19614808
244	0x3cf2d26f	0.029641358
245	0xbd182839	-0.037147734
246	0xbdd2fa27	-0.10301619
247	0x3b49ae97	0.003077423
248	0xbdc609e5	-0.09669856
249	0x3ce40f52	0.027839337
250	0xbdaa9c0d	-0.083305456
251	0x3ec379d6	0.3817889
252	0x3b9b2d9c	0.0047356617
253	0x3ddfadcd	0.10921822
254	0x3d94fe5a	0.07275076
255	0x3dff2c7f	0.12459659

fcnn.0.bias f4 [256]
0	0x3e049b8c	0.12949961
1	0xbd1d8208	-0.038454086
2	0x3e142b63	0.14469676
3	0x3dc284a1	0.09497953
4	0x3cc85743	0.024455672
5	0xbccbd07e	-0.02487969
6	0x3dc044c0	0.09388113
7	0xbd393839	-0.045219634
8	0x3d8344ef	0.064096324
9	0xbe1c5636	-0.15267262
10	0x3c13fed7	0.0090329265
11	0xbe20163f	-0.15633486
12	0xbd68cf3e	-0.056838267
13	0x3e39a643	0.1812983
14	0xbe4ef053	-0.20208864
15	0xbc6e36f2	-0.014539467
16	0x3e201db4	0.15636331
17	0x3e3d862d	0.18508215
18	0xbe2745cc	-0.16335219
19	0xbd8d835b	-0.0690982
20	0x3e50c2fc	0.2038688
21	0x3e751386	0.23933229
22	0xbd729bca	-0.059230603
23	0x3e85092e	0.25983566
24	0x3c4a96c5	0.012365048
25	0xbe210495	-0.15724404
26	0xbe2efa1d	-0.17087598
27	0x3e06ca90	0.13163209
28	0x3d2f9ef2	0.04287619
29	0xbd2196ac	-0.039450333
30	0xbba54171	-0.0050432016
31	0x3db75b8c	0.08953008
32	0xbe5f2c1d	-0.21794172
33	0x3cccf860	0.025020778
34	0xbe61f293	-0.22065191
35	0xbe37d5cb	-0.1795265
36	0x3e424633	0.18972091
37	0xbd8dd481	-0.069252975
38	0xbdac35b6	-0.08408682
39	0x3e9034f5	0.28165403
40	0x3e02db19	0.12778892
41	0x3e14c41b	0.14527933
42	0x3e0500fb	0.12988655
43	0x3ba11be9	0.004916657
44	0x3b5e5ed7	0.003393104
45	0xbe6635fd	-0.22481532
46	0x3e070299	0.13184585
47	0x3d24fe3f	0.04028153
48	0xbcd95681	-0.026530506
49	0x3df6b7c8	0.12046772
50	0x3d921749	0.071333475
51	0xbe00c16e	-0.12573788
52	0xbdc197b4	-0.09452763
53	0x3da715ee	0.0815848
54	0xbdfb87d2	-0.12281765
55	0xbde7fc11	-0.11327375
56	0x3e721fde	0.23644969
57	0xbcbb8aa3	-0.022893256
58	0xbcec2daa	-0.028830368
59	0xbd946bb8	-0.07247108
60	0xbe3d8a72	-0.18509844
61	0x3da096bf	0.078412525
62	0xbc11f52f	-0.008908554
63	0xbd5163bd	-0.05112051
64	0xbdfc5de0	-0.12322593
65	0x3d90b387	0.07065492
66	0x3d99c39a	0.07508011
67	0x3cce3910	0.025173694
68	0xbe96581b	-0.29364094
69	0x3b4b0ca7	0.0030982883
70	0xbd10a5db	-0.035314422
71	0x3e89848e	0.26858944
72	0xbe0e5d44	-0.13902766
73	0x3e226aab	0.15861003
74	0x3e15dd3d	0.14635177
75	0xbe34f783	-0.17672543
76	0xbde9d567	-0.114176564
77	0x3e920985	0.28522888
78	0xbbc017d6	-0.0058622165
79	0x3b6bda7d	0.0035988383
80	0x3e6c9f56	0.23107657
81	0x3e7a893a	0.2446641
82	0xbdc15c71	-0.0944146
83	0x3e1603fb	0.14649956
84	0x3cc7e14a	0.024399418
85	0x3dc21ad0	0.0947777
86	0x3da91aee	0.082570896
87	0xbd1c84df	-0.038212653
88	0xbdd22528	-0.10260993
89	0xbe3ed1dc	-0.18634742
90	0xbd9b12a0	-0.07571912
91	0x3e1c859f	0.15285347
92	0xbc54ce67	-0.012988663
93	0x3e135d34	0.14391023
94	0xbe68d257	-0.22736488
95	0x3e0d8891	0.13821627
96	0x3dd5bfce	0.104369745
97	0xbdf1bb15	-0.11803261
98	0xbe20c765	-0.15701063
99	0x3c8f7fd5	0.01751701
100	0xbe33f909	-0.17575468
101	0xbe0f36af	-0.13985704
102	0x3c43db4b	0.011954139
103	0x3e726c5e	0.23674151
104	0x3e2b704f	0.16742061
105	0x3dd379f9	0.10325999
106	0xbd9f76ec	-0.077863544
107	0x3e184616	0.14870486
108	0xbe9664a9	-0.29373673
109	0x3a07b6dd	0.000517709
110	0x3e6a3f14	0.22875625
111	0x3d10106a	0.035171904
112	0x3e070832	0.1318672
113	0x3d82a4c0	0.0637908
114	0x3de1518d	0.11001883
115	0x3c56e267	0.013115502
116	0x3d731cf9	0.059353802
117	0xbd899e3e	-0.067196354
118	0xbe49f076	-0.19720635
119	0x3e11760a	0.14205185
120	0xbdd48fde	-0.10379003
121	0xbbf4e537	-0.0074736136
122	0xbdbf93c6	-0.093543574
123	0x3e5c3393	0.21504049
124	0x3d28dd6c	0.04122679
125	0xbe25aa27	-0.16178189
126	0xbe49b73f	-0.19698809
127	0x3e27c79d	0.1638474
128	0xbb0dcc3f	-0.0021636633
129	0xbdc87cc5	-0.09789423
130	0xbe0dd851	-0.1385205
131	0xbe50a29f	-0.20374535
132	0xbe13ee4d	-0.14446373
133	0xbc0c8529	-0.00857667
134	0xbe5430fe	-0.20721814
135	0x3de5ea56	0.11226337
136	0x3e599c3c	0.21251005
137	0x3e893152	0.2679544
138	0x3e522b44	0.20524317
139	0xbd188be6	-0.037242793
140	0xbe27902f	-0.16363595
141	0x3dd25d0d	0.10271654
142	0x3e8c40df	0.27393243
143	0xbe83f367	-0.2577164
144	0xbd81b6a7	-0.06333666
145	0xbd10aa49	-0.035318647
146	0x3e49431d	0.19654508
147	0x3d11c605	0.035589237
148	0xbe4516a9	-0.19246925
149	0xbdcd2db3	-0.10018482
150	0xbd0e5014	-0.034744337
151	0x3dd39bc9	0.10332448
152	0x3e271075	0.16314872
153	0xbdc841d7	-0.09778183
154	0x3e4be439	0.19911279
155	0xbd7d98d7	-0.061913338
156	0x3e889ebe	0.2668361
157	0xbda394ea	-0.079873875
158	0xbc713030	-0.014720961
159	0x3dbf0149	0.09326417
160	0x3e4fee01	0.20305635
161	0xbe174e77	-0.14776026
162	0x3e311b3d	0.17295547
163	0x3bb12bd5	0.0054068365
164	0x3e172f41	0.1476412
165	0xbdfb7886	-0.122788474
166	0x3cc0f388	0.023553625
167	0x3e228096	0.15869364
168	0x3c222224	0.009895835
169	0x3dc986f3	0.09840193
170	0xbe0bc9d7	-0.13651215
171	0x3e50534f	0.2034428
172	0x3c7c9905	0.015417342
173	0x3d12dcf0	0.035855234
174	0x3db81f28	0.089903176
175	0x3e289309	0.1646234
176	0x3db967a0	0.09052968
177	0xbe55075b	-0.20803587
178	0xbc96b5de	-0.018397268
179	0xbddf4f11	-0.109037526
180	0xbe4b157a	-0.19832411
181	0xbd70dc69	-0.05880395
182	0x3da2fb72	0.07958116
183	0x3ddf768f	0.10911285
184	0x3d0039be	0.031305067
185	0x3e09a999	0.13443603
186	0x3e072713	0.131985
187	0x3d1da503	0.038487446
188	0xbc3a794b	-0.011381458
189	0xbe0089d4	-0.12552577
190	0xbd41327c	-0.047167286
191	0xb9b931ea	-0.0003532314
192	0xbcc96bf6	-0.024587613
193	0x3dcbb031	0.09945715
194	0xbdc86674	-0.097851664
195	0xbd2bd8a1	-0.04195464
196	0x3dbde6f6	0.09272568
197	0xbc3e9be8	-0.011633851
198	0xbc726b65	-0.014796113
199	0x3e39106d	0.18072672
200	0xbdf2e76b	-0.11860546
201	0xbe5d1f7c	-0.21594042
202	0xbe2eab24	-0.17057472
203	0xbe42672f	-0.18984674
204	0xbdf5b9d7	-0.11998337
205	0xbdb18dda	-0.08669634
206	0xbd9a9938	-0.075487554
207	0xbe22f3ea	-0.15913358
208	0xbd9fdbf8	-0.078056276
209	0xbe82e968	-0.255687
210	0xbe215151	-0.15753676
211	0xbe1cdca2	-0.1531854
212	0xbda6868d	-0.08131132
213	0x3e3a393a	0.18185893
214	0x3e510c31	0.20414807
215	0x3d75ef7e	0.06004285
216	0xbdcd99bc	-0.10039088
217	0x3d8a1b9e	0.06743549
218	0x3d4246c4	0.04743077
219	0xbe539d0b	-0.20665376
220	0x3df1e351	0.11810935
221	0xbe37fcc1	-0.17967512
222	0x3b49e7a8	0.0030808244
223	0xbe4a361c	-0.19747204
224	0x3ca69c2a	0.020338137
225	0xbe44185d	-0.19149919
226	0xbe6770e4	-0.22601658
227	0x3c84e63a	0.016223062
228	0x3d923db6	0.07140677
229	0xbe5f70de	-0.21820399
230	0x3e90a37d	0.28249732
231	0xbde2b549	-0.11069734
232	0x3e38bcc7	0.18040763
233	0x3e2c6056	0.16833624
234	0xba8186c2	-0.000988208
235	0xbd8ae3e5	-0.06781749
236	0xbd2b9a7b	-0.04189537
237	0xbdabe769	-0.08393747
238	0x3e0809c6	0.13284978
239	0xbc5d81b9	-0.013519698
240	0x3cacd4b1	0.021097513
241	0xbd8582e7	-0.06519108
242	0x3e85fc28	0.26168942
243	0xbd3e694b	-0.046487134
244	0x3e49bc44	0.19700724
245	0xbd72350e	-0.05913263
246	0xbe11a92e	-0.14224693
247	0xbe12e9e6	-0.14347038
248	0x3e0cf4ff	0.13765334
249	0x3e0cf0cb	0.1376373
250	0x3d87bb7b	0.06627556
251	0xbd9b9961	-0.07597614
252	0x3d98fe73	0.07470407
253	0x3e23c281	0.15992166
254	0x3e2af99b	0.1669678
255	0x3dfefe34	0.12450829

fcnn.2.weight f4 [128, 256]
0	0x3c229b4a	0.009924719
1	0x3ac2efcc	0.001487249
2	0xbe98fea6	-0.2988178
3	0xbd54c487	-0.051945236
4	0xbe2e4421	-0.17018177
5	0x3dbbed49	0.09176118
6	0xbdaaf016	-0.08346574
7	0xbe36cb8f	-0.17851089
8	0xbcc0e00c	-0.023544334
9	0xbcf70603	-0.030154234
10	0xbd466ded	-0.048444677
11	0xbb26a93c	-0.0025430461
12	0xbe3ab21c	-0.18232006
13	0x3d57e5b8	0.05270931
14	0x3c724c30	0.014788672
15	0xbcdfe0eb	-0.027328929
16	0xbd278117	-0.040894594
17	0xbe158577	-0.14601694
18	0xbd4ecc56	-0.05048784
19	0x3c517dc3	0.012786332
20	0xbd8045f7	-0.06263345
21	0xbe70cbc2	-0.23515227
22	0xbbcdf35a	-0.0062851133
23	0x3c19d135	0.009388258
24	0xbd1c2ebd	-0.03813051
25	0xbca5df27	-0.020248009
26	0x3d68eedd	0.056868423
27	0x3ead69e2	0.33869845
28	0x3c629ac4	0.013830844
29	0xbbed15ed	-0.00723528
30	0xbc843d84	-0.016142614
31	0xbd711a6c	-0.05886309
32	0x3e134c0c	0.14384478
33	0xbec27528	-0.37980008
34	0x3ca13669	0.019679265
35	0xbd8115cf	-0.06302988
36	0xbe8552fd	-0.26039878
37	0xbd30ba1e	-0.043146245
38	0x3d769e97	0.060209837
39	0xbd14191a	-0.03615675
40	0x3e065954	0.13120013
41	0x3d8b31c2	0.067966
42	0x3cae8a03	0.021306043
43	0x3cbd5f87	0.02311684
44	0x3ce682ac	0.028138481
45	0xbd26176b	-0.040549677
46	0xbe8698a6	-0.26288337
47	0x3cdf09d0	0.027226359
48	0x3d3d2f15	0.04618748
49	0xbbadd85a	-0.005305332
50	0x3de6ea65	0.11275176
51	0xbe1fdfdf	-0.15612744
52	0x3c093792	0.008375065
53	0x3d7bef32	0.06150741
54	0xbd0c3cea	-0.03423778
55	0x3d046a25	0.03232779
56	0xbceafb22	-0.028684203
57	0xbce3a107	-0.027786745
58	0xbb4a399c	-0.0030857092
59	0xbc237aba	-0.009977991
60	0xbec0d91f	-0.3766565
61	0xbc97dd32	-0.018538091
62	0x3cbf9b24	0.023389407
63	0xb9fe205d	-0.00048470768
64	0xbc709484	-0.014683846
65	0xbc0e4ae3	-0.008684847
66	0x3c8b6495	0.017015735
67	0xbea26395	-0.317166
68	0xbc9da9a7	-0.019245936
69	0xbd575d01	-0.05257893
70	0x3d7574f5	0.059925992
71	0x3d6fa30f	0.058505114
72	0xbd83aca8	-0.06429416
73	0x3ca81790	0.020519048
74	0xbd04e65a	-0.032446243
75	0x3d4805d2	0.048833676
76	0xbd1ee262	-0.038790114
77	0xbeff9e0d	-0.4992527
78	0x3b793a7a	0.003802924
79	0x3dc33278	0.095311105
80	0x3bd9f765	0.006651806
81	0x3e833658	0.25627398
82	0xbd12c43a	-0.035831667
83	0xbc965cd8	-0.018354818
84	0x3d628972	0.05530686
85	0xbd61548b	-0.055012267
86	0x3cc66f81	0.024223091
87	0x3dccc1e1	0.09997917
88	0xbcd6ef43	-0.026237136
89	0x3ccb0af4	0.024785496
90	0xb9b02d78	-0.00033603213
91	0xbdc89c2b	-0.09795412
92	0xbd36f15f	-0.044663783
93	0xbe36db96	-0.17857203
94	0xbd0ffc57	-0.03515276
95	0x3c942052	0.018081818
96	0x3ca7fccf	0.02050629
97	0x3d0db7b1	0.03459901
98	0xba177e54	-0.0005779017
99	0xbd6f7c7a	-0.05846832
100	0x3d92e94b	0.07173403
101	0xbca9594b	-0.020672461
102	0x3d11bf16	0.035582624
103	0xbc6c64ba	-0.014428312
104	0x3caedf10	0.021346599
105	0xbec48686	-0.38383883
106	0x3e2a15ec	0.16609925
107	0x3d56c954	0.052438095
108	0x3cf9fa06	0.030514728
109	0x3e12ef8c	0.14349192
110	0xbd8dbf3f	-0.06921243
111	0x3cb02148	0.021500245
112	0xbdb7c8e4	-0.08973864
113	0x3d248630	0.040167034
114	0x3d571177	0.05250689
115	0x3d4fc40b	0.05072407
116	0xbc143bff	-0.009047507
117	0x3d1921b2	0.03738565
118	0xbd3e72e3	-0.046496283
119	0xbd2c2750	-0.04202968
120	0xbc8f4ed2	-0.01749364
121	0xbda62f3c	-0.08114478
122	0x3cf817e9	0.030284839
123	0xbccb0266	-0.024781417
124	0xbdeb978a	-0.11503513
125	0x3c9f1864	0.01942081
126	0xbc9056d0	-0.01761952
127	0xbdebc8f6	-0.1151294
128	0xbc03ed3c	-0.008052167
129	0x3c81775f	0.01580399
130	0x3be8cbc3	0.0071043684
131	0xbc93dc83	-0.018049484
132	0xbd135277	-0.035967316
133	0xbcefa498	-0.02925329
134	0x3d72f689	0.059317145
135	0xbe92d880	-0.286808
136	0xbd2dfa2d	-0.042474914
137	0xbe019128	-0.12653029
138	0x3d89ea6e	0.06734167
139	0x3d81e4b2	0.06342448
140	0x3e29d5c6	0.16585454
141	0x3de66bb6	0.11251013
142	0xbea75b0d	-0.32686654
143	0xbccc03a4	-0.02490408
144	0xb9d4dc57	-0.00040599957
145	0x3c9e9b10	0.019361049
146	0x3d866c95	0.06563679
147	0xbd464b44	-0.048411623
148	0x3e45345b	0.19258253
149	0x3bb74afb	0.005593655
150	0xbd1da99c	-0.03849183
151	0x3d6f4fe9	0.058425818
152	0xbcbd002f	-0.023071377
153	0xbd98decb	-0.074643694
154	0x3c88d15e	0.016701397
155	0x3d400645	0.04688098
156	0x3bae1b4c	0.0053133126
157	0x3bfe0273	0.007751757
158	0xbc378223	-0.011200461
159	0x3d0df1c9	0.034654412
160	0xbc4f7c90	-0.012663975
161	0xbe850f8b	-0.2598842
162	0x3d2fda62	0.042932875
163	0x3aec6b51	0.0018037354
164	0xbe3781fc	-0.17920679
165	0xbca6a59b	-0.020342639
166	0x3ce0176a	0.027354915
167	0xbcf1b40d	-0.0295048
168	0xbcf48adf	-0.029851375
169	0xbce991c5	-0.028511891
170	0xbbfd709c	-0.0077343713
171	0x3d60e1ad	0.05490272
172	0xbcd0dfa3	-0.025497263
173	0xbe4b0351	-0.19825484
174	0x3d1eb82e	0.038749866
175	0x3e9464af	0.28983065
176	0xbd8565bc	-0.06513545
177	0x3cd233b2	0.025659416
178	0xbd75989b	-0.05995999
179	0xbb6a8ac5	-0.003578828
180	0xbcc7da41	-0.024396064
181	0x3cba94f1	0.022776099
182	0x3d802f7e	0.062590584
183	0xbe7e4d9d	-0.24834295
184	0x3d87d996	0.06633298
185	0x3d1b3f52	0.037902184
186	0xbc72019b	-0.014770891
187	0x3b47be2d	0.0030478344
188	0xbe09af62	-0.1344581
189	0x3d0a51cd	0.033769418
190	0xbcd89be7	-0.026441528
191	0x3bb838f3	0.0056220233
192	0xbe05af51	-0.13055159
193	0x3c7f5f55	0.015586694
194	0x3d6bb0bb	0.05754159
195	0xbe51195d	-0.20419832
196	0xbda05d5d	-0.07830308
197	0x3d110b28	0.03541103
198	0x3c876d9b	0.016531756
199	0x3d79bbef	0.060970243
200	0xbcb0c4dc	-0.021578245
201	0x3d1abf36	0.03778001
202	0x3ce7bfdb	0.028289726
203	0xbc926986	-0.017872583
204	0xbcb169e1	-0.021656932
205	0x3c838e8c	0.016059183
206	0xbd05c223	-0.032655846
207	0x3d76fe41	0.06030107
208	0xbcf4b080	-0.029869318
209	0x3d2ee784	0.04270126
210	0xbc7a1677	-0.015264145
211	0x3cd03408	0.025415435
212	0xbd388d79	-0.045056794
213	0xbeeaa7f5	-0.45831266
214	0x3d0e620b	0.03476147
215	0x3d0b4f06	0.03401091
216	0xbc82a44e	-0.015947487
217	0xbb187ef0	-0.002326902
218	0xbcb23931	-0.021755787
219	0xbd4a2f10	-0.04936129
220	0x3d8b3365	0.06796912
221	0x3c59693a	0.013269717
222	0xbebf30ac	-0.3734182
223	0x3d83a3a9	0.064277
224	0x3c1074dd	0.008816925
225	0xbd1e68cc	-0.03867416
226	0x3d09510d	0.03352456
227	0x3d7ddbb7	0.061977115
228	0x3cf48b3e	0.029851552
229	0xbd3cc866	-0.046089552
230	0xbc87a3d6	-0.016557615
231	0x3d5dafab	0.05412261
232	0xbce9e785	-0.02855278
233	0xbccf864d	-0.025332594
234	0xbd2f431c	-0.04278861
235	0xbd0a6517	-0.033787813
236	0xbd6f3450	-0.0583995
237	0x3c929a6d	0.017895902
238	0xbceaf33a	-0.028680433
239	0xbcbe8132	-0.023254965
240	0x3e224e79	0.15850247
241	0x3cc737df	0.024318634
242	0x3d3f3e7b	0.046690445
243	0xbd241069	-0.040054712
244	0xbe2fceb5	-0.17168696
245	0xbde70ec9	-0.11282117
246	0x3d74890b	0.059701007
247	0xbe2c1deb	-0.16808288
248	0xbea92718	-0.3303764
249	0x3d0d305c	0.034469947
250	0x3b7dc0d1	0.0038719664
251	0xbd46c0ee	-0.048523836
252	0x3e4bbfc2	0.19897369
253	0x3d39e866	0.045387648
254	0xbbe35d7f	-0.006938636
255	0xbc850d7a	-0.016241778

fcnn.2.bias f4 [128]
0	0x3ccff947	0.02538742
1	0x3d4c829a	0.04992924
2	0xbd612442	-0.05496622
3	0xbb02a711	-0.0019936005
4	0xbcdaa0fc	-0.026688091
5	0xbd6277e9	-0.055290136
6	0xbccaf43c	-0.024774663
7	0x3c26c36f	0.010178431
8	0x3d34b138	0.04411432
9	0xbd03e5ae	-0.03220146
10	0xbce38292	-0.027772222
11	0xba9c5352	-0.0011926687
12	0x3d31c149	0.04339722
13	0x3c581cd5	0.013190468
14	0xbd7f3b6b	-0.062312525
15	0xbd66752e	-0.056264095
16	0xbd400a82	-0.04688502
17	0x3cbdd6e1	0.023173751
18	0x3c843290	0.016137391
19	0xbd3d9a38	-0.046289653
20	0xbd25cf1d	-0.04048072
21	0x3aa8c16d	0.0012875028
22	0x3cfc72e3	0.030816501
23	0x3df7f42b	0.12107118
24	0x3d3f487b	0.046699982
25	0x3bf3c75b	0.0074395365
26	0xbd04a1c8	-0.03238085
27	0xbd0f90d4	-0.03505023
28	0xbd75744d	-0.059925366
29	0x3c921964	0.017834373
30	0x3d23eb4a	0.04001931
31	0xbcd1c4fe	-0.025606629
32	0xbd16c154	-0.036805466
33	0xbc57e94b	-0.01317818
34	0xbd6c42eb	-0.057681005
35	0xbd0ef523	-0.03490175
36	0xbd3bad7b	-0.04581974
37	0xbc8bb104	-0.017052181
38	0x3e1ac72e	0.15115044
39	0x3d4e2595	0.05032881
40	0xbd9e4f8a	-0.077300146
41	0x3e07fbe8	0.13279688
42	0x3d3c1f1c	0.045928106
43	0xbd035221	-0.032060746
44	0x3cd12210	0.025528938
45	0x3cee5f0e	0.02909806
46	0x3de00676	0.10938732
47	0x3c50e1d3	0.012749153
48	0xbcc309dc	-0.023808412
49	0x3c887cdc	0.0166611
50	0x3d5a53bf	0.053302523
51	0xbcb34779	-0.021884667
52	0x3c9c6224	0.019089766
53	0xbd466b3f	-0.04844212
54	0xbd43d562	-0.04781092
55	0x3db3fa5d	0.087879874
56	0xbd305e5d	-0.04305874
57	0xbd1356ec	-0.035971567
58	0xbb5d857d	-0.003380149
59	0xbd03022b	-0.03198449
60	0xbc0d8ea6	-0.008639967
61	0x3cd93cd0	0.026518255
62	0x3bb69b13	0.0055726855
63	0x3c2fd428	0.010731734
64	0x3d5d0bd5	0.053966362
65	0x3a6d5c87	0.000905462
66	0xbd059431	-0.03261203
67	0xb8bbc256	-8.953053e-05
68	0x3d9f2f22	0.07772662
69	0x3d161d0e	0.036648802
70	0xbadeaef1	-0.0016989392
71	0xbd1ab7c6	-0.037772916
72	0xbc45c6b5	-0.012071301
73	0x3d0e487d	0.0347371
74	0xbcc9c68a	-0.024630804
75	0x3de475ef	0.111553065
76	0x3d2e0213	0.042482447
77	0xbca3bb6f	-0.019986836
78	0x3c05948d	0.008153093
79	0x3c960a0c	0.018315338
80	0x3c44a993	0.01200332
81	0xbc41c5b4	-0.011826921
82	0x3da9e652	0.08295883
83	0x3c7d4ee8	0.015460707
84	0xbcdd3316	-0.027001899
85	0x3cbfe590	0.023424894
86	0x3d9d4744	0.076796085
87	0x3d93a5a1	0.072093256
88	0x3d945043	0.07241871
89	0x3d286167	0.041108515
90	0xbcf146b3	-0.029452657
91	0x3db21ba6	0.0869668
92	0x3d70d564	0.058797255
93	0xbd6d5b83	-0.0579486
94	0x3dcf6174	0.101260096
95	0x3d3a4364	0.045474425
96	0x3d0bf9d2	0.034173794
97	0xbcf5b4d5	-0.029993454
98	0x3dd74a27	0.1051219
99	0x3d2ddafd	0.04244517
100	0xbac653f8	-0.0015131226
101	0x3d819dd5	0.06328932
102	0xbd8ee5a7	-0.069773965
103	0xbaa6bbd5	-0.0012720773
104	0x3d98153f	0.07425927
105	0xbd3eaa60	-0.0465492
106	0x3dcb48a8	0.099259675
107	0xba15d93f	-0.0005716271
108	0xbd32ff76	-0.043700658
109	0x3d2fe12b	0.042939346
110	0x3d7e7345	0.06212165
111	0xbd6e2622	-0.058141835
112	0xbd80802d	-0.062744476
113	0x3d0d0959	0.034432743
114	0x3daa1e03	0.083065055
115	0x3d6bb225	0.05754294
116	0x3cd083fe	0.025453564
117	0xbd3bdb46	-0.045863412
118	0xbc5b8395	-0.013398071
119	0xbd4dd08a	-0.050247706
120	0xbca15e50	-0.019698292
121	0x3bd377af	0.0064534764
122	0x3d8c7e2b	0.06860002
123	0x3de914f5	0.1138095
124	0xbd1a4c63	-0.037670504
125	0x3d5e6cd2	0.054302998
126	0x3d5d7982	0.054070957
127	0xba805df3	-0.0009793624

fcnn.4.weight f4 [64, 128]
0	0x3db58def	0.08864962
1	0x3d2dc79d	0.042426694
2	0x3d73c93b	0.05951808
3	0x3db5bad1	0.08873523
4	0x3e6a6921	0.22891666
5	0x3e05d97e	0.13071248
6	0x3d834200	0.06409073
7	0xbd9d64a0	-0.07685208
8	0xbcca3ed7	-0.024688167
9	0x3da81996	0.08208005
10	0x3d836d59	0.06417341
11	0xbd475f8f	-0.048675116
12	0x3ce50cbe	0.027960178
13	0xbcd32476	-0.025774222
14	0x3da07877	0.07835477
15	0x3d35cdd1	0.044385735
16	0x3c84c3ee	0.016206708
17	0x3dc94a03	0.0982857
18	0x3d08a04a	0.03335599
19	0xbdfe8fbf	-0.12429761
20	0xbc6830ac	-0.0141717605
21	0xbcf3f5f6	-0.02978037
22	0xbd2b0899	-0.041756246
23	0xbf17685b	-0.5914361
24	0xbdf5cbb9	-0.12001748
25	0x3dbdae3c	0.09261748
26	0x3c8dbecc	0.017302893
27	0xbd38ab1e	-0.045085065
28	0x3db288fd	0.08717535
29	0xbd4dbf95	-0.050231535
30	0xbd71105d	-0.058853496
31	0x3e705d30	0.23473048
32	0x3dfc6469	0.12323839
33	0xbd9ed651	-0.07755721
34	0x3cbd17f9	0.02308272
35	0xba429dfb	-0.00074240536
36	0x3c421cb5	0.011847665
37	0xbd9c4351	-0.07630027
38	0xbe470b9d	-0.19438024
39	0xbe156af7	-0.14591585
40	0xbd8219d5	-0.06352583
41	0xbe2d1795	-0.16903527
42	0xbea9456e	-0.33060783
43	0x3c3d2cbf	0.011546313
44	0x3dc6c2eb	0.097051464
45	0xbdeb656f	-0.11493956
46	0xbece4f85	-0.40295044
47	0xbd2e29d9	-0.042520378
48	0xbdf594d3	-0.119912766
49	0xbdab1363	-0.08353307
50	0xbf61250f	-0.8794717
51	0x3e47a601	0.19496919
52	0x3dd527ad	0.10407958
53	0x3db9e9ca	0.09077795
54	0x3deebd85	0.11657242
55	0x3eb75572	0.35807377
56	0xbd042dea	-0.03227035
57	0xbd506a05	-0.050882358
58	0x3eade28b	0.339619
59	0x3ca60a41	0.020268561
60	0x3e018a42	0.12650397
61	0xbd40c40e	-0.047061972
62	0xbdcb9562	-0.09940602
63	0x3e0aa694	0.13540107
64	0x3d34aee6	0.04411211
65	0xbc4b4d11	-0.012408511
66	0xbc8c5454	-0.017130055
67	0xbde108c1	-0.10987998
68	0xbe24c0ff	-0.16089247
69	0xbd91fc80	-0.07128239
70	0xbd54e7b7	-0.051978793
71	0xbb44c0df	-0.0030022187
72	0x3d22404b	0.039612096
73	0xbdda0044	-0.10644582
74	0x3dc4d61a	0.09611149
75	0xbdd962c8	-0.10614544
76	0xbd53350c	-0.05156426
77	0x3da0ba01	0.078479774
78	0x3d7a764b	0.06114797
79	0x3d9f4e6d	0.077786304
80	0xbe37ccf0	-0.17949271
81	0xbcb53782	-0.022121195
82	0xbdfc7a7c	-0.123280495
83	0xbdc413a9	-0.095740624
84	0x3c4e4a3a	0.012590939
85	0x3c56a42a	0.013100663
86	0xbebf1b05	-0.37325302
87	0x3d2c2c5d	0.042034496
88	0xbe4abbc0	-0.19798183
89	0x3d9f8491	0.07788957
90	0x3df28b82	0.11843015
91	0x3f1cc269	0.61234146
92	0x3d61fc9d	0.05517255
93	0xbdafb95f	-0.085802786
94	0xbdd5d842	-0.104416385
95	0x3c91154c	0.01771035
96	0xbd03aaaa	-0.03214518
97	0xbbadeafe	-0.0053075543
98	0x3eaefd5a	0.34177667
99	0xbe08e150	-0.133672
100	0x3d8341a5	0.06409005
101	0xbe1e055a	-0.15431729
102	0xbcaf1c7b	-0.021375885
103	0x3ca71e42	0.02040017
104	0xbd5b4ac8	-0.053538114
105	0x3de193ce	0.1101452
106	0xbe4d804a	-0.2006847
107	0x3da9ace8	0.082849324
108	0x3c14434f	0.009049251
109	0x3ddd2e23	0.107998155
110	0x3e8411c2	0.25794798
111	0xbe2046da	-0.15652028
112	0xbd03305f	-0.032028552
113	0x3dcfd15a	0.101473525
114	0xbe31c5f4	-0.1736067
115	0xbceb449d	-0.02871924
116	0x3ef8e6bf	0.48613545
117	0x3c5e5efb	0.01357245
118	0xbd4bacca	-0.04972533
119	0xbdd0c67d	-0.10194109
120	0x3d993da3	0.074824594
121	0xbe3f978a	-0.18710151
122	0x3d872296	0.065983936
123	0x3eb21f18	0.34789348
124	0xbc2bfb5a	-0.010496939
125	0xbc8949b2	-0.016758773
126	0xbe60b318	-0.21943319
127	0x3c970d31	0.018438907
128	0xbca726d9	-0.020404266
129	0xbd060b95	-0.03272589
130	0x3cebf5f0	0.028803796
131	0x3d85002a	0.06494172
132	0xbe5d5e8a	-0.21618095
133	0x3ca55878	0.020183787
134	0x3d072596	0.03299483
135	0xbcd534eb	-0.02602621
136	0xbd4b35d6	-0.04961189
137	0xbd4f03b2	-0.050540633
138	0xbcabd0ec	-0.020973645
139	0x3d7ad1b9	0.061235163
140	0xbcfbdcbc	-0.030744903
141	0x3c279c47	0.0102301305
142	0x3dbf424b	0.09338816
143	0x3c2a6642	0.010400357
144	0xbd99c930	-0.075090766
145	0xbd1f0081	-0.03881884
146	0x3d868174	0.0656766
147	0x3cfb7884	0.030697115
148	0xbd41cbf3	-0.04731364
149	0xbd9814cd	-0.074258424
150	0x3b938d1d	0.004502906
151	0x3eda6660	0.4265623
152	0x3cba6804	0.022754677
153	0x3c5356bd	0.012899098
154	0xbda10efb	-0.078641854
155	0xbac7a5b0	-0.0015231874
156	0xbcbd8298	-0.023133561
157	0x3d80fb50	0.06297934
158	0xbd396594	-0.045262888
159	0xbe0462e1	-0.12928344
160	0xbdeee061	-0.11663891
161	0xbd9c5919	-0.076341815
162	0x3c11d516	0.008900901
163	0xbd987fb6	-0.07446234
164	0x3d4b2507	0.04959586
165	0x3d5442ad	0.0518214
166	0x3dac5cee	0.084161624
167	0x3daad37f	0.08341121
168	0x3d605d93	0.05477674
169	0x3de656e0	0.11247039
170	0x3e4e973e	0.20174882
171	0x3d319244	0.04335238
172	0x3d46b590	0.048512995
173	0x3c138eed	0.009006244
174	0x3d89a3ff	0.06720733
175	0xbd1f2367	-0.03885212
176	0x3d383745	0.044974584
177	0x3dadf36b	0.08493694
178	0x3ef4b968	0.47797704
179	0xbd70b0f7	-0.058762517
180	0xbd6cb04d	-0.05778532
181	0x3d3bd835	0.045860488
182	0xbd89e059	-0.06732244
183	0xbe0afe7b	-0.13573639
184	0xbd8df5f0	-0.069316745
185	0x3d9e65d1	0.07734264
186	0xbe032802	-0.1280823
187	0xbb7ef7ba	-0.003890498
188	0x3cd4a3a0	0.025956929
189	0x3cf39886	0.029735815
190	0xbdbe0136	-0.09277575
191	0xbcd8dab7	-0.026471479
192	0x3d977c50	0.073967576
193	0xbd126ea4	-0.035750046
194	0x3d6298d7	0.05532154
195	0x3d21419a	0.039369203
196	0x3dd6be10	0.1048547
197	0x3cc78684	0.024356134
198	0x38d9537e	0.00010362918
199	0xbb6628c8	-0.0035119522
200	0xbd982137	-0.0742821
201	0xbd2027ab	-0.03910033
202	0x3cea07b2	0.028568123
203	0xbd835c4d	-0.06414089
204	0xbd1b43bc	-0.037906393
205	0xbd523dea	-0.051328577
206	0x3dc8e339	0.09808964
207	0xbc77a0d2	-0.015114026
208	0xbd8a521e	-0.06753944
209	0xbcb45690	-0.022013932
210	0x3ddf8233	0.109135054
211	0x3da12a55	0.07869402
212	0x3ca73b67	0.020414067
213	0x3c3cb775	0.011518349
214	0x3ddd774f	0.10813772
215	0x3c9b9b67	0.018995
216	0xbcc6a837	-0.024250133
217	0x3d180531	0.037114326
218	0xbd81683c	-0.06318709
219	0xbe941515	-0.28922334
220	0x3cf4f3a3	0.029901331
221	0xbca5b2d3	-0.020226872
222	0x3d04d2b0	0.03242749
223	0xbc2ad398	-0.010426424
224	0xbd8cd3f2	-0.06876363
225	0xbad566c2	-0.0016281235
226	0xbda7e780	-0.08198452
227	0x3d8fc0b2	0.070191756
228	0xbdcd8eb3	-0.10036983
229	0x3c854a13	0.016270673
230	0xbd99271d	-0.074781634
231	0x3c74481e	0.014909772
232	0x3de1eebb	0.11031862
233	0x3afe84c6	0.0019418232
234	0xbdad0fc3	-0.08450272
235	0x3d28937b	0.041156273
236	0xbd979372	-0.0740117
237	0x3c8ea98c	0.01741483
238	0xbe1e2ae6	-0.15446052
239	0xbc480849	-0.012209007
240	0x3be2df1a	0.0069235684
241	0x3d287ac1	0.041132692
242	0xbb9a196b	-0.004702737
243	0x3d73b95c	0.059502944
244	0xbe937f2f	-0.2880797
245	0xbd793fff	-0.060852047
246	0x3dc5a531	0.096506484
247	0xbd27d360	-0.040973067
248	0xbb409dd4	-0.0029390948
249	0x3e9d9884	0.30780423
250	0x3d0e6ee7	0.034773733
251	0xbe704296	-0.234629
252	0x3d90a1ff	0.07062148
253	0xbd821e58	-0.06353444
254	0x3df0a862	0.117508665
255	0x3cc1d916	0.023663085

fcnn.4.bias f4 [64]
0	0x3b3d6060	0.0028896555
1	0x3e0797f1	0.13241555
2	0xbdc6ba41	-0.09703494
3	0xbe08fce8	-0.13377726
4	0x3df14fc5	0.11782793
5	0x3c113be3	0.008864376
6	0x3d2eb63e	0.04265427
7	0xbd85c0b9	-0.065308996
8	0xbd3d69af	-0.046243366
9	0x3d39d123	0.045365464
10	0xbd382278	-0.044954747
11	0x3b6a560a	0.003575685
12	0x3d5022fb	0.05081461
13	0xbcd0b43f	-0.025476573
14	0x3d74d214	0.05977066
15	0xbd79d959	-0.060998295
16	0x3d92f827	0.071762376
17	0xbdba2306	-0.090887114
18	0xbc2857eb	-0.0102748675
19	0x3d25a971	0.040444795
20	0x3d91d43f	0.07120561
21	0x3da38307	0.07983976
22	0x3e0dc937	0.13846289
23	0x3dedd78d	0.11613379
24	0x3c9737ca	0.01845922
25	0x3d3eb60a	0.046560325
26	0xbd13fcdf	-0.03612983
27	0xbb011d56	-0.0019701323
28	0x3de637e3	0.11241128
29	0xbdbc259b	-0.0918686
30	0x3c81da17	0.015851064
31	0x3cdde3d7	0.027086182
32	0x3e0d89bd	0.13822074
33	0x3d1c95cb	0.03822879
34	0xbd77fbbc	-0.060542807
35	0xbdebbba6	-0.115104005
36	0x3a4b69b2	0.0007759585
37	0x3c74be69	0.014937975
38	0x3cb4f6ae	0.022090282
39	0xbd7eed8e	-0.06223827
40	0x3d7afdc1	0.061277155
41	0x3d465211	0.04841811
42	0xbcb74a1a	-0.022374202
43	0x3cfb9708	0.030711666
44	0x3c03fd87	0.008056051
45	0xbdaccd62	-0.08437611
46	0x3be29a59	0.0069153723
47	0x3b003cbd	0.0019567453
48	0x3d9948a7	0.074845605
49	0x3d08746f	0.033314165
50	0xbd8c297b	-0.06843849
51	0xbcc01b2d	-0.023450458
52	0xbd27bada	-0.04094968
53	0xbd88e635	-0.066845335
54	0x3ca6c2b3	0.020356512
55	0xbbf47b81	-0.007461012
56	0xbdae27e3	-0.085037015
57	0xbd7e5996	-0.062097155
58	0x3d0a91ef	0.03383058
59	0xbd108b86	-0.03528931
60	0xbcf0bf94	-0.029388227
61	0x3d98b572	0.07456483
62	0x3c83e721	0.016101422
63	0xbcbc2c40	-0.022970319

fcnn.6.weight f4 [1, 64]
0	0x3eb7a801	0.35870364
1	0xbe13d818	-0.14437902
2	0xbe1f842b	-0.15577762
3	0xbdb67437	-0.08908885
4	0xbec146be	-0.37749285
5	0x3ed8e14a	0.42359382
6	0xbe4a9451	-0.1978314
7	0x3e3b4706	0.18288812
8	0xbe18badd	-0.14915033
9	0x3e500dbd	0.2031774
10	0x3e7efc81	0.2490101
11	0xbe5fece8	-0.21867716
12	0x3e3dd2f1	0.18537499
13	0x3dd1083a	0.10206647
14	0x3e442b73	0.191572
15	0xbdaa1e99	-0.08306617
16	0x3e4c7d18	0.19969594
17	0x3e10d22b	0.14142673
18	0xbdf90099	-0.12158317
19	0x3e6d0226	0.23145351
20	0x3e09496b	0.13406913
21	0x3de325ba	0.1109118
22	0xbe89fe68	-0.2695191
23	0xbec2eb07	-0.38069937
24	0x3e1fb5e4	0.1559673
25	0x3e01d0f0	0.1267736
26	0x3e2c2699	0.16811599
27	0x3ef05a0c	0.469437
28	0xbdc6d521	-0.0970862
29	0x3e1a5f61	0.15075447
30	0x3e357fab	0.17724483
31	0x3e2bde91	0.16784121
32	0xbdec0b00	-0.115255356
33	0x3e42769f	0.18990563
34	0xbe0d005b	-0.13769667
35	0xbdb9e6d1	-0.09077228
36	0xbcc2ac7b	-0.023763886
37	0xbdc33628	-0.09531814
38	0xbd7c6f47	-0.06162956
39	0x3e0a8cbb	0.13530247
40	0x3e92d7fe	0.28680414
41	0xbe2db01e	-0.16961715
42	0x3e17b6ee	0.14815876
43	0xbbd5b29f	-0.0065215374
44	0x3e0ff001	0.14056398
45	0x3ea05d52	0.31321198
46	0x3ee6e076	0.45093125
47	0xbdde38cd	-0.10850678
48	0xbde813f3	-0.1133193
49	0x3e69ee85	0.22844894
50	0xbe15de0c	-0.14635485
51	0x3e07673a	0.13222972
52	0xbe20aa18	-0.15689886
53	0x3e50c46b	0.20387428
54	0x3e756363	0.23963694
55	0xbd970b31	-0.073751815
56	0xbe1b04dc	-0.15138572
57	0x3ebccd1c	0.36875236
58	0x3e185507	0.14876185
59	0x3e20b1fc	0.15692896
60	0x3e9673c1	0.29385188
61	0xbdeb5a18	-0.114917934
62	0x3ec465eb	0.38359007
63	0x3e2d7324	0.16938454

exp_avg f4 [256, 27]
0	0x3f48b9b6	0.7840837
1	0x3e230978	0.15921581
2	0x3e18675e	0.14883181
3	0x3f2795c9	0.6546293
4	0x3c841348	0.016122475
5	0xba01e2f8	-0.00049547805
6	0xbc8c00b1	-0.017090173
7	0xba720578	-0.0009232382
8	0xbb5320fa	-0.00322157
9	0xbb052b72	-0.0020320085
10	0xa3d113a6	-2.2668147e-17
11	0x3d9fc152	0.07800545
12	0x35340d3a	6.707447e-07
13	0xba719e04	-0.00092169666
14	0x3c80d83f	0.015728114
15	0x3f48b9b6	0.7840837
16	0xba0cf4ce	-0.0005377055
17	0x3dc5c9e5	0.09657649
18	0xba3e7eb2	-0.0007266804
19	0x3e0b6b6b	0.13615195
20	0x3d1e3e6f	0.03863376
21	0xbec70e16	-0.38877934
22	0xb9fc7c0b	-0.00048157605
23	0xbc2ea4a9	-0.010659375
24	0x3e0b6b6b	0.13615195
25	0x401141e4	2.2696466
26	0x3dd00dfb	0.101589166
27	0x3c61c995	0.013780971
28	0x3d188c63	0.03724326
29	0x3d85222b	0.06500658
30	0xbd47a737	-0.048743453
31	0xbc509ae9	-0.012732246
32	0xbd031105	-0.031998653
33	0x3db312b0	0.08743799
34	0x3d2a481c	0.041572675
35	0x3e525dc3	0.2054358
36	0xbca4bb00	-0.0201087
37	0xa7217943	-2.2408974e-15
38	0x3d0a1158	0.033707947
39	0x389af964	7.389745e-05
40	0x3c30c9ac	0.01079027
41	0xbc2bfae8	-0.010496832
42	0x3c61c995	0.013780971
43	0xbd20b1ec	-0.03923218
44	0x3f2222da	0.6333443
45	0x3d44b937	0.048028197
46	0x3ca39301	0.019967558
47	0x3f2a0cfb	0.66426057
48	0x3f0a7b0d	0.5409401
49	0xbd078b73	-0.033091974
50	0x3db083d0	0.08618891
51	0x3ca39301	0.019967558
52	0x40eca664	7.3953114
53	0xbfeaad44	-1.8334126
54	0x4021ab8d	2.5260956
55	0x3f44f894	0.769418
56	0x3f480424	0.7813132
57	0x401d3587	2.456392
58	0x40925504	4.572878
59	0x4088249b	4.2544684
60	0x3d5cf7db	0.05394731
61	0x3e003f42	0.12524131
62	0x40983e9b	4.7576423
63	0x4093aff6	4.6152296
64	0x2971fa67	5.372994e-14
65	0x3e0fe85f	0.14053486
66	0xb76ce6f7	-1.4120472e-05
67	0xbba85824	-0.0051374603
68	0x4092e809	4.5908246
69	0x4021ab8d	2.5260956
70	0x408dbaf4	4.4290714
71	0x40e4bcc6	7.1480436
72	0x3d1fc594	0.039006785
73	0x3e860801	0.26177981
74	0x40e78951	7.2355123
75	0x40e79ed7	7.2381396
76	0x405b3b4c	3.4254942
77	0x3e048bc9	0.12943949
78	0x3e860801	0.26177981
79	0x42baea3a	93.45747
80	0x43959501	299.1641
81	0xbb696b44	-0.0035616914
82	0x3d819663	0.06327512
83	0x3d83c9d0	0.06434977
84	0x3ea462eb	0.32106718
85	0x3e8db28b	0.2767528
86	0x3e83e697	0.25761864
87	0x3cc37400	0.023859024
88	0x3d0f5ecb	0.03500251
89	0x3e9dbc6b	0.30807814
90	0x3e8eea93	0.2791334
91	0xa7b73b86	-5.085724e-15
92	0x3c9d0129	0.019165592
93	0xb87fd727	-6.0997114e-05
94	0x3be2ae82	0.0069177756
95	0x3e8e3e65	0.27781978
96	0xbb696b44	-0.0035616914
97	0x3e88b4fa	0.26700574
98	0x3e9f6c7b	0.31137452
99	0x3c78e152	0.015190439
100	0x3b50c35d	0.0031854727
101	0x3ead8cb4	0.3389641
102	0x3c4b7c95	0.012419839
103	0x3e461997	0.19345699
104	0x3d03275c	0.032019958
105	0x3b50c35d	0.0031854727
106	0x40ae230e	5.441779
107	0x419115c6	18.135632
108	0xc00f5969	-2.2398322
109	0xbef8a230	-0.4856124
110	0xbef56586	-0.4792902
111	0xc0164a39	-2.3482802
112	0x3cf9e2d7	0.030503673
113	0x3ccd5cd1	0.025068672
114	0x3cc953a3	0.024576014
115	0x3cd5ebce	0.026113417
116	0x3d948c83	0.07253363
117	0x3c972457	0.018449945
118	0x29541e2c	4.7099626e-14
119	0xbd8d9d90	-0.06914818
120	0xb739eb56	-1.1081653e-05
121	0x3caa6f6e	0.020805087
122	0x3cfd6c8b	0.030935546
123	0xc00f5969	-2.2398322
124	0x3cd64adb	0.02615874
125	0xc015d86f	-2.341335
126	0x3c90ba7a	0.017667044
127	0x3cf484c1	0.029848458
128	0xc01531a1	-2.331154
129	0x3f521256	0.8205923
130	0x3c9dbdcf	0.019255547
131	0x3c70c845	0.0146961855
132	0x3cf484c1	0.029848458
133	0xc11c8952	-9.783525
134	0xbeefa1e8	-0.46803212
135	0x3fa04491	1.2520925
136	0x3cfb5725	0.030681202
137	0xbe45d828	-0.19320738
138	0x3f30f4b4	0.6912339
139	0xbd455794	-0.048179224
140	0xbbc08655	-0.0058753886
141	0xbe43ec20	-0.19133043
142	0xbc17201f	-0.009223967
143	0xbf523683	-0.8211443
144	0xbe28d218	-0.16486394
145	0xa473c844	-5.2861857e-17
146	0x3f42a2ac	0.7602947
147	0x35f66ba1	1.8359752e-06
148	0xbbf23296	-0.007391284
149	0xbd414e59	-0.04719386
150	0x3fa04491	1.2520925
151	0xbbc85c54	-0.006114522
152	0xbebd73c2	-0.3700238
153	0x3ca2dfa2	0.019882027
154	0xbd6b2e77	-0.05741736
155	0xbf09ee5a	-0.5387932
156	0xbdef6dbb	-0.11690851
157	0xbb91de9d	-0.0044515864
158	0xbe447ea2	-0.19188932
159	0xbd6b2e77	-0.05741736
160	0xc199c084	-19.219002
161	0xbf92aab2	-1.1458342
162	0xbf2e47a8	-0.6807809
163	0x3e41a2a1	0.18909694
164	0x3e980c23	0.2969676
165	0x3f2db611	0.67855936
166	0x3f7a9ab7	0.97892326
167	0x3f5e042d	0.8672512
168	0x3f4654cb	0.77473134
169	0x3f3451cb	0.70437306
170	0x4000db69	2.0133917
171	0x3f83ca3a	1.029609
172	0x281ec6d1	8.813873e-15
173	0xbe273cda	-0.16331807
174	0xb991ba2a	-0.00027795258
175	0x3f2007a2	0.62511647
176	0x3f7e118c	0.99245524
177	0xbf2e47a8	-0.6807809
178	0x3f65f015	0.8981946
179	0x3ede6d1c	0.4344262
180	0x3f1bc3ea	0.60845816
181	0xbda99858	-0.082810104
182	0x3f48107b	0.7815015
183	0xbe836adb	-0.25667462
184	0x3f273791	0.6531916
185	0x3f51b02d	0.8190945
186	0xbda99858	-0.082810104
187	0x41db233b	27.392202
188	0x428a0072	69.00087
189	0xbfb50b6b	-1.414411
190	0x3fea1372	1.8287184
191	0x403c461b	2.941779
192	0xc04afbc4	-3.1716166
193	0x3fc709da	1.5549881
194	0x3d0e351f	0.03471863
195	0x3ef3e055	0.4763209
196	0xbec91283	-0.39271936
197	0x4093afab	4.615194
198	0x40027285	2.0382397
199	0x251cf866	1.3615004e-16
200	0x3fdddcde	1.7333028
201	0xba8b2c6b	-0.0010618096
202	0x3d6a80c8	0.05725172
203	0x3fc72213	1.5557274
204	0xbfb50b6b	-1.414411
205	0x3d13a3b8	0.036044806
206	0x3fe04f18	1.7524137
207	0xbdd2ffb5	-0.103026785
208	0x3d23a27c	0.03994988
209	0x4004f6fc	2.0775747
210	0x3fe44457	1.7833356
211	0x3cd39f36	0.025832754
212	0x3ecc5bcc	0.39913785
213	0x3d23a27c	0.03994988
214	0x428f1963	71.54958
215	0xbfbd2bf9	-1.4779044
216	0xbf434358	-0.76274633
217	0x3d7edc8c	0.06222205
218	0x3d818774	0.06324664
219	0xbec28006	-0.379883
220	0x3ea65d06	0.32492846
221	0x3e9f58c7	0.3112242
222	0x3ea9183e	0.33026308
223	0x3edcfbba	0.43160802
224	0x3f259577	0.6468119
225	0x3ea6feb6	0.32616204
226	0x27f57abb	6.8134225e-15
227	0xbe275825	-0.16342218
228	0xb8871854	-6.441833e-05
229	0x3ec00024	0.37500107
230	0x3ea6e1be	0.32594103
231	0xbf434358	-0.76274633
232	0x3ea44b4a	0.3208869
233	0xbfb1272d	-1.384008
234	0x3e94554f	0.28971335
235	0x3dd2a0e0	0.10284591
236	0xbfb0db0e	-1.381685
237	0xbf9d9812	-1.2312033
238	0x3e66061a	0.22463265
239	0x3ed7440d	0.42044106
240	0x3dd2a0e0	0.10284591
241	0x408bacf7	4.364864
242	0x41cc16ed	25.511194
243	0xbf70b508	-0.9402623
244	0x3f09eaab	0.538737
245	0x3f4fa96c	0.8111789
246	0x3fffc4c4	1.9981923
247	0x3f4878fd	0.78309613
248	0x3ec858c0	0.3913021
249	0x3f55e704	0.83555627
250	0x3f3164d8	0.692945
251	0x400c0674	2.1878939
252	0x3f4eebdf	0.8082866
253	0x23227e67	8.808804e-18
254	0x3e3054dc	0.17219871
255	0xb8b40397	-8.5837375e-05

exp_avg_sq f4 [256, 27]
0	0x423e5cf6	47.590782
1	0x3ebf4595	0.37357774
2	0x3f2517e6	0.6448959
3	0x4246faa7	49.744778
4	0x3bc128a9	0.0058947396
5	0x3600eb62	1.9210497e-06
6	0x3c0f4a6e	0.008745773
7	0x3787f69d	1.6208092e-05
8	0x3f55ff32	0.8359252
9	0x3d109e08	0.03530696
10	0x2dd75d43	2.4484087e-11
11	0x4182c2c3	16.345098
12	0x2d1b41a2	8.825303e-12
13	0x37404432	1.145997e-05
14	0x3baec7db	0.005333883
15	0x423e5cf6	47.590782
16	0x36096bc3	2.0477316e-06
17	0x42af3f86	87.62407
18	0x3ada2828	0.0016644048
19	0x3f75585c	0.9583795
20	0x42ae4fb6	87.155685
21	0x42823626	65.10576
22	0x3609bb26	2.0523526e-06
23	0x3c82d0bc	0.015968673
24	0x3f75585c	0.9583795
25	0x452611fa	2657.1235
26	0x42ba958e	93.2921
27	0x41639f8f	14.226455
28	0x3e475a5c	0.19468063
29	0x3f47c1fa	0.7803036
30	0x41620343	14.125796
31	0x3c408727	0.011750973
32	0x3ace3007	0.0015730866
33	0x3d33f404	0.043933883
34	0x3ccddc46	0.025129449
35	0x3fd00b2f	1.6253413
36	0x3c914af2	0.017735932
37	0x34058e5a	1.2438377e-07
38	0x4061e92b	3.5298564
39	0x33520a18	4.8903615e-08
40	0x3c9d3474	0.01919005
41	0x3c3d8e11	0.011569516
42	0x41639f8f	14.226455
43	0x3aea1459	0.0017858847
44	0x41a8ac66	21.084179
45	0x3caceba8	0.021108463
46	0x3e647fde	0.22314402
47	0x41a46d9b	20.553518
48	0x41287162	10.527681
49	0x3b018606	0.0019763722
50	0x3d4d1ee1	0.050078277
51	0x3e647fde	0.22314402
52	0x449247b8	1170.2412
53	0x4212e3cc	36.722458
54	0x4563e3ce	3646.2378
55	0x410f8b66	8.971533
56	0x41115711	9.083756
57	0x4541d5e9	3101.3694
58	0x4209762b	34.3654
59	0x41d1ec62	26.240421
60	0x3cc38f59	0.023872064
61	0x3ed9093c	0.42389858
62	0x420dbf7c	35.436996
63	0x420a93e4	34.644424
64	0x35578503	8.02873e-07
65	0x4087759f	4.233108
66	0x3165df0e	3.3450678e-09
67	0x3db328f3	0.08748045
68	0x4205bc1e	33.43371
69	0x4563e3ce	3646.2378
70	0x41dad6f2	27.354954
71	0x4566c531	3692.3245
72	0x3ca3e87a	0.020008314
73	0x413d0af1	11.815171
74	0x4566bc15	3691.7551
75	0x4482d916	1046.7839
76	0x41f9ff63	31.2497
77	0x3edbd297	0.42934105
78	0x413d0af1	11.815171
79	0x479b7aad	79605.35
80	0x48109b44	148077.06
81	0x3d0c6fbc	0.034286246
82	0x3c0a8a32	0.0084558
83	0x3c14b0f5	0.009075393
84	0x3e994fd6	0.29943722
85	0x3e1783a4	0.1479631
86	0x3e042fe4	0.12908894
87	0x3d9e5c73	0.07732477
88	0x3e0592a4	0.1304422
89	0x3e699f52	0.22814682
90	0x3e187e8e	0.14892027
91	0x32adb230	2.0220881e-08
92	0x3c3644e5	0.011124824
93	0x3397acfc	7.062951e-08
94	0x3ccbcc6f	0.024877755
95	0x3e15d540	0.1463213
96	0x3d0c6fbc	0.034286246
97	0x3e082394	0.13294822
98	0x3ea2b10a	0.31775695
99	0x3d97d475	0.0741357
100	0x3d38381b	0.04497538
101	0x3e8e1674	0.27751505
102	0x3cccf8d7	0.025021
103	0x3dfe6d34	0.124231726
104	0x3e060758	0.13088739
105	0x3d38381b	0.04497538
106	0x42a7da11	83.92591
107	0x4421e016	647.50134
108	0x44003897	512.8842
109	0x408ebef8	4.4608116
110	0x408f19d4	4.471903
111	0x44011d58	516.4585
112	0x3b2430f9	0.0025053604
113	0x3acdee61	0.0015711301
114	0x3bc03963	0.005866216
115	0x3be38c67	0.0069442275
116	0x3d9ba753	0.07600274
117	0x3d2c6bf1	0.04209513
118	0x3390e675	6.7474424e-08
119	0x3f0e8174	0.5566628
120	0x30d3ac21	1.5401193e-09
121	0x3b977fc8	0.004623387
122	0x3b224287	0.0024758892
123	0x44003897	512.8842
124	0x3ad588ee	0.0016291419
125	0x44016bfe	517.6874
126	0x3ba31251	0.0049765487
127	0x3ca19207	0.019722952
128	0x44015c64	517.4436
129	0x42b736c5	91.60697
130	0x3acd0cb4	0.0015644045
131	0x3c2f3b4d	0.010695291
132	0x3ca19207	0.019722952
133	0x4618281c	9738.027
134	0x44126859	585.63043
135	0x436792ee	231.57394
136	0x41275cb7	10.460135
137	0x4246c4f2	49.69233
138	0x43669b86	230.60751
139	0x3f057283	0.52127856
140	0x38f64ab4	0.000117441086
141	0x3f66e15e	0.90187633
142	0x3a565e93	0.0008177545
143	0x42cad65b	101.41866
144	0x3fe1ee1e	1.7650793
145	0x2e8638bc	6.1036926e-11
146	0x434a2463	202.14214
147	0x2f0c06cc	1.273534e-10
148	0x3a1f8e05	0.0006086531
149	0x3f040321	0.51567274
150	0x436792ee	231.57394
151	0x38ff6261	0.00012177672
152	0x44268ac5	666.1683
153	0x3e12c577	0.1433314
154	0x4199a7e7	19.206984
155	0x441e28ff	632.64056
156	0x441a23c6	616.55896
157	0x38f70c36	0.00011780152
158	0x3f8bb389	1.0914165
159	0x4199a7e7	19.206984
160	0x4763f43a	58356.227
161	0x44317748	709.8638
162	0x431a46f2	154.27713
163	0x40c000bd	6.00009
164	0x4199cef1	19.226046
165	0x4316222b	150.13347
166	0x40259989	2.587496
167	0x3ffb0072	1.9609511
168	0x40cc03c3	6.375459
169	0x40d78391	6.7348104
170	0x4241c558	48.44272
171	0x403bfb90	2.9372292
172	0x3495d5eb	2.7909059e-07
173	0x41f00f4e	30.007473
174	0x35926dd5	1.0909813e-06
175	0x408dcdad	4.431357
176	0x40234ec0	2.5516815
177	0x431a46f2	154.27713
178	0x4001bb0d	2.0270417
179	0x43951948	298.1975
180	0x40b2bd62	5.585618
181	0x40770e41	3.860245
182	0x438f2a89	286.3323
183	0x43251a92	165.10379
184	0x3ff96b2d	1.9485832
185	0x40e9656d	7.293631
186	0x40770e41	3.860245
187	0x46db733a	28089.613
188	0x46432852	12490.08
189	0x45494b04	3220.6885
190	0x4297f974	75.98721
191	0x441c8311	626.0479
192	0x45640e1a	3648.8813
193	0x41857b08	16.685074
194	0x3b4fbb81	0.0031697454
195	0x420b239c	34.784775
196	0x41b3495e	22.410824
197	0x44bd0cde	1512.4021
198	0x41fea032	31.82822
199	0x2ee7cee1	1.0541413e-10
200	0x443968f1	741.6397
201	0x37b860c7	2.1979575e-05
202	0x402b173c	2.673293
203	0x41857bb7	16.685408
204	0x45494b04	3220.6885
205	0x3b568c82	0.0032737558
206	0x45d1cc59	6713.5435
207	0x416c2956	14.760092
208	0x43492070	201.12671
209	0x45c91bd6	6435.4795
210	0x45792b02	3986.688
211	0x3b4cf877	0.0031276026
212	0x42245214	41.080154
213	0x43492070	201.12671
214	0x4923e222	671266.1
215	0x4655460c	13649.512
216	0x42ee4cee	119.15025
217	0x3d417755	0.047232945
218	0x3d441888	0.047874957
219	0x42d29bc6	105.304245
220	0x3e88efae	0.2674536
221	0x3e6cbca7	0.2311884
222	0x3fc5e27d	1.5459744
223	0x3fe0041e	1.7501256
224	0x3ff97fb0	1.9492092
225	0x3e891b1d	0.26778498
226	0x33f6076f	1.145662e-07
227	0x41aedc95	21.857706
228	0x33cbe5dd	9.494736e-08
229	0x3fbc06a9	1.4689533
230	0x3e873d23	0.2641383
231	0x42ee4cee	119.15025
232	0x3e733389	0.23750128
233	0x433060e4	176.37848
234	0x3fbbe70b	1.4679884
235	0x3e8705dd	0.2637166
236	0x433043d5	176.26497
237	0x43049561	132.58351
238	0x3e680822	0.22659352
239	0x3fe0e98e	1.7571275
240	0x3e8705dd	0.2637166
241	0x458989b0	4401.211
242	0x44f62752	1969.2288
243	0x43e5c599	459.54373
244	0x40d9886f	6.7979045
245	0x42206c3a	40.10569
246	0x43bc3d8b	376.4808
247	0x3fa016c6	1.250695
248	0x3ed59f49	0.41723087
249	0x4069e87f	3.6548154
250	0x406c959f	3.6966321
251	0x42c186da	96.76338
252	0x3fdcc01a	1.7246125
253	0x2d5bbd10	1.2490689e-11
254	0x43041c4e	132.11057
255	0x34467f4a	1.8486494e-07
