src/hero/experiments/justification/models/SmallBTCNN_MediumFCNN_4.pth (torch, 620446 bytes, 27 tensors)

btcnn.layers.0.conv1d.weight f4 [27, 27, 3]
000000 8e c6 81 3b ea f5 b8 bd d7 e1 b3 bd 77 d4 8e 3d
       0.003960437 -0.090312794 -0.0878331 0.06974118
000010 2a 81 13 3e 74 91 ad 3e 79 aa 18 be aa ca bf 3d
       0.14404741 0.33900034 -0.1490878 0.09364827
000020 b2 2c d6 3c 72 3b 03 3c 4c 17 86 3b da 4a 51 be
       0.02614436 0.008009778 0.0040921327 -0.2043871
000030 10 4a 4a be 44 d8 96 bd bd e9 e2 bd 75 4f 65 bd
       -0.19754815 -0.07365468 -0.11079738 -0.05598398
000040 f5 2e 92 bd 35 cb dc bd 00 96 b4 bb 30 7b 94 be
       -0.071378626 -0.10780946 -0.0055110455 -0.29000235
000050 22 1b 91 bd 5d fa 7a 3d 52 e7 36 be f0 57 c3 bd
       -0.07085253 0.06127392 -0.17861679 -0.09538257
000060 c4 2a 1c be a7 6c 32 3d e0 89 63 bd ae 03 08 3f
       -0.15250689 0.04356065 -0.05555141 0.53130615
000070 a8 8b 55 be 15 78 bf bc bd f4 7f 3d b7 fe de bd
       -0.20854056 -0.02337269 0.06248926 -0.10888427
000080 d9 ef 4c 3d 00 01 76 bd 71 f3 25 3d 71 77 9c 3d
       0.050033424 -0.060059547 0.040515367 0.07639969
000090 32 fa dd 3c 54 92 8e 3d 00 84 4c bc 34 f0 dd bd
       0.027096841 0.069615036 -0.012482643 -0.10836831
0000a0 72 9a 93 3d 80 1b 38 bc 00 37 34 3e bb 3d 45 bd
       0.072071925 -0.011237025 0.17599106 -0.048154574
0000b0 60 98 c3 bd d0 66 1a 3c 78 c4 62 be a1 4a 42 3c
       -0.095505476 0.0094239265 -0.2214526 0.011858613
0000c0 f4 53 9d 3d 83 69 94 3e b9 5e 61 3c b6 7a d4 bd
       0.076820284 0.2898675 0.013755494 -0.10374968
0000d0 a4 fd 52 3d 32 c6 25 bd 42 35 b5 bd 7c 0e 82 be
       0.05151142 -0.040472217 -0.08848049 -0.25401676
0000e0 cd d0 92 3d 5b 62 8d bd 20 a5 55 be f9 ce 72 bd
       0.07168732 -0.069035254 -0.20863771 -0.059279416
0000f0 d5 9f 64 3d e1 6b be 3d b8 18 8e be 60 6d 42 bd
       0.05581649 0.0929792 -0.27753234 -0.04746759
000100 d0 c8 f4 bd 5f f3 10 3c b9 d8 d5 bd 23 b9 52 be
       -0.119523644 0.008847087 -0.10441727 -0.20578437
000110 49 59 b2 bd 7d ee 8b 3e dd 39 45 be 1d 40 89 3d
       -0.08708436 0.2733039 -0.19260354 0.06701682
000120 86 6f 95 bd e4 38 3c 3d 4b 26 b6 bd e0 dc d1 3c
       -0.07296662 0.045952693 -0.088940226 0.025618017
000130 8c 8f ec 3d ff 10 45 3d ef ee 3e be 81 38 73 3d
       0.11550817 0.048111912 -0.18645833 0.05938006
000140 77 b1 ac 3c 8e 9d ec bc a5 3c 65 bd d9 eb be 3d
       0.021080716 -0.028883722 -0.05596604 0.09322328
000150 dc c7 09 bb c1 e8 51 3d b4 61 18 3d 29 5f b7 3d
       -0.0021023666 0.051247362 0.037202552 0.08953697
000160 71 34 22 3e ca 50 5b bd 20 df c1 3c 03 66 a9 3d
       0.15840317 -0.053543843 0.023665965 0.0827141
000170 c7 28 be bd ce 72 72 bd 4d 6c 87 3d f0 62 c7 bd
       -0.092851214 -0.059191518 0.066124536 -0.09735668
000180 4e 6a a7 bd 2b 9d 96 bc 4e 97 3a bd ab bd e3 3b
       -0.08174573 -0.01838549 -0.04555445 0.0069501004
000190 7f fa 2c bd a5 d1 8c 3d e8 84 91 3d 7c 9a 49 3e
       -0.04223108 0.06875924 0.07105428 0.19687837
0001a0 02 26 db 3d 34 87 dc bd 40 e6 b1 bc e6 36 99 3d
       0.10700609 -0.107679754 -0.021716237 0.07481174
0001b0 9e 65 ba bb a7 57 fd bd ab 6d 18 3c 75 3a 30 bd
       -0.0056883832 -0.12370234 0.009303491 -0.0430245
0001c0 55 1d 51 bd 20 d7 0c 3d 55 44 89 bb 7a e8 db 3b
       -0.051053364 0.034384847 -0.004189054 0.006711063
0001d0 a0 44 59 be e4 c7 c1 bc eb 1d 0e bd 02 60 d1 3d
       -0.21217585 -0.023654886 -0.0346965 0.1022339
0001e0 05 3b 75 3d 67 0d a5 38 a4 e0 d8 3c 98 5c 99 3e
       0.05987074 7.8703095e-05 0.026474304 0.29953456
0001f0 3b 62 95 3d f2 19 81 3d 96 c4 e2 3b cf 50 39 3e
       0.072941266 0.06303777 0.0069204075 0.18097232
000200 4c 70 2b 3e 3f a2 2d be fd 1f 11 3e 00 04 9d ba
       0.16742057 -0.16956423 0.14172359 -0.0011979342
000210 d9 d1 0e 3e 34 2d 52 bc 40 72 06 3d 0b 0e 90 bd
       0.13947238 -0.01282816 0.0328238 -0.070339285
000220 3a d4 4e 3e 17 ec 80 bd 28 7b 5c 3e 19 e9 22 3e
       0.20198146 -0.062950306 0.21531355 0.15909232
000230 a8 4c 28 3f d9 73 f4 3d 59 ad 06 3e 26 c4 aa 3e
       0.6574197 0.11936159 0.13152064 0.33352774
000240 6e 14 0c 3d c3 43 59 3d e5 a7 90 3c 56 07 bc 3c
       0.03419917 0.05304314 0.017658183 0.022952717
000250 45 aa 58 3e 39 08 6a bd 41 b3 f1 3c d6 03 00 be
       0.21158703 -0.057136748 0.02950442 -0.12501463
000260 bb 93 b8 3d 69 9e 76 3d eb 76 82 bd c6 a1 07 3d
       0.09012552 0.060209665 -0.06370338 0.033113264
000270 b3 80 5c be 59 e8 de bd 0f 50 fb 3c 30 7e 4b 3c
       -0.2153347 -0.108841605 0.030677823 0.012420222
000280 25 23 a3 3b 78 66 5d 3e f2 32 ff 3c b8 85 84 be
       0.004978555 0.2162112 0.031152222 -0.2588327
000290 67 ff 59 bd 56 16 06 be ad f5 e9 3d 9c 44 68 3e
       -0.053222086 -0.13094458 0.11423812 0.22682422
0002a0 c5 6e 61 be b8 9e 89 3d 95 fe 2b 3d ad 05 83 3d
       -0.22014911 0.06719726 0.041990835 0.06397567
0002b0 81 9a df bc bb 24 83 bd b9 0b 42 bd 94 65 6f be
       -0.027295353 -0.0640349 -0.04737446 -0.23378593
0002c0 e4 76 5b 3c 00 50 7c 3d d4 18 fc bd 39 28 9f bc
       0.013395045 0.06159973 -0.12309423 -0.01942836
0002d0 e4 c4 99 bc 6b d9 95 3d 9e a6 d7 bd ee ae b3 bd
       -0.018770643 0.0731686 -0.105298266 -0.087735996
0002e0 5c 50 c0 bd ae 1f 8b 3d 7d 9f c5 3d ae 6a 28 3d
       -0.09390327 0.06793152 0.096495606 0.041117363
0002f0 6f 1b ff bd d3 79 de bc 91 25 1a be 07 35 e0 bc
       -0.124564044 -0.0271577 -0.15053393 -0.027369035
000300 ea 40 da 3b 1d a6 bd bd 8e 6b 7c bd 24 50 b2 3d
       0.0066605704 -0.09260199 -0.06162601 0.08706692
000310 75 ce 0c be a2 53 59 3e 3e 6b c4 bd 95 5a 50 3d
       -0.13750632 0.2122331 -0.09590767 0.050867636
000320 64 29 98 3c b5 5a 0b bd c5 b9 93 3d 04 f9 99 3d
       0.018574424 -0.03402205 0.07213167 0.07518199
000330 10 39 81 3d 7f 0f 94 3e 7d bc c2 3d d4 3a 95 bd
       0.06309712 0.28918073 0.095086075 -0.07286611
000340 95 69 09 be a7 9a b9 3d 55 d2 7a 3d 40 b1 3f bd
       -0.13419183 0.09062701 0.061235745 -0.0467999
000350 20 96 20 bd c3 88 0e bf 4e 26 01 3d ae 90 7d 3d
       -0.03920567 -0.5567743 0.03153067 0.061905555
000360 55 b0 8f 3e 04 df e2 bc a5 e2 81 3d c8 5a ed bd
       0.28064218 -0.027694233 0.06342057 -0.11589581
000370 2f 6a bd 3d 94 91 c7 bd a1 af 78 3d 6e 0d fb 3c
       0.092487685 -0.09744564 0.060714368 0.030646052
000380 34 fc 95 bc 06 f0 1e 3d 4e 65 9d 3d a1 47 5a bc
       -0.018308736 0.038803123 0.07685338 -0.013322742
000390 47 c9 dc 3d 99 3e 72 3d 2b 07 af 3d 16 06 d8 bd
       0.10780578 0.05914173 0.08546289 -0.10548036
0003a0 3b 11 a3 bd ab 77 74 bd 2e 89 a4 bd d9 de a2 bd
       -0.07962271 -0.059684437 -0.080339774 -0.07952661
0003b0 18 19 dc bd a9 7e 96 bc c7 3f 2e 3d ff 6b 96 3c
       -0.10746974 -0.018370943 0.04254129 0.018362043
0003c0 a0 f4 83 be 17 c8 77 be 2a d9 a6 3d 5f b8 9e bd
       -0.25772572 -0.24197422 0.081468895 -0.0775001
0003d0 b2 d0 61 bd 30 55 bf bd bd 33 20 3d 64 02 84 bb
       -0.055130668 -0.0934242 0.03911184 -0.0040286053
0003e0 1d 64 c9 bd 18 7a f1 bd c9 4b 0e bb 49 2b 28 be
       -0.09833548 -0.11790866 -0.0021712652 -0.16422762
0003f0 4e 6a 2d be df 14 8b 3b f2 7a eb bd 67 47 23 3d
       -0.16935083 0.0042444314 -0.11498059 0.039863016

btcnn.layers.0.conv1d.bias f4 [27]
000000 62 fc d8 bc 22 a5 ac bd 94 15 ef bc ae b1 9b bd
       -0.026487533 -0.08429934 -0.029185094 -0.07602249
000010 76 51 af bc e2 97 a5 3c ba 81 f2 bd 38 a2 d1 3b
       -0.021401148 0.020214025 -0.1184115 0.006397512
000020 bd 06 43 3d 6c 62 42 bd 25 00 41 3d 08 01 96 3c
       0.047613848 -0.047457144 0.04711928 0.018311039
000030 a0 d8 7c bc a6 a1 24 bd a4 d5 8c bd 28 5c 13 be
       -0.015432507 -0.040193222 -0.06876686 -0.14390624
000040 4c 52 27 3e 9f e5 00 3e 82 9f ac bc 01 b5 5d bd
       0.16339988 0.12587593 -0.021072153 -0.054127697
000050 a8 5f 70 3c cf ee ab bd e3 92 24 bd fa e3 8f bd
       0.014671244 -0.083951585 -0.040179145 -0.07025905
000060 1d e0 96 3d 68 16 eb bc 07 21 92 38
       0.07366965 -0.028697208 6.967974e-05

fcnn.0.weight f4 [256, 27]
000000 5a 8d 9b 3d 86 23 50 be de c6 5a 3e ea 82 3b 3e
       0.0759532 -0.20326051 0.21364924 0.18311659
000010 fc c7 8a 3d 7d 41 37 3e 51 48 14 3e 1c 90 9f bd
       0.06776425 0.17896076 0.14480712 -0.077911586
000020 69 99 29 3d 58 67 c3 bd be 44 33 3e 9e 41 31 be
       0.04140607 -0.09541196 0.17506692 -0.17310187
000030 68 99 6f 3c c3 d4 59 be 5b e3 59 3e 4a 51 de 3d
       0.014623977 -0.21272568 0.21278135 0.108553484
000040 7c 5d 1c be 45 ad a6 3c 2f 20 6c bd ba 5d 11 be
       -0.15270036 0.020346293 -0.05764788 -0.1419591
000050 51 6f 2d be d7 8d 60 3e 0d a6 68 bc 46 79 7e bd
       -0.16936995 0.21929108 -0.014199746 -0.062127374
000060 db d1 30 3e 58 ca 19 be af a9 24 be a2 da 80 3d
       0.17267554 -0.15018594 -0.16080354 0.06291701
000070 bb 63 44 3d 4e 75 9f 3d cc a7 57 3a 83 35 0e be
       0.047946673 0.07786046 0.0008226603 -0.138876
000080 c3 f4 21 3e c5 3f 8c 3d 6f 42 53 be 00 14 97 3d
       0.15816025 0.068481006 -0.20630811 0.073768616
000090 d1 91 fb bd d3 29 3e 3d d5 f6 c7 bd c2 72 8b bd
       -0.12283672 0.046426605 -0.09763876 -0.06808998
0000a0 39 e2 28 be bc bf 9c 3b 90 c4 f9 3d 91 da 91 3e
       -0.16492547 0.0047835987 0.121956944 0.28487065
0000b0 21 53 4e 3d 8b f5 05 3e f8 9b f5 bd c0 fb a4 bc
       0.050372247 0.13081948 -0.11992639 -0.020139575
0000c0 53 fa 56 3c 4a b8 29 3e d0 68 e5 bd 96 f9 5c be
       0.013121205 0.16574207 -0.11201632 -0.21579584
0000d0 29 8b d9 3d c9 bb 4b 3e 20 f7 77 bd 3d b6 80 be
       0.10622246 0.19895853 -0.06053841 -0.25139037
0000e0 a6 f6 81 3d a2 8f b6 be b0 c6 5c bd 95 1f a8 bd
       0.063458726 -0.35656458 -0.05390042 -0.08209149
0000f0 63 68 d4 bd 00 57 2b be df 99 26 3d 91 b8 40 be
       -0.10371473 -0.16732407 0.040674087 -0.18820406
000100 53 ef ab bc 01 61 14 3e 4c 98 87 3c 55 2c 40 3e
       -0.020988142 0.14490129 0.016552113 0.18766911
000110 8b 6d 81 bc 90 16 b4 bd 0a 99 03 3e cf 07 22 bc
       -0.015799304 -0.08793366 0.12851349 -0.009889557
000120 be 8c 18 bd 4b 62 91 bb 73 af f5 3c f0 6d 72 bd
       -0.037243597 -0.0044367663 0.029990887 -0.059186876
000130 d9 53 51 3e bb 6f a8 3d 57 f5 eb bb 18 fb 12 bd
       0.20442142 0.08224436 -0.0072008776 -0.035883993
000140 48 a4 20 3d db 5e bb bd 4d 25 93 3d 86 a1 cb bc
       0.03921917 -0.091489516 0.07184849 -0.024857294
000150 87 cd 56 be 0d f8 5c be 7d 84 40 be b7 f5 00 be
       -0.2097684 -0.21578999 -0.1880054 -0.12593733
000160 c6 ce ba 3d 9c e2 e8 3d 8a fb a4 bd 93 d7 07 be
       0.0912147 0.11371347 -0.0805579 -0.13265829
000170 8d 53 45 3e 30 51 56 3e d1 15 0e bd 9b bc 80 bb
       0.19270153 0.20929408 -0.034688774 -0.0039287335
000180 ca f9 80 3d 90 cb df 3d df 7e 4d 3e 79 90 2a be
       0.062976435 0.10927498 0.20067929 -0.16656674
000190 7e 56 3a bd a8 9f f1 bb 6a 39 dd 3c 66 80 a1 bc
       -0.04549264 -0.007373769 0.027004916 -0.019714545
0001a0 1d 81 4d be 2b 16 db 3d cc aa 02 be 60 0c b6 bd
       -0.20068784 0.106975876 -0.12760466 -0.08889079
0001b0 64 87 07 3d 96 79 09 be bd 86 17 bc 1e ff 7d 3d
       0.033088103 -0.13425288 -0.009248433 0.062010877
0001c0 8a 94 8f bd aa ac c1 bb fa 10 2d 3e b2 26 05 3b
       -0.070107535 -0.0059104757 0.16901007 0.0020317254
0001d0 cc 19 ec 3d 0b ba 35 be 26 bc 6c bd a5 0a 44 3e
       0.11528358 -0.17746751 -0.05779662 0.19144686
0001e0 23 d1 41 3c 9e eb 05 3e 8d db 97 3d 50 c9 47 bd
       0.011829647 0.13078162 0.07414923 -0.04877597
0001f0 4b db 12 3e f6 d8 81 bd 8c ac fa 3d d6 ae 9f bd
       0.14341466 -0.0634021 0.12239942 -0.07797019
000200 37 6d a3 3d aa d2 40 be 9b 74 bf bd fb fc b9 3d
       0.079798155 -0.18830362 -0.093484126 0.09081455
000210 2f f8 c2 bd c5 4b 1a 3c 44 38 00 be 69 1c 81 3d
       -0.095199935 0.009417479 -0.12521464 0.06304247
000220 54 a9 ff bd 8d a5 f8 3d aa a7 13 be 25 27 5f 3e
       -0.12483469 0.12140951 -0.14419428 0.21792276
000230 6c f5 7d be 58 e8 8d bd 7d 8c 5c 3d a2 89 e2 bd
       -0.24800652 -0.06929082 0.053844918 -0.110614076
000240 40 d0 a5 bd 87 49 28 3c ab 19 a3 3d a0 31 0d bd
       -0.08096361 0.010271437 0.0796388 -0.034471154
000250 0e 40 f2 3d 2c 68 28 3e 60 dd 4d bd d0 eb b9 bd
       0.11828624 0.16445988 -0.050259948 -0.09078181
000260 69 0b 9c bd 24 f0 25 bd 7b 1c bf 3d 0b eb d8 bd
       -0.07619364 -0.04051222 0.09331604 -0.10591706
000270 dd e7 03 3e 57 58 2b be 46 31 1a 3d f6 2f da 3d
       0.12881418 -0.16732918 0.037644647 0.10653679
000280 15 4c bb 3d 82 0a 78 bc 11 92 fe 3d 43 d9 ad be
       0.09145371 -0.015139224 0.12430204 -0.3395482
000290 1e f7 60 be cf ba 6a be 07 2e 42 3e d2 ca 6c bd
       -0.21969268 -0.22922824 0.1896287 -0.057810612
0002a0 5d aa a4 bd 88 68 7c be da 50 2b be 7b d5 ec bd
       -0.08040307 -0.2464925 -0.16730061 -0.11564156
0002b0 74 e5 49 bd 62 5d 1f 3e 08 7d 23 3d d4 d5 bd 3c
       -0.04929109 0.15562966 0.03991416 0.02317325
0002c0 0e ff 20 3e e3 97 94 bd d4 f9 3d 3d 4d 19 4f 3e
       0.15722296 -0.072555326 0.046380833 0.20224495
0002d0 03 7a c7 bc c4 68 22 be c2 d4 1f be 07 52 ea 3d
       -0.024350172 -0.15860277 -0.15608504 0.11441427
0002e0 37 a6 a7 3d 63 05 32 be 06 a0 37 be 9e 51 04 3d
       0.08186 -0.17384867 -0.17932138 0.0323044
0002f0 ab bc ae bc 68 01 07 3e c6 a8 27 bf 31 f8 76 3d
       -0.021330198 0.1318413 -0.654919 0.060295288
000300 6b a1 39 3e 19 42 2a be c8 8f 0f 3e 76 ed 76 3e
       0.18127982 -0.16626777 0.14019692 0.24114022
000310 73 59 20 3d 74 99 8a bd 56 90 49 3c 29 79 7c bb
       0.039147805 -0.0676755 0.012302479 -0.0038524366
000320 64 21 72 be 9e da 0d 3e ee 36 36 bd 43 fc 4b 3e
       -0.2364555 0.13852927 -0.04448598 0.19920449
000330 84 73 56 3e 17 ea af be ea 40 5e bc 4f 4b b2 bc
       0.20942503 -0.34358284 -0.013565281 -0.021764426
000340 16 f8 4e 3d 71 6e cb 3c 4b 11 1d 3d 36 42 0b be
       0.050529562 0.024832936 0.03834657 -0.13599476
000350 9f 07 02 be 0e 75 74 bd 59 be 83 be e0 e1 ae bd
       -0.1269822 -0.059681945 -0.2573116 -0.08539176
000360 66 34 2c be c7 e5 c2 bd 02 20 98 3d 87 a7 c2 3d
       -0.16816863 -0.09516483 0.0742798 0.095046096
000370 fe 02 0a be 06 85 27 3d 9b e3 49 3d fc c2 78 3e
       -0.13477704 0.040898345 0.049289327 0.2429313
000380 e7 6d 40 3e 34 ea 1e be d7 cf 32 be 22 d2 1d 3e
       0.18791924 -0.15519029 -0.17462097 0.1541219
000390 8c 79 fd bc 51 6d 8a 3d bb ad 54 3d 26 95 cf 3d
       -0.030941747 0.06759132 0.051923495 0.1013587
0003a0 bf ce f2 38 45 c6 2d 3e f0 a0 2c 3d 89 af 30 3e
       0.00011577969 0.16970165 0.04214567 0.17254461
0003b0 9c c2 2b 3e 2b 25 77 bd a1 63 84 3d d1 77 23 bd
       0.16773456 -0.06033818 0.06464315 -0.039909188
0003c0 ac 20 32 be cb ce 0f be bc 9d 16 3c 1d 26 29 be
       -0.17395276 -0.14043729 0.00919288 -0.16518445
0003d0 13 1e a6 3d f8 9e 5c be 7f 63 cc bc 3d cb ba 3c
       0.08111205 -0.21545017 -0.024949787 0.02280199
0003e0 ec 3d 5e be 7f f3 03 be aa 0f cf bc 46 41 8e bd
       -0.21703309 -0.12885855 -0.025276024 -0.06946044
0003f0 1f 68 89 bd b8 1b 0a be 19 54 00 3e e6 c6 6b bd
       -0.06709313 -0.13487136 0.1253208 -0.05756273

fcnn.0.bias f4 [256]
000000 fc f2 b1 3d 1e db 62 3e 40 df 19 3e 06 f9 ff bd
       0.08688924 0.22153899 0.1502657 -0.12498669
000010 e9 ef 18 3c d0 8d 78 3c 6b 91 61 3e b1 2d 39 3e
       0.009334543 0.0151705295 0.22028129 0.18083836
000020 19 ae 35 3d 83 ce c0 3d 72 45 f9 3d 00 c3 b0 bd
       0.044355486 0.09414389 0.12171449 -0.08630943
000030 d8 4a bd bb cd dc d0 3d 4d a1 d7 3d a7 6d 33 bd
       -0.0057767443 0.101983644 0.105288126 -0.043805744
000040 62 c8 fc 3d 27 6e 57 3d 10 81 88 3d ed ca ea 3d
       0.123429075 0.052595284 0.06665242 0.11464486
000050 94 09 64 3d af 00 27 be 9e e6 af 3d ec 59 49 3e
       0.055673197 -0.16308855 0.085889086 0.19663209
000060 49 e4 8e bc 50 b6 01 3e 05 50 f2 bd 92 e8 d3 bb
       -0.01744284 0.12667203 -0.11831669 -0.0064669335
000070 8e 7b c1 bd 63 b3 0e bd 89 85 38 3e f9 31 ad bd
       -0.09447394 -0.034839045 0.1801969 -0.08456797
000080 d0 25 26 3e 3b 89 f6 bd 0f 13 48 3e f8 2b 0f be
       0.16225362 -0.120378934 0.1953852 -0.13981616
000090 87 c9 37 3d 74 88 33 be 66 1c e2 bd 1a 5d a2 bd
       0.044869926 -0.17532521 -0.11040573 -0.07927914
0000a0 6f 48 80 bc 65 9c 29 bd fe ca 82 3e 44 6f d1 bd
       -0.015659539 -0.041408915 0.25545496 -0.102263
0000b0 b4 9a b7 3c fc b3 d3 bd 6b 7e f1 bd 2f 01 d0 bd
       0.022412635 -0.10337064 -0.117916904 -0.10156476
0000c0 b3 3b 8a 3c d1 81 ba 3d 52 d9 d2 bd b9 e1 c1 3d
       0.01687417 0.09106792 -0.10295357 0.09466881
0000d0 85 fb 1a be 11 22 d9 b9 ea 8f bd bc a6 a6 6f 3e
       -0.1513501 -0.00041414847 -0.023139913 0.23403415
0000e0 00 ed 1b be cf 6e f5 3d c1 56 25 be 29 a1 11 3e
       -0.15227127 0.11984026 -0.16146375 0.14221634
0000f0 7f dc 84 bd e4 cf 74 3d 11 93 df bd 6c 3a 82 3d
       -0.06487369 0.059768572 -0.109167226 0.06358799
000100 33 93 21 be 6e 8d c4 3c b9 6b 4c 3e 5c 78 54 3d
       -0.15778808 0.02399322 0.19962968 0.051872596
000110 2f b1 06 3d 15 ca 10 3e 6a 7f 0c 3e 78 52 ba 3d
       0.03288382 0.14139588 0.1372048 0.09097761
000120 86 18 b0 3d 49 af 11 3e 6e 0d e0 bd 5a 10 54 3e
       0.085984275 0.14227022 -0.109400615 0.20709363
000130 8b 3b 2d bc 79 6b c0 3d 5f 3f cb bd 6d d0 15 be
       -0.010573278 0.09395499 -0.099241965 -0.1463029
000140 f4 1f 32 3e 06 82 13 be d9 24 28 be 35 48 dd 3d
       0.17395002 -0.14405069 -0.16420306 0.10804788
000150 bc f1 05 3e a8 c3 b3 3d fd 5e 3d bc 06 93 60 3e
       0.13080496 0.08777553 -0.0115582915 0.21931085
000160 e9 ed 98 3d 76 63 04 be 2b e5 91 3d 9c 07 54 3e
       0.07467253 -0.12928566 0.071237884 0.20706028
000170 12 7e 0c be 5b 83 29 3e d9 ce 21 be 40 b9 df 3d
       -0.13719967 0.16554014 -0.15801562 0.109240055
000180 1a 2c fd 3c 05 36 1e 3e 4f 9d 5f be 29 a5 a3 bc
       0.030904818 0.15450294 -0.21837352 -0.019976215
000190 47 16 58 be a2 69 d0 3c 4a 26 f9 bd 08 35 e8 bd
       -0.21102248 0.025440995 -0.12165506 -0.1133824
0001a0 f1 b6 e9 3d fc 6f 0f be c3 01 16 be 60 29 1a be
       0.114118464 -0.14007562 -0.1464911 -0.15054846
0001b0 96 47 00 3e c2 c0 2a bc 46 18 2e be f8 60 12 3e
       0.12527308 -0.010421934 -0.17001447 0.14294803
0001c0 8b 9e 2b be 64 45 30 3d d4 8c 4d 3e 15 34 03 be
       -0.16759698 0.043034926 0.20073253 -0.12812836
0001d0 f7 ec 33 3e 55 0e 8d 3d ea 50 ed 3d 5c 75 2b be
       0.17570864 0.06887499 0.11587699 -0.16743988
0001e0 cf be 8a bd df 71 1e bd c3 85 de bd 6a bd cb bd
       -0.06774675 -0.038682815 -0.10865357 -0.09948237
0001f0 2f d7 bf 3d 8f 9d 47 3e 12 6b 0f be 5b 3d 0d 3d
       0.09367215 0.19493698 -0.14005688 0.03448234
000200 28 7c f1 3d ed 0f 29 3e f2 73 29 3e 96 2d 14 3d
       0.11791259 0.16509981 0.16548136 0.036176287
000210 7d 01 83 bd d9 4e fc 3d b6 b2 fa bd 4a 8d 54 be
       -0.06396768 0.123197265 -0.12241118 -0.20757023
000220 d7 a6 06 be ca 9f 26 3d 56 20 02 3d 63 4a 18 3e
       -0.13149582 0.04067973 0.03176912 0.14872126
000230 0f 9f e8 3d 4a a2 22 3d c4 9f 6a bd 03 a3 4a 3e
       0.11358463 0.039705552 -0.05728127 0.19788747
000240 4b c8 e4 3d 7a 15 e6 bc 26 1d 85 bd 86 88 5f 3e
       0.11171015 -0.028086413 -0.064997 0.21829423
000250 bd 6a 19 3e 8c c6 81 3d 47 cc 06 be 0c 9a e4 3d
       0.14982124 0.06336698 -0.13163863 0.111621946
000260 c9 54 28 3e c9 be 45 3e 57 9d d5 bd 71 5f 4d bd
       0.16438593 0.1931106 -0.10430401 -0.05013985
000270 58 ad a4 3d 0e 20 f0 bd b6 f1 7b be 62 04 84 3d
       0.08040875 -0.11724864 -0.24603924 0.064461485
000280 be eb d9 bd c2 17 20 3e aa 82 4a 3d f5 39 50 be
       -0.106406674 0.15634063 0.049441017 -0.20334609
000290 c7 3f ec bc c4 f3 85 bc ae 14 17 be e8 bf 5f be
       -0.028839005 -0.016351588 -0.14753982 -0.2185055
0002a0 da 15 91 bd 01 26 b8 3d ef 98 c1 bd be 89 39 3e
       -0.07084246 0.08991624 -0.09452998 0.1811895
0002b0 b2 50 1c 3d 85 48 89 bd 61 7f 1e 3e 1f 0d c9 3d
       0.038162895 -0.06703285 0.15478279 0.09816956
0002c0 56 d0 fe bd c6 d3 50 3e df 48 10 be 8e 23 2b 3e
       -0.12442081 0.20393285 -0.14090298 0.16712782
0002d0 52 8d 2e bd 7f 52 a8 bd f3 85 8e bd a2 b7 95 3d
       -0.042615242 -0.0821886 -0.069591425 0.07310416
0002e0 b9 94 73 3e 07 b0 44 be e9 a6 11 be fa e5 93 bd
       0.23787202 -0.19207774 -0.14223827 -0.07221599
0002f0 1e f9 1c 3e a8 24 ce 3d d4 0e 9a 3d 26 4f 12 be
       0.15329406 0.100655854 0.075223595 -0.14288005
000300 2c dc 72 ba 66 64 18 3e 93 5b 0b 3d 5c e6 2d 3e
       -0.00092643755 0.14882049 0.03402288 0.16982406
000310 ac 21 30 be 9c 98 e5 bd 80 ac 95 3d 69 2b 0c 3e
       -0.17200345 -0.112107486 0.073082924 0.13688435
000320 5d a0 9c bd b5 7c f3 bc 0b c8 33 bd 4d d1 2e be
       -0.07647774 -0.02972255 -0.043891948 -0.1707203
000330 b9 47 88 bd bb c5 54 3e df b6 ce 3d d3 95 17 3e
       -0.06654305 0.20778553 0.10093474 0.14803247
000340 a2 1b 9c 3d 7e 5e d6 3d 5c 17 e5 3d ff 27 ad 3d
       0.07622458 0.10467242 0.11186096 0.08454894
000350 27 a7 bc bc 33 db 8e bd 20 19 09 be 66 d6 43 3e
       -0.023028923 -0.06975403 -0.1338849 0.19124755
000360 fb 78 cd bd be 75 53 bb 43 79 17 bd 8f a8 98 bd
       -0.10032841 -0.0032266225 -0.03698088 -0.07454025
000370 96 31 d0 3d ba f3 40 3e e7 5f cd 3d 10 04 af 3d
       0.10165708 0.18842974 0.100280575 0.08545697
000380 70 15 fd bd 60 d2 25 3e 6e 94 98 3d ca 8a d8 3b
       -0.123576045 0.16193533 0.07450186 0.006608342
000390 3c 60 d8 3c 62 2f 42 3c 4b 66 8a 3d 3c 93 a8 3d
       0.026413076 0.011852117 0.06757792 0.08231208
0003a0 a8 15 95 bc 37 2a ff 3d 96 4c 11 3e 0a 4f 27 3e
       -0.018198803 0.12459224 0.14189371 0.16338745
0003b0 33 3d a8 3b 68 d2 e2 bc 5f a6 10 3e b5 83 71 bd
       0.0051342486 -0.02768822 0.14125966 -0.058963496
0003c0 74 61 82 3e 8a 1d 0d 3e 00 04 cf bd 27 e5 0c bd
       0.25464976 0.137808 -0.10108185 -0.034398224
0003d0 1f 1e ae 3d 7e a3 3b 3c 41 7d 4d be b4 b2 40 bc
       0.08501839 0.011452554 -0.20067312 -0.011761356
0003e0 88 47 32 bd c0 c9 b3 bd ce 8b 4d be 39 dc 9e 3d
       -0.04352525 -0.08778715 -0.20072863 0.07756848
0003f0 e4 b1 9b bd a6 5b 3c be 6a e0 2c 3e 3f 83 d7 bd
       -0.07602289 -0.18394336 0.16882482 -0.1052308

fcnn.2.weight f4 [128, 256]
000000 af 1d 59 bc 5d 41 6d 3d 9e 11 66 be 5e 48 5e 3e
       -0.013251706 0.057923663 -0.22467658 0.21707293
000010 46 0e 91 bd 93 df 32 bc 51 2e 4b be 9d 33 86 3e
       -0.070828006 -0.010917562 -0.19841887 0.26211253
000020 de 7d 9a 3c 0a 36 74 3c 4e 29 9e 3d d3 fb 0e bd
       0.018858846 0.014905462 0.07722722 -0.034908127
000030 a2 61 5a bd 8a 3d 57 3c d4 0e 88 3d 88 70 48 bc
       -0.053315766 0.013137231 0.06643453 -0.012233861
000040 fb 9d c1 3d a0 2d d9 bb 12 9d 59 bd ff 26 6f 3c
       0.094539605 -0.0066277534 -0.05312831 0.0145967
000050 7c 84 a0 bd 12 46 d5 bd 1c 51 ce bd d9 73 14 3d
       -0.078377694 -0.104137555 -0.10074064 0.036243293
000060 54 00 7a 3d 9a 4d 89 3e 5b 9e 9b bc f4 3d 78 bd
       0.06103547 0.26817018 -0.018996408 -0.060605958
000070 c1 b9 2e bc 80 c8 ce 3c cc 76 8b 3c 15 33 9b bc
       -0.010664404 0.02524209 0.01702442 -0.018945256
000080 73 27 0a bd ef e5 70 bd 4f ed 08 bd fe 8f fc 3b
       -0.033729028 -0.05881303 -0.03342944 0.007707595
000090 5b 19 38 3d 79 e9 99 3d 80 f1 9d 3d 7b 38 30 3d
       0.044946056 0.075152345 0.07712078 0.043022614
0000a0 87 96 92 bd 2e c4 63 3d 78 1a 5c be 24 60 cf bb
       -0.07157617 0.055607013 -0.21494472 -0.0063285995
0000b0 73 a7 3b bc 25 39 62 bd a4 d2 2c bd 8a 59 5a 3c
       -0.011453497 -0.05523028 -0.04219307 0.013327012
0000c0 a4 dd 59 3e a9 26 a6 bd 5b ca b2 bc b6 7c 99 be
       0.21275955 -0.081128426 -0.021825006 -0.2997796
0000d0 c6 77 a9 3d 3a 26 28 3d 41 41 85 bc 84 76 02 3e
       0.08274798 0.04105208 -0.016266467 0.12740523
0000e0 12 e2 4e 3d 20 3e e4 3d dd 30 22 3d 7b d7 0c 3e
       0.050508566 0.11144662 0.03959738 0.13754074
0000f0 c4 6f 68 3d 38 e3 00 3b d5 db d1 bc e3 89 54 ba
       0.056747213 0.0019666683 -0.02561752 -0.0008107705
000100 92 78 35 bb 03 8e 8b 3d 7a e5 9f bd cd 0f 66 3d
       -0.0027690274 0.06814196 -0.07807441 0.056167413
000110 19 2c 74 3c b1 7a ac 3d 58 43 86 bd 26 9b 70 bb
       0.014903092 0.08421839 -0.065558136 -0.003671357
000120 f3 be 66 3d 4d 78 25 bd d1 50 eb be f5 5b 5d 3e
       0.056334447 -0.04039793 -0.45960096 0.2161711
000130 5b 58 89 bc 5f 16 46 bd 2b 59 9f 3d 09 e8 90 3d
       -0.016765764 -0.04836118 0.07780679 0.07075507
000140 c3 f1 4d be 0c 26 af 3c 4d e8 a0 3d 97 ed b4 3b
       -0.20111756 0.021380447 0.07856808 0.005521487
000150 06 b3 9f bd e5 d9 f5 bc 81 f6 50 bd c4 f2 e4 38
       -0.07797818 -0.030011127 -0.051016334 0.00010917106
000160 43 49 e0 3d bb 14 a4 3d eb 3c 16 3d c7 a8 11 3d
       0.109514736 0.080117665 0.03667919 0.03556135
000170 4e 43 b4 3d 1f 60 a7 bd 9d 15 c1 bc f2 b3 59 bd
       0.088019 -0.081726305 -0.023569876 -0.053150125
000180 db 5a d9 3d 2e 46 e6 bc a7 95 97 ba 23 b9 81 3b
       0.106130324 -0.028109636 -0.0011564986 0.0039588376
000190 1a 95 57 3d 87 f5 90 3d 80 ca d3 ba 5f 9b ac be
       0.05263243 0.070780806 -0.0016158372 -0.3371229
0001a0 0a 01 83 bd 0f 5e 17 bd 22 46 89 3d f5 08 c9 3d
       -0.063966826 -0.036954936 0.0670283 0.098161615
0001b0 d7 5a 5c 3e 0a 33 a2 3d c6 78 ec 3c bb d0 ac 3c
       0.21519028 0.07919891 0.028866183 0.021095624
0001c0 f1 95 1a 3d 91 34 12 3c 8c 33 a8 bc bf 13 7a bc
       0.03774065 0.008923666 -0.020532392 -0.015263497
0001d0 4a 39 a5 3d b9 5e 95 38 6c 5e a6 3c f8 b7 f2 bb
       0.08067568 7.122517e-05 0.020308696 -0.0074071847
0001e0 5a 7c 07 3c 6a de e8 3c 24 6c 3c 3b 63 1a 2b ba
       0.008269394 0.028426368 0.002875098 -0.0006527064
0001f0 7b ca bc bd e3 82 c6 3d dc 01 87 3c 89 7c 9e 3a
       -0.092183076 0.096929334 0.016480379 0.0012091558
000200 b0 b0 7f 3d c5 4f ca bd b6 b9 54 bd ae 36 6a 3b
       0.06242436 -0.09878496 -0.05193492 0.0035738158
000210 8d 01 ab bc 70 02 04 be 75 85 ff 3c 64 90 53 3d
       -0.020874763 -0.12891555 0.031191567 0.051651374
000220 91 07 3e 3c 22 2c 90 3c 73 40 89 bc c7 61 8a 3d
       0.011598484 0.01759917 -0.016754365 0.06756931
000230 e5 a6 55 3d f0 d2 46 bd b6 fb 97 3d 46 b5 4d bc
       0.052161116 -0.04854101 0.07421057 -0.012555426
000240 1c 45 3c bd 64 84 65 3d 92 a9 21 bd e9 e4 82 3e
       -0.045964345 0.05603446 -0.039468355 0.2556527
000250 4e 95 97 3e 8a 40 70 3e ab 21 90 bc ba c8 c3 3d
       0.29606098 0.2346212 -0.01759418 0.0955977
000260 80 1b 18 3d 38 73 b9 bd 03 54 bb 3d f8 b5 80 3e
       0.0371356 -0.09055179 0.09146883 0.2513883
000270 d2 3a 73 3c 64 5e 37 bd 92 ce 74 bd 2e cc 22 bd
       0.014845567 -0.044767752 -0.059767313 -0.039745502
000280 5a cb 59 bc 60 08 30 3d 11 d7 1f bc 13 f9 41 bc
       -0.013293112 0.042976737 -0.009755866 -0.011839169
000290 fb 52 bb be 22 1e 4a 3e ae 2c 81 3d 31 44 c3 bc
       -0.36586747 0.19738057 0.0630735 -0.023836227
0002a0 06 34 08 bd ca b9 8d 3b df 42 8e 3d c2 45 84 3d
       -0.03325274 0.0043251263 0.069463484 0.06458618
0002b0 d2 0a ed 3c 40 8c 26 bc 1e 62 8e 3c fa db e2 bd
       0.028935824 -0.010165274 0.01738077 -0.110771134
0002c0 3a d0 c5 3c d1 87 09 3e 61 ed ed bd 46 9b b5 bc
       0.024147142 0.13430716 -0.11617542 -0.022168767
0002d0 f6 39 75 3d e8 3e 96 3d 49 52 14 bd 79 47 fa bb
       0.05986973 0.07336217 -0.036211286 -0.0076379147
0002e0 e4 93 f3 bd 1f 18 16 3e 56 9d 4e 3d bc 10 91 3c
       -0.11893442 0.14657639 0.050443016 0.017708175
0002f0 d5 60 21 be b7 9f 0d bd 9b f0 60 bc 11 01 10 3e
       -0.15759595 -0.034576144 -0.01372924 0.14062907
000300 de df 0f 3d 72 b4 71 bb c9 dd 18 bf 44 17 73 3d
       0.035125606 -0.0036881235 -0.5971342 0.05934836
000310 4f fc b1 3c f6 89 c0 3c 26 d4 49 3d b6 19 1b 3e
       0.021726755 0.023503285 0.049274586 0.15146527
000320 15 34 0c 3c 86 48 8b 3d 81 66 53 3b e4 ff 8e 3d
       0.008557339 0.06800942 0.0032257142 0.06982401
000330 e9 e6 57 bc 08 74 93 3d e3 0f c0 3c c6 b2 08 3e
       -0.013177612 0.071998656 0.023445075 0.13349447
000340 f2 a6 41 3d e4 b0 c6 3d 9f 26 e9 3c 24 38 42 3e
       0.047278352 0.09701708 0.028460799 0.18966728
000350 e1 d2 b5 3d 08 e7 f7 bd e4 2a 83 be 14 e5 8f 3c
       0.088781126 -0.121046126 -0.2561866 0.017565288
000360 33 18 5c bb 15 b5 c1 bd b6 2d d4 bd 42 fe ba 3d
       -0.003358376 -0.09458367 -0.10360281 0.09130527
000370 33 07 43 be 58 4f 49 3e b6 6c 5c 3d 44 27 35 bd
       -0.19045715 0.19659173 0.053814612 -0.0442269
000380 cb 40 ec 3c d5 03 42 bc ce af 17 3e 7d f6 fa bc
       0.02883949 -0.011841734 0.14813158 -0.030635113
000390 8c 8c b5 3d 79 7f 2b be 6e 09 6e 3d 24 a4 a1 3d
       0.08864698 -0.16747846 0.05811446 0.078926355
0003a0 b5 b0 10 bf 24 41 04 be cd 4d b2 be 9e 5f 4e be
       -0.56519634 -0.12915474 -0.34824982 -0.20153663
0003b0 77 4d 1b bd 43 c0 30 3d 9e 24 83 bd 75 4f 19 3d
       -0.037915673 0.043152105 -0.064034685 0.03742929
0003c0 4a 1a 82 be 65 ab bd bc 85 2e c0 bc 59 3d 2d bd
       -0.25410682 -0.023153016 -0.023459682 -0.042294834
0003d0 cf 60 cd 3a 1d f7 8a 3d c3 8b 85 3d f0 36 8e 3d
       0.001566911 0.06785414 0.06520798 0.06944072
0003e0 ac 37 00 bd c1 a6 2b 3d 3d 40 2b 3e ac 67 42 bd
       -0.031303093 0.041907076 0.16723724 -0.04746215
0003f0 b4 f1 0b bd ad 37 d9 3d 76 36 1c 39 54 4c 1e 3d
       -0.034166053 0.106063224 0.00014897608 0.03864701

fcnn.2.bias f4 [128]
000000 8c 55 2f 3c da 8d 10 bd a6 56 35 3d ba 6e 49 bc
       0.010701548 -0.03529153 0.044272088 -0.012294466
000010 6f 7f bb 3d 54 f1 10 3e d2 ad 46 3d 3a 2c 78 3d
       0.091551654 0.1415456 0.04850561 0.060589053
000020 9c d2 94 bd e0 0f 02 3d 38 e6 c7 bb 22 e4 45 3d
       -0.07266733 0.03175342 -0.0061004423 0.048313268
000030 71 2d f8 3a 82 00 84 3c 99 96 cf 3d b0 66 26 bd
       0.0018934441 0.016113523 0.10136146 -0.040625274
000040 55 2d e2 bc 9e 52 44 3d 58 9d 40 3d 02 16 26 3d
       -0.027609507 0.047930352 0.047025055 0.040548332
000050 90 f7 f2 bc 9b ec 3e 3b 56 7d 5d 3b eb a3 d6 3d
       -0.029659063 0.0029132727 0.003379663 0.104804836
000060 57 62 2c bd 43 45 42 bc e9 8d 86 3c 0a 14 9d bb
       -0.04208597 -0.011857334 0.01642509 -0.0047936486
000070 61 7e 3e bd 61 99 bf 3c d9 6f 0a bd 5a 0d 7d 3b
       -0.046507243 0.023388566 -0.033798072 0.0038612694
000080 eb 70 e0 bc 94 93 36 3d 8b 45 b2 3c 83 2c 2f bd
       -0.027397593 0.044574335 0.021761676 -0.04276706
000090 5a 92 c2 3c a8 ba 4e 3d fe 1c c0 bd 4d e3 45 bd
       0.023751426 0.050470978 -0.0938053 -0.048312474
0000a0 02 7d de 3c 6e 2b 9e bc 58 54 08 3b ac 3f 48 3d
       0.027159218 -0.019307818 0.0020802226 0.048888847
0000b0 5f c8 4d bd 83 83 86 bd 02 b7 bb 3c 82 5b b3 3d
       -0.050239917 -0.065680526 0.022914413 0.08757688
0000c0 f5 37 ca bc 9a 1b 67 3d 25 b4 cd 3b 46 c6 3b 3c
       -0.024684886 0.056422807 0.0062775784 0.011460846
0000d0 4c 6e 74 3d 6f ae d4 3c 18 c7 ed bb 33 2e 45 3d
       0.0596755 0.025962083 -0.0072564 0.048139762
0000e0 96 f6 1e bd 08 3e 57 3d 6c 31 6f bc db f1 46 3d
       -0.03880938 0.052549392 -0.014599185 0.048570495
0000f0 14 97 f4 bc bb 6e 56 bd 88 ec 72 bd 03 96 9a bc
       -0.029857196 -0.052351695 -0.059307605 -0.01887036
000100 50 29 a6 38 67 0f a0 3d 0b a2 90 bd 5e 60 ae bc
       7.923192e-05 0.07815438 -0.07062157 -0.021286186
000110 7d 71 0e bd bd 4d 39 bd af 8d cf 3d 98 b4 c0 3b
       -0.0347762 -0.045240153 0.10134446 0.0058809035
000120 fe ed 8e 3d a1 a6 56 3c 30 64 d3 bc 00 da b4 bc
       0.06978987 0.013101251 -0.025804609 -0.022076607
000130 47 75 30 3d 78 a0 dc 3d 58 ea b5 3c 41 bd 01 bd
       0.043080594 0.107727945 0.02220647 -0.031674627
000140 87 2f a0 bd 15 36 6a bd d7 d9 51 3d 16 f7 6e 3d
       -0.07821565 -0.057180483 0.05123314 0.05834111
000150 3f da ec 3c f6 91 cd 3d fb 41 88 bd 5f ad ba 3d
       0.028912662 0.100376055 -0.0665321 0.09115099
000160 b5 f2 29 3d 70 d9 b8 3c 8e fc fe 3d 76 77 22 3d
       0.04149123 0.02256462 0.12450515 0.039664708
000170 57 05 6e 3c e3 1f 63 bd 92 29 58 bd ed 37 c6 3d
       0.01452764 -0.05545033 -0.05277402 0.09678636
000180 61 3e 1c 3c f4 e1 45 bb 21 4d d9 bc 5d 98 8a 3d
       0.009536357 -0.0030194493 -0.026526036 0.06767342
000190 1b 75 8c ba f8 e2 81 3d 3a a3 91 bd 8e 67 38 3b
       -0.0010716052 0.06342119 -0.07111211 0.0028137895
0001a0 ac bd bb 3d a7 e9 14 3c 79 65 7b 3d 22 28 c1 bc
       0.091670364 0.00908891 0.06137607 -0.023578707
0001b0 8d 98 fe bc 31 6c 33 bd 36 a0 f0 3c 48 89 f9 3c
       -0.031078601 -0.04380435 0.02937327 0.030460969
0001c0 4c 72 70 3b fc eb ab 3c 04 e2 04 bd 45 d3 8a bd
       0.003668922 0.02098655 -0.032442108 -0.06778578
0001d0 08 b9 14 bd b9 33 54 bd 3a 54 3e 3d 9d c2 8a 3c
       -0.036309272 -0.05180714 0.046467043 0.016938502
0001e0 22 76 ba bc 20 cc 3b bd 3e cc 05 3c aa 9a 39 bb
       -0.022761408 -0.045848966 0.008166371 -0.0028320947
0001f0 02 9b 00 3d f4 18 10 3d d3 8e 07 3d ff f3 81 3d
       0.031397827 0.035180047 0.033095192 0.06345367

fcnn.4.weight f4 [64, 128]
000000 b0 04 e0 bd 1b 57 36 bd bf 2b 16 3e eb 29 f7 be
       -0.10938394 -0.044516664 0.14665125 -0.48274168
000010 3e d2 14 bc c6 59 37 be 9b 7f 2f 3d 18 09 fe 3d
       -0.009083329 -0.1790534 0.042846303 0.12404078
000020 0e 8a 75 bd 26 90 be bd a6 ee 47 be d0 88 23 be
       -0.059946112 -0.09304838 -0.19524631 -0.15970159
000030 e8 4b e9 bd 3f 11 a3 bd f7 bf 37 3e f3 2c c3 3d
       -0.11391431 -0.07962274 0.17944323 0.09530058
000040 9e 65 7f be 30 9b 3a be 9b b9 c7 be e6 47 d3 3c
       -0.24941108 -0.18223262 -0.39008793 0.02579112
000050 b7 45 1a bc 10 54 05 be 38 a0 5a be 99 bf f3 bd
       -0.009416035 -0.13020349 -0.21350181 -0.11901779
000060 20 ad 7c be 2c 88 4f 3d b5 e5 2e bd 74 b8 d7 be
       -0.24675417 0.050666973 -0.042699534 -0.42132914
000070 32 5a 02 be fe dc c7 be 77 ff bf bd 35 43 00 3e
       -0.1272972 -0.3903579 -0.09374898 0.12525637
000080 d2 fa d1 bd 70 b0 e8 bd 0c 05 4f be d4 cd 8a be
       -0.10252918 -0.11361778 -0.20216769 -0.2711016
000090 32 a9 d7 3d e3 c6 f3 bd 47 f9 74 be d6 fe 99 bd
       0.10530318 -0.11903169 -0.23923217 -0.07519309
0000a0 50 ef 56 bd 5e 29 9a 3c 04 14 7c bd 20 5f 06 bd
       -0.05247432 0.018818554 -0.061542526 -0.032805562
0000b0 de 05 54 bd 28 05 b4 be 5a a7 b5 3d c1 52 e3 3d
       -0.051763408 -0.35160184 0.088698104 0.110997684
0000c0 4a a5 3d 3e 98 fd dc 3d 4c 5a 03 be 91 80 e1 be
       0.18520084 0.10790557 -0.12827414 -0.440434
0000d0 9a 74 0e be 48 6c dc bc 92 cd b9 be 95 66 a5 3c
       -0.13911667 -0.026907101 -0.3628965 0.020190516
0000e0 17 42 80 be b9 5d 36 3e 69 1a 19 be d3 4f 6f bd
       -0.25050423 0.1780919 -0.14951481 -0.058425736
0000f0 39 64 a1 be 79 6f 4d be ed 2f ed bd 42 43 0e be
       -0.31521776 -0.20062055 -0.11581407 -0.13892844
000100 91 1e 10 be fa 5b 81 3e ce 40 96 be 9b f9 0b bd
       -0.1407416 0.25265485 -0.29346317 -0.03417359
000110 00 78 87 be e8 80 50 be 71 75 f0 bd c5 08 de bd
       -0.2645874 -0.20361674 -0.1174115 -0.108415164
000120 26 8b 09 3c ae 2a 8e bd 80 b1 ae be b3 e5 54 be
       0.008394992 -0.06941734 -0.34119797 -0.20790748
000130 90 25 4d bd 97 40 89 3e 44 d7 ba bd 7e 0f af be
       -0.05008465 0.2680709 -0.0912309 -0.34191507
000140 45 17 93 be 91 fa 2f be 22 c9 3a 3d 4e e3 63 3c
       -0.2872869 -0.17185427 0.04560197 0.013909174
000150 21 c1 d0 bc 7c 03 b4 3e d7 b0 80 be 2a fe 95 bd
       -0.025482716 0.35158908 -0.25134918 -0.073238686
000160 3a d1 8f bd bf 29 34 be ad 31 ed 3d 1a 64 a1 3d
       -0.07022329 -0.1759405 0.115817405 0.07880421
000170 53 14 94 bd a1 9a 8b bd 08 15 4a 3c 60 58 35 bc
       -0.07230439 -0.068166025 0.012334116 -0.0110684335
000180 e3 46 a9 bd 38 80 99 be 29 92 f1 bc 90 dc b7 bc
       -0.08265474 -0.29980636 -0.02948864 -0.02244404
000190 78 7e 86 bd 33 ec 9e be 4b 6a a5 be 26 3c 09 be
       -0.06567091 -0.3103958 -0.32307658 -0.13401851
0001a0 4f d6 78 3c 72 b7 2a be f2 c0 fd bd 8e ef 89 be
       0.015187814 -0.16671541 -0.12390317 -0.26940578
0001b0 84 03 9c be 8e 57 f0 bd 89 66 bb bd 8d 42 38 bc
       -0.30471432 -0.1173545 -0.091504164 -0.011246336
0001c0 83 a4 3b 3c 4f 57 a9 b9 8c c1 9c be b3 63 3f be
       0.011452797 -0.00032299242 -0.30616415 -0.18690376
0001d0 78 7e e6 be c5 54 86 be d4 6d 92 3c b8 d6 82 bd
       -0.45018363 -0.2623655 0.017874636 -0.063886106
0001e0 72 e5 ba 3c 4d e6 7f 3b 77 02 27 bc bf 5a 65 be
       0.022814486 0.0039047182 -0.010193459 -0.22397898
0001f0 ec fe 95 be b4 92 43 be fb 75 6b bd 2c 81 bd 3d
       -0.29296052 -0.19098932 -0.05748556 0.09253153
000200 ec 1e 2f bd 5d 8f bb 3d 32 92 4d bc 1d cc 80 be
       -0.0427541 0.09158204 -0.012547063 -0.25155726
000210 5c 0d c3 3c ff 19 e2 bc 8e 89 18 3d f5 ba 4d 3c
       0.023810081 -0.027600287 0.037240557 0.012556781
000220 d2 be 75 3d 98 a5 0e be 15 1f 34 bd 3b ae b8 bc
       0.059996434 -0.13930357 -0.043974955 -0.022544017
000230 53 93 d2 3d 11 da cd 3c c5 2c cb bd 68 26 86 3d
       0.10282006 0.025128396 -0.099206485 0.06550294
000240 db aa a0 bd 3d 28 80 bd 76 a3 a1 be 34 5e 31 3d
       -0.07845088 -0.06257675 -0.31570023 0.04330273
000250 86 49 33 3e d7 16 ad 3d 5e 00 25 bd 93 1f 83 bd
       0.17508516 0.08451622 -0.040283553 -0.06402507
000260 99 d8 48 be ac 8b 3e 3d 64 6b 43 3d a8 aa 82 be
       -0.19613875 0.04651992 0.047709838 -0.25520825
000270 1f 48 de 3c dd 01 d6 bd 16 07 e0 3d 12 b7 fe ba
       0.027134 -0.10449574 0.109388515 -0.0019433221
000280 10 1a b8 3d 9f 33 08 3e af 37 ca bd 28 83 9c be
       0.08989346 0.13300942 -0.09873902 -0.30568814
000290 81 ca e9 3c d1 56 a3 3d d8 b2 7e be 1a a3 a0 3d
       0.028538944 0.07975543 -0.24872911 0.07843609
0002a0 39 da 04 bd 47 fe 75 bc af 26 09 3e 0a f0 b2 3d
       -0.032434676 -0.015014238 0.13393663 0.0873719
0002b0 b3 0b 24 3d c0 08 77 be 3e 4e ad 3d 24 54 55 bd
       0.04005022 -0.24124432 0.08462189 -0.052082196
0002c0 f8 29 cf 3c fe 47 13 be 83 ba 8b 3c 1b 92 a6 be
       0.025288567 -0.14382932 0.01705671 -0.32533345
0002d0 55 13 84 3d e8 12 c7 3d 02 1d 0c be ae 2e a4 3d
       0.06449 0.09720403 -0.1368294 0.08016716
0002e0 9e 48 4a bd e7 8d 12 3d 5c 08 d1 bd 89 16 cb 3d
       -0.04938566 0.03577986 -0.102066725 0.099164076
0002f0 bc 14 05 be 9f 2c 94 be d7 60 0f 3d 1a 57 b5 3d
       -0.12996191 -0.28940293 0.035004463 0.08854504
000300 cf b4 bf 3d 2d 3d 91 3e 31 82 50 be 66 35 3d bb
       0.093606584 0.28366986 -0.20362164 -0.002887094
000310 74 f5 02 be 53 8c 29 3d 15 f3 0d bd 6d 59 98 3c
       -0.12788945 0.04139359 -0.03465565 0.018597329
000320 e7 64 4d 3e ca fa 46 bd cb b0 5c be 47 9d f7 bd
       0.20058022 -0.048579015 -0.21551816 -0.12090545
000330 4b 31 ca 3c 59 d0 b7 3e 04 83 92 3d dc 9b 2d be
       0.024681708 0.35901144 0.071538955 -0.16953987
000340 b6 78 4a be 63 93 77 bd ab a8 10 3e 76 b8 76 3d
       -0.1977261 -0.060443293 0.14126842 0.06023451
000350 70 da 86 bc bc db 13 3f 36 84 44 be ef fb 64 3d
       -0.016461581 0.57757163 -0.1919106 0.055904325
000360 ba 27 01 3d 24 e0 17 be 51 3f 2f 3e 50 25 c1 3d
       0.031532027 -0.14831597 0.17113997 0.09430945
000370 25 a0 c4 3d bc e8 e1 bd f0 2a ac bc bb bb 2b 3e
       0.09600858 -0.11030719 -0.021016568 0.16770832
000380 f6 d9 91 bb d4 89 e9 bd 68 fc 85 3d e5 78 8b 3d
       -0.004451032 -0.11403242 0.06542283 0.06810168
000390 9c 66 c4 3d ce 5d 57 be 45 8d 8a be 5b 71 4b 3d
       0.09589884 -0.21031877 -0.27060905 0.04966865
0003a0 37 01 aa 3d 67 3b 26 be 0c 0c ac 3d 15 f0 86 bd
       0.08301013 -0.16233598 0.08400735 -0.06588761
0003b0 02 27 b9 bd 8f 94 5a bd 0e 96 ca 3d ab 65 88 3d
       -0.09040643 -0.053364333 0.09891902 0.066600166
0003c0 12 d6 9f bc ff d9 52 bd 12 89 04 be 66 49 2d be
       -0.019511256 -0.05147743 -0.12942913 -0.1692253
0003d0 e2 57 35 be e9 7c 6d be aa d8 27 3d 9d 74 b5 bc
       -0.17709306 -0.2319218 0.04097811 -0.022150332
0003e0 17 02 98 bd 0f 61 b1 bc 45 76 99 3d 5f d1 67 be
       -0.074222736 -0.021652726 0.07493261 -0.22638462
0003f0 1f 4f 45 bd 49 aa 46 be 99 23 ad 3d 51 6a 97 bc
       -0.04817116 -0.19400896 0.08454055 -0.018483313

fcnn.4.bias f4 [64]
000000 60 f5 d8 bd 28 6e 0f 3e 25 e4 b5 bd 2d 28 0f 3d
       -0.105936766 0.14006865 -0.08881406 0.034950424
000010 ed 60 93 bd f0 f5 b4 3c 6f 26 91 3d c2 03 21 3c
       -0.071962215 0.022089928 0.07087409 0.009827556
000020 15 ab 5e bd 17 34 d2 3c b1 62 5d bc e9 77 9b bd
       -0.054362375 0.025659604 -0.013512299 -0.075912304
000030 68 5d e0 bd 03 a0 0d bd 82 6a 12 3d 2a 3c ca 3c
       -0.10955316 -0.034576427 0.035746105 0.024686892
000040 19 aa a1 bd e7 ab 28 3d f0 03 39 bd 1c f6 3d 3d
       -0.07893772 0.041179564 -0.04516977 0.046377286
000050 be c6 45 bd da a4 25 bd 95 30 08 bd 1d e1 16 3c
       -0.04828524 -0.040440418 -0.033249456 0.009208945
000060 cc 5c 54 3b 64 12 e8 bd 99 e7 85 3d 87 76 67 bc
       0.0032403944 -0.11331633 0.06538314 -0.01412738
000070 7d f7 4d bd 36 67 af bd 61 d8 a3 3d 9d e7 c2 bd
       -0.05028485 -0.08564608 0.080002554 -0.09516833
000080 6c ba b3 ba 72 5e 9e 3d 96 64 87 bc 21 a8 bd 3c
       -0.0013712174 0.07732858 -0.016527455 0.02315146
000090 b7 86 92 3d b0 26 92 3c b7 4e 88 3b 2f 18 3a 3d
       0.07154601 0.017840713 0.004159774 0.04543322
0000a0 8c 28 30 3d 6d 37 de 3b a6 b6 72 3c 6f 6a ef 3c
       0.04300742 0.0067815096 0.014814055 0.029225556
0000b0 04 59 38 3d 2a 1e ad bd b7 1d 7a bc 5d c7 1f bd
       0.045006767 -0.08453019 -0.015265874 -0.039008487
0000c0 e1 62 6e bd d4 39 78 bd 44 04 47 bc bc ab 01 bd
       -0.058199767 -0.060602024 -0.012147013 -0.03165792
0000d0 c1 aa 4d 3d 9c 49 a2 bc 2a 6b 3a 3c a3 68 4e 3d
       0.05021167 -0.01981049 0.011378089 0.050392758
0000e0 a4 2d 01 3e 29 ef d6 3c e9 b8 5d bd 05 82 24 3d
       0.12615067 0.026237087 -0.054131422 0.04016306
0000f0 c8 12 41 bd d8 e6 9c 3b c9 44 c8 3d e9 59 96 bd
       -0.04713705 0.004788261 0.09778745 -0.07341368

fcnn.6.weight f4 [1, 64]
000000 11 1b a0 be 77 ad 75 be fb 4a 9c be 0f c5 68 3e
       -0.3127065 -0.23991953 -0.30525956 0.22731422
000010 a2 fa 94 be 7b 3f c6 3e e5 ed 27 be e7 e0 62 be
       -0.29097468 0.38720307 -0.16399343 -0.22156106
000020 c0 de 73 be c7 e7 80 3e c3 e8 9a be f5 4d c3 3e
       -0.23815441 0.25176832 -0.30255708 0.38145414
000030 b7 35 5b be 4b 60 8e be ee af ab 3e 64 3b 7f be
       -0.2140721 -0.2780784 0.3353266 -0.24925
000040 5e 87 ce 3e 8d 7e 68 3e ef 9a 07 3f ec 62 79 be
       0.40337652 0.22704525 0.52970785 -0.24354142
000050 f9 25 f6 3e ac 9e 78 be d4 e4 90 be e4 e6 85 be
       0.48075846 -0.24279279 -0.28299582 -0.26152718
000060 41 74 a3 3e 74 2b 07 3f 17 04 9c 3e 3b c0 74 be
       0.31924632 0.5280068 0.3047187 -0.23901455
000070 74 9f 6e be e9 61 49 be cc 6d 69 be 9a 7d 96 be
       -0.23303014 -0.19666256 -0.2279579 -0.293927
000080 af a9 90 be 87 19 73 be 7d 30 91 3e b7 d2 a7 be
       -0.28254458 -0.23740207 0.28357306 -0.3277795
000090 00 e4 86 3e a5 3e 09 3f b1 e6 87 3e 21 ea 7d 3e
       0.26345825 0.5361121 0.2654319 0.24796344
0000a0 5f 2b 59 be 81 45 0a 3f 7a 37 34 be 4c 46 d0 bd
       -0.21207951 0.54012305 -0.17599288 -0.10169658
0000b0 d9 f7 a7 3e b6 75 6b be 1e 3f db 3e 35 09 5b be
       0.3280628 -0.22994122 0.42821592 -0.21390231
0000c0 be b0 69 3e a1 6b 7d be 45 72 a6 3e e0 0b 95 be
       0.22821328 -0.24748088 0.32509056 -0.29110622
0000d0 9a 68 79 be 46 d5 37 be 1f 71 6b be d0 f1 d0 3e
       -0.24356309 -0.17952451 -0.22992371 0.40809488
0000e0 2d 66 9b be bf ab bb 3e 2e 98 7a 3e 27 b7 88 be
       -0.3035139 0.3665447 0.24472114 -0.26702234
0000f0 f7 2b a4 be ff 38 b1 3e 0a ee 8d be fd 6a ac be
       -0.32064793 0.34613797 -0.27720672 -0.33675376

exp_avg f4 [27, 27, 3]
000000 00 00 00 00 95 cb 7a c0 00 00 00 00 04 62 0c c0
       0.0 -3.9186757 0.0 -2.1934824
000010 22 15 0c bf 84 c3 84 bf b8 06 88 bf 91 86 e4 3c
       -0.54719746 -1.0372167 -1.062705 0.027896198
000020 00 00 00 00 00 00 00 00 9a ff 1a c0 25 c6 16 be
       0.0 0.0 -2.4218507 -0.14724024
000030 ab 81 4c be aa 01 b5 3d 00 00 00 00 00 00 00 00
       -0.1997134 0.08838208 0.0 0.0
000040 00 00 00 00 00 00 00 00 86 74 89 3e 10 18 51 be
       0.0 0.0 0.26846713 -0.20419335
000050 00 00 00 00 00 00 00 00 7b 60 84 3d 00 00 00 00
       0.0 0.0 0.06463715 0.0
000060 24 0c f1 bf 00 00 00 00 89 1f 0c 41 5c 67 8e be
       -1.883183 0.0 8.757699 -0.27813232
000070 8a ae 25 39 00 00 00 00 00 00 00 00 00 00 00 00
       0.00015800647 0.0 0.0 0.0
000080 00 00 00 00 00 00 00 00 24 02 21 3d bf 43 0d bf
       0.0 0.0 0.039308682 -0.551815
000090 00 00 00 00 00 00 00 00 00 00 00 00 00 00 00 00
       0.0 0.0 0.0 0.0
0000a0 fc af a7 be 00 00 00 00 e5 58 a1 91 5b db 13 be
       -0.32751453 0.0 -2.5456107e-28 -0.14439146
0000b0 00 00 00 00 93 cb 7a c0 ac d6 73 3c 59 ff e2 3e
       0.0 -3.9186752 0.014882725 0.4433544
0000c0 00 00 00 00 dc a4 c3 bf 00 00 00 00 cc 77 4c 3b
       0.0 -1.5284686 0.0 0.0031199334
0000d0 00 00 00 00 00 00 00 00 00 00 00 00 19 8b c6 35
       0.0 0.0 0.0 1.4792632e-06
0000e0 00 00 00 00 1c ca 6a bf 01 f1 2b 3c 00 00 00 00
       0.0 -0.91714644 0.0104944715 0.0
0000f0 8e d7 1c 41 f3 59 33 3e 04 00 00 00 00 00 00 00
       9.802626 0.17514782 6e-45 0.0
000100 95 01 03 41 d9 37 a3 3f 00 00 00 00 e6 03 9b be
       8.187886 1.2751418 0.0 -0.30276412
000110 00 00 00 00 6e 2a 15 be 3f 25 a9 25 00 00 00 00
       0.0 -0.14566967 2.9342066e-16 0.0
000120 98 06 86 be 00 00 00 00 1d ca 6a bf ee 47 32 c2
       -0.26176906 0.0 -0.9171465 -44.570244
000130 c2 aa 68 c1 70 d9 32 41 d6 e5 43 c0 a4 33 f2 c2
       -14.541689 11.178085 -3.060903 -121.10086
000140 e8 a9 d2 40 00 00 00 00 04 00 00 00 00 00 00 00
       6.5832405 0.0 6e-45 0.0
000150 9b 31 51 c0 10 b2 91 3f a2 18 37 3f 28 e6 53 c1
       -3.2686527 1.1382465 0.7152196 -13.2436905
000160 5e be ed bf 04 00 00 80 d4 48 0d c2 02 47 2b 42
       -1.857372 -6e-45 -35.32112 42.819344
000170 fc 90 c7 41 00 00 00 00 00 00 00 00 00 00 00 00
       24.945793 0.0 0.0 0.0
000180 00 00 00 00 00 00 00 00 00 00 00 00 00 00 00 00
       0.0 0.0 0.0 0.0
000190 17 19 ff bc 00 00 00 00 04 00 00 00 c0 e3 df 40
       -0.031139893 0.0 6e-45 6.9965515
0001a0 00 00 00 00 f7 b5 66 39 00 00 00 00 84 29 34 41
       0.0 0.00022002296 0.0 11.260136
0001b0 04 00 00 00 32 e6 85 3f 00 00 00 00 00 00 00 00
       6e-45 1.0460875 0.0 0.0
0001c0 25 ed b9 36 00 00 00 00 04 00 00 00 04 00 00 00
       5.541037e-06 0.0 6e-45 6e-45
0001d0 bd af 1e 3c 00 00 00 00 00 00 00 00 00 00 00 00
       0.009685454 0.0 0.0 0.0
0001e0 04 00 00 80 86 86 04 bc 00 00 00 00 cf 32 ce bc
       -6e-45 -0.0080887135 0.0 -0.025170712
0001f0 00 00 00 00 00 00 00 00 04 00 00 00 2f 0b a6 42
       0.0 0.0 6e-45 83.02184
000200 3d 54 a4 42 04 00 00 00 4e 3d 94 bd 00 00 00 00
       82.16453 6e-45 -0.072382554 0.0
000210 34 35 ca 40 04 00 00 00 00 00 00 00 00 00 00 00
       6.3189945 6e-45 0.0 0.0
000220 a7 d9 53 38 00 00 00 00 6e d3 18 42 78 85 00 42
       5.0509025e-05 0.0 38.206474 32.13034
000230 a6 5d 02 bf ae f0 eb 42 be bc 4d 40 b2 43 44 be
       -0.50924146 117.97008 3.214645 -0.19166449
000240 9f b8 53 c1 4b dc b3 40 af b0 5a c1 a6 d5 c9 3b
       -13.2325735 5.620641 -13.668136 0.006159502
000250 3e a6 19 be 00 00 00 00 04 00 00 00 f3 85 8d 3e
       -0.15004823 0.0 6e-45 0.27641258
000260 00 00 00 00 3d 72 e1 41 00 00 00 00 6e d3 18 42
       0.0 28.18078 0.0 38.206474
000270 11 d3 ea 43 b1 9d 23 43 a6 1d 83 44 75 2b 5c 42
       469.64896 163.61598 1048.9265 55.04244
000280 e8 77 0e 43 48 66 0d 43 00 00 00 00 04 00 00 00
       142.46838 141.39954 0.0 6e-45
000290 00 00 00 00 04 00 00 00 6a 8a d6 3f eb 12 c8 c1
       0.0 6e-45 1.6760991 -25.009237
0002a0 11 d1 e0 c1 06 d6 52 c1 00 00 00 00 04 00 00 00
       -28.102083 -13.177252 0.0 6e-45
0002b0 41 7b 12 c0 23 76 31 3e 00 00 00 00 6b 6b 58 3d
       -2.2887728 0.17330222 0.0 0.052836817
0002c0 00 00 00 00 00 00 00 00 04 00 00 00 00 00 00 00
       0.0 0.0 6e-45 0.0
0002d0 04 00 00 00 ab 9d 0a bf 00 00 00 00 00 00 00 00
       6e-45 -0.5414683 0.0 0.0
0002e0 04 00 00 00 00 00 00 00 55 06 2f 3d 00 00 00 00
       6e-45 0.0 0.042730648 0.0
0002f0 35 bb da 41 04 00 00 00 1a 11 e4 38 00 00 00 00
       27.34141 6e-45 0.000108750726 0.0
000300 04 00 00 00 00 00 00 00 00 00 00 00 04 00 00 80
       6e-45 0.0 0.0 -6e-45
000310 a1 ae b9 00 2d 49 71 c0 00 00 00 00 00 00 00 00
       1.7052212e-38 -3.7700913 0.0 0.0
000320 00 00 00 00 00 00 00 00 04 00 00 00 00 00 00 00
       0.0 0.0 6e-45 0.0
000330 00 00 00 00 28 d8 4a c0 00 00 00 00 04 00 00 00
       0.0 -3.1694431 0.0 6e-45
000340 e0 d3 8b 3d d4 b5 29 c2 00 00 00 00 00 00 00 00
       0.06827521 -42.427567 0.0 0.0
000350 00 00 00 00 15 c2 aa 3b 00 00 00 00 00 00 00 00
       0.0 0.0052111247 0.0 0.0
000360 0e 20 3a bd 04 00 00 80 00 00 00 00 26 25 30 c1
       -0.045440726 -6e-45 0.0 -11.009069
000370 5f ec 19 c1 8b de 8e b7 94 df 3f c2 61 2d 96 c2
       -9.620208 -1.7031349e-05 -47.968338 -75.08863
000380 21 d0 fe 3e 04 00 00 80 45 41 70 41 e9 80 03 c2
       0.49768165 -6e-45 15.015935 -32.87589
000390 00 00 00 00 00 00 00 00 00 00 00 00 04 00 00 00
       0.0 0.0 0.0 6e-45
0003a0 96 01 91 bb 00 00 00 00 04 00 00 80 00 00 00 00
       -0.004425238 0.0 -6e-45 0.0
0003b0 27 25 30 c1 5d ac 3b c4 af bd 0f c4 cf 8f 02 c4
       -11.00907 -750.6932 -574.9638 -522.247
0003c0 17 86 c7 c1 f4 19 67 c1 12 3c b1 c2 04 00 00 00
       -24.940474 -14.443836 -88.617325 6e-45
0003d0 00 00 00 00 00 00 00 00 00 00 00 00 c3 53 ed bf
       0.0 0.0 0.0 -1.8541187
0003e0 5f 95 31 c0 ef 11 98 c1 f1 94 a6 c1 73 92 34 3b
       -2.774742 -19.008757 -20.822725 0.002755311
0003f0 04 00 00 00 76 e6 50 c1 95 24 a3 c0 00 00 00 00
       6e-45 -13.056265 -5.0982156 0.0
