src/hero/experiments/justification/models/SmallBTCNN_MediumFCNN_1.pth (torch, 620446 bytes, 27 tensors)

btcnn.layers.0.conv1d.weight f4 [27, 27, 3]
00000000: 3233 a33d f146 ce3c e5e9 823d 758a 9c3e
00000010: a90e 0e3e f4ec f9bd 3e18 863e 84d4 133e
00000020: 0e11 61bd 109b 04bd b189 223e d7de 5fbe
00000030: ce95 a8bc 5f97 433e 1d23 933d c917 d8bd
00000040: 8eb7 1bbb 7258 f33c 806f dabd 8852 26bd
00000050: d548 97bc a0bf 74be c478 49be ab20 a7bd
00000060: 1963 95bd 0036 a9bc 5b26 273e 9555 b03c
00000070: 994e 75be c9d1 8e3d 79f4 833c d76e d9bd
00000080: c7af 1dbc 5d89 eebc 1719 40be fd77 eebc
00000090: 1e84 c73d ddfa ed3c 32e8 333d c6b2 6b3c
000000a0: a8b4 6d3e 4da8 d93d eed5 7cbd 5622 1a3e
000000b0: 4bfd a73d a630 8ebd f4b2 6bbd 5d9a 5fbd
000000c0: 4d15 94bd 6d60 6f3e dd2a b73d 639f 2abd
000000d0: 0b1e cebd 145d ab3d 6005 ca3d 1fbf 8b3c
000000e0: 8730 aebd 1ed9 d13d 26ec df3b 9557 f53c
000000f0: e1e2 64bc de7e 80bd de3d 7dbe 54cd a6bd
00000100: 5573 743d 59c1 fdbd e451 82bd e4dd f8bc
00000110: 5d72 c13c f438 b4bd ded9 56be 4b76 0abd
00000120: b076 1bbd 64f6 ce3d 9c21 e23d 8f83 0bbe
00000130: 9632 4d3d 937d c9bd 3e58 bdbc 952e 0b3e
00000140: bc63 f93d c090 8ebd a820 c13c 2de4 dcbd
00000150: cba5 06be ff44 703e cd69 2f3d 35f0 1abc
00000160: 06ef 1c3d 9dcf 853d 4571 1cbd 78cf 05be
00000170: 269d c1bd 7f09 5d3d 3791 02be b5f0 7ebd
00000180: eec5 053d d5b3 163d c7eb e33b b72a 233d
00000190: dda1 d9bd 8754 d63d 159a 7c3d 5a66 d7bd
000001a0: f216 933c 8205 683c 649a e1bd 91c1 5d3d
000001b0: 72ab 78bd 15ba 993c ed96 ddbd 2e33 363d
000001c0: fd91 143e c0c3 833c 8cb5 553d 559f 003c
000001d0: 1314 1abc b941 bf3c 4774 c73d 15c6 923d
000001e0: 036a bcbc b0fb 0cbe 1dca f23b 270b 413e
000001f0: 4ad9 9a3d 40e6 27bd 67f9 573d cc08 173e
00000200: d48e a7bc a5b6 0cbe 8d7a c2bc d5af babd
00000210: ac78 0a3e ae1f 5ebd 19cd afbd b739 cd3e
00000220: c755 ebbb dd72 973c 02e0 b03d 3567 ab3d
00000230: 797a b0bc 1651 7b3d c693 dbbd c6ff 9a3e
00000240: 4f44 773e 88a8 a23d 766f a43d fa65 4c3e
00000250: d5c4 5a3c e531 b6bd 72b8 5b3e 886d b33d
00000260: bb8e c43d 8c85 683d 7955 c0bc 9a88 4d3d
00000270: 4a6c f63c 8161 0f3d 3448 0dbd 131d 8c3d
00000280: 1cd1 713d bb86 6f3e e911 663c 2e53 013d
00000290: cbdb 473d 34cd 13be 18d8 6b3e 202f 1b3e
000002a0: ae1d a7bd 1289 c63d 1e50 6cbd 281f 3d3b
000002b0: 8e9d 563d c729 9e3c e4b1 b13c 28d0 f43d
000002c0: ced4 d43c e4c5 cebd ab2d 83bc c7e2 4c3d
000002d0: abbe b43b 026c 99bd 02fb b43d 88a7 d03e
000002e0: 2c64 5b3d e242 9f3d 705e 77bc a788 9a3d
000002f0: e8a4 073e 57e8 c6bd c084 eebc b2f1 783d
00000300: bb66 c3bd 27c9 563d d2c0 153d ade0 b73d
00000310: bed9 70be 5528 603e 3e4c d03d 0e6d 77bc
00000320: 8e71 0cbc 16de 4c3c f016 553e 399a dbbd
00000330: 240b 77bd 4a08 363d 951a 973c 32eb 473d
00000340: c9b7 02be fab1 91be 4ba3 003e c15e 56be
00000350: ab94 21bd 47dc d83d 6734 db3d 0456 9c3d
00000360: 8755 b23c 89bb 29bc 150c 673d 5805 8dbd
00000370: af9a 80be 88a2 b2be a7bf 253d 6f9d 103e
00000380: 00f7 573e 2b5b 513c 0ca2 7a3d ac0f 13be
00000390: 9c35 a73d 5c10 0e3e b9ae b6bd b638 a13d
000003a0: 3d76 e63e 324d b7bc 927c 9f3e f230 5c3d
000003b0: 8390 4fbd e9d8 0d3e 1de4 9abd 5117 a43d
000003c0: 93a4 bb3d 0a8b 983d 9bc3 72be 55e9 363b
000003d0: 9fe0 22be 400a d0bd 7d10 0f3e e7f0 44bd
000003e0: 0b33 8d3d b97c d6bd 040a 8c3e 277a c33d
000003f0: 6bed 39bd d1d3 593e 712a e83d e503 b23d
0.07968749 0.025180312 0.06392268 0.30574384 0.1387278 -0.12203398 0.2619037 0.14436537
-0.054947905 -0.03237444 0.15872838 -0.2186235 -0.020579245 0.19100712 0.07184432 -0.10551412
-0.002376053 0.02970526 -0.10665798 -0.04060605 -0.018467346 -0.23901224 -0.19674975 -0.08160528
-0.07294292 -0.020655632 0.16323225 0.021525184 -0.23955764 0.06973607 0.016107785 -0.10616844
-0.009624428 -0.029118234 -0.18759571 -0.02910995 0.09741996 0.029050285 0.04392261 0.014385885
0.23213446 0.10627804 -0.061727457 0.1505216 0.08202609 -0.06942873 -0.05754371 -0.05459057
-0.07230625 0.23376627 0.089437224 -0.04165591 -0.10064324 0.083673626 0.098643064 0.017058907
-0.085053496 0.1024649 0.006833571 0.029948989 -0.013970108 -0.06274198 -0.24730632 -0.08144632
0.0596803 -0.12390394 -0.06363276 -0.030379243 0.023614103 -0.087999254 -0.20981547 -0.03380422
-0.037954986 0.10105589 0.11041567 -0.13624404 0.05009707 -0.098384045 -0.023113366 0.13591988
0.12177226 -0.069612026 0.023575142 -0.107857086 -0.13149182 0.2346382 0.04282551 -0.009456684
0.038313888 0.0653374 -0.03819396 -0.13067424 -0.09453802 0.053964134 -0.12750708 -0.062241275
0.032659464 0.036792595 0.006955597 0.039835658 -0.10626576 0.10465341 0.06167038 -0.10517569
0.017955277 0.014161469 -0.11015776 0.054139677 -0.060710378 0.018765489 -0.108198024 0.044482403
0.14508815 0.016084552 0.05217509 0.007850488 -0.0094042 0.023346769 0.09738975 0.071666874
-0.02299977 -0.13767886 0.0074093477 0.1885191 0.07560976 -0.040991068 0.052728083 0.1474945
-0.020453848 -0.13741548 -0.023740077 -0.091155685 0.13522595 -0.05422943 -0.08584041 0.40083095
-0.0071818563 0.018487388 0.08636476 0.083692946 -0.021542775 0.061356626 -0.10721545 0.30273265
0.24147151 0.07942301 0.08029072 0.19960776 0.0133525925 -0.088962354 0.21457079 0.08761126
0.09597536 0.056767985 -0.023478257 0.0501791 0.030080933 0.035005096 -0.034492686 0.06841483
0.059037313 0.2339124 0.014042356 0.031573467 0.048793595 -0.14433748 0.23031652 0.15154696
-0.08159958 0.09694113 -0.057693593 0.0028857682 0.05239635 0.01930703 0.02169127 0.11953765
0.02598038 -0.100963384 -0.016012987 0.05002096 0.0055158935 -0.07491304 0.088369384 0.40752816
0.05356233 0.07776429 -0.015098199 0.075455956 0.132465 -0.09712284 -0.029116035 0.060777374
-0.09541079 0.052437928 0.03656084 0.089784004 -0.23520562 0.21890385 0.10170792 -0.015101684
-0.008571995 0.012504121 0.20809531 -0.10722775 -0.06031336 0.0444415 0.018445292 0.048808284
-0.12765421 -0.28456098 0.12562291 -0.20934583 -0.03944842 0.105888896 0.10703354 0.07633594
0.021769298 -0.010359653 0.056408007 -0.06885785 -0.25118014 -0.34889627 0.040465977 0.14122556
0.21090317 0.012778084 0.061189696 -0.14361447 0.08164522 0.13873428 -0.089200445 0.07872145
0.45012084 -0.022375677 0.31149727 0.053757615 -0.050674926 0.13852276 -0.075630404 0.0801226
0.091622494 0.074483946 -0.2370743 0.0027910073 -0.15905999 -0.10158205 0.13971134 -0.048081305
0.06894501 -0.10473008 0.2735139 0.09544783 -0.045392435 0.21272208 0.1133622 0.08692149

btcnn.layers.0.conv1d.bias f4 [27]
00000000: 0442 133c 2f5e 1abd 5e18 26bd 3e06 acbd
00000010: 4e57 97bd b20e da3d 8c67 183d 2bab 01be
00000020: 464c f5bd ed44 4a3c 73f3 a1bd 0c5b f53c
00000030: f1d3 d13d e524 0ebe 1f01 843d bd65 4e3d
00000040: 5018 22bd d2e2 283d 3b17 86bd 5e36 a53d
00000050: 8d79 043e ed13 95bd accf 59bd dae2 5e3d
00000060: 5091 8d3d fe04 ad3d d4b9 1fbc
0.008987907 -0.037687477 -0.040550582 -0.08399628 -0.07389699 0.10647334 0.037208125 -0.12662952
-0.11977439 0.012345535 -0.079077624 0.029950641 0.10245503 -0.13881262 0.06445526 0.050389994
-0.039573967 0.041231938 -0.065473996 0.0806701 0.12936993 -0.07279191 -0.053176567 0.05441556
0.06912482 0.08448218 -0.009748895

fcnn.0.weight f4 [256, 27]
00000000: 6c86 233e d770 09bd 4207 9d3c 9a35 763d
00000010: c349 1d3e 6208 783e d14b d6bd af2c 49be
00000020: 25c7 debd d786 8dbd bd78 19bd c370 81bd
00000030: 997a 513e cdb3 c13d c25c 06bd 1583 59bd
00000040: b85f f3bd ff93 dfbc 83aa b83d 6624 973d
00000050: 2d12 2d3e c535 60bd 6641 c0bd 93cc 0ebe
00000060: df1f b1bd 2489 773d 0306 63be 4223 06be
00000070: 9dfa 473e bc48 cd3d c888 183e f8af 373c
00000080: da96 1dbc 2767 803d 7bc1 233e 0c8f 6a3d
00000090: 1fe2 083e 9714 903e fff5 0ebe 5951 cf3d
000000a0: e72c f43d cab4 82bd fb21 f63c 551e 1b3d
000000b0: 2ea9 813d a54a 9dbd 7d64 0cbe d0ea 1a3d
000000c0: 9bbd b83d 608d 7a3d d682 b5bd 6ffa 0a3e
000000d0: ac2a 5fbe 56b2 1b3e 85ce eabd 024e c1bc
000000e0: f11e c03d ca7a e3bc 7ace 20be efb9 96bc
000000f0: 344a 343c 16ad bd3d f144 4ebd 6766 023e
00000100: 1bb9 41be df8a 9fbd a519 183e 8a67 583d
00000110: 7453 bebd ae88 58be 2734 003e 2e6c 35be
00000120: 9460 243c d9d3 503d dfef 313e 20d8 26be
00000130: e7be 123e e1f1 083d 88b5 4e3d 10c3 953d
00000140: 5083 40be 96c3 193e 7709 353d 9a51 453e
00000150: 8027 943d 3951 f53d 2295 d73c 78fc 083e
00000160: 85d5 c93c bf21 b1bd 73a8 263d abf1 97bc
00000170: b201 f43d 608a 3f3e c742 acbc 42ba f63d
00000180: 84dd 1c3e ecff 74bd 0075 fabd 8dc1 113e
00000190: 8dd7 1d3d d9ff 043a 204e 05be aab6 ecbb
000001a0: a827 27be 21a4 39be fc3a 11be 438c a2bd
000001b0: efbf 1b3d 292c 523d 1c7a 163e 2ce1 3abe
000001c0: ed99 a5be cf84 55be f8f2 f7bd 2885 ecbc
000001d0: e8eb 81bd 2b35 0e3e bbfd 4c3d a2ab 243e
000001e0: 9b7b 2abd d140 1f3d 8a43 b73d a84a c7bd
000001f0: 0f4b 39be e3d8 19be d49c aa3c 2f1a 3a3e
00000200: 0b81 883d 505e 9fbd a721 123e 8f24 acbd
00000210: 6f0b 56bd e53f 393e 2891 253d f034 f23d
00000220: f52b 2b3e 4b9f 9a3d 9aef 6e3e ef4a f53c
00000230: da5a 423c 5c50 08bd 55ac 073e 3147 113c
00000240: c4ad 563d 2477 cebd eb82 93bd 2aa0 6dbd
00000250: ea28 5bbe 66f8 d9bd 2e08 d13d a5a1 b43d
00000260: dcd6 a03d 0464 48be 4308 7dbd 6ceb 803e
00000270: 314f 2abe b531 a13d 9346 843d c63c 23bd
00000280: b02d 4a3d 5992 4fbe af65 513e 3102 593d
00000290: bd33 5fbe 7a31 eebc 2d4d fabe 5055 3dbe
000002a0: 42de 203e cd2a b7bd 8831 8f3d 5cfa 193d
000002b0: 8e5a 03bf 61f5 7e3d 12e2 33be 7194 f73d
000002c0: 7f38 933d 5bb8 d83d fff3 f03d 9596 0d3d
000002d0: 5a03 0c3e f25d 30be 200c ff3d 9a30 ecbd
000002e0: 9d41 413d d99f cf3d 2dad 233e e058 923c
000002f0: 5ee4 b7bc bec0 c23c 0af2 36be 5ce5 c6bc
00000300: 2f75 473e 4330 073e 82d3 a03c 307a 473e
00000310: aa1f bc3d 0613 67bd 6a23 0f3d 8c5f bcbd
00000320: 1afa 253e fe0f 163e 7144 86bc 63d7 56be
00000330: 7179 be3d 8abf 5abd ae49 09be dda5 eabd
00000340: e762 493e 0239 703e 40b6 a5bd 9936 ccbc
00000350: 820a 23be 5631 42be 2ad3 87bc 0cdf 113e
00000360: 60e2 f83d 7ef1 60bd b58e 23bd e073 12be
00000370: 82d0 97bd ba48 bc3d edca d4bc ac06 f83d
00000380: f440 453e 7401 4e3e 8b5e 5fbd 2fa7 1ebd
00000390: 9790 b93c 8ef8 3b3e 6e97 793d 6d36 25be
000003a0: 281e ca3d 5d4b 2f3c cad3 2d3e 9c74 2d3e
000003b0: 8057 80bd 244c 333d a662 583d 3673 9f3d
000003c0: 66d7 08be 7bdf e23d 93c9 e9bc 4e71 97bd
000003d0: 5429 35be eefa 003c 17fa 063d de56 a0bd
000003e0: 23b4 693c 0086 1e3e b92d 993d e733 a33d
000003f0: c37e 523e 5d85 5f3d 8352 0dbd 42ca 05bd
0.15969247 -0.033554878 0.0191685 0.060109712 0.15360169 0.24221948 -0.104636796 -0.19645952
-0.108778276 -0.06910484 -0.03746866 -0.06320336 0.20456924 0.094581224 -0.032803304 -0.053103525
-0.11883491 -0.02729225 0.090168975 0.07379989 0.16901465 -0.05473878 -0.09387474 -0.13945226
-0.08648657 0.060433522 -0.22170262 -0.13099387 0.19529195 0.100236386 0.14895928 0.011211388
-0.009618485 0.06269675 0.15991776 0.057265326 0.13367508 0.2814071 -0.13961028 0.10122938
0.11922627 -0.06382139 0.0300455 0.037870724 0.063310966 -0.07680253 -0.13710208 0.03782159
0.090205394 0.061169982 -0.088628456 0.13572095 -0.21793622 0.15204749 -0.11465172 -0.023596767
0.093809016 -0.027768511 -0.15703765 -0.018399207 0.0110040195 0.09261529 -0.050358716 0.12734376
-0.18918268 -0.077901594 0.14853533 0.052833118 -0.09293261 -0.21145889 0.12519895 -0.17717049
0.010032792 0.050983284 0.1737666 -0.16293383 0.14330636 0.0334338 0.05046609 0.07312596
-0.18800092 0.15016016 0.04419848 0.1926941 0.072340965 0.119783826 0.02631623 0.13377559
0.024637947 -0.08649015 0.04068799 -0.018547853 0.11914386 0.1870513 -0.021027936 0.120472446
0.15318877 -0.05981438 -0.12229347 0.1423399 0.038535643 0.00050735247 -0.13018084 -0.0072239237
-0.16323721 -0.18129016 -0.14182657 -0.07936909 0.03802484 0.051311646 0.14695019 -0.18249959
-0.32344 -0.20851444 -0.121068895 -0.028872088 -0.06343824 0.1388747 0.050046664 0.16081098
-0.041621786 0.038880173 0.08948429 -0.097310364 -0.18095039 -0.15024142 0.020826735 0.18174051
0.06665238 -0.077816606 0.1427065 -0.084054105 -0.052256998 0.1809078 0.040421635 0.11826503
0.16715987 0.07549914 0.23333588 0.029942958 0.011862481 -0.03327976 0.13249333 0.008867071
0.05241181 -0.10081318 -0.07202705 -0.058014072 -0.21402326 -0.10643081 0.10206638 0.08819894
0.07853481 -0.19569403 -0.061775457 0.25179613 -0.16631772 0.07870809 0.064587735 -0.03985288
0.049359977 -0.20270671 0.20448945 0.052980606 -0.2179708 -0.029076327 -0.48887005 -0.18489575
0.15709785 -0.089437105 0.06991869 0.037592277 -0.5131005 0.06224573 -0.17566708 0.1208886
0.0718851 0.10582038 0.117652886 0.034567434 0.13673154 -0.17223337 0.124534845 -0.115327075
0.047181714 0.101379104 0.1598403 0.017864645 -0.022447761 0.023773547 -0.17865768 -0.024279289
0.19478296 0.13202004 0.019632105 0.19480205 0.09185727 -0.056414627 0.034945883 -0.091979116
0.16208687 0.14654538 -0.016390057 -0.20980601 0.09300507 -0.053405322 -0.13407013 -0.11457417
0.19666635 0.23459247 -0.08091402 -0.024928378 -0.15921977 -0.18964133 -0.016580183 0.14245242
0.121525526 -0.054917805 -0.039931018 -0.14302015 -0.074128166 0.09193559 -0.025975669 0.121106476
0.19263059 0.20117742 -0.054533523 -0.038733657 0.022651954 0.18356535 0.06093543 -0.16134043
0.09869033 0.01069912 0.16975322 0.16939014 -0.06266689 0.043773785 0.052828453 0.077856466
-0.13363418 0.11077782 -0.0285385 -0.07394658 -0.17691547 0.007872326 0.032953348 -0.078290686
0.014264139 0.15480804 0.07479424 0.07968884 0.20556168 0.054570545 -0.034502517 -0.03266359

fcnn.0.bias f4 [256]
00000000: fd8f 0ebe 854a 33be 00e6 3f3e b50e e03d
00000010: d793 12be 3f5b 66bd 7643 38be 0d7c 873e
00000020: 0410 2ebd 2a3c 4bbe 32bd 193e 2394 813d
00000030: 9f34 28be 9268 bc3b 92e6 01be 3938 113e
00000040: fd31 4f3e 7193 afbd 3d4c fd3d 95b2 0d3e
00000050: 93b1 273d 448e 95bd 7931 283e 0d38 963c
00000060: 9f44 983d 805a a63c ea5a 533e fb16 853e
00000070: 6442 463e 0404 073d e19f d43d d57e 403e
00000080: fc31 0cbe 4b24 2dbe 8580 b4bd 0112 f43c
00000090: d526 6b3e 65f7 1abe 2c20 babd 5798 103d
000000a0: b990 37bc 2b5d 3d3e 4205 1b3d 6988 663e
000000b0: f107 aa3d aae0 fd3d 343b 103e b8ee 053e
000000c0: d2e1 583d 955d e1bd 2322 e6bd 4fa6 0c3e
000000d0: 40b2 eb3d a73a d9bd 5c8b 963d fa7f f33d
000000e0: 5ec0 623d 7a1e 6b3e 9b13 4a3c 8017 3abe
000000f0: 67d7 333e d5c7 993e fa5f 6e3e 381e 073d
00000100: 71f0 243e 2ba6 32be 3105 0a3e c3a9 ed3d
00000110: 87d0 623e 11b9 643d eaf3 28be c569 183e
00000120: 3cd6 aa3c a007 ad3c 27f3 73be 6622 0e3e
00000130: 577c 833d b3cb 0abe 59be a8bd 4ca2 f8bd
00000140: 3a96 00bd 5fca 2e3d b7a9 b5bd 39be 39be
00000150: 6373 0ebe 329a 8ebd df9d 033e acde 803e
00000160: 73a8 24be 365e 883d ee86 0e3d 3299 2abe
00000170: 7ef2 5c3d 07f5 1ebd df55 29be a43f dc3d
00000180: 7d95 523e ebe3 003d acf8 24bd 8e4a 5f3e
00000190: 23e9 b5bd d5a4 d83c 599d ff3d d1c2 e53d
000001a0: 2f26 22be 27d0 803c 75df 803e 3612 11bd
000001b0: 0a7d 723d 6944 0cbe d4e9 cdbd 8e08 e03c
000001c0: 6478 c53d d696 1dbe e2e8 36bd 5d24 36be
000001d0: ea05 9dbd a4b6 173d 313f 0fbe b197 61bd
000001e0: 2f22 553b b3f6 713d 12c8 dcbd 9ffa 71be
000001f0: 2bf7 60be 5594 5f3e 73f3 10be 8303 5c3d
00000200: d381 703e 4339 833c 465b 4e3e 2415 393c
00000210: 3619 cbbd 8d11 3ebd d81e e2bd 56d9 23be
00000220: eaa1 d8bc a5fc 46be 5381 d53d c1f7 89bc
00000230: 85e0 1b3c 5585 0b3c 4641 37bd 0917 543b
00000240: 4d1c d63d 8cfd 17bd cfe5 223e 77ac 0ebe
00000250: 40bf 61be dac9 cdbd bff8 a23d c5b8 c1bc
00000260: e9a0 163e 0df6 c13d bd9d f23d d329 5a3d
00000270: 2b71 69bd f9cc 593d 61ec f83d 7781 c3bc
00000280: 78f1 36bd fd33 f0bd e86b 4a3d bacf 1c3d
00000290: 911b 263e 6985 51be faa7 cd3d 1165 08be
000002a0: d541 68bd aec7 c0bd 9214 523e 6dc2 6d3d
000002b0: 5d74 47be e676 5dbd 2851 d53d 8ff1 043e
000002c0: 1641 333e 6357 a03c fb2a b6bd 02fc 0bbd
000002d0: 276c debd c78c 0e3e b982 30be f2e3 043e
000002e0: 648c e43d 1d6d 903d b287 b4bc 126e d2bc
000002f0: 85a0 e6bd c9c2 4d3e 762b 5c3e 3adc 0f3e
00000300: d01a 5c3e 2412 423e 1493 983c 0edf 103d
00000310: 9486 f63d f57d 0dbc 7c62 3fbe 5373 273e
00000320: a900 f03b 35d5 b53d 454e eb3d ae78 243d
00000330: dd47 183e 1cc9 a9bb 478c 3c3e d11a c23d
00000340: 283d 6f3e d183 17be 268a 523e d0b1 d0bd
00000350: ddc3 b43c b3c7 683e 97ae 2cbe 63b7 c03d
00000360: 918e 0d3d 927c d1bd def3 12be 6825 c4bd
00000370: 6eab bb3d 5d1e 623c 682c 01be 1abd 05be
00000380: 4010 9cbd 3b82 18be 0ba9 0f3e d892 e13d
00000390: 2590 063e 137a 2dbd 5a0b abbd e4f4 6e3d
000003a0: e988 2d3b 0bc1 c5bd 2645 5fbd b450 bbbd
000003b0: 3c63 3a3e cab4 30be b48f 4f3d 41cd 09be
000003c0: a989 a7bb 525b 2cbd be9c 0abe 6e43 0d3d
000003d0: 3573 cbbc 67e4 1fbe 5b37 d9bc 59d1 a1bd
000003e0: 1a2d 0f3d a257 55be 38de 943b 05b6 643c
000003f0: 438b 263e df6c 3ebe ee4a eebd c497 52bd
-0.13922115 -0.17508896 0.18740082 0.10940305 -0.14314209 -0.056239363 -0.17994484 0.2646183
-0.042495742 -0.1984717 0.15013579 0.06327083 -0.16426323 0.0057497704 -0.12685612 0.14181603
0.20233913 -0.08573044 0.12368057 0.13837655 0.040940832 -0.07302526 0.16425122 0.018337274
0.074349634 0.020306826 0.2064015 0.25994095 0.19361264 0.032962814 0.10382057 0.18798383
-0.13690943 -0.16908376 -0.08813576 0.029793741 0.22964032 -0.15133436 -0.090881675 0.035301533
-0.011203938 0.18492572 0.03784681 0.22512974 0.08302296 0.12396367 0.14085084 0.13079345
0.052949734 -0.110041775 -0.1123698 0.13735317 0.11508608 -0.1060689 0.073507994 0.11889644
0.055359237 0.22960845 0.012333776 -0.18173027 0.17562638 0.30035272 0.232788 0.032987803
0.16107346 -0.174462 0.13478543 0.11604645 0.2214986 0.055840556 -0.16499296 0.14884098
0.020854108 0.0211218 -0.23823224 0.1388031 0.064202 -0.13554268 -0.08239431 -0.12140331
-0.031393267 0.042673465 -0.08870261 -0.1813897 -0.13911204 -0.06963004 0.12853192 0.25169885
-0.16079883 0.06658594 0.034796648 -0.16660002 0.053942196 -0.038807895 -0.16536663 0.10754326
0.20564838 0.03146736 -0.040276214 0.21805784 -0.08882358 0.026445786 0.124811836 0.11218799
-0.15834878 0.015724255 0.25170484 -0.035417758 0.059201278 -0.13697971 -0.10054365 0.02734783
0.09642103 -0.1538957 -0.044655688 -0.17787309 -0.07667144 0.037039414 -0.1398895 -0.055076305
0.0032521596 0.05907316 -0.10780348 -0.2363076 -0.21969287 0.21833928 -0.14155369 0.053714287
0.23487024 0.016018515 0.20152006 0.011296544 -0.09916918 -0.046403456 -0.11041039 -0.16000876
-0.026444394 -0.19432314 0.10425057 -0.016841771 0.009513979 0.008515676 -0.044739984 0.0032362363
0.10454617 -0.037107036 0.15907978 -0.13932978 -0.22045612 -0.10048266 0.07957601 -0.023647675
0.1470982 0.094707586 0.118464924 0.053262543 -0.05699269 0.053173993 0.12154461 -0.023865445
-0.044663876 -0.11728666 0.049419314 0.03828404 0.16221453 -0.20461048 0.100418046 -0.13319804
-0.056703407 -0.09413086 0.2051566 0.058046747 -0.19477983 -0.05406847 0.1041587 0.12982772
0.17505297 0.01957292 -0.088949166 -0.03417588 -0.10860472 0.1392089 -0.17237367 0.12977579
0.1115959 0.07052062 -0.02203736 -0.025687251 -0.112610854 0.20093836 0.21500954 0.14048854
0.21494603 0.18952233 0.01862482 0.03536897 0.120373875 -0.0086359875 -0.18689913 0.16352586
0.0073242974 0.08878557 0.11489538 0.04015415 0.14871164 -0.005181445 0.18412887 0.09477771
0.23363173 -0.14796378 0.20560512 -0.10190165 0.022066051 0.22732429 -0.16863476 0.09409978
0.03455979 -0.10228838 -0.1435084 -0.09577447 0.09163557 0.0138011845 -0.12614596 -0.13060418
-0.07620287 -0.14893429 0.14029329 0.11014336 0.13140924 -0.042352747 -0.083517745 0.058339015
0.002647931 -0.09655961 -0.054509304 -0.09146252 0.18201917 -0.17256466 0.050674155 -0.13457204
-0.005112846 -0.042079277 -0.13536355 0.034488134 -0.024835208 -0.15614472 -0.026515653 -0.07901258
0.03495512 -0.2083421 0.004543092 0.013959412 0.16264062 -0.18596219 -0.116353855 -0.051414266

fcnn.2.weight f4 [128, 256]
00000000: 0a6f ec3c c6ab 2abc ebe7 3cbe c4eb bf3d
00000010: 3aa9 b5bd 0366 43be 30f0 65bd 94b3 dc3e
00000020: e03b a3bd 4169 36be 68a9 c03d 9e2a 303d
00000030: 68d9 70bd d09d c0bd 6083 f9bd 6f47 8e3d
00000040: 5a3b e83c 896b c0bd 45a3 683d cede 833d
00000050: 69b5 06bd 1602 90bd a3cc bd3e 4c0f 58bd
00000060: 57f1 f03b 0bde 96bd f1a7 df3e d986 96bd
00000070: 234e 04bc 3c11 c5bd 3ee1 06bd 69bc 933c
00000080: 2a66 b7bd 7040 b43c 7a69 d0bc 7f6e 41bc
00000090: aa9c 76bd 36eb c6bc e5bc 54bc 393c 623d
000000a0: 27ce 723d 0511 d73d 530c bdbd 638c 5b3d
000000b0: fdb4 d2bb cf7f 7fbd 328b e0bd aa87 97bd
000000c0: 9461 4abe c34d 743d 0b93 2ebe bc4b a33e
000000d0: 63b2 a43e 6ee7 b7bd 7b86 df3b a80e 593c
000000e0: e586 673d 9b74 033e 7e27 50be 40b4 5f3d
000000f0: 7075 95bc adf0 293e f61f 57bc 3a3a c5be
00000100: 8fbb e23d 3f0c 71be 6856 123e 3793 a3bd
00000110: ff7d 02bd dd42 253d e744 62be 05fe 5e3e
00000120: 4d96 2bbe 6fb2 71bc 4154 763e 4993 b6bd
00000130: 2bc1 6cbd 8076 30be d76a 29bd 437f 9b3d
00000140: 8a2e a03d ddc2 dd3b 05b0 46bc c804 98bd
00000150: 360e 30bd 1cd0 c3be 7e85 57bd c866 863e
00000160: c90d e83e c598 153d e61c 46be 276a 9b3c
00000170: 8f38 aa3e 3ba6 7bbe 89cc b4bd ee61 7f3d
00000180: 356a 143e e972 27bd b450 1bbe 7446 c33d
00000190: f81a ba3d b9d6 d0bc 7cf5 00bd dcbf 8cbd
000001a0: fcd9 22be 0b25 dabd 9c8a 803d c517 1ebe
000001b0: 8306 a23e bb12 74bd 7a93 d2bd 14fb 0dbd
000001c0: a11d c43d e673 af3c 89d4 9d3d e16e abbd
000001d0: f120 68bd f8aa ae3c 54ac 0abd d86b a43c
000001e0: 30bd f8bd 64e2 53be 9551 79bd b3f0 e6be
000001f0: 4d75 a8bd c2e0 433c 79f3 96bd af59 243e
00000200: 71e7 8f3e 93cf 04bb c86b c23d a769 413e
00000210: 63ed 81bd 3576 84be e19a 57bc 2439 d3bd
00000220: d3f8 efbd ca33 0dbe 26b7 d93d 040b b53d
00000230: 62c4 f3bd 264d 253c 0eb0 883c 2185 853d
00000240: ceb4 74bd f229 3fbd b142 7abd 0ae5 0a3d
00000250: 4122 b2bd 7990 fd3b 15bc 97bb e6f9 a23c
00000260: b31d 063e b0ca 0b3d 4c82 31bd 382c 603d
00000270: 14d9 88bc c67a 4cbe 6be6 d939 37aa a6bd
00000280: f225 19bd 7859 d1bd b55a 68bd 7b8c 89bc
00000290: 55d1 b3bd af6f e8bc 81f5 a2bd 7142 ca3c
000002a0: b6bb 563e 142a 913e a50c c93c 3acb fbbc
000002b0: 0e57 b6bd ff42 f43d a988 80bb 052f f9bd
000002c0: 6de5 74bb 6fd9 1d3d fd69 253e e07a b93c
000002d0: d29c 9b3e 17e9 65bd 81cb d9bd 0fda 423b
000002e0: 47dc 893d fca3 dbbc d3cc 803d 7e34 573d
000002f0: 1dee 80bd 7862 973d 3598 603d 7a99 f23e
00000300: dc67 a8bd 6383 a03c ae22 a0bd 1bfa 8abe
00000310: d8c3 d1bd 1d93 eebc 113d 84bd bbba 213d
00000320: 8165 41bd 448a 363d fb3d 1b3d 1199 20be
00000330: c804 193d 326f 943d 2042 603e 5bae 093d
00000340: bbca b73c cfb7 73bd f688 e6bc a3ef 9fbd
00000350: d8a3 a43e e564 c8bc 6a74 09bd 7aa3 a1bd
00000360: 8f5d 343d b36a b23d be60 84bd ceb8 16be
00000370: 555a 0fbd e330 6cbe bbcc a23c de8e 75be
00000380: e957 4fbd 1ff8 5ebd 2a2a f3bd 1b38 b53d
00000390: 35f6 18bd b6df 05bc 62cf 193e 0fef ffbb
000003a0: 0863 8ebc 2ce4 2a3e 3605 813e 71db 8e3d
000003b0: 814c 083e bdef d2bc eb38 873d 70c7 11be
000003c0: 596d f2bd 3c4f 76bc f0d2 89bd 678a b0bd
000003d0: 4ded 42bd 0fa3 a93d 5943 1dbe 319d 58bd
000003e0: 75d7 6bbd 76b0 00be 2cf6 d9bc ef51 b03c
000003f0: 153c 01be 9edd 10be aeaa 003b 6b30 29be
0.028861541 -0.010416931 -0.18447845 0.093711406 -0.08870168 -0.19081883 -0.056137264 0.43105757
-0.079704046 -0.17813589 0.09407312 0.043009393 -0.058801085 -0.094051 -0.12183261 0.069472186
0.028348614 -0.09395511 0.05679633 0.06438981 -0.03288785 -0.07031648 0.37070188 -0.052748963
0.0073529887 -0.0736657 0.43682817 -0.07349939 -0.00807527 -0.09622428 -0.03292965 0.018034177
-0.08955033 0.022003382 -0.02544092 -0.0118061295 -0.060208 -0.02428208 -0.012984489 0.055233214
0.059278633 0.10501293 -0.09230866 0.05360068 -0.006430267 -0.062377747 -0.109640494 -0.07398923
-0.19763786 0.05964447 -0.1704828 0.31893718 0.32167348 -0.089796886 0.0068214512 0.013248123
0.05652513 0.1283745 -0.20327565 0.05461526 -0.018244475 0.16595717 -0.013130179 -0.38520986
0.1107093 -0.23539828 0.14290774 -0.079870634 -0.03185844 0.04034697 -0.22096597 0.21776588
-0.16756554 -0.014752015 0.24055578 -0.08914811 -0.057801407 -0.17232704 -0.041361656 0.075926326
0.078213766 0.0067676143 -0.012126927 -0.07422787 -0.042982303 -0.38244712 -0.052617542 0.2625029
0.45323017 0.036522646 -0.19346961 0.018971516 0.33246276 -0.2457513 -0.088280745 0.062349252
0.1449364 -0.04088107 -0.15167505 0.09534922 0.09087175 -0.025493013 -0.031484112 -0.06872532
-0.15903467 -0.10651597 0.06276438 -0.15438755 0.31645593 -0.059588175 -0.10282035 -0.034663275
0.09575964 0.02141757 0.077065535 -0.08370758 -0.05667204 0.021321759 -0.03385575 0.020070955
-0.1214546 -0.2069183 -0.06086882 -0.45105514 -0.08225498 0.011955442 -0.073706575 0.16049837
0.28106263 -0.0020265325 0.09493214 0.1888796 -0.06344106 -0.25871435 -0.013159485 -0.10313633
-0.11717381 -0.13789287 0.10630636 0.08839992 -0.119026914 0.010089194 0.016685512 0.06519533
-0.05974274 -0.04667086 -0.061098758 0.033909835 -0.0869794 0.0077381697 -0.0046305754 0.019894551
0.13097267 0.034128845 -0.04333715 0.05472967 -0.016705073 -0.1996871 0.0004156114 -0.08137935
-0.037389703 -0.10222143 -0.05672713 -0.01679062 -0.08780161 -0.028373567 -0.079569824 0.024689885
0.20970044 0.28352416 0.024542162 -0.030736554 -0.08903323 0.11926841 -0.003922541 -0.121671714
-0.0037368194 0.03853744 0.16153713 0.0226416 0.30393082 -0.056130495 -0.106345184 0.0029732024
0.06731468 -0.026811592 0.06289067 0.052540295 -0.062954165 0.07391828 0.054832656 0.47382718
-0.082229346 0.0195939 -0.078191146 -0.2714394 -0.10242432 -0.029122883 -0.0645696 0.03948472
-0.047215942 0.044565454 0.037900906 -0.1568339 0.037358075 0.07247771 0.21900225 0.033613544
0.022435537 -0.059501465 -0.02814148 -0.07809379 0.32156253 -0.024462173 -0.033558287 -0.07892509
0.044034537 0.087117575 -0.064637646 -0.14718935 -0.034998257 -0.23065524 0.019873014 -0.23980281
-0.050620947 -0.054435845 -0.118732765 0.08848592 -0.037344176 -0.008171013 0.15020517 -0.0078104804
-0.017381206 0.16688603 0.25199288 0.06975449 0.13310434 -0.025749082 0.06602653 -0.14236236
-0.11837263 -0.015033539 -0.06729686 -0.08620148 -0.04758959 0.08283054 -0.15357722 -0.052884284
-0.057578523 -0.12567315 -0.026606642 0.021523444 -0.12620576 -0.1414704 0.0019632983 -0.16522376

fcnn.2.bias f4 [128]
00000000: 59d8 b43d d008 683d d68a b5bd 3202 f4bb
00000010: 22b6 2bbd 4256 3fbd 3c38 bbbb a13c a0bc
00000020: c940 97bd 9525 cbbc 9dfc b83d fe15 9ebd
00000030: 1905 94bd 0103 70bd 6644 983d 32d8 67bd
00000040: 2234 013c 27e2 e8bc 9050 4c3d dae1 843d
00000050: 5ae3 cc3d 0eaa ef3d 7447 acbc 73f1 c03c
00000060: c0a5 70bd 4908 5a3d a3a2 163c 1d30 ae3d
00000070: a2e4 6e3d 2d8c 0d3d 9c95 94bc 4c1d 1f3e
00000080: 7a34 813d a006 a6bb 8afc b8bc 3925 063d
00000090: 73d2 8f3d 0083 6e3b 1726 7e3d c003 f83c
000000a0: b95a 63bd 6f8b a2bc f29f 44bd 9cf8 51bc
000000b0: af0e 953d 2de4 453c 9249 1cbd 4a10 56bd
000000c0: d30b 223e 4b58 e0bc 06e2 253d b2cf 843c
000000d0: d452 81bd f9fa b03d fe39 b23c 72ae 443d
000000e0: 44b4 5fbd f1c3 5bbd 0970 dabc 4fe0 90bd
000000f0: 9759 5dbd 084c 833d fcd0 483d fd96 5e3c
00000100: 21a6 96bd 3748 e13d 301f 22bd 88c3 7c3d
00000110: bc3d 303c 91fa f7bc 92e4 48bd 34c1 50bd
00000120: 7d18 bf3c b297 083e 9c85 1d3b bf5e 22bc
00000130: caf3 b6bc 3dbc 93bd 9023 e5bb 8007 eabc
00000140: aca3 933d ccca ed3d 9ea3 bcbd b4a5 53bd
00000150: b293 ecba 70a1 83bc 2be5 69bc c233 b23d
00000160: f05c cfbc f70b 273b 0a2c a03d 4276 9b3c
00000170: a0a9 ab3b b169 45bd aef3 dc3c e4b3 92bd
00000180: 5bbc 81bd 412d 1bbd 39bf a13d 2685 74bd
00000190: 8310 d1bc ab20 013e 6f9b fe3c 5a3d b9bd
000001a0: 60bf 99bc 3bbc 44bd db3e f33c a577 0a3b
000001b0: 10ce 4a3d a176 313d 4a88 7b3d ebdd f53d
000001c0: 168b 873d 83de ac3c d4ca c53c fea4 aebd
000001d0: 17f5 823d ea2e 5f3d 341a 85bc 9f90 7b3c
000001e0: 3917 d7bd b928 9b3c 0032 71bd c4d2 a93a
000001f0: a575 0cbb b2d3 fc3c b8d4 88bc 229b 6f3b
0.088303275 0.05664903 -0.088643715 -0.0074465508 -0.041921742 -0.04671312 -0.005713491 -0.01956016
-0.07385404 -0.024798194 0.09032557 -0.077190384 -0.07227535 -0.058596615 0.07434921 -0.056602664
0.007885965 -0.02842815 0.049881518 0.0648839 0.10004301 0.11702357 -0.021030165 0.023552632
-0.05875182 0.053230558 0.009194049 0.08505271 0.05832351 0.03455751 -0.018137746 0.1553852
0.06308837 -0.0050667077 -0.022581358 0.032750342 0.07022562 0.0036394 0.062048044 0.030275226
-0.05550644 -0.019841878 -0.0480041 -0.012815621 0.07278191 0.012078327 -0.0381561 -0.05226163
0.15824823 -0.027385851 0.040498756 0.016212318 -0.06314626 0.08641619 0.021756168 0.048017927
-0.054615274 -0.05365366 -0.02666475 -0.070740335 -0.054040518 0.06410986 0.049027428 0.013585803
-0.07355905 0.11000102 -0.039580524 0.06170991 0.010756906 -0.030270847 -0.049046107 -0.050965503
0.023327107 0.13339117 0.0024035936 -0.009910285 -0.022333045 -0.07213638 -0.006992765 -0.02856803
0.07208952 0.11610946 -0.09210895 -0.0516717 -0.0018049388 -0.01606819 -0.014275829 0.08701278
-0.02531287 0.002548931 0.078209 0.018977288 0.0052387267 -0.0481965 0.026971664 -0.07163218
-0.06334754 -0.037884954 0.07897801 -0.059697293 -0.025520569 0.12610118 0.031079976 -0.09044905
-0.018768013 -0.048031073 0.029693058 0.0021128443 0.049512923 0.043326024 0.061409272 0.12005218
0.066183254 0.021102196 0.024144568 -0.085275635 0.063944034 0.0544881 -0.016247846 0.015354305
-0.10502476 0.018940317 -0.058885574 0.001295649 -0.0021432426 0.030862663 -0.016702995 0.0036560972

fcnn.4.weight f4 [64, 128]
00000000: cfda fabe d069 233e 6a81 483e e76e 11be
00000010: 690e 2b3d cbe9 e93c c7a7 d93e 5bbc 8b3e
00000020: 41f6 093d 23f4 603c 9682 be3d 2c3e 863e
00000030: ccdd 5b3e 681d b1bc 31cf d6be 64ca 8e3e
00000040: 5fda a93e 405d b93e bfd3 033c 73bc cdbe
00000050: 3896 52bc 37ec b9bd 869d 89bd 4376 b8be
00000060: 57f4 ad3e ab31 94bd e4d7 8a3e e10e 63bd
00000070: 7383 e9bd eb9d bdbd 107d aa3e 7a96 8a3d
00000080: 4b0a 4bbd 26a0 713d a6fd d1be d6ff 8ebb
00000090: 950d a43c d263 813e ef22 273e 1e20 e7bc
000000a0: f316 8b3c c886 473e 2b76 543e 6429 813e
000000b0: 4c56 03be 34b6 9a3c 306f a03e 557e 363e
000000c0: bd02 a73c c3f3 453d 4905 343e f956 bb3e
000000d0: 2851 ce3e 8598 143c 9616 0c3e 3914 cd3d
000000e0: 17f1 9d3d b57a a23d fcff 30be e1d7 0a3d
000000f0: df6b a23e 4b27 943d c856 983d fb52 57bd
00000100: e847 543e aab9 383d a564 ad3e b5ed 143e
00000110: 72ae d7bd 40af f33d abb1 8cbe 23cb f83d
00000120: 8584 c0be 78b9 f2be 2289 353e 070b 143e
00000130: b867 313e 02fa 9fbe 17f3 c63d 0744 6a3d
00000140: f001 27be 6a1f bb3e 7c80 a73e beb4 c33e
00000150: c214 cbbe 791c b83e da47 073d fa8a 9dbe
00000160: d4d1 2e3e 5232 483e 522d 45be 9fde 733e
00000170: 33a3 183e 5425 1d3e 2ba9 1dbe 6df9 a63b
00000180: b8ff 1bbe 4b8b 7a3e c588 bebb d895 823d
00000190: 88be 523e f4f7 8b3d 8eb1 f73d 68f4 833e
000001a0: 8bdd 8d3e 84de 963c 4307 5d3d 021e 9b3e
000001b0: a731 bcbe b60c 413d 7254 2b3e 525e 1d3c
000001c0: 78c3 303e 9b28 083e 0764 243e c5d5 f33d
000001d0: 51dd e73d 3abd 293e 0a16 613e 3f11 09bd
000001e0: ae4a a23e 81ae c9be c91a 863e 26ee d93d
000001f0: cfbe 283e 09fb ec3d 9c24 253e df93 113e
00000200: 4c69 163d ab8a 9b3d b32f c43e 5f50 67bd
00000210: a7df 3dbc ab23 2f3d 419d eb3e 9161 8d3e
00000220: 42cb 8fbc a257 563d 944e f2bc 0c33 953e
00000230: 54a5 993e fafa fe3d 645a 13be c759 203e
00000240: 6a99 983e dddd 6d3e c2ef 1c3e 61d2 9ebd
00000250: db65 02be 503e 0abe 9de0 1bbd 0f08 503c
00000260: 015b a53e 8457 14be 2e13 023e 4983 34be
00000270: f908 c3bd bf00 35be bc0a 903e b7fb 95bd
00000280: 80fc 3bbe c652 0ebe a5e1 c4bc 1ab5 343c
00000290: 3eaf 3cbe c256 853e aa43 383d 9e9c 8dbd
000002a0: c223 da3d ef02 a63e cd38 183e 9d90 ac3e
000002b0: 1573 5bbe 9767 8fbd d2d1 853e b1e2 3c3e
000002c0: 1459 4fbd 3bae c23d b43b 5e3e c83e be3e
000002d0: db2f da3e ae55 04be cca7 893d 4dcb 223e
000002e0: 05c0 013d a003 1a3e 0fac 08be d496 c63d
000002f0: e73b a73e d3a5 ebbc fff8 993d 47a9 1dbe
00000300: 2c4e dd3d bc88 55be f641 013f 0106 4f3c
00000310: 84ff 883b f9fb b53b 097c 1cbe b5a1 ef3d
00000320: 23e0 4a3d e4aa 273e e6f7 863c fa91 af3d
00000330: 9546 dd3d 996a 2bbe a2b2 223e 35e2 f33d
00000340: b0aa d039 1716 883d 7c8b b13e 0348 8f3e
00000350: 6a64 613e aa42 a83e 2b12 023e 0937 32be
00000360: 32bb 323e b909 243d 3d13 b83c 0022 b53e
00000370: 36e4 c23d c297 913e 829b 7cbe 5ee5 4b3d
00000380: a0e1 09be 5302 8c3e 9bbd 11be 6e23 f03c
00000390: df73 08be b1c4 a0bd fb05 033c e9f3 a73e
000003a0: 2fd6 b13e d5e2 9bba b96d d53d c040 873e
000003b0: 839f 643e 72b9 163e 93d2 e43d 01b6 55bd
000003c0: 61a8 f93d a18e e73c de56 013e 6f70 633e
000003d0: 9894 623d f6de 573d 4bb9 443e 7539 e9bd
000003e0: ab7b bd3e 5bbd 023e 2afd 7e3e 7ace e93d
000003f0: 19ac 043e 1495 f7bb 422a 2f3e 5828 963a
-0.48995063 0.15958333 0.19580618 -0.14202462 0.04176179 0.028553864 0.42510816 0.2729214
0.03368211 0.013730082 0.09302251 0.26219308 0.21471328 -0.021620467 -0.4195495 0.27888787
0.33174416 0.36203957 0.00804609 -0.40182838 -0.012853198 -0.090782575 -0.06719498 -0.36027727
0.3397548 -0.07236036 0.27117836 -0.05543411 -0.11402025 -0.09258636 0.3329854 0.067669824
-0.049570363 0.05899062 -0.4101383 -0.004363994 0.020026008 0.2527147 0.1632192 -0.028213557
0.016978716 0.19485009 0.20748203 0.2522689 -0.12825888 0.01888571 0.3133483 0.1782163
0.020387048 0.048328172 0.17580141 0.36589792 0.40296292 0.009069567 0.13680491 0.10013623
0.07712 0.07933561 -0.1728515 0.033897284 0.31722924 0.07234057 0.07438427 -0.05256937
0.20730555 0.045098938 0.33865848 0.14543803 -0.1053132 0.11898661 -0.274793 0.1214812
-0.37601104 -0.47407126 0.17728093 0.14457332 0.17324722 -0.31245428 0.097143345 0.057193782
-0.16309333 0.36547405 0.32715213 0.38223833 -0.39664274 0.35959223 0.033027507 -0.30770093
0.1707223 0.19550446 -0.1925557 0.23815392 0.14906006 0.15346271 -0.15396564 0.005095652
-0.15234268 0.24467199 -0.005814644 0.06376237 0.20580494 0.06834403 0.12094413 0.25772405
0.27708086 0.01841665 0.053962003 0.30296332 -0.36756632 0.047131263 0.16731432 0.009605007
0.17262065 0.1329674 0.16053782 0.11906008 0.1132151 0.1657609 0.21981063 -0.033463713
0.316976 -0.39390948 0.2619231 0.10641126 0.16479038 0.11571319 0.16127247 0.14216565
0.036721513 0.07594808 0.38317642 -0.056473132 -0.011588967 0.042758625 0.46018413 0.276135
-0.017552976 0.052329667 -0.029578485 0.29140508 0.30008948 0.12450214 -0.1438995 0.15659247
0.29804546 0.23229165 0.15325835 -0.0775497 -0.12734167 -0.13500333 -0.038056005 0.012697234
0.32295993 -0.1448651 0.12702629 -0.17628206 -0.09523196 -0.17676066 0.2813319 -0.073234014
-0.1835804 -0.13898763 -0.024033377 0.011029506 -0.18426225 0.26042753 0.044986404 -0.06914638
0.106513515 0.32424113 0.14865418 0.3370408 -0.21430619 -0.0700218 0.26136643 0.18445851
-0.05062206 0.09505888 0.21702462 0.37157273 0.42614636 -0.12923309 0.06721458 0.15897866
0.031677265 0.15040445 -0.13346885 0.09696737 0.3266289 -0.028765595 0.07518195 -0.15396605
0.10805926 -0.20852941 0.50491273 0.012635709 0.0041808505 0.005553719 -0.1528169 0.11700765
0.04953016 0.16373783 0.016475629 0.08572765 0.10804478 -0.16739883 0.15888456 0.1190838
0.00039800024 0.06644838 0.3467673 0.27984628 0.22010961 0.3286336 0.12702243 -0.17403807
0.17454222 0.040048335 0.022470111 0.35377502 0.09516184 0.28436095 -0.24668697 0.04977929
-0.13464975 0.27345523 -0.14232485 0.02931377 -0.13325451 -0.07850016 0.007997031 0.32803276
0.34733722 -0.0011893163 0.104213186 0.26416588 0.22326474 0.1471918 0.11172976 -0.052175526
0.12190319 0.028266253 0.12630793 0.22210859 0.05531749 0.052702866 0.19211309 -0.11387912
0.37008414 0.12767546 0.24901262 0.114163354 0.12956275 -0.0075556133 0.17105964 0.0011456115

fcnn.4.bias f4 [64]
00000000: d016 d6bc 67d7 bdbc 5ab8 f23d 1f35 2fbd
00000010: 2164 bb3c f6b3 b63d a072 bbbd 6b03 c83d
00000020: 3f4b 94bd 4062 93bd b04e 3e3d feba f2bd
00000030: 912a 70bd 5b56 0dbe f7be cbbd 7670 013e
00000040: 0357 083d d9ed 813d 111b a2bc 7eec b9bd
00000050: 19a2 acbb 50c4 c8bd fb6a 9bb7 8eb5 1c3d
00000060: 213a ab3d 3f6f 953d ae21 893d d7ce a2bc
00000070: 0387 d5bd 9f82 0abe 903a 41bd 38ec 69bd
00000080: f6ff 5bbd 1f12 8bbc daf4 55bd d6a3 553d
00000090: 4e39 67bd 7d70 a2bd 0d76 67ba 73b9 3d3c
000000a0: 0041 033e f547 12bc 9f7a 84bd 3e1e 8b3b
000000b0: a947 f03c 4fd6 b1bd 43f7 5dbc bbbd adbd
000000c0: 1bdb 9fbd 2f8b f3bc e182 1a3e 07fd 583d
000000d0: 1714 8a3d 5a9d a8bd 9dc8 7fbd f06d 203c
000000e0: 1c5f 783d 5dee d6bc 89f5 d83d 19bd 20bc
000000f0: faa8 46bc 97e9 03be 9d4d 88bd 2092 053d
-0.026133925 -0.023174 0.118515685 -0.04277527 0.022874894 0.089210436 -0.09152722 0.09766277
-0.072409146 -0.07196474 0.04646176 -0.11852072 -0.058634344 -0.13802473 -0.09948533 0.12640557
0.033286106 0.06344194 -0.019788297 -0.090783104 -0.005268347 -0.09803069 -1.8527257e-05 0.03825908
0.083606966 0.07296609 0.06695877 -0.01987402 -0.10426142 -0.1352639 -0.04717499 -0.05711004
-0.0537109 -0.016976414 -0.05223546 0.0521582 -0.056451134 -0.07931612 -0.00088295416 0.011579859
0.12817764 -0.008928289 -0.064687006 0.0042455485 0.029331045 -0.08683454 -0.013547721 -0.08483454
-0.07805463 -0.029729454 0.15088989 0.05297568 0.06742113 -0.082331374 -0.06244718 0.009791836
0.06063758 -0.026236707 0.10593707 -0.009810709 -0.012125248 -0.12882076 -0.066554286 0.03261006

fcnn.6.weight f4 [1, 64]
00000000: d95c 793e 41a6 aa3e e9b5 17bf d8ef ac3e
00000010: 8605 813e a685 a13e 449f b93e 39d5 7c3e
00000020: 995b 7bbe 348d c73e 42c6 823e ed36 ec3e
00000030: 4597 75be 828c dc3e a89f 7fbe e3ca 0abf
00000040: 00ed a63e e83a 4b3e 9ae9 59be 64a2 91be
00000050: 4dd9 ab3e 5c49 70be c08b 11bf d572 05bf
00000060: 560d 4e3e f1a4 5a3e 9d78 923e 040b 6cbe
00000070: ffd1 74be c2d4 9ebe 425c 853e d8ac 92be
00000080: c173 753e d1f8 82be b6ee 6bbe 7696 2abf
00000090: 7746 9dbe 821c ab3e 398f b73e 571a 9a3e
000000a0: 9962 703e feef 0cbe da87 c53e 1e24 983e
000000b0: 3fc6 3fbe 051c c63e 23d2 4dbe 7b19 5abe
000000c0: 8741 883e 610a 993e 6e37 863e e809 c4be
000000d0: 245a 8c3e f8f2 9abe 8f8a c03e 5cfd 05bf
000000e0: eeb5 9a3e f6cd c53e 56a7 03bf 5037 c73e
000000f0: 6202 ad3e 3283 8fbe 93b6 923e f192 703e
0.24351825 0.33329967 -0.5926195 0.33776736 0.25199527 0.31547278 0.36254323 0.24690713
-0.2454666 0.38974917 0.25541884 0.46135655 -0.23983486 0.4307595 -0.24963248 -0.5421583
0.32602692 0.1984669 -0.21280518 -0.28444207 0.33564225 -0.23465484 -0.56853867 -0.52128345
0.20122275 0.21351983 0.28607646 -0.23051077 -0.23908232 -0.31021696 0.2604695 -0.28647494
0.23969938 -0.25580457 -0.2304028 -0.66635835 -0.30717823 0.33420187 0.35851458 0.3009822
0.23475112 -0.13763425 0.3858021 0.29715055 -0.18727969 0.38693252 -0.20099692 -0.21298783
0.26612493 0.2989073 0.26214164 -0.38288808 0.27412522 -0.30263495 0.37605712 -0.5233972
0.30216926 0.38633698 -0.5142721 0.38909388 0.3379088 -0.28029782 0.28654918 0.23493554

exp_avg f4 [27, 27, 3]
00000000: 0400 0000 ea83 de40 0000 0000 c2ac 5fbe
00000010: 64ed 35c0 4074 353e 8123 2ec0 87fd 35c1
00000020: 0000 0000 0400 0000 560b 6640 7393 603e
00000030: 0000 0000 42be 24be 0000 0000 0000 0000
00000040: 0000 0000 0000 0000 0000 0000 ec7f 083f
00000050: 0000 0000 0400 0000 0f79 52bf 0000 0000
00000060: 2ca7 bfbf 0000 0000 f741 833f 0400 0000
00000070: 9010 ed3b 0000 0000 0400 0080 0400 0000
00000080: 0000 0000 0000 0000 cacd ce3d cb3d 42bd
00000090: 0000 0000 0000 0000 0000 0000 0400 0000
000000a0: 1f0d c2c0 0000 0000 0000 0000 0400 0080
000000b0: 0000 0000 e983 de40 fdfc 48b6 4eb5 1fc1
000000c0: 0000 0000 093c edbd 0000 0000 7a82 17c2
000000d0: 0000 0000 0000 0000 5e72 ba3d a8bc 1c3d
000000e0: 0000 0000 0a4d d6be fc64 4340 0000 0000
000000f0: fc60 b9c0 9202 12c2 7405 893a 0000 0000
00000100: 3828 2dc0 05c4 bc3d 0000 0000 d031 c23d
00000110: 0000 0000 0400 0000 e589 02bc 0000 0000
00000120: 2aa9 97c0 0000 0000 064d d6be f2be 9fc2
00000130: 74e5 88c3 2f57 be40 9f00 fbc0 0f6a 1fc3
00000140: 1232 0fc1 0400 0080 5341 57c0 0000 0000
00000150: f5af 60c0 071a fe3f 2a52 db3f d0fa 9c40
00000160: fc9b ffbf 0000 0000 3cb2 52ba 0f43 c3c0
00000170: 0400 0000 57a2 8dbf 0400 0000 0000 0000
00000180: 0000 0000 0000 0000 0000 0000 319b 7fbd
00000190: ba26 263e 0000 0000 0bce 9e40 bdae 4c3d
000001a0: 0000 0000 dc87 a5c1 0000 0000 2f6a 1240
000001b0: 0400 0000 7cba d4be 0000 0000 0000 0000
000001c0: 4299 11ab 0000 0000 0400 0080 991f 5f41
000001d0: ba90 413c 0000 0000 0000 0000 0000 0000
000001e0: f4f5 6540 7866 3f40 0000 0000 2931 b6be
000001f0: 0400 0000 0000 0000 5341 57c0 3e3a c83e
00000200: 9216 0a42 d84d ee3e 405a 0fb3 0000 0000
00000210: 4299 11ab 0000 0000 0000 0000 090b 02be
00000220: 0000 0000 0000 0000 4bd3 23bf 34ad 0641
00000230: 0000 0000 85ba a742 606c 3042 19b0 3c3f
00000240: 06c9 a8bc 0bc1 8a40 c2fd 4542 588f 2f3f
00000250: 0000 0000 0000 0000 7e49 09bf 88f4 2cbf
00000260: 0000 0000 4c1b 88c0 0000 0000 41d3 23bf
00000270: c9f3 7b43 cbb5 b943 f006 ed3f a2ae 7743
00000280: a2ba bf42 b033 9142 206e 8c40 0000 0000
00000290: 0000 0000 1c9d 4eb8 9d30 873f 1ca9 843d
000002a0: 7c6b db3f c4f3 e83e b547 14bd fe1b 08c0
000002b0: ddae b73f 3e88 f8be 0000 0000 0400 0080
000002c0: 0000 0000 0000 0000 0000 0000 0000 0000
000002d0: 0000 0000 0000 0000 0000 0000 a057 373f
000002e0: 174c 3d3e 0000 0000 b635 2a38 0000 0000
000002f0: 4ee7 3140 0000 0000 0000 0000 0000 0000
00000300: 0000 0000 654d 7f2a 0000 0000 e55c 0341
00000310: d354 0d3e 9468 ca3e 0000 0000 0000 0000
00000320: 0000 0000 cd33 083a 4957 b13a 0000 0000
00000330: 0000 0000 0400 0000 0000 0000 0000 0000
00000340: 5337 893f 3049 983d f3c8 203f 0400 0000
00000350: 0000 0000 654d 7f2a 0000 0000 0000 0000
00000360: 0000 0000 0400 0000 0000 0000 905d bd3b
00000370: 60d0 553e 71fa 1f3e 14df 9f41 5375 ce3f
00000380: 60ce 7740 dbbe 9b40 9782 8941 a309 6e41
00000390: 481a 923e 766e 13bd 0000 0000 0400 0000
000003a0: d4b6 2f3a 0000 0000 f589 86bc 0000 0000
000003b0: 905d bd3b 9307 9643 bbf8 0f42 6b42 2c43
000003c0: a5a6 cb42 9b2a ae41 5d60 b541 0000 0000
000003d0: 68a1 4d2f 0000 0000 3c73 303f 0000 0000
000003e0: 0000 0000 0000 0000 0ab0 f841 0000 0000
000003f0: 0000 0000 08ad 69c1 12bd 6abd df45 15bf
6e-45 6.953603 0.0 -0.21843246 -2.8426142 0.17720127 -2.720917 -11.374396
0.0 6e-45 3.594442 0.21931247 0.0 -0.16088203 0.0 0.0
0.0 0.0 0.0 0.53320193 0.0 6e-45 -0.8221597 0.0
-1.4972892 0.0 1.0254506 6e-45 0.0072346404 0.0 -6e-45 6e-45
0.0 0.0 0.10097845 -0.04742221 0.0 0.0 0.0 6e-45
-6.0641017 0.0 0.0 -6e-45 0.0 6.9536023 -2.994958e-06 -9.981764
0.0 -0.115837164 0.0 -37.87742 0.0 0.0 0.09103845 0.038265854
0.0 -0.4185565 3.0530386 0.0 -5.793089 -36.50251 0.0010453896 0.0
-2.7055798 0.09217075 0.0 0.09482157 0.0 6e-45 -0.007967447 0.0
-4.7394 0.0 -0.4185564 -79.87294 -273.7926 5.9481425 -7.843826 -159.41429
-8.949724 -6e-45 -3.363362 0.0 -3.5107396 1.9851693 1.713445 4.9056168
-1.9969478 0.0 -0.0008037423 -6.101936 6e-45 -1.1065167 6e-45 0.0
0.0 0.0 0.0 -0.06240386 0.1622571 0.0 4.9626517 0.04997133
0.0 -20.691338 0.0 2.287731 6e-45 -0.41548526 0.0 0.0
-5.1727036e-13 0.0 -6e-45 13.945214 0.011814291 0.0 0.0 0.0
3.5931368 2.9906292 0.0 -0.3558438 6e-45 0.0 -3.363362 0.39106935
34.52204 0.46543765 -3.3376864e-08 0.0 -5.1727036e-13 0.0 0.0 -0.12699522
0.0 0.0 -0.6399428 8.417286 0.0 83.864296 44.105835 0.73706204
-0.020603668 4.336065 49.49781 0.685781 0.0 0.0 -0.53627765 -0.67560625
0.0 -4.253332 0.0 -0.6399422 251.95229 371.42026 1.8517742 247.68216
95.86452 72.60095 4.388443 0.0 0.0 -4.9260547e-05 1.0561711 0.064775676
1.7142177 0.45498478 -0.036201198 -2.1267085 1.4350239 -0.48541445 0.0 -6e-45
0.0 0.0 0.0 0.0 0.0 0.0 0.0 0.7161808
0.18486057 0.0 4.058118e-05 0.0 2.7797427 0.0 0.0 0.0
0.0 2.2675401e-13 0.0 8.210179 0.13801889 0.39532912 0.0 0.0
0.0 0.0005195707 0.0013530041 0.0 0.0 6e-45 0.0 0.0
1.0720009 0.074358344 0.62806624 6e-45 0.0 2.2675401e-13 0.0 0.0
0.0 6e-45 0.0 0.005778976 0.2088027 0.1562288 19.983925 1.6129555
3.8719711 4.867048 17.188765 14.877353 0.28535676 -0.035994016 0.0 6e-45
0.0006702964 0.0 -0.016423205 0.0 0.005778976 300.05917 35.9929 172.25945
101.82548 21.770803 22.672052 0.0 1.8701984e-10 0.0 0.68925834 0.0
0.0 0.0 31.085957 0.0 0.0 -14.604744 -0.057309218 -0.5830974

exp_avg_sq f4 [27, 27, 3]
00000000: c767 4a2c 4b9f 3645 0000 0000 c96e aa43
00000010: bfd2 c643 752f 643f a8e5 c943 d7a3 9445
00000020: 0000 0000 251c 6a37 e18d a845 4812 f83f
00000030: 0000 0000 bd67 9740 0000 0000 0000 0000
00000040: 0000 0000 0000 0000 0000 0000 2619 df41
00000050: 0000 0000 ad0c 6838 7250 0943 0000 0000
00000060: 7450 2c43 0000 0000 bffc 7546 70b3 7039
00000070: 8295 f33c 0000 0000 c3c4 4b35 2441 1e38
00000080: 0000 0000 0000 0000 f67e d03d d6f9 d73e
00000090: 0000 0000 0000 0000 0000 0000 7a4f f234
000000a0: 777d 8f43 0000 0000 0000 0000 4d72 f237
000000b0: 0000 0000 4a9f 3645 3168 4035 6d83 0f46
000000c0: 0000 0000 5c19 6e41 0000 0000 ddd9 0b47
000000d0: 0000 0000 0000 0000 7452 a83e f624 603f
000000e0: 0000 0000 2ebf 1744 5bc2 1444 0000 0000
000000f0: 6bcf cd46 3313 dd46 c448 5d38 0000 0000
00000100: 2c4b 8646 0a8e 9a43 0000 0000 1345 2241
00000110: 0000 0000 c1b5 9332 f214 033b 0000 0000
00000120: 6fe4 9543 0000 0000 2ebf 1744 bc92 a448
00000130: 62d1 364b 64b8 f646 ae21 b244 1dc6 bb48
00000140: 3be3 e946 c125 773e c48c 6445 0000 0000
00000150: f5ed be44 e295 6d44 0a91 7d43 bc31 9544
00000160: 1292 1145 0000 0000 f00d 5b3e 0fbe 4a46
00000170: f14b 6f32 df3f 6a43 915d 6e3d 0000 0000
00000180: 0000 0000 0000 0000 0000 0000 513d 9842
00000190: 3e58 0a41 0000 0000 31ae ba43 9072 df41
000001a0: 0000 0000 b006 9446 0000 0000 80a3 8246
000001b0: f171 0234 b704 2842 0000 0000 0000 0000
000001c0: c4b6 db37 0000 0000 8330 2139 1b4f bf44
000001d0: e636 fe41 0000 0000 0000 0000 0000 0000
000001e0: 8c0b 8f43 2a80 4743 0000 0000 cdaf ee40
000001f0: 078b 0c3b 0000 0000 c48c 6445 b4ae c942
00000200: 8e70 4b47 b9f9 9542 ffc8 7137 0000 0000
00000210: 7950 503a 0000 0000 0000 0000 5e73 f340
00000220: 0000 0000 0000 0000 568f 1044 b078 4444
00000230: 0000 0000 7970 fa47 7098 3447 82b6 a941
00000240: 30fe 1a3c 064e 7b47 cbbf c846 92e3 9642
00000250: 0000 0000 0000 0000 4aec 3142 2f59 db41
00000260: 0000 0000 0c39 3444 0000 0000 558f 1044
00000270: 6b74 994b 6e3d 0a4c 7e3f 5a48 3c87 8749
00000280: a02d 9048 cdf3 0348 60fb 9745 0000 0000
00000290: 0000 0000 96c6 ae37 4666 bc41 533f ed41
000002a0: 6e30 bc42 e128 2441 0d62 b03f 18ed 3e45
000002b0: aa89 ab44 8140 1a43 0000 0000 ae2a 1231
000002c0: 0000 0000 0000 0000 0000 0000 0000 0000
000002d0: 0000 0000 0000 0000 0000 0000 d5e4 8541
000002e0: 48b7 8442 0000 0000 1d86 603d 0000 0000
000002f0: e388 d242 0000 0000 0000 0000 0000 0000
00000300: 0000 0000 2168 9a37 0000 0000 aa92 cb43
00000310: 8ed3 cb3f 2820 6842 0000 0000 0000 0000
00000320: 0000 0000 c29e 1b39 abbf ab3f 0000 0000
00000330: 0000 0000 82e4 ba38 0000 0000 0000 0000
00000340: 98a4 ae42 40d3 a143 0902 8c42 eaaf 4d3d
00000350: 0000 0000 0da1 9e37 0000 0000 0000 0000
00000360: 0000 0000 7ef9 9437 0000 0000 8b81 bd3f
00000370: 1758 be41 6b93 e23e fad9 d145 f1ed 3443
00000380: 26bf 0e44 bf86 8646 e1f8 2c45 c780 3645
00000390: 28df d141 2d59 033f 0000 0000 7b56 2632
000003a0: 16ee a138 0000 0000 8cd6 723d 0000 0000
000003b0: 8b81 bd3f fb6d 1c4b c5d6 b646 dd80 4849
000003c0: 1590 f648 a948 f346 208e d245 0000 0000
000003d0: 1f97 1c45 0000 0000 6f77 3d45 0000 0000
000003e0: 0000 0000 0000 0000 89df b646 0000 0000
000003f0: 0000 0000 19a0 9545 09ed 8940 d16e a140
2.8763535e-12 2921.9558 0.0 340.8655 397.64645 0.89134914 403.7942 4756.48
0.0 1.395404e-05 5393.735 1.9380579 0.0 4.7314134 0.0 0.0
0.0 0.0 0.0 27.88728 0.0 5.5324916e-05 137.31424 0.0
172.31427 0.0 15743.187 0.00022955029 0.029734377 0.0 7.590972e-07 3.7730802e-05
0.0 0.0 0.10180466 0.42182797 0.0 0.0 0.0 4.513384e-07
286.9802 0.0 0.0 2.8901874e-05 0.0 2921.9556 7.167719e-07 9184.856
0.0 14.881191 0.0 35801.863 0.0 0.0 0.32875407 0.875564
0.0 606.9872 595.0368 0.0 26343.709 28297.6 5.2758274e-05 0.0
17189.586 309.10968 0.0 10.141864 0.0 1.7195704e-08 0.0020001498 0.0
299.78464 0.0 606.9872 337045.88 1.1981154e+07 31580.195 1425.0525 384560.9
29937.615 0.24135496 3656.7979 0.0 1527.4362 950.3419 253.56656 1193.5542
2329.1294 0.0 0.21392035 12975.515 1.3928898e-08 234.2495 0.0581947 0.0
0.0 0.0 0.0 76.11976 8.6465435 0.0 373.36087 27.930939
0.0 18947.344 0.0 16721.75 1.2148645e-07 42.004604 0.0 0.0
2.6191941e-05 0.0 0.00015372229 1530.472 31.776806 0.0 0.0 0.0
286.0902 199.50064 0.0 7.45896 0.0021445171 0.0 3656.7979 100.84122
52080.555 74.98774 1.4411517e-05 0.0 0.00079465617 0.0 0.0 7.607833
0.0 0.0 578.2396 785.88574 0.0 128224.945 46232.438 21.214115
0.009460017 64334.023 25695.896 75.44447 0.0 0.0 44.48075 27.418547
0.0 720.89136 0.0 578.23956 2.0113622e+07 3.6238776e+07 223485.97 1.1102475e+06
295277.0 135119.2 4863.422 0.0 0.0 2.083489e-05 23.549938 29.65592
94.09459 10.25998 1.3779923 3054.8184 1372.302 154.25197 0.0 2.1270057e-09
0.0 0.0 0.0 0.0 0.0 0.0 0.0 16.736734
66.35797 0.0 0.0548154 0.0 105.26736 0.0 0.0 0.0
0.0 1.840672e-05 0.0 407.1458 1.5923936 58.031403 0.0 0.0
0.0 0.00014841094 1.3417867 0.0 0.0 8.911734e-05 0.0 0.0
87.32147 323.6504 70.003975 0.050216593 0.0 1.8910063e-05 0.0 0.0
0.0 1.7759154e-05 0.0 1.4805158 23.793013 0.44253096 6715.247 180.92946
570.9867 17219.373 2767.555 2920.0486 26.233963 0.51307946 0.0 9.682135e-09
7.721425e-05 0.0 0.05928664 0.0 1.4805158 1.0251771e+07 23403.385 821261.8
504960.66 31140.33 6737.7656 0.0 2505.445 0.0 3031.4646 0.0
0.0 0.0 23407.768 0.0 0.0 4788.012 4.310185 5.0447774

exp_avg f4 [27]
00000000: 88c2 38c2 293c 7f42 56a0 1a42 c9dd 8542
00000010: 9e5a 4543 3b3e 8d42 d881 ccc1 0fc7 15c2
00000020: 9ec3 87c2 10c6 01c2 7e86 ed42 a967 8ec1
00000030: 5c88 0b42 f4b6 3bc2 3ea5 06c2 b26b 3442
00000040: 1046 9442 c6f9 8041 37e7 abbf 2e9c 18c2
00000050: a730 0e42 8e2f 3bc2 8074 1e42 c36c e5c1
00000060: 117a bbc1 3b16 f1c0 35da c4c2
-46.189972 63.80875 38.656578 66.933174 197.35397 70.621544 -25.5634 -37.444393
-67.882065 -32.44342 118.76268 -17.800615 34.883163 -46.928665 -33.66137 45.10517
74.13684 16.12196 -1.3429936 -38.15252 35.547512 -46.79644 39.61377 -28.678106
-23.434603 -7.5339637 -98.426186

exp_avg_sq f4 [27]
00000000: acd8 dc47 0b43 6948 da67 6647 cbf6 9148
00000010: 7b3f 024a 3dad 9148 db68 0947 9859 8b47
00000020: 2f63 3148 f132 c147 e2a3 1549 ff92 8e45
00000030: 5556 6247 5b99 9647 73a8 a447 60a2 0648
00000040: c41a 5a48 925a 3246 2a52 f944 825c 8c47
00000050: 052d 8247 b175 1e48 5bb4 8847 63ec 2447
00000060: e666 9c46 f1f9 2646 03f7 b948
113073.34 238860.17 58983.85 298934.34 2.1339828e+06 298345.9 35176.855 71347.19
181644.73 98917.88 612926.1 4562.3745 57942.332 77106.71 84304.9 137865.5
223339.06 11414.643 1994.5676 71865.016 66650.04 162262.77 69992.71 42220.387
20019.45 10686.485 380856.1
