src/hero/experiments/justification/models/SmallBTCNN_MediumFCNN_5.pth (torch, 620446 bytes, 27 tensors)

btcnn.layers.0.conv1d.weight f4 [27, 27, 3]
0	0x3b81c68e	0.003960437
1	0xbcb01196	-0.02149276
2	0xbdb3e1d7	-0.0878331
3	0x3ae3b9af	0.0017374064
4	0x3e5ff865	0.21872099
5	0x3dfa04e8	0.12207967
6	0xbe563f09	-0.20922484
7	0x3dff711e	0.12472747
8	0x3cd62cb2	0.02614436
9	0x3bcfdeb8	0.006343689
10	0x3d22e391	0.039767805
11	0xbe166397	-0.14686428
12	0xbe91fc48	-0.28512788
13	0x3d0cab2c	0.03434293
14	0xbde2e9bd	-0.11079738
15	0xbd654f75	-0.05598398
16	0xbd922ef5	-0.071378626
17	0xbddccb35	-0.10780946
18	0xbd0cf1f3	-0.03441043
19	0xbe40f43b	-0.18843167
20	0xbd911b22	-0.07085253
21	0x3d7afa5d	0.06127392
22	0xbe09f25d	-0.1347136
23	0xbdc357f0	-0.09538257
24	0xbe884842	-0.26617628
25	0x3d326ca7	0.04356065
26	0xbddd9654	-0.108196884
27	0xbcedeeea	-0.029044587
28	0x3cb06a09	0.021534937
29	0xbcbf7815	-0.02337269
30	0x3d7ff4bd	0.06248926
31	0xbddefeb7	-0.10888427
32	0x3d4cefd9	0.050033424
33	0xbd760100	-0.060059547
34	0xbe135691	-0.14388491
35	0x3e2f9ddd	0.17150064
36	0x3cddfa32	0.027096841
37	0x3d8e9254	0.069615036
38	0xbc4c8400	-0.012482643
39	0xbdddf034	-0.10836831
40	0x3dd88035	0.105713286
41	0xbc381b80	-0.011237025
42	0x3cdece13	0.027197873
43	0xbe25c964	-0.16190106
44	0xbdc39860	-0.095505476
45	0x3da03e50	0.07824385
46	0xbd0b9737	-0.034079757
47	0x3dd4968f	0.10380279
48	0x3d9d53f4	0.076820284
49	0x3e902c9b	0.2815903
50	0x3c615eb9	0.013755494
51	0xbd0cf46f	-0.034412798
52	0x3d52fda4	0.05151142
53	0xbd25c632	-0.040472217
54	0xbdb53542	-0.08848049
55	0xbc074496	-0.008256098
56	0x3d92d0cd	0.07168732
57	0xbd8a036d	-0.06738935
58	0x391b81b3	0.00014830269
59	0xbd72cef9	-0.059279416
60	0x3e0432c3	0.12909989
61	0xbd86573d	-0.06559608
62	0xbe9c7c26	-0.30563468
63	0xbd426d60	-0.04746759
64	0xbc476efe	-0.012172459
65	0x3e164d33	0.14677887
66	0xbdd5d8b9	-0.10441727
67	0xbe7ffd16	-0.24998888
68	0xbdb25949	-0.08708436
69	0x3e795270	0.24347854
70	0x3e85d623	0.26139936
71	0x3d89401d	0.06701682
72	0xbe283314	-0.16425735
73	0x3d3c38e4	0.045952693
74	0xbdb2c781	-0.087294586
75	0x3cd8b7ed	0.02645489
76	0x3ddd1211	0.107944615
77	0x3ce9d1b8	0.028542385
78	0xbe4d14a5	-0.20027407
79	0x3d68648a	0.056736507
80	0x3d8fc5e4	0.070201665
81	0xbcec9d8e	-0.028883722
82	0xbd45ab06	-0.048258804
83	0x3dbeebd9	0.09322328
84	0xbdb3d94b	-0.0878168
85	0x3e1bba95	0.15207894
86	0x3d8c15c9	0.06840093
87	0x3dffa80d	0.12483225
88	0x3e287474	0.16450673
89	0x3d62e4d0	0.055393994
90	0xbc88fa85	-0.01672102
91	0x3da3472d	0.0797256
92	0x3d268b48	0.040660173
93	0xbd7272ce	-0.059191518
94	0x3d876c4d	0.066124536
95	0xbdc762f0	-0.09735668
96	0xbda76a4e	-0.08174573
97	0xbc969d2b	-0.01838549
98	0xbd3a974e	-0.04555445
99	0x3be3bdab	0.0069501004
100	0xbd8dac6a	-0.06917651
101	0x3d8cd1a5	0.06875924
102	0x3d94c5ff	0.07264327
103	0x3e436c7d	0.19084354
104	0x3ddb2602	0.10700609
105	0xbe37fb1f	-0.17966889
106	0xbcb1e640	-0.021716237
107	0x3db6fae0	0.08934569
108	0x3cd50890	0.02600506
109	0x3bb5ecf7	0.00555193
110	0x3c186dab	0.009303491
111	0xbd303a75	-0.0430245
112	0xbd3b2d31	-0.045697395
113	0x3d0cd720	0.034384847
114	0xbc7df3dc	-0.015500035
115	0x3ccf49a8	0.025303677
116	0x3e01d385	0.12678345
117	0xbcc1c7e4	-0.023654886
118	0xbd0e1deb	-0.0346965
119	0x3dd16002	0.1022339
120	0x3d2fd839	0.042930815
121	0xbd991399	-0.07474441
122	0x3cd8e0a4	0.026474304
123	0x3e872096	0.2639205
124	0x3d95623b	0.072941266
125	0x3d8119f2	0.06303777
126	0x3c6fa878	0.014627568
127	0x3e049c6d	0.12950297
128	0x3de29658	0.11063832
129	0xbe2f88e2	-0.1714206
130	0x3ee28a5f	0.44246194
131	0xba9d0400	-0.0011979342
132	0x3dabbfe6	0.08386211
133	0xbce7c2e1	-0.028291168
134	0x3d067240	0.0328238
135	0x3d1d3758	0.038382858
136	0x3d6ace7b	0.05732582
137	0xbd80ec17	-0.062950306
138	0x3e72d688	0.2371465
139	0x3e0ba22c	0.13636082
140	0x3cdea59d	0.02717858
141	0x3e3c7a5f	0.18406056
142	0x3e1933b0	0.14961123
143	0x3f011b8f	0.50432676
144	0xbc7cf3f9	-0.015439027
145	0x3c1f1297	0.009709022
146	0x3ded4b75	0.11586658
147	0x3d893ae2	0.06700684
148	0x3e8609a5	0.26179233
149	0xbd6a0839	-0.057136748
150	0xbcf23eba	-0.029570926
151	0xbd8ec24e	-0.069706544
152	0x3db893bb	0.09012552
153	0x3d0dbab6	0.03460189
154	0xbd8276eb	-0.06370338
155	0x3d610f84	0.054946437
156	0xbe74f21a	-0.2392048
157	0xbde4e797	-0.11176985
158	0x3c4d7f6c	0.012542587
159	0x3bbf79a6	0.005843359
160	0xbb3af4ab	-0.002852718
161	0x3e997688	0.29973245
162	0x3cff32f2	0.031152222
163	0xbe90625f	-0.2820005
164	0xbd59ff67	-0.053222086
165	0xbdcb72c5	-0.09934
166	0x3d8dec36	0.06929819
167	0x3e1c72d7	0.15278183
168	0xbe216dfe	-0.15764615
169	0x3dfec9ac	0.124408096
170	0x3d2bfe95	0.041990835
171	0x3d8e43fd	0.069465615
172	0xbd176124	-0.036957875
173	0xbe8bbd5d	-0.2729291
174	0xbd420bb9	-0.04737446
175	0xbe45c67d	-0.19313999
176	0x3c5b76e4	0.013395045
177	0x3d7c5000	0.06159973
178	0xbe07860a	-0.13234726
179	0xbc9f2839	-0.01942836
180	0x3dd82dd7	0.10555618
181	0x3d584c94	0.052807406
182	0xbdd7a69e	-0.105298266
183	0xbdb3aeee	-0.087735996
184	0xbdc1763f	-0.09446382
185	0x3d8b1fae	0.06793152
186	0x3e4b215c	0.19836944
187	0x3d286aae	0.041117363
188	0xbe24a608	-0.16078961
189	0xbd5a96c5	-0.05336644
190	0xbe64fdf5	-0.22362502
191	0xbce03507	-0.027369035
192	0x3b85566a	0.0040691392
193	0xbdbda61d	-0.09260199
194	0xbd7c6b8e	-0.06162601
195	0x3db628c7	0.088944964
196	0xbe42f4f6	-0.19038758
197	0x3df6efeb	0.120574795
198	0xbdc46b3e	-0.09590767
199	0x3d505a95	0.050867636
200	0x3c982964	0.018574424
201	0xbd0b5ab5	-0.03402205
202	0x3d3e0b5d	0.046397556
203	0x3d99f904	0.07518199
204	0x3d813910	0.06309712
205	0x3e1912ac	0.14948529
206	0x3dc2bc7d	0.095086075
207	0xbdc4ad53	-0.096033715
208	0xbe2df858	-0.16989267
209	0x3dee92fc	0.11649129
210	0x3d7ad255	0.061235745
211	0xbd3fb140	-0.0467999
212	0xbd209620	-0.03920567
213	0xbf22aca8	-0.635447
214	0x3d01264e	0.03153067
215	0x3d7d90ae	0.061905555
216	0x3dba1e7d	0.090878464
217	0xbb429ba8	-0.002969483
218	0x3d81e2a5	0.06342057
219	0xbdca54ff	-0.09879493
220	0x3d28a82b	0.041176002
221	0xbdf6ed17	-0.1205694
222	0x3d123278	0.035692662
223	0x3d01fc74	0.0317349
224	0xbd8bbed9	-0.06823511
225	0x3d1b1955	0.037865955
226	0x3d306f4b	0.043074887
227	0xbcc4112b	-0.023933968
228	0x3ddcc947	0.10780578
229	0x3d723e99	0.05914173
230	0x3daf072b	0.08546289
231	0xbd42ea78	-0.047586888
232	0x3d8705b0	0.06592882
233	0xbd7477ab	-0.059684437
234	0xbd74a727	-0.05972972
235	0xbda2ded9	-0.07952661
236	0xbdb91372	-0.09036912
237	0xbcc236c0	-0.023707747
238	0x3d3c39a1	0.045953397
239	0x3cdac7eb	0.026706656
240	0xbe9120a3	-0.28345212
241	0xbe7220cb	-0.23645322
242	0x3db7aa3b	0.08968016
243	0xbd91ca79	-0.07118697
244	0xbd61d0b2	-0.055130668
245	0xbdbf5530	-0.0934242
246	0x3d2033bd	0.03911184
247	0xbaacb8a1	-0.0013177582
248	0xbcdf96c0	-0.027293563
249	0xbdd391fe	-0.1033058
250	0xbd8acd67	-0.06777459
251	0xbde1337d	-0.10996149
252	0xbe404632	-0.18776777
253	0x3c6e7648	0.014554568
254	0xbe819c18	-0.25314403
255	0x3d234767	0.039863016

btcnn.layers.0.conv1d.bias f4 [27]
0	0x3b8f82fe	0.004379629
1	0xbd9c071a	-0.07618542
2	0xbcee7daf	-0.029112665
3	0xbda77f34	-0.08178559
4	0xbc66d64b	-0.014089177
5	0x3cb55dfb	0.02213954
6	0xbdf308fe	-0.118669495
7	0xbd1ca975	-0.038247544
8	0x3d301abb	0.042994242
9	0xbd13f162	-0.036118872
10	0x3d67b804	0.056571975
11	0x3c00e334	0.007866669
12	0xbc95dd86	-0.018294107
13	0xbd22e3eb	-0.03976814
14	0xbd92a384	-0.071600944
15	0xbd593f56	-0.053038917
16	0x3e2b65c7	0.16738044
17	0x3d8fd2ed	0.07022653
18	0x3d5a675f	0.05332124
19	0xbd7087c2	-0.05872322
20	0x3ce5bd51	0.028044375
21	0xbdbb7ff7	-0.09155267
22	0xbd3d2f7a	-0.046187855
23	0xbd959891	-0.0730449
24	0x3db10922	0.0864432
25	0xbd0fe607	-0.03513148
26	0x3b7cd540	0.0038579255

fcnn.0.weight f4 [256, 27]
0	0x3d9ddb91	0.077078946
1	0xbd2509d7	-0.040292587
2	0x3e54d107	0.20782863
3	0x3e0e4223	0.13892417
4	0x3da20c94	0.07912555
5	0x3e487edd	0.19579645
6	0x3e0acc82	0.13554576
7	0xbd830555	-0.063975014
8	0x3d3bc78d	0.045844603
9	0xbdae55a0	-0.085124254
10	0x3e346064	0.17614895
11	0xbe2e2a94	-0.1700843
12	0x3cbefeca	0.023314852
13	0xbe62c612	-0.2214587
14	0x3e5c5645	0.21517284
15	0x3d8bcdcc	0.06826362
16	0xbde59118	-0.11209315
17	0x3da71bf5	0.08159629
18	0xbd4a05f8	-0.0493221
19	0xbe154945	-0.14578731
20	0xbe3809b8	-0.17972457
21	0x3e6c3dab	0.230704
22	0xbc8dd9d4	-0.017315783
23	0xbd89d298	-0.06729621
24	0x3e362c7b	0.17790405
25	0xbe185c6d	-0.14879008
26	0xbe295b88	-0.16538823
27	0x3da58b39	0.08083195
28	0x3dd4f75d	0.10398743
29	0x3d051c9a	0.03249798
30	0xbdecfc4c	-0.11571559
31	0xbdfd90f7	-0.123811655
32	0x3b671e7c	0.0035265973
33	0x3db25a46	0.087086245
34	0xbe27000e	-0.16308615
35	0x3d8348fc	0.06410405
36	0xbe082832	-0.13296583
37	0x3d4a4880	0.049385548
38	0xbd828797	-0.06373518
39	0xbd8eb6ef	-0.069684856
40	0xbdf1f776	-0.118147776
41	0xbcd46689	-0.025927799
42	0x3cb5dd40	0.022200227
43	0x3e6fcd56	0.23418173
44	0x3d74ae4f	0.059736546
45	0x3de22a4e	0.11043225
46	0xbe04628b	-0.12928216
47	0x3c8d9200	0.017281532
48	0x3af5ed77	0.0018762787
49	0x3e219b8c	0.15781993
50	0xbdff6b39	-0.12471623
51	0xbe4466dc	-0.19179863
52	0x3de08be3	0.10964181
53	0x3e46db55	0.19419606
54	0xbda579c2	-0.08079864
55	0xbe7748bc	-0.2414884
56	0x3da25cb9	0.07927842
57	0xbe7f94aa	-0.24959055
58	0xbd3ad302	-0.04561139
59	0xbe177d20	-0.14793825
60	0xbd9ed8fd	-0.07756231
61	0xbe0f249c	-0.13978809
62	0x3c0f329c	0.008740094
63	0xbe497eaa	-0.19677225
64	0xbcb05464	-0.021524616
65	0x3e12957a	0.14314833
66	0xbc1dcc27	-0.009631193
67	0x3e4251ea	0.1897656
68	0xbd448098	-0.0479742
69	0xbc8a569a	-0.016886998
70	0x3da3b1b0	0.079928756
71	0xbd18579e	-0.037192933
72	0xbd6d25fa	-0.057897545
73	0xbb36d9ef	-0.0027900895
74	0x3d85ea45	0.06538824
75	0xbd4eebc6	-0.05051782
76	0x3e344de0	0.17607832
77	0x3dc45e50	0.09588301
78	0x3c802dc3	0.01564682
79	0xbd930ce4	-0.07180193
80	0x3cb3f97b	0.021969547
81	0xbdc6b36d	-0.097021915
82	0x3e32da53	0.17466097
83	0xbd4640e0	-0.048401713
84	0xbdc53bc6	-0.096305415
85	0xbd5e5e7e	-0.054289334
86	0xbe48ed61	-0.19621803
87	0xbdffe5a0	-0.12494969
88	0xbda4fd6b	-0.08056148
89	0x3e1211bf	0.14264582
90	0xbdb93eb5	-0.090451635
91	0xbdb71d97	-0.08941191
92	0x3e586d6a	0.21135488
93	0x3e5d5538	0.2161454
94	0x3bbede71	0.005824857
95	0x3d0e93a6	0.034808777
96	0x3d901860	0.07035899
97	0x3b8dc007	0.00432587
98	0x3e2e33ba	0.1701192
99	0xbe27d4d8	-0.16389787
100	0x3c03652c	0.008019727
101	0x3c1b7b73	0.009489882
102	0xbc8ef559	-0.017450975
103	0xbd311295	-0.04323061
104	0xbe859a84	-0.2609445
105	0x3d1392bb	0.036028605
106	0xbdead1e9	-0.114658184
107	0xbda68acd	-0.08131943
108	0x3d32d356	0.043658577
109	0xbe2e52dd	-0.17023797
110	0xbcb735c5	-0.022364506
111	0x3d93f781	0.07224942
112	0xbd7f7472	-0.06236691
113	0x3af535e3	0.0018708076
114	0x3e28b8f0	0.16476798
115	0x3d8822bd	0.06647251
116	0x3dfa80b1	0.12231577
117	0xbe3079c0	-0.17233944
118	0xbd4e9e33	-0.05044384
119	0x3e35a78c	0.17739695
120	0x3c475d9c	0.012168314
121	0x3e19aecb	0.15008084
122	0x3dacfeb0	0.08447015
123	0xbdab8a2a	-0.08375962
124	0x3e139546	0.14412412
125	0xbdc6e30c	-0.097112745
126	0x3dfbef8a	0.12301548
127	0xbd2de8bf	-0.042458292
128	0x3dcaf754	0.09910455
129	0xbe493637	-0.19649588
130	0xbdb26574	-0.08710757
131	0x3d62eecf	0.055403527
132	0xbdb0037b	-0.08594414
133	0x3ba83390	0.0051331
134	0xbdd35b0e	-0.10320102
135	0x3d5f20ca	0.05447463
136	0xbe599cf0	-0.21251273
137	0x3e40d2a1	0.18830349
138	0xbdcd9fdd	-0.10040257
139	0x3e47e37d	0.19520374
140	0xbe37100e	-0.17877218
141	0xbdca7aaf	-0.09886681
142	0xbdcf978f	-0.101363294
143	0xbe016078	-0.12634456
144	0xbdd6a80b	-0.104812704
145	0xbb8a1938	-0.004214432
146	0x3d93e970	0.07222259
147	0xbd29e0e6	-0.041474245
148	0x3e09c958	0.13455713
149	0x3e1a64ca	0.1507751
150	0x3d8614e1	0.06546951
151	0xbd76ffd3	-0.060302567
152	0xbdee098a	-0.11622913
153	0xbd7cade9	-0.06168929
154	0x3d60c68b	0.054876845
155	0xbe0cf65f	-0.13765858
156	0x3e03ec5d	0.12883134
157	0xbe1038bb	-0.14084141
158	0x3cc92307	0.024552835
159	0x3dadb65b	0.08482047
160	0x3dd795cb	0.105266176
161	0xbc584eb0	-0.013202354
162	0x3e018125	0.12646921
163	0xbe9924c7	-0.2991087
164	0xbe3b4ca7	-0.1829096
165	0xbe67b3c3	-0.22627167
166	0x3e1ff686	0.15621385
167	0xbd788d15	-0.06068142
168	0xbd74157f	-0.059590813
169	0xbe57d00a	-0.21075454
170	0xbe3a4c77	-0.18193232
171	0xbdd568b2	-0.1042036
172	0xbd6631bb	-0.05619977
173	0x3e2f5058	0.17120492
174	0x3d3e29ab	0.046426456
175	0x3ce3b4b7	0.027796132
176	0x3e0f2f2a	0.13982835
177	0x3ae579bd	0.0017507594
178	0x3d6ec009	0.058288608
179	0x3e2d1269	0.16901554
180	0xbc8e2904	-0.017353542
181	0xbe337e51	-0.17528655
182	0xbe1ea67c	-0.15493196
183	0x3e2b1fab	0.16711299
184	0x3d863eb2	0.06554927
185	0xbe1b5e15	-0.15172608
186	0xbdf3d254	-0.11905351
187	0x3b42f394	0.0029747235
188	0xbbe8f613	-0.0071094125
189	0x3e001c2b	0.12510745
190	0xbf56388b	-0.8368003
191	0x3db20e60	0.08694148
192	0x3e0d4af2	0.1379812
193	0xbe17e788	-0.14834416
194	0x3e09fb03	0.1347466
195	0x3e76f378	0.24116313
196	0x3ce90ce9	0.028448539
197	0xbd8093e2	-0.062782064
198	0x3ceb6fa3	0.028739756
199	0x3c17817b	0.009247179
200	0xbe705e54	-0.23473483
201	0x3e1a6a36	0.15079579
202	0xbdcd0562	-0.10010792
203	0x3e558a8c	0.20853633
204	0x3df89c20	0.121391535
205	0xbea14a69	-0.31502083
206	0x3cbcc5ef	0.0230436
207	0xbd064e19	-0.032789323
208	0xbbca76ca	-0.0061787115
209	0x3cebc7c9	0.028781788
210	0x3cd859be	0.02640998
211	0xbe06a378	-0.13148296
212	0xbe14295b	-0.14468901
213	0xbd456645	-0.048193235
214	0xbe80fe98	-0.2519424
215	0xbdcac137	-0.09900134
216	0xbe40e6e6	-0.18838081
217	0xbd07014d	-0.032960225
218	0x3d436a22	0.047708638
219	0x3ca5a58a	0.020220537
220	0xbdfbe54f	-0.122995965
221	0x3d19cee9	0.03755084
222	0x3cf8f779	0.030391442
223	0x3e8de625	0.2771465
224	0x3e42b744	0.19015223
225	0xbe1f21c0	-0.15540218
226	0xbe2c54fd	-0.16829295
227	0x3e0fd561	0.14046241
228	0xbd2b589e	-0.04183256
229	0x3d0b3932	0.033990093
230	0x3d79e84c	0.06101255
231	0x3d2b2d2b	0.041791122
232	0xbd09a3b0	-0.03360337
233	0x3e666807	0.22500621
234	0x3ce2e450	0.027696759
235	0x3e229255	0.15876134
236	0x3e16a098	0.14709699
237	0xbda3aad3	-0.079915665
238	0x3d85ecd4	0.06539312
239	0xbcf5319e	-0.029930886
240	0xbe2092eb	-0.15681045
241	0xbe13ed57	-0.14446007
242	0x3b174cf6	0.0023086644
243	0xbe287b35	-0.1645325
244	0x3d7e5699	0.062094305
245	0xbe51b87d	-0.20480533
246	0x3c1f5203	0.009724143
247	0x3c5e6475	0.0135737555
248	0xbe6a61ce	-0.22888872
249	0xbe06b58c	-0.13155192
250	0xbca5f15c	-0.02025669
251	0xbd9af559	-0.075663276
252	0xbd8bb621	-0.06821848
253	0xbe05dda0	-0.13072824
254	0x3df5eab3	0.12007656
255	0xbd7c4b43	-0.061595213

fcnn.0.bias f4 [256]
0	0x3dbcbafe	0.092153534
1	0x3e564102	0.20923236
2	0x3ddfeffe	0.10934447
3	0xbdea4873	-0.114396
4	0x3d0a18b5	0.03371497
5	0x3d214892	0.03937585
6	0x3e3c1fbf	0.18371485
7	0x3e2cf806	0.16891488
8	0x3d39ea78	0.045389622
9	0x3dbde43e	0.09272049
10	0x3e03a861	0.128572
11	0xbdc1fa88	-0.09471613
12	0x3c1e9f24	0.009681497
13	0x3d1f013d	0.03881954
14	0x3dd78c79	0.1052484
15	0xbd42c14f	-0.047547635
16	0x3df8f61a	0.12156315
17	0x3d5a2bae	0.053264312
18	0x3c2da95b	0.0105994595
19	0x3e04b5f0	0.12960029
20	0x3d56b5d8	0.052419513
21	0xbe310bc7	-0.17289649
22	0x3d279ac4	0.04091908
23	0x3e58f986	0.21188936
24	0xbcd8ec14	-0.026479758
25	0x3e010c7f	0.12602423
26	0xbdd9f511	-0.10642446
27	0x3d15c82a	0.036567844
28	0xbdbab02d	-0.09115634
29	0xbcff01f0	-0.031128854
30	0x3e71781b	0.23580973
31	0xbd856d6a	-0.0651501
32	0x3e23d887	0.16000567
33	0xbdffe22f	-0.12494313
34	0x3e44de80	0.19225502
35	0xbdf4e911	-0.119585164
36	0x3d57fa90	0.05272919
37	0xbe267733	-0.16256408
38	0xbdd7f14a	-0.10544069
39	0xbd8b43c5	-0.068000354
40	0xbd80e172	-0.06293
41	0xbd1cf7e6	-0.038322352
42	0x3e9b85ec	0.30375612
43	0xbdd2e228	-0.10297042
44	0x3d0695ed	0.032857824
45	0xbe3f666b	-0.18691413
46	0xbdf18438	-0.11792797
47	0xbd8e4355	-0.06946436
48	0xbceaba22	-0.028653208
49	0x3db63038	0.08895916
50	0xbde70ef0	-0.11282146
51	0x3db1cf59	0.086821266
52	0xbe14e9c8	-0.14542305
53	0xbb5c530d	-0.0033618838
54	0xbcc75e74	-0.024337031
55	0x3e8a346d	0.26993123
56	0xbe1b5b6f	-0.15171598
57	0x3df3ccbd	0.11904285
58	0xbe20e60d	-0.15712757
59	0x3debb2f0	0.11508739
60	0xbd79e120	-0.06100571
61	0x3dbce470	0.092232585
62	0xbd3c70a0	-0.046005845
63	0x3d7286ca	0.059210576
64	0xbe280fab	-0.16412227
65	0x3cb3d165	0.021950433
66	0x3e17a1fc	0.14807886
67	0x3d55b6a2	0.052176125
68	0xbc576f7d	-0.0131491395
69	0x3e139cd8	0.144153
70	0x3e2627be	0.16226098
71	0x3d89c1f4	0.06726447
72	0x3db63e14	0.08898559
73	0x3e20793f	0.15671252
74	0xbdb15f2a	-0.08660729
75	0x3e2a151a	0.16609612
76	0xbc239613	-0.009984511
77	0x3d71a95d	0.058999408
78	0xbdef4b74	-0.116843134
79	0xbe08a00f	-0.13342308
80	0x3e12eb57	0.14347588
81	0xbe0fba0e	-0.14035818
82	0xbe23cf8a	-0.15997139
83	0x3dd4da0a	0.1039315
84	0x3df9b598	0.121928394
85	0x3db36e24	0.08761242
86	0x3ca3a4f2	0.019976113
87	0x3e719859	0.23593272
88	0x3dcf4262	0.101200834
89	0xbe111b48	-0.14170563
90	0x3d91ef6a	0.07125743
91	0x3e26ee47	0.16301833
92	0xbe17e512	-0.14833477
93	0x3e28683c	0.16446012
94	0xbe129515	-0.14314683
95	0x3dea45a3	0.114390634
96	0x3d543f8b	0.05181841
97	0x3e0ff4ba	0.140582
98	0xbe53b0a5	-0.20672853
99	0xbd0cbf52	-0.034362145
100	0xbe52215f	-0.20520543
101	0x3d87017c	0.0659208
102	0xbded5a70	-0.11589515
103	0xbdc34d95	-0.09536282
104	0x3deed1cb	0.116611086
105	0xbe2c02f9	-0.16798009
106	0xbe1a8b3c	-0.15092176
107	0xbe28dcc6	-0.16490468
108	0x3e2a71f3	0.1664503
109	0xbe0989bb	-0.13431446
110	0xbe43e9ea	-0.191322
111	0x3e226457	0.15858589
112	0xbe1555ba	-0.14583483
113	0x3d4a50be	0.049393408
114	0x3e8ae6a4	0.2712909
115	0xbe09a160	-0.13440466
116	0x3e39e42e	0.1815345
117	0x3d3d36f7	0.046194997
118	0x3cc0505b	0.023475816
119	0xbe27f2d3	-0.16401224
120	0xbd6fe88b	-0.05857138
121	0xbd1a1c23	-0.03762449
122	0xbdce17cc	-0.10063133
123	0xbe0a6260	-0.1351409
124	0x3d8ee3f8	0.06977075
125	0x3e0c697a	0.13712111
126	0xbe17cf5c	-0.14825195
127	0xbb2d8ea3	-0.0026482723
128	0x3dfe50f1	0.12417782
129	0x3e261b8a	0.16221443
130	0x3e2963b5	0.16541941
131	0x3dcf6109	0.1012593
132	0x3d69ace8	0.057049662
133	0x3df7587e	0.120774254
134	0xbe17de79	-0.1483096
135	0xbe54d5ce	-0.20784685
136	0xbe08c655	-0.13356908
137	0x3d4f673a	0.050635554
138	0x3d8d3406	0.06894688
139	0x3e15c6bd	0.14626594
140	0x3e020d57	0.12700401
141	0x3d6ea2d9	0.058260772
142	0xbd42b697	-0.047537412
143	0x3e465598	0.19368589
144	0x3d05888d	0.032600928
145	0xbcf23a7c	-0.029568903
146	0xbcc8335d	-0.024438554
147	0x3e704ee6	0.23467597
148	0x3e29e016	0.16589388
149	0x3d243d67	0.04009762
150	0xbe2218e7	-0.15829812
151	0x3e1c41cf	0.15259479
152	0x3e2a4054	0.16626102
153	0x3e419c57	0.18907295
154	0xbdd1f881	-0.102524765
155	0xbdd707b7	-0.10499518
156	0x3db13c42	0.086540714
157	0xbdfbaa1c	-0.12288305
158	0xbe803bbc	-0.25045574
159	0x3d6b5ea3	0.0574633
160	0xbdddbafd	-0.10826681
161	0x3e272cf8	0.16325748
162	0x3d647325	0.055773873
163	0xbe58bc9f	-0.21165703
164	0xbde18779	-0.110121675
165	0xbdb761e5	-0.08954219
166	0xbe2263a3	-0.15858321
167	0xbe617dc7	-0.22020636
168	0xbd8a1a49	-0.06743295
169	0x3d638df1	0.055555288
170	0xbcbad082	-0.022804502
171	0x3e3f0dff	0.18657683
172	0xbd2b3d88	-0.041806728
173	0x3c85b959	0.016323732
174	0x3dd34ade	0.10317014
175	0x3ddf1c46	0.108940646
176	0xbde75384	-0.11295226
177	0x3e37d6eb	0.17953078
178	0xbe1e1774	-0.15438634
179	0x3e597e4d	0.21239586
180	0xbd3522e7	-0.04422274
181	0xbe3467b1	-0.1761768
182	0xbd7266b8	-0.05917999
183	0x3d905f7f	0.070494644
184	0x3e8091b0	0.2511115
185	0xbe529842	-0.20565894
186	0xbe11dbda	-0.14244023
187	0xbd919dbd	-0.07110164
188	0x3df358f0	0.11882198
189	0x3ddc7655	0.107647575
190	0x3e105d61	0.14098121
191	0xbe116ffa	-0.14202872
192	0x3b8d0432	0.0043034786
193	0x3e152af6	0.1456717
194	0xbc9ff063	-0.019523805
195	0x3e321185	0.17389496
196	0xbe11c66f	-0.14235853
197	0xbe039a76	-0.12851891
198	0x3d6cd4df	0.057820197
199	0x3e0c6da1	0.13713695
200	0xbd3f4eda	-0.046706058
201	0xbcc4f431	-0.02404222
202	0xbd23f6ea	-0.040030397
203	0xbe2d2ce4	-0.16911656
204	0xbd6d99df	-0.05800807
205	0x3e55c4ac	0.20875806
206	0x3de5263f	0.111889355
207	0x3e72c4c1	0.23707868
208	0x3d93ab55	0.07210413
209	0x3e00a760	0.12563848
210	0x3dcbf9c6	0.0995975
211	0x3e10724f	0.14106105
212	0xbd20dfc9	-0.03927592
213	0xbd90fd22	-0.07079531
214	0xbe187ff8	-0.14892566
215	0x3e1e2898	0.15445173
216	0xbdb2d845	-0.087326564
217	0xbce0a581	-0.027422668
218	0xbd095732	-0.03353042
219	0xbdbc96d6	-0.09208457
220	0x3de1258d	0.1099349
221	0x3e3a013f	0.18164538
222	0x3db6a7f3	0.089187525
223	0x3d844e18	0.06460208
224	0xbde0c005	-0.10974125
225	0x3e2770d5	0.16351636
226	0x3d4e804f	0.050415333
227	0x3b144d61	0.002262913
228	0x3c939a14	0.018017806
229	0x3c827987	0.01592709
230	0x3d83bb28	0.064321816
231	0x3d8df114	0.06930748
232	0xbd3889b3	-0.045053195
233	0x3e0c722f	0.13715433
234	0x3e50ea78	0.20401943
235	0x3e2cbaa0	0.16868067
236	0x3cab36ae	0.020900097
237	0xbddce09d	-0.10785029
238	0x3e13645e	0.14393756
239	0xbd755623	-0.0598966
240	0x3e674a8b	0.2258703
241	0x3deca0ce	0.115541086
242	0xbdb37398	-0.08762282
243	0xbd51bf5d	-0.05120789
244	0x3d53acc6	0.05167844
245	0x3c3c2b2a	0.0114849005
246	0xbe467463	-0.19380336
247	0xbc6cb03d	-0.014446315
248	0xbd4537f5	-0.048149068
249	0xbd97b1e5	-0.074069776
250	0xbdd85821	-0.10563684
251	0x3d3bd578	0.045857877
252	0xbcbe504d	-0.02323165
253	0xbe5f9a2d	-0.21836157
254	0x3e25fb24	0.16209084
255	0xbde69aa5	-0.11259965

fcnn.2.weight f4 [128, 256]
0	0x3b06e5c0	0.002058372
1	0x3d8d3c67	0.068962865
2	0xbd7996df	-0.060934898
3	0x3e3e1764	0.1856361
4	0xbd7b9c8b	-0.061428588
5	0xbe04acf6	-0.12956604
6	0xbd9a512f	-0.07535016
7	0x3e836d50	0.25669336
8	0x3d3a1f14	0.045439795
9	0x3c6393e3	0.013890239
10	0x3dd109f3	0.10206976
11	0xbd2dff75	-0.04247995
12	0xbd9cf3ef	-0.07663714
13	0x3d5132a2	0.051073678
14	0x3d8cb5ee	0.06870638
15	0xbc40dc1c	-0.011771228
16	0x3dbcd829	0.09220917
17	0xbb32a9b0	-0.0027261786
18	0xbd0ec954	-0.03485997
19	0xbd498592	-0.04919965
20	0xbd42e12a	-0.047578014
21	0x3c93f80e	0.018062618
22	0xbe20b25a	-0.15693036
23	0x3d11aab3	0.035563182
24	0x3d3747e2	0.044746287
25	0x3e3550e1	0.17706634
26	0xbc829668	-0.01594086
27	0xbdd623dd	-0.10456059
28	0xbc4dce6b	-0.012561421
29	0x3ce610a5	0.028084109
30	0xbe348a12	-0.17630795
31	0xbc40c661	-0.011766047
32	0xbd154349	-0.03644112
33	0xbcdfa016	-0.027298015
34	0xbd17edbe	-0.037091963
35	0xbc536326	-0.012902057
36	0x3d4e174e	0.050315194
37	0x3d91fa93	0.07127871
38	0x3d8fc128	0.070192635
39	0x3dd47c20	0.103752375
40	0xbd83ab6a	-0.06429179
41	0x3d7549c2	0.059884794
42	0xbefb0b89	-0.49032238
43	0x3c3a39e0	0.011366338
44	0xbb44ef52	-0.0030049873
45	0xbe01adbe	-0.12663934
46	0x3caecd89	0.021338241
47	0x3ca0610e	0.01957753
48	0xbdf9a8be	-0.12190388
49	0xbd62d992	-0.055383272
50	0xbc2df37e	-0.010617135
51	0xbe1968b1	-0.14981343
52	0x3d81830f	0.063238256
53	0x3d7e0a21	0.06202138
54	0x3bce26f0	0.006291263
55	0x3e2af638	0.16695487
56	0x3d56946a	0.052387632
57	0x3dc3e610	0.09565365
58	0x3d218549	0.03943375
59	0x3e437bfa	0.19090262
60	0x3d5dde56	0.054167114
61	0x3b9c822e	0.004776261
62	0x3dd07fdb	0.101806365
63	0xbb1597e3	-0.0022826127
64	0xbb9a7412	-0.0047135437
65	0x3d864351	0.06555808
66	0xbca0402f	-0.019561855
67	0x3d8436a5	0.06455735
68	0xbd1c0c57	-0.038097706
69	0x3dce9ed3	0.10088887
70	0xbd952d5f	-0.072840445
71	0x3b66580a	0.003514769
72	0x3d3c2bdf	0.045940276
73	0xbd3924f0	-0.045201242
74	0xbe357ceb	-0.17723434
75	0x3dc2294a	0.094805315
76	0xbc5c70ed	-0.013454658
77	0xbd0eca9a	-0.034861185
78	0x3e04fe7f	0.12987708
79	0x3d995672	0.07487191
80	0xbe4d4bfb	-0.20048515
81	0x3c2ba9a2	0.010477455
82	0x3da04a95	0.078267254
83	0x3bda35ae	0.006659231
84	0xbd9411df	-0.07229971
85	0xbd02732f	-0.03184813
86	0x3bb8134d	0.005617535
87	0xbdc83049	-0.09774835
88	0x3c9303c3	0.01794613
89	0x3da1b432	0.07895698
90	0x3cb49cdd	0.022047454
91	0x3d416a10	0.04722029
92	0x3d9edcf7	0.077569894
93	0xbd4b29df	-0.04960048
94	0x3dcd8a96	0.10036199
95	0xbd65f5e4	-0.056142703
96	0xbd4fd8cb	-0.05074386
97	0xbc72e433	-0.014824915
98	0x3bbd75e9	0.0057818783
99	0x3b124639	0.0022319688
100	0x3d8aad1a	0.06771298
101	0x3d762a4c	0.06009893
102	0xbb55c435	-0.003261817
103	0xbe5a6fa2	-0.21331647
104	0xbc36fdcd	-0.011168909
105	0x3d99150c	0.074747175
106	0x3d8ee9b6	0.069781706
107	0x3dc99eee	0.098447666
108	0x3ea15500	0.31510162
109	0x3d8241d7	0.06360214
110	0x3c1ea612	0.009683149
111	0xbc8e5fb9	-0.017379628
112	0xbd4dd0de	-0.05024802
113	0x3cfdfbb0	0.031003803
114	0xbe77dc86	-0.24205217
115	0xbc7171a5	-0.014736568
116	0x3df6acbd	0.12044666
117	0xbc1b58fc	-0.009481665
118	0x3d18e8ed	0.03733151
119	0xbb24e78d	-0.002516243
120	0x3c97a1a9	0.018509703
121	0x3d1d7dfd	0.03845023
122	0x3c77a6e0	0.01511547
123	0x3bba8df9	0.005693194
124	0x3b479132	0.0030451533
125	0x3da4dd32	0.08050002
126	0x3c40bcd4	0.01176377
127	0x3da98dee	0.08279024
128	0x3dda38e3	0.106553815
129	0xbdd0f9f2	-0.10203923
130	0xbd59592f	-0.053063568
131	0xba73a6c1	-0.00092945626
132	0x3c5f06a8	0.013612427
133	0xbe4d1987	-0.20029269
134	0x3d14af99	0.036300275
135	0x3d4b2fc4	0.0496061
136	0x3ca9533f	0.020669578
137	0x3c4b18a9	0.012396016
138	0xbc0dd343	-0.008656326
139	0x3d69fc93	0.05712564
140	0x3d2e1df5	0.042509038
141	0xbd7c8151	-0.061646763
142	0x3d909dec	0.07061371
143	0xbc0db673	-0.008649456
144	0xbd85eeb1	-0.065396674
145	0x3d511167	0.051041987
146	0xbcbff54e	-0.0234324
147	0x3ea86353	0.32888278
148	0x3e281f8c	0.16418284
149	0x3e977d5e	0.29587835
150	0x3c353ccc	0.011061858
151	0xbd3cd7b2	-0.04610414
152	0x3d89ca35	0.06728021
153	0xbdc0beb3	-0.09411373
154	0x3dab8a7c	0.08376023
155	0x3ebc01d9	0.3672016
156	0x3cb1ff2f	0.021728126
157	0xbd1aa23b	-0.03775237
158	0xbd1a8ce0	-0.037732005
159	0xbd2270f2	-0.039658494
160	0xbc404f90	-0.011737719
161	0x3d4afd0a	0.049557723
162	0xbcd3c7dc	-0.025852136
163	0xbb93ff6c	-0.0045165326
164	0x3dec1664	0.11527708
165	0xbbbf50ef	-0.0058385055
166	0x3d68f9eb	0.056878965
167	0xbc3a2181	-0.011360527
168	0x3d61182e	0.0549547
169	0x3d614b48	0.055003434
170	0xbe1decf1	-0.15422417
171	0x3d8be1ab	0.06830152
172	0x3d5bc034	0.053650096
173	0xbd266744	-0.040625826
174	0x3c2ae165	0.010429715
175	0xbe592ae3	-0.21207766
176	0x39da121c	0.00041593693
177	0x3da86db4	0.08224049
178	0xbc9ec2ad	-0.019379938
179	0x3bf3c104	0.0074387807
180	0x3d6fffc6	0.058593534
181	0x3e65f068	0.22454989
182	0xbbfbf44f	-0.007689036
183	0x3bfcdcee	0.0077167666
184	0xbe0988fe	-0.13431165
185	0x3e4b3ebf	0.19848154
186	0x3d43afdf	0.047775146
187	0x3c99f246	0.018792283
188	0xbef7e022	-0.48413187
189	0xbcc36286	-0.02385069
190	0xbd31d61f	-0.043417092
191	0x3d80a6e6	0.06281833
192	0x3cc179ba	0.023617614
193	0x3bc92dec	0.0061395075
194	0xbef897a5	-0.48553196
195	0x3d760b87	0.060069587
196	0x3db20710	0.08692753
197	0x3ce38ebb	0.02777802
198	0x3d2357fc	0.03987883
199	0x3d4e4752	0.050360985
200	0xbd0c7425	-0.03429045
201	0x3d871f14	0.065977246
202	0xbbd19ec4	-0.0063971
203	0x3dafb324	0.0857909
204	0xbbe1e6f5	-0.0068939873
205	0x3d988650	0.07447493
206	0x3d434e34	0.047682002
207	0x3da35454	0.07975069
208	0x3da54148	0.08069092
209	0x3daa3706	0.08311276
210	0x3bbca6f0	0.005757205
211	0x3eabf578	0.33585715
212	0x3d8d90d1	0.06912387
213	0xbdd7a1e3	-0.10528924
214	0xbede0be0	-0.43368435
215	0x3d302575	0.04300447
216	0xbe2c7778	-0.16842449
217	0xbdf7fa8f	-0.12108337
218	0xbdd0dd9b	-0.10198518
219	0x3d959385	0.07303528
220	0xbe12c262	-0.14331964
221	0x3d5ddbac	0.054164574
222	0x3d639909	0.055565868
223	0xbcd09941	-0.025463702
224	0x3d5921ee	0.053010873
225	0xbcb5af4d	-0.022178316
226	0x3dceb94f	0.100939386
227	0xbaf22a40	-0.0018475726
228	0x3e066d73	0.13127689
229	0x3d360922	0.044442303
230	0x3d6ff866	0.0585865
231	0xbea78bd4	-0.32723868
232	0xbeb10d96	-0.34580678
233	0xbddb3524	-0.10703495
234	0xbef98b38	-0.48739028
235	0xbd27cce7	-0.040966894
236	0xbdd61709	-0.10453612
237	0x3cf05c61	0.029340925
238	0xbd6c653d	-0.057713736
239	0x3d29d2c9	0.041460786
240	0x3cf56bff	0.029958723
241	0xbe5b7274	-0.21430379
242	0xbcc38a80	-0.023869753
243	0x3e0e153b	0.13875286
244	0xbd220414	-0.03955467
245	0x3da0d317	0.07852762
246	0x3d916b0f	0.07100498
247	0x3d9c741f	0.07639336
248	0xbc9ea80e	-0.019367244
249	0xbd4913af	-0.049091037
250	0xbca3cb12	-0.019994292
251	0xbe2512bb	-0.16120426
252	0x3c1f696d	0.009729725
253	0xbd2fbd35	-0.04290505
254	0xbb5f2c37	-0.0034053454
255	0x3d012b3f	0.031535383

fcnn.2.bias f4 [128]
0	0x3ca6afab	0.020347437
1	0xbd0ea8cd	-0.03482895
2	0x3cb1eb44	0.021718629
3	0x3c959fc0	0.018264651
4	0x3e313ca6	0.17308292
5	0x3d9585d5	0.07300917
6	0x3d68e18f	0.056855734
7	0x3db71660	0.089398146
8	0xbd61b31b	-0.05510245
9	0x3c862107	0.01637317
10	0xbb033273	-0.0020019084
11	0x3d2c7d17	0.042111482
12	0x3c96fdef	0.018431632
13	0x3c75541c	0.0149736665
14	0x3db4c955	0.088274635
15	0x3c52ddce	0.012870265
16	0xbc237a21	-0.009977848
17	0x3d162591	0.03665692
18	0x3cb98ab7	0.022649152
19	0x3c9a4495	0.01883153
20	0xbc9ce45f	-0.019151865
21	0x3cbc62f9	0.022996413
22	0x3c82e44c	0.015978001
23	0x3dc6ffab	0.097167335
24	0xbd24db62	-0.040248282
25	0xbc9e6e8f	-0.019339828
26	0xbd361687	-0.044455077
27	0xbd2a71c6	-0.04161241
28	0xbd368081	-0.044556145
29	0x3b87ed71	0.0041481783
30	0xbcc4fc3e	-0.02404606
31	0x3b6a36b1	0.0035738165
32	0xbd112915	-0.03543957
33	0x3db5e5b1	0.08881701
34	0x3c516ab1	0.012781785
35	0x3befdcbd	0.007320015
36	0x3b8ba291	0.004261323
37	0x3d2aaa0a	0.041666068
38	0xbdd843af	-0.105597846
39	0xbd3bc4b2	-0.04584188
40	0x3cc4fc39	0.02404605
41	0xbcf4d2fe	-0.029885765
42	0x3ba6adb9	0.0050866273
43	0x3d65f91f	0.056145784
44	0xbd3a85fe	-0.04553794
45	0xbd1e4b47	-0.03864601
46	0x3ca81fb6	0.020522933
47	0x3dbca00d	0.09210215
48	0xbd1e3ebf	-0.038634058
49	0x3d98d1ca	0.07461889
50	0xbd10df93	-0.035369467
51	0xbc444826	-0.011980092
52	0x3d7b3613	0.061330866
53	0x3cd0e82c	0.025501333
54	0x3d1ff00a	0.03904728
55	0x3c21e456	0.0098811
56	0xbc78691d	-0.01516178
57	0x3d457c08	0.04821399
58	0x3be47a6a	0.0069726007
59	0x3d572658	0.0525268
60	0xbd184b0e	-0.037180953
61	0xbcee9593	-0.029124057
62	0xbd52c4b9	-0.05145714
63	0xbd8db5c1	-0.069194324
64	0x3c189e98	0.009315155
65	0x3d8672b7	0.06564849
66	0xbd9dc2b0	-0.07703149
67	0xbcaa4fbe	-0.020789977
68	0xbbe83b26	-0.007087129
69	0xbd0f8f15	-0.035048563
70	0x3d53e132	0.051728435
71	0x3c5e9686	0.013585692
72	0x3d323932	0.043511577
73	0xbb99ba61	-0.0046914076
74	0xbcc7ecf7	-0.024404986
75	0xbd1ba7b6	-0.03800174
76	0x3cf5d7df	0.030010162
77	0x3d807945	0.0627313
78	0x3c70f763	0.014707419
79	0xbd13b484	-0.036060825
80	0xbd581657	-0.05275568
81	0xbd630f98	-0.055434793
82	0x3d46ce61	0.048536662
83	0x3d8b5487	0.06803232
84	0x3ce0d115	0.027443448
85	0xbcf56243	-0.029954081
86	0x3d0fa4fa	0.035069443
87	0x3dbe4483	0.09290411
88	0x3be7b8e6	0.007071602
89	0x3d070d75	0.032971818
90	0x3de990b8	0.11404556
91	0x3d18cfce	0.037307553
92	0x3c92cc28	0.017919615
93	0xbd23d42c	-0.039997265
94	0xbd4aa54e	-0.049474053
95	0x3d0f46ed	0.03497975
96	0x3b96e91b	0.004605425
97	0x3dc26b4d	0.09493122
98	0xbcae592c	-0.021282755
99	0x3d74ea0d	0.05979352
100	0x3c1bb8eb	0.009504537
101	0x3d631ae3	0.055445563
102	0xbda5f717	-0.08103769
103	0x3cc7440d	0.024324441
104	0x3db4a5cc	0.08820686
105	0xbc1882f0	-0.009308562
106	0x3d79ea34	0.06101437
107	0xbb71cadd	-0.0036894598
108	0xbca65b6f	-0.02030727
109	0xbd7d5a6c	-0.06185381
110	0x3cbcf211	0.023064645
111	0x3cdfd4b5	0.027323106
112	0x3c17bc62	0.009261223
113	0x3c3507e4	0.011049245
114	0x3c869d4a	0.016432423
115	0xbd9d4db0	-0.07680833
116	0xbd2e86cd	-0.042609025
117	0xbd52fb16	-0.051508985
118	0x3d0723ec	0.032993242
119	0x3c85d4fe	0.016336914
120	0xbd2ed2b9	-0.04268143
121	0xbd2b3975	-0.041802842
122	0x3c7ddd89	0.015494713
123	0xbc4878e5	-0.012235855
124	0x3c43c693	0.011949199
125	0xbc4a590a	-0.01235033
126	0x3c5284f9	0.012849086
127	0x3d235e6f	0.03988498

fcnn.4.weight f4 [64, 128]
0	0xbd742240	-0.059602976
1	0x3b24855f	0.002510391
2	0x3d8599ff	0.06523513
3	0xbe14869a	-0.14504471
4	0x3e9e004c	0.30859601
5	0x3eec0701	0.46099094
6	0xbd2d4f63	-0.042312037
7	0xbcf3ca41	-0.029759528
8	0x3b739917	0.0037170106
9	0x3d805901	0.06266976
10	0xbd139a67	-0.03603592
11	0xbd91120b	-0.070835195
12	0xbd9ca950	-0.07649481
13	0xbd2636eb	-0.040579718
14	0x3e1e17c1	0.15438749
15	0xbd091320	-0.033465505
16	0xbe0e367f	-0.13887976
17	0xbe8d4f32	-0.27599484
18	0xbe74540e	-0.2386019
19	0x3d384131	0.044984046
20	0x3bbbbc8e	0.0057292646
21	0xbdc5acd0	-0.09652102
22	0xbd94fd9b	-0.07274934
23	0xbda29ea2	-0.07940413
24	0xbe0b57e5	-0.13607748
25	0xbccf4da3	-0.025305575
26	0xbdabb304	-0.08383754
27	0xbec1a008	-0.37817407
28	0xbd8bac0e	-0.06819926
29	0xbe80c2b6	-0.25148553
30	0xbb85ccb3	-0.00408324
31	0x3d6db4b5	0.058033664
32	0xbd7d8b56	-0.06190046
33	0xbe106e05	-0.14104469
34	0xbb8079f4	-0.003920788
35	0x3cf8e3e2	0.0303821
36	0x3c84aa00	0.016194344
37	0xbe193c5a	-0.14964429
38	0xbe5a1b1b	-0.21299402
39	0xbcd87c41	-0.026426436
40	0x3d442589	0.04788736
41	0xbd4867c1	-0.048927072
42	0xbc6948d9	-0.01423856
43	0xbe076469	-0.13221897
44	0xbbfd4304	-0.007728936
45	0xbdb4dba0	-0.08830953
46	0x3d77a124	0.06045641
47	0x3d46dbea	0.04854957
48	0x3d969e3c	0.073543996
49	0xbdef343b	-0.11679884
50	0x3d6070b7	0.054794993
51	0xbed7c58a	-0.42142898
52	0xbdafbf2d	-0.08581386
53	0x3c8a6868	0.016895488
54	0xbd7cdc37	-0.06173345
55	0xbd4fd190	-0.050736964
56	0xbe06de75	-0.13170798
57	0x3da0fa04	0.07860187
58	0xbd97bf81	-0.07409573
59	0xbd15e1b7	-0.03659221
60	0xbeb4e1e9	-0.35328606
61	0x3db5ef81	0.08883572
62	0xbd80b08b	-0.06283673
63	0xbe5ce0ac	-0.2157008
64	0xbdd2eda2	-0.10299231
65	0xbe108937	-0.14114843
66	0xbe061eb3	-0.13097648
67	0x3dbe0034	0.092773825
68	0xbe06ae24	-0.13152367
69	0xbdeb0d3a	-0.11477132
70	0xbe80670a	-0.25078613
71	0xbd2d5d26	-0.04232516
72	0xbe038992	-0.12845448
73	0xbc2eca25	-0.010668312
74	0xbecf4549	-0.40482548
75	0xbdccb02c	-0.099945396
76	0x3a9ec415	0.001211288
77	0xbe2add0f	-0.1668589
78	0xbd86435b	-0.06555816
79	0xbe09212b	-0.13391559
80	0xbe008cdd	-0.12553735
81	0xbd133359	-0.03593764
82	0x3ba510be	0.005037396
83	0xbd749dd7	-0.05972084
84	0x3c177999	0.0092453
85	0xbdf11920	-0.1177237
86	0xbcb6f387	-0.02233292
87	0xbdd7ca86	-0.10536675
88	0x3eb12c1c	0.34603965
89	0xbcba3837	-0.022731883
90	0x3e24da70	0.16098952
91	0x3c3e2e8d	0.011607778
92	0xbcb180aa	-0.021667797
93	0x3d4f69c0	0.05063796
94	0x3d880c6a	0.06642993
95	0xbd757632	-0.059927173
96	0xbd30ce7f	-0.04316568
97	0x3bcef713	0.0063160746
98	0x3b51ac10	0.0031993426
99	0x3d398258	0.04529032
100	0xbd3126c2	-0.043249853
101	0x3e86f337	0.26357433
102	0xbe314a2c	-0.1731345
103	0xbd811ade	-0.06303953
104	0x3d3e84b1	0.046513263
105	0xbd86d9c9	-0.06584508
106	0xbdb367df	-0.08760046
107	0xbdd78b4e	-0.10524617
108	0xbe0fcd79	-0.14043225
109	0xbe5a86a8	-0.2134043
110	0xbd223432	-0.03960056
111	0x3cd1d9bc	0.02561652
112	0x3d5c2d54	0.053754166
113	0x3d3f5455	0.046711285
114	0xbdde8c60	-0.10866618
115	0xbdfa4b8d	-0.122214414
116	0xbeeaa6d5	-0.45830408
117	0xbc61bcc7	-0.013777918
118	0xbe1e3480	-0.15449715
119	0x3c9c4738	0.019076928
120	0xbddf3fc3	-0.109008335
121	0x3d5109f0	0.051034868
122	0xbce0664c	-0.027392529
123	0xbdc37c00	-0.095451355
124	0xbe07fb4d	-0.13279457
125	0x3d6be983	0.05759574
126	0xbeb89179	-0.36048487
127	0xbd0590a9	-0.03260866
128	0xbd2faf7e	-0.04289197
129	0x3ddc41d0	0.1075474
130	0xbcb786af	-0.02240309
131	0xbcdef0ac	-0.02721437
132	0x3ef0af60	0.470088
133	0x3e9b3fc7	0.30322096
134	0x3d0fb27b	0.03508232
135	0x3d1eae87	0.03874066
136	0x3da0cbb7	0.078513555
137	0xbc7ca47e	-0.015420077
138	0xbd14cb25	-0.036326546
139	0x3d1fe161	0.039033297
140	0x3dc74a0c	0.0973092
141	0x3cbc59da	0.022992063
142	0xbdb11104	-0.086458236
143	0x3d9735a6	0.073832795
144	0xbce87c44	-0.028379567
145	0xbe8fc363	-0.28078756
146	0xbe45a353	-0.19300584
147	0x3b9cf051	0.00478939
148	0x3b510d3f	0.0031898764
149	0x3b9ebbf2	0.004844182
150	0x3d0f2a1c	0.034952268
151	0x3cd3fee2	0.025878374
152	0xbe603587	-0.21895419
153	0x3d1df998	0.03856811
154	0xbe9b8d9a	-0.3038147
155	0xbe912c4a	-0.28354102
156	0x3d4f05eb	0.050542753
157	0xbd6967d9	-0.056983802
158	0xbd642892	-0.055702753
159	0x3bf814de	0.007570847
160	0x3dc560be	0.09637593
161	0xbe11be62	-0.14232782
162	0x3d7a1323	0.061053406
163	0xbd9100d6	-0.070802376
164	0xbb348cac	-0.0027549667
165	0x3c1ce81c	0.009576824
166	0xbe9abecd	-0.30223694
167	0x3d32dc71	0.04366726
168	0x3c88f61a	0.016718913
169	0xbc8ca306	-0.01716758
170	0xbcc67c4f	-0.024229197
171	0x3d82634c	0.063665956
172	0x3d619373	0.05507226
173	0xbd204221	-0.039125565
174	0x3d1c8e84	0.03822185
175	0xbd8a3112	-0.06747641
176	0xbce99247	-0.028512133
177	0xbecfdb6d	-0.40597096
178	0x3c106ff0	0.0088157505
179	0xbeaf0eae	-0.34190887
180	0x3d975f09	0.073911734
181	0x3df0e091	0.11761583
182	0x3e0647f1	0.13113381
183	0xbe04c677	-0.12966333
184	0x3cbbf7f0	0.022945374
185	0xbbec7416	-0.007215987
186	0xbdb6d700	-0.08927727
187	0x3ddb8f29	0.10720665
188	0xbe669edb	-0.22521536
189	0xbda0d6dd	-0.07853482
190	0x3d3aaa3a	0.045572497
191	0xbe5d9714	-0.21639663
192	0x3db10bae	0.08644806
193	0x3c79ee9d	0.015254644
194	0xbe05a132	-0.13049772
195	0x3e54d171	0.2078302
196	0xbd45c06a	-0.048279203
197	0x3dafc558	0.08582562
198	0xbe9aded7	-0.30248138
199	0x3d4bf4f7	0.049794164
200	0xbb8e3326	-0.0043395935
201	0xbd322f13	-0.043501925
202	0xbe9bc1bf	-0.30421254
203	0xbe345c99	-0.17613448
204	0x3cb896b8	0.022532806
205	0x3d62ddd6	0.05538734
206	0x3d8d447b	0.06897827
207	0xbe050479	-0.12989987
208	0xbe36c549	-0.17848696
209	0x3ce3dd2f	0.02781543
210	0x3de18b4a	0.110128954
211	0x3d8ebbaa	0.06969388
212	0xbccf8616	-0.025332492
213	0xbbff5315	-0.0077918866
214	0x3c61bd94	0.013778109
215	0x3da300de	0.0795915
216	0x3e43a4d6	0.19105849
217	0xbd47cecb	-0.048781198
218	0x3e5b1d89	0.21397986
219	0x3c3e4bdd	0.011614767
220	0x3dd84406	0.105598494
221	0xbd5c3d51	-0.053769413
222	0xbc4cd110	-0.012501016
223	0x3d9dd6f9	0.077070184
224	0xbc1c5365	-0.009541367
225	0x3dc44a95	0.09584538
226	0x3d6ef9fa	0.058343865
227	0x3db33dd8	0.0875203
228	0x3db1c779	0.086806245
229	0x3ed4ef45	0.41588798
230	0xbe833b6b	-0.2563127
231	0x3da097a8	0.07841426
232	0x3db6399f	0.08897709
233	0xbe3bcdc7	-0.18340217
234	0x3da8499d	0.082171656
235	0x3d5c7768	0.053824812
236	0xbd20d3fe	-0.03926467
237	0xbe49145e	-0.19636676
238	0x3dd83231	0.10556448
239	0x3d91947f	0.071084015
240	0xbcb1ac7f	-0.021688698
241	0xbd4bc885	-0.049751777
242	0x3d3b4578	0.045720547
243	0xbe73c107	-0.23804103
244	0xbe5f2dab	-0.21794765
245	0x3ccf4fe5	0.025306651
246	0xbc65c6c7	-0.014024443
247	0x3c788c2e	0.01517014
248	0xbe19c689	-0.15017141
249	0xbcafcc52	-0.021459732
250	0x3d4e80d3	0.050415825
251	0xbe00b98b	-0.12570779
252	0xbcb051a1	-0.021523299
253	0xbdc0d571	-0.09415711
254	0xbe50dcb0	-0.20396686
255	0xbce10dd0	-0.027472407

fcnn.4.bias f4 [64]
0	0xbdd0dc2c	-0.101982445
1	0x3e1352ce	0.14387056
2	0xbdb9b560	-0.09067798
3	0x3c840674	0.016116358
4	0xbd921a94	-0.071339756
5	0xbba352cd	-0.004984236
6	0x3d8ebcef	0.0696963
7	0x3bf13bad	0.0073618502
8	0xbd714faa	-0.058913864
9	0x3ba3d7c1	0.005000085
10	0xbc79379d	-0.015211013
11	0xbd5497c2	-0.05190254
12	0xbdf9dcac	-0.12200293
13	0xbcfd1843	-0.030895358
14	0x3d6978d3	0.056999993
15	0x3cd52c37	0.02602206
16	0xbdab177f	-0.08354091
17	0x3cf2dda3	0.0296467
18	0xbcc08651	-0.023501547
19	0x3d3e4824	0.046455517
20	0xbd151905	-0.036400814
21	0xbd2cd84e	-0.04219847
22	0xbd0488e2	-0.032357104
23	0x3bbc60ec	0.0057488587
24	0xbaf91ba0	-0.0019005425
25	0xbdb0fe2c	-0.086422294
26	0x3d59fe35	0.053220946
27	0xbc5f14b1	-0.013615773
28	0xbd7de01f	-0.061981317
29	0xbdb80f77	-0.08987325
30	0xbb96cdac	-0.0046021547
31	0xbdc2e0c3	-0.09515526
32	0x3be68a8e	0.00703556
33	0x3d8227b1	0.06355227
34	0xbc668b73	-0.014071333
35	0x3cb76497	0.022386832
36	0x3dbcf36d	0.09226117
37	0x3d53c149	0.051698003
38	0x3c2b9cbe	0.010474382
39	0x3d4c81db	0.049928527
40	0x3d2ed91e	0.042687528
41	0x3c9f01f6	0.019410115
42	0x3c7fae67	0.015605546
43	0x3d14240e	0.036167197
44	0x3d51b5ad	0.05119865
45	0xbdb1d247	-0.08682685
46	0xbc878c6c	-0.01654645
47	0xbceb92ba	-0.028756488
48	0xbd930164	-0.071779996
49	0xbd871b38	-0.065969884
50	0x3c4dd975	0.012564053
51	0xbd14e8f4	-0.036354974
52	0x3d5d0ff9	0.05397031
53	0x3d6a7043	0.057235967
54	0x3c349d21	0.011023791
55	0x3d661fe2	0.05618275
56	0x3d25b280	0.040453434
57	0x3c1d1a2f	0.009588762
58	0xbd892ae7	-0.06697636
59	0x3d263ace	0.040583424
60	0xbd519a21	-0.05117238
61	0x3ca22e84	0.019797571
62	0x3dda2895	0.10652272
63	0xbd8f9e2e	-0.07012592

fcnn.6.weight f4 [1, 64]
0	0xbe85c63d	-0.26127806
1	0xbe8bda76	-0.2731511
2	0xbe8b2695	-0.27177873
3	0x3e5c8a1d	0.21537061
4	0xbe80a2f0	-0.2512431
5	0x3edd030f	0.43166396
6	0xbe160943	-0.1465197
7	0xbe3c25d6	-0.18373808
8	0xbe515389	-0.20442022
9	0x3e9029c4	0.28156865
10	0xbe761f08	-0.24035275
11	0x3e89bd5c	0.26902282
12	0xbe3c1a93	-0.18369512
13	0xbe78e397	-0.24305569
14	0x3ec3530c	0.38149297
15	0xbe7e102f	-0.24810861
16	0x3ec7864d	0.3896965
17	0x3e6cd628	0.23128569
18	0x3f02fb49	0.5116468
19	0xbe59efaf	-0.21282838
20	0x3ef1c2a0	0.472188
21	0xbe654a35	-0.22391589
22	0xbe83b126	-0.2572109
23	0xbe6466cd	-0.2230484
24	0x3ea9d26d	0.33168355
25	0x3f08f13b	0.5349309
26	0x3eca783b	0.39544854
27	0xbe5a1bdd	-0.21299691
28	0xbe55acfd	-0.20866771
29	0xbe2c9c9b	-0.16856615
30	0xbdb16cc8	-0.086633265
31	0xbe88b511	-0.26700643
32	0xbe881a22	-0.26582438
33	0xbe574aad	-0.2102458
34	0x3e84e6fa	0.2595747
35	0xbe989b65	-0.29806057
36	0x3e589a4e	0.21152613
37	0x3f0b8609	0.54501396
38	0x3eb9c3f8	0.36282325
39	0x3e696d6d	0.22795649
40	0xbe9a044b	-0.300814
41	0x3ef0f808	0.47064233
42	0xbe242ebc	-0.16033453
43	0xbe2c2ef1	-0.16814782
44	0x3e9f0850	0.3106103
45	0xbe4711a1	-0.19440319
46	0x3efb8a1a	0.491288
47	0xbe6fba80	-0.23410988
48	0x3e64a926	0.2233015
49	0x3edb1d74	0.42795908
50	0x3e835242	0.25648695
51	0xbe861d34	-0.26194155
52	0xbe6c64fe	-0.230854
53	0xbeabc0e3	-0.33545598
54	0xbe5c3235	-0.21503527
55	0x3ece2296	0.40260762
56	0xbe81d998	-0.25361323
57	0x3edf40f4	0.43604243
58	0x3e92520d	0.28578225
59	0xbe7f23cc	-0.24915999
60	0xbe8c9a46	-0.2746145
61	0x3e9ca57d	0.30595008
62	0xbea86382	-0.32888418
63	0xbe8a63ea	-0.27029353

exp_avg f4 [27, 27, 3]
0	0x00000000	0.0
1	0x4013cf4e	2.3095279
2	0x00000000	0.0
3	0x3d510280	0.051027775
4	0x3de32175	0.11090366
5	0xbe16f415	-0.14741547
6	0xbecbb811	-0.3978887
7	0xbf62d572	-0.8860694
8	0x00000000	0.0
9	0x00000004	6e-45
10	0x3fc33685	1.5251013
11	0xbcc25288	-0.023720995
12	0x00048630	4.1548e-40
13	0xbe1fc77a	-0.15603438
14	0x00000000	0.0
15	0x00000000	0.0
16	0x00000000	0.0
17	0x00000000	0.0
18	0x3e45449a	0.1926445
19	0x3eba5123	0.36390027
20	0x00000000	0.0
21	0x00000000	0.0
22	0xbb5e33ec	-0.003390546
23	0x00000000	0.0
24	0x3cd9f118	0.02660422
25	0x00000000	0.0
26	0x409476d5	4.639506
27	0xbe233e50	-0.15941739
28	0xbc4596d0	-0.012059882
29	0x00000000	0.0
30	0x00000000	0.0
31	0x00000000	0.0
32	0x00000000	0.0
33	0x00000000	0.0
34	0xbcf27eeb	-0.029601535
35	0xbd0578af	-0.032585796
36	0x00000000	0.0
37	0x00000000	0.0
38	0x00000000	0.0
39	0x00000000	0.0
40	0x3e046c08	0.12931836
41	0x00000000	0.0
42	0x00000004	6e-45
43	0xbc866d8b	-0.016409656
44	0x00000000	0.0
45	0x4013cf4e	2.3095279
46	0xbc06fce5	-0.008239006
47	0x40e7cab9	7.2434964
48	0x00000000	0.0
49	0x3d83d6f7	0.06437486
50	0x00000000	0.0
51	0x3a25a072	0.00063181587
52	0x00000000	0.0
53	0x00000000	0.0
54	0x00000000	0.0
55	0xbadb3b6a	-0.0016726081
56	0x00000000	0.0
57	0x3efd4a05	0.49470535
58	0x3f351c60	0.7074642
59	0x00000000	0.0
60	0x412f599c	10.959377
61	0x403df7b1	2.968243
62	0xb914ea49	-0.00014201658
63	0x00000000	0.0
64	0x40d1b9f1	6.553948
65	0xbf8f0f07	-1.1176461
66	0x00000000	0.0
67	0xbd2a05b6	-0.041509353
68	0x00000000	0.0
69	0xbd1fb333	-0.038989257
70	0xbda0fba9	-0.078605
71	0x00000000	0.0
72	0x3d79b554	0.060963944
73	0x00000000	0.0
74	0x3efd4a02	0.49470526
75	0x425b1580	54.770996
76	0x43572d59	215.17714
77	0x41833914	16.40287
78	0xc00e9bf5	-2.2282689
79	0x4182a010	16.328156
80	0x41557718	13.341576
81	0x00000000	0.0
82	0x00000004	6e-45
83	0x00000000	0.0
84	0x3ca5a9ab	0.020222506
85	0xc03d0ecd	-2.9540284
86	0xc0583023	-3.377938
87	0xc060555a	-3.5052094
88	0xc0fd151c	-7.908827
89	0x3be13497	0.0068727243
90	0x00000004	6e-45
91	0x4187ae79	16.960192
92	0xbed4dd59	-0.41575125
93	0x00000000	0.0
94	0x00000000	0.0
95	0x00000000	0.0
96	0x00000000	0.0
97	0x00000000	0.0
98	0x00000000	0.0
99	0x00000000	0.0
100	0x00000004	6e-45
101	0x00000000	0.0
102	0x80000004	-6e-45
103	0xbd5a3a7b	-0.053278428
104	0x00000000	0.0
105	0x00000004	6e-45
106	0x00000000	0.0
107	0xc18536e1	-16.651796
108	0x00000004	6e-45
109	0xbf7d5c3e	-0.98968875
110	0x00000000	0.0
111	0x00000000	0.0
112	0x36fffcfd	7.629044e-06
113	0x00000000	0.0
114	0x25252189	1.4322831e-16
115	0x80000004	-6e-45
116	0x3f29609a	0.6616303
117	0x00000000	0.0
118	0x00000000	0.0
119	0x00000000	0.0
120	0x80000004	-6e-45
121	0x3c20c5b2	0.009812759
122	0x00000000	0.0
123	0xbb322f19	-0.0027188717
124	0x00000000	0.0
125	0x00000000	0.0
126	0x00000004	6e-45
127	0x3e74516e	0.23859188
128	0xbdfd1c17	-0.12358873
129	0x00000004	6e-45
130	0xbc8415be	-0.016123649
131	0x00000000	0.0
132	0x422a79c1	42.6189
133	0x00000004	6e-45
134	0x00000000	0.0
135	0x3b351c46	0.002763526
136	0x00000004	6e-45
137	0x00000000	0.0
138	0xc129906f	-10.597762
139	0xc13082f8	-11.031975
140	0x3cc32c85	0.02382494
141	0xc1a7bea4	-20.968086
142	0x419ac6b4	19.347023
143	0x3f12a2ae	0.5727948
144	0x0604339e	2.4864363e-35
145	0xc0fbeddc	-7.8727856
146	0xc0a56b41	-5.1693425
147	0x00000004	6e-45
148	0xa028d1bc	-1.4299549e-19
149	0x00000000	0.0
150	0x0c676e38	1.782876e-31
151	0x412d2d96	10.823629
152	0x00000000	0.0
153	0x410fc03d	8.984433
154	0x00000000	0.0
155	0xc129906f	-10.597762
156	0xc27336b3	-60.803417
157	0x42036635	32.84981
158	0xc3d25dc8	-420.73267
159	0x41204318	10.01638
160	0x41e0e2ae	28.110683
161	0xc20d1192	-35.26716
162	0x00000000	0.0
163	0x00000004	6e-45
164	0x00000000	0.0
165	0x00000000	0.0
166	0xbf585d9e	-0.8451785
167	0x4064d0bb	3.57524
168	0x41022672	8.134386
169	0x40b2bd64	5.585619
170	0x00000000	0.0
171	0x80000004	-6e-45
172	0x41481857	12.505942
173	0x3d547927	0.051873352
174	0x00000000	0.0
175	0xbe8ad672	-0.27116734
176	0x00000000	0.0
177	0x00000000	0.0
178	0x00000004	6e-45
179	0x00000000	0.0
180	0x00000000	0.0
181	0xc03a0bb5	-2.9069645
182	0x00000000	0.0
183	0x00000000	0.0
184	0x00000004	6e-45
185	0x00000000	0.0
186	0xbb1aeac9	-0.0023638478
187	0x00000000	0.0
188	0x424b75e4	50.865128
189	0x80000004	-6e-45
190	0x39b4df39	0.0003449859
191	0x00000000	0.0
192	0x00000004	6e-45
193	0x00000000	0.0
194	0x00000000	0.0
195	0x80000004	-6e-45
196	0x00000004	6e-45
197	0xbf4db325	-0.8035148
198	0x00000000	0.0
199	0x00000000	0.0
200	0x00000000	0.0
201	0x00000000	0.0
202	0x00000004	6e-45
203	0x00000000	0.0
204	0x00000000	0.0
205	0x3fd4c606	1.6622932
206	0x00000000	0.0
207	0x00000004	6e-45
208	0x3d272e43	0.040815603
209	0x42bd2517	94.57244
210	0x00000000	0.0
211	0x00000000	0.0
212	0x00000000	0.0
213	0x3cabb3fe	0.02095985
214	0x00000000	0.0
215	0x00000000	0.0
216	0x00000000	0.0
217	0x1b974d34	2.5030746e-22
218	0x00000000	0.0
219	0xc142dd8f	-12.179091
220	0x410150a9	8.082192
221	0x00000004	6e-45
222	0x4300b114	128.69171
223	0x426e82dd	59.627796
224	0x3bdaf727	0.006682295
225	0x80000004	-6e-45
226	0x422a6817	42.60165
227	0xc137115a	-11.441736
228	0x00000000	0.0
229	0x00000000	0.0
230	0x00000000	0.0
231	0x00000004	6e-45
232	0xbfb57682	-1.4176791
233	0x00000000	0.0
234	0x00062200	5.6321e-40
235	0x00000000	0.0
236	0xc142dd91	-12.179093
237	0x4399b79b	307.43442
238	0x449a14f8	1232.6553
239	0x43823357	260.4011
240	0xc02c07de	-2.6879802
241	0x4296273c	75.07663
242	0x42f5da37	122.9262
243	0x00000004	6e-45
244	0x00000000	0.0
245	0x00000000	0.0
246	0x00000000	0.0
247	0xbf682dec	-0.9069507
248	0xbf9e9945	-1.2390524
249	0x3ff27ad3	1.8943733
250	0xbf2b173b	-0.6683232
251	0x4043eed5	3.0614522
252	0x00000004	6e-45
253	0x420c8513	35.129955
254	0x4113edc7	9.245551
255	0x00000000	0.0
